8_gym-PPO/results_seed/PPO_LunarLander-v3_1000-eps0.2-seed22.pth (torch, 44306 bytes, 11 tensors)

action_layer.0.weight f4 [64, 8]
-0.07268546 0.09828831 -0.2514512 -0.34501857 0.23060332 -0.25388968 0.3971266 0.107879646
0.21829362 0.19889864 0.21737711 0.21391426 -0.30085206 -0.4141838 0.49907866 0.48481214
-0.16043364 0.2545992 0.09296971 -0.049241602 0.26018587 -0.14835557 0.20014419 0.36060327
-0.11881083 0.0802557 0.31782427 0.07528738 -0.3049983 -0.25164798 0.2521803 -0.304636
0.13069543 -0.05910971 -0.30885696 -0.32356092 0.29055926 -0.1298315 -0.47713757 -0.05423297
0.17886347 -0.24477689 -0.26425338 -0.12713015 -0.12761945 0.016225286 -0.12157982 0.0378745
-0.12990017 0.18145451 -0.20536086 -0.41886708 0.3917334 -0.124080904 0.0074142553 0.18789417
0.0032125558 -0.3120482 -0.2145711 0.08168668 -0.023391021 0.22285989 -0.20215876 -0.4466087
-0.13104086 0.25035885 -0.07642375 0.021610033 0.44446984 0.15217213 -0.047164015 -0.10233729
-0.40437406 0.22595063 0.17915905 0.19832908 0.37993467 0.23681615 -0.46964234 0.18550281
0.06688756 -0.07217011 0.2451042 -0.3167073 -0.6335093 -0.46757284 0.10215883 -0.27425736
0.029050995 0.01843416 -0.17231967 -0.16809306 -0.05175478 0.36905605 -0.4078999 -0.2312374
-0.15838967 -0.046761632 -0.25872296 0.13929762 0.09457938 0.0018896683 -0.587517 -0.35292736
-0.08963574 0.11068419 0.053061485 0.045763496 -0.09440449 -0.09887354 0.25340042 0.517959
0.41930068 -0.28291768 0.39165547 0.15415867 0.20477691 -0.0024019494 -0.28994536 0.13902728
-0.044012234 0.2024507 -0.30992138 0.236153 -0.021528644 0.23385328 -0.46757233 -0.22975391
0.100794435 0.22175519 -0.30079564 0.45847434 0.13105577 -0.16504823 -0.13547876 -0.44876805
0.21482903 0.030839829 0.043421872 0.3350433 -0.18657503 0.021277124 -0.2830129 -0.37725714
-0.31207085 0.16921937 0.338685 -0.15627825 -0.29881936 -0.18880485 -0.06125645 -0.14427339
-0.045618333 -0.29278135 0.29204813 -0.50900537 -0.036752693 0.13470477 0.33619377 -0.11323425
0.0033829394 -0.13089469 -0.099902876 0.00895292 -0.22155216 -0.12186574 0.11959303 0.18058549
0.26992598 -0.03662724 -0.18614203 0.043604083 0.21755672 0.048053794 -0.06543431 -0.023823608
-0.0717847 -0.22305164 0.24757804 -0.45183912 -0.21991159 -0.03938796 0.38049632 0.41664994
0.09188755 -0.1630151 0.025837947 0.124977335 0.49156046 0.40545642 -0.43649757 0.3579983
0.113052 0.28168473 0.039947975 0.32229945 0.3750776 0.3410543 -0.27081665 0.5774734
-0.22821473 -0.2096491 0.356013 0.20976913 0.15582469 -0.2360817 0.13869937 -0.43359566
-0.15907174 0.0076265777 -0.047229122 0.37195322 0.27379063 0.076216266 -0.32222083 -0.17695032
-0.06091625 -0.054785594 -0.08355337 0.4368668 -0.06100984 0.10227253 -0.017190086 -0.2891596
-0.2129334 -0.2306599 0.19249114 0.27440146 -0.33523914 0.13649467 -0.56817997 -0.39939085
-0.1792249 0.11433064 0.3957589 0.33638552 -0.25002745 -0.03732076 0.30228195 0.39137948
0.16522148 -0.17820586 0.4610172 0.3925884 -0.35763586 0.0726449 0.1074339 -0.3574488
0.29779065 -0.029930029 0.4535234 0.28248605 -0.18245687 0.15651716 0.35958278 0.13824773
00000000: 1ddc 94bd 624b c93d 36be 80be 46a6 b0be
00000010: 4723 6c3e d4fd 81be 2d54 cb3e 01f0 dc3d
00000020: 5d88 5f3e 16ac 4b3e 1b98 5e3e 570c 5b3e
00000030: 4809 9abe e60f d4be 3d87 ff3e 4c39 f83e
00000040: b748 24be d45a 823e e766 be3d 90b1 49bd
00000050: 1537 853e 86ea 17be 99f2 4c3e fea0 b83e
00000060: 1853 f3bd 1a5d a43d ddb9 a23e 4530 9a3d
00000070: bd28 9cbe 01d8 80be c71d 813e 40f9 9bbe
00000080: 06d5 053e 061d 72bd 8022 9ebe c7a9 a5be
00000090: 2fc4 943e 8cf2 04be 604b f4be 6423 5ebd
000000a0: fc27 373e cba6 7abe 384c 87be 682e 02be
000000b0: acae 02be e4ea 843c d7fe f8bd 4b22 1b3d
000000c0: 8d04 05be 36cf 393e 1e4a 52be bf75 d6be
000000d0: 4891 c83e 211e febd 48f3 f23b 5467 403e
000000e0: be89 523b c8c4 9fbe 87b8 5bbe 594b a73d
000000f0: 879e bfbc 6235 643e b502 4fbe e5a9 e4be
00000100: 932f 06be 092f 803e 0e84 9cbd 8607 b13c
00000110: 8d91 e33e 03d3 1b3e 0e2f 41bd 3796 d1bd
00000120: 1e0a cfbe 9a5f 673e 7875 373e c716 4b3e
00000130: cc86 c23e ef7f 723e f674 f0be 73f4 3d3e
00000140: 58fc 883d eccd 93bd 98fc 7a3e 7627 a2be
00000150: aa2d 22bf b565 efbe a638 d13d 766b 8cbe
00000160: 5afc ed3c 3c03 973c 9174 30be 9620 2cbe
00000170: d2fc 53bd eaf4 bc3e 41d8 d0be 7fc9 6cbe
00000180: e730 22be 2089 3fbd 5677 84be 09a4 0e3e
00000190: d5b2 c13d bfae f73a 8467 16bf e5b2 b4be
000001a0: f192 b7bd 65ae e23d 0057 593d 8172 3b3d
000001b0: 2457 c1bd 367e cabd b3bd 813e f698 043f
000001c0: 94ae d63e 96da 90be 1187 c83e c5db 1d3e
000001d0: 0ab1 513e 066a 1dbb b873 94be 2b5d 0e3e
000001e0: 2c46 34bd 3c4f 4f3e 04ae 9ebe 18d2 713e
000001f0: d75c b0bc 3c77 6f3e a465 efbe 9c44 6bbe
00000200: 506d ce3d cb13 633e e301 9abe 26bd ea3e
00000210: 7c33 063e 6702 29be f2ba 0abe edc4 e5be
00000220: 24fc 5b3e cfa3 fc3c 22db 313d cc8a ab3e
00000230: 860d 3fbe 5d4d ae3c 11e7 90be d927 c1be
00000240: c0c7 9fbe d847 2d3e 1f68 ad3e 6807 20be
00000250: dafe 98be 0f56 41be 0be8 7abd 67bc 13be
00000260: 4ada 3abd 70e7 95be 5587 953e 2d4e 02bf
00000270: fe89 16bd 0cf0 093e 9721 ac3e 5ce7 e7bd
00000280: 4eb4 5d3b 4209 06be e199 ccbd 45af 123c
00000290: 92de 62be bf94 f9bd 31ed f43d 67eb 383e
000002a0: bd33 8a3e 7206 16bd 049c 3ebe 329a 323d
000002b0: 30c7 5e3e 0ed4 443d 6c02 86bd ba29 c3bc
000002c0: db03 93bd a667 64be 1985 7d3e 7557 e7be
000002d0: 8130 61be 4555 21bd 6ad0 c23e 2453 d53e
000002e0: 8a2f bc3d 6eed 26be 1aaa d33c 1ef4 ff3d
000002f0: d0ad fb3e fc97 cf3e 9c7c dfbe 8e4b b73e
00000300: cf87 e73d fb38 903e 7da0 233d 6f04 a53e
00000310: 2c0a c03e ab9e ae3e 7ba8 8abe 4cd5 133f
00000320: 1fb1 69be 41ae 56be 5647 b63e b8cd 563e
00000330: 8290 1f3e 67bf 71be 3507 0e3e 4000 debe
00000340: b4e3 22be 5fe8 f93b 5373 41bd a770 be3e
00000350: 492e 8c3e 4617 9c3d 21fa a4be 7732 35be
00000360: 5183 79bd dc66 60bd 071e abbd 01ad df3e
00000370: 74e5 79bd 4374 d13d 39d2 8cbc ba0c 94be
00000380: 370b 5abe 1c32 6cbe 661c 453e 597e 8c3e
00000390: 77a4 abbe 42c5 0b3e 3e74 11bf f57c ccbe
000003a0: bb86 37be 2f26 ea3d e9a0 ca3e b93a ac3e
000003b0: 9903 80be a7dd 18bd b3c4 9a3e e462 c83e
000003c0: d22f 293e 997b 36be 720a ec3e 5901 c93e
000003d0: 0c1c b7be d9c6 943d 4e06 dc3d 8703 b7be
000003e0: 0478 983e d22f f5bc 3834 e83e 03a2 903e
000003f0: f9d5 3abe 0946 203e 3c1b b83e d090 0d3e

action_layer.0.bias f4 [64]
0.053482994 0.08323923 -0.017112775 -0.022111803 -0.024796898 -0.21155134 0.14172588 0.033562254
-0.008837466 0.07978395 -0.14427824 -0.06674185 0.2632885 0.03321615 -0.11877814 0.09975314
-0.06672059 0.21828263 0.0859423 -0.049300812 0.06190102 0.1664707 0.19609842 0.25628403
0.20879006 0.07630934 0.11382871 -0.036913622 -0.3162962 -0.03527552 0.045773786 -0.20860788
-0.056469087 0.1337814 0.0055828644 0.13936771 0.13136923 0.2122765 -0.11851951 -0.111427724
0.13862889 0.25520715 -0.008622472 0.10982612 -0.17924446 -0.16456403 -0.17239985 -0.33005518
-0.23443894 -0.042093508 0.015969222 -0.17797785 -0.088381335 -0.16589528 -0.11130142 0.022912255
-0.08306354 -0.19015944 -0.3403503 0.10730061 -0.118460804 -0.30847448 -0.31785208 0.17798452
00000000: fc10 5b3d 5479 aa3d 1730 8cbc d023 b5bc
00000010: dd22 cbbc eaa0 58be 9720 113e 9378 093d
00000020: 05cb 10bc c465 a33d adbd 13be f3af 88bd
00000030: c0cd 863e a80d 083d f441 f3bd 604b cc3d
00000040: cea4 88bd 7b85 5f3e 8402 b03d a6ef 49bd
00000050: ed8b 7d3d 4c77 2a3e 06ce 483e a937 833e
00000060: 10cd 553e 1248 9c3d 071f e93d bd32 17bd
00000070: 93f1 a1be 107d 10bd 4b7d 3b3d 4e9d 55be
00000080: 214c 67bd fefd 083e 76f0 b63b 69b6 0e3e
00000090: a885 063e 035f 593e 5bba f2bd 3834 e4bd
000000a0: bbf4 0d3e 83aa 823e 4545 0dbc 84ec e03d
000000b0: dc8b 37be 7983 28be 9689 30be fefc a8be
000000c0: c310 70be 3e6a 2cbd e3d1 823c d33f 36be
000000d0: 4601 b5bd 74e0 29be 00f2 e3bd 7bb2 bb3c
000000e0: 381d aabd 28b9 42be 6542 aebe 6cc0 db3d
000000f0: 949b f2bd 5ef0 9dbe 82bd a2be 9341 363e

action_layer.2.weight f4 [64, 64]
0.029269222 0.090708494 0.033238456 0.005497661 -0.011112317 0.050075244 0.108733065 0.0061379857
-0.08994869 -0.1338055 0.023814254 0.010614431 0.1074717 -0.07784556 -0.08149655 0.007848805
-0.082517624 -0.06407333 0.014039991 0.005784394 -0.030535417 0.043843083 0.23825803 -0.009160192
-0.08500456 0.055997215 -0.009695439 -0.09271246 0.02726556 0.010669744 -0.020358816 0.03976773
-0.07993151 0.08326774 0.073719904 0.15750134 0.13692304 -0.00588421 -0.016576529 -0.14542748
-0.24933831 -0.04724046 -0.13733219 0.059883904 -0.042990018 0.051727027 -0.107523285 -0.015700992
0.1640145 0.152877 0.017064722 0.04720978 0.104348674 0.06474547 -0.07238119 0.07461984
-0.040872682 -0.061270293 -0.15772195 -0.09205161 -0.030350557 0.11523088 0.08481839 0.107834764
0.043359198 0.07972114 -0.041722976 0.106600694 0.14900054 0.044291474 0.07323294 0.03197583
0.13597706 0.0027443906 -0.08946171 0.027728945 -0.110410035 0.095042065 -0.08663643 -0.07576558
-0.067544565 -0.04142201 -0.030951753 -0.02664516 -0.018228749 0.0782945 0.121646725 -0.024674911
-0.056230538 0.00893387 -0.12919389 -0.10532548 -0.08582645 0.11049529 -0.13670507 0.09450377
-0.10476688 -0.047614664 -0.123705216 0.091301054 0.0064463117 -0.12668286 -0.10776557 -0.05626078
-0.017716754 -0.023189206 0.115891404 0.047936175 -0.11862696 0.12762919 -0.03900586 0.04771714
-0.04998066 -0.089522965 0.064846665 -0.0035145532 0.062511675 -0.15792814 -0.029092284 -0.0039827516
0.0602316 -0.0425338 0.046590444 -0.0070993705 0.095023654 -0.07581098 -0.07115617 0.073959224
0.059758577 0.037474465 0.10328524 0.07563448 0.23529808 -0.03283581 0.10103576 0.095210865
-0.07024198 -0.07650905 0.06442531 0.016318368 0.07035292 0.0021471842 -0.018766908 0.12181749
0.0396041 0.0109627545 -0.07267654 -0.1436159 -0.11370125 0.096803926 0.07643609 0.085157
0.04323334 0.0015661235 0.019880595 0.08227451 0.050885003 -0.11574135 -0.09600899 0.016946647
-0.09142562 0.038348276 0.060970347 0.024316989 0.021883164 -0.055415154 0.06347779 -0.036287747
-0.09289496 -0.18404491 0.13130334 -0.06420458 0.084403 0.06631167 0.107380286 0.0491089
-0.02595208 0.041073907 -0.022595065 -0.015134131 0.024558319 -0.037892926 -0.055722114 -0.04412526
-0.071371354 -0.11789519 -0.059411954 -0.07510037 -0.00755345 0.038540974 -0.009585144 -0.011082685
-0.070743956 0.08888841 0.082254775 -0.1511979 0.04674017 -0.030168885 0.11733738 -0.13171414
-0.05142315 0.16353758 0.009282695 0.0297597 0.18258049 -0.058156654 0.08867461 0.07388508
0.09452995 0.055386234 0.03283911 -0.0009718492 0.1356594 0.11245825 0.08732524 0.014872239
0.16865695 0.11455262 0.17012338 0.1271666 0.06931442 0.17976984 -0.114488795 -0.13430709
0.12809648 -0.044326104 0.058690988 -0.08920582 0.04369577 -0.053881478 -0.044788208 0.039250005
-0.09582301 0.013093429 0.03504706 -0.12016349 -0.11699725 0.021178711 0.10738715 0.17346488
-0.11600475 -0.051454585 -0.0026502043 0.0441548 -0.10773377 -0.1520828 -0.044387747 -0.00048174843
0.039611083 0.035514586 -0.029472949 -0.07566304 0.12660553 -0.029603679 -0.042910665 -0.047496833
00000000: 02c6 ef3c 60c5 b93d 0c25 083d b925 b43b
00000010: 7010 36bc b31b 4d3d 71af de3d 2821 c93b
00000020: 0537 b8bd 4f04 09be 1c16 c33c 27e8 2d3c
00000030: 1f1a dc3d 7e6d 9fbd aae7 a6bd 4698 003c
00000040: 00ff a8bd e138 83bd fe07 663c 048b bd3b
00000050: 6925 fabc ce94 333d eaf9 733e a114 16bc
00000060: df16 aebd 565d 653d 9ed9 1ebc 08e0 bdbd
00000070: 065c df3c 26d0 2e3c 88c7 a6bc 7de3 223d
00000080: 22b3 a3bd 4788 aa3d 76fa 963d 0848 213e
00000090: 8e35 0c3e 55d0 c0bb 80cb 87bc f1ea 14be
000000a0: 8b52 7fbe 367f 41bd cfa0 0cbe d348 753d
000000b0: 4d16 30bd b8df 533d 2b35 dcbd 5e9f 80bc
000000c0: 6bf3 273e ca8b 1c3e 51cb 8b3c 0b5f 413d
000000d0: c2b4 d53d 4699 843d 973c 94bd 49d2 983d
000000e0: 1d6a 27bd 8ff6 7abd dd81 21be 8e85 bcbd
000000f0: bba1 f8bc 2bfe eb3d 44b5 ad3d 79d8 dc3d
00000100: 6a99 313d d644 a33d b6e5 2abd 7751 da3d
00000110: 9993 183e fa6a 353d 27fb 953d 17f9 023d
00000120: 923d 0b3e 3cdb 333b b337 b7bd d027 e33c
00000130: a81e e2bd 6aa5 c23d 716e b1bd fc2a 9bbd
00000140: ce54 8abd 20aa 29bd 888e fdbc f346 dabc
00000150: 7554 95bc de58 a03d eb21 f93d 0a23 cabc
00000160: fe51 66bd 5e5f 123c 674b 04be e3b4 d7bd
00000170: c7c5 afbd 5b4b e23d 6afc 0bbe 318b c13d
00000180: 0590 d6bd 9807 43bd 2959 fdbd 0cfc ba3d
00000190: 953b d33b 27b9 01be 32b4 dcbd b471 66bd
000001a0: ba22 91bc 4af7 bdbc 7958 ed3d b958 443d
000001b0: b1f2 f2bd 3ab1 023e 9cc4 1fbd 0c73 433d
000001c0: 85b8 4cbd d157 b7bd 54ce 843d 6b54 66bb
000001d0: 1f06 803d eab7 21be f152 eebc be81 82bb
000001e0: 69b5 763d ec37 2ebd 9fd5 3e3d d6a1 e8bb
000001f0: c39b c23d c942 9bbd 53ba 91bd ef77 973d
00000200: 69c5 743d d37e 193d 3687 d33d 40e6 9a3d
00000210: fbf1 703e d87e 06bd d6eb ce3d eafd c23d
00000220: 07db 8fbd c7b0 9cbd 6bf1 833d 19ae 853c
00000230: 3115 903d c6b7 0c3b 0fbd 99bc 737b f93d
00000240: e937 223d 209d 333c 70d7 94bd 0c10 13be
00000250: 33dc e8bd 2341 c63d 868a 9c3d cb66 ae3d
00000260: 7115 313d 6246 cd3a a1dc a23c 8a7f a83d
00000270: cb6c 503d cd09 edbd 5da0 c4bd b2d3 8a3c
00000280: 5b3d bbbd 1513 1d3d 0bbc 793d 6c34 c73c
00000290: 5244 b33c 00fb 62bd a500 823d 76a2 14bd
000002a0: b63f bebd 4576 3cbe 6274 063e b17d 83bd
000002b0: 7bdb ac3d 6ace 873d 32ea db3d 6a26 493d
000002c0: 7599 d4bc 1d3d 283d 4919 b9bc 25f5 77bc
000002d0: 872e c93c 9d35 1bbd df3c 64bd b0bc 34bd
000002e0: 252b 92bd 0973 f1bd f359 73bd 39ce 99bd
000002f0: ee82 f7bb 24dd 1d3d 020b 1dbc 2694 35bc
00000300: 35e2 90bd 200b b63d 3175 a83d 9fd3 1abe
00000310: 9f72 3f3d bd24 f7bc 954e f03d 12e0 06be
00000320: 15a1 52bd 6576 273e 7216 183c 9dca f33c
00000330: 61f6 3a3e ac35 6ebd 099b b53d 1051 973d
00000340: eb98 c13d addc 623d 4d82 063d b2c3 7eba
00000350: 4cea 0a3e 8350 e63d 93d7 b23d b1aa 733c
00000360: 68b4 2c3e 909a ea3d d334 2e3e f637 023e
00000370: b8f4 8d3d 9615 383e 1a79 eabd cc87 09be
00000380: b92b 033e 4a8f 35bd f665 703d 8ab1 b6bd
00000390: 56fa 323d d3b2 5cbd d773 37bd 9dc4 203d
000003a0: db3e c4bd d285 563c 828d 0f3d 4718 f6bd
000003b0: 419c efbd fa7e ad3c cbed db3d c7a0 313e
000003c0: e693 edbd 0bc2 52bd 0daf 2dbb aadb 343d
000003d0: 86a3 dcbd 98bb 1bbe edcf 35bd 2e93 fcb9
000003e0: 3b3f 223d be77 113d 4171 f1bc 39f5 9abd
000003f0: e1a4 013e 6a83 f2bc 18c3 2fbd 0a8c 42bd

action_layer.2.bias f4 [64]
-0.06378991 -0.0407025 0.099836364 -0.10486465 0.12899081 -0.048277225 0.1095217 0.011745062
0.082898654 -0.12287167 0.017865146 -0.095488094 0.1010022 0.044909973 -0.1056724 -0.05620938
0.08519205 0.08274495 0.019852504 -0.0489284 -0.04470004 0.03413853 -0.05840103 0.11002694
-0.08481366 0.06044645 0.07103122 -0.09161928 0.10684571 0.039957017 0.108542465 -0.0038429112
-0.014716102 -0.08448732 -0.10301526 0.071333274 0.014634455 -0.061824888 0.098809846 0.01246263
-0.06940435 0.09617832 -0.0669888 -0.02759519 0.0244641 0.06363218 0.04381453 -0.09844485
0.04302856 0.021828786 -0.11580945 0.14222714 0.11333392 0.0149729205 -0.028173022 0.07137184
-0.010776967 -0.1079495 -0.049695555 0.12498461 0.035241876 0.06664482 0.022989625 -0.011215304
00000000: 49a4 82bd aab7 26bd 0277 cc3d 47c3 d6bd
00000010: 2b16 043e 57be 45bd ea4c e03d 5c6e 403c
00000020: c5c6 a93d 24a4 fbbd ed59 923c 438f c3bd
00000030: 3eda ce3d 85f3 373d c56a d8bd cf3b 66bd
00000040: 2b79 ae3d 2f76 a93d b8a1 a23c 2569 48bd
00000050: 6417 37bd d8d4 0b3d eb35 6fbd ce55 e13d
00000060: c9b2 adbd b296 773d d178 913d e4a2 bbbd
00000070: ecd1 da3d f8a9 233d 834b de3d 5ad9 7bbb
00000080: ce1b 71bc b007 adbd aaf9 d2bd 2e17 923d
00000090: 5ac5 6f3c 183c 7dbd d15c ca3d 0f30 4c3c
000000a0: de23 8ebd 24f9 c43d 6d31 89bd 4f0f e2bc
000000b0: f068 c83c 9751 823d dd76 333d 749d c9bd
000000c0: b73e 303d 48d2 b23c 812d edbd fea3 113e
000000d0: 9d1b e83d fb50 753c 1ccb e6bc 662b 923d
000000e0: e091 30bc a114 ddbd 918d 4bbd eef7 ff3d
000000f0: c959 103d 147d 883d bd54 bc3c 65c0 37bc

action_layer.4.weight f4 [4, 64]
0.027859487 0.026864644 0.08526743 -0.02193686 0.12681091 0.0055042123 -0.04413772 0.06989147
-0.076659866 -0.014552133 -0.015636131 -0.06741219 -0.018727424 -0.002473069 0.07016459 -0.04107531
-0.13839194 0.07586316 0.040566053 -0.11465074 -0.041392677 -0.1025999 0.0009153641 -0.0025862977
-0.04307273 -0.006653979 -0.018692581 -0.08702514 -0.1505271 -0.09238351 -0.053350404 -0.02903737
-0.010395862 0.06789564 0.027455736 -0.05429079 0.052230746 0.105256744 -0.12935494 0.015681386
0.036467493 -0.1130422 -0.0409959 0.050121658 0.005251424 0.06227096 0.0033367495 -0.12083111
0.058024798 0.059364565 0.11560051 -0.055376645 0.059287228 0.057914767 0.023122136 -0.07209063
-0.13779977 0.016542977 0.074061885 -0.047970843 -0.0067784693 0.07077503 0.106691286 -0.05671117
0.079778954 -0.064738214 -0.029315375 -0.05956213 0.055976607 0.090233386 -0.1966033 0.03998443
-0.064247586 0.05081292 0.1605434 -0.009404982 -0.15506507 -0.00019922736 0.19514218 -0.13284454
-0.051146254 -0.19024087 0.035898082 -0.16556929 0.090219036 -0.02978376 0.065662734 -0.036121424
-0.10131044 0.031446762 0.1766624 0.09919082 0.15435268 -0.16262455 -0.05701152 0.0017703009
-0.116063744 0.014694622 -0.10742697 0.066434674 -0.09747427 -0.08151106 0.1286743 -0.07882385
-0.0011752591 0.17263609 0.09669115 0.15461187 0.04952808 -0.16084827 -0.09823134 0.036080915
0.08917746 -0.05812876 -0.12057587 -0.044014093 0.06307909 -0.08545149 0.16002123 -0.20888491
0.19258995 0.012786816 -0.0978611 0.014132293 -0.04242925 0.05786908 -0.10383467 -0.15198667
0.16001529 0.024299946 0.06510159 -0.12882672 -0.03064517 -0.03869742 0.049653664 0.19134177
0.035308827 -0.06803748 -0.13815404 0.06492746 0.22918315 -0.05071435 -0.10629444 0.10896862
0.008117681 0.03527327 -0.0061346376 0.1720708 -0.16731201 0.17442907 -0.08882353 0.20755315
0.10916801 0.11997354 0.12594786 -0.09347318 0.09882641 0.107213505 0.20049323 0.04595774
0.147707 -0.2884887 0.10855518 0.10979638 -0.017180892 -0.06200479 0.029123617 -0.024023497
0.118865006 0.13034311 -0.06600319 -0.010063532 0.019602055 0.119954966 -0.078121714 -0.11583312
-0.07257974 -0.051546358 -0.28995553 0.01623442 -0.10816931 -0.048166987 -0.09545333 -0.05490708
0.0638516 0.01565527 -0.15760414 0.04446793 -0.11063204 0.10482452 -0.012685316 0.03990388
-0.10374456 -0.043670572 0.02631595 -0.06757714 0.016121365 0.15988153 0.06550969 -0.034131467
-0.07487036 0.03185821 0.005963819 -0.016126897 0.087522395 -0.019862702 -0.095934525 -0.031063136
-0.14107125 0.072944775 -0.03402977 -0.089409575 0.06981685 -0.003428886 0.0034368795 -0.0031824957
0.17077878 0.11825858 0.032328777 0.10754133 -0.12932675 -0.118338846 -0.038943496 -0.08451891
-0.066400066 0.19121264 0.03524643 -0.13528065 0.07730292 0.18391173 -0.04328837 0.035107046
0.05980001 -0.14512269 0.09100543 -0.13611937 -0.011440191 -0.015397838 -0.11517828 -0.045413468
-0.0038958387 -0.14077565 0.24208066 -0.15966353 -0.047786873 0.108561754 0.12360965 0.1904854
-0.21080156 -0.025844067 -0.0819207 -0.02599334 0.0268248 -0.15860468 0.015345099 0.12866016
00000000: 9439 e43c 3e13 dc3c b1a0 ae3d eeb4 b3bc
00000010: b8da 013e ae5c b43b c1c9 34bd 4223 8f3d
00000020: d9ff 9cbd 126c 6ebc 5817 80bc 670f 8abd
00000030: 416a 99bc 3613 22bb 74b2 8f3d 963e 28bd
00000040: 9eb6 0dbe 255e 9b3d 9728 263d 02ce eabd
00000050: 5e8b 29bd e51f d2bd 0bf5 6f3a e07e 29bb
00000060: 086d 30bd 9f09 dabb 2f21 99bc 3d3a b2bd
00000070: c723 1abe 9133 bdbd f485 5abd c7df edbc
00000080: 6853 2abc df0c 8b3d daea e03c 0560 5ebd
00000090: e8ef 553d d990 d73d 9f75 04be 4076 803c
000000a0: f05e 153d ab82 e7bd 51eb 27bd 5e4c 4d3d
000000b0: 2314 ac3b d60f 7f3d 5ead 5a3b 4d76 f7bd
000000c0: 69ab 6d3d 4228 733d f6bf ec3d 9fd2 62bd
000000d0: 2ad7 723d 0938 6d3d a26a bd3c 41a4 93bd
000000e0: 621b 0dbe 2385 873c c2ad 973d 137d 44bd
000000f0: ec1d debb 80f2 903d f680 da3d f949 68bd
00000100: 2663 a33d 7895 84bd cc26 f0bc 6cf7 73bd
00000110: ba47 653d 48cc b83d 6052 49be b7c6 233d
00000120: 3d94 83bd 3521 503d 7d65 243e 5b17 1abc
00000130: 61c9 1ebe b0e7 50b9 5ad3 473e 6608 08be
00000140: bc7e 51bd 81ce 42be de09 133d ff8a 29be
00000150: c2c4 b83d 12fd f3bc 2f7a 863d 0ff4 13bd
00000160: d97b cfbd 52ce 003d fde6 343e 8e24 cb3d
00000170: a10e 1e3e 0d87 26be e984 69bd 7109 e83a
00000180: d4b2 edbd b6c1 703c ac02 dcbd e70e 883d
00000190: 97a0 c7bd 45ef a6bd 32c3 033e 666e a1bd
000001a0: 270b 9aba 84c7 303e 0206 c63d 9352 1e3e
000001b0: f5dd 4a3d 69b5 24be 832d c9bd 95c9 133d
000001c0: aca2 b63d 6c18 6ebd 7bf0 f6bd 1f48 34bd
000001d0: 9c2f 813d 3101 afbd 9bdc 233e ede5 55be
000001e0: 4d36 453e cb7f 513c 676b c8bd 228b 673c
000001f0: 4bca 2dbd 2108 6d3d 45a7 d4bd 65a2 1bbe
00000200: 0cdb 233e ae10 c73c fb53 853d 27eb 03be
00000210: 940b fbbc 3081 1ebd a461 4b3d 19ef 433e
00000220: fd9f 103d 3c57 8bbd 4178 0dbe b0f8 843d
00000230: fdae 6a3e dab9 4fbd e6b0 d9bd f12a df3d
00000240: 0600 053c b47a 103d 1205 c9bb 5433 303e
00000250: d753 2bbe 899d 323e 1ce9 b5bd d088 543e
00000260: 7a93 df3d b0b4 f53d 7af8 003e de6e bfbd
00000270: 8065 ca3d c192 db3d 194e 4d3e 2f3e 3c3d
00000280: 8140 173e cab4 93be 2e52 de3d eddc e03d
00000290: f1be 8cbc bcf8 7dbd a794 ee3c edcc c4bc
000002a0: 7f6f f33d aa78 053e ae2c 87bd 83e1 24bc
000002b0: 7d94 a03c f3aa f53d 47fe 9fbd ea39 edbd
000002c0: b0a4 94bd 4622 53bd 0d75 94be 0cfe 843c
000002d0: df87 ddbd bf4a 45bd 097d c3bd 3fe6 60bd
000002e0: a1c4 823d 7b3f 803c fb62 21be 0124 363d
000002f0: 0d93 e2bd 3dae d63d 12d6 4fbc 4072 233d
00000300: 0778 d4bd eadf 32bd 8c94 d73c e265 8abd
00000310: f410 843c fcb7 233e f229 863d 70cd 0bbd
00000320: a255 99bd c17d 023d 246c c33b 8e1c 84bc
00000330: f13e b33d 1bb7 a2bc 5279 c4bd 1e78 febc
00000340: fb74 10be 1264 953d cd62 0bbd 5e1c b7bd
00000350: 23fc 8e3d 29b7 60bb 453d 613b 6b91 50bb
00000360: a2e0 2e3e 8e31 f23d 2e6b 043d a13e dc3d
00000370: 3b6e 04be a35b f2bd 3783 1fbd 4018 adbd
00000380: c2fc 87bd 3fcd 433e 905e 103d 0387 0abe
00000390: fe50 9e3d 5b53 3c3e 254f 31bd 68cc 0f3d
000003a0: dbf0 743d 0b9b 14be 0e61 ba3d e062 0bbe
000003b0: a46f 3bbc 3747 7cbc 97e2 ebbd 7903 3abd
000003c0: 5451 7fbb 7e27 10be fee3 773e d67e 23be
000003d0: 2bbc 43bd a055 de3d 0e27 fd3d 9b0e 433e
000003e0: 5ddc 57be f0b6 d3bc 0ac6 a7bd fcef d4bc
000003f0: afbf db3c 4469 22be 036a 7b3c 7dbf 033e

action_layer.4.bias f4 [4]
0.07086586 0.06730481 -0.07516297 -0.030190524
00000000: 1f22 913d 1bd7 893d 0bef 99bd 1e52 f7bc

value_layer.0.weight f4 [64, 8]
0.312379 0.075675115 -0.3296383 0.12603725 -0.035842 -0.042051625 -0.24260527 0.17281859
0.007933482 -0.008067931 0.1619787 0.26025286 -0.2845295 0.062803306 -0.06241474 0.10833133
0.041058782 0.305498 -0.24049544 -0.27305934 0.16625622 -0.14805695 -0.0019614303 0.02182242
0.3348403 -0.22178099 -0.11166359 -0.22341286 -0.29054046 -0.120052375 0.01963804 0.21061936
-0.2171351 0.013582101 0.24155958 0.21716699 0.15208164 -0.32749534 0.26971334 0.16639577
0.055907097 -0.22254786 0.21120079 -0.24726783 -0.19754595 0.10486644 -0.018748645 0.2397765
-0.22764267 0.04430221 -0.01170054 0.2846248 0.27142346 0.10433017 0.21353269 -0.058959957
-0.21611704 -0.29214025 0.36209056 0.35202733 -0.14544143 0.0848547 0.057218157 0.21248396
0.27333313 0.15862194 -0.33375975 -0.2569333 0.16902292 0.14835237 0.37049252 0.1523043
-0.27245042 0.26340207 -0.10199623 0.28435785 -0.1078122 -0.28361353 0.22380297 -0.24166848
-0.15641323 -0.2034844 -0.23428835 0.031913478 0.22976127 0.3148061 0.24652928 -0.17377165
0.30214423 0.031661995 0.31061652 -0.2511166 0.29172832 -0.29863527 0.19693704 -0.0839306
-0.35221624 0.04567758 0.065143235 0.009524686 -0.3759462 -0.079309896 0.07828278 0.028545355
-0.15748695 0.20282255 0.2201809 -0.07711798 0.1066537 0.08489727 -0.21084028 -0.120880455
-0.106807336 0.14393374 0.26325783 0.00089501723 -0.21788853 0.15023382 -0.2549745 0.15815553
-0.1671742 0.16379353 0.26197407 0.08048681 -0.32968315 0.33606064 0.04754552 0.11162461
-0.0109383995 0.15966806 0.18633562 -0.13874115 0.15620866 0.04353421 -0.26432803 0.266086
-0.28038174 0.22376664 -0.123888776 0.17431507 -0.23374398 -0.09467462 0.1519161 -0.121862635
-0.07879018 0.13729593 -0.03303535 -0.14976716 0.2674135 0.0069204518 -0.1498108 -0.26424658
-0.31630525 0.05642053 0.3134654 -0.086722985 0.23873116 0.1383284 -0.15038753 0.0014517162
0.12508374 -0.14230849 -0.03786927 -0.35175905 0.26401898 -0.287712 0.030844789 -0.06279273
-0.22111633 0.23987283 0.13457486 -0.17191155 0.22160792 -0.10908551 -0.18037936 -0.30233207
0.25896654 -0.25526056 0.1733754 -0.22762355 -0.07391006 0.2969335 -0.07469564 -0.014085069
0.13262524 -0.16361026 -0.086807206 -0.15795825 -0.20784076 0.10336277 -0.36253497 -0.0153923435
0.13379855 -0.11650367 -0.2809416 -0.02694453 0.043815274 -0.212143 0.12227014 0.2786237
0.054136183 -0.24854831 -0.34471893 -0.2701501 -0.25388557 -0.05128596 0.2369692 0.021419356
-0.3048988 0.23430575 -0.27421075 -0.003374776 0.31667817 -0.16823043 0.084769614 -0.23595293
0.07441051 -0.065191835 0.019689605 -0.0017199678 0.065308474 0.023373842 0.24284308 -0.15068322
0.1797539 -0.08652302 -0.30281606 0.26476294 -0.15511198 -0.15486644 0.27705637 -0.1985156
0.04137449 0.2586657 -0.046411477 0.28514877 -0.22427842 -0.3501181 0.054400545 0.001028594
-0.1250975 0.033349413 0.25612205 0.1803778 0.279628 0.22788328 -0.18534477 -0.074505076
0.19812344 0.12148912 0.17915781 0.06260712 0.23054068 0.13201258 0.21642563 0.31894305
00000000: 24f0 9f3e 8efb 9a3d 5ac6 a8be e90f 013e
00000010: 10cf 12bd 533e 2cbd 846d 78be 5bf7 303e
00000020: 6ffb 013c 5b2f 04bc bfdd 253e dd3f 853e
00000030: daad 91be 059f 803d 99a6 7fbd d1dc dd3d
00000040: 412d 283d 3c6a 9c3e 7044 76be 6fce 8bbe
00000050: 123f 2a3e 3e9c 17be 578b 00bb efc4 b23c
00000060: 3070 ab3e 8e1a 63be e1af e4bd 57c6 64be
00000070: b8c1 94be 05de f5bd f4df a03c 9aac 573e
00000080: aa58 5ebe 7687 5e3c 655b 773e 0661 5e3e
00000090: 4abb 1b3e 78ad a7be de17 8a3e a763 2a3e
000000a0: d7fe 643d 96e3 63be 0545 583e c733 7dbe
000000b0: 7c49 4abe 37c4 d63d c296 99bc f987 753e
000000c0: 291b 69be 3c76 353d 9fb3 3fbc 57ba 913e
000000d0: 04f8 8a3e 0eab d53d 50a8 5a3e ff7f 71bd
000000e0: c94d 5dbe 6893 95be ef63 b93e ed3c b43e
000000f0: 99ee 14be 4dc8 ad3d 965d 6a3d 6595 593e
00000100: 52f2 8b3e ca6d 223e 8fe2 aabe c38c 83be
00000110: 5814 2d3e afe9 173e 32b1 bd3e a9f5 1b3e
00000120: 9f7e 8bbe a3dc 863e 66e3 d0bd 5a97 913e
00000130: a5cc dcbd cb35 91be 9b2c 653e f177 77be
00000140: ca2a 20be 375e 50be 49e9 6fbe b5b7 023d
00000150: 8a46 6b3e 442e a13e 2c72 7c3e 32f1 31be
00000160: a6b2 9a3e 02b0 013d 2109 9f3e 5b92 80be
00000170: 6a5d 953e b9e6 98be dda9 493e cee3 abbd
00000180: b055 b4be 6a18 3b3d d169 853d 6e0d 1c3c
00000190: 057c c0be 3a6d a2bd b952 a03d f3d7 e93c
000001a0: 4244 21be b7b0 4f3e 1a77 613e 08f0 9dbd
000001b0: 416d da3d 9fde ad3d 84e6 57be 2c90 f7bd
000001c0: cebd dabd 5e63 133e bbc9 863e 979f 6a3a
000001d0: 2c1e 5fbe e5d6 193e 058c 82be 86f3 213e
000001e0: b72f 2bbe 7eb9 273e 7721 863e 45d6 a43d
000001f0: 3bcc a8be 2410 ac3e 17bf 423d 729b e43d
00000200: f936 33bc 0680 233e c4ce 3e3e 2912 0ebe
00000210: 2af5 1f3e ee50 323d 0156 87be 6d3c 883e
00000220: 328e 8fbe 1523 653e 66b9 fdbd a67f 323e
00000230: 955a 6fbe c4e4 c1bd e58f 1b3e 1e93 f9bd
00000240: bf5c a1bd 4e97 0c3e 1350 07bd 905c 19be
00000250: 6cea 883e f5c4 e23b 0168 19be 544b 87be
00000260: c3f2 a1be 3719 673d 897e a03e d29b b1bd
00000270: f175 743e f6a5 0d3e 30ff 19be 8347 be3a
00000280: f415 003e 51b9 11be cf1c 1bbd c319 b4be
00000290: 7f2d 873e fd4e 93be 36ae fc3c 7a99 80bd
000002a0: 526c 62be 39a1 753e fecd 093e 9509 30be
000002b0: 30ed 623e 3968 dfbd 5eb5 38be 45cb 9abe
000002c0: 4397 843e 83b1 82be 5289 313e 2616 69be
000002d0: 285e 97bd ab07 983e 07fa 98bd 10c5 66bc
000002e0: e9ce 073e 7389 27be fac7 b1bd cfbf 21be
000002f0: 35d4 54be dcaf d33d 2f9e b9be 2b30 7cbc
00000300: 7d02 093e 7a99 eebd 94d7 8fbe c6ba dcbc
00000310: a577 333d 043c 59be c468 fa3d c4a7 8e3e
00000320: e7bd 5d3d 7383 7ebe 007f b0be 1d51 8abe
00000330: 4afd 81be 3a11 52bd 0ea8 723e a577 af3c
00000340: b21b 9cbe d9ed 6f3e 5a65 8cbe 592b 5dbb
00000350: a423 a23e 9944 2cbe b19b ad3d a59d 71be
00000360: 8a64 983d 4c83 85bd 184c a13c 8b70 e1ba
00000370: 73c0 853d 807a bf3c dbab 783e b44c 1abe
00000380: 6811 383e fb32 b1bd b50a 9bbe 028f 873e
00000390: add5 1ebe 4f95 1ebe 55da 8d3e ac47 4bbe
000003a0: 4c78 293d d56f 843e f619 3ebd 05ff 913e
000003b0: 3ea9 65be ae42 b3be 1bd3 5e3d e3d1 863a
000003c0: 8f19 00be 6599 083d 6e22 833e f5b4 383e
000003d0: 672b 8f3e 3c5a 693e 05cb 3dbe 1e96 98bd
000003e0: dfe0 4a3e 4acf f83d 2575 373e 2938 803d
000003f0: db12 6c3e 4e2e 073e ae9e 5d3e 814c a33e

value_layer.0.bias f4 [64]
-0.07021203 0.15133522 -0.04683184 -0.28449926 0.25893822 0.17479974 -0.02305508 -0.18119787
0.092940845 -0.2536762 -0.04216565 -0.20629175 0.23217443 0.06584938 -0.33712074 0.22473752
-0.10716316 0.20788743 -0.11010661 -0.042470407 -0.25613967 0.24671523 -0.26811355 -0.10888054
-0.08954845 -0.09701061 -0.2234934 0.2695667 -0.124897845 -0.2967839 0.0713126 -0.058714394
0.09647833 0.31404307 -0.11607382 0.07622667 0.0005825105 0.047842145 -0.16680953 -0.0701882
-0.1990483 0.2096595 -0.17209311 -4.1285133e-05 -0.21350344 -0.2240236 0.32472783 0.30468076
-0.23018421 0.3397158 -0.1253629 0.08525449 -0.11663422 0.17180437 -0.15715078 -0.027064309
0.003587411 -0.035429507 0.0114012435 -0.052474543 0.24236098 -0.09081336 0.118110634 0.23279959
00000000: 53cb 8fbd 9ff7 1a3e bed2 3fbd e3a9 91be
00000010: 8d93 843e b4fe 323e 02de bcbc ef8b 39be
00000020: c557 be3d d9e1 81be e3b5 2cbd 253e 53be
00000030: 22bf 6d3e 0adc 863d 179b acbe 9821 663e
00000040: 5c78 dbbd 71e0 543e 937f e1bd 73f5 2dbd
00000050: bd24 83be eba2 7c3e 2e46 89be c3fc debd
00000060: 2e65 b7bd 80ad c6bd 74db 64be a604 8a3e
00000070: 71ca ffbd 0ff4 97be 570c 923d 817e 70bd
00000080: 6e96 c53d 41ca a03e 1cb8 edbd ba1c 9c3d
00000090: 9eb3 183a 20f6 433d 1ed0 2abe d5be 8fbd
000000a0: 51d3 4bbe fbb0 563e 2d39 30be 9329 2db8
000000b0: a5a0 5abe 7166 65be ba42 a63e 1eff 9b3e
000000c0: 69b5 6bbe 3bef ad3e 225f 00be e899 ae3d
000000d0: ecdd eebd 7ced 2f3e 22ec 20be f8b5 ddbc
000000e0: c51a 6b3b 881e 11bd 48cc 3a3c 8cef 56bd
000000f0: 7a2d 783e 5bfc b9bd fde3 f13d 0463 6e3e

value_layer.2.weight f4 [64, 64]
-0.07713218 -0.11457761 0.10660799 0.048080746 0.042048387 0.084959775 -0.061780453 0.11198608
0.09176434 -0.09021688 0.10430609 -0.044458933 0.04584097 0.10498772 -0.08006091 0.042662736
-0.001963894 0.017347751 0.042402375 -0.09487643 -0.009357217 0.0042860126 0.084002584 -0.046050444
-0.08042306 0.042657237 -0.09485959 0.12540282 -0.006443466 0.010262081 -0.053030264 -0.013366586
-0.0998005 0.0015846821 -0.048340667 -0.06865508 -0.08414537 -0.11416928 0.09580607 0.006729894
0.046544675 -0.07887477 0.03353381 -0.064475186 0.026922146 -0.01125655 0.034490626 0.060490806
-0.04434731 0.03273928 -0.063958995 -0.11489381 -0.033281207 -0.118920185 -0.1354722 0.042061258
-0.019459259 0.11704869 0.11024049 0.05069552 0.09535173 0.026561387 -0.12229156 0.030312521
-0.019081362 -0.015892865 0.11692027 0.045795903 -0.056600295 -0.10469952 0.109762274 -0.040891666
0.06621133 -0.06749313 0.05592562 0.011059958 0.082329705 0.059577465 -0.116041206 0.01438358
0.06349709 -0.03261683 0.0039403196 0.02838667 0.070636466 -0.08784827 0.014523357 0.061383862
-0.02459824 0.02676099 -0.005270813 -0.017128931 0.105531454 0.10115172 0.029855609 0.016614836
0.07461814 -0.00968423 0.087440886 -0.07218437 0.06258247 -0.10539229 -0.10388049 -0.04033293
-0.047004722 0.12031066 -0.075700425 0.017367925 -0.06534565 -0.114235036 -0.061155636 -0.10465269
0.007313782 0.004806967 0.116838075 0.10818071 0.08349076 -0.098300636 -0.004433139 -0.1034347
0.003777934 0.050987702 0.12003845 -0.025869869 -0.11809712 -0.10295075 -0.02966868 -0.10100392
-0.003968915 -0.04997006 -0.063127324 -0.009270306 0.002924594 0.067790695 -0.10437421 0.0016882007
0.106072724 0.099724494 -0.05305982 0.015760222 0.015336606 0.12518582 0.06682172 -0.028861856
-0.0932758 0.002661006 -0.0763256 0.03781972 0.10925698 -0.07832718 -0.10035326 -0.035006076
-0.12540993 -0.111101985 -0.017388528 0.016826378 0.058552187 0.10936794 -0.035333276 0.02426663
-0.039198034 0.06302033 0.07282388 0.017502755 -0.0294951 0.01922558 0.057779405 -0.020881971
-0.072635785 -0.064251706 0.04696473 -0.031319875 0.058951423 0.07216203 -0.0892746 0.050687507
0.0218605 0.017209224 0.062461935 0.040582843 -0.0012611739 0.0055015995 -0.10243412 0.006263293
-0.066518076 0.0028037974 -0.07371199 0.11520221 -0.10173398 0.095950745 0.04927908 0.050246827
0.10671849 0.04026398 0.082902975 -0.05422579 0.03754439 -0.02103303 -0.033522956 0.0661098
0.08544761 -0.09320356 0.057026625 0.08853048 -0.0061413907 -0.099038154 0.063805856 -0.04959153
-0.06267581 0.02666333 -0.10148948 0.018837309 -0.009542107 0.055287536 -0.07415141 -0.12189755
-0.054855503 0.02164791 0.08279154 0.026501661 -0.013469777 -0.065969296 -0.034781456 0.056828476
-0.0074526337 0.0061673056 0.121611364 -0.025863063 0.05239875 -0.06741133 0.030962573 0.025852656
-0.0037183792 0.047211815 -0.09176846 -0.084053636 -0.011550608 0.04515266 -0.056791026 0.078290045
0.02362199 -0.05554009 -0.10826983 -0.064789 0.0028748128 -0.09196406 0.03279466 0.08093256
-0.016822802 0.07992107 -0.0031263763 0.070723176 -0.116640836 -0.11210093 0.06848578 6.264547e-05
00000000: 7af7 9dbd aaa7 eabd 4a55 da3d 51f0 443d
00000010: ee3a 2c3d 64ff ad3d 800d 7dbd f558 e53d
00000020: f1ee bb3d a1c3 b8bd 6e9e d53d 921a 36bd
00000030: bec3 3b3d cd03 d73d f9f6 a3bd 1fbf 2e3d
00000040: adb4 00bb df1c 8e3c 1dae 2d3d 934e c2bd
00000050: 034f 19bc ae71 8c3b 8c09 ac3d 649f 3cbd
00000060: d8b4 a4bd 5bb9 2e3d bf45 c2bd 9969 003e
00000070: b623 d3bb 4a22 283c 4336 59bd 86ff 5abc
00000080: 3464 ccbd 1cb5 cf3a dd00 46bd 099b 8cbd
00000090: 6854 acbd 95d1 e9bd f935 c43d 7186 dc3b
000000a0: a1a5 3e3d 1889 a1bd c05a 093d 910b 84bd
000000b0: d58b dc3c 656d 38bc 0b46 0d3d 35c5 773d
000000c0: 86a5 35bd a019 063d effc 82bd 724d ebbd
000000d0: e051 08bd 6d8c f3bd 39b9 0abe 6d48 2c3d
000000e0: 0669 9fbc 39b7 ef3d c4c5 e13d 1ba6 4f3d
000000f0: c547 c33d 4497 d93c ff73 fabd f751 f83c
00000100: 8450 9cbc c131 82bc e573 ef3d 7c94 3b3d
00000110: b6d5 67bd b46c d6bd 0bcb e03d 057e 27bd
00000120: ce99 873d d739 8abd 4312 653d d334 353c
00000130: 7a9c a83d 8007 743d 03a7 edbd 1ba9 6b3c
00000140: c30a 823d 3a99 05bd cc1d 813b 298b e83c
00000150: daa9 903d cbe9 b3bd 60f3 6d3c a56d 7b3d
00000160: 4082 c9bc dd39 db3c c9b6 acbb f951 8cbc
00000170: e020 d83d a228 cf3d c093 f43c d61b 883c
00000180: 65d1 983d 9baa 1ebc 3514 b33d 66d5 93bd
00000190: 3d2b 803d ead7 d7bd 4bbf d4bd 2434 25bd
000001a0: 0688 40bd 6f65 f63d d308 9bbd 2e47 8e3c
000001b0: f1d3 85bd 0ff4 e9bd 557e 7abd 2654 d6bd
000001c0: 73a8 ef3b c383 9d3b cd48 ef3d d98d dd3d
000001d0: 34fd aa3d d851 c9bd de43 91bb 92d5 d3bd
000001e0: 3797 773b 7bd8 503d b8d6 f53d 0ced d3bc
000001f0: e7dc f1bd d8d7 d2bd bb0b f3bc 25db cebd
00000200: ac0d 82bb 68ad 4cbd e648 81bd 7be2 17bc
00000210: 8caa 3f3b d9d5 8a3d 25c2 d5bd 9e46 dd3a
00000220: a83c d93d 5b3c cc3d 4155 59bd 951b 813c
00000230: 6346 7b3c b630 003e d3d9 883d b36f ecbc
00000240: 6207 bfbd 4664 2e3b 9950 9cbd dae8 1a3d
00000250: 20c2 df3d 006a a0bd 0386 cdbd 8862 0fbd
00000260: 766b 00be 7089 e3bd 6372 8ebc 79d7 893c
00000270: 6bd4 6f3d 4cfc df3d a0b9 10bd d0ca c63c
00000280: 1e8e 20bd ce10 813d b024 953d f061 8f3c
00000290: b59f f1bc f77e 9d3c 19aa 6c3d ab10 abbc
000002a0: 12c2 94bd 6696 83bd 175e 403d 4549 00bd
000002b0: 0c77 713d b0c9 933d 9ad5 b6bd b49d 4f3d
000002c0: cb14 b33c 5cfa 8c3c 16d8 7f3d 323a 263d
000002d0: f94d a5ba c346 b43b fbc8 d1bd 4f3c cd3b
000002e0: a13a 88bd eabf 373b 50f6 96bd 23ef eb3d
000002f0: e859 d0bd d381 c43d dcd8 493d 9ecf 4d3d
00000300: 398f da3d d8eb 243d 09c9 a93d dd1b 5ebd
00000310: 25c8 193d 764d acbc 5e4f 09bd 9364 873d
00000320: 28ff ae3d 82e1 bebd c094 693d 784f b53d
00000330: b83d c9bb 84d4 cabd a5ac 823d 7d20 4bbd
00000340: 2d5c 80bd 0e6d da3c b7d9 cfbd b350 9a3c
00000350: 7f56 1cbc 2f75 623d b2dc 97bd 6ca5 f9bd
00000360: 2ab0 60bd f556 b13c 9c8e a93d 031a d93c
00000370: 57b0 5cbc e91a 87bd 0077 0ebd fac4 683d
00000380: 3935 f4bb 1c17 ca3b 610f f93d c6de d3bc
00000390: 12a0 563d f40e 8abd 39a5 fd3c f3c8 d33c
000003a0: 0db0 73bb 2d61 413d 1af1 bbbd 5024 acbd
000003b0: c33e 3dbc fff1 383d b59d 68bd 8856 a03d
000003c0: e782 c13c 017e 63bd 93bc ddbd 18b0 84bd
000003d0: 5b67 3c3b a757 bcbd b253 063d f8bf a53d
000003e0: f9cf 89bc a8ad a33d e4e3 4cbb 50d7 903d
000003f0: 64e1 eebd 2c95 e5bd 4642 8c3d 8860 8338

value_layer.2.bias f4 [64]
-0.06537409 0.07820803 0.09881492 -0.06386094 -0.03125964 -0.011647576 -0.010542104 -0.061940085
0.063790604 -0.0379948 0.09896923 -0.108562455 -0.0061264536 -0.03097098 0.08156488 0.01749158
-0.04281525 0.06905902 0.086133935 0.078360155 0.06688094 0.051189024 -0.014325044 -0.04489906
0.05872298 0.09593893 0.06796105 0.05188936 0.08871936 -0.12686807 0.103327096 -0.03514611
0.08032443 -0.07452781 0.091764264 -0.11718477 -0.011758336 0.014998901 0.033890724 -0.0064935503
0.0536689 -0.008470264 0.09593362 0.029720558 -0.08221238 -0.09407474 -0.039654445 -0.11822606
-0.095924184 -0.10481565 -0.08300406 -0.04381739 -0.07826477 -0.04763247 0.028444307 -0.039323743
-0.10059195 -0.09058477 0.07888084 -0.016483806 -0.07091528 -0.04395414 -0.062375687 0.047408864
00000000: dae2 85bd 882b a03d 7a5f ca3d 86c9 82bd
00000010: 1c0a 00bd 79d5 3ebc cab8 2cbc e3b4 7dbd
00000020: a6a4 823d 6fa0 1bbd 61b0 ca3d fe55 debd
00000030: 6bc0 c8bb dab6 fdbc 7d0b a73d 814a 8f3c
00000040: 0b5f 2fbd d16e 8d3d fd66 b03d 4a7b a03d
00000050: e0f8 883d 95ab 513d 97b3 6abc 14e8 37bd
00000060: 8287 703d a17b c43d 2a2f 8b3d f089 543d
00000070: 7fb2 b53d b4e9 01be 289d d33d 5ef5 0fbd
00000080: 2281 a43d 09a2 98bd e7ee bb3d 92fe efbd
00000090: 09a6 40bc f3bd 753c 00d1 0a3d d9c7 d4bb
000000a0: ecd3 5b3d ddc6 0abc d978 c43d 8778 f33c
000000b0: f75e a8bd 42aa c0bd b36c 22bd 8120 f2bd
000000c0: e673 c4bd 96a9 d6bd 08fe a9bd dd79 33bd
000000d0: 4849 a0bd 441a 43bd 0904 e93c ef11 21bd
000000e0: 2703 cebd 8284 b9bd 478c a13d 0c09 87bc
000000f0: 083c 91bd 4209 34bd a67d 7fbd cc2f 423d

value_layer.4.weight f4 [1, 64]
0.099603646 -0.0066431207 0.040541086 0.034114726 0.08504176 0.052509304 0.01929664 -0.114962995
-0.108611025 0.045627158 -0.058347903 0.10339451 0.087927654 -0.05665786 0.11445581 -0.06248403
0.0005389189 0.09164673 -0.06938799 -0.020179065 0.06436562 -0.06001386 -0.088789724 -0.07711373
0.0018497071 0.050324515 0.03582074 0.0006869817 -0.028898314 -0.04977645 -0.011678517 0.027133755
-0.11437909 0.010542313 -0.0005199307 0.034928583 -0.06935209 -0.00022199172 0.004713537 -0.049870886
-0.085965805 -0.079328164 0.0013051621 -0.059845224 -0.035826094 -0.09752353 0.04744755 -0.061118353
0.06300752 -0.027873566 0.07388703 -0.047543976 -0.059060376 -0.022757873 0.023142997 -0.0052236975
-0.09553602 -0.0038360714 0.015158438 -0.05954032 0.002539269 -0.056682263 0.05954881 -0.0607658
00000000: fffc cb3d 89ae d9bb 690e 263d e2bb 0b3d
00000010: 602a ae3d ff13 573d fd13 9e3c b871 ebbd
00000020: 756f debd 8be3 3a3d 36fe 6ebd 80c0 d33d
00000030: 6a13 b43d 1212 68bd cf67 ea3d 41ef 7fbd
00000040: 3c46 0d3a 48b1 bb3d 4a1b 8ebd 914e a5bc
00000050: 1fd2 833d 18d1 75bd 63d7 b5bd ceed 9dbd
00000060: df71 f23a 1421 4e3d c5b8 123d 9016 343a
00000070: 28bc ecbc 64e2 4bbd 4057 3fbc 9c47 de3c
00000080: 963f eabd aab9 2c3c f54b 08ba 4611 0f3d
00000090: 7808 8ebd 73c6 68b9 0474 9a3b 6a45 4cbd
000000a0: d70e b0bd ce76 a2bd f911 ab3a 4420 75bd
000000b0: 62be 12bd 6bba c7bd 5d58 423d 3d57 7abd
000000c0: 160a 813d 1b57 e4bc 1552 973d 79bd 42bd
000000d0: 4be9 71bd b86e babc 6296 bd3c 8d2b abbb
000000e0: 64a8 c3bd 9966 7bbb 195b 783c 8de0 73bd
000000f0: dd69 263b a92b 68bd 74e9 733d 8fe5 78bd
