8_gym-PPO/results_seed/PPO_LunarLander-v3_500-eps0.2-seed10.pth (torch, 44290 bytes, 11 tensors)

action_layer.0.weight f4 [64, 8]
-0.06829338 0.022129685 -0.09292397 0.043090515 -0.2890299 -0.092058286 0.21171546 0.32415724
0.09579212 -0.07245393 -0.061096016 -0.06467755 0.26826885 0.15895288 0.0866609 0.408872
-0.23417674 -0.057975564 0.10751901 0.059237026 -0.12648383 -0.39742544 -0.3025947 -0.35374597
-0.29524794 -0.35683933 -0.19776237 -0.3969056 -0.34705272 0.103311196 0.26579267 0.2648122
0.21337892 0.11518178 0.120954454 -0.2428061 0.39777535 -0.02289037 0.33150518 0.10476391
0.34173894 0.19422296 -0.058334466 -0.102391444 0.0997212 0.03695912 0.089992285 0.15516865
-0.32794607 0.03593976 -0.23056391 0.28305927 -0.40573016 0.04900221 -0.0001649796 0.20578244
-0.09871324 -0.017679874 0.25108296 0.36306363 -0.33864072 -0.4214387 0.032165505 0.061719097
0.070009656 0.2609307 0.15589981 -0.21171561 -0.19448413 0.2629732 0.25689545 -0.07677603
-0.1790601 0.10206964 -0.20459883 -0.09617202 -0.36637643 0.11495236 -0.10267956 -0.10873769
-0.25959596 -0.064101815 0.159921 -0.06213485 0.2320544 -0.16512622 -0.01184824 0.4402438
-0.2923605 -0.08689847 -0.29904073 0.3958407 0.32205725 0.045443855 -0.18765852 0.13567924
-0.044726286 0.072352156 -0.23142444 -0.20101704 0.13325731 0.3082645 0.20957452 0.1573787
-0.27394396 0.23529592 0.20442669 0.10945465 -0.28758597 -0.19584824 0.23884366 0.07030036
0.16502854 -0.16855474 0.2731321 -0.18146291 -0.11989302 -0.3541982 -0.023935758 0.18955085
0.36463377 0.13923821 -0.34898335 -0.10194288 0.38848457 0.045790423 -0.30464453 0.20641191
-0.30707332 0.022004383 0.018676778 -0.08789151 -0.14142519 -0.06631743 -0.10802383 -0.27520296
0.17295247 0.24644946 -0.3479726 -0.29856125 -0.0830452 0.37910053 0.2552758 -0.2261068
-0.020707373 0.039238214 0.30931568 -0.11863989 0.0053495164 -0.33558154 -0.36159363 0.17639156
-0.12724616 0.01418709 -0.1423196 -0.27510175 0.34200373 0.3988163 0.20040159 0.11067599
-0.24380727 -0.30265558 -0.0134654865 -0.0850916 -0.19005638 0.24211879 -0.26882267 0.12882939
-0.310023 0.06248863 0.0047148657 0.3929355 0.0957293 -0.13129343 0.334472 -0.45177025
0.09450855 -0.21919608 0.16083913 0.08530012 0.04826609 -0.18300287 0.31450775 0.22455733
0.019125583 -0.059847545 0.0035160808 0.233862 0.45041427 0.5282858 0.20966057 -0.09109831
-0.21190876 -0.28104985 0.2777732 -0.4093419 0.016560525 0.27006373 -0.2695389 -0.17106187
-0.39913094 0.17383234 0.103471905 0.20298794 -0.11555978 -0.070589244 0.32468095 -0.2762306
-0.26360375 0.12130362 0.42102897 -0.19438076 -0.4951751 -0.18540023 0.07220461 0.06253782
0.25726664 0.0057153935 -0.29504427 0.01510547 0.30966192 0.16035855 -0.21385546 0.0042499565
-0.02499815 -0.13509084 0.08770209 0.15086177 0.47006622 0.50321174 -0.13545401 -0.26911664
0.07570137 0.16298845 0.1731829 0.26153898 0.10804717 0.045244887 0.08469266 0.08434597
-0.37888303 0.15882699 0.16381605 0.06463948 -0.24742006 0.004746102 0.052252527 -0.32983664
-0.09349637 0.16097686 -0.2728965 -0.10708027 0.27980712 0.3016092 -0.360007 0.25605002
00000000: 66dd 8bbd 5049 b53c ec4e bebd ae7f 303d
00000010: bafb 93be 0e89 bcbd f0cb 583e f0f7 a53e
00000020: a92e c43d ba62 94bd d13f 7abd aa75 84bd
00000030: 895a 893e 8bc4 223e 457b b13d ac57 d13e
00000040: 07cc 6fbe c977 6dbd ed32 dc3d 86a2 723d
00000050: fa84 01be 597b cbbe b1ed 9abe 311e b5be
00000060: bd2a 97be a5b3 b6be 3882 4abe 3637 cbbe
00000070: e5b0 b1be d294 d33d fa15 883e 7795 873e
00000080: 0180 5a3e 6de4 eb3d f8b6 f73d 2aa2 78be
00000090: 36a9 cb3e 9684 bbbc 0cbb a93e 768e d63d
000000a0: 68f8 ae3e 62e2 463e 1ff0 6ebd 9bb2 d1bd
000000b0: a13a cc3d 7262 173d e04d b83d 88e4 1e3e
000000c0: 8ce8 a7be 9235 133d f218 6cbe 25ed 903e
000000d0: ddbb cfbe 8bb6 483d 60fe 2cb9 a2b8 523e
000000e0: 2b2a cabd 62d5 90bc f28d 803e 7ae3 b93e
000000f0: 5162 adbe d0c6 d7be fabf 033d 2acd 7c3d
00000100: 3961 8f3d b598 853e 33a4 1f3e facb 58be
00000110: d926 47be 6ca4 863e cd87 833e c03c 9dbd
00000120: 885b 37be e309 d13d 5b82 51be d6f5 c4bd
00000130: b195 bbbe 256c eb3d a949 d2bd deb1 debd
00000140: c3e9 84be d047 83bd 55c2 233e 1d81 7ebd
00000150: ab9f 6d3e d916 29be 1f1f 42bc a367 e13e
00000160: 47b0 95be d3f7 b1bd de1b 99be a2ab ca3e
00000170: b0e4 a43e 5623 3a3d 8e29 40be 80ef 0a3e
00000180: e932 37bd 5e2d 943d 87fa 6cbe 69d7 4dbe
00000190: 9b74 083e d8d4 9d3e b49a 563e e227 213e
000001a0: 6242 8cbe 6af1 703e 3b55 513e c229 e03d
000001b0: 783e 93be 718c 48be 6f93 743e a3f9 8f3d
000001c0: 3efd 283e 9d99 2cbe f8d7 8b3e 6ad1 39be
000001d0: 798a f5bd 7759 b5be ec14 c4bc 9e19 423e
000001e0: 47b1 ba3e 7694 0e3e f2ad b2be 6ec7 d0bd
000001f0: 73e7 c63e bd8e 3b3d 5efa 9bbe a55d 533e
00000200: b738 9dbe 8942 b43c 0b00 993c 7700 b4bd
00000210: c4d1 10be 6fd1 87bd 993b ddbd 67e7 8cbe
00000220: 741a 313e 3f5d 7c3e 7729 b2be 05dd 98be
00000230: 9a13 aabd 7719 c23e 82b3 823e 8a88 67be
00000240: 82a2 a9bc 40b8 203d a05e 9e3e 78f9 f2bd
00000250: ff4a af3b 58d1 abbe cd22 b9be fd9f 343e
00000260: d14c 02be f870 683c 3bbc 11be 23da 8cbe
00000270: 1d1b af3e a631 cc3e 1336 4d3e 18aa e23d
00000280: 9da8 79be acf5 9abe 589e 5cbc 8144 aebd
00000290: 249e 42be fded 773e 20a3 89be daeb 033e
000002a0: 56bb 9ebe 14f4 7f3d 297f 9a3b d82e c93e
000002b0: b90d c43d c971 06be ea3f ab3e 6e4e e7be
000002c0: b38d c13d f074 60be 03b3 243e d4b1 ae3d
000002d0: aab2 453d 1b65 3bbe 2907 a13e 5bf2 653e
000002e0: 41ad 9c3c b322 75bd 0c6e 663b 8579 6f3e
000002f0: b39c e63e bd3d 073f 43b1 563e c091 babd
00000300: 9cfe 58be c4e5 8fbe 4a38 8e3e 4395 d1be
00000310: f0a9 873c cb45 8a3e 0101 8abe d82a 2fbe
00000320: e45a ccbe 1b01 323e 14e9 d33d 12dc 4f3e
00000330: 9baa ecbd 1891 90bd 953c a63e 196e 8dbe
00000340: 12f7 86be 086e f83d 1c91 d73e c00b 47be
00000350: 9787 fdbe 8fd9 3dbe 03e0 933d d413 803d
00000360: 74b8 833e 3248 bb3b 0b10 97be ef7c 773c
00000370: 028c 9e3e 0835 243e edfc 5abe 3843 8b3b
00000380: ecc8 ccbc 4155 0abe 279d b33d 827b 1a3e
00000390: 85ac f03e 7cd2 003f 75b4 0abe a8c9 89be
000003a0: 5209 9b3d 72e6 263e dc56 313e 70e8 853e
000003b0: d647 dd3d b452 393d 5873 ad3d 94bd ac3d
000003c0: f5fc c1be 8ba3 223e 65bf 273e b461 843d
000003d0: af5b 7dbe 3085 9b3b bf06 563d 59e0 a8be
000003e0: 067b bfbd 1ed7 243e 17b9 8bbe e74c dbbd
000003f0: e142 8f3e 856c 9a3e d652 b8be fd18 833e

action_layer.0.bias f4 [64]
-0.07597314 -0.06802361 0.19109868 0.28397003 -0.16102934 0.121210806 -0.23344494 0.08295571
-0.09330922 -0.177261 -0.052092582 0.048444044 -0.067506865 -0.29399166 0.06109381 -0.24606016
-0.14673148 0.22565982 -0.03856417 -0.32558623 0.33335695 0.14365901 0.261418 -0.09283153
0.23858503 -0.05444605 0.22732188 0.16644809 0.19405384 -0.012903476 -0.12515375 -0.21632089
-0.17302574 -0.098239884 0.04277221 -0.22689839 -0.26093513 -0.21907562 -0.15854493 -0.34308654
-0.10982702 -0.12528402 -0.12577933 -0.28481698 -0.15119645 0.036275692 -0.094305016 0.15445863
-0.25053146 -0.23031643 -0.00034812966 0.009030618 0.2946434 -0.21959735 0.22199228 -0.1661158
-0.12647474 0.04034273 -0.06048201 0.13819756 0.116446145 0.19021502 -0.23926109 -0.17048348
00000000: ce97 9bbd f64f 8bbd 5faf 433e 8564 913e
00000010: e0e4 24be 5f3d f83d 310c 6fbe afe4 a93d
00000020: e818 bfbd e883 35be 085f 55bd 436d 463d
00000030: 0a41 8abd 1386 96be 813d 7a3d 32f7 7bbe
00000040: c740 16be 5e13 673e 77f5 1dbd 3db3 a6be
00000050: c3ad aa3e 591b 133e 95d8 853e 751e bebd
00000060: a24f 743e d202 5fbd 11c7 683e 5e71 2a3e
00000070: 0db6 463e 1a69 53bc 4e28 00be 3983 5dbe
00000080: a92d 31be fe31 c9bd ea31 2f3d 0d58 68be
00000090: 4a99 85be 5c55 60be 9a59 22be 0aa9 afbe
000000a0: fdec e0bd 744a 00be 4ccc 00be 88d3 91be
000000b0: 3ed3 1abe d295 143d fd22 c1bd 672a 1e3e
000000c0: a945 80be 12d8 6bbe 2c85 b6b9 28f5 133c
000000d0: 80db 963e 21de 60be f251 633e 431a 2abe
000000e0: 9882 01be 6b3e 253d fcbb 77bd a983 0d3e
000000f0: 517b ee3d bac7 423e dc00 75be 3993 2ebe

action_layer.2.weight f4 [64, 64]
0.026689637 -0.045752347 -0.0652099 0.10258038 0.014664375 0.055374138 0.022415316 -0.0048012873
0.12816603 -0.0065564713 0.00019631052 -0.061692156 0.1297369 0.035194162 -0.025028495 0.023472782
0.051389463 -0.083333194 -0.071496256 0.038200937 -0.03729596 0.04107514 -0.10876181 0.07015166
-0.096433796 0.06244306 -0.043553367 0.14662711 0.08259196 -0.09493441 0.011980532 0.035168197
0.091518976 0.03777559 0.038800478 -0.010948578 -0.09961671 0.060605325 -0.060407437 -0.023853347
0.010315165 0.021138974 -0.068859495 0.059200764 -0.034992415 0.12340032 0.16286302 0.088903144
-0.065411724 0.06766087 0.0011331437 -0.15316702 0.057727825 -0.015996814 0.05081832 -0.11469218
0.090152256 -0.05651884 -0.009994943 0.081202395 -0.04183021 0.06173376 -0.08145249 -0.08302751
-0.1407527 0.07626613 -0.07209256 -0.010214843 0.11836066 -0.04021975 -0.11336462 -0.006113442
0.080409564 0.07467825 0.0717379 -0.092169985 0.059524275 0.06028934 0.09810895 0.18634908
-0.04555358 -0.07710243 -0.061485447 0.13105625 0.082718484 -0.024979737 0.1043103 -0.12093486
0.122889645 -0.16557956 -0.0038887353 -0.033309676 -0.08116916 0.097163595 -0.048573438 0.0872944
0.015720336 -0.15898357 -0.014961595 -0.07251165 -0.0012111418 -0.1354255 -0.16780378 0.16883802
-0.012156106 -0.08850241 -0.05762989 0.053246547 -0.05428774 0.065465964 0.12261471 0.056123514
0.10647715 0.07580316 -0.13178489 -0.1858828 0.09085604 0.15772337 -0.06107338 -0.08934895
0.028182063 0.021991866 -0.029697552 -0.02514135 0.08319269 0.043338485 0.05321712 0.03348018
0.07656849 -0.12759964 -0.012883851 0.03458095 -0.0060091 0.028343732 0.064216375 -0.000588314
0.08641836 -0.04805825 -0.041953653 -0.1780995 -0.14806795 -0.04593966 0.1461058 0.0073191877
0.019529566 0.05093946 0.18347032 -0.048916575 -0.00873844 -0.019958435 0.033382677 -0.15435898
-0.004435154 0.05383541 0.040210724 -0.049821656 -0.013757844 -0.07055304 0.07137413 -0.13621697
0.056665268 -0.07757615 -0.084439196 0.06627484 0.13899356 0.006067872 -0.072266705 0.019013686
-0.047349162 0.0695266 -0.0070282337 0.17789279 0.09622461 0.07525413 -0.08840848 -0.07148888
0.093722 0.15395124 0.055323444 0.06429275 0.027387844 0.2226406 0.11457926 -0.031490523
0.013686789 0.12188684 0.12370756 -0.11553844 -0.021060688 -0.11646107 0.055982757 0.09871666
0.06728007 0.10931325 -0.1012352 -0.123813264 -0.005001091 0.09480664 0.018633088 -0.014472457
-0.105078995 -0.13372888 -0.081358664 0.09520832 0.068673775 -0.034869466 -0.124757275 0.065671265
0.060768373 -0.0405038 -0.0034040043 -0.023427617 0.03235144 -0.06812051 -0.070876814 0.059023324
-0.07426026 -0.07130177 -0.08783987 0.07364624 0.12871303 -0.023695776 0.040933106 0.07037076
0.017032659 -0.010554307 0.13478099 -0.026498567 0.0150458515 0.060107335 0.012772979 0.02705913
-0.05260609 -0.041964043 0.03967016 -0.057221476 -0.03941085 -0.0075198384 0.1919154 -0.08904063
0.11854302 -0.024327146 0.045505818 -0.21328686 -0.018135803 0.030340075 -0.11810856 -0.088722974
-0.035417337 -0.07281913 -0.16532716 0.16558613 0.040718593 0.04320809 0.05956957 -0.090756886
00000000: 3aa4 da3c d066 3bbd c58c 85bd aa15 d23d
00000010: d942 703c fecf 623d 53a0 b73c 1e54 9dbb
00000020: f53d 033e abd7 d6bb b4d8 4d39 eab0 7cbd
00000030: c0d9 043e c127 103d 8f08 cdbc fe49 c03c
00000040: c27d 523d 98aa aabd a16c 92bd 9678 1c3d
00000050: a6c3 18bd 683e 283d 83be debd acab 8f3d
00000060: 157f c5bd 4bc4 7f3d 0465 32bd 6b25 163e
00000070: f925 a93d f96c c2bd fe49 443c 870c 103d
00000080: 4d6e bb3d 94ba 1a3d 40ed 1e3d aa61 33bc
00000090: d803 ccbd 4a3d 783d ca6d 77bd 1868 c3bc
000000a0: f000 293c a42b ad3c 3506 8dbd 807c 723d
000000b0: 3554 0fbd 4fb9 fc3d 90c5 263e da12 b63d
000000c0: 95f6 85bd c891 8a3d fe85 943a d1d7 1cbe
000000d0: 0374 6c3d c00b 83bc df26 503d bce3 eabd
000000e0: bfa1 b83d 4d80 67bd d4c1 23bc 714d a63d
000000f0: 2756 2bbd 8adc 7c3d 90d0 a6bd 540a aabd
00000100: 7a21 10be 6b31 9c3d 44a5 93bd 285c 27bc
00000110: 1367 f23d 77bd 24bd b62b e8bd 4553 c8bb
00000120: c5ad a43d e9f0 983d 52eb 923d 9ec3 bcbd
00000130: bacf 733d f4f1 763d 58ed c83d 4bd2 3e3e
00000140: 6496 3abd e1e7 9dbd 2ad8 7bbd 9c33 063e
00000150: 4f68 a93d 4ea2 ccbc a3a0 d53d b2ac f7bd
00000160: 91ad fb3d b08d 29be 27da 7ebb ba6f 08bd
00000170: 043c a6bd b5fd c63d f1f4 46bd 68c7 b23d
00000180: efc7 803c 97cc 22be 7a21 75bc fd80 94bd
00000190: 2dbf 9eba fbac 0abe c1d4 2bbe e0e3 2c3e
000001a0: 672a 47bc c040 b5bd 520d 6cbd 0d19 5a3d
000001b0: d25c 5ebd 0513 863d 6c1d fb3d c5e1 653d
000001c0: b110 da3d b03e 9b3d 9ef2 06be 1058 3ebe
000001d0: bb12 ba3d 3c82 213e 1528 7abd 95fc b6bd
000001e0: 12de e63c 4928 b43c 4848 f3bc 3cf5 cdbc
000001f0: ee60 aa3d b283 313d 32fa 593d 8322 093d
00000200: f1cf 9c3d 7ba9 02be ca16 53bc c1a4 0d3d
00000210: fce7 c4bb 1d31 e83c e083 833d 1639 1aba
00000220: 1cfc b03d bad8 44bd 98d7 2bbd b75f 36be
00000230: 209f 17be 3a2b 3cbd c29c 153e ccd5 ef3b
00000240: 78fc 9f3c e5a5 503d a5df 3b3e bf5c 48bd
00000250: ad2b 0fbc df7f a3bc 46bc 083d 4810 1ebe
00000260: c554 91bb 8582 5c3d 00b4 243d cb11 4cbd
00000270: 9568 61bc 1d7e 90bd 9a2c 923d 767c 0bbe
00000280: d719 683d 3fe0 9ebd 75ee acbd 1abb 873d
00000290: 5454 0e3e 00d5 c63b 9100 94bd 97c2 9b3c
000002a0: 32f1 41bd f663 8e3d 194d e6bb 8729 363e
000002b0: 6911 c53d d61e 9a3d 810f b5bd c368 92bd
000002c0: 52f1 bf3d 65a5 1d3e d69a 623d ebab 833d
000002d0: 795c e03c e6fb 633e 88a8 ea3d 35fc 00bd
000002e0: 8e3e 603c cf9f f93d 645a fd3d 6b9f ecbd
000002f0: 7787 acbc 2483 eebd 2d4e 653d f62b ca3d
00000300: 22ca 893d a0df df3d 6754 cfbd cf91 fdbd
00000310: 31e0 a3bb fc29 c23d 6ba4 983c e21d 6dbc
00000320: a833 d7bd 39f0 08be 5f9f a6bd 94fc c23d
00000330: d6a4 8c3d 49d3 0ebd be80 ffbd a87e 863d
00000340: 42e8 783d 50e7 25bd b715 5fbb 46eb bfbc
00000350: f282 043d c482 8bbd dd27 91bd 71c2 713d
00000360: c315 98bd aa06 92bd 64e5 b3bd d7d3 963d
00000370: 59cd 033e a51d c2bc 79a9 273d 8c1e 903d
00000380: 1388 8b3c f9eb 2cbc 0704 0a3e 8613 d9bc
00000390: e082 763c 1c33 763d c245 513c 1cab dd3c
000003a0: 7c79 57bd 7de2 2bbd 2d7d 223d 1161 6abd
000003b0: 456d 21bd fa68 f6bb 7885 443e ef5a b6bd
000003c0: afc6 f23d b949 c7bc 4f64 3a3d df67 5abe
000003d0: 8991 94bc c08b f83c e7e2 f1bd 64b4 b5bd
000003e0: c511 11bd 3222 95bd 864b 29be 698f 293e
000003f0: 8ac8 263d f7fa 303d 39ff 733d bfde b9bd

action_layer.2.bias f4 [64]
-0.037288576 -0.046952136 0.07432124 0.007119036 -0.025878562 -0.052780617 0.03901238 -0.092847936
0.08362175 0.06723027 0.016369166 -0.1052963 -0.009126417 0.111376286 0.12061161 0.00804169
-0.02680295 -0.047381733 -0.021353528 0.07869199 0.050580524 0.09679962 0.09765354 0.046777382
-0.0009841339 0.111705855 0.017365763 0.033961184 0.037705347 -0.1035678 0.078108594 -0.120559536
-0.042047955 -0.03687443 -0.09050012 0.082258314 0.011081914 0.063256085 0.02244701 -0.054579396
-0.08113541 0.064995535 -0.009723167 -0.07371127 -0.012400057 -0.13643532 0.0037059984 0.050744228
-0.1210103 0.009752154 -0.095229454 -0.010827351 0.024849942 -0.04438702 -0.06927856 -0.027684418
0.09174161 0.05779129 -0.020310853 0.035093956 -0.01113198 -0.07884073 0.03170423 0.045629133
00000000: e8bb 18bd e250 40bd bc35 983d cd46 e93b
00000010: 47ff d3bc 7d30 58bd 72cb 1f3d 0f27 bebd
00000020: e141 ab3d 06b0 893d a118 863c 96a5 d7bd
00000030: f886 15bc 4019 e43d 3803 f73d 4bc1 033c
00000040: dc91 dbbc 5913 42bd 98ed aebc 4429 a13d
00000050: 862d 4f3d e13e c63d 94fe c73d a499 3f3d
00000060: 0efe 80ba 0ac6 e43d a542 8e3c e21a 0b3d
00000070: ec70 1a3d 5b1b d4bd 66f7 9f3d ebe7 f6bd
00000080: 7a3a 2cbd a409 17bd 2058 b9bd 0c77 a83d
00000090: eb90 353c 688c 813d cbe2 b73c a58e 5fbd
000000a0: 522a a6bd 611c 853d eb4d 1fbc eff5 96bd
000000b0: 9c29 4bbc b3b5 0bbe 56e0 723b 2ed9 4f3d
000000c0: 40d4 f7bd 80c7 1f3c a907 c3bd 3465 31bc
000000d0: 1b92 cb3c 2acf 35bd ebe1 8dbd 6fca e2bc
000000e0: 06e3 bb3d 8fb6 6c3d f262 a6bc aebe 0f3d
000000f0: e962 36bc 4077 a1bd 4bdc 013d 9de5 3a3d

action_layer.4.weight f4 [4, 64]
0.05521258 -0.040559214 0.05224219 -0.03788831 0.04856933 0.03748944 0.027226785 -0.06595912
0.096558645 -0.09798743 0.107555725 -0.06834485 -0.04153774 -0.068777375 -0.020876145 0.09257358
0.049917527 0.027622184 0.029638566 -0.013459802 0.05861783 -0.010860123 0.064989515 0.002455288
0.015704058 0.011428813 0.140557 0.084250405 0.13595743 -0.062284797 -0.08799382 0.09750166
0.055705514 0.09036017 0.10965741 -0.07262653 0.0223938 0.12395069 -0.06867031 -0.038360577
0.11055295 -0.03787554 0.01738227 -0.1260366 -0.004721384 0.033624463 0.04954147 -0.108680785
0.13690998 -0.007101452 -0.019574376 0.100497864 0.16548331 0.14147377 0.0044982512 0.15804043
0.033349246 0.09019933 -0.07000781 -0.06718532 0.17373188 -0.1323036 -0.109663546 -0.13340163
-0.07449923 -0.016695779 0.1152471 -0.14831363 -0.18384849 -0.05945864 -0.062383596 -0.060856316
-0.07154804 -0.03880428 0.061389487 0.038778044 -0.102759786 -0.016722018 0.13279022 0.16339435
-0.017182158 0.10413212 0.011844685 0.019083906 -0.08042405 -0.09480692 -0.10751077 0.025718888
0.08060468 0.007361853 -0.05235763 0.07781817 0.071440965 -0.036929835 0.012100957 -0.023048874
0.08488426 -0.049971685 0.06785558 0.017098757 0.07716402 0.019140666 0.012901248 0.0110883815
0.014260539 0.052374955 -0.10877167 -0.11557154 -0.06263024 -0.026250213 0.08389388 0.14598207
0.033145912 -0.13127464 0.011010827 0.043323305 0.10285224 0.10668478 -0.06802477 0.008677294
0.013782762 0.035246626 -0.02514487 -0.036726594 -0.0031883898 -0.054767676 -0.1172182 -0.013192975
0.074956656 0.09934489 0.12377749 -0.05218691 0.13075778 -0.037018683 0.0023147503 -0.0049408255
-0.14709376 0.1265377 -0.033038244 -0.000686836 -0.07450289 -0.034896713 0.07762731 -0.055842824
-0.029120324 0.10726656 -0.011467964 0.026177421 0.10242588 -0.16666943 -0.08648381 0.075742155
0.061160535 0.009296784 -0.1734021 0.08912965 -0.07818315 0.11770748 0.1659938 -0.016788825
-0.09992333 0.015515331 -0.08596281 0.017235676 0.13389643 -0.08398977 0.07691854 0.0067078155
-0.08421113 -0.00889097 -0.04167171 0.05985273 -0.03390992 -0.14149778 -0.05857763 0.113697834
-0.1153495 0.039053835 -0.021883348 0.052532326 -0.06991161 -0.17073843 0.040649794 -0.14908361
-0.04834879 -0.12421211 0.12063926 -0.04356339 -0.16520908 0.06637059 -0.014416135 0.14928772
0.04903451 0.0134687275 -0.033249162 0.123427846 0.13059276 -0.034842372 0.10122339 0.008337219
0.10432728 -0.13799842 0.033110008 0.017624931 0.035920344 0.11206193 -0.12107755 -0.088643976
0.13639632 -0.15219454 -0.0030857022 0.016255848 0.035968807 -0.0246853 0.21411099 0.035774752
0.06111265 0.090511926 -0.0063330815 0.1117734 0.054592818 -0.13912404 0.104703076 0.06494549
-0.0962402 0.15494321 0.017457858 -0.041843977 0.059579086 0.024212925 0.075290374 -0.007653937
0.10627696 0.07569039 0.19259754 0.16382962 0.15482868 -0.1499493 -0.10623466 -0.098162085
-0.04454095 0.15264668 -0.068739235 0.09402944 -0.014098766 -0.11899056 0.15720467 0.110254735
0.008231384 -0.048964612 0.015526965 -0.029328363 0.08963573 -0.06854081 -0.0019613889 0.035294823
00000000: 9626 623d 6b21 26bd e8fb 553d c630 1bbd
00000010: a2f0 463d 878e 193d b50a df3c 9315 87bd
00000020: 8ac0 c53d a2ad c8bd 2d46 dc3d 62f8 8bbd
00000030: 7a23 2abd 27db 8cbd 7304 abbc 3897 bd3d
00000040: 5276 4c3d eb47 e23c 94cc f23c 8086 5cbc
00000050: 4019 703d a8ee 31bc 3919 853d e6e8 203b
00000060: cca5 803c eb3f 3b3c 2dee 0f3e 7a8b ac3d
00000070: 6d38 0b3e 581e 7fbd 1b36 b4bd f3ae c73d
00000080: 772b 643d c10e b93d 1094 e03d 38bd 94bd
00000090: 3473 b73c dcd9 fd3d 05a3 8cbd fb1f 1dbd
000000a0: 9669 e23d 6223 1bbd 4365 8e3c bd0f 01be
000000b0: d7b5 9abb ceb9 093d ffeb 4a3d 0894 debd
000000c0: 2132 0c3e 4cb3 e8bb 715a a0bc d3d1 cd3d
000000d0: 7574 293e 80de 103e 1166 933b 5ad5 213e
000000e0: 3899 083d 6dba b83d 4160 8fbd 7598 89bd
000000f0: c5e6 313e 987a 07be 4897 e0bd 709a 08be
00000100: 0d93 98bd 96c5 88bc ac06 ec3d 87df 17be
00000110: c742 3cbe e78a 73bd f185 7fbd 7944 79bd
00000120: c787 92bd 3df1 1ebd 8b73 7b3d bad5 1e3d
00000130: b973 d2bd 9dfc 88bc 29fa 073e d950 273e
00000140: 99c1 8cbc 3943 d53d 3610 423c da55 9c3c
00000150: 5db5 a4bd 212a c2bd 9b2e dcbd 6bb0 d23c
00000160: 1114 a53d b33b f13b f474 56bd 225f 9f3d
00000170: a44f 923d bd43 17bd 1843 463c fed0 bcbc
00000180: cdd7 ad3d 1caf 4cbd def7 8a3d b112 8c3c
00000190: 2b08 9e3d e3cc 9c3c c25f 533c 0bac 353c
000001a0: 09a5 693c 1f87 563d aec3 debd c6b0 ecbd
000001b0: 4944 80bd b00a d7bc 8ed0 ab3d 537c 153e
000001c0: 02c4 073d dc6c 06be c166 343c c773 313d
000001d0: 32a4 d23d 8d7d da3d 9250 8bbd 352b 0e3c
000001e0: 18d1 613c c45e 103d 9dfc cdbc a06e 16bd
000001f0: 4ef4 50bb 1254 60bd 1810 f0bd 5927 58bc
00000200: e082 993d 5575 cb3d 0d7f fd3d f1c1 55bd
00000210: 5ee5 053e e7a0 17bd 11b3 173b a6e6 a1bb
00000220: bf9f 16be 1993 013e 1c53 07bd c90c 34ba
00000230: f994 98bd dbef 0ebd 11fb 9e3d 72bb 64bd
00000240: bf8d eebc 92ae db3d 21e4 3bbc 0872 d63c
00000250: a9c4 d13d 64ab 2abe 6c1e b1bd b41e 9b3d
00000260: 7883 7a3d 8a51 183c 5290 31be 9b89 b63d
00000270: 7d1e a0bd 9f10 f13d 47fa 293e b888 89bc
00000280: 9aa4 ccbd 0434 7e3c 450d b0bd d531 8d3c
00000290: 251c 093e d402 acbd 7887 9d3d 3ccd db3b
000002a0: e376 acbd 6eab 11bc f4af 2abd 2328 753d
000002b0: 21e5 0abd cbe4 10be 19ef 6fbd 69da e83d
000002c0: 5c3c ecbd eaf6 1f3d b544 b3bc 232c 573d
000002d0: d12d 8fbd 0ed6 2ebe 6680 263d 60a9 18be
000002e0: 6109 46bd eb62 febd b711 f73d 866f 32bd
000002f0: 922c 29be 4eed 873d a731 6cbc e1de 183e
00000300: 69d8 483d f0ab 5c3c 4630 08bd bdc7 fc3d
00000310: 1cba 053e e0b6 0ebd 354e cf3d d598 083c
00000320: 8aa9 d53d 754f 0dbe 5c9e 073d 2962 903c
00000330: 3621 133d ba80 e53d 82f7 f7bd f98a b5bd
00000340: 7aab 0b3e e3d8 1bbe 7e39 4abb fc2a 853c
00000350: 0754 133d d438 cabc e93f 5b3e 8c88 123d
00000360: 4251 7a3d 515e b93d bd85 cfbb 74e9 e43d
00000370: b89c 5f3d 8876 0ebe 916e d63d 2402 853d
00000380: 9519 c5bd 6fa9 1e3e c803 8f3c 9764 2bbd
00000390: 3309 743d 2f5a c63c d731 9a3d e1cd fabb
000003a0: bca7 d93d 9003 9b3d 4a38 453e f4c2 273e
000003b0: 698b 1e3e 4f8c 19be 8f91 d9bd 3409 c9bd
000003c0: 9270 36bd 694f 1c3e 28c7 8cbd 8292 c03d
000003d0: 83fe 66bc 53b1 f3bd 43fa 203e 3ccd e13d
000003e0: eddc 063c 1e8f 48bd d064 7e3c 0942 f0bc
000003f0: f092 b73d 205f 8cbd a58a 00bb 4e91 103d

action_layer.4.bias f4 [4]
-0.10616503 0.10182656 0.0047774087 0.10415354
00000000: 0d6d d9bd 728a d03d cf8b 9c3b 744e d53d

value_layer.0.weight f4 [64, 8]
-0.10018379 -0.18914214 -0.07703798 0.32186913 0.31092808 0.21607564 -0.2642707 -0.19715752
0.16640793 0.28567815 0.32463837 0.25950053 -0.16765524 -0.0911108 -0.22727899 -0.118394114
-0.1160706 -0.25258365 0.061144114 -0.20235138 0.12011108 -0.034812316 -0.019781467 0.0027553919
0.13789901 0.10824712 0.27927116 0.2948767 -0.2181041 0.23304637 -0.14199731 -0.2672595
-0.06343885 0.29298255 0.08643566 0.16076025 0.10025477 0.07452625 0.2857049 -0.07873888
0.2523708 0.08280878 0.049919114 -0.30075473 -0.23023081 0.19764313 0.16092612 -0.13547517
-0.346429 0.25758195 0.110716045 -0.16198035 -0.24907628 -0.20362782 0.016575959 0.10070238
-0.19675179 -0.10093323 -0.1504975 -0.33732152 -0.13842757 0.15588124 0.10190113 -0.17885195
-0.06056328 0.21543348 0.024604384 -0.05587732 -0.0365066 0.23202279 0.018664844 -0.32056624
-0.034785997 0.31705758 0.14269121 -0.088995464 0.049039964 0.2633257 -0.2949256 -0.22624145
0.007547446 -0.08517941 0.16750294 0.27831337 -0.09123207 -0.06470973 -0.014975362 -0.3444947
0.061701328 0.1793921 0.04100194 -0.07991102 -0.090375856 0.02180747 -0.06323805 0.068572715
0.23075935 0.039074793 -0.06595041 -0.21643242 -0.3563597 0.18962975 0.04858124 -0.26739585
-0.26408616 -0.16068396 -0.07684129 0.17934589 0.089006856 -0.17120042 0.037598114 0.07762132
-0.2126992 -0.051591188 -0.19795917 0.14788516 -0.14739816 0.15453048 0.25680718 0.15957199
-0.13149954 0.2666363 -0.24687625 0.29866722 0.19207075 0.19066285 0.01683617 -0.06943521
-0.14507352 -0.056744922 -0.041156366 0.32340097 0.20054625 0.14316581 0.30525514 0.17209536
0.0255557 -0.04486331 0.27946198 -0.1915209 0.17200704 -0.0983246 -0.06697978 -0.12393471
-0.34433025 0.28971595 0.26881814 0.2567771 -0.25079396 -0.24135903 0.1731755 -0.32287782
0.07474049 0.24394283 0.104880154 -0.0050978283 0.14274617 0.14224142 -0.07433325 -0.2763619
-0.103630684 0.060858987 -0.12863693 -0.05461354 0.16754146 0.010346209 -0.36681935 -0.097920865
-0.31219628 0.24208334 -0.039135378 -0.007559613 -0.030340878 -0.08991175 0.017688723 -0.15745696
-0.298927 -0.2872141 -0.021683222 0.34453565 -0.24623828 0.29257888 0.2612214 0.19405547
-0.3473343 -0.26155263 -0.22233781 -0.057845056 -0.25587603 0.29745626 0.31696597 -0.24788839
0.11409232 0.124947965 -0.03652671 0.11570239 -0.10722153 -0.23711994 -0.19613284 0.32115945
0.22589093 -0.064260446 -0.23371664 -0.22880085 -0.08718172 0.20733504 -0.15472947 -0.15376154
0.08493543 0.025650993 0.011839487 -0.34828234 0.068005346 -0.107311286 0.17658415 -0.20190232
0.11339673 -0.33428776 -0.25735727 0.3111924 0.16657527 -0.23248613 -0.029039599 0.30833375
0.25304383 0.2688222 0.32195833 0.29251793 0.16200618 0.3173646 0.3160554 0.048965067
-0.341237 -0.22582513 0.07557836 -0.23835254 0.10564844 -0.15306957 0.19426528 -0.32245505
-0.07212672 -0.1957318 -0.12751506 0.23751432 -0.28886932 0.24933988 -0.30702984 -0.16138002
-0.30756232 -0.045340735 -0.17431839 0.2574263 0.1263282 -0.29681897 -0.1827172 -0.031147134
00000000: 292d cdbd 7aae 41be 17c6 9dbd 08cc a43e
00000010: f731 9f3e ef42 5d3e 7d4e 87be a9e3 49be
00000020: d766 2a3e 6844 923e 0037 a63e 41dd 843e
00000030: d1ad 2bbe 4d98 babd d3bb 68be 9d78 f2bd
00000040: 6cb6 edbd a552 81be 4072 7a3d 3335 4fbe
00000050: ccfc f53d 5c97 0ebd be0c a2bc ce93 343b
00000060: 6635 0d3e abb0 dd3d a1fc 8e3e 14fa 963e
00000070: ae56 5fbe b5a3 6e3e be67 11be 3dd6 88be
00000080: 3aec 81bd cf01 963e 2e05 b13d 569e 243e
00000090: 5f52 cd3d 38a1 983d ea47 923e da41 a1bd
000000a0: bf36 813e a697 a93d fc77 4c3d 86fc 99be
000000b0: a0c1 6bbe f662 4a3e d1c9 243e 01ba 0abe
000000c0: 245f b1be c8e1 833e 18bf e23d 2dde 25be
000000d0: da0d 7fbe d083 50be 4eca 873c 0d3d ce3d
000000e0: 4d79 49be 15b6 cebd 041c 1abe 68b5 acbe
000000f0: f5bf 0dbe 559f 1f3e 8ab1 d03d f724 37be
00000100: 3411 78bd 989a 5c3e 228f c93c 9edf 64bd
00000110: f287 15bd 6297 6d3e 04e7 983c 4221 a4be
00000120: c37b 0ebd 5f55 a23e a51d 123e 4143 b6bd
00000130: 21de 483d a0d2 863e 7d00 97be d7ab 67be
00000140: 9150 f73b 8b72 aebd e485 2b3e 177f 8e3e
00000150: e1d7 babd 8986 84bd 395b 75bc 9c61 b0be
00000160: 88ba 7c3d 90b2 373e a6f1 273d 64a8 a3bd
00000170: fa16 b9bd 94a5 b23c f382 81bd da6f 8c3d
00000180: 2e4c 6c3e e40c 203d 0211 87bd 76a0 5dbe
00000190: c774 b6be 4d2e 423e 1ffd 463d 1ce8 88be
000001a0: 4d36 87be 568a 24be f75e 9dbd 73a6 373e
000001b0: 3a49 b63d 2a4f 2fbe 7b00 1a3d edf7 9e3d
000001c0: d2cd 59be 4851 53bd cfb5 4abe 356f 173e
000001d0: 8bef 16be 3d3d 1e3e 3b7c 833e d766 233e
000001e0: d1a7 06be 8e84 883e 21cd 7cbe e9ea 983e
000001f0: 32ae 443e 1f3d 433e 02ec 893c 0c34 8ebd
00000200: 278e 14be 5d6d 68bd 9493 28bd d094 a53e
00000210: ff5b 4d3e 0f9a 123e 674a 9c3e c439 303e
00000220: 305a d13c 97c2 37bd a415 8f3e 0e1e 44be
00000230: 9d22 303e 685e c9bd b22c 89bd 7bd1 fdbd
00000240: 0e4c b0be a655 943e 88a2 893e 4a78 833e
00000250: 1168 80be d226 77be eb54 313e 3e50 a5be
00000260: 8b11 993d 26cc 793e 68cb d63d af0b a7bb
00000270: 0d2c 123e bca7 113e 083c 98bd 4f7f 8dbe
00000280: 533c d4bd 4647 793d 66b9 03be 73b2 5fbd
00000290: fd8f 2b3e 2583 293c bfcf bbbe bc8a c8bd
000002a0: 31d8 9fbe b2e4 773e 6b4c 20bd a1b6 f7bb
000002b0: 6f8d f8bc a723 b8bd f1e7 903c 663c 21be
000002c0: f60c 99be ba0d 93be 03a1 b1bc fa66 b03e
000002d0: e325 7cbe e6cc 953e d0be 853e 7ab6 463e
000002e0: cdd5 b1be 3aea 85be 86ac 63be f0ee 6cbd
000002f0: 2f02 83be 304c 983e 5d49 a23e 74d6 7dbe
00000300: 3ca9 e93d b8e4 ff3d 089d 15bd 60f5 ec3d
00000310: f696 dbbd 92cf 72be 0cd7 48be 036f a43e
00000320: f44f 673e fb9a 83bd 6a53 6fbe c54a 6abe
00000330: 548c b2bd a34f 543e 6771 1ebe aa73 1dbe
00000340: a0f2 ad3d 0822 d23c 68fa 413c 1052 b2be
00000350: 6346 8b3d 05c6 dbbd 7ad2 343e 7bbf 4ebe
00000360: 8b3c e83d c427 abbe 55c4 83be 9c54 9f3e
00000370: b592 2a3e d810 6ebe 74e4 edbc ecdd 9d3e
00000380: f68e 813e 10a3 893e b9d7 a43e e9c4 953e
00000390: f3e4 253e 9d7d a23e 03d2 a13e 988f 483d
000003a0: 9eb6 aebe b43e 67be d4c8 9a3d b012 74be
000003b0: 365e d83d 45be 1cbe 7aed 463e d418 a5be
000003c0: 2cb7 93bd eb6d 48be 4f93 02be f436 733e
000003d0: aee6 93be f452 7f3e 0433 9dbe ce40 25be
000003e0: cf78 9dbe 35b7 39bd 8580 32be 61cd 833e
000003f0: 2e5c 013e a8f8 97be 381a 3bbe 4628 ffbc

value_layer.0.bias f4 [64]
0.23582396 -0.24458465 0.30585423 0.23813468 0.13397174 0.17424779 -0.07196997 0.32259172
-0.17345706 -0.1216906 0.1612101 0.21896707 0.06924348 -0.15143141 -0.19484884 -0.35372084
0.31848848 -0.19488168 0.2230526 -0.32483044 0.18434021 0.033130564 0.1953061 0.14467806
-0.23813415 0.1427222 0.03237853 0.032624967 -0.045790296 0.28576493 0.18595275 0.010326039
0.0059746644 -0.25772256 -0.32830286 0.09773506 -0.23433793 -0.21062125 0.26448885 0.25517097
-0.06060178 -0.25404698 -0.052637544 -0.30620602 -0.19493595 0.34366053 0.27217975 0.29726857
0.24326213 -0.023634585 0.17587148 -0.09149214 -0.28618824 -0.2662686 0.28608704 0.18320248
0.17050417 0.3399233 -0.20905887 -0.2170617 0.07569869 -0.04297018 -0.0672263 -0.3073384
00000000: d67b 713e 6674 7abe ed98 9c3e 94d9 733e
00000010: e32f 093e 036e 323e fe64 93bd be2a a53e
00000020: ba9e 31be ec38 f9bd 4314 253e e738 603e
00000030: 87cf 8d3d d610 1bbe 7486 47be e61a b5be
00000040: ec10 a33e 108f 47be e767 643e 2d50 a6be
00000050: aec3 3c3e eab3 073d 53fe 473e 7c26 143e
00000060: 70d9 73be c525 123e 599f 043d c2a1 053d
00000070: 9b8e 3bbd c84f 923e 666a 3e3e 8c2e 293c
00000080: 1ec7 c33b 36f4 83be 5017 a8be 5229 c83d
00000090: 48f6 6fbe 19ad 57be 156b 873e c5a5 823e
000000a0: 9239 78bd 7212 82be 779a 57bd 09c7 9cbe
000000b0: 4a9d 47be 46f4 af3e 255b 8b3e 9633 983e
000000c0: b519 793e 519d c1bc a717 343e 3b60 bbbd
000000d0: 4487 92be 5c54 88be 007a 923e 6e99 3b3e
000000e0: a598 2e3e 6d0a ae3e 8713 56be 6c45 5ebe
000000f0: ea07 9b3d 8001 30bd f1ad 89bd 755b 9dbe

value_layer.2.weight f4 [64, 64]
-0.009785066 0.0427335 0.04312109 0.08579165 -0.08674354 -0.11900468 -0.033781134 0.08759058
0.0378878 0.10942184 -0.028465446 0.10882681 -0.112902164 0.07243909 0.0754859 0.09613468
-0.027258657 0.106790595 0.12054147 0.011025138 0.055166822 -0.11955103 0.10838095 0.110163026
0.11681431 -0.009361862 0.090008646 -0.11677345 0.060910556 -0.044572774 0.05339327 -0.03384849
-0.0055990987 0.10479371 0.021742152 -0.019659052 -0.07808217 0.040071655 -0.09002963 -0.024828384
-0.109725 -0.05779061 -0.014224668 0.016660163 0.049118277 -0.03978431 0.085180506 -0.04945555
0.048738975 0.09997451 -0.11563292 0.058793247 0.0971893 0.008430878 -0.045155145 -0.062228877
-0.069550075 0.090332 -0.09374813 -0.077595614 0.04532474 0.08368307 -0.035811927 0.107212365
-0.07548579 0.104249105 0.03415705 -0.02699311 0.10023788 -0.08768394 0.08029157 0.10492933
-0.047042884 0.11677854 -0.024647653 0.121364616 -0.016125869 0.0999365 0.1131434 -0.065164596
-0.008745569 -0.09441427 0.0692877 -0.09987084 0.047938034 -0.050044127 0.08992809 0.062376056
-0.01386105 0.021887159 -0.110311024 -0.04213692 0.09391906 -0.06345042 -0.07039759 -0.054801438
0.003910214 0.02005449 0.060553957 -0.12366359 -0.021855423 0.049549732 0.12427503 -0.03908436
-0.11822219 0.06744356 -0.033271782 -0.062302746 0.09200006 0.028885188 -0.022408267 -0.100922264
-0.02640007 -0.08849041 -0.01548574 0.12792642 -0.040812884 0.090774864 0.034710813 -0.064834006
0.098138705 -0.082139224 -0.06958122 -0.11940228 -0.054851454 -0.01418069 -0.0099094985 0.009058038
-0.10849354 0.0018256473 -0.043639384 0.07209957 -0.0060789087 0.055440314 -0.030418912 -0.0008877763
-0.01810661 0.03136576 -0.10880118 0.018813927 0.022800868 -0.1124711 -0.086797886 0.02320565
-0.0119358525 0.01529272 -0.048359077 0.08124049 -0.1153784 -0.00019811497 0.03452567 -0.073603906
0.053470522 -0.031232193 0.009118746 -0.12453992 -0.11476925 -0.0070845364 0.014617265 -0.06825394
-0.092810765 0.09347547 -0.10651575 -0.1082525 0.048809487 0.0032458634 -0.029448295 -0.11938735
-0.03164689 0.0018349247 -0.052827705 0.035446756 -0.06101852 -0.04354082 0.054933313 0.07821336
-0.104829155 0.078426085 0.069917604 -0.015388874 0.01713495 -0.079669416 -0.07696056 0.09281809
0.06363964 -0.046071373 0.08995633 0.019061914 -0.04322787 0.033590775 -0.10859266 0.059407506
0.048457116 0.04273726 0.012021376 0.10378014 -0.05143609 0.06440023 0.09300737 -0.10515772
0.08697715 -0.11702833 -0.040150385 -0.008759632 0.079154976 0.03935 0.01497026 0.013012682
0.08472962 -0.028996367 -0.10317046 -0.011800967 0.10643383 -0.055325795 0.062921256 0.113754235
0.09569523 -0.084902756 0.004659712 -0.043812618 0.12672201 0.07967035 -0.10640825 0.10565326
-0.10391458 0.050459746 0.023347089 -0.016317695 0.07067562 0.012361302 0.10928637 -0.020011451
-0.113786705 -0.012898514 0.072990544 0.010099962 0.04759271 0.01822226 0.043603186 -0.047551923
-0.03568033 -0.051500525 0.034452915 0.054548454 0.0773358 0.007795625 0.070835225 -0.07481403
-0.025189064 -0.093562394 0.06762718 0.05537301 -0.056152415 -0.012692873 0.11418432 -0.068934985
00000000: 8b51 20bc 5309 2f3d bd9f 303d 88b3 af3d
00000010: 99a6 b1bd bab8 f3bd 165e 0abd b162 b33d
00000020: 3d30 1b3d 8f18 e03d 5e30 e9bc 97e0 de3d
00000030: 4039 e7bd f25a 943d 5a98 9a3d 42e2 c43d
00000040: 8c4d dfbc 07b5 da3d 72de f63d c8a2 343c
00000050: 9bf6 613d 2cd7 f4bd d5f6 dd3d 279d e13d
00000060: 573c ef3d 7f62 19bc 7456 b83d eb26 efbd
00000070: 597d 793d f191 36bd e7b2 5a3d b7a4 0abd
00000080: a578 b7bb 169e d63d 991c b23c 050c a1bc
00000090: 8be9 9fbd 2d22 243d 7461 b8bd e564 cbbc
000000a0: 80b7 e0bd d9b5 6cbd 950e 69bc e57a 883c
000000b0: 3f30 493d dff4 22bd 1e73 ae3d e791 4abd
000000c0: 85a2 473d 70bf cc3d f4d0 ecbd 30d1 703d
000000d0: 2f0b c73d aa21 0a3c 9af4 38bd b5e3 7ebd
000000e0: 4570 8ebd fcff b83d 05ff bfbd 73ea 9ebd
000000f0: 6fa6 393d 0862 ab3d 87af 12bd 2892 db3d
00000100: 4b98 9abd 8e80 d53d 43e8 0b3d a820 ddbc
00000110: 8549 cd3d a393 b3bd e86f a43d 30e5 d63d
00000120: 0ab0 40bd 9629 ef3d e0e9 c9bc 038e f83d
00000130: 661a 84bc 82ab cc3d bab7 e73d 0475 85bd
00000140: 9349 0fbc 455c c1bd b6e6 8d3d 1589 ccbd
00000150: ac5a 443d 12fb 4cbd 382c b83d 097e 7f3d
00000160: 7519 63bc b34c b33c bfea e1bd c397 2cbd
00000170: a358 c03d 4bf2 81bd 9d2c 90bd 7977 60bd
00000180: 4121 803b 5049 a43c 6d07 783d 5643 fdbd
00000190: 250a b3bc a9f4 4a3d e883 fe3d ec16 20bd
000001a0: 7a1e f2bd d91f 8a3d fe47 08bd 2a31 7fbd
000001b0: 876a bc3d a1a0 ec3c 8b91 b7bc 55b0 cebd
000001c0: f644 d8bc 763a b5bd e7b7 7dbc 25ff 023e
000001d0: 692b 27bd 2ce8 b93d ed2c 0e3d b1c7 84bd
000001e0: f2fc c83d 9c38 a8bd 9980 8ebd 2f89 f4bd
000001f0: ebab 60bd 2056 68bc 735b 22bc 2a68 143c
00000200: dc31 debd 8f4a ef3a 36bf 32bd f0a8 933d
00000210: 9531 c7bb 6215 633d 1531 f9bc a9b9 68ba
00000220: 5054 94bc 6279 003d 27d3 debd aa1f 9a3c
00000230: e3c8 ba3c 4057 e6bd 17c3 b1bd c619 be3c
00000240: 988e 43bc 518e 7a3c 2b14 46bd 6a61 a63d
00000250: 834b ecbd 15bd 4fb9 ca6a 0d3d a5bd 96bd
00000260: e803 5b3d a8da ffbc cb66 153c c90e ffbd
00000270: 240c ebbd 6625 e8bb 417d 6f3c b9c8 8bbd
00000280: 9213 bebd 1170 bf3d ee24 dabd 7db3 ddbd
00000290: 75ec 473d 8db8 543b 8d3d f1bc 5b81 f4bd
000002a0: 2ba0 01bd db81 f03a dd61 58bd 9e30 113d
000002b0: 8eee 79bd dc57 32bd c101 613d 532e a03d
000002c0: abb0 d6bd db9d a03d f630 8f3d 9e21 7cbc
000002d0: 985e 8c3c b829 a3bd 809d 9dbd 6917 be3d
000002e0: 8055 823d 56b5 3cbd 063b b83d bb27 9c3c
000002f0: b50f 31bd 7b96 093d d465 debd 4955 733d
00000300: f87a 463d 440d 2f3d 4ef5 443c af8a d43d
00000310: a6ae 52bd 45e4 833d a67a be3d ee5c d7bd
00000320: 1321 b23d 8dac efbd bb74 24bd 8f84 0fbc
00000330: 011c a23d 772d 213d d245 753c 2533 553c
00000340: b986 ad3d ca89 edbc 094b d3bd d858 41bc
00000350: fbf9 d93d 4d9d 62bd dcdc 803d fbf7 e83d
00000360: dcfb c33d 7fe1 adbd 7fb0 983b dc74 33bd
00000370: 6ac3 013e 352a a33d 92ec d9bd bd60 d83d
00000380: 2bd1 d4bd e1ae 4e3d 6542 bf3c b0ac 85bc
00000390: 61be 903d 0f87 4a3c 88d1 df3d 0eef a3bc
000003a0: 0109 e9bd 4a54 53bc 117c 953d 507a 253c
000003b0: 93f0 423d d946 953c 4199 323d cec5 42bd
000003c0: 8a25 12bd 37f2 52bd 801e 0d3d 336e 5f3d
000003d0: 3b62 9e3d 7172 ff3b 0f12 913d 1938 99bd
000003e0: 4c59 cebc a49d bfbd 1e80 8a3d cfce 623d
000003f0: 1300 66bd c5f5 4fbc 78d9 e93d c92d 8dbd

value_layer.2.bias f4 [64]
0.054007173 -0.12165547 -0.1147033 -0.013183802 -0.05585167 0.070741296 0.068735294 -0.08712195
0.09934622 0.07135078 0.09596862 -0.07087946 0.034022726 -0.07822389 0.11575472 -0.069569886
0.086298995 0.032807615 0.101644315 0.087898806 0.040326208 -0.056178298 0.019499555 -0.027333325
0.108628295 0.030763991 0.0006564896 0.026367465 0.11798613 -0.096465595 -0.015115233 0.00088330917
0.0028598795 0.102934025 -0.10029145 -0.05590035 -0.10458466 0.0050312923 0.0071454328 -0.1131691
0.014965034 -0.06037905 0.06461106 -0.092191316 -0.10339345 -0.060080584 0.058130495 0.04818139
0.06484394 -0.033324983 -0.016581737 -0.057428006 -0.031708132 -0.0808263 -0.026109139 0.09127952
-0.08748229 0.050915875 -0.01669696 -0.005286878 0.09413186 -0.021589478 -0.11449952 -0.08361029
00000000: a036 5d3d 8126 f9bd 90e9 eabd e000 58bc
00000010: b9c4 64bd d0e0 903d 17c5 8c3d fe6c b2bd
00000020: 0876 cb3d 5c20 923d 328b c43d 4029 91bd
00000030: 6a5b 0b3d d933 a0bd d010 ed3d a87a 8ebd
00000040: 87bd b03d 4761 063d e52a d03d 4a04 b43d
00000050: 182d 253d 371b 66bd 88bd 9f3c 23ea dfbc
00000060: 8378 de3d c404 fc3c 4518 2c3a 9500 d83c
00000070: b6a2 f13d c18f c5bd e2a5 77bc e08d 673a
00000080: d16c 3b3b 13cf d23d 9b65 cdbd c4f7 64bd
00000090: 7b30 d6bd 8add a43b 3c24 ea3b 33c5 e7bd
000000a0: e72f 753c 0650 77bd ce52 843d cdce bcbd
000000b0: f2bf d3bd 0f17 76bd 3e1a 6e3d d959 453d
000000c0: e6cc 843d c77f 08bd 6cd6 87bc a139 6bbd
000000d0: 63e0 01bd 4288 a5bd d5e2 d5bc c2f0 ba3d
000000e0: ea29 b3bd 2a8d 503d 10c8 88bc 8c3d adbb
000000f0: 34c8 c03d 6bdc b0bc b97e eabd df3b abbd

value_layer.4.weight f4 [1, 64]
-0.088588014 0.0768357 -0.073782146 -0.081297025 0.04037631 -0.014912415 -0.0038357354 0.08338583
-0.004745294 -0.009862816 -0.020773154 0.106805764 -0.016721703 0.020766547 0.06142712 0.053709947
0.030463096 0.03085477 -0.048087697 -0.05070741 -0.003504872 0.040226165 -0.055171 -0.0016278152
-0.01215721 0.038377404 0.030967232 -0.001062929 0.008626185 -0.075554594 -0.08662912 -0.048115738
0.09691621 0.044093613 -0.000514278 -0.017006075 0.013463149 -0.08734252 0.038253076 0.05746807
-0.0623782 0.03461273 0.06559095 0.01840124 0.08797168 -0.044238906 0.03489486 -0.04672855
0.05373868 -0.04748343 0.07999288 -0.038330194 -0.016424801 0.08880929 -0.0279418 0.095333
-0.04167332 0.046496395 -0.07817741 0.08291939 0.09637011 -0.08513666 0.010399552 0.071179554
00000000: a26d b5bd 095c 9d3d 181b 97bd 0e7f a6bd
00000010: a161 253d 3453 74bc f660 7bbb 31c6 aa3d
00000020: 697e 9bbb a697 21bc 762c aabc fbbc da3d
00000030: f4fb 88bc 9b1e aa3c 019b 7b3d f6fe 5b3d
00000040: be8d f93c 25c3 fc3c 9bf7 44bd 93b2 4fbd
00000050: ffb1 65bb 31c4 243d fdfa 61bd 6a5c d5ba
00000060: 092f 47bc a031 1d3d feae fd3c fb51 8bba
00000070: d854 0d3c 5ebc 9abd 9c6a b1bd 0215 45bd
00000080: 027c c63d 819b 343d 9dd0 06ba 5350 8bbc
00000090: 8a94 5c3c a3e0 b2bd 42af 1c3d a463 6b3d
000000a0: 4980 7fbd 14c6 0d3d 8c54 863d 33be 963c
000000b0: 7f2a b43d db33 35bd eaed 0e3d 7066 3fbd
000000c0: 171d 5c3d fc7d 42bd 4fd3 a33d 1f00 1dbd
000000d0: 4e8d 86bc a5e1 b53d 34e6 e4bc f33d c33d
000000e0: a5b1 2abd 0173 3e3d 7a1b a0bd a4d1 a93d
000000f0: b15d c53d 215c aebd e262 2a3c 96c6 913d
