8_gym-PPO/results_seed/PPO_LunarLander-v3_2000-eps0.2-seed22.pth (torch, 44306 bytes, 11 tensors)

action_layer.0.weight f4 [64, 8]
00000000: 0b64 a5bb bc9f aa3d c454 87be aca2 fbbe
00000010: 1edf 7a3e b7ea 07be b84b b33e 4918 1f3e
00000020: 05f6 c23e 0392 eb3d 2d66 aa3e a73b d13e
00000030: dd04 b1be f847 49bf b37a d43e 3e32 093f
00000040: a1db 05be 9d2a 1a3e 0f26 90bd 6253 9abc
00000050: f933 a13e 98b2 69be 90a5 453e ed6b b63e
00000060: 5c10 973d 6444 533d 1a48 ea3e 0cd8 453e
00000070: e0f2 a4be 1087 c1be 14c3 423e ebed 94be
00000080: 6a7e 093e 0f4e d9bb 7dc0 9dbe d599 ffbe
00000090: 2ce4 973e e79e ef3c 4ca5 f7be 251c 8dbb
000000a0: d664 e63d 0960 bfbd d298 8ebe 3e48 a0be
000000b0: 81cb 46be e587 0c3e d8ed b2bd fcb9 a13d
000000c0: 860a 7cbd fdf0 0f3e 7b14 5fbe 67ea 07bf
000000d0: f221 cd3e f348 e63b 2823 8ebc ca06 573e
000000e0: 5bac 72be 02da 60be 94c8 51be f520 7a3d
000000f0: b4aa acba 705c 943e d1c8 e9bd 4626 03bf
00000100: 2323 b6be 886b 303e 6af6 97be 5899 2d3c
00000110: 75c0 013f e1b7 7d3e 3052 5f3d 315a 99bd
00000120: 1b91 17bf 7fb9 c63d 443f c4bc 3ad6 c13e
00000130: 8cbd f93e b81c 493e eec6 c0be 5d40 203e
00000140: 829a a63e 057b 283c b626 e73e 67c1 debe
00000150: d368 4abf 838d fcbe a76c 863c b8b6 77be
00000160: 61ba 96bd 94ba a53d 691a 77be 6ca7 c5be
00000170: 6215 38bd fc03 3a3f 8a34 b8be 8933 63be
00000180: 72e7 7dbe ca44 e8bd 0b83 34be ca88 8e3e
00000190: 611a 333e 8ac3 1d3d 0fd8 f4be 3803 debe
000001a0: e2fd 003e ec77 7d3c 3d56 fc3d 0330 583e
000001b0: 2c91 57bd 9ef9 c3be 0b73 3f3e d688 0b3f
000001c0: cdc4 033f 7bb9 00be 164d 133f 7a8e 093e
000001d0: 8671 923d 08ed e03d 7e60 a9be 941b 1a3e
000001e0: bdbe 2dbe 0765 df3d 150f 8bbe 23bb d13e
000001f0: da99 2f3d 6b37 623e 0af3 ddbe bdf3 9bbe
00000200: e5d1 ec3b d454 1a3e 8c6a 8cbe db87 243f
00000210: 1247 2b3e 1b8f 82be c8cb e1bd d8db f3be
00000220: d5e9 513e 5480 d5bc 69c9 183e c8d0 103f
00000230: 52f4 5dbe 4400 cabd 2029 93be 3012 c7be
00000240: eaf7 0ebb 652f e63d 0e70 f83e aec5 26be
00000250: 1dab b3be f321 44be 2939 9bbd bffc 73bd
00000260: 4e6b 0cbd 916f 41be 0d46 763e 0d3b 40bf
00000270: 5143 d4bd d2dc 8e3e 942c 953e a02a aebd
00000280: e22d 593e 8f15 12be b17c ba3d d52b db3d
00000290: ce55 3dbe 9e12 c9be 6c88 663d 386c 533e
000002a0: 0764 a23d 2249 b5bd 3c2e 38be 2515 0f3e
000002b0: 5c4e 863e af04 8b3d c8ba b3bd dc6d 8abd
000002c0: f25c c63d 5b88 28be 9bfe 8d3e 8121 1bbf
000002d0: 5b46 86be c08c 4a3d 9092 b13e 2e2d ee3e
000002e0: d9e5 33be 1247 60be 9005 1abe e6c4 533e
000002f0: 66fd 173f 178d de3e 79d5 c1be 80a1 a93e
00000300: ef7c 17bd 8504 343e 859e 51bd ed46 0a3f
00000310: d675 f13e dd24 983e 8f2f 83be dd65 083f
00000320: de49 a1be 1b5c 59be a23b ae3e a70b bc3e
00000330: 812f 253e 9fcc 99be be77 3f3e 0100 dbbe
00000340: 8e7d 91be 8861 7cbd 6a60 9dbd fed1 183f
00000350: 5432 b13e b36e eebc 1963 7fbe c174 56be
00000360: 3810 28be 3516 99bd cf8b 50bd 38d6 1a3f
00000370: f939 e6bc 799d 00bd 57d5 633c 9f6a aabe
00000380: 1ecb a3be 259d 23be a6b4 773e 3b37 a63e
00000390: 4c01 b6be 3435 f53c 8ed6 18bf ddb2 17bf
000003a0: 5e24 21be bcc3 663d d4fb d73e a048 033f
000003b0: 0541 86be b869 98be 1756 8e3e 53c1 bf3e
000003c0: 8b98 f13d fde8 22be 563a f43e d323 073f
000003d0: dddf cabe af3b 7abd 612b b43d a6ed b7be
000003e0: 9c6b a03e be1e e23a 5157 fd3e 3a16 c23e
000003f0: a67a 80be aad1 dc3c 45e3 913e 4e35 c83d
-0.0050473264 0.08331248 -0.2643186 -0.49147546 0.24499175 -0.1327313 0.35018706 0.15536608
0.38078323 0.11502459 0.3328108 0.40865824 -0.34574023 -0.7862544 0.41499862 0.5359229
-0.13072063 0.15055318 -0.07038509 -0.018838588 0.31484964 -0.22822034 0.19301438 0.35629216
0.07376167 0.051578894 0.45758134 0.19320697 -0.3221655 -0.37798357 0.19019729 -0.29087767
0.1342713 -0.0066316198 -0.3081092 -0.49922052 0.2966627 0.029250575 -0.483683 -0.0043063336
0.11249702 -0.09344489 -0.27850968 -0.31305116 -0.19413568 0.13723715 -0.08736771 0.07896802
-0.061533473 0.14056773 -0.21785156 -0.53092045 0.4006496 0.007027739 -0.017350748 0.20998684
-0.23698561 -0.21958163 -0.2048667 0.061066587 -0.0013173432 0.28976774 -0.11415256 -0.51230276
-0.35573682 0.1722852 -0.29680187 0.010595642 0.5068429 0.24777175 0.05452174 -0.07487906
-0.5920579 0.09703349 -0.023955949 0.37858754 0.48777425 0.19639862 -0.3765177 0.15649553
0.32539755 0.010283236 0.45146722 -0.4350693 -0.790662 -0.49326715 0.016409231 -0.24190795
-0.07359768 0.080922276 -0.24131168 -0.38604295 -0.044942267 0.7266233 -0.35977584 -0.22187628
-0.2479532 -0.113412455 -0.17628114 0.27838737 0.17490532 0.03851656 -0.4782109 -0.4336183
0.12596849 0.015470486 0.12321136 0.21112065 -0.05262868 -0.3827638 0.18696229 0.5450567
0.5147217 -0.12570755 0.575395 0.13433257 0.07150559 0.1098271 -0.3308143 0.15049583
-0.16967292 0.10907941 -0.27159944 0.40963086 0.042871334 0.22091453 -0.43349487 -0.30459395
0.00722717 0.15071422 -0.2742504 0.642698 0.1672633 -0.25499806 -0.11025196 -0.47628665
0.20499356 -0.026062168 0.14920582 0.56568575 -0.21675232 -0.09863332 -0.28742313 -0.38881063
-0.0021815249 0.112395085 0.4852299 -0.16286346 -0.35091487 -0.19153576 -0.07579262 -0.05956721
-0.03428202 -0.18890215 0.2405016 -0.75090104 -0.10364402 0.27902848 0.29135573 -0.08504224
0.21208909 -0.14266036 0.09105814 0.1070172 -0.18489763 -0.39272016 0.056282446 0.20646751
0.07929235 -0.088518396 -0.17986387 0.1397291 0.26231658 0.06788003 -0.0877586 -0.06759235
0.09685697 -0.16458265 0.2773331 -0.60598 -0.26225552 0.049450636 0.3468213 0.46518844
-0.17568149 -0.21902111 -0.15041184 0.2068058 0.5937103 0.43467018 -0.3785818 0.33131027
-0.03698438 0.17579849 -0.051176567 0.54014474 0.47160214 0.29715624 -0.25622222 0.5328043
-0.3150167 -0.21226542 0.3402987 0.3672764 0.16131403 -0.30038926 0.18698022 -0.4277344
-0.28416103 -0.06161645 -0.07684405 0.5969542 0.3460871 -0.02910552 -0.24940147 -0.20942976
-0.16412437 -0.07474939 -0.050914582 0.6048312 -0.028103815 -0.031400178 0.013905845 -0.3328447
-0.31990904 -0.15977915 0.24190006 0.32464013 -0.35547864 0.029932596 -0.59702384 -0.592573
-0.15736529 0.05633901 0.42184317 0.5128269 -0.2622148 -0.29768157 0.27800056 0.37452182
0.117966734 -0.1590919 0.47700757 0.5278904 -0.3962392 -0.061092075 0.08797336 -0.359235
0.313321 0.0017251594 0.4948068 0.37907583 -0.25093573 0.026955444 0.28493705 0.09775792

action_layer.0.bias f4 [64]
00000000: c99f 6fbd 95f2 ce3d d50a edbd 2357 703c
00000010: 50a8 abbd 9760 1dbe c922 723c 7786 323e
00000020: be1e 1ebd c2a8 c23d dd0d 33be 42bf f9bd
00000030: 20de 843e 08b9 943c eaae 58bd ec42 003e
00000040: ca28 173b 0e5c 813e 4ada 84ba 293a c7bd
00000050: e314 ad3d 9ee8 de3d 7f34 e33d cdfe 823e
00000060: 76a5 543e dbdd 323e 25fe 3a3e ab33 823d
00000070: febf 1dbe cf83 bd3c c513 113e 7e7e 0ebe
00000080: 27ba 843d 5845 f73c 7903 1f3e 0a37 b33d
00000090: b7d3 823d 1291 323e 5c53 bfbc 4206 f5bc
000000a0: 0e2b 343e 5942 8c3e c3be d7bb 1957 023e
000000b0: 3a45 09bd 8b2a c3bd f093 45be d5b6 adbe
000000c0: d24b 45be bc7f c5bd 4723 2cbd 7ae2 01be
000000d0: c340 febd 9289 36be e9d3 9cbd e2d2 ee3d
000000e0: 9801 363d 0f23 a1bd fb02 85be 83a7 1f3e
000000f0: fd07 51bd fad7 a4be 8264 a7be 3767 733d
-0.058501992 0.101048626 -0.11574332 0.0146692125 -0.083817124 -0.15368877 0.014778801 0.17434107
-0.038603537 0.09504844 -0.17485757 -0.12194683 0.25950718 0.018154636 -0.052901186 0.12525529
0.0023065084 0.25265545 -0.0010135856 -0.0972789 0.084512495 0.10884212 0.11093997 0.25585023
0.20766243 0.17467444 0.18261011 0.06357511 -0.1540527 0.02313414 0.14167698 -0.1391544
0.06480818 0.030184433 0.15528668 0.08750732 0.06388038 0.17438152 -0.023355179 -0.02991021
0.17594549 0.2739437 -0.00658402 0.12728538 -0.033513285 -0.09529599 -0.19294715 -0.33928552
-0.19267204 -0.09643504 -0.04202583 -0.1268405 -0.12414696 -0.17825916 -0.07657606 0.116613165
0.044435114 -0.07868015 -0.25978836 0.15591244 -0.05103301 -0.32196027 -0.3269387 0.059424605

action_layer.2.weight f4 [64, 64]
00000000: 9342 2abb 6135 ca3d b00f 453d 9c02 473d
00000010: 51e0 123e a6e9 ae3d 9b63 f83d b338 a5bd
00000020: 1577 ccbd 9a18 16be 21dc 773e 2279 0e3e
00000030: cbe1 4f3d ba01 ccbd b727 09bc 8446 de3c
00000040: 2691 cdbd ae26 98bd 61ed c13d 1a54 773b
00000050: b20e f6bd 6a88 2dbb 8f79 563e edf4 fdbd
00000060: 75a7 e0bd d621 0fbe 8ca3 4cbe ae65 54be
00000070: fe3d 3b3d 68e1 5fbd d3e6 87bd c2ae 903d
00000080: 8d51 f0bd 0fc8 223e 944d 7abc be1e 1e3e
00000090: 83a1 ce3d 0840 683c b360 a1bd dee9 7abe
000000a0: 1dad 17bf 37fe 30be c626 98be 2486 aeba
000000b0: 8428 32bd 49b1 793d 7039 82bd 4c78 3b3d
000000c0: 7dd7 923e ec46 283e fdd2 b3bb 6ed2 1e3e
000000d0: 81e0 4d3e 20a5 263e 8eea 98bd 7704 28bb
000000e0: 7ca1 2dbe 14fe 03be 3c73 2cbd a900 e9bd
000000f0: cc98 fe3b c18b b23e 7101 6c3e 690e 143e
00000100: 7609 dc3c 3c47 ac3b b000 c3bd b00d b53d
00000110: 29df a03e 8677 c23d 2fdb a03d e407 953d
00000120: f2e7 193e 4e64 1fbc 47c0 963c 2b23 103e
00000130: 6748 9dbd fa75 993c 0ff2 7bbd bf40 b8bc
00000140: 3ac2 30bc 5c1b 2abd 5da5 17bd 25d7 94bd
00000150: 9d98 90bd 105d f73d beee 7c3d f40a d1bd
00000160: 29ce e9bd e179 6ebd cb5b 1fbe 53ad febd
00000170: ed00 72bd a7fd 50bc 63c1 40be c603 803d
00000180: 0b03 acbd 1b6a 91bd 7d7c fbbd ff8d 163e
00000190: 40d6 86bd 1708 7bbd aa80 f1bd aad7 dbbd
000001a0: 7f96 1dbe b89a acbd cb35 563d 96d6 a13d
000001b0: 05c9 6ebd 7111 c73d cc59 83bc 9736 a13b
000001c0: 7cbb 123d 287e ee3c ba9d 9ebb 1262 013d
000001d0: eac8 113e 8a35 e9bc ea16 903c 7efb 4b3b
000001e0: a8c3 21bd fd7e acbd ea00 113e 41f0 1fbd
000001f0: 9462 313e 7727 e13c f205 753b f28a b53d
00000200: b973 063d d651 9f3c 8396 a63d 8735 9e3d
00000210: 41dd a13e 847b bb39 6968 a63d 951d cc3d
00000220: 433d 92bd 178e cfbd 047d 163e ffbf 873d
00000230: a01a e73c 1ae4 f1bc 2cc4 fc3c 4b77 f33d
00000240: 6db1 3e3d d4d3 c9bb 0139 b7bd ca57 0abe
00000250: 972a 21be b0dd eb3d a4d0 563d b2c9 de3c
00000260: 2df8 ca3c fdd8 52bd f2f8 21bd 35a0 803d
00000270: 1b41 883d 4c41 2ebe 8eec cdbd dfea 803d
00000280: 9047 aabd 9adc 023d a5cb 973d 32f9 7fbb
00000290: c7d6 8fbc aa6c 12bd d9eb 9c3d 535a 27bd
000002a0: 2173 48be 533a 51be c94d bc3d d2cf 28bd
000002b0: df10 d93d 70d9 a33d d35b 103e 59e6 783d
000002c0: e277 443d 3bc8 b03d 0f9b 84bd 4f09 b83b
000002d0: d451 8a3d b76f af3c 9c54 ebbc 76b0 11bd
000002e0: ec07 fbbd b814 fbbd d0d5 933c e2fd dcbd
000002f0: ef17 1a3c 8f81 0b3e c159 403d d425 89bc
00000300: 46b7 c4bd 7010 f93d cc7f 713d 423b 20be
00000310: d9e8 08bd ced3 91bc e5e5 933d 3e48 debd
00000320: ed5f bcbd 7803 023e 0335 4dbd fa25 2abd
00000330: ed51 2f3e f2a0 66bd 66d4 eb3d 9087 003d
00000340: 93e0 d33d 55df c43d dff0 7b3a 2816 8e3c
00000350: 7a91 313e 721e e03d cc04 b13d 4d64 ac3d
00000360: 82bc 353e 5572 553e 5700 643e 0dfb 3b3e
00000370: 3607 b03d 7a69 753e 13b2 8fbc 996b bdbd
00000380: 84c0 233e 2a6a 74bd 3159 e63d 3ed3 f6bd
00000390: 51dc 7c3d 2b50 45bd 78eb 9b3a b7ab 393d
000003a0: 5218 ceb9 bc93 d13d 69b9 373d 09b7 a4bd
000003b0: 0792 e5bd 2642 dd3c 407a 6c3d c82a 013e
000003c0: 8787 11be dca0 0bbe 317f 0cbc dcba 07bb
000003d0: 887b 20be 4574 45be fc2d 03bd 7c04 a13c
000003e0: cba3 973d e573 483d 413d b6bd 3cb4 42bd
000003f0: 9bcd 883d 6d58 f8bd 5ae7 ffbd d7a3 8abd
-0.0025979623 0.098734625 0.048110664 0.048586473 0.14343382 0.08540659 0.12128373 -0.08067455
-0.099836506 -0.14657822 0.24205066 0.13913396 0.050752442 -0.09961267 -0.008371285 0.027133234
-0.100374505 -0.074292526 0.094691046 0.0037739337 -0.12014522 -0.0026479014 0.20944808 -0.124002315
-0.1096944 -0.13977751 -0.19984263 -0.20741913 0.045713417 -0.054658324 -0.06635823 0.070645824
-0.117343046 0.15896629 -0.015277285 0.15441415 0.100894 0.0141754225 -0.07879772 -0.24503276
-0.59248525 -0.17284475 -0.29717082 -0.0013315124 -0.04349567 0.060960088 -0.063586116 0.04576902
0.2868003 0.16433305 -0.0054877982 0.1550996 0.20105173 0.16273928 -0.07466613 -0.0025637427
-0.16956133 -0.12889892 -0.042102084 -0.11377079 0.0077696797 0.3487225 0.23047425 0.14458622
0.02685998 0.0052575152 -0.095216155 0.08840501 0.31420258 0.094954535 0.07854306 0.07276896
0.15029886 -0.009728504 0.018402232 0.14075916 -0.07679825 0.018733013 -0.061510142 -0.02249181
-0.010788495 -0.04153 -0.037022937 -0.07267598 -0.07060359 0.12078297 0.06175112 -0.10207167
-0.11416275 -0.0582217 -0.1556236 -0.12435403 -0.059082914 -0.012755788 -0.18823771 0.0625072
-0.08399018 -0.07100316 -0.12279604 0.14702605 -0.06583834 -0.061287012 -0.11792119 -0.10734494
-0.15389441 -0.08427948 0.052297395 0.07902257 -0.058297176 0.097201236 -0.01603403 0.0049198377
0.03582333 0.02911289 -0.00484058 0.031587668 0.14236799 -0.028467912 0.017589051 0.0031125243
-0.039493233 -0.084226586 0.14160505 -0.039047483 0.17322761 0.027484639 0.0037387577 0.08864392
0.032825205 0.019448202 0.081341766 0.07725053 0.31614116 0.00035759446 0.081253834 0.0996658
-0.07140591 -0.10134523 0.14696127 0.06628417 0.028210938 -0.029527713 0.03085526 0.11887988
0.046555925 -0.006159285 -0.089464195 -0.13510051 -0.15738903 0.11516893 0.05244507 0.027195785
0.024776543 -0.051476467 -0.039544053 0.06280557 0.06653043 -0.17017096 -0.10054885 0.06294798
-0.08314431 0.031948663 0.07411889 -0.0039058444 -0.017558469 -0.03574816 0.07662172 -0.040857624
-0.19575168 -0.20432405 0.09194524 -0.041213818 0.10598921 0.08000457 0.14097528 0.06076655
0.04796589 0.08631941 -0.064748876 0.005616344 0.06753889 0.021415574 -0.028726868 -0.035568677
-0.1225737 -0.12259811 0.01804629 -0.10790612 0.00940512 0.13623641 0.046960596 -0.01674167
-0.09605269 0.12161338 0.058959767 -0.15647605 -0.033425186 -0.017801192 0.07221583 -0.10853623
-0.09197984 0.12696636 -0.050099384 -0.041540124 0.17121096 -0.056305833 0.11515121 0.031379282
0.103455685 0.0961291 0.0009610783 0.01734455 0.17340651 0.10943307 0.08643493 0.08417568
0.17747691 0.20844395 0.22265755 0.18357487 0.085951254 0.23966017 -0.017540967 -0.09249038
0.15991408 -0.05967156 0.11247481 -0.1205201 0.061733548 -0.048172157 0.0011895737 0.045329776
-0.00039309502 0.10233256 0.044854555 -0.08042724 -0.11209493 0.027009081 0.057733774 0.12613976
-0.14211856 -0.13635582 -0.008575247 -0.0020710742 -0.15672123 -0.19282635 -0.032026276 0.019655459
0.07404288 0.04893865 -0.08898402 -0.047535166 0.06679841 -0.12126241 -0.12495299 -0.06769531

action_layer.2.bias f4 [64]
00000000: 9b2e 09be 49c6 cebd a1e0 1d3d c21a b5bd
00000010: 5031 0a3e 17c2 fb3c d143 883d b6e4 9ebc
00000020: 7017 ab3d a213 84bd 800a 853d a160 bdbd
00000030: f8b7 ad3d 4b79 833d d363 c2bd 37f5 a4bd
00000040: 6c23 8b3d 348e 1abc e606 943c 9ff2 8cbd
00000050: 3b0d c93b 86c2 053c 3732 b03c 326b a63d
00000060: f469 bfbd 3284 0c3d f58f 033e 078e eabc
00000070: b1ad ec3d 3cef 853c e3c9 763d c0de 54bc
00000080: 3c83 3abd 2099 48bd b897 29be 93a3 673d
00000090: 836b 91bc b72e e73b bb84 4f3e aa48 d8bc
000000a0: 2e9b cfbd f331 a93d 96a8 823c 2370 7d3c
000000b0: b9be 353d 2b44 143d 8eee f1bb 59dd 26bd
000000c0: 20cc be3d f252 aebc 942f 70bd b794 ae3d
000000d0: b1dd 1d3e 20f3 263d 0a69 b23c 642d b63d
000000e0: 418c 5dbd 7ab5 e1bd 27a4 a2bd e1ba be3d
000000f0: f2d4 943d ea9e af3c f02c 17bd 7e01 7abd
-0.13396685 -0.10096414 0.0385443 -0.08842994 0.13495374 0.030732198 0.0665356 -0.019396167
0.0835408 -0.06449057 0.06496143 -0.09246946 0.08482355 0.06419619 -0.09491696 -0.080545835
0.067938656 -0.009433318 0.018069696 -0.06882214 0.0061356104 0.008164054 0.02150832 0.08125915
-0.09346381 0.03430576 0.12847884 -0.028632177 0.115565665 0.016349427 0.060251128 -0.012992561
-0.04553531 -0.048974156 -0.16561782 0.05655248 -0.01775146 0.0070551294 0.20265476 -0.026401836
-0.1013702 0.0826148 0.015949529 0.01546863 0.04437134 0.036197823 -0.0073831743 -0.040738437
0.093162775 -0.021279786 -0.058639124 0.08524459 0.154166 0.040759206 0.021778602 0.08895376
-0.054088835 -0.11020942 -0.07941466 0.09312988 0.072671786 0.02143808 -0.03690809 -0.06103658

action_layer.4.weight f4 [4, 64]
00000000: f6d6 1e3d 1d06 b23c 4128 be3d eab8 01be
00000010: f1ca 803d 9d28 783d 5b72 08bd 23a8 fb3a
00000020: c1b6 f0bd f245 99bc 7b1a 763c 98a6 053d
00000030: ba5b fabd fc20 0abd e92f d33d 21c8 12be
00000040: c0be bbbd 5edd 813d 279d 8839 f14d 6abe
00000050: 6745 573d a871 c7bd 1c58 e337 7f06 e1bd
00000060: 1e0f a83a 32cf 9a3d a447 6b3d 0c1b 143d
00000070: 538b c4bd 026f 5fbe 9d66 1ebe afa4 8bbc
00000080: 59dc dbbd 91a1 383e e667 e03b 3ac1 24bd
00000090: efff 0f3d 9ea2 993d 4521 b4bd 13f5 1a3d
000000a0: 1a66 923d 684c 9fbd 140c 753a 2f1a febb
000000b0: 3b78 37bd 9615 f0bc 1229 38bd a0e1 b6bd
000000c0: ff0f 2c3d 9ec4 f4bc 93d2 e93d d97b 89bd
000000d0: ff43 463d 93af 373d d02b f03d d068 443a
000000e0: d118 c4bd 185d 293d a9ba 9ebc c5c1 a63d
000000f0: a970 18bd 6173 363b e00b 223d e724 73bc
00000100: b8b9 d63d b42b 51bd 973a deba 14e6 4fbd
00000110: d869 073e d2d3 1e3d 980e 41be 4773 963d
00000120: d48d 5dbd 81aa 5c3d c333 053e 198e d0bc
00000130: 2744 5bbe eda8 61bc 535b 5d3e 39a6 0cbe
00000140: 193d 3ebd dae9 91be 904e 703d a832 23be
00000150: c846 0a3e 8c8e acbd 1a6a ae3d e018 c4bd
00000160: 9905 9abe 9056 b63b 2e99 083e 365e 8b3c
00000170: 9f97 213e 0cd8 32be c744 e1bd 32e7 903c
00000180: f246 e5bd 4439 23bc b618 9dbe f902 9a3d
00000190: f870 c5bd 8033 01be da59 003e 7c44 7ebd
000001a0: 93d4 dfbc 8c92 503e 3981 3f3d f40b 8b3e
000001b0: c0c9 ae3d 0a0d 3abe 55f8 94bd 3f59 533b
000001c0: 57d4 863e 3fd8 56bc 6fcc 0ebe 5e55 a8bc
000001d0: d53c 653e 9261 f1bd 25a5 1b3e 7249 9abe
000001e0: d5c5 733e 94fd 0abc 0ada 77bd 2eab 11bd
000001f0: d2a3 72bd 57d5 0b3e 2a19 73bd 7bc2 97be
00000200: 5c66 633e ded3 243d bce9 9c3d 71ca debd
00000210: 7961 90bd 0ded 43bd 1c86 253d 163a 6d3e
00000220: cef7 9d3d 76b1 c0bd 6a32 31be 83be 493d
00000230: b9ec 9d3e 2d3a dabc e69c e7bd 5301 643e
00000240: b807 2d39 39f0 c63d e647 d8ba fa9d 883e
00000250: d6c9 90be 35dc 693e dead 0fbe 6914 a63e
00000260: c2c1 2d3e 9c4f e53d 4bb4 7f3d 5e75 fdbd
00000270: cfc7 8f3d 4c76 403e 54f1 a23e 829e 0c3d
00000280: 423a 693e 3f66 b8be 6579 833e cb16 e83d
00000290: 0a17 373c cbee bfbd f6c1 45bd b793 5a3c
000002a0: 275a 1e3e 2c0d 9c3d ef5e 97bd 8cbd e4bc
000002b0: 7cb1 a938 2f38 483e 5b4e 82bd ff87 12be
000002c0: 2646 52be ec3c 29bd 11a5 bebe 9a47 c23c
000002d0: f558 65be 5306 1dbd 4bed 22be b2ed 71bd
000002e0: 45e0 f53c 53b9 1d3c 4baf 07be 5ed4 aa3c
000002f0: 18a3 c9bd d9ca 153e 5daf c93c eac9 9c3d
00000300: 1bec 84be bb3e 78bd 5b87 1cbb eb2b c2bb
00000310: f9e2 893d 1e15 1e3e 2aa9 813d 32c8 debc
00000320: 8620 8fbd cedb 6b3d d5a9 323d 7c43 a0bd
00000330: e904 0d3e a1fd dfb9 fa75 07be 6935 90bd
00000340: f19d 37be b392 ba3d 2cbd 82bc ae51 dabd
00000350: 5a4d 873d df1c a7bc 40be 4b3d 1943 8a3c
00000360: d70c 8f3e 1828 683d e1da 933d 6abc 993d
00000370: 254e 29be a9a3 b4bd 7fbd e9bc 6041 dabd
00000380: 1c87 80bd 6dfe 403e 7833 933d de71 30be
00000390: c6e8 413d d1e1 a13e 7e0a 8f3b f2eb 22bd
000003a0: 82f5 9bbc b4ad 26be 4ec0 c63d 8b53 30be
000003b0: 5150 f43c 5db6 5d3c 0225 b7bd 77d0 c8bb
000003c0: 0ebf 17ba 2eb9 a3bd 295e cb3e 982f 2dbe
000003d0: c368 8abd 4b8e 1f3e 1831 d83d 81de 5b3e
000003e0: f5cb 8dbe bc28 9ebc 8ab9 40bd dc75 40bd
000003f0: 2e6b 5e3d 3330 6dbe 759f 3b3c 0bee 393e
0.03877922 0.02173143 0.092850216 -0.12668195 0.06288708 0.060585607 -0.033312183 0.0019199889
-0.117536075 -0.01871011 0.015020962 0.03262958 -0.12224527 -0.033722863 0.103118725 -0.14334156
-0.09167242 0.063410506 0.0002605703 -0.22881295 0.05255642 -0.09738475 2.7101538e-05 -0.10987567
0.0012821888 0.075590506 0.05744137 0.036158606 -0.095968865 -0.2181969 -0.15468831 -0.0170463
-0.10735387 0.18030383 0.006848323 -0.040223338 0.035156187 0.0750172 -0.08795408 0.037831377
0.071483806 -0.07778245 0.0009347808 -0.007754586 -0.044792395 -0.029307168 -0.044961043 -0.08929753
0.042007443 -0.02987891 0.11417117 -0.06713075 0.04840469 0.044845175 0.117271066 0.0007492425
-0.09575046 0.041348547 -0.019376116 0.08142427 -0.037216816 0.0027839767 0.039562106 -0.014840341
0.10484642 -0.05106707 -0.0016954717 -0.05075653 0.1322397 0.038776226 -0.18853223 0.07346206
-0.054090336 0.053873543 0.13008027 -0.025458382 -0.21412717 -0.013773185 0.21616869 -0.13735284
-0.046444986 -0.28498727 0.058668673 -0.15937293 0.13503563 -0.08425626 0.08516331 -0.09575057
-0.30082396 0.0055645183 0.13339683 0.017012697 0.15780495 -0.17465228 -0.10999446 0.017688368
-0.11195172 -0.009962384 -0.30682915 0.07520098 -0.09640688 -0.12617302 0.12534276 -0.06207703
-0.027323043 0.20368403 0.046754096 0.27157557 0.085345745 -0.18169037 -0.07273928 0.003224924
0.26333877 -0.0131130805 -0.13945173 -0.020548519 0.22386487 -0.11786188 0.15199716 -0.3013416
0.23805936 -0.008483309 -0.060510673 -0.03556364 -0.059238262 0.13655601 -0.05935017 -0.29640564
0.22207016 0.040241115 0.07661769 -0.108784564 -0.070498414 -0.04783349 0.0404111 0.2316669
0.077132806 -0.09408848 -0.17304388 0.04925395 0.30844668 -0.026639068 -0.11309223 0.2226613
0.00016501441 0.097137876 -0.001650092 0.26683027 -0.2827899 0.22837909 -0.14031169 0.32437447
0.16968444 0.11196825 0.0624278 -0.12375902 0.07020532 0.18795127 0.31824744 0.034330852
0.2277613 -0.36015508 0.25678554 0.113324724 0.0111749265 -0.09371718 -0.04828068 0.013340882
0.15464078 0.076197 -0.07391154 -0.027922414 8.091607e-05 0.19552682 -0.06362601 -0.14309691
-0.20534572 -0.041317865 -0.3723531 0.023715783 -0.22397216 -0.03833611 -0.15910833 -0.059064575
0.030014167 0.009626704 -0.13250463 0.020853218 -0.09845561 0.14628161 0.024619753 0.076556996
-0.25961384 -0.0606067 -0.002388439 -0.0059256456 0.06732745 0.15437743 0.063310936 -0.02719507
-0.06988625 0.05758267 0.043618996 -0.078253716 0.13771404 -0.00042722843 -0.13228598 -0.07041437
-0.17931344 0.09110012 -0.015959345 -0.106601104 0.066065505 -0.020399509 0.049741983 0.016877698
0.27939484 0.05667886 0.07219482 0.0750664 -0.16533716 -0.08820278 -0.028532742 -0.106570005
-0.0627577 0.18847056 0.07187551 -0.17230937 0.04734113 0.31617597 0.0043652644 -0.039775796
-0.019037966 -0.162772 0.09704648 -0.17219369 0.029823454 0.013532248 -0.089426056 -0.0061283666
-0.0005788662 -0.079943046 0.39720276 -0.16912687 -0.06758263 0.15581624 0.10556239 0.21471597
-0.2769467 -0.019306533 -0.047051944 -0.0469874 0.054301433 -0.23162918 0.011451592 0.18157212

action_layer.4.bias f4 [4]
00000000: 5e4f bbbc e19f ee3d 6d27 92bd 1a31 443c
-0.022864994 0.11651588 -0.07136426 0.011974597

value_layer.0.weight f4 [64, 8]
00000000: 7400 9c3e 7f04 9e3d ba79 a7be e033 003e
00000010: df7f 16bd 4621 22bd 92e3 52be a246 423e
00000020: 9300 0f3c 3fa2 11bc 0a4e 233e 7958 853e
00000030: d35c 92be 06ee 873d 8324 94bd 3bfa b83d
00000040: 2d11 123d bddd 9a3e af03 78be 24f5 8abe
00000050: 2b2c 213e aa44 16be d37d 60bb dd61 933c
00000060: f370 b13e eeec 60be 0f2c e5bd 7fd9 67be
00000070: 2791 9fbe 6846 9dbd 3ea9 793d cb6f 6b3e
00000080: 3428 5ebe f917 3f3c 5dc8 7e3e 9a4c 603e
00000090: cd9f 1a3e 5e1e a8be 2039 4e3e 88e8 cb3d
000000a0: eeed 3b3d f527 65be e12b 583e 27b1 7cbe
000000b0: 9390 46be 9086 da3d 3d0e 13bd c73a 5b3e
000000c0: 04d0 6cbe 5741 333d f4d7 1dbc a8f6 913e
000000d0: 9151 8b3e 2d24 cf3d cf0d 4f3e 2c07 7bbd
000000e0: d954 69be 9b21 99be 92e9 b83e 3d48 b63e
000000f0: 8f7d 3cbe f442 bc3d 333c 5e3d b2ec 5a3e
00000100: 9cf2 843e 6b7b 203e a7cc a8be d7c3 82be
00000110: 11c5 273e 43f8 143e 3b38 b53e b5a5 1b3e
00000120: bc39 83be 1f4a 873e 2cf3 ccbd 7c57 913e
00000130: b2d8 d7bd fa64 8dbe bc28 6f3e 1e29 5fbe
00000140: f332 28be 081b 52be f44f 76be 49f4 043d
00000150: 1f8a 653e 6b53 a03e e05e 7d3e 47cc 2ebe
00000160: 2987 973e b156 083d 52cf 9e3e 011c 81be
00000170: eec1 963e 35c4 98be 88da 823e f282 18bd
00000180: 83fa cdbe d0ba 1b3d f307 903d 3242 6b3c
00000190: 3794 cbbe 14a4 9fbd 29b4 a53d d1e5 0b3d
000001a0: 8541 1dbe 6625 4e3e 52c7 5d3e 61f7 9cbd
000001b0: 9169 d93d 6c07 c93d 3df4 37be 3501 d5bd
000001c0: 7cbe e5bd 9e54 143e 435c 853e cacb 4439
000001d0: 4e52 60be 55de 183e b247 79be 61b6 333e
000001e0: a0e7 37be acd6 243e d77d 833e d1f1 a73d
000001f0: 45f0 aabe 76d6 a73e 504e 3f3d 847a f93d
00000200: f5e4 bfbc 3606 223e c368 3b3e 8e5c 0dbe
00000210: f490 203e e51d 333d 0993 81be 4eb4 8b3e
00000220: 6a7c 7ebe 0983 643e 22b3 f9bd ca5e 323e
00000230: 41ae 67be c7e5 a1bd 5868 163e 0369 0cbe
00000240: b9d1 9dbd b016 0d3e c47e 02bd ebd7 19be
00000250: 8f35 853e 0489 c43b 2e85 03be 8847 75be
00000260: 05c7 9ebe 0de5 673d ab3f a03e ceb9 b1bd
00000270: ff0e 773e 8451 093e 1344 e7bd 9669 673c
00000280: f98c e83d 9d26 13be ed26 24bd 2f96 b3be
00000290: 902b 853e 9689 95be 0125 2c3d 332d 30bd
000002a0: c7a9 60be 0200 723e 1692 063e d622 2ebe
000002b0: 4e42 553e 7269 ccbd 7a67 3fbe 3f08 9fbe
000002c0: 879b 8b3e 41b7 82be 9dc3 2e3e 080a 6abe
000002d0: 0985 98bd 23ce 993e f026 5cbd f75c 1c3c
000002e0: e830 0d3e 4919 26be 0eb4 aebd 283a 22be
000002f0: df32 56be c92c cd3d 008e c3be 23cc c4bc
00000300: a314 223e 97d5 f1bd 58e7 90be 9306 d7bc
00000310: cd00 103d 14d1 4fbe 8dc1 613e 1d86 a73e
00000320: cd63 983d 399f 7abe 7648 b0be 5010 8bbe
00000330: f2a5 76be 7d06 7ebd d866 7c3e b470 b53c
00000340: d686 96be 3fd2 723e 20e6 8abe cbec 9ebb
00000350: 473c 9f3e ef28 29be 2834 013e 43f3 4dbe
00000360: bea5 863d 2380 89bd fb25 8b3c 0503 44ba
00000370: 05b4 8e3d b955 d03c d439 703e f5ae 22be
00000380: cddf 3d3e 8333 afbd ae64 9abe 3549 873e
00000390: d550 20be 8a27 16be ec1e 883e 56c2 4ebe
000003a0: 6a5f 1e3d ae2a 853e e86d 3cbd 0768 913e
000003b0: 0693 67be 093f b7be 0927 8f3d a91e 1f3c
000003c0: 5951 fdbd c370 0b3d 972d 823e b222 383e
000003d0: 7da6 8e3e 8608 6d3e 3fed 47be 6201 9fbd
000003e0: 6481 473e 210d f73d 602a 383e 4655 813d
000003f0: 0adf 693e 029b 033e d3b2 433e da98 993e
0.30469096 0.07715701 -0.32710057 0.12519789 -0.03674304 -0.039582513 -0.20594624 0.18972257
0.008728164 -0.00888878 0.15947738 0.26044062 -0.28586444 0.06637196 -0.072335266 0.09032103
0.03566091 0.30247298 -0.24220155 -0.27140152 0.15739505 -0.14674631 -0.0034254685 0.017991
0.34656486 -0.21965382 -0.11190044 -0.22641562 -0.3116543 -0.076794446 0.060952418 0.22991864
-0.21695024 0.01166343 0.2488112 0.21904221 0.15100022 -0.32835668 0.20138979 0.09956461
0.045881204 -0.22378524 0.21110488 -0.24676953 -0.19391088 0.10670197 -0.03590225 0.2140914
-0.23126227 0.043763485 -0.009634007 0.28508496 0.27210668 0.10114322 0.20220111 -0.061286137
-0.22786273 -0.2990845 0.361157 0.35601988 -0.18407272 0.09192458 0.05425663 0.21379355
0.25966346 0.1567208 -0.32968637 -0.2554004 0.16383769 0.1454783 0.35394463 0.15199931
-0.25629985 0.26423737 -0.10007319 0.28387058 -0.10539378 -0.27616102 0.23355383 -0.21793029
-0.16425686 -0.20518124 -0.24053937 0.03245953 0.2241597 0.31313643 0.24743223 -0.17070113
0.29595307 0.0332858 0.31017548 -0.25216678 0.29444832 -0.29837194 0.2555735 -0.037234254
-0.40230188 0.038019955 0.07032766 0.014359044 -0.39761516 -0.07794967 0.080910034 0.034154717
-0.15357025 0.20131454 0.21658066 -0.07664371 0.10615838 0.09815869 -0.17964263 -0.10400621
-0.11217973 0.14485404 0.26046953 0.00018767934 -0.21906397 0.14928563 -0.24343756 0.17550041
-0.17959452 0.16097516 0.25681946 0.0820042 -0.33386436 0.32780808 0.046705544 0.12181571
-0.023424605 0.15822682 0.18301682 -0.13804838 0.15680295 0.04372968 -0.2530749 0.27286
-0.24852148 0.22315611 -0.1219237 0.17418972 -0.22625066 -0.07905155 0.14688241 -0.13711934
-0.07706017 0.13778186 -0.031859174 -0.15023772 0.26017424 0.005997779 -0.12843773 -0.23953068
-0.31011215 0.056614924 0.31298575 -0.086780176 0.24126814 0.13410002 -0.11292281 0.014124295
0.113550134 -0.14370199 -0.040076185 -0.35075518 0.26009798 -0.29206532 0.042027477 -0.043011855
-0.21939765 0.23632815 0.13141665 -0.17005476 0.20826074 -0.099810496 -0.18691817 -0.3106098
0.27267095 -0.25530437 0.17066808 -0.22855389 -0.074472494 0.30040082 -0.05374807 0.009543649
0.13788188 -0.16220583 -0.085304365 -0.15842497 -0.20917843 0.10018308 -0.38194275 -0.024023121
0.15828185 -0.11808317 -0.283015 -0.026248252 0.035157014 -0.202946 0.2204649 0.32719508
0.074409105 -0.24474801 -0.34430283 -0.27160883 -0.2408674 -0.062017906 0.24648607 0.022148468
-0.29399747 0.23713015 -0.27128696 -0.0048500053 0.31100675 -0.16519521 0.12617552 -0.20112328
0.065745816 -0.06713893 0.016985884 -0.00074772566 0.0696793 0.0254315 0.2345956 -0.15887053
0.18542404 -0.08554747 -0.30154938 0.2642304 -0.15655835 -0.1466352 0.26586092 -0.20191321
0.038665213 0.26009125 -0.046003252 0.2839968 -0.22614679 -0.3579028 0.06989867 0.0097119
-0.123690315 0.034043085 0.25425407 0.17981985 0.27861395 0.23147783 -0.19524096 -0.077639356
0.19482952 0.12063051 0.17984915 0.06315093 0.22838989 0.128521 0.19111185 0.2999943

value_layer.0.bias f4 [64]
00000000: 0d98 8abd 94cb 173e 3af5 48bd f81f 8dbe
00000010: ea69 803e 94ff 2e3e c1c9 c4bc d03b 39be
00000020: 8fe5 ba3d 7884 80be c164 2fbd f9a0 4fbe
00000030: 27e5 643e b2b3 863d c622 abbe 3c28 633e
00000040: 854e dbbd 37d1 503e 1760 dcbd 96c8 29bd
00000050: 8086 82be f5b5 7a3e 3d70 87be 052f dcbd
00000060: 9bc2 b4bd a544 c2bd 77f0 5dbe e0d9 863e
00000070: 7a58 fcbd cfe4 96be 1d37 933d 7628 78bd
00000080: a89b bd3d c8a0 9c3e e340 eebd fcf0 a03d
00000090: 16a3 edbb 8bf2 3e3d db74 28be 0d94 90bd
000000a0: 7d53 49be d5da 533e 5eb8 2fbe 109c 0a3b
000000b0: 85fa 4ebe 3cc9 62be ded8 a43e 0ffd 9a3e
000000c0: bf5d 66be 9f7c a83e 81fc fbbd 46a0 af3d
000000d0: 99f5 c7bd 607c 2d3e b63d 1dbe b71e e5bc
000000e0: 65af fa3a e449 12bd 7454 403b a804 57bd
000000f0: 0cc6 6f3e 1781 b5bd 79e8 ee3d 07a7 6d3e
-0.06767283 0.14823753 -0.04906199 -0.27563453 0.25080806 0.17089683 -0.024021985 -0.18089223
0.09125816 -0.25101066 -0.042820696 -0.2027625 0.2235304 0.06577243 -0.33424968 0.22183317
-0.10708336 0.20392309 -0.10760515 -0.04145106 -0.2549324 0.24483474 -0.2645282 -0.10751156
-0.088261805 -0.09485749 -0.21673761 0.263381 -0.12321563 -0.29471442 0.071882464 -0.06058546
0.09258205 0.30591416 -0.1163347 0.07858464 -0.0072521074 0.046618026 -0.16450827 -0.070594884
-0.19660755 0.20688947 -0.17160174 0.002115015 -0.20212753 -0.22147077 0.32196707 0.30271193
-0.22496699 0.32907578 -0.12304021 0.085754916 -0.09763641 0.16941977 -0.15355572 -0.027968748
0.0019125758 -0.035715 0.0029347213 -0.052494675 0.23415393 -0.088625126 0.116654344 0.23208247

value_layer.2.weight f4 [64, 64]
00000000: cb3d 9ebd 0b4f f0bd 5024 d83d 18a9 453d
00000010: c7b3 2f3d 6f55 aa3d 482c 7cbd 8dc1 e73d
00000020: 3745 ba3d 881a b7bd 1a00 d63d 026f 2bbd
00000030: f69b 363d bb86 d73d 9292 a6bd 7253 323d
00000040: 0b56 e2ba 07f8 883c d640 343d e462 c1bd
00000050: 58dc 16bc 567f 513b 0813 ad3d aa9f 3dbd
00000060: f9f4 a5bd e736 323d 60be b9bd 3981 003e
00000070: 3c6f ddbb ed07 253c 2a42 5dbd 52d4 3cbc
00000080: 6824 cfbd 470b e93a 3619 46bd 3c5b 8bbd
00000090: 745e adbd deec e9bd 3938 c43d fbd6 eb3b
000000a0: 5bdb 3f3d f433 a4bd 732c 093d dad2 7ebd
000000b0: 3ebd f23c 86e8 40bc befa 0c3d 8922 763d
000000c0: 2b4f 30bd 235d 003d b0cf 82bd 7dcf eabd
000000d0: bc8b 08bd 7ff2 f2bd b723 07be 2147 2d3d
000000e0: 70c2 a0bc b05a ef3d cc23 e33d c1bd 4b3d
000000f0: 08d0 c43d e992 de3c e878 fcbd 39df f83c
00000100: 4b68 9bbc 7805 6fbc 08d4 f13d 5727 3a3d
00000110: 6cb8 66bd 2fa5 d4bd 17b2 e03d 084f 2cbd
00000120: d87e 893d 9609 8bbd 3b51 633d 569f 383c
00000130: cea9 aa3d f18b 733d 7af8 ecbd 2df7 5d3c
00000140: 7dcc 813d e89d 02bd e4ae 3f3b c83b e43c
00000150: a416 913d 8cc2 b1bd 67d1 5f3c 943f 793d
00000160: b301 c4bc 29e9 d33c 35e5 f2bb 575c 8abc
00000170: 1f8c d83d 6bc3 cf3d 8e47 f53c 57da 813c
00000180: bd0f 993d c6d3 18bc 08a0 b23d dd60 92bd
00000190: 5ab4 823d 63af d7bd 0035 d4bd 7b53 26bd
000001a0: 21cb 41bd 3083 f83d 5689 9bbd 2914 743c
000001b0: 91f7 88bd b0c2 e9bd be20 74bd 7f5b d5bd
000001c0: 81f3 cd3b 4db0 e33b e256 ee3d 2350 dd3d
000001d0: 423f aa3d a143 c9bd 195c b3bb fa50 d5bd
000001e0: 8487 673b 8e1d 4c3d eb81 f63d 81ac cabc
000001f0: 2c93 f2bd bd01 d4bd 78af e9bc fe37 cebd
00000200: 7a32 9bbb 1cf7 4fbd 8f77 85bd 3967 0ebc
00000210: 2ebd 513b dda9 8a3d 3b9e d5bd 8558 643b
00000220: 5cea d63d 9b12 cc3d d399 55bd 5cf8 753c
00000230: 6b49 653c e527 003e 1850 863d cdde debc
00000240: 9509 c0bd 62d0 dc3a c1bc 9abd b410 1b3d
00000250: 09ba dd3d bd05 a4bd 0ebf cabd c59a 0dbd
00000260: f971 01be f5ef dfbd 2c77 85bc 3871 8c3c
00000270: 2102 6f3d 8ef6 dd3d f5ce 13bd 647b d63c
00000280: a93a 1fbd 3787 813d d80f 963d 84e3 803c
00000290: 25f5 02bd d3dd 9a3c 8864 693d 5999 a8bc
000002a0: 1f27 94bd 0325 85bd a516 403d 4806 ddbc
000002b0: ecca 753d b429 923d a9c1 b8bd 68fc 4c3d
000002c0: db61 bb3c 3961 7f3c c34f 813d 233e 263d
000002d0: 5f50 7dba 4394 bb3b 4b0a d1bd f561 e13b
000002e0: 1e3c 86bd 0e14 883b 2aad 94bd 66d0 e63d
000002f0: 4910 cfbd f92e c53d bf26 433d c13a 4d3d
00000300: fbd7 d93d 9e75 1d3d b9f6 a73d 8e6c 5dbd
00000310: 9ba5 1d3d 6efb b5bc 09a2 08bd 9862 893d
00000320: e797 ad3d 9655 bdbd 35e8 693d bf25 b93d
00000330: 4a1f e4bb 568b cabd 699f 803d 39f7 47bd
00000340: e23a 80bd 474c d73c c4a7 cdbd ce32 9c3c
00000350: 60d4 1cbc dcd7 5e3d 7f28 97bd 493f fabd
00000360: 428b 62bd de44 b73c bbfe af3d f0e8 d93c
00000370: ebdb 5fbc e22e 87bd d972 13bd 13bc 6e3d
00000380: 086e 10bc 43aa cf3b aa3e f93d 6fff d1bc
00000390: 5cfd 543d 32f3 89bd 28d5 fe3c 9821 d63c
000003a0: 5e0e 69bb d1e9 3d3d 4208 bcbd eb7c a8bd
000003b0: ccd2 1cbc 3399 363d 7294 68bd b38a 9f3d
000003c0: cffb c83c 501d 66bd 88bd ddbd 498e 84bd
000003d0: bb50 393b d3f4 bbbd 39c0 0f3d 0935 a63d
000003e0: 50ff 8abc b190 a33d 1124 1fbb f742 8f3d
000003f0: 9400 eebd 8cac e4bd c4aa 8a3d 7ce2 3c39
-0.0772663 -0.11733826 0.10553801 0.048256963 0.04289606 0.083170764 -0.061565667 0.11316214
0.09095233 -0.08940607 0.10449238 -0.041853912 0.04458233 0.10523745 -0.08133425 0.04353661
-0.0017268074 0.016719831 0.044007145 -0.0944269 -0.0092078075 0.0031966767 0.084508955 -0.046294846
-0.081033655 0.04350939 -0.09069514 0.12549295 -0.006757645 0.01007269 -0.054018177 -0.0115252305
-0.10114366 0.001777985 -0.048363887 -0.06804511 -0.08465281 -0.11422132 0.09581036 0.0071972585
0.046840053 -0.08017722 0.033489656 -0.062212802 0.029631253 -0.011774188 0.034418814 0.06009153
-0.04304425 0.031338822 -0.063872695 -0.114653565 -0.033336386 -0.11862659 -0.13197218 0.042304162
-0.019623965 0.11687219 0.11090812 0.04974151 0.09609991 0.027169662 -0.123277485 0.030379878
-0.01897063 -0.014588706 0.1180802 0.045447674 -0.056328222 -0.10383069 0.10971468 -0.042067558
0.06713647 -0.06788938 0.05549739 0.011268457 0.08333169 0.05945963 -0.11570831 0.013547701
0.06337831 -0.031888872 0.002924853 0.027860537 0.070843965 -0.08679685 0.013660765 0.06085165
-0.023926592 0.025868015 -0.0074125775 -0.016889734 0.10573601 0.10144695 0.029941346 0.015851183
0.07473705 -0.0093278345 0.0872193 -0.071473815 0.063820556 -0.10531499 -0.103616714 -0.040606957
-0.04731286 0.12134397 -0.07594554 0.014897385 -0.066878445 -0.11414087 -0.059601538 -0.10417842
0.0062851314 0.006948507 0.11637665 0.108063005 0.08312847 -0.09827352 -0.0054736254 -0.10415836
0.0035328576 0.049832873 0.12036499 -0.02474046 -0.11844477 -0.10351894 -0.028526053 -0.100692734
-0.004736242 -0.05077277 -0.065169446 -0.008691602 0.003200363 0.0677068 -0.10430571 0.00348428
0.10493919 0.09964486 -0.05214865 0.015012827 0.013994555 0.12515219 0.065582454 -0.027205849
-0.093768276 0.0016846771 -0.07555533 0.037857726 0.10826499 -0.08008907 -0.09899722 -0.034571428
-0.12641133 -0.1093444 -0.016292177 0.01714383 0.05835164 0.10838042 -0.03608604 0.026181884
-0.038874302 0.06324618 0.07327241 0.015733488 -0.03197207 0.018904602 0.05698064 -0.020580934
-0.07234024 -0.065012 0.046896596 -0.026980534 0.060007975 0.071368605 -0.09021313 0.0500454
0.02287381 0.0155871445 0.063140415 0.040586602 -0.00096631603 0.0057244613 -0.10207041 0.0068781325
-0.06554435 0.0041527813 -0.07259591 0.112702176 -0.10110528 0.096281 0.047644373 0.05010486
0.10636898 0.038442247 0.082013555 -0.054058604 0.03848801 -0.022214618 -0.033357654 0.067082584
0.08476239 -0.0924484 0.057106216 0.090404026 -0.0069617378 -0.098898575 0.06280405 -0.048819754
-0.06261231 0.026281489 -0.100417644 0.019067194 -0.0095721185 0.05440508 -0.07380771 -0.12219102
-0.055308588 0.022371706 0.08593508 0.026600331 -0.013663272 -0.06600739 -0.0359982 0.05828483
-0.008815296 0.0063374355 0.12170155 -0.025634496 0.051999435 -0.06735839 0.0311075 0.026139066
-0.0035561542 0.046365563 -0.091812626 -0.08226951 -0.009571742 0.044579696 -0.056782193 0.07790127
0.024534134 -0.0561803 -0.10827166 -0.06472451 0.002827688 -0.09177556 0.035095427 0.081155844
-0.016967446 0.07986582 -0.0024282972 0.069951944 -0.11621204 -0.11165723 0.06770852 0.00018013449

value_layer.2.bias f4 [64]
00000000: cbc9 84bd c0bf 9f3d c6bf cb3d 8dea 81bd
00000010: 71ec f3bc 1e63 23bc e4a7 37bc 94cf 82bd
00000020: fd17 7f3d 27f7 16bd 2e9e c93d d50e dcbd
00000030: 3d7b c1bb acee fdbc 1fa5 a93d ee2a 873c
00000040: 06aa 3bbd 156a 8f3d 2a78 ad3d b9ab 9e3d
00000050: 5db5 893d e07a 4b3d f07f 80bc 2176 3dbd
00000060: c996 6c3d 983b c73d 2010 8f3d a4f9 4f3d
00000070: 72c4 b33d 79b2 01be 27a2 d13d ae37 10bd
00000080: 2450 a13d 7f7d 96bd 603f bd3d 9b45 ecbd
00000090: 2a6b 43bc fb5a 8d3c 4253 0c3d 16d2 f0bb
000000a0: 7032 5b3d b5e0 20bc 7bf1 be3d 29b5 ef3c
000000b0: ce47 abbd 816b c3bd 080a 1cbd 4cb2 f4bd
000000c0: 9f89 c3bd e3a0 d8bd a00a a7bd 6696 38bd
000000d0: 7214 a2bd ddbb 44bd b617 f33c 6be6 39bd
000000e0: 1a8b d0bd 7f48 b7bd 8c12 a33d 0ba9 8fbc
000000f0: 709a 8bbd ba4d 39bd 75dd 7abd 60fb 3c3d
-0.064838015 0.07800245 0.09948687 -0.06343565 -0.02977583 -0.009972362 -0.011209462 -0.06387249
0.062278736 -0.036856797 0.098446235 -0.107450165 -0.0059045837 -0.030997597 0.082834475 0.016499963
-0.045816444 0.070026554 0.08470185 0.07747597 0.067240454 0.04967773 -0.015686005 -0.046255235
0.057760987 0.097281635 0.069854975 0.050775185 0.08777703 -0.12665738 0.10236006 -0.03520935
0.07876614 -0.07348155 0.092406034 -0.11536714 -0.011927405 0.017255297 0.03425909 -0.007349263
0.053514898 -0.009819199 0.093234025 0.029261189 -0.08363305 -0.09541989 -0.038095504 -0.1194807
-0.095477335 -0.10577562 -0.081563234 -0.045065306 -0.07914056 -0.048030723 0.029674392 -0.04538576
-0.101827815 -0.089493744 0.07962522 -0.01753666 -0.06816566 -0.04524014 -0.061246354 0.046138167

value_layer.4.weight f4 [1, 64]
00000000: 69d2 bf3d 8e06 c2bb ffa7 203d 38d4 e03c
00000010: ce50 a13d 1c07 4f3d bbcc 843c 79f1 e8bd
00000020: b08f dabd 18d8 233d 310c 68bd ae72 c93d
00000030: 41a2 a73d 01bf 67bd b780 e53d 1511 78bd
00000040: ef34 5ab9 a44e b43d c0bd 8bbd cd63 95bc
00000050: c9d4 5f3d 1422 70bd c612 b2bd 5487 9abd
00000060: 126f b339 3fd9 483d b4b9 023d 98fe 8239
00000070: a67d c6bc c20d 36bd f414 20bc 1e6a 993c
00000080: 1045 e5bd cd67 133c ea9e ff38 f726 093d
00000090: 74cc 8abd 0f64 14ba 0dfe 693b f9ba 43bd
000000a0: 8164 adbd 0b5b 98bd 2f52 543a 4c05 5abd
000000b0: 2214 0bbd c745 c7bd ec63 293d 8593 77bd
000000c0: c121 593d 601a d0bc cc63 853d 3690 3abd
000000d0: d1de 5bbd 56de b8bc 9a72 a43c e4a4 4fba
000000e0: f860 bdbd 0928 81bb aa60 543c 9c29 60bd
000000f0: 9cfa 923a bc3e 64bd ebc1 6a3d bfc0 70bd
0.093663044 -0.0059211915 0.039222714 0.027444944 0.078767404 0.05054389 0.016210904 -0.11374182
-0.106719375 0.040001005 -0.05665225 0.098363265 0.08185244 -0.05657864 0.11206191 -0.060563166
-0.0002080982 0.08804062 -0.06823301 -0.018236065 0.054646287 -0.05862625 -0.08694987 -0.07545343
0.00034224294 0.049035307 0.03191538 0.0002498522 -0.024229836 -0.044446714 -0.009770621 0.018727358
-0.11194813 0.008996916 0.000121889476 0.033484425 -0.067772776 -0.0005660662 0.0035704405 -0.047785733
-0.08466435 -0.0743924 0.00080994045 -0.053227708 -0.033954747 -0.09730106 0.04135506 -0.06044342
0.053010706 -0.025403202 0.06513175 -0.045547687 -0.05367929 -0.022566956 0.020074178 -0.0007920994
-0.09247011 -0.00394154 0.0129625 -0.05472718 0.0011213603 -0.05572389 0.05731384 -0.058777567
