8_gym-PPO/results_seed/PPO_LunarLander-v3_2000-eps0.2-seed10.pth (torch, 44306 bytes, 11 tensors)

action_layer.0.weight f4 [64, 8]
000000 ed d7 94 3e ac 1b c1 bc a8 17 85 3d 1d b4 a1 3d
       0.29070988 -0.023572765 0.06498653 0.07895682
000010 bb 6c 04 bf 6f 6d 96 be 28 09 81 3e b4 1d be 3e
       -0.5172841 -0.29380366 0.25202298 0.37132037
000020 d9 b3 86 be 83 5f e6 3c ae f0 02 be 8c 55 0e be
       -0.26309088 0.028121715 -0.12787125 -0.13899821
000030 c7 9d 0c 3f 30 59 51 3e fe fd 3a 3e 84 53 de 3e
       0.5492825 0.20444179 0.18260953 0.43423092
000040 3c 6f 18 3e 07 82 dc bd 4b a9 08 3e 36 bb ee 3d
       0.14886183 -0.10766988 0.1334583 0.116568014
000050 d4 d5 b7 be a7 92 25 bf 05 42 b6 be 26 e3 a2 be
       -0.35905325 -0.646769 -0.35597244 -0.31813926
000060 e8 d4 51 be 5e 6a b3 be 59 ea 18 be e5 90 25 bf
       -0.20491374 -0.3504209 -0.14933147 -0.64674217
000070 a7 42 a7 be fe 22 59 bc d2 03 c3 3e fc 1b 98 3e
       -0.3266804 -0.013252972 0.38088852 0.2970885
000080 30 b2 9d 3b e7 a0 df 3d c4 74 89 3d f9 5e 0a bf
       0.0048125014 0.109193616 0.067117244 -0.54051167
000090 2d ce dc 3e 04 e0 6c 3c 89 eb d8 3e c7 eb 90 3d
       0.4312605 0.014457706 0.423672 0.07076221
0000a0 3c 01 7f 3e e8 ca ec ba 1b 62 e5 bd 96 0d 0d be
       0.24902815 -0.0018065842 -0.11200353 -0.13774714
0000b0 1f f2 33 bd 4c 23 9f 3c 32 5f 14 3e f3 07 89 3d
       -0.043932077 0.01942601 0.14489439 0.06690969
0000c0 18 d6 84 bd d9 fa be 3d 9b 6f 98 bd 93 05 fa 3e
       -0.06486148 0.09325189 -0.07443162 0.48832378
0000d0 b3 a9 aa be 70 cf 28 3e a8 4f 86 bd 2c e4 67 3e
       -0.33332595 0.16485381 -0.06558162 0.22645634
0000e0 1a 55 0f 3e eb 49 22 bd 55 06 b9 3e e2 e8 1d 3f
       0.13997307 -0.039621275 0.36137643 0.61683476
0000f0 86 e7 07 bf 45 97 42 bf 08 2d b3 3c cd a8 5c 3e
       -0.5308765 -0.7601207 0.021872059 0.21548767
000100 c8 08 85 3d 59 8a 1d 3e d9 3f 5f 3e 69 6e ea be
       0.064958155 0.15384807 0.218017 -0.4578736
000110 d9 c0 84 be 0b 14 48 3e f8 c7 9a 3e 7c c1 f5 bd
       -0.2592838 0.19538896 0.3023069 -0.11999795
000120 49 53 4e 3e ca 11 60 3c 39 47 06 be e2 2d 55 be
       0.20148958 0.013676116 -0.13113107 -0.20818284
000130 ea 6d ca be e7 bb 85 3e a7 74 c4 bd 53 02 2f 3c
       -0.39536983 0.2611992 -0.09592562 0.0106817065
000140 8c 14 5d be e2 32 54 3d e8 78 54 bc 7f 04 91 be
       -0.2158987 0.051806338 -0.012968279 -0.28323743
000150 e2 ef b6 3e a0 7b 8f be 8a 5b cc bc 8a 22 a7 3e
       0.3572989 -0.28024006 -0.024945993 0.3264354
000160 c7 0c c5 be d7 a1 c2 bc 89 75 ab be 3e 50 26 3f
       -0.3848631 -0.023758812 -0.3348811 0.6496619
000170 16 0c 07 3f 51 5a ad 3d f5 80 87 be fb 08 0c 3e
       0.52752817 0.08464492 -0.26465574 0.13675301
000180 8f 1d 99 be f4 59 96 3d e1 3e 8b be 73 ed cc be
       -0.29905364 0.07341376 -0.2719641 -0.4002491
000190 9e 7d cb 3e 5d 74 d6 3e 0f 6b 8b 3e 6a 7c fb 3d
       0.39744276 0.41885653 0.27230117 0.122795895
0001a0 dd 22 81 3d 91 d9 36 3e bb ea 9c 3e 1f 38 02 3e
       0.06305478 0.17856432 0.30647835 0.12716721
0001b0 89 dc fb be f0 a6 9f be ab e7 58 3e b5 26 13 3e
       -0.49191692 -0.3118205 0.21182124 0.14370234
0001c0 cf af b8 3e 6a 2d 35 be 96 f4 91 3e bc bf bb be
       0.3607163 -0.17693105 0.28506917 -0.3666972
0001d0 29 9c c5 be 4f ca e3 be 89 ff eb 3c 56 fa 21 3e
       -0.38595703 -0.44490287 0.028808372 0.15818152
0001e0 46 dc d3 3d c7 75 37 3e 38 6b e9 be 55 b2 ee bd
       0.10344748 0.17916022 -0.45589614 -0.11655108
0001f0 34 89 17 3f be 9d 8f 3e b4 53 c0 be ec 54 c7 3d
       0.5919373 0.28050035 -0.3756386 0.097329944
000200 49 4f 62 bd 04 8d 21 3d a1 a6 10 3e 89 a7 b0 be
       -0.055251393 0.039441124 0.14126064 -0.3450282
000210 6c 84 4d be b0 a2 02 be 81 b6 72 bc bc 13 14 be
       -0.20070046 -0.12757373 -0.01481402 -0.14460653
000220 85 ff 4c bd 51 4c 9f 3d a6 c8 bf be cd 8c 9b be
       -0.05004837 0.07778228 -0.3745777 -0.3038086
000230 06 1f 14 3e 34 89 c0 3e 1c 52 93 3e 4e b2 81 be
       0.1446496 0.37604678 0.28773582 -0.25331348
000240 69 0a 79 3e 5d 56 60 3c a6 9d 41 3e 65 3b aa be
       0.24320377 0.013692466 0.18907794 -0.3324844
000250 97 05 86 be 21 37 10 bf 06 3c c6 be 1b 07 30 3e
       -0.2617614 -0.5633412 -0.3871767 0.1719021
000260 14 a5 c0 be e2 02 d1 3d 92 94 4a be 94 26 0f bf
       -0.37625945 0.10205628 -0.19783238 -0.5591824
000270 28 df 0c 3f cf 53 33 3f 68 88 45 3e b4 b3 19 bd
       0.5502801 0.70049757 0.19290316 -0.037524894
000280 5e b3 8a be 29 1f 66 be 53 5f ac bc d7 a2 e4 bd
       -0.2708997 -0.22472824 -0.021041548 -0.11163872
000290 c7 25 62 3c e5 b4 40 bd 2f 30 15 be 94 b4 4c 3e
       0.013802952 -0.047047514 -0.14569162 0.1999076
0002a0 22 e3 9f be 42 45 02 3d 6f e8 99 3d 29 5c 3b 3f
       -0.31227976 0.03180433 0.07515036 0.731875
0002b0 d5 9a 53 3e ca 42 c1 bd 08 52 80 3e 8b 92 d1 be
       0.20664532 -0.09436567 0.25062585 -0.40932116
0002c0 2c 8c 54 3e e7 3a 5b be eb d8 55 3e d4 79 e6 3d
       0.20756596 -0.21409188 0.20883529 0.112537056
0002d0 12 88 3b be 3d 51 e9 be ca 0b 94 3e 05 55 ea 3d
       -0.18313625 -0.45569792 0.28915244 0.114419974
0002e0 20 c6 8d be 5a 9e d4 3c 0d e3 d6 bc d6 bd c3 3e
       -0.2769022 0.025954414 -0.026231313 0.3823077
0002f0 43 2a 2f 3f f5 40 1e 3f 39 e4 80 3e 66 9e 23 bc
       0.6842386 0.61817867 0.2517412 -0.009986496
000300 6d e9 94 be 7c 26 82 be 2b 75 60 3e b4 68 30 bf
       -0.2908434 -0.25419986 0.21919696 -0.68909764
000310 07 fc 7c 3d 2d 78 5f 3e 87 fb 37 be ed 55 44 be
       0.06176379 0.21823187 -0.17967044 -0.19173403
000320 0a c2 91 be 30 46 04 3e 22 6a 73 3e 20 c4 ba 3e
       -0.28468353 0.129174 0.23770955 0.36477757
000330 49 fc 42 bc 73 2f 13 be 23 75 86 3e 9d 4f 21 be
       -0.01190097 -0.14373569 0.26261243 -0.15753026
000340 51 0a ae bd 9b 47 a9 3c 87 b8 f2 3e 66 8d b5 be
       -0.084980614 0.020664027 0.47406408 -0.3545944
000350 d2 44 1e bf 46 ed 5d be 26 cb 43 3e 9f d2 d0 3d
       -0.6182376 -0.21672544 0.19120464 0.10196423
000360 02 8c 44 bc bf ef c9 3b 26 61 c2 be 82 97 19 3e
       -0.011996271 0.006162613 -0.37964743 0.14999202
000370 4a 27 fb 3e 66 d1 83 3e 56 1d 6a be 39 69 84 bd
       0.49053413 0.25745696 -0.22862753 -0.06465382
000380 ec 59 b4 be 78 5f 9b bd 43 33 8b bc 8b 73 8d 3e
       -0.35224855 -0.075865686 -0.016992217 0.27627215
000390 e0 c5 3e 3f d2 93 15 3f 22 b4 15 be dd 8e 70 be
       0.74520683 0.5842868 -0.14619496 -0.23491998
0003a0 b1 b3 1d 3d a6 2a ef 3d 33 45 2f 3e 59 da 19 3f
       0.038501445 0.116780564 0.17116241 0.600988
0003b0 ac c4 f2 3d db 17 b5 3d 62 0a 02 bd 9e 31 b1 3d
       0.118539184 0.08842441 -0.031748183 0.08652042
0003c0 11 4b b9 bd a5 b8 b6 3d 0e 08 6e 3e df a6 1d 3c
       -0.09047521 0.08921937 0.2324526 0.009622305
0003d0 66 8d 97 be 43 2e 29 3c 98 e2 1f bd 25 0a 77 be
       -0.29600066 0.010325971 -0.039034456 -0.24124964
0003e0 72 75 aa be ca 50 53 3e 0d b4 c8 be 7b 7d 20 be
       -0.3329273 0.20636287 -0.39199868 -0.15672867
0003f0 a5 03 18 3f 2a fb 06 3f 83 98 d8 be a9 6d 4c 3e
       0.5938056 0.52726996 -0.42303857 0.19963707

action_layer.0.bias f4 [64]
000000 33 dd 18 bd 92 55 46 bd 36 1f 1b 3e 69 a9 51 3e
       -0.037320327 -0.04842145 0.15148625 0.20474781
000010 2d fb 49 be 31 de 6e bd 40 82 f0 bd ed c7 1a 3e
       -0.19724722 -0.058317367 -0.11743593 0.15115328
000020 c1 f2 3a be b2 43 f6 bd 8e 58 83 bd e5 c5 be 3d
       -0.18256666 -0.120246306 -0.06413375 0.09315089
000030 5d 6b fc bd 98 7c 64 be 30 e1 54 3d 35 0b 7c be
       -0.123251654 -0.22313154 0.051972568 -0.2461365
000040 ff 2b df bd fc f4 ef 3c 54 58 ab bd fa 67 9e be
       -0.108970635 0.029291622 -0.08366457 -0.30938703
000050 c0 5d 82 3e 8d 3d 29 3e c1 96 51 3e da 06 40 3c
       0.2546215 0.16527386 0.20467664 0.011720384
000060 f4 c6 36 3e 44 1e 8f bc 3b 27 19 3e 52 a1 e4 3d
       0.17849332 -0.017470486 0.14956371 0.11163582
000070 d3 5b 4f 3e e1 df 3c 3d 8d 34 be bd e3 a7 6b be
       0.20249872 0.046111945 -0.09287367 -0.23013262
000080 bd 7a ef bd a4 99 19 bd 90 8b ed bb f0 20 89 be
       -0.11693332 -0.03750004 -0.007249303 -0.26782942
000090 f7 04 96 be d3 5c 09 be 09 c9 bf bd 6a 66 b4 be
       -0.29300663 -0.13414316 -0.09364516 -0.35234386
0000a0 34 49 f8 bd 8a 12 0b bd 20 1a db bc 18 48 79 be
       -0.121233374 -0.033953227 -0.026745856 -0.24343908
0000b0 f1 4e 1a be 34 3f a8 bd de 2b 90 bd 28 86 87 bc
       -0.15069176 -0.0821518 -0.07039617 -0.016543463
0000c0 5c 5b 3c be 11 3c 72 be 9e cc 97 3d af 0b 12 3d
       -0.18394226 -0.23655726 0.074120745 0.035655674
0000d0 69 81 77 3e 4e 55 72 be aa c8 26 3e f5 a9 88 bd
       0.2417046 -0.23665354 0.16287485 -0.06673042
0000e0 f9 fb 17 be 3e d2 f2 3d ce b8 ca bd 07 d2 f3 3d
       -0.14842214 0.11856507 -0.0989853 0.11905294
0000f0 0b 27 72 3c 08 a0 cf 3d 14 c6 56 be c9 a7 ad bb
       0.014779816 0.101379454 -0.20973998 -0.0052995426

action_layer.2.weight f4 [64, 64]
000000 a0 4d 76 3d d1 42 09 bd 8e 30 7b bd 9a 7e 00 3e
       0.060132623 -0.033510987 -0.061325602 0.12548295
000010 02 58 0d 3e eb 40 cc 3c b6 c2 ff 3c b7 fc 6c bd
       0.13803104 0.024933299 0.031220775 -0.057858195
000020 e2 74 00 3e 3d f6 da ba a6 fd 94 3d d9 78 a9 bd
       0.12544587 -0.0016705465 0.07274942 -0.08275003
000030 6d eb 16 3e 86 db 0b 3e 5b 48 b2 3c 3a 4d 4c bb
       0.14738245 0.1365796 0.021763017 -0.003117396
000040 33 58 b0 3d 4e d3 02 be a3 4b c1 bc ac 8e 0e 3e
       0.08610573 -0.12775919 -0.023595637 0.13921613
000050 ee 1d 6c bd e5 21 90 bc 05 b9 b3 bd 36 62 99 3d
       -0.05764573 -0.017594287 -0.08775524 0.074894354
000060 af 12 a3 bd e1 98 9a 3d 10 12 58 bd 5e a6 3c 3d
       -0.07962548 0.075486906 -0.0527516 0.046057098
000070 47 22 3b 3d 16 ef 02 be 22 19 33 3d 22 3e 2b 3d
       0.045686986 -0.12786517 0.04372514 0.0418073
000080 66 e8 95 3d ce 65 bc 3d 41 f6 c7 3d bd 25 50 3d
       0.07319717 0.09199105 0.09763766 0.05081724
000090 15 ee 85 bd b8 91 82 3d 3d 7a 33 bd c8 73 26 3e
       -0.06539551 0.0637545 -0.043817747 0.16255105
0000a0 6e e4 0f 3e c8 24 b1 bb 8f 71 7a bd 22 2f ba 3d
       0.14051983 -0.005405996 -0.061143454 0.09091021
0000b0 a8 25 43 bd 3a 19 de 3d 85 8f 1b 3e 7d b1 9d 3d
       -0.047643334 0.10844655 0.15191467 0.07699869
0000c0 de 68 82 bd a6 0f 46 3e fd 9e ae 3d 0f ff f0 bd
       -0.06367658 0.19341907 0.08526418 -0.117673986
0000d0 1b 88 f2 3c 31 42 91 3d cc 9a 94 3d 5b 21 8d bd
       0.029605916 0.07092703 0.07256088 -0.06891128
0000e0 d6 8b e5 3d 35 db 47 bd 91 bc 55 3d 06 1f 58 3c
       0.11208312 -0.048793036 0.052181784 0.01319099
0000f0 81 c8 75 bd 56 b7 4d 3d b1 8a f1 3c f4 b1 71 bd
       -0.06000567 0.05022367 0.029485079 -0.0590076
000100 dd d8 fc bd 10 0e 8b 3d 00 ec 3d bd 67 7b a0 3d
       -0.12346051 0.067897916 -0.046367645 0.07836037
000110 12 db 7c 3e c3 5e 46 bd 8b de 1c be 6a 1d 28 be
       0.24692944 -0.048430216 -0.15319268 -0.1641747
000120 ba 4d 0d 3e aa 04 59 3d 3c d3 cf 3d 5e 60 52 be
       0.13799182 0.052982964 0.10147712 -0.20544574
000130 85 83 18 3e 54 4a c5 3d 84 3e ed 3d af 21 17 3e
       0.1489392 0.096333176 0.115841895 0.14758943
000140 d9 84 08 bd a6 d9 5f bd fa be 1e bd e4 7a 5a 3e
       -0.03332982 -0.054650925 -0.03875635 0.21335942
000150 8d 2a d3 3d 29 6d dc bd 0e cc f0 3d 5e 9d 23 be
       0.1031085 -0.10763008 0.1175767 -0.15978
000160 d7 ff 63 3e f6 f3 95 bd 81 31 4a 3d 1f d9 a8 bd
       0.22265564 -0.073219225 0.049363617 -0.082445376
000170 57 a1 e8 bd f1 5f 66 bd 30 13 79 bc c0 7f c7 3d
       -0.11358898 -0.05624384 -0.015202329 0.09741163
000180 6a 72 cd 3c 35 6a 28 be a6 7f 03 3e ff 1e 85 3d
       0.025078971 -0.16446765 0.12841663 0.06500053
000190 0c c4 aa 3d 0f 9a 54 be b3 9f 48 be a6 31 c0 3e
       0.08338174 -0.20761894 -0.1959217 0.3753788
0001a0 6e 6b 7a 3e 82 1b 50 be 3c b9 f7 bd 9c d4 71 3d
       0.24455044 -0.20322993 -0.120958775 0.05904065
0001b0 59 db 44 bd 19 d0 07 3e e4 84 0e 3e 04 96 8f 3d
       -0.04806075 0.13262977 0.13917881 0.07011035
0001c0 ec b8 90 3d 88 b9 2a 3e 25 71 a1 bd 2c c4 3a be
       0.07066521 0.16672337 -0.07882909 -0.18238896
0001d0 8d fe b8 3d fc cc 93 3e a5 61 ae 3c 30 d3 fa bd
       0.09032927 0.28867328 0.021286795 -0.12247312
0001e0 32 dc b3 3d 2c b1 9e 3d 83 69 bd 3d c8 63 bb bd
       0.08782233 0.077486366 0.092486404 -0.09149891
0001f0 97 0c e0 3d a4 96 b9 3d eb 6b 53 3e a6 34 17 bb
       0.10939901 0.090619355 0.20646636 -0.0023072152
000200 ae 21 f6 3c 9a 52 67 be f1 16 ef 3c 56 ff 3e 3d
       0.030045357 -0.22590104 0.029185744 0.046630226
000210 99 bf 13 3c 14 14 f2 3c 35 64 0f 3d 70 b2 37 be
       0.009017848 0.02955059 0.035007674 -0.17939162
000220 55 7c 35 3e 24 01 8c 3d 28 78 23 be e5 ab db be
       0.1772321 0.06836155 -0.15963805 -0.42904583
000230 bc ab 3d be e3 1a 86 bd 4c 64 6b 3e 7b 8b e8 3d
       -0.18522543 -0.06548097 0.22987479 0.11354729
000240 45 f8 be 3d 34 c0 91 3d e9 ce a2 3e 66 29 0f 3d
       0.093246974 0.07116738 0.31798485 0.03495159
000250 be 59 81 bd 3f 7b ee be 63 4a 78 bd 5a 82 9b be
       -0.06315945 -0.46578404 -0.060617816 -0.30372888
000260 24 32 db 3d 84 44 be bd 0a 72 02 3d 8f 72 40 bd
       0.10702923 -0.09290412 0.031847037 -0.04698425
000270 1f 36 0a be e6 bc a5 be 74 cb c7 3d 75 81 ac bd
       -0.13497208 -0.3237068 0.097556025 -0.084231295
000280 31 09 03 3d 3a d9 3e be c1 d8 22 be 7b e6 8d 3e
       0.031991187 -0.18637553 -0.15902998 0.27714905
000290 a0 e7 bc 3e 7e 46 80 bc 12 b3 92 3c dc e8 29 3e
       0.36895466 -0.015658613 0.017907653 0.16592735
0002a0 b0 11 7e 3e d9 bf 19 bd 0c 35 66 3d ab 2d 83 3e
       0.24811435 -0.037536476 0.056202933 0.2562078
0002b0 11 5b 33 3e 9d 1c b7 3d 3d c4 73 be 81 2b 9c 3c
       0.17515208 0.089410044 -0.23805328 0.019063713
0002c0 37 24 37 3e ac c8 36 3e f4 8e 02 be 3a 07 a5 bd
       0.17884909 0.17849988 -0.12749845 -0.08058019
0002d0 de b9 82 3d d6 e7 e8 3e 88 44 2e 3e 28 e3 4b 3d
       0.063831076 0.45489377 0.1701833 0.04977718
0002e0 7a 13 46 3e ef f6 a8 3d fb 8c 6d 3e 02 cb 5a be
       0.19343367 0.08250224 0.23198311 -0.21366504
0002f0 ef 88 fd 3d d2 6e 26 be 1d 09 6b 3e b9 05 c4 3d
       0.12379634 -0.16253212 0.22952695 0.09571404
000300 a0 cd 02 3b ac 73 e0 3d cd 7b 80 bd f8 04 65 be
       0.0019958988 0.10959563 -0.06273613 -0.22365177
000310 5a e9 44 bd fe 00 7d 3d 50 fc 53 3d 4a a5 96 bc
       -0.048074104 0.061768524 0.051754296 -0.018389363
000320 52 4d 3e be 92 86 14 be 28 92 28 bd a1 8c 94 3e
       -0.18584183 -0.1450446 -0.04115501 0.2901354
000330 9e 01 53 3d 88 9d 63 bb 70 3a 62 be 6d 57 34 3e
       0.051515214 -0.0034731347 -0.22092605 0.17611475
000340 b9 ed c8 3d 7f fa d2 bd 96 ea 24 3d 64 d5 a8 3c
       0.09810967 -0.103016846 0.04026278 0.020609565
000350 a4 a1 b9 3b 52 6c c4 3c 74 dc 08 be 83 09 00 3e
       0.005665021 0.023977432 -0.13365346 0.12503628
000360 50 7e 0e be 9b 99 70 bd 32 c6 26 be 0f f0 ad 3d
       -0.13915372 -0.05874024 -0.16286543 0.08493053
000370 60 89 56 3e 0a 1c 9f 3d d1 e7 be 3d 92 14 71 3e
       0.20950842 0.0776902 0.09321559 0.23543003
000380 32 db 71 3d aa 1c d8 bc 95 05 49 3e 01 eb 8b bd
       0.05904693 -0.026380856 0.19631036 -0.06831933
000390 9b e9 6a bd 6b 26 03 3e 8e a2 49 bd 20 fc 72 bb
       -0.05735169 0.12807624 -0.04922729 -0.0037076548
0003a0 e6 ab 3f be 45 8f 45 3d 8f 99 83 3d 64 00 5b bc
       -0.18717918 0.048232336 0.06425773 -0.013366792
0003b0 8d b8 7f 3c eb ef 20 bd 93 b2 a7 3e 67 c9 05 be
       0.015607965 -0.039291304 0.3275343 -0.1306511
0003c0 d5 6d 23 3e 18 a9 9e bd 91 5b 12 3e 7d e0 64 be
       0.15959866 -0.07747096 0.14292742 -0.2235126
0003d0 62 8f bf bd bc 7b 1d bb 9b ca 84 be 7c 12 df bd
       -0.0935352 -0.002403005 -0.25935826 -0.108921975
0003e0 33 48 24 bd ae c5 cb bd 36 ee 55 be 74 2a 70 3e
       -0.040107917 -0.09949814 -0.20891652 0.23453695
0003f0 b7 25 88 bd e5 60 44 3d 4a cf 1a 3d ca a3 b3 bd
       -0.066478185 0.04794397 0.037795343 -0.08771475

action_layer.2.bias f4 [64]
000000 00 ec b2 bd b7 c4 b0 bc a6 a2 92 3c 3f 21 1d bd
       -0.0873642 -0.021578176 0.017899822 -0.038361784
000010 ba b0 6e bd a6 61 ca 3c a5 88 5c 3d 5d ba cf bc
       -0.05827401 0.024704766 0.053841252 -0.02535742
000020 22 3c cf 3d 15 ca b3 3d af ff 60 bc 98 89 b6 bd
       0.10118891 0.087787785 -0.013732835 -0.08912963
000030 2d f8 d0 bc 7d 82 95 3c 4f e8 06 3e 54 da a0 3d
       -0.025508964 0.018250698 0.13174556 0.07854143
000040 1e 48 ae bc 82 3e 4b bd 79 51 12 be 98 6e c7 3c
       -0.021274623 -0.04962016 -0.14288892 0.024344727
000050 e6 08 89 3d 45 b5 ac 3d 35 dd 2a 3e 79 9e ab 3b
       0.0669115 0.08433012 0.16685946 0.0052373973
000060 76 a4 3c bd 0a 57 a5 3d 3d 7f 20 3d 9a 48 9f 3d
       -0.04605528 0.08073242 0.039183844 0.077775195
000070 e7 24 cc 3c 1f 2d d7 bd 19 4b 41 3d ec 6f ba bd
       0.02491994 -0.10506653 0.04719076 -0.09103379
000080 c6 0b 45 3d a3 65 4f 3d c9 d9 a4 bd 94 f2 9d 3d
       0.04810693 0.050634038 -0.08049352 0.07712284
000090 0a 02 1e 3d f6 29 7c 3d 72 05 16 3d 3f 55 5c 3a
       0.038576163 0.061563455 0.036626287 0.00084050366
0000a0 61 e2 b2 bd 06 2e 57 3d 84 aa 95 3d 53 cd 2e be
       -0.087345846 0.052534126 0.07307914 -0.17070512
0000b0 3e 52 a6 3d 04 d1 25 bd 14 d5 c2 3c cf 64 3b 3c
       0.08121155 -0.040482536 0.023783244 0.011437609
0000c0 c8 ab b6 bd 56 ff 4b bd e1 47 b2 bd 14 2f 0f 39
       -0.089194834 -0.049804054 -0.08705116 0.0001365508
0000d0 c1 18 ad 3d a7 6b 00 bd 36 e4 b9 bd 64 2e 56 bc
       0.08451987 -0.031352665 -0.09076731 -0.013072584
0000e0 67 29 5e 3d 92 52 d8 3d 54 12 d6 bc 81 36 a2 3d
       0.054238703 0.10562624 -0.026131786 0.07920552
0000f0 a4 8a 38 3c 6f dc 96 bd 54 a5 d4 bc 5f a1 00 3d
       0.011263523 -0.07366263 -0.02595774 0.031403895

action_layer.4.weight f4 [4, 64]
000000 68 8a a8 b8 fd de b5 3b 0c 5d 8d bd 47 66 3d bd
       -8.0366444e-05 0.005550264 -0.06902513 -0.046240117
000010 af 16 a8 3b d4 0f 80 3c ca d0 95 3c 71 7c ac bc
       0.005129657 0.015632547 0.018288035 -0.021055432
000020 cd 94 f1 3d ed 0a c5 bc 8a 2f f5 3c 2d 10 b8 bc
       0.117959596 -0.024053061 0.029929895 -0.02246865
000030 e0 7b 2d bd 5a 71 6f bd 65 9e f8 bb f9 a3 03 3e
       -0.042354465 -0.05845771 -0.0075872415 0.1285552
000040 cb a7 89 3d bb c2 10 bd 22 e5 af bd d8 15 6a bc
       0.06721457 -0.03534196 -0.085886255 -0.0142874345
000050 2c bd 5b 3d b6 84 4c bc 8a d6 74 3e 6f 79 dc bc
       0.053647205 -0.012482813 0.23909965 -0.026913373
000060 52 0f 82 3d 22 d9 1a 3d 61 7a 45 3d 08 b7 de 3d
       0.06350578 0.03780473 0.048212413 0.10874754
000070 15 1a 99 3d 84 2c f4 bd 58 0f 01 bc 48 f1 4b 3d
       0.07475678 -0.11922553 -0.007877193 0.04979065
000080 a1 ec e2 3d 34 69 16 3e f3 a8 90 3d cf 5d 5b ba
       0.1108029 0.1468857 0.070634745 -0.00083681656
000090 0a 51 88 3d cc 04 47 3d 81 5e 87 3c 40 e0 04 3d
       0.06656082 0.04858856 0.016524555 0.032440424
0000a0 c7 0e 9b 3d 8c 63 5d 3c e7 a1 bb 3d 88 66 02 be
       0.07571178 0.013512503 0.0916174 -0.12734425
0000b0 c7 4e 61 3e 7e fb 1a bd 3b c4 67 bc de 19 81 bd
       0.22002707 -0.037837498 -0.014145906 -0.06303762
0000c0 ff ea 3f 3d 79 81 e2 bc 04 13 0e bc 2b 11 c6 3d
       0.04685497 -0.027649628 -0.008671526 0.09671243
0000d0 50 51 b6 3d 4a 25 9d 3d f8 4c fa 3c 5d b6 ad 3d
       0.08902228 0.07673128 0.03055428 0.08482049
0000e0 11 75 55 3c 18 c2 fd 3c c0 4e e7 3b e5 fd ca bc
       0.013028399 0.03097634 0.0070589483 -0.02477927
0000f0 c4 18 14 3e b1 73 eb bd 21 0c cd bd d7 7f 54 bd
       0.14462572 -0.11496676 -0.10012079 -0.05187973
000100 f5 89 67 3c 05 0b 2a bd 9c df fb 3d ec cd 01 be
       0.014132013 -0.041514415 0.122985095 -0.12676209
000110 e0 59 dc be 38 cb 9a bd 27 0a 86 3b 68 b4 7c bd
       -0.4303732 -0.07558292 0.0040905657 -0.061695486
000120 51 46 02 3b e5 4a 10 be 5a 70 a7 3d 14 13 0e 3c
       0.0019878338 -0.1409107 0.08175726 0.008671541
000130 84 9d 01 bd 2e 55 6b 3d e0 aa 17 3e 82 8d 95 3e
       -0.03164436 0.05745428 0.14811277 0.29209524
000140 3b 43 5e 3d dd 3d 9e 3d a7 94 51 3d 81 87 6e 3d
       0.054263335 0.07726643 0.051167157 0.058234695
000150 3a 54 b6 bd 5a b0 d0 3c c7 ea 3d be a6 a8 ee 3c
       -0.08902784 0.025474716 -0.18546592 0.029133152
000160 cd dd 94 3d 2b 2c a4 3d 7a e3 25 3d 15 99 a0 3d
       0.07268868 0.08016237 0.04050014 0.07841698
000170 e2 4f 5c 3e 8f 4d eb bd 56 20 e1 bd d9 d8 75 3d
       0.21514848 -0.114894025 -0.10992496 0.060021255
000180 cd 74 92 3e 1d 33 18 be 03 9f 08 3e ad bd 40 bd
       0.28604737 -0.14863248 0.13341908 -0.04705589
000190 54 89 88 3d 0b d4 a2 3d 76 ed ec 3c 10 22 94 bc
       0.06666818 0.079506 0.028921824 -0.018082649
0001a0 a6 31 cf 3d 0b 64 3b 3d 58 f4 6a be a8 17 87 be
       0.101168916 0.045749705 -0.22944772 -0.26385236
0001b0 86 19 41 be ef ff 44 3d 87 df 08 3d 5e 2b 79 3d
       -0.18857393 0.04809564 0.033416297 0.060832374
0001c0 2e f5 0c 3e 2f 7f 5a be b7 e8 fc bc 42 b7 e1 3d
       0.13765404 -0.21337579 -0.030872686 0.11021282
0001d0 c5 c8 a6 3d 88 53 8b 3e e5 86 57 bb 54 5d d2 3d
       0.081437625 0.27212167 -0.00328868 0.10271707
0001e0 d5 fc 62 3b 94 db b6 3d 68 3b bf bd 28 b8 89 bd
       0.0034635563 0.089286 -0.09337503 -0.06724578
0001f0 96 f3 be 3d a3 44 fa bd 51 fe 41 be 84 08 ae bd
       0.09323804 -0.12220123 -0.1894467 -0.08497718
000200 95 f2 0c 3d ee 31 0a 3e 55 d9 94 3e c0 95 01 be
       0.03441103 0.13495609 0.2907206 -0.12654781
000210 82 aa 9f 3e bd 8b e8 bc 93 a1 51 bd 82 9d 27 bd
       0.31184775 -0.028386945 -0.05117948 -0.040921696
000220 32 b8 87 be 34 59 6f 3e 2c 4e 5c bd 7c 2a 45 3c
       -0.26507717 0.23373872 -0.053785488 0.012034055
000230 83 75 40 be 8c 43 1f be b2 a0 0f 3e 37 c2 2c be
       -0.18794827 -0.15553111 0.14026144 -0.16870962
000240 a8 e8 f8 bd d1 36 81 3e 14 56 24 3c 48 e8 20 3d
       -0.12153751 0.25237134 0.010030288 0.03928402
000250 71 c4 09 3e 13 20 af be 61 df 8c be 16 2a 9a 3d
       0.13453843 -0.34204158 -0.27514175 0.075275585
000260 72 30 a9 3d c0 e6 c4 bd b7 3c 8a be 36 0e ac 3d
       0.08261193 -0.096143246 -0.26999447 0.08401148
000270 03 4f 66 be f7 b5 8d 3e d4 6f 83 3e b3 05 be bd
       -0.22491078 0.2767789 0.25671256 -0.09278431
000280 fd fe 8e be d1 c8 2c bd d5 83 36 be db 45 93 3d
       -0.27928916 -0.0421837 -0.17823727 0.07191058
000290 92 f9 f3 3d ed b4 23 be 54 74 32 3d c6 a6 a7 3b
       0.11912836 -0.15986986 0.04356797 0.0051163165
0002a0 68 05 45 be 0c 05 fe bc 01 6e a7 bd 55 50 1b 3e
       -0.19240344 -0.031008266 -0.081752785 0.15167363
0002b0 18 0c 2d be cf 70 40 be a7 f1 8f bc 9e 02 4e 3e
       -0.16899145 -0.18793033 -0.017571284 0.20118186
0002c0 e4 cd 35 be c8 49 6b 3d 3e ca cb 3c 4f e7 8a bd
       -0.17754322 0.05744341 0.02487671 -0.067824
0002d0 df 03 8a bd d8 f4 87 be 95 c7 39 bc c1 84 82 be
       -0.067390196 -0.26553988 -0.011339088 -0.25491908
0002e0 6f bd 8f bc ba 69 39 be c8 47 51 3e b7 74 5a bd
       -0.017546384 -0.18106738 0.20437539 -0.053333964
0002f0 03 91 95 be ab c6 3d 3e f3 27 48 3d 56 28 62 3e
       -0.29212198 0.18532817 0.048866224 0.220857
000300 14 bc 4a 3d 65 71 85 bd 39 19 42 be 7b ea 17 3e
       0.04949577 -0.06515769 -0.18954934 0.14835541
000310 04 5c 27 3e dc 42 9d bc f2 db 8b 3d 54 db 2d bd
       0.16343695 -0.01919692 0.068290606 -0.042445496
000320 42 4d 39 3e 16 f4 69 be 26 51 ed 3d 1c 97 5a bd
       0.18095878 -0.22847018 0.115877435 -0.053366765
000330 f0 2b 29 3d 98 d3 01 3e f9 11 5a be 09 06 a8 bd
       0.041301668 0.12678373 -0.21295919 -0.08204276
000340 7d 3f 03 3e 03 d4 84 be 0f 8a a8 3d 1a 11 ca bc
       0.12817188 -0.25943002 0.082294576 -0.024666358
000350 ea 20 ad 3c ee 9f a0 3d d6 67 e1 3e e6 1a 92 bc
       0.021133859 0.07843004 0.44024533 -0.017835092
000360 bb 97 a7 3d 8e 70 6f 3d 85 4b c9 3d df 52 b9 3d
       0.08183237 0.05845695 0.09828857 0.090490095
000370 1c 89 15 3e 1f 68 6c be af 6b 45 3d 38 13 cf 3d
       0.14603084 -0.23086594 0.0481984 0.101110876
000380 6c 89 c1 bd a2 f8 9f 3e d9 bf e0 3d 5e c0 46 bd
       -0.09450039 0.3124438 0.10974092 -0.0485233
000390 66 7a 49 3c 23 ee ec 3d 09 7c d5 bc 57 42 03 bd
       0.0122972485 0.115688585 -0.026060121 -0.03204569
0003a0 0f d1 3c 3e ff 96 1c 3c 64 d0 ab 3e 71 2c 30 3e
       0.18439125 0.009557485 0.33557427 0.17204453
0003b0 c4 b5 a2 3e 6f e7 b4 bd 47 7a 70 bc 4a 2d 1a be
       0.317793 -0.08833205 -0.014677591 -0.15056339
0003c0 ea 27 9f 3b e3 57 55 3e b9 a4 3c bd dd ce e1 3d
       0.004857053 0.20834307 -0.04605553 0.11025784
0003d0 b4 f6 78 3d 50 43 e6 bd e0 55 b6 3d 2f 89 5c 3e
       0.06078215 -0.112433076 0.08903098 0.21536706
0003e0 20 76 56 3d 7e 3c ee 3c ab ea b1 bd c7 13 0a bd
       0.052358747 0.02908158 -0.086873375 -0.033710267
0003f0 ec 09 43 3e 30 cc 28 be 34 9b 3a bd f0 6f 63 bd
       0.19046754 -0.16484141 -0.04555817 -0.055526674

action_layer.4.bias f4 [4]
000000 b7 73 07 3d 42 fb 1c 3d 75 9d 16 3d 0e aa 6c 3c
       0.03306934 0.038325556 0.036771256 0.014444841

value_layer.0.weight f4 [64, 8]
000000 99 1d c9 bd 84 17 40 be c6 1b 97 bd d5 30 a3 3e
       -0.098200984 -0.1875897 -0.07378344 0.31873193
000010 94 da 9f 3e 68 3d 59 3e 68 1c 81 be dd 6c 59 be
       0.3122145 0.21214831 -0.25216985 -0.21232934
000020 5e 62 2a 3e ea e1 93 3e dc 19 a6 3e 7a 44 84 3e
       0.16639087 0.28883296 0.32441604 0.25833493
000030 64 56 2a be bc 05 bc bd 82 37 78 be fc d8 ff bd
       -0.16634518 -0.09180781 -0.24239925 -0.12492558
000040 c0 ba e6 bd 77 88 81 be cd 98 6c 3d aa 4f 4d be
       -0.112660885 -0.25299427 0.05776291 -0.2004992
000050 8c db fc 3d 15 3b 17 bd 40 b2 0c bd 66 40 16 3c
       0.12346563 -0.03692158 -0.03434968 0.009170627
000060 60 34 0d 3e b8 f7 e0 3d 3f cd 8d 3e ec 46 97 3e
       0.1378951 0.109847486 0.27695653 0.29546297
000070 c7 d1 5b be e3 4b 69 3e d3 bd 0a be 6e e8 8c be
       -0.21466742 0.22782855 -0.13548975 -0.2752108
000080 fc 6f 80 bd d0 57 95 3e e7 9d a8 3d f5 98 26 3e
       -0.06271359 0.29168558 0.082332425 0.16269286
000090 9a ec cb 3d 09 71 97 3d 16 da 8a 3e ca 1d a0 bd
       0.099572375 0.073946066 0.2711951 -0.07818182
0000a0 45 1f 80 3e f8 32 a1 3d 57 b3 5a 3d 75 3c 99 be
       0.25023857 0.0787105 0.053393688 -0.29928938
0000b0 0b 08 6e be be c2 4a 3e 9c 01 e1 3d 6f a5 08 be
       -0.23245256 0.19800851 0.10986635 -0.13344358
0000c0 f2 e4 aa be db b2 84 3e 93 71 cc 3d d0 46 23 be
       -0.33377796 0.25917706 0.099826 -0.15944982
0000d0 5f 61 80 be 4b 08 64 be b9 30 87 bc af 61 90 3d
       -0.25074288 -0.22268789 -0.016502725 0.07049882
0000e0 bf b4 3a be a7 6d d1 bd 86 6f 1d be 30 86 ab be
       -0.18233012 -0.10225993 -0.15374574 -0.33500814
0000f0 4e a1 04 be 09 9c 17 3e 0c 30 98 3d 48 65 45 be
       -0.12952158 0.14805616 0.07431039 -0.19276917
000100 c5 20 6e bd dd a6 5f 3e 88 32 c3 3c 45 fd 69 bd
       -0.05813672 0.21840997 0.023827806 -0.057126302
000110 0f 51 18 bd a0 8f 6d 3e b5 22 66 3d 8f cf 8f be
       -0.03718668 0.2319932 0.056185443 -0.28088042
000120 f4 ad d4 bc 96 32 a2 3e 8e ba 0e 3e 1f da b3 bd
       -0.025961854 0.3167922 0.13938352 -0.08781838
000130 45 a9 52 3d 81 77 84 3e cd c0 8e be e9 d0 51 be
       0.05143096 0.25872424 -0.2788147 -0.20489849
000140 8b 7d 1b 3c 6e 6c ae bd b8 f8 2a 3e ac b9 8e 3e
       0.009490381 -0.08516775 0.16696441 0.2787603
000150 ac 62 bd bd 35 69 86 bd 1d a1 85 bc 19 fc a6 be
       -0.09247336 -0.065630354 -0.016312176 -0.3261421
000160 e4 a0 80 3d de 99 34 3e c5 a7 1e 3d fc 7e 9e bd
       0.062806875 0.1763682 0.038734216 -0.07739064
000170 5a cf b9 bd d7 af b1 3c de be d4 bd b6 5c 38 3d
       -0.09072752 0.021690292 -0.103879675 0.04501029
000180 99 7b 6a 3e 95 92 13 3d 09 a2 8c bd 87 b3 58 be
       0.22898711 0.036028463 -0.06866843 -0.21162234
000190 28 17 b7 be 2f 99 3e 3e b8 8e e8 3c 97 4d 83 be
       -0.35759854 0.18613122 0.028388366 -0.25645134
0001a0 4a b2 84 be 91 00 22 be 17 5e 97 bd 41 23 36 3e
       -0.25917274 -0.15820529 -0.07390993 0.17786886
0001b0 8b 87 b7 3d 4f 15 30 be a2 e0 a1 3c 83 4a ac 3d
       0.089614 -0.17195629 0.019760434 0.084126495
0001c0 f2 63 4f be 0e ff 4f bd e1 87 48 be dc 5d 16 3e
       -0.2025297 -0.05078035 -0.19583084 0.14684242
0001d0 42 c5 13 be c7 f9 1b 3e 5f 85 7f 3e fb 36 22 3e
       -0.14430717 0.15232001 0.24953221 0.15841286
0001e0 a1 d8 07 be 8d 8c 89 3e 8f f7 78 be ad ba 97 3e
       -0.13266231 0.26865044 -0.24313186 0.2963461
0001f0 2f 7d 42 3e a0 b3 44 3e e8 af 8e 3c 99 9a 97 bd
       0.18993066 0.19209146 0.017417863 -0.07402534
000200 30 19 16 be 8e dc 8a bd 86 41 16 bd 44 06 a7 3e
       -0.14658046 -0.06780349 -0.03668358 0.32621968
000210 15 95 4e 3e f1 ca 13 3e 05 b4 8a 3e 93 bc 03 3e
       0.20174058 0.14432885 0.2709047 0.12864904
000220 e0 3a b7 3c 59 ff 14 bd a3 fa 8e 3e 78 85 46 be
       0.022366941 -0.03637633 0.27925596 -0.19386852
000230 fe 0f 2d 3e ea be c6 bd 28 53 1a bd a9 30 b8 bd
       0.16900632 -0.09704383 -0.03767696 -0.08993656
000240 24 98 b1 be 73 ff 8e 3e 9b 77 88 3e 9f a7 85 3e
       -0.34686387 0.27929267 0.26653752 0.26104447
000250 2f 82 81 be 09 88 73 be 5c 7d 14 3e fc 72 b4 be
       -0.25294635 -0.23782362 0.14500946 -0.35243976
000260 bb af 96 3d 32 40 80 3e 27 2e d7 3d 30 5f 05 bc
       0.07357737 0.25048977 0.1050685 -0.00814037
000270 6f 65 12 3e ee d4 11 3e f1 7e 70 bd fe 44 73 be
       0.14296506 0.14241382 -0.05871481 -0.23756787
000280 52 d6 d2 bd 49 f5 78 3d ea e8 04 be 26 de 58 bd
       -0.102947846 0.060780797 -0.12979475 -0.052946232
000290 df 24 2a 3e 32 6c 22 3c 04 67 c2 be f4 3e cb bd
       0.16615628 0.009913491 -0.3796922 -0.09924117
0002a0 e8 b9 9e be e7 ee 75 3e 7a 47 16 bd 88 54 f5 bb
       -0.3100121 0.24016915 -0.03668926 -0.0074868836
0002b0 c0 13 e1 bc 4d a7 b9 bd ca dd b3 3b 32 ee 26 be
       -0.027475238 -0.09065113 0.005489086 -0.16301802
0002c0 67 99 96 be 5b dc 91 be 5f da bb bc 23 23 b0 3e
       -0.29413912 -0.2848843 -0.022931276 0.34401807
0002d0 56 24 7a be fc a6 95 3e f0 da 7d 3e f7 bd 28 3e
       -0.24427924 0.2922896 0.2479055 0.16478716
0002e0 2b ff b0 be 87 9d 86 be db ca 63 be d2 b2 65 bd
       -0.34569678 -0.2629206 -0.22245352 -0.05607874
0002f0 33 a4 82 be ea 2e 98 3e d4 06 9a 3e 79 1c 82 be
       -0.255159 0.29723293 0.30083334 -0.25412348
000300 03 70 f5 3d a6 5c 02 3e 81 27 21 bd 04 25 ec 3d
       0.11984255 0.12730655 -0.039344314 0.11530498
000310 11 a5 d4 bd b4 18 74 be 80 e7 35 be 5e 2b a2 3e
       -0.103830464 -0.23837548 -0.17764091 0.31673712
000320 62 59 64 3e 23 78 8f bd 93 37 65 be a6 72 6a be
       0.22299722 -0.07005336 -0.22384481 -0.22895297
000330 60 0e b3 bd 78 39 56 3e e9 78 57 be 77 29 3b be
       -0.08742976 0.2092036 -0.21042217 -0.18277536
000340 f2 4c a9 3d ed d4 a7 3c 0b 5c 58 3c 7d ba b0 be
       0.08266629 0.020487273 0.0132055385 -0.3451728
000350 35 6a 86 3d 7c ab dc bd 11 ba 09 3e cf ef 67 be
       0.06563226 -0.107748955 0.13449885 -0.22650073
000360 16 a7 e8 3d f8 39 a8 be 91 c0 83 be dd c8 9e 3e
       0.11359994 -0.32856727 -0.25732854 0.31012622
000370 8d a2 2e 3e 88 34 71 be 6c 70 50 bd 5b 06 94 3e
       0.17054196 -0.23555195 -0.050888464 0.289111
000380 b5 93 7e 3e 51 84 87 3e b3 2a a6 3e 22 e9 95 3e
       0.24861033 0.26468137 0.32454452 0.2927943
000390 79 f0 23 3e 2c 36 a3 3e 41 5f 95 3e 92 cc 3d 3c
       0.16009702 0.31877267 0.29174235 0.011584418
0003a0 b6 bb aa be 40 05 69 be 91 71 95 3d b7 ea 71 be
       -0.33346337 -0.22755909 0.07297052 -0.23624693
0003b0 6f bf e1 3d fc e5 1e be 27 e8 2e 3e 16 03 a3 be
       0.11022841 -0.1551742 0.17080747 -0.31838292
0003c0 ff 55 64 bd dd 2c 42 be 4f 67 06 be 16 33 72 3e
       -0.055746075 -0.18962426 -0.13125347 0.236523
0003d0 51 22 91 be 23 73 7a 3e 3f 83 93 be bc 8a ed bd
       -0.28346494 0.24457984 -0.2881107 -0.11598727
0003e0 04 43 9a be e6 9e 3a bd 63 f0 31 be 71 96 82 3e
       -0.30129254 -0.045561694 -0.17376857 0.25505403
0003f0 8c 77 02 3e 7c 5b 97 be 53 06 12 be 51 9c c0 bd
       0.12740916 -0.29561985 -0.14260225 -0.09404815

value_layer.0.bias f4 [64]
000000 13 1c 76 3e 97 8d 76 be 5e db 9a 3e a8 11 73 3e
       0.24034147 -0.2407745 0.3024549 0.23737204
000010 08 b6 05 3e e8 3d 2d 3e c8 72 99 bd fd 5b a2 3e
       0.1305772 0.16918147 -0.07492596 0.31710806
000020 00 33 2c be 7e 26 fc bd 39 b6 24 3e 79 65 59 3e
       -0.1681633 -0.12312029 0.16085137 0.21230115
000030 92 45 78 3d c3 31 17 be 65 f9 45 be c7 64 b2 be
       0.060613222 -0.14765076 -0.19333418 -0.34842512
000040 ef f9 9c 3e 89 c1 3b be de 7f 55 3e 8a 57 a1 be
       0.30659434 -0.18335547 0.20849559 -0.315121
000050 e8 51 3a 3e a1 04 fc 3c a7 fc 48 3e d6 aa 10 3e
       0.18195307 0.030763926 0.19627629 0.14127669
000060 e3 d7 71 be eb ed 0c 3e 7e cb c6 3c d5 bb 12 3d
       -0.2361751 0.13762634 0.024266955 0.03582366
000070 93 dd 4a bd 3b a4 8f 3e 31 92 43 3e 82 a5 5e 3c
       -0.049527716 0.28054985 0.19098736 0.013589265
000080 f3 fe df 3b 93 0f 79 be 00 3a a6 be 23 d9 c6 3d
       0.0068358122 -0.24322347 -0.32466125 0.09709384
000090 a4 e2 6b be 46 e3 51 be 7f 37 84 3e 57 c4 78 3e
       -0.23035675 -0.20496854 0.2582359 0.24293648
0000a0 4f 9f 8f bd ac e2 80 be ae 58 4b bd 15 0a 96 be
       -0.070128076 -0.25172937 -0.04964512 -0.29304567
0000b0 d8 c4 40 be 04 d0 ad 3e 38 f4 84 3e 7f ae 93 3e
       -0.1882509 0.33947766 0.25967574 0.28844067
0000c0 ac 91 72 3e f1 eb de bc 31 ae 27 3e 9c 09 ac bd
       0.23688382 -0.027212115 0.16375042 -0.0840027
0000d0 05 b8 8b be 9f 7b 78 be e6 d2 8f 3e 36 39 38 3e
       -0.27288833 -0.24265908 0.2809059 0.17990574
0000e0 34 de 26 3e 44 59 ad 3e 83 ca 45 be 83 53 58 be
       0.16295701 0.33857167 -0.19315533 -0.21125607
0000f0 af 45 8d 3d 63 a5 3e bd 33 c6 84 bd 43 b1 8d be
       0.06898057 -0.046544444 -0.06483116 -0.27674302

value_layer.2.weight f4 [64, 64]
000000 8f a3 17 bc a6 a7 2b 3d e5 79 31 3d 3b ac af 3d
       -0.009255304 0.04190793 0.04332914 0.08577772
000010 95 59 af bd bf f2 f0 bd 52 2c 07 bd ad 3b b4 3d
       -0.08562008 -0.1176505 -0.03300125 0.08800445
000020 cf 5b 28 3d 10 20 e5 3d ad 98 de bc 0a df e0 3d
       0.04110318 0.11187756 -0.02717241 0.10980041
000030 f1 73 e4 bd 5d f3 93 3d 16 cb 9c 3d ba 79 c8 3d
       -0.111549266 0.07224152 0.07655923 0.097888425
000040 f4 e9 dd bc e3 84 df 3d 4f ce f9 3d 77 b5 1e 3c
       -0.027089097 0.10914018 0.12197553 0.009686819
000050 1d 6b 68 3d 55 02 f5 bd 2d d5 e2 3d 9c cd e3 3d
       0.056742776 -0.119633354 0.11075816 0.11123201
000060 80 fb e9 3d 52 ba ff bb a3 8d ba 3d d3 15 f3 bd
       0.11424923 -0.0078041935 0.09109046 -0.11869397
000070 dd 6c 78 3d b7 ce 3a bd bc e4 61 3d 1c 13 0b bd
       0.060650695 -0.045607295 0.05514978 -0.03395377
000080 15 be c1 bb 23 ee d7 3d 3c d2 b1 3c ab 76 9c bc
       -0.005912552 0.10543468 0.021706693 -0.019099554
000090 42 01 a2 bd 55 a8 32 3d b5 be b6 bd 67 75 c7 bc
       -0.07910396 0.043617565 -0.08923093 -0.024347974
0000a0 9b 0c e3 bd fa 76 6e bd 18 68 41 bc d6 af 8f 3c
       -0.11086389 -0.058218934 -0.011804603 0.0175399
0000b0 ab 15 48 3d 71 c2 1a bd e6 3d ad 3d 70 44 4a bd
       0.04884879 -0.03778309 0.08459072 -0.049381673
0000c0 04 bd 47 3d 35 de c5 3d 34 d6 eb bd 50 36 80 3d
       0.048764244 0.09661523 -0.115154654 0.06260359
0000d0 7b 3d c6 3d c4 e4 09 3c c6 11 38 bd e3 cb 81 bd
       0.09679695 0.008416358 -0.044938825 -0.063377164
0000e0 5d 26 8e bd 09 00 b3 3d b3 49 bf bd 09 f9 9c bd
       -0.06940911 0.08740241 -0.09340229 -0.07664687
0000f0 11 c2 35 3d 35 ac a8 3d 31 ad 02 bd 4f e9 da 3d
       0.04437453 0.08235971 -0.03190345 0.10689031
000100 45 b2 9b bd 4e 45 d9 3d 2d 74 08 3d 2c 91 d5 bc
       -0.076023616 0.10608922 0.03331392 -0.0260702
000110 2b 6b cc 3d 31 ae b5 bd 84 e1 a3 3d cd 03 d6 3d
       0.09981378 -0.08871115 0.08001998 0.10449944
000120 64 2d 45 bd 8b 01 ed 3d e0 c7 d2 bc 58 73 f7 3d
       -0.04813899 0.1157256 -0.025730073 0.12082547
000130 c6 17 8c bc 63 e0 cb 3d 94 f0 e3 3d 85 66 88 bd
       -0.01710118 0.09954908 0.11129871 -0.06660179
000140 8e 05 1d bc da 72 c5 bd fd 9d 8c 3d c0 39 c2 bd
       -0.009583844 -0.09641047 0.068660714 -0.09483671
000150 82 3f 40 3d 8a d0 48 bd 20 76 b0 3d 67 13 76 3d
       0.046935566 -0.049027003 0.086162806 0.060077097
000160 fe b2 37 bc c5 12 a7 3c b6 7d e3 bd 57 06 28 bd
       -0.011212109 0.020394692 -0.11107962 -0.04102167
000170 a5 d6 c2 3d 1d 36 80 bd ee e6 94 bd 0f de 60 bd
       0.095135964 -0.06260321 -0.07270609 -0.05489927
000180 98 7c 5e 3b 19 42 9e 3c 53 dd 75 3d b6 72 fd bd
       0.0033948775 0.019318627 0.060025524 -0.12375395
000190 18 b0 a7 bc b5 c3 3b 3d 10 9a fc 3d 77 0f 24 bd
       -0.02046971 0.045840938 0.123340726 -0.04005381
0001a0 d1 99 f0 bd 87 be 89 3d 6f 5f 16 bd f6 2a 81 bd
       -0.11748088 0.06725793 -0.036712106 -0.06307022
0001b0 ca a5 bb 3d 4d d2 df 3c 1f df b3 bc da 9a d1 bd
       0.09162481 0.027321959 -0.021956978 -0.10234614
0001c0 f3 49 d6 bc c6 e8 ab bd cf 60 7d bc c3 79 fb 3d
       -0.026158309 -0.083940074 -0.0154649755 0.122790836
0001d0 a9 dd 28 bd 9a 89 b8 3d fa 84 0d 3d 5b b9 81 bd
       -0.041227017 0.090106204 0.034550644 -0.06334182
0001e0 76 59 c8 3d a3 a3 a2 bd f3 74 8e bd e5 e2 f7 bd
       0.09782688 -0.079413675 -0.069559 -0.121038236
0001f0 51 38 5c bd 33 e1 45 bc fa 7c 5b bc c2 8a 14 3c
       -0.053764645 -0.012077617 -0.013396496 0.009066286
000200 40 b4 dd bd 4d d6 6d 3a 31 ac 32 bd 10 20 93 3d
       -0.108253956 0.0009072766 -0.043621246 0.0718385
000210 0a 13 85 bb 30 b4 68 3d fa db f3 bc d0 a3 47 ba
       -0.0040611075 0.056812465 -0.029767979 -0.00076156575
000220 f8 b9 8b bc 89 d5 08 3d f4 5d de bd 67 00 a7 3c
       -0.01705645 0.033406768 -0.10857764 0.020385934
000230 31 69 c0 3c ab 91 e7 bd 52 b7 b0 bd 67 91 cc 3c
       0.02348766 -0.11307081 -0.086287156 0.024971677
000240 af 8e 28 bc 6f 84 83 3c 72 72 40 bd 49 5a a0 3d
       -0.010287925 0.01605436 -0.046984144 0.078297205
000250 c6 65 e8 bd a2 0e 01 b9 69 88 12 3d 4f 4a 99 bd
       -0.11347537 -0.0001230785 0.035774622 -0.07484876
000260 00 c3 54 3d 9d b1 f4 bc 20 59 27 3c 49 f2 00 be
       0.05194378 -0.029869849 0.01021412 -0.12592424
000270 5c 31 e9 bd 79 1b 15 bc a4 2a 6f 3c f5 e9 8b bd
       -0.11386368 -0.009100788 0.014597569 -0.06831733
000280 62 05 c0 bd 3d c8 be 3d 73 d4 d9 bd af 11 db bd
       -0.09376027 0.09315536 -0.106362246 -0.10696732
000290 7b 50 40 3d 9b 67 ee 3b 3b a0 e4 bc 26 71 f1 bd
       0.046951752 0.0072755343 -0.027908435 -0.117891595
0002a0 13 6b 01 bd 70 f1 b0 3a e9 53 51 bd c9 eb 14 3d
       -0.031596255 0.0013499688 -0.051105414 0.036357675
0002b0 ab ae 7c bd b5 7d 28 bd 6e 0b 63 3d c9 2a a4 3d
       -0.061690014 -0.04113551 0.055430822 0.08015973
0002c0 7a 22 d6 bd e2 58 a0 3d 6b 4d 92 3d 9d 2b 66 bc
       -0.10455795 0.07829453 0.071436726 -0.014048484
0002d0 35 9f 73 3c 4d 18 a4 bd 5f e1 9a bd e5 54 be 3d
       0.014869501 -0.080124475 -0.075625174 0.09293536
0002e0 0d 7f 83 3d 0d f0 41 bd 6e e6 b8 3d ea 07 a0 3c
       0.064207174 -0.04734807 0.09028326 0.019535024
0002f0 5b 52 38 bd 83 9f 06 3d c3 af dc bd e1 1d 6f 3d
       -0.045000415 0.032866966 -0.107757114 0.058378104
000300 d1 d3 47 3d 51 6b 27 3d 10 81 54 3c 65 e5 d3 3d
       0.04878599 0.04087383 0.012970224 0.10346488
000310 d0 2b 4c bd 96 60 87 3d 62 a6 bf 3d 49 90 d5 bd
       -0.04984647 0.06610219 0.09357907 -0.10427911
000320 fb a7 b4 3d e4 9e ec bd c0 f7 20 bd 03 ab f2 bb
       0.08821102 -0.115537435 -0.039298773 -0.00740564
000330 67 0d a5 3d ab 6b 1f 3d dc be 83 3c cf 58 69 3c
       0.08059197 0.03892104 0.01608222 0.014242365
000340 05 14 b1 3d 0c 98 e6 bc 5a 83 d0 bd cb eb 88 bc
       0.086463965 -0.028148673 -0.10181303 -0.016713997
000350 07 34 dd 3d ee ab 63 bd 84 c7 86 3d 8e b0 eb 3d
       0.10800939 -0.055583887 0.06581023 0.115082845
000360 11 08 be 3d 0d 08 aa bd 64 97 c3 3b 6f e3 39 bd
       0.09278882 -0.08302317 0.005968975 -0.045382913
000370 3b 9c 01 3e ad 95 a1 3d df 25 d7 bd 52 ba d7 3d
       0.12657253 0.078898765 -0.1050527 0.10533585
000380 e0 77 d5 bd 2e 2d 4e 3d e4 c8 be 3c 4d 2b 7e bc
       -0.10423255 0.050336055 0.023289151 -0.015513253
000390 18 35 8c 3d b2 18 81 3c 3a d5 e2 3d 03 61 99 bc
       0.06846064 0.015758846 0.11075826 -0.018723017
0003a0 d4 69 e9 bd 51 5d 59 bc 3a e6 99 3d 05 89 2b 3c
       -0.11397138 -0.013266877 0.07514615 0.01046968
0003b0 56 62 41 3d 23 a9 a5 3c 32 38 34 3d da aa 37 bd
       0.04721292 0.020222252 0.043998905 -0.04484067
0003c0 76 61 11 bd 00 61 60 bd 1e 06 11 3d 62 db 6c 3d
       -0.035493337 -0.054780006 0.035406224 0.057826407
0003d0 ad 76 9c 3d 99 07 fc 3b b5 ef 92 3d 29 e4 99 bd
       0.07639823 0.0076913354 0.07174627 -0.07514221
0003e0 a1 4a cb bc 51 4a c3 bd cd 4e 8a 3d 3b a6 65 3d
       -0.02481586 -0.09535659 0.06753311 0.056066733
0003f0 0f 4b 69 bd 76 e8 6a bc c8 75 ef 3d c8 c9 8e bd
       -0.056956347 -0.01433765 0.11692387 -0.069720805

value_layer.2.bias f4 [64]
000000 42 aa 62 3d 6c 90 fb bd bc d9 e6 bd 1c 63 36 bc
       0.05533815 -0.12283406 -0.11271998 -0.011132028
000010 ba 05 68 bd 12 88 8b 3d a5 25 90 3d 93 96 b6 bd
       -0.056646086 0.06813063 0.0703843 -0.089154385
000020 89 da d0 3d 4e a1 89 3d e9 81 c4 3d f8 42 94 bd
       0.10197932 0.067202196 0.09595091 -0.07239336
000030 26 9f 15 3d 89 02 a3 bd b6 f3 e8 3d 7c f3 91 bd
       0.03652873 -0.07959468 0.11374609 -0.07126519
000040 c5 d9 aa 3d c6 4e 02 3d 52 fb cd 3d 47 0e b8 3d
       0.083423175 0.031813405 0.10057701 0.08987098
000050 d1 be 12 3d cd 0a 6a bd ab e1 a7 3c 37 fa fa bc
       0.035826508 -0.057139207 0.020493349 -0.03063689
000060 b4 d8 db 3d 65 39 e9 3c 36 34 1b 3a 71 4d f1 3c
       0.10734692 0.02846975 0.0005920561 0.029455872
000070 dd a7 e7 3d 7e 65 c1 bd 82 ac 52 bc a7 b9 b8 3a
       0.11311314 -0.09443186 -0.012858512 0.0014093415
000080 b3 81 99 3a b3 e2 d1 3d 68 02 bd bd 15 68 65 bd
       0.0011711627 0.102483176 -0.092289746 -0.056007463
000090 2b e2 d5 bd 37 79 a7 3b de 94 d9 3b 58 68 e8 bd
       -0.10443529 0.0051108855 0.006640061 -0.11348027
0000a0 fa 0d 84 3c 47 40 78 bd a7 a7 80 3d 9a 55 c2 bd
       0.016119946 -0.060608175 0.06281977 -0.094889835
0000b0 84 8d d5 bd 40 70 6c bd 44 20 66 3d ad 78 4c 3d
       -0.104273826 -0.057724237 0.056183115 0.049919773
0000c0 46 b9 81 3d f5 09 05 bd 5d 7f 97 bc 0f c8 61 bd
       0.06334166 -0.0324802 -0.018493349 -0.05512243
0000d0 68 5e ed bc 4f 0b a8 bd d8 a4 c1 bc 2f 92 b7 3d
       -0.02897568 -0.08205282 -0.023638174 0.08963429
0000e0 74 6f b0 bd 50 a6 4d 3d 0b d6 77 bc 2b 83 f1 bb
       -0.08615008 0.050207436 -0.015126715 -0.007370373
0000f0 99 bc c2 3d 7f ee a0 bc 08 2f ed bd 93 97 ad bd
       0.095086284 -0.019644974 -0.11581236 -0.08476176

value_layer.4.weight f4 [1, 64]
000000 75 1e af bd 20 59 94 3d 97 89 8a bd 78 9c a1 bd
       -0.08550731 0.07243562 -0.067645244 -0.07891172
000010 eb 68 17 3d d6 15 4b bc 01 fd 1d bb 8e 53 a1 3d
       0.036965292 -0.012395343 -0.00241071 0.07877265
000020 60 ab 39 bb 00 76 c9 bb a7 4b 9c bc 56 cf c0 3d
       -0.0028330907 -0.0061481 -0.019079043 0.09414546
000030 b2 ad 80 bc 91 05 61 3c 26 10 5e 3d f8 f9 52 3d
       -0.015707824 0.013734237 0.05421462 0.05150792
000040 ec a1 e5 3c 7c 6d c2 3c 53 49 2d bd 97 50 45 bd
       0.028031312 0.023733847 -0.042306256 -0.04817256
000050 36 b2 ba 38 61 7d 18 3d e0 27 56 bd 10 97 74 3a
       8.9023655e-05 0.037228946 -0.05228412 0.00093303714
000060 d0 ba 32 bc 50 e2 0d 3d df 2b ec 3c 0b 36 e7 b9
       -0.010908797 0.034639657 0.028829513 -0.0004410002
000070 fc 28 b5 3b ce 54 8a bd c0 e7 a0 bd a1 09 35 bd
       0.0055285674 -0.067544565 -0.07856703 -0.044198636
000080 36 94 bc 3d 70 a1 18 3d d0 ad 19 3a 60 33 5f bc
       0.092079565 0.037263334 0.0005862387 -0.013623089
000090 a1 f6 4c 3c b1 c9 ac bd fd b1 f4 3c 81 01 5d 3d
       0.012509973 -0.08436907 0.029870028 0.053956512
0000a0 51 c9 61 bd 57 86 f0 3c 63 49 79 3d 54 a6 85 3c
       -0.05512363 0.029360933 0.060861003 0.016314663
0000b0 0e e4 a8 3d 02 2a 27 bd fe 09 e9 3c f3 f6 2e bd
       0.08246623 -0.040811546 0.028447147 -0.042715978
0000c0 f9 7f 3e 3d 6b be 12 bd 6d 4e 97 3d c3 1e 08 bd
       0.046508763 -0.035826128 0.073880054 -0.03323246
0000d0 e2 c8 77 bc 3a c5 ae 3d ff 3a ca bc 0c a3 bd 3d
       -0.015123578 0.08533712 -0.024686335 0.09259614
0000e0 cf 32 23 bd d3 52 1f 3d 64 d1 94 bd d3 9f 9c 3d
       -0.039843377 0.038897347 -0.072665006 0.076476716
0000f0 2b ab ba 3d 0b e5 a2 bd dc 2c 11 3c f2 6b 8b 3d
       0.09114679 -0.07953843 0.008860793 0.06807698
