8_gym-PPO/results_seed/PPO_LunarLander-v3_2000-eps0.2-seed5.pth (torch, 44290 bytes, 11 tensors)

action_layer.0.weight f4 [64, 8]
00000000: a612 563e 9d08 6fbe 9d10 8a3e 4342 013f
00000010: da92 a03c e8f4 a7be edb9 59be 8de1 583e
00000020: 9661 36be d41a 513e 2e4e db3d 909a 783c
00000030: c059 03bf a03a 53be 9635 043d 9a7b f03c
00000040: 6fcc 393e 48a9 1f3c ff28 b5be 3088 233f
00000050: e189 aa3e f144 a53d 6feb fabe f2be 063e
00000060: 52d9 fc3e b813 92bd 9429 e83d bce3 943e
00000070: 8d6d 05bf f8d7 06be 5521 82be fecc 8abe
00000080: d3f4 00bf be03 aabd 0100 fc3d bd61 a93e
00000090: 5b45 f73e c97c 5abe 9095 e6bd 39b8 413e
000000a0: 7319 18be a273 a4bd 8bec ddbe 2a13 443e
000000b0: 94c1 2b3f bdde 323f 16a2 643e 5af9 7d3c
000000c0: 4d0d c83e 1523 d3bd b20d c23e e2ae 0f3e
000000d0: f21d 05bf 9c0a 0bbf fe46 8f3e f1d4 943e
000000e0: acc8 933e 445e 69bd eeef 60be af2d 133f
000000f0: 818d 93bd 00ca 3d3a 0535 cfbd b113 44bc
00000100: af65 b2be a503 983e 0119 8dbc da97 c43e
00000110: 085a ad3e 90d6 12be 488a 323e d8e3 21be
00000120: 2eea abbe 8806 303e de27 6b3d 6e55 1e3f
00000130: 807c fb3e e1f7 213f 9fe2 76be 63af 893c
00000140: 353a 98be 090c 6d3d e2b2 23be 7298 bd3e
00000150: ce96 0a3f 091a 42bd 6abe cdbe 2356 7bbe
00000160: 58bd 513e 19bd 06be 0692 0cbd 6773 f1bd
00000170: a742 86be 3967 e7bd 942a 2ebe da15 24bb
00000180: ea62 9dbb 1f4b 22bd 5db8 b03e 2201 193f
00000190: abb4 a6be eaa0 debe 1437 dcbe 8b87 adbe
000001a0: 5d1d 78bd c7dd e1bc 87ee 09be 9aaf ccbd
000001b0: 17d1 9a3e b7ce 423e 7d6a 7abe c59f 0f3e
000001c0: 6816 6cbe dcea 423d a110 5a3e b55e ef3e
000001d0: b06f efbe 7e45 1fbe d870 4a3e f995 633d
000001e0: 3953 1b3e 0bb6 0ebe 98c8 243e bafe 0dbf
000001f0: 11f3 73be bcae 773e 8a2c 453e 298b c13d
00000200: 00d5 5dbe 78b4 b1bc 5ea1 9ebe 92ef 23bf
00000210: b074 4a3e 48f4 093e e6de 5ebe c5f0 ac3e
00000220: 1d3e 0c3f e393 6ebe b870 a63e f0da d8be
00000230: 7c98 19bf d5ea c73c b362 133e 3874 a53d
00000240: 8b07 243d b589 8d3e 9011 f53c fa45 fdbe
00000250: f6cd 1fbc 236f 48be a9a4 8fbe 029d ee3d
00000260: 55a2 683e 4aa0 e73c 6bb8 e13d 92cd 09bf
00000270: 410c afbe e0b5 e9be 5348 be3d e9dc 9f3e
00000280: 9212 7abe b2dc cb3c 7f00 f8bd e92a b53e
00000290: a4ee 373f 7b33 da3e 809d 5cbd 8279 92bd
000002a0: 0f64 ed3d fe1a 553e 948e 8bbe 078f 2e3f
000002b0: 7cab c33e f256 163e 4eaf 18bf 5e8a d5be
000002c0: 3df0 bfbc 0f4b 92be 2a58 733d 7ba2 13be
000002d0: 2544 19bf d4ca 1abf 1d9c 213d 8b12 96be
000002e0: 1ad3 c9bd 1e84 163d 7b76 cb3d f04e 1c3f
000002f0: 3da2 e03d d467 68be 1558 20be 034d 80bb
00000300: fd2f 253e c65f 7e3e 9fac 91be b27f 61be
00000310: cf41 cd3e f52d e13e 84e0 a5be 6c54 c2be
00000320: 1815 afbe f80f 4d3c bb5f afbe 0507 4b3e
00000330: 3125 163f f3e9 963e a59f 313e 52ba 4b3e
00000340: bbbc d73e 981e 64be 692a e03e f42c a13d
00000350: d82f 47bf 7a0e 3dbe b498 18be 9b49 a03e
00000360: d024 323e b0b1 b0be e815 9cbe 5065 503e
00000370: 22ba 0b3e 1e02 023f 7948 8abe 8dca 843e
00000380: 21ca 1cbe 27da 47bd f044 cfbe a154 c7bc
00000390: 24af 353f 028d 5b3f 5efc b2be ee05 33be
000003a0: ede6 2f3c 0a98 9b3d 1433 bbbe 7606 39be
000003b0: eb69 a53d 60d7 013f 9f3f ecbc 3510 8d3e
000003c0: fec8 f6bb 6505 543d bb4e 2abe 1142 023f
000003d0: 9a94 503e c187 e83e cb40 253d dcc3 f53d
000003e0: 7b90 683e 189e 99be 8420 0cbe dcba 1fbf
000003f0: 5e2e 033d 0fe9 eb3d 16d0 5e3e a752 4abe
0.20905551 -0.2334313 0.269658 0.5049173 0.019601274 -0.32804036 -0.21262331 0.21179791
-0.17810664 0.2042039 0.10708271 0.015173569 -0.5130882 -0.20627832 0.032277666 0.029355813
0.18144391 0.00974495 -0.3538284 0.6387968 0.33308318 0.0806979 -0.49007747 0.13158777
0.49384552 -0.07132667 0.113360554 0.29079998 -0.52120286 -0.13168323 -0.25416055 -0.27109522
-0.5037357 -0.08301495 0.12304688 0.3308238 0.48295102 -0.21336664 -0.112589955 0.18917932
-0.14853458 -0.08029868 -0.4334453 0.19147936 0.6709225 0.6987112 0.22327456 0.015501345
0.39072648 -0.10309426 0.37901074 0.14031556 -0.5199882 -0.54313064 0.2798385 0.2906871
0.28864038 -0.056974664 -0.21966526 0.5749158 -0.07204724 0.0007239878 -0.101175345 -0.011967585
-0.34843203 0.2969028 -0.017223837 0.38397104 0.3385775 -0.14339662 0.17435563 -0.15809572
-0.33577102 0.17189991 0.057411067 0.61849105 0.49118423 0.6326886 -0.24109887 0.016807264
-0.29731908 0.057872806 -0.15986207 0.3703037 0.5413636 -0.04738811 -0.40184337 -0.24544577
0.20482385 -0.13158073 -0.034318946 -0.117895894 -0.26222727 -0.11298985 -0.1700843 -0.0025037439
-0.0048030512 -0.039622422 0.34515658 0.59767354 -0.32559714 -0.43482143 -0.4301077 -0.33892474
-0.060574878 -0.027571572 -0.13469897 -0.09994431 0.30237648 0.19024168 -0.24454685 0.14025791
-0.23055422 0.04758726 0.21295406 0.46751943 -0.46764898 -0.15553853 0.19769609 0.055562947
0.15168466 -0.13936631 0.16092145 -0.55466807 -0.23823191 0.2418775 0.19255272 0.09450371
-0.21663284 -0.0216925 -0.30982488 -0.6403743 0.19771075 0.13472092 -0.21764717 0.33777443
0.5478228 -0.23298602 0.32507873 -0.42354536 -0.599983 0.024403969 0.1439312 0.080788076
0.040046256 0.27644125 0.029915601 -0.4946745 -0.009753695 -0.19573645 -0.28055313 0.116510406
0.22718175 0.028274674 0.11021503 -0.538293 -0.34189036 -0.45646572 0.092911385 0.3122323
-0.24421147 0.02488551 -0.121094696 0.353843 0.7184851 0.426174 -0.05386114 -0.07152082
0.1159135 0.20811078 -0.27257216 0.6818699 0.3821677 0.14681605 -0.59642494 -0.41707128
-0.023429984 -0.2857289 0.05941025 -0.1441745 -0.59869605 -0.6046574 0.03945552 -0.29311022
-0.098547176 0.03674709 0.09934708 0.6105795 0.109684445 -0.22695857 -0.156586 -0.0039154305
0.16131587 0.24841222 -0.28452012 -0.22021368 0.4008927 0.43980375 -0.32397854 -0.37955034
-0.3419578 0.012516014 -0.34252724 0.19826896 0.586505 0.29475364 0.17346056 0.19895294
0.42136177 -0.22277296 0.43782356 0.07869902 -0.7780738 -0.18462554 -0.14902002 0.31306157
0.17396855 -0.34510565 -0.30485463 0.20351148 0.13645223 0.5078448 -0.27008417 0.25935784
-0.15311481 -0.04879203 -0.40482283 -0.024332346 0.7097037 0.85762036 -0.34958166 -0.17482731
0.010736209 0.075973585 -0.36562407 -0.18068871 0.08076843 0.5071926 -0.02883893 0.27551427
-0.0075312844 0.051762957 -0.16631596 0.5088206 0.20369187 0.45416072 0.040344995 0.12000248
0.22711365 -0.30003428 -0.13684279 -0.623945 0.03202664 0.11519062 0.21759066 -0.19758092

action_layer.0.bias f4 [64]
00000000: 24a6 813e 25e5 95bd 069b 713e e6df 8bbd
00000010: ecca 523c b63e f8bc b215 983d f4f8 dfbb
00000020: 8029 2bbe 5e23 823d 347e ec3b 7084 cf3d
00000030: b0e3 5e3e 1593 8bbc 1681 aebc 78a4 32bd
00000040: 0d7c 16be 8345 a1bb cda5 88be adde 413d
00000050: a0db 413e 19a7 0a3e 77b5 803e 17e7 b33d
00000060: 94ec f0bd 8c4b 04be 2aa8 0a3d 2110 943e
00000070: 233a 433d bf2f 5cbc a931 8fbc f322 ec3d
00000080: 9ac6 333e f0a4 aebe cf3e a4be 87c4 34be
00000090: ded9 46bd bf12 7abe 38f3 d03d 202d 90bd
000000a0: e179 a03e af78 40bd a0cb 6ebd eacc 493e
000000b0: 2dbb 2ebe 4f2e 21be 5637 54bd 94d0 a73d
000000c0: b2d2 28be 06a6 55be 3cbf 82be 4f54 58be
000000d0: c880 bb3d e135 2ebe c0ee 5a3c 438f 67bd
000000e0: e847 4e3e d12b 21bc 2229 9d3d 2742 b4bd
000000f0: c006 963d 6234 1c3d 0bce f1bd 0f9f 1f3d
0.25322068 -0.073190965 0.23594293 -0.068298146 0.012865763 -0.03030334 0.07426013 -0.0068350974
-0.1671505 0.06354402 0.007217193 0.10132682 0.21766543 -0.017037908 -0.021301787 -0.04361388
-0.14695759 -0.0049216165 -0.26688996 0.0473315 0.18931437 0.13540305 0.25138447 0.08784311
-0.11763874 -0.12919444 0.03385178 0.28918555 0.047662865 -0.013439118 -0.017479734 0.115301035
0.17556229 -0.34110212 -0.3207917 -0.17653094 -0.048547618 -0.24421214 0.1020264 -0.07039857
0.31342986 -0.046990093 -0.05829966 0.19707075 -0.1706359 -0.15740322 -0.051810585 0.0819408
-0.16486624 -0.20864114 -0.25536525 -0.21125911 0.091554224 -0.1701274 0.0133625865 -0.05653311
0.20144618 -0.009837107 0.07673861 -0.0880168 0.07325506 0.038135894 -0.11806878 0.03897005

action_layer.2.weight f4 [64, 64]
00000000: 844c d5be cac5 083d a6ec 7fbe 9865 90bb
00000010: 8e24 77be 5434 893e d62f 12bf c57a 52be
00000020: e692 cebb 0fae 123e 6294 48bd af82 f6bd
00000030: c54c f4be 4b48 6e3d b815 73be b890 433e
00000040: 7c2d a53e 2afc 0bbd ceff 933e 7863 82bd
00000050: dd72 f83d 856e 70bd e3bb 98bd 31e3 0cbf
00000060: 1e2c 053f 8417 593d 8cb7 acbe c184 55be
00000070: 8d9d 103f a8f6 ef3d a0c0 553d c8da 373e
00000080: 53b7 88bc af28 be3e 7c69 2c3c 2c4e 633e
00000090: 52a4 213d fbe0 08be f35a 92bc de10 86bd
000000a0: 7f6a 26bf 6518 b7be cbf6 123f 71b2 9dbe
000000b0: 7c1e af3e 2e75 3a3e a7ea 65be 0e04 27bd
000000c0: cf91 433e c616 003f 557d 1b3e a660 7f3e
000000d0: b8f5 abbd c18b 8d3d 91d7 803e 8b49 4a3e
000000e0: f094 cf3d 4a98 d3bd 0aeb a4bd 4602 c93d
000000f0: bdf1 923e 1974 02bd 9f4f e73c 2a98 d9bd
00000100: 343c 2bbe 9789 97bc 041f aabe 7a07 18be
00000110: dcd4 a3bd b3b4 713c c561 39bc 2ce0 febc
00000120: dfe6 05be 4229 d9be cc91 53be 4292 0b3c
00000130: e069 e0be 1be9 17be 0602 e4bd 7240 a73e
00000140: 2d98 8b3e 24fa 643e 723f 3a3e c982 373e
00000150: 9d90 02be 910a 83be 8ab9 d93d fd36 c4be
00000160: ff8f 49be dd40 003e f998 54bd 76b5 a8bc
00000170: de54 d7bd d0ac 5fbd dfab 37be 5d7b 6b3e
00000180: c88e 0bbe 503b b33e e95f 8a3e caff 2c3e
00000190: 06d0 86bd e6d3 8f3e 282f 5c3c 1b0b 1bbe
000001a0: f827 46be 0e3a 74be 330f 333e 7f0b a7bc
000001b0: 3a02 1e3e 8c08 473e f5b2 523d 9079 89bd
000001c0: c830 033e 6227 2cbd e08a 17be 83bd 48be
000001d0: aeda 873d 2ec2 fabc 6d81 333d df8d 81be
000001e0: 8186 a83d 9f01 cd3c e855 9dbd 6bc7 96bc
000001f0: 00d6 78bd 1cd3 d13d 987c e7bd 1034 733d
00000200: dc70 c63d 07e7 d83d 5c8f 4fbd 00b0 a2bc
00000210: 37de 253e c20b b1bd 60e9 c33e 1510 453d
00000220: 00cb f838 a89f 7abe a0fd acbd 4d96 a6bd
00000230: bd76 e03d 087b ffbd ac1d bc3d de66 efbc
00000240: 7c29 1fbe 4d97 99bd 2498 33be 7095 db3a
00000250: ef83 a93c fb98 17be b76b 4e3e fd71 173e
00000260: e47b 02be 6d18 903d f35a 3c3e 11d2 a03d
00000270: b627 ebbe 8718 353d f54e 153e cb42 d2bd
00000280: f137 1ebc 69e3 57be 02f3 5fbd 6457 9bbe
00000290: b1d4 ffbd bc8f ffbc 4667 92bd ae70 1dbd
000002a0: e581 ea3e 3c9b 913e c8ce d6be f4e4 4d3e
000002b0: 5dc5 68be eae4 7abd ca5c 233e 42f3 773d
000002c0: 15a8 76bc 8c11 3cbe 76ab b2bd f15b 2cbe
000002d0: 84cf febb a377 383d b039 2ebe d2a8 e8bd
000002e0: 8296 81bb ea61 2bbd debe 063e b97e b6bd
000002f0: 6def 0cbe a771 c33d 2a06 b03d 3d18 f73d
00000300: 01ec 97be ffbf 453e 7192 89be 256e 353e
00000310: 03a7 30be 08e7 b2be c799 373d b28d 07be
00000320: 8dec 9bbc 450c d8be 3e94 eabd e414 7d3d
00000330: 96ad 763e 091a 03be ef4e b03b 0e04 983d
00000340: e100 8b3c 1a84 ceba 9dec e03e 0f61 543d
00000350: dbcc 59be c144 13be 97d8 253e 7476 4fbe
00000360: 7f9b 013e ede8 b5be c670 203e 5b14 debe
00000370: cc62 e8be 0845 93bd 7064 89be dc15 413a
00000380: 6808 0cbd ad1c 933e 93ec 383f 6085 d23e
00000390: 4f1c 27bd ae92 9a3e 896c 1fbf e448 2e3d
000003a0: 9614 50be 0a35 8d3e 9c0c 4f3e 724e 55bd
000003b0: b877 57be bf5b f83d 0984 753e 25f1 b73d
000003c0: 2f21 a63e 278a 733e d800 c43e 135e d8bd
000003d0: 2163 dbbc 24b6 013e 3948 953e 77f7 18bf
000003e0: f2c7 123e ca53 073e 27c4 653e f05d ac3e
000003f0: 48dc 043d 253a 10bd c981 bf3b 515b 593b
-0.4165994 0.03339175 -0.24992618 -0.004406642 -0.24135038 0.26797736 -0.5710424 -0.20554645
-0.0063041328 0.1432421 -0.048969634 -0.12036645 -0.4771482 0.058174413 -0.23738754 0.19098175
0.32261264 -0.03417603 0.289061 -0.063666284 0.121312834 -0.05869915 -0.074577115 -0.55034167
0.5202044 0.053000942 -0.33733785 -0.20851423 0.56490403 0.11716968 0.052185655 0.17954552
-0.016688978 0.37140414 0.010523196 0.22197789 0.03946335 -0.13367073 -0.017865634 -0.06546186
-0.6500625 -0.357608 0.57407826 -0.30800202 0.34202945 0.18208763 -0.22452794 -0.04077535
0.1909859 0.5003475 0.15184529 0.24939212 -0.083964765 0.069114216 0.25164464 0.19754617
0.101358294 -0.10331781 -0.08052643 0.09814887 0.28700057 -0.031849 0.028236208 -0.10624726
-0.16722184 -0.018498225 -0.33226788 -0.14846602 -0.07999584 0.014752555 -0.011314814 -0.031112753
-0.13076352 -0.4241429 -0.20661086 0.008518757 -0.43830776 -0.14835016 -0.111331984 0.32666355
0.27264538 0.22361046 0.18188265 0.17920984 -0.12750478 -0.25594 0.10631092 -0.38323203
-0.19683836 0.12524743 -0.0519037 -0.02059434 -0.10514234 -0.054608166 -0.17936657 0.22996278
-0.13628685 0.3500619 0.270263 0.16894451 -0.06582646 0.28091353 0.013438977 -0.15140955
-0.19351184 -0.23850271 0.17486267 -0.020391224 0.15430537 0.19436854 0.051440198 -0.06712639
0.12811577 -0.042029746 -0.1479907 -0.19603543 0.06633507 -0.03061017 0.043824602 -0.25303552
0.082287796 0.025025187 -0.07682401 -0.018405637 -0.06075096 0.10245344 -0.11303061 0.059375823
0.09689495 0.1059094 -0.050673828 -0.019859314 0.1619805 -0.08644821 0.38263988 0.04811104
0.00011863373 -0.24474967 -0.08446813 -0.08134136 0.109601475 -0.12474638 0.09185347 -0.029223856
-0.15543169 -0.074995615 -0.17538506 0.001675291 0.020692794 -0.14804451 0.20158277 0.14789577
-0.12742573 0.07035909 0.1839407 0.07852567 -0.45928735 0.044212844 0.14580901 -0.10266646
-0.009656892 -0.21082844 -0.05467511 -0.3034011 -0.124917395 -0.031196468 -0.07148604 -0.038437538
0.45802227 0.28438747 -0.41954637 0.2010687 -0.22731538 -0.061253466 0.15953365 0.060534723
-0.015054722 -0.18366069 -0.0872411 -0.16831948 -0.0077762026 0.04503597 -0.17014194 -0.11360325
-0.0039547095 -0.041841425 0.13158748 -0.08910889 -0.13763209 0.09543162 0.08594926 0.1206517
-0.29672244 0.19311522 -0.26869538 0.17717798 -0.1725121 -0.34941888 0.044824388 -0.13237646
-0.019033695 -0.4219686 -0.11454056 0.0617875 0.24089655 -0.128029 0.0053805034 0.07422648
0.016968193 -0.0015755922 0.43930522 0.051850375 -0.21269552 -0.14381696 0.16195904 -0.2026003
0.12656973 -0.3552927 0.1566802 -0.43374905 -0.45387876 -0.07190901 -0.2683444 0.0007365623
-0.034187704 0.28732815 0.72235984 0.41117382 -0.04079848 0.30190033 -0.62274987 0.042549983
-0.20320353 0.27579528 0.20219654 -0.052076764 -0.21041763 0.12126874 0.23976149 0.089815415
0.32447192 0.2378317 0.38281894 -0.10564818 -0.026780667 0.12667137 0.29156664 -0.597526
0.14334086 0.13215557 0.22438107 0.3366542 0.03243664 -0.0352117 0.005844329 0.0033166

action_layer.2.bias f4 [64]
00000000: d1c3 b0bd e26c 5b3d 1593 90bd 3a3f fa3c
00000010: ab0f cb3b 32f7 a0bd ab28 06bd db2b 003e
00000020: 805e 1b3d c701 a2bd afa8 243d 04cb 863d
00000030: 35ef eb3d df20 81bd efb7 94bd def7 853d
00000040: 1064 d73c ba7e 333d ccde b0bd c4e1 923c
00000050: cf8e 633d 9560 cfbd e24a 453d 0454 763d
00000060: 5c79 a73d 3f07 d1bc 732a d4bd 712f 08be
00000070: 66bc 13bd 5545 9bbd edf3 67bd a062 b4bc
00000080: be4d b8bd 5cfe e5bd cd6c a8bd 3293 ce3d
00000090: b6ab ce3c 3ff3 7abd d3cf 37bd ff5d d23c
000000a0: f644 a3bd f704 c23d 09d5 a63d ec33 bb3c
000000b0: 3cc4 903d 864f cabd 6a94 19bd e4bb a13d
000000c0: 26a1 0dbe 7d1e 3fbd 3c1f 373d 6cfd 163e
000000d0: 2f86 29bd aee9 e83d ebc5 01be b057 debd
000000e0: 619a eabb 5dd5 413d fa49 e2bd 19e8 283d
000000f0: 96d3 d2bc f7c3 4e3d b5c5 103d 9dbb 6bbd
-0.08631099 0.053570636 -0.07059304 0.030547727 0.006196936 -0.07859649 -0.032753628 0.1251673
0.03793192 -0.07910495 0.04019993 0.06581691 0.115202345 -0.06305098 -0.07261645 0.065414175
0.02629283 0.043822028 -0.08636245 0.017929919 0.055556115 -0.101258434 0.048167117 0.060138717
0.08177444 -0.02551615 -0.10359659 -0.13299347 -0.036068343 -0.075815834 -0.05662911 -0.022019684
-0.08999203 -0.11230156 -0.08223877 0.10086669 0.025228363 -0.061267134 -0.04487593 0.025679586
-0.07972138 0.09473603 0.08146102 0.022851907 0.07068679 -0.09878449 -0.037495054 0.078971654
-0.13831005 -0.046659935 0.04470752 0.1474511 -0.041387733 0.11372696 -0.12673156 -0.10856569
-0.0071595167 0.04732262 -0.11049266 0.04123697 -0.025735658 0.050479855 0.035344798 -0.05755197

action_layer.4.weight f4 [4, 64]
00000000: 78f2 603d ef95 58be 42bd a53c b2d1 7abe
00000010: c698 a8bd c97c 323e d2fc 6e3d 2af1 ecbd
00000020: eb5e 30be b4dc 04be f4f7 64bd 53ad 32be
00000030: 522c 14be af3c 9c3d ee0e 0a3e bf67 7ebe
00000040: a8f1 50be 8737 6f3d 6bdb 91bd f44c 8bbd
00000050: 6d27 d6bd 2e60 df3d e51f d63d 90f0 843e
00000060: 4d64 163e c469 f63d f3d3 6cbe cfd1 813c
00000070: 50c1 5c3d 7f66 b7be 6eb8 c43d f9f3 46bc
00000080: ed06 6c3d 602d aebe 8b59 8ebe 3ac6 d0bd
00000090: 02a6 f0bc 8676 683c f544 3c3e 6560 e8bd
000000a0: 0371 2f3e 91fb 89bd d6d6 e83d 9323 c6bc
000000b0: c786 d8bd c36d 683d 8cea 7f3d 1eaa 18bc
000000c0: 9ece 353e 05e9 51bd 9fd7 85be cde0 033d
000000d0: dcfc 253e d096 3c3d 6080 873d 0007 27bc
000000e0: d27d c3bc 1fc8 a5bc 2752 2ebd 6eaf 05be
000000f0: 157f 3e3e a814 bbbc bca8 2fbe e4ee 06be
00000100: 1a0d 90be e1d8 57bd 672a 5b3e 3b92 403e
00000110: edb5 343e e608 563d 166a 913d b4e2 3c3d
00000120: 3062 14be 5560 0dbd 82fc 9a3d 3fb0 f3bc
00000130: 9e13 863d ad3a 023c 9d49 7abe 097b 943d
00000140: e178 533e 1149 1a3d 3954 7a3d 98be 573e
00000150: 60aa b83e 0b6a 2dbd c10f bcbc 2ea3 1b3d
00000160: 23a8 983e c8d0 503c b6ae 213d 0a4f e83d
00000170: 16e1 373d 9e20 733d 832e 92bd c232 2a3e
00000180: 11ec 60be 3019 45be 798a 26be 64d9 fdbc
00000190: 2d0b c13e 05c2 d8bc a483 2bbd d6ab 803d
000001a0: eb00 893d 5dec 81bd 3aeb 0f3d a2e0 3b3e
000001b0: 520c 0abd e191 bbbd 55b0 db3c 967f 3ebd
000001c0: 22a3 743d 865e 033e a578 623e 15f8 c93d
000001d0: 169e 0f3e 3453 27bd 4c46 563c c34c c4be
000001e0: 1c68 81bd 0cde 2d3d 86e5 d6be 1f5d a6bd
000001f0: 956d 933d 6049 e53d 4355 ac3d 3132 a43d
00000200: 492a a53e 0ce0 923e dc25 12be 0644 b83e
00000210: b765 013c 3364 8abe afb6 c0bd b570 963e
00000220: 8f7f 3c3e bc0c 0e3e a2d7 f3bd cb6d 863e
00000230: 9594 8cbe 98cc b43c 343b 92bb 0373 c7bd
00000240: 6fbd a53e bad0 6dbc d603 b4bd 552d 663e
00000250: f082 993e be4a 96be 8bb5 c43d e036 b7be
00000260: ea68 b5bd 82d1 7ebe 6f61 b83e 596c 95bc
00000270: fa1c 62be 4333 513e f0fd 283e 1638 72be
00000280: ab69 9f3c cf50 9d3e 70ec 2e3e f4c5 68bd
00000290: ef62 7ebe 2920 483e 5259 ea3d 54f0 dfbd
000002a0: 9a8f afbd c986 083e 348a c53d f8e7 efbd
000002b0: ceb9 dc3d a798 013e 0713 6cbe 233b 0f3d
000002c0: 1b03 09be 7aa3 8ebd 9784 303e 32dd f3bc
000002d0: 2e2d c8bd bd5a 013e 2976 28be c93a 9a3e
000002e0: 7c39 933e 9f5c ec3d 5d36 9c3e 4964 8c3e
000002f0: 7afd 94be 01a1 c43d 864e b0bd d099 a6bc
00000300: 3a88 033e 2dd1 8bbd e2dd 0cbe 7551 84be
00000310: 4f4f 0e3e 503c 023e e76a 0f3c 6cc3 00bd
00000320: ed5e 973c 9aed 1cbd 268c da3b 64be 65bd
00000330: 0cd6 3b3e 2314 963c 1530 28be 43a2 8b3d
00000340: ac9d 7ebe e9de f33d 2632 e1bc cf57 b1be
00000350: 00ca 65be 6b05 ae3d 5a53 7b3d f4e8 0b3e
00000360: 57fd 2bbe 3567 5abc 0f9a febd 9969 f6bc
00000370: 9f28 03bd c7ef 3bbe 23ca bbbb f139 133d
00000380: 0a98 afbd 58ba df3b 9095 a8bd 87f7 29bd
00000390: 7cb4 bcbd 0a43 37be cea8 0e3c 001a e8bc
000003a0: fd13 4d3d 4202 a93d d61f 9c3d 3f66 11be
000003b0: 457f 30bd 5379 1abe d76d fd3d c0de afbc
000003c0: 286f 153d a57f b23c adf0 9bbe 743a 6d3d
000003d0: c383 943d 4e94 893d ff4e 6cbc 9dd3 103d
000003e0: cf6f fabd d6d0 053d 78d5 dd3d 006e 49bd
000003f0: fa35 dd3c d2c2 d93d e459 93bc b0c4 593b
0.054918736 -0.21150945 0.020231847 -0.24494055 -0.08232264 0.17430414 0.058346577 -0.11569436
-0.17223708 -0.12974817 -0.05590053 -0.1744893 -0.14470032 0.07628762 0.13482258 -0.24844263
-0.20404685 0.058402564 -0.07121929 -0.06801787 -0.104567386 0.10907017 0.10455302 0.25964785
0.14686699 0.12031892 -0.23127727 0.015847115 0.053895295 -0.35820386 0.0960549 -0.012143129
0.057623792 -0.34018993 -0.2780269 -0.10194059 -0.029376034 0.014188414 0.1838568 -0.11346511
0.17132954 -0.067374356 0.11369102 -0.024186885 -0.10572582 0.056745302 0.06247954 -0.009317903
0.177546 -0.051247615 -0.26141068 0.03219681 0.1620974 0.046042264 0.066162825 -0.01019454
-0.023863707 -0.020237027 -0.042558815 -0.13055202 0.18603165 -0.022836998 -0.17154211 -0.13177067
-0.28134996 -0.052697066 0.21402894 0.18805782 0.17647524 0.05225458 0.071003124 0.04611464
-0.1449058 -0.034515698 0.07567693 -0.029747127 0.065467104 0.00794856 -0.24442144 0.072500296
0.2065158 0.037667338 0.061115477 0.210688 0.36067486 -0.04233746 -0.02295673 0.037997417
0.29815778 0.01274509 0.039473258 0.113432005 0.044892393 0.059357278 -0.07137778 0.16620925
-0.21965052 -0.1924789 -0.1626376 -0.030987449 0.3770384 -0.026459703 -0.04187359 0.06282775
0.06689628 -0.06343911 0.03513644 0.1834741 -0.033703156 -0.091586836 0.02681748 -0.046508394
0.059725888 0.12829027 0.22116335 0.09861771 0.14025149 -0.040850833 0.0130782835 -0.38339815
-0.063186854 0.04244809 -0.41971987 -0.0812323 0.071986355 0.11195636 0.084147 0.08017386
0.32258824 0.2868656 -0.14272255 0.35989398 0.007897786 -0.2702957 -0.09409844 0.29382864
0.18408035 0.13872045 -0.11906363 0.2625564 -0.2745711 0.022070214 -0.004462624 -0.097387336
0.3237109 -0.014515096 -0.08789794 0.2247823 0.2998271 -0.293539 0.09604939 -0.35784054
-0.088579014 -0.24884608 0.36011836 -0.01824014 -0.22081366 0.20429711 0.1650312 -0.23654208
0.019459566 0.30725715 0.17082381 -0.056829408 -0.24842428 0.19543518 0.11442818 -0.10934511
-0.08572312 0.13332666 0.09645501 -0.117141664 0.10777627 0.12655888 -0.23054133 0.034968507
-0.13380091 -0.069647744 0.17238079 -0.02976856 -0.09774242 0.1263227 -0.16451325 0.30122975
0.28754795 0.115411036 0.30510226 0.27420262 -0.29099637 0.096010216 -0.08608727 -0.020337015
0.12844935 -0.068270065 -0.13756517 -0.25843397 0.13897441 0.1271832 0.008753515 -0.03143637
0.018477881 -0.038312532 0.006669539 -0.056089774 0.18343371 0.018320149 -0.16424592 0.06818058
-0.24864835 0.11907751 -0.027489733 -0.34637305 -0.22440338 0.08497127 0.061358787 0.13663083
-0.1679586 -0.013330271 -0.12431728 -0.03007965 -0.03202116 -0.18353187 -0.0057308837 0.03594393
-0.08573921 0.006827634 -0.08231652 -0.041495826 -0.09214112 -0.17896667 0.008707238 -0.02833271
0.05006789 0.08252384 0.0762326 -0.1419916 -0.043090124 -0.15085344 0.12374466 -0.02146852
0.03648296 0.021789381 -0.3045706 0.057917073 0.07251694 0.0671774 -0.014423131 0.03535806
-0.12228357 0.032669865 0.108317316 -0.04917717 0.027003277 0.10632862 -0.0179872 0.0033228807

action_layer.4.bias f4 [4]
00000000: d7d2 b0bd 7dc4 cc3d a95b 013e 64c4 9fbd
-0.086339645 0.09998415 0.12632622 -0.078011304

value_layer.0.weight f4 [64, 8]
00000000: c648 813e 1a12 04be 311c 9dbe 408b 5a3d
00000010: ebaf cbbc 1827 593e 16b7 73bc ea0e be3d
00000020: b5ff 73be 23c1 5cbd d2e4 aabe 20c2 883e
00000030: 1353 083e b668 92bd 19cc c33e 84c6 f93e
00000040: c274 29be 1daf 9f3e 9254 493e f8ae 8dbe
00000050: 5d68 0c3d 8b30 6bbd 87b8 4fbe 081a b73e
00000060: fc69 1d3d 9cf7 c83d 84d6 983e 4c4f 143d
00000070: 8846 433e ee8d 3bbe 5817 d7bc 46b5 e7bc
00000080: e75e 86be 6d6c d7bd e19f 1fbe fa3c a2be
00000090: 7876 963c cf6d 623e 15ec 233e 64d8 bf3d
000000a0: 8266 463e 72d0 93be 3070 b13e e3ee 35be
000000b0: be0c a5be 8e5d 8f3e 88d9 8d3e 4b81 993e
000000c0: d604 9fbe 98a2 ba3c f204 d43d 51e7 5e3e
000000d0: bfb4 eb3b 5782 9fbc fbf5 a2bd 9049 233e
000000e0: 7129 9abe 959b 803e 1b9c 82be da99 d93d
000000f0: a499 823d 56a5 68be 7225 f83d 08f3 793e
00000100: d7b5 eb3c eb91 dcbd 7eef 2cbe c350 4a3c
00000110: 42d1 4e3e d82d 413e 21af 7f3e a2b7 e0bd
00000120: dba1 793e e4f2 8b3d cd74 c3bc a684 d7bb
00000130: 99a2 e93d 3681 a3be 43d1 853d f801 b93e
00000140: d26e 073e f8db 4e3e 08a9 abbe 2f72 303e
00000150: d059 63be 3414 033e e632 cabd cffe b83b
00000160: a56c 833e 2400 843e 8d82 9fbe d13f 11be
00000170: 0bfe 32be 70e4 83be b0e7 a63e 4a17 3ebe
00000180: 3979 96be 9c8a 84be 6959 fb3d 1637 d33d
00000190: 2be0 403e 71fe 1fbc 2111 5a3e ca69 b33e
000001a0: cade 97bd 67f1 98bd 5300 9d3e fa75 a53d
000001b0: fc69 fe3b 6a01 99bd ecd5 293e a450 2b3e
000001c0: fd21 1a3e aea4 82bd 0534 533e 98f3 fcbc
000001d0: 6a2c 323c c5c3 b5bd 94a0 7dbc e22f f63d
000001e0: 817d fdbd c435 06be 2604 89be 76c1 11be
000001f0: 456d 4fbe b934 20be 33b7 f33d d3a2 80be
00000200: 3ac3 503e 92ba 6e3d 74ac adbd 84c3 b23e
00000210: 9d2f fd3d 3f50 93bd 1346 7f3e 461c 6f3e
00000220: 345a 7e3e c346 133e 3992 fe3d dde7 91be
00000230: f9a1 4f3e b800 843e d733 91be 00be 833d
00000240: 1934 c2bd 45f4 093e 2732 0fbe 19e2 25bd
00000250: 064a 00be fb54 103c f871 f0bc 41c5 723e
00000260: f917 41be 645c df3c 385f 213e ca68 803d
00000270: df1e a6be afe6 2ebe 1f86 143e b9c0 afbd
00000280: d48a 0dbe 48a2 a23e 3332 13be b3bd a5bd
00000290: ce5f 1e3e 5252 f3bc f9d9 91be 2362 ac3e
000002a0: 607e 9a3e fc8f 52bc 9fe0 5e3e 9cc7 54bd
000002b0: 37be 93be 3b3e dd3d 875a 593e 4d1a 6fbe
000002c0: bdec 043d e85c 8cbe b98f e8bc 60f5 d53c
000002d0: 1eaa 513e db58 04be 3410 b23e 3ec8 783d
000002e0: 49b5 273d 3230 91be e3ee 6d3e c3d5 8abd
000002f0: 96af 8cbe 852a a5be 2fbf 5b3e 587d 04be
00000300: cb16 0bbc aa33 823e 59a3 04bd f302 9abe
00000310: 98cf 2dbe 4e64 47be 2ede bf3c 118a 263e
00000320: 29ef 433e 8795 39be 6b96 4a3e e683 5c3e
00000330: 9404 40be 1fb1 093e 5d89 f6bd ca55 c3be
00000340: 2589 773e 1cff 193e 0e7e bebd da8f 7abd
00000350: d738 8d3e ded5 10be 5b17 1bbd 1895 8a3e
00000360: 075b c5bd f36b 89be de46 6c3e ad73 9f3e
00000370: d40d a03e 8f08 98be 9970 86be ca4e 9a3e
00000380: abf3 a7bd 48ee a73e 294d 3f3e 2e3f a03e
00000390: 82f7 6d3e 0909 eabd cc02 773e e896 c4bd
000003a0: 1fd6 7d3e 471a 72bd c526 4abe 1612 a9be
000003b0: b129 873d b0dc 28be c8a6 c3bd ebb0 4a3e
000003c0: efea 69bd e02b fb3d 716a 873d b235 b0bd
000003d0: eb5d 7a3e 2a08 6a3e 748e 98bc e8bd 0ebb
000003e0: b3ef a33e 6fe9 24be 9b30 fdbd aded 933c
000003f0: cacf 7b3e 6280 09be 4fbb a1be 3d89 fbbd
0.25250834 -0.1289753 -0.3068557 0.053355455 -0.024864158 0.2120632 -0.014875194 0.092801884
-0.23828013 -0.053895127 -0.333777 0.26710606 0.1331294 -0.07148878 0.38241652 0.48784268
-0.16548446 0.31188288 0.19661167 -0.27672553 0.034279216 -0.05741934 -0.20285235 0.35762048
0.038431153 0.09812853 0.29851162 0.036208436 0.19069874 -0.1831586 -0.026256248 -0.02828468
-0.2624428 -0.105187275 -0.15588333 -0.31687146 0.018367037 0.22112201 0.16008027 0.09367445
0.19375041 -0.2886997 0.34655905 -0.1776691 -0.32236284 0.28001064 0.27705026 0.29981455
-0.31058377 0.022782609 0.10352506 0.21767928 0.0071931775 -0.01947133 -0.07957073 0.1594603
-0.30109742 0.251187 -0.25509724 0.10625048 0.06376961 -0.2271932 0.12116517 0.24409115
0.028773231 -0.10770019 -0.16888234 0.012348357 0.20197013 0.18865144 0.2496915 -0.10972525
0.24378149 0.06833437 -0.023859406 -0.006577092 0.11407966 -0.31934518 0.06534054 0.36134315
0.13225868 0.20201099 -0.33527398 0.17231058 -0.2220223 0.12800676 -0.09872989 0.00564561
0.25668827 0.25781357 -0.3115429 -0.141845 -0.17479722 -0.2576022 0.3259864 -0.18563572
-0.2938936 -0.25887 0.12272913 0.10313241 0.18835513 -0.009765253 0.21295597 0.35041648
-0.074155405 -0.07467919 0.3066431 0.08079143 0.007764099 -0.07470973 0.16585511 0.1672998
0.15052028 -0.063790664 0.20625313 -0.030877873 0.010874847 -0.08875231 -0.015480179 0.12020852
-0.123774536 -0.13106447 -0.26760978 -0.14233956 -0.20256527 -0.15645112 0.11900177 -0.25124225
0.20386973 0.058283396 -0.084801584 0.34914792 0.12362597 -0.0719304 0.24929075 0.23350629
0.24839097 0.14382462 0.124302335 -0.2849721 0.20276631 0.25781798 -0.28359863 0.06432724
-0.09482593 0.13472088 -0.13983975 -0.040498827 -0.12528238 0.008809323 -0.02935122 0.23708059
-0.18856801 0.027265735 0.1575898 0.06269987 -0.32445428 -0.17080186 0.14504288 -0.08581681
-0.1382249 0.31764436 -0.14374618 -0.08092823 0.15466234 -0.02970234 -0.28486612 0.33668622
0.3017454 -0.012851711 0.21765374 -0.051948175 -0.2885606 0.10802885 0.2122594 -0.23349877
0.032452334 -0.27414632 -0.028388845 0.02611798 0.20475051 -0.1292452 0.34777987 0.06073784
0.04094437 -0.28357083 0.2323566 -0.06779053 -0.2747771 -0.32259002 0.2145965 -0.1293844
-0.008489321 0.25430042 -0.032382343 -0.30080375 -0.16973722 -0.19471857 0.023421373 0.16263606
0.19134201 -0.18123446 0.19783942 0.2153469 -0.18751746 0.13446473 -0.12037919 -0.3815139
0.2417341 0.15038723 -0.09301387 -0.061172344 0.27582428 -0.14144084 -0.03786407 0.27066875
-0.09636503 -0.2684017 0.23073909 0.3114294 0.3126055 -0.2969403 -0.2625778 0.30138236
-0.08200773 0.32798982 0.18681778 0.31298202 0.23238948 -0.114275046 0.2412216 -0.095990956
0.24788712 -0.05910709 -0.19741352 -0.3302161 0.06599749 -0.16490436 -0.095532954 0.19794051
-0.057108816 0.12264228 0.06612099 -0.086039916 0.2444989 0.22854677 -0.018622614 -0.0021780673
0.32018813 -0.16104673 -0.123627864 0.018057669 0.24590984 -0.1342788 -0.31588218 -0.122820355

value_layer.0.bias f4 [64]
00000000: 5f7b 56bc 932b 7dbe 61e6 9fbe c7e4 90be
00000010: daa8 993e 352c 52be b252 3bbe 4a60 85bd
00000020: 5e99 89be 38bc f1bd d408 d3bd f8b1 4cbe
00000030: 8080 7abe 370b f23c 9601 a23e 4705 5b3e
00000040: f2c1 9c3e afe1 923c 7042 f0bd 620b 463e
00000050: af94 0ebe 1421 71bd 989d 9dbd 5e40 903e
00000060: 65d9 8fbe 09e2 8b3e 1372 47bd 6dc2 df3d
00000070: e2f1 c2bd a84a c7bd 8bdf 653e a05e 543e
00000080: 6689 ffbd 9145 903e f84c b53d e753 b63d
00000090: 1e2c 3fbd 8262 603e 2c18 70be 6b4f 093d
000000a0: 5095 18bd 9a7d 5b3d 33ba c3bd 8490 b53d
000000b0: 7826 7f3e fa30 b0be 1a51 483e 3120 2f3e
000000c0: d192 c53d 3693 93bd 54a1 8bbe e1f5 a03e
000000d0: 5ad4 5cbe a684 9cbd a668 4fbd 129d 8fbe
000000e0: 3e09 97be 3cd3 223b 7f8b 933e 3d67 32bd
000000f0: 06b4 463e 06dd a23e bb3c 8ebd 797b 18be
-0.013090937 -0.24723653 -0.31230453 -0.28299543 0.30011636 -0.20524676 -0.18293265 -0.06512506
-0.26874822 -0.11803478 -0.10304418 -0.19989765 -0.24463081 0.029546363 0.31641835 0.21388732
0.3061672 0.01792988 -0.11731422 0.1934028 -0.13923906 -0.058869436 -0.07696074 0.28174108
-0.28095546 0.2732089 -0.048692774 0.10925756 -0.09518792 -0.097310364 0.22448556 0.20739222
-0.124773785 0.28178075 0.08852571 0.08902722 -0.046672933 0.21912578 -0.23446721 0.033523005
-0.03725177 0.05358658 -0.09556999 0.08865455 0.24917018 -0.34412366 0.19562188 0.17102124
0.09647144 -0.07205813 -0.2727152 0.3143759 -0.2156538 -0.07642488 -0.05063691 -0.28049523
-0.2949924 0.0024845144 0.28817365 -0.043555487 0.19404611 0.31809253 -0.06945177 -0.14890851

value_layer.2.weight f4 [64, 64]
00000000: 0c34 9b3d c728 883d ff75 953d 4e48 503d
00000010: 7f91 1bbd 6629 ecbd 6cf2 a33d c200 903d
00000020: 2e2d db3d 528e eebc ccfa 62bd bdd7 f43c
00000030: 5c96 b3bd c8f5 173d 12dd 4fbc 8dcb e2bd
00000040: 26da f4bd 247c e9bd 30ec a3bd e5e9 a3bc
00000050: 0a6c 053d 7dac d6bd 453b 38bd d720 a0bd
00000060: 1af4 3ebd f012 ed3d a3fb 85bd 41c9 e8bd
00000070: d961 f1bc aaf4 a1bd 7585 0dbd 6700 fc3c
00000080: 41c8 d1bd 14f9 2a3d 2d1e 863d 1118 80bd
00000090: bfb1 813d a0a4 6abd 1205 a23d 1961 a93d
000000a0: 14d0 6bbd b3bc b53d 672b 543d 8099 d6bd
000000b0: 0dfb f93d de6c f6bd 45a5 893d e753 cc3d
000000c0: 8a03 aabc e4e4 c4bd df37 34bd 8b76 d2bc
000000d0: 4fad 3dbd edee 27bd b3dc c73d 944b f8bd
000000e0: 0012 b9bd bd7f 803d 5d2c 843d 4068 ce3d
000000f0: 9a30 a33d 0dd6 b4bb 755b 963d 91bf 913c
00000100: 8cfa 593d 123b 953c 1fdb b4bd 9a4c cabd
00000110: 42f9 023c a1cf bdbd a227 abbd 40ca af3d
00000120: 1df2 81bd f70e ccbc 2176 f8bd eaed 6dbd
00000130: f801 093d 0912 c9bd 5f3f f7bd 644e 913d
00000140: 3c0f 423a 99e2 8c3d 44b9 dabd 5466 8d3c
00000150: ab2a f63d 813e bcbd 08a7 01bc 014f 96bd
00000160: b3a4 fbbd d575 663d 4927 e6bd 88bf f6bd
00000170: 211b a2bd 6fa7 5bbd 76e2 ab3d 40f2 58bd
00000180: c771 93bd 7f72 c5bd 13cc 6d3b 34d3 d93d
00000190: 28df b6bd a74c b03d a722 823d c2a7 babd
000001a0: a871 1dbd 6a1f 24bd 8634 9d3d 3456 213c
000001b0: d584 8bbd f419 b3bd 4545 b33c 50ab de3d
000001c0: 33cd d2bd a005 09bb ec72 ac3d 6a33 32bd
000001d0: 2acb 8bbc 5fb3 663d f613 e1bd 87ef 62bc
000001e0: 406b ef3d 694d 8abd fb76 40bd 7a72 42bd
000001f0: 2aae 5a3d 3024 91bd f98c e8bd c563 453d
00000200: ce8a 9c3d 0cb9 f33d 177a b63c 2654 e03d
00000210: 0f35 d9bd b20a 3f3d 33d3 95bd d081 d6bd
00000220: 8bc8 4ebd 35c1 68bd b519 f4bd 51d9 56bb
00000230: 1004 2abd 4a68 d43d 843d 8cbb 049d 7b3d
00000240: a668 063e 10e8 d73d 0cf8 9ebd f659 67bc
00000250: 2047 3e3c a4a6 25bb 1890 c63c 3bb8 98bd
00000260: 3bd5 843c 21c5 a03c ab02 a53d f91c e2bd
00000270: 4c4d 9b3d 9c30 c93d 6e9c b6bd 87fb 973d
00000280: 1a77 e83d 3725 9d3c 4332 83bd 6885 a33d
00000290: 4f04 a33d 56ab 033d 4c04 823d 2923 00be
000002a0: 2419 70bc 13ce 053e 02e8 c1bd 22a5 c03d
000002b0: 7f18 63bd 16d8 ccbc 8c3f b33b ed03 99bd
000002c0: 3c65 aebd 8e9b d33c f474 b53d b293 0fbd
000002d0: 67e1 afbd 5b44 b33d a4d1 19bd 2b28 0a3d
000002e0: e7dd a6bd 5871 db3c ba39 613d 60d6 b0bd
000002f0: aa66 b4bd f52f 193d 3d62 803d c8f6 1d3d
00000300: 4b04 d33c 8f83 0b3d 7cd6 e2bd 949e a63d
00000310: 9de7 f2bd f791 abbc 879f 3e3d 6ae7 bdbd
00000320: 1d6d 76bb ed04 813c 4f2b 00be 8b98 b03c
00000330: 772b 81bd c248 a7bd 72b9 df3c f067 42bd
00000340: c1aa fb3d 6372 7a3d a2e8 ee3d 0ee1 9d3d
00000350: 3a7a 4c3d 2af5 c9bd 6ee2 7e3d 8c72 afbd
00000360: d166 e23d 1c73 81bd 6fb7 353d d4ce e6bd
00000370: ecdc c6bc c827 383c dd72 153d e7a2 5cbd
00000380: 94c7 403d ed87 c7bd 8623 b93d 6087 da3d
00000390: 2a0d c63d f156 dc3d 3357 e03d 50ba a03c
000003a0: 1365 433c 8c91 803d 1f59 78bd 1847 933c
000003b0: 585f d1bd 20f9 b93c 12d8 1b3c 6f20 24bc
000003c0: d638 e4bd abbf eb3c e7b9 acbd 93c3 703d
000003d0: 0587 23bd ec3f 3d3d 4377 403d 2e52 cf3d
000003e0: 3361 eb3d 0c88 bebd fc10 813d 0f30 d23d
000003f0: b075 eabc 5ca9 7d3d a073 b6bd 8d12 72bd
0.075782865 0.06648403 0.072978966 0.050850205 -0.037980553 -0.115313336 0.08005223 0.070313945
0.10701977 -0.029120598 -0.05541496 0.029888028 -0.08768913 0.03709963 -0.012686985 -0.110739805
-0.11955671 -0.11400631 -0.080040336 -0.02000899 0.032573737 -0.10482118 -0.0449784 -0.07818764
-0.046619512 0.11575878 -0.065421365 -0.11366511 -0.029465603 -0.07907994 -0.034551103 0.03076191
-0.102432735 0.041741446 0.06548724 -0.0625459 0.063327305 -0.057285905 0.07911123 0.08270473
-0.057571486 0.08873882 0.051799204 -0.104784966 0.12206087 -0.120324835 0.06720976 0.099769406
-0.02075364 -0.0961397 -0.043998595 -0.025691291 -0.046307858 -0.04099934 0.09758892 -0.121237904
-0.09036636 0.06274364 0.06453774 0.10078478 0.079682544 -0.005518681 0.07341663 0.017791541
0.053217456 0.018216643 -0.088308565 -0.09877892 0.007993998 -0.09268118 -0.08357169 0.08583498
-0.063450076 -0.02490948 -0.12131906 -0.05808822 0.033449143 -0.09817893 -0.12072634 0.0709503
0.0007402783 0.068791576 -0.10679868 0.017260708 0.12019857 -0.09191609 -0.0079133585 -0.073392875
-0.12287273 0.056264717 -0.11237962 -0.120482504 -0.07915331 -0.053626474 0.08392803 -0.052965403
-0.07199436 -0.09640979 0.0036284968 0.10635987 -0.089292824 0.0860837 0.06354266 -0.091140285
-0.03843847 -0.04006902 0.07676034 0.009847213 -0.06812445 -0.087451845 0.021883616 0.10872519
-0.10293045 -0.0020907894 0.08420357 -0.043506064 -0.01706465 0.056323405 -0.10990135 -0.013851053
0.11690378 -0.06753046 -0.04698847 -0.047472455 0.053388752 -0.0708698 -0.113550134 0.04819085
0.076436624 0.11900529 0.022275014 0.1095355 -0.10605823 0.04664106 -0.07315674 -0.104739785
-0.05048422 -0.05682488 -0.11918966 -0.003278334 -0.04150778 0.10371454 -0.004279794 0.06142904
0.13125858 0.10542309 -0.07762155 -0.014120569 0.011613637 -0.0025276328 0.024238631 -0.07457014
0.016214957 0.019625248 0.080571495 -0.11040682 0.075831026 0.09823725 -0.08916555 0.07421022
0.11350842 0.019182784 -0.06406071 0.079844296 0.07959806 0.03214582 0.06348476 -0.12513413
-0.0146544315 0.13066892 -0.0946808 0.094064966 -0.055443283 -0.025005382 0.005470222 -0.07471452
-0.08515403 0.02583101 0.08860198 -0.035052963 -0.08587914 0.08753272 -0.037553445 0.033729713
-0.08147793 0.026787445 0.054986693 -0.08634639 -0.08808644 0.03739925 0.062687375 0.038565427
0.025758883 0.03406101 -0.11076066 0.08135715 -0.11860583 -0.020943625 0.046538856 -0.09272654
-0.0037601658 0.01574942 -0.12516521 0.021557113 -0.063071184 -0.08168174 0.027310107 -0.047462404
0.12288428 0.061144244 0.11665465 0.077089414 0.04992125 -0.098612145 0.06222766 -0.0856677
0.11054767 -0.063207835 0.04436439 -0.11269918 -0.024275266 0.011239953 0.036486495 -0.053866293
0.047065333 -0.09742723 0.09039979 0.10670352 0.096704796 0.1075877 0.10954132 0.01962009
0.011925953 0.06277761 -0.060631867 0.017978236 -0.102232635 0.0227018 0.009511964 -0.010017498
-0.11143653 0.028777918 -0.084338956 0.058780264 -0.039923687 0.04620354 0.046988737 0.101230964
0.11493149 -0.09303293 0.06302068 0.10263073 -0.02862057 0.06192909 -0.089087725 -0.059099723

value_layer.2.bias f4 [64]
00000000: 3cb6 d9bd fe74 ecbc c344 d7bc 1edb 63ba
00000010: 92c6 79bd cff2 18bd c094 583d 804c 8fbc
00000020: f42d cf3c 916e a93d da52 483d c2af b5bd
00000030: 80a9 823d c9ba ed3d ad40 f93d a53f 6e3d
00000040: a5fb 5ebc f587 d33d 1f2b aabd 05d4 d3bd
00000050: b0ce 65bd 30ed 393d 92d9 6ebd 3612 ddbd
00000060: 5ac6 8f3d dd8f 82bd 7924 25bd f030 bb3d
00000070: 4dfb b23d f659 1c3d 015e 293d d24b c73c
00000080: 4e65 9abd 5a95 433c cca6 c83c 8c98 ff3c
00000090: 06b9 ae3d 54cd 3e3d ae01 ba3d 2919 febc
000000a0: 3cef 443d 5930 1bbd 331b f7ba d1e1 643d
000000b0: 2517 85bc 3fb7 423d b3d9 e0bd 4b11 4ebd
000000c0: 08b5 093d 6973 ce3d 31c4 82bd 155d 1dbd
000000d0: 829c f5bd 65d3 1fbd 47ea e2bd 8a91 c3bd
000000e0: b61f 4f3d f6ff ffbd 1b61 7fbd b3c3 833d
000000f0: 3f43 d43b 4e4e d7bd 840c d33d 4020 183d
-0.106304616 -0.02886438 -0.026277905 -0.0008692014 -0.060980387 -0.037340935 0.052876234 -0.017492533
0.025290467 0.08273042 0.04890714 -0.08871414 0.06379986 0.11607892 0.12170539 0.058166165
-0.013609801 0.10328666 -0.08309006 -0.10343174 -0.056105316 0.045392215 -0.05831296 -0.10794489
0.070202544 -0.06375096 -0.040317986 0.091401935 0.08739338 0.03817173 0.041349415 0.024328146
-0.075388536 0.011937464 0.024493597 0.03120067 0.08531384 0.046582535 0.090823516 -0.031017857
0.048079714 -0.037887905 -0.001885271 0.055879418 -0.016246388 0.04753804 -0.10979023 -0.05030946
0.03361991 0.100806065 -0.06385077 -0.038418848 -0.11992742 -0.03901996 -0.11079841 -0.09549244
0.05056735 -0.124999925 -0.062348466 0.06433811 0.006477743 -0.10512982 0.103051215 0.03714013

value_layer.4.weight f4 [1, 64]
00000000: 05d9 903d e851 e13d 0f07 e2bb b425 253d
00000010: 7980 843d 942b 98bd 35e2 f13c 544e dc3b
00000020: cf11 d73d 9be0 4fba 4a6f b13c 57f9 b9bd
00000030: 3e44 f0bc 10cf 78bc 2c4f a5bd 7e93 8cbd
00000040: 2549 5a3d 3af6 843d cda1 b1bd a27d 21bd
00000050: a469 97bd 7d29 803d f07f 7bbc cc9b f03d
00000060: a4f3 273d 1b6b 883d ee77 adba ab2f a1bc
00000070: e675 b53d d916 6d3d 4fe5 333d 5c69 cc3d
00000080: 1a51 dbbd f4ea c2bb 1735 bfbd 853e 6ebd
00000090: e07a d8ba 6bdf 083c 4064 dabd fdc7 ae3a
000000a0: 0338 1bbd eaef 3dbd 88b2 87bd 834e d03d
000000b0: d82c 0aba 0e4f d4bd a13b 843d 3980 423d
000000c0: af01 8ebc ec55 453d 6f6f b8bd db86 1abd
000000d0: df28 25bd 1182 9f3a 6093 b4bd b6bf fe3c
000000e0: a398 853d 26e4 9f3d 25cb a5bd 9877 ec3c
000000f0: ec97 8dbd 5466 c4bd 0205 8439 6325 1dbd
0.07072643 0.110019505 -0.006897814 0.04031916 0.06469817 -0.07430187 0.02952681 0.0067232046
0.105014436 -0.0007929892 0.021659512 -0.09080761 -0.029329415 -0.015186086 -0.080717415 -0.068640694
0.053292412 0.064922765 -0.08673439 -0.039426453 -0.07393196 0.06257913 -0.015350327 0.11748466
0.04100384 0.06661054 -0.0013234594 -0.01967605 0.08860378 0.057883117 0.043919858 0.09981033
-0.10708828 -0.0059484188 -0.09336298 -0.058165092 -0.0016516112 0.008354048 -0.106636524 0.0013334748
-0.037895214 -0.046371378 -0.06625849 0.10171225 -0.00052709645 -0.10366641 0.06456686 0.047485564
-0.017334787 0.048177645 -0.09005629 -0.037726264 -0.04032218 0.00121695 -0.08817172 0.031097274
0.06523254 0.07807188 -0.08095387 0.02886562 -0.069137424 -0.0958983 0.00025180733 -0.038365733
