8_gym-PPO/results_seed/PPO_LunarLander-v3_1500-eps0.2-seed22.pth (torch, 44306 bytes, 11 tensors)

action_layer.0.weight f4 [64, 8]
-0.013724838 0.07078089 -0.15652007 -0.4548981 0.31605598 -0.20284256 0.36293605 0.13071415
0.34677055 0.14419928 0.20297007 0.3495875 -0.44274342 -0.65214664 0.43661913 0.52326703
-0.06431904 0.13747545 0.04679188 0.038522653 0.35527882 -0.260053 0.20939283 0.36121392
-0.015876178 0.07432863 0.31931904 0.119033694 -0.4239761 -0.30589262 0.19385429 -0.2694243
0.10317197 -0.0359279 -0.25822964 -0.45392624 0.37137157 -0.019733531 -0.46895376 -0.045007005
0.07620993 -0.16129911 -0.22279209 -0.24568762 -0.13435222 0.11019016 -0.10289375 0.05170053
-0.08435173 0.13870847 -0.1344417 -0.50222933 0.47079897 -0.051244926 -0.005393806 0.18718521
-0.12515102 -0.19155264 -0.190733 0.03367311 -0.013554018 0.33677322 -0.13268453 -0.48923454
-0.2233498 0.17814936 -0.12025692 0.07035689 0.6273144 0.14393517 0.053121462 -0.07380287
-0.44932595 0.14519688 0.061880272 0.3739114 0.52157116 0.192422 -0.38414174 0.18505232
0.12651406 -0.01818564 0.30776092 -0.45083222 -0.79061216 -0.48991632 0.025443641 -0.26531336
-0.114986844 0.053561103 -0.16078354 -0.33319995 0.05496475 0.58877647 -0.3614317 -0.23186883
-0.13500682 -0.05981458 -0.24781346 0.20434532 0.11368353 0.043137375 -0.47114787 -0.37260625
0.08896667 0.038320962 0.03860116 0.16812582 -0.1764969 -0.3081608 0.17107643 0.5211361
0.35361508 -0.18746354 0.329543 0.12695563 0.0811449 0.08645207 -0.35150728 0.11500096
-0.06609381 0.15257266 -0.32746813 0.3679791 0.014199611 0.20665619 -0.41789645 -0.24683426
0.08954408 0.18290225 -0.30744955 0.60120344 0.10477357 -0.21714942 -0.09843564 -0.43128777
0.21888165 0.010563724 0.022967381 0.49153274 -0.29950586 -0.04191945 -0.28973347 -0.3530757
-0.21004488 0.13658036 0.36867648 -0.20596848 -0.35300472 -0.1615712 -0.09541098 -0.10133985
-0.09974827 -0.2264897 0.3079377 -0.70036745 -0.022993412 0.25360867 0.2985227 -0.113881014
0.16864686 -0.11964053 -0.027240608 0.035056494 -0.35141867 -0.29011247 0.033142023 0.17767921
0.21934813 -0.050162546 -0.18402548 0.10042688 0.23573263 0.05818384 -0.06617316 -0.03902476
-0.015728755 -0.19360998 0.2598522 -0.5820631 -0.21566555 -0.013170669 0.33772275 0.4146005
-0.001235228 -0.18221071 -0.041808754 0.20153846 0.59771776 0.46498224 -0.37316743 0.35417572
0.09261187 0.20330024 -0.024152769 0.5272653 0.43933013 0.30243674 -0.24602164 0.56844497
-0.21529026 -0.18631966 0.30654812 0.31596953 0.100970894 -0.27515125 0.1701332 -0.40447843
-0.1584049 -0.025696682 -0.08930411 0.55008805 0.2819921 -0.0126735745 -0.25614265 -0.1736458
-0.08335865 -0.05755475 -0.10695316 0.5697227 -0.09412561 0.009963515 0.0127567565 -0.30342293
-0.2770588 -0.16293992 0.13370422 0.30480105 -0.4087411 0.09559857 -0.5464644 -0.48880544
-0.14498618 0.08688972 0.3517958 0.4665595 -0.34507868 -0.2102494 0.28200543 0.39995065
0.11996189 -0.14207682 0.37565452 0.47903162 -0.47364375 0.014657597 0.07505278 -0.34301707
0.28091323 -0.0023942688 0.3812961 0.35514554 -0.30068982 0.05594117 0.3027255 0.12329038
00000000: 25de 60bc 92f5 903d cc46 20be 67e8 e8be
00000010: 17d2 a13e f6b5 4fbe c1d2 b93e eed9 053e
00000020: e98b b13e faa8 133e 63d7 4f3e 22fd b23e
00000030: 44af e2be 15f3 26bf 8b8c df3e d4f4 053f
00000040: b3b9 83bd 5dc6 0c3e d8a8 3f3d eec9 1d3d
00000050: 1be7 b53e ab25 85be 136b 563e 08f1 b83e
00000060: c20e 82bc 9c39 983d c97d a33e f0c7 f33d
00000070: 6513 d9be f59d 9cbe bd81 463e fbf1 89be
00000080: d34b d33d 2229 13bd ad36 84be 0569 e8be
00000090: 6a24 be3e 37a8 a1bc b51a f0be 4459 38bd
000000a0: f413 9c3d 982b 25be 9c23 64be 8995 7bbe
000000b0: a193 09be 61ab e13d f5b9 d2bd efc3 533d
000000c0: 9ac0 acbd 9809 0e3e 16ab 09be 1a92 00bf
000000d0: 900c f13e 33e6 51bd 86be b0bb 7bad 3f3e
000000e0: 9727 00be 6026 44be 834f 43be d1ec 093d
000000f0: ac11 5ebc 8a6d ac3e 74de 07be f37c fabe
00000100: cfb5 64be c96c 363e 4349 f6bd 4617 903d
00000110: ad97 203f be63 133e e495 593d f625 97bd
00000120: 0d0e e6be 7eae 143e 2b76 7d3d 5171 bf3e
00000130: b085 053f 460a 453e 3aae c4be 5b7e 3d3e
00000140: e78c 013e 0dfa 94bc d792 9d3e 7bd3 e6be
00000150: 8f65 4abf 50d6 fabe 2f6f d03c 27d7 87be
00000160: 397e ebbd e362 5b3d 71a4 24be 2f99 aabe
00000170: b822 613d 0eba 163f 930d b9be 066f 6dbe
00000180: 3a3f 0abe 2200 75bd d0c2 7dbe e63f 513e
00000190: e9d2 e83d d1b0 303d 4b3a f1be 3fc6 bebe
000001a0: 2834 b63d 71f6 1c3d 401c 1e3d 2d29 2c3e
000001b0: 9abb 34be 41c7 9dbe a92e 2f3e 2d69 053f
000001c0: 090d b53e 71f6 3fbe dcb9 a83e a800 023e
000001d0: 4c2f a63d c80d b13d c3f8 b3be a085 eb3d
000001e0: 315c 87bd 023c 1c3e e7a9 a7be c267 bc3e
000001f0: 7ca5 683c ae9d 533e 86f6 d5be 1fc2 7cbe
00000200: e362 b73d ba4a 3b3e 076a 9dbe 78e8 193f
00000210: 8793 d63d 6b5c 5ebe a098 c9bd c0d1 dcbe
00000220: 8322 603e 7813 2d3c 1726 bc3c 2eaa fb3e
00000230: d558 99be bbb3 2bbd f257 94be 57c6 b4be
00000240: 0116 57be b9db 0b3e 2ac3 bc3e 67e9 52be
00000250: 09bd b4be ec72 25be d566 c3bd 448b cfbd
00000260: d248 ccbd eaec 67be 03aa 9d3e 484b 33bf
00000270: ae5c bcbc ffd8 813e f8d7 983e 733a e9bd
00000280: c3b1 2c3e 1806 f5bd b227 dfbc 6697 0f3d
00000290: 26ed b3be 9f89 94be eebf 073d 8af1 353e
000002a0: cc9c 603e 3e77 4dbd 2d71 3cbe 9cac cd3d
000002b0: e563 713e 2e52 6e3d cb85 87bd 6dd8 1fbd
000002c0: 97d9 80bc b241 46be 590b 853e 1602 15bf
000002d0: 6ed7 5cbe cac9 57bc ffe9 ac3e 8446 d43e
000002e0: 60e7 a1ba 7295 3abe a83f 2bbd 1960 4e3e
000002f0: 0804 193f 2712 ee3e cd0f bfbe 8556 b53e
00000300: 4bab bd3d f02d 503e 07dc c5bc dcfa 063f
00000310: e1ef e03e fdd8 9a3e 19ed 7bbe 9c85 113f
00000320: 0d75 5cbe 95ca 3ebe e0f3 9c3e c2c6 a13e
00000330: d4c9 ce3d a0e0 8cbe 6637 2e3e cc17 cfbe
00000340: e534 22be d981 d2bc 13e5 b6bd 92d2 0c3f
00000350: 4561 903e d3a4 4fbc 2125 83be 34d0 31be
00000360: f1b7 aabd 88be 6bbd 420a dbbd 59d9 113f
00000370: eec4 c0bd 033e 233c b701 513c 405a 9bbe
00000380: a7da 8dbe b9d9 26be c2e9 083e e20e 9c3e
00000390: 8346 d1be 2fc9 c33d 17e5 0bbf b544 fabe
000003a0: 4277 14be 3df3 b13d 941e b43e e3e0 ee3e
000003b0: 27ae b0be 9e4b 57be 0463 903e 55c6 cc3e
000003c0: 94ae f53d 967c 11be ca55 c03e a243 f53e
000003d0: 6f81 f2be 6b26 703c 46b5 993d ef9f afbe
000003e0: dcd3 8f3e 2ae9 1cbb 3e39 c33e a3d5 b53e
000003f0: 04f4 99be 9122 653d d6fe 9a3e ab7f fc3d

action_layer.0.bias f4 [64]
-0.024040604 0.08040434 -0.09829748 -1.8330844e-05 -0.056378506 -0.166465 0.0592451 0.13569812
-0.028347148 0.09561209 -0.1545498 -0.0841576 0.266661 0.00026818158 -0.0654996 0.11985639
-0.020523641 0.24205734 0.038742077 -0.07976957 0.058464184 0.11479736 0.1433516 0.25758275
0.19895832 0.1382433 0.1602391 0.02796702 -0.20334385 -0.0020475462 0.107235394 -0.16560152
0.02174564 0.06810484 0.11765256 0.11392789 0.0895489 0.17794558 -0.06208393 -0.061922904
0.15081331 0.2588056 -0.014882931 0.13242419 -0.08611136 -0.12438393 -0.17913528 -0.34424004
-0.20476629 -0.07063666 -0.021258399 -0.14966798 -0.1020908 -0.15532225 -0.07978682 0.114523605
-0.0022174732 -0.11729044 -0.2928378 0.13706958 -0.07491557 -0.30649063 -0.3169904 0.10724971
00000000: cdf0 c4bc 08ab a43d 3050 c9bd 30c5 99b7
00000010: 26ed 66bd cd75 2abe fdaa 723d 73f4 0a3e
00000020: 4738 e8bc 45d0 c33d 4e42 1ebe d25a acbd
00000030: ca87 883e b99a 8c39 a724 86bd 4477 f53d
00000040: 3221 a8bc e1dd 773e 03b0 1e3d 3a5e a3bd
00000050: 2478 6f3d e11a eb3d c3ca 123e e3e1 833e
00000060: bbbb 4b3e a78f 0d3e b815 243e 181b e53c
00000070: 5f39 50be 2030 06bb 3b9e db3d 7293 29be
00000080: ea23 b23c 8d7a 8b3d d3f3 f03d 0753 e93d
00000090: 6a65 b73d 5e37 363e b84b 7ebd dfa2 7dbd
000000a0: ce6e 1a3e 2b82 843e 89d7 73bc 359a 073e
000000b0: 275b b0bd 00bd febd 3d6f 37be 3b40 b0be
000000c0: 41ae 51be f4a9 90bd 1826 aebc 9042 19be
000000d0: fb14 d1bd cc0c 1fbe 4667 a3bd 5a8b ea3d
000000e0: 0753 11bb f835 f0bd d6ee 95be f85b 0c3e
000000f0: 566d 99bd 57ec 9cbe 914c a2be bca5 db3d

action_layer.2.weight f4 [64, 64]
0.014215298 0.078126445 0.017164096 0.012397534 0.11520455 0.089674436 0.11683446 -0.0066809757
-0.10211379 -0.15714519 0.17061312 0.09610743 0.112513974 -0.10476182 -0.058549445 0.031083684
-0.097245276 -0.06730652 0.05245061 0.03680725 -0.07848804 0.021528417 0.23045391 -0.07647142
-0.13350861 -0.027235528 -0.10744549 -0.155076 0.044804536 -0.06892218 -0.04969037 0.02431284
-0.09304619 0.14033364 0.046485037 0.21583964 0.11309143 0.031703733 -0.06386747 -0.22835644
-0.45524544 -0.098099045 -0.24403611 0.04821944 -0.019816693 0.031587783 -0.105421215 -0.016949695
0.22864619 0.20613651 0.03099814 0.09602858 0.1876885 0.14101769 -0.058005434 0.05800531
-0.11248586 -0.110559925 -0.1145027 -0.14575577 -0.006872481 0.23049714 0.16747002 0.13246693
0.040664602 0.047217373 -0.046952438 0.07918163 0.23640542 0.07636683 0.076296255 0.03069371
0.13759987 -0.013610117 -0.044319894 0.07258265 -0.1257448 0.06357202 -0.05667717 -0.084786475
-0.066826396 -0.080056734 -0.045105018 -0.009189707 -0.03939806 0.0868126 0.1032532 -0.044758376
-0.07691247 -0.019906215 -0.16845483 -0.13335243 -0.07393548 0.050426025 -0.16012222 0.10250771
-0.094213456 -0.041532163 -0.12374077 0.09642682 -0.03285282 -0.09685733 -0.10931608 -0.10349041
-0.07875659 -0.071741626 0.10044412 0.06704101 -0.09077124 0.14093144 -0.0008056368 0.05280211
-0.0016635703 -0.016911848 0.042524073 -0.013150759 0.12111253 -0.0950103 -0.0018013541 -0.017309994
0.015064366 -0.059688974 0.08271823 -0.050467007 0.09647821 -0.021947017 -0.043864686 0.065758795
0.050558057 0.03870773 0.110123955 0.056605447 0.29319793 -0.010899018 0.09833173 0.075544305
-0.07464822 -0.0905139 0.1077643 0.03464644 0.01745951 -0.008163142 0.02127311 0.093742035
0.01616244 -0.024288151 -0.08412039 -0.113879606 -0.13990311 0.0924059 0.07525161 0.072878115
0.05303799 -0.04240823 -0.041580528 0.042583264 0.05283127 -0.1473175 -0.107017614 0.05896732
-0.09344351 0.05833818 0.061211884 -0.01261243 0.001106125 -0.043221716 0.065737456 -0.06668479
-0.16034295 -0.20437081 0.11631623 -0.05017948 0.08914371 0.102931045 0.14723527 0.07358788
0.017468208 0.070481084 -0.03460001 -0.026713604 0.06315521 -0.014125917 -0.0446781 -0.054814525
-0.10339432 -0.120975114 -0.032288946 -0.11711049 -0.032321952 0.10427788 0.016344547 -0.022010785
-0.10057719 0.124411516 0.03941475 -0.11584565 0.013195273 -0.00595087 0.06853421 -0.098516814
-0.10289637 0.09437008 0.019469632 -0.026050711 0.19400175 -0.066293895 0.112327576 0.06710769
0.15731378 0.12959267 0.0012730127 -0.06985514 0.18265851 0.14155494 0.056686785 0.0073318924
0.1440046 0.18111652 0.22369078 0.19487064 0.091378585 0.20857973 -0.03632333 -0.11225434
0.1716688 -0.081939004 0.09191521 -0.10250733 0.037649695 -0.030758519 0.028940743 0.05715885
-0.08996374 0.0888174 -0.0090345815 -0.101417564 -0.097241424 0.0057151797 0.010512168 0.1027887
-0.09800729 -0.13665572 -0.06006092 0.04320488 -0.1747571 -0.15748684 -0.038436685 -0.007964549
0.031849958 0.033580773 -0.043829042 -0.03136157 0.133981 -0.08467425 -0.052069653 -0.06282134
00000000: 48e7 683c c200 a03d b89b 8c3c 071f 4b3c
00000010: 5df0 eb3d 3ba7 b73d e846 ef3d 16ec dabb
00000020: 0921 d1bd abea 20be 35b5 2e3e f9d3 c43d
00000030: ba6d e63d 5d8d d6bd 8bd1 6fbd 36a3 fe3c
00000040: 8828 c7bd 00d8 89bd 73d6 563d 33c3 163d
00000050: 56be a0bd 5d5c b03c 1cfc 6b3e 0c9d 9cbd
00000060: 7bb6 08be 0b1d dfbc 620c dcbd 3ecc 1ebe
00000070: f684 373d 1227 8dbd 2188 4bbd b92b c73c
00000080: 008f bebd 9fb3 0f3e 1867 3e3d 1105 5d3e
00000090: 7b9c e73d c6db 013d f3cc 82bd 45d6 69be
000000a0: ee15 e9be 27e8 c8bd 9ae4 79be bf81 453d
000000b0: 9e56 a2bc 3162 013d 14e7 d7bd 16da 8abc
000000c0: 3a22 6a3e 7315 533e d0ef fd3c a2aa c43d
000000d0: 6a31 403e f166 103e 1b97 6dbd fa96 6d3d
000000e0: fd5e e6bd 3e6d e2bd 6480 eabd 0041 15be
000000f0: 8d32 e1bb 7107 6c3e 437d 2b3e 69a5 073e
00000100: ed8f 263d 0167 413d 3351 40bd fa29 a23d
00000110: 4314 723e 3666 9c3d 3641 9c3d 6071 fb3c
00000120: fbe6 0c3e f8fc 5ebc c788 35bd 36a6 943d
00000130: 3fc3 00be 0c32 823d 5226 68bd 88a4 adbd
00000140: 47dc 88bd c9f4 a3bd 0ac0 38bd 6d90 16bc
00000150: dc5f 21bd ceca b13d 6a76 d33d 8f54 37bd
00000160: 4984 9dbd 5c12 a3bc 6c7f 2cbe 8a8d 08be
00000170: 7c6b 97bd 858b 4e3d 14f7 23be 90ef d13d
00000180: fcf2 c0bd a11d 2abd cd6b fdbd 6d7b c53d
00000190: ae90 06bd 235d c6bd 1ce1 dfbd c8f2 d3bd
000001a0: 234b a1bd 46ed 92bd a6b5 cd3d cc4c 893d
000001b0: 46e6 b9bd 5550 103e 5f31 53ba 0647 583d
000001c0: 280c daba b78a 8abc b92d 2e3d 4876 57bc
000001d0: d909 f83d c394 c2bd 6a1b ecba b0cd 8dbc
000001e0: 88d0 763c 6d7c 74bd 2d68 a93d 7eb6 4ebd
000001f0: 5e96 c53d 3bca b3bc 75ab 33bd 8cac 863d
00000200: f715 4f3d ff8b 1e3d ab88 e13d 1ddb 673d
00000210: 0a1e 963e cb91 32bc 2562 c93d f9b6 9a3d
00000220: 2ae1 98bd 5a5f b9bd 88b3 dc3d 6de9 0d3d
00000230: 3f07 8f3c b3be 05bc f244 ae3c d3fb bf3d
00000240: 1867 843c f2f7 c6bc 5047 acbd b639 e9bd
00000250: c342 0fbe 4e3f bd3d 841d 9a3d 1f41 953d
00000260: 5d3e 593d 41b4 2dbd 5850 2abd ca6b 2e3d
00000270: 9a65 583d 66da 16be 0d2c dbbd b787 713d
00000280: 505f bfbd 04f4 6e3d 50b9 7a3d 5ea4 4ebc
00000290: 65fb 903a 4109 31bd 5ca1 863d 0992 88bd
000002a0: f130 24be 9546 51be 3437 ee3d 0089 4dbd
000002b0: fa90 b63d 83cd d23d d8c4 163e 3eb5 963d
000002c0: 7d19 8f3c 6358 903d bdb8 0dbd 7dd6 dabc
000002d0: 8557 813d 6470 67bc 6200 37bd 3285 60bd
000002e0: 67c0 d3bd cdc1 f7bd 6a41 04bd a0d7 efbd
000002f0: 0664 04bd a48f d53d 00e5 853c f64f b4bc
00000300: 6afb cdbd 77cb fe3d 5c71 213d 7c40 edbd
00000310: fc30 583c 84ff c2bb aa5b 8c3d 2fc3 c9bd
00000320: 55bb d2bd 1a45 c13d c77e 9f3c 4d68 d5bc
00000330: 65a8 463e 18c5 87bd 000c e63d c26f 893d
00000340: dd16 213e f1b3 043e 38db a63a 3610 8fbd
00000350: d50a 3b3e c7f3 103e 6730 683d 5f40 f03b
00000360: f175 133e 9c76 393e 320f 653e 2b8c 473e
00000370: b224 bb3d ed95 553e c6c7 14bd 9ae5 e5bd
00000380: f2c9 2f3e a3cf a7bd 0b3e bc3d 5def d1bd
00000390: 9136 1a3d 4af9 fbbc 2315 ed3c 661f 6a3d
000003a0: e93e b8bd e6e5 b53d c805 14bc 03b4 cfbd
000003b0: 8326 c7bd 6746 bb3b 3a3b 2c3c e282 d23d
000003c0: 0cb8 c8bd 7aef 0bbe 7002 76bd 9af7 303d
000003d0: 86f3 32be 3b44 21be c96f 1dbd bd7d 02bc
000003e0: 1a75 023d fe8b 093d 1586 33bd fd74 00bd
000003f0: 5132 093e b169 adbd fd46 55bd 7aa8 80bd

action_layer.2.bias f4 [64]
-0.100869976 -0.077062525 0.06848922 -0.11142328 0.10250344 0.0048225215 0.08224719 -0.013035636
0.080524996 -0.09884807 0.039451372 -0.075790584 0.0939377 0.042589277 -0.09347297 -0.07762982
0.07658206 0.016612565 -0.01612405 -0.065213725 -0.0094927745 0.042993277 -0.028809773 0.088999346
-0.100468285 0.06277417 0.11117597 -0.042900667 0.11578118 0.021816412 0.079831235 -0.016183555
-0.039528497 -0.052232448 -0.1403213 0.06583585 0.0005037539 -0.038489554 0.15372308 -0.02553844
-0.073044695 0.09298001 -0.010288503 -0.0062922896 0.009827732 0.039040964 -0.010807261 -0.069662094
0.052793473 -0.020355161 -0.0865844 0.10662208 0.113847695 0.030072527 0.00483264 0.07496883
-0.018265475 -0.10824174 -0.088569246 0.1177609 0.05701038 0.038253702 -0.014846029 -0.045190234
00000000: eb94 cebd f5d2 9dbd 1444 8c3d e331 e4bd
00000010: 53ed d13d 3e06 9e3b 3771 a83d 6c93 55bc
00000020: 4aea a43d db70 cabd c397 213d 1838 9bbd
00000030: 6962 c03d 1872 2e3d c26e bfbd 62fc 9ebd
00000040: 0ed7 9c3d 1317 883c 9516 84bc c68e 85bd
00000050: 9587 1bbc b819 303d 7902 ecbc 4a45 b63d
00000060: 51c2 cdbd be8f 803d 3ab0 e33d 9cb8 2fbd
00000070: af1e ed3d 55b8 b23c 8f7e a33d 6093 84bc
00000080: a2e8 21bd b1f1 55bd 63b0 0fbe f2d4 863d
00000090: 5a0e 043a 39a7 1dbd 9569 1d3e fe35 d1bc
000000a0: 7598 95bd 4e6c be3d 1c91 28bc 8d2f cebb
000000b0: 7f04 213c 6be9 1f3d f010 31bc 00ab 8ebd
000000c0: f83d 583d debf a6bc 2953 b1bd ad5c da3d
000000d0: fb28 e93d a95a f63c 1f5b 9e3b 4289 993d
000000e0: 7aa1 95bc d8ad ddbd cb63 b5bd a02c f13d
000000f0: b783 693d eaaf 1c3d c23c 73bc 6519 39bd

action_layer.4.weight f4 [4, 64]
0.0382025 -0.03772012 0.0045915474 -0.025552858 0.1437911 0.06853227 -0.10342219 0.008603335
-0.12557815 0.061972175 0.0847183 -0.0650919 -0.08623249 -0.003955 0.1392649 -0.098947614
-0.13182156 -0.029154325 0.022607628 -0.1996092 0.03983931 -0.18055132 0.07134688 -0.084712125
-0.082106076 0.006866585 0.1118024 0.00048797025 -0.078689486 -0.17866096 -0.12613074 -0.02864994
-0.07785397 0.13442416 -0.07294776 -0.056127977 -0.038857505 0.050014727 -0.012339122 -0.053686082
-0.017701384 -0.023401666 0.036158442 0.09016525 0.053143725 -0.0016877335 -0.06914971 -0.022408938
0.120779686 0.015733024 0.10966483 -0.088961326 0.12691948 0.0065831244 0.08482415 -0.0929871
-0.0737155 -0.00068663736 0.06441953 -0.017364431 0.0044861087 0.051569607 -0.015871635 -0.093166836
0.11273759 -0.04315832 0.047703132 -0.08480201 0.06263865 0.062168814 -0.15824637 0.035240155
-0.08604019 0.019784776 0.11424906 0.0056891344 -0.19396293 -0.015051566 0.17249498 -0.15448909
-0.040099997 -0.1814532 0.0493175 -0.17369375 0.12247825 -0.011402774 0.030849885 -0.08401791
-0.17255814 0.032595914 0.09762573 0.06510622 0.16075459 -0.1758408 -0.09776566 0.021867378
-0.13387677 0.015641855 -0.15918167 0.08290152 -0.05543778 -0.11237318 0.06895849 -0.0021217435
0.02008699 0.18715 0.048253022 0.17163372 0.013869603 -0.1860111 -0.060978428 -0.018497137
0.1293943 -0.048428617 -0.14646155 -0.033287924 0.09551552 -0.1026953 0.16809456 -0.24562629
0.21893321 0.014847313 -0.106740564 0.027342923 -0.05104667 0.086720765 -0.036985055 -0.18163075
0.19701943 0.047374573 0.07998287 -0.12825276 -0.06546099 -0.05644397 0.060467243 0.23772508
0.081130326 -0.111493304 -0.18630625 0.079469666 0.27756205 -0.046790153 -0.11677058 0.17438924
0.019681681 0.08382058 -0.011646005 0.24549903 -0.23732762 0.23526835 -0.14221388 0.28444752
0.14798354 0.12458132 0.07475169 -0.12314266 0.08195286 0.16756693 0.27318963 0.05199548
0.19914997 -0.35384127 0.20200534 0.13026144 0.021936031 -0.07077325 -0.028682252 -0.0043617766
0.16848029 0.09040761 -0.08161167 -0.04041422 -0.014555484 0.16279253 -0.06808513 -0.16244009
-0.14960165 -0.043070678 -0.3428328 0.03039368 -0.17990941 -0.030759912 -0.1340122 -0.033366006
0.041800827 0.0070512025 -0.16407762 0.023106 -0.119988725 0.11334356 0.018181438 0.06972238
-0.2400183 -0.008320137 0.03044803 -0.034661584 0.042205304 0.12881047 0.077849954 -0.010553667
-0.044462565 0.043186672 0.009409172 -0.05994193 0.12143597 -0.0068671317 -0.12559907 -0.048714675
-0.17431238 0.10481648 -0.020664139 -0.09827645 0.03986135 -0.012317013 0.032782625 0.025433492
0.26673144 0.091484144 0.034258578 0.07036454 -0.19524576 -0.102805495 -0.01763832 -0.11836863
-0.042711813 0.21097293 0.07436353 -0.18428144 0.07449759 0.30257073 -0.039402187 0.010793264
0.014313358 -0.21052426 0.06592416 -0.1618244 0.018243765 0.023538344 -0.057709254 -0.02875715
-0.015024978 -0.096927665 0.37945148 -0.14086692 -0.07457807 0.17047164 0.095626615 0.23395304
-0.2898766 -0.0023188982 -0.052455906 -0.04711832 0.037296474 -0.19539465 0.06075155 0.1633251
00000000: 3a7a 1c3d 6a80 1abd b174 963b 3a54 d1bc
00000010: f93d 133e a65a 8c3d 03cf d3bd 01f5 0c3c
00000020: 8f97 00be 89d6 7d3d ca80 ad3d e74e 85bd
00000030: a99a b0bd f298 81bb 759b 0e3e 0ca5 cabd
00000040: 3bfc 06be 0dd5 eebc a233 b93c 5b66 4cbe
00000050: 8b2e 233d 72e2 38be 501e 923d 8d7d adbd
00000060: 3b27 a8bd 1701 e13b a8f8 e43d 42d6 ff39
00000070: f427 a1bd e6f2 36be 6b28 01be 47b3 eabc
00000080: e771 9fbd 7da6 093e a365 95bd 73e6 65bd
00000090: 0c29 1fbd 3edc 4c3d 072a 4abc f0e5 5bbd
000000a0: 7e02 91bc dab4 bfbc e01a 143d 8fa8 b83d
000000b0: 3cad 593d f036 ddba 5d9e 8dbd f392 b7bc
000000c0: 575b f73d 8be2 803c f497 e03d 5b31 b6bd
000000d0: 2ef7 013e 40b7 d73b 49b8 ad3d 0570 bebd
000000e0: 27f8 96bd 74ff 33ba 63ee 833d da3f 8ebc
000000f0: 3500 933b a73a 533d 3b05 82bc 41ce bebd
00000100: f7e2 e63d c7c6 30bd 5c64 433d adac adbd
00000110: b148 803d baa4 7e3d 560b 22be fb57 103d
00000120: d735 b0bd af13 a23c 69fb e93d eb6b ba3b
00000130: 389e 46be d89a 76bc 86a2 303e 6332 1ebe
00000140: e53f 24bd dece 39be 2601 4a3d c6dc 31be
00000150: e0d5 fa3d b3d2 3abc e6b8 fc3c 9511 acbd
00000160: 15b3 30be 4b83 053d 00f0 c73d 6956 853d
00000170: da9c 243e 9c0f 34be 5d39 c8bd 3723 b33c
00000180: fe16 09be 5923 803c 8500 23be 46c8 a93d
00000190: ba12 63bd e923 e6bd 1c3a 8d3d f30c 0bbb
000001a0: 798d a43c 40a4 3f3e f6a4 453d c0c0 2f3e
000001b0: 553d 633c b279 3ebe 84c4 79bd 4f87 97bc
000001c0: f07f 043e 165d 46bd 04fa 15be eb58 08bd
000001d0: a49d c33d ea51 d2bd fb20 2c3e 7585 7bbe
000001e0: 0730 603e 2542 733c cc9a dabd 44fe df3c
000001f0: 5016 51bd a89a b13d a47d 17bd 69fd 39be
00000200: 76bf 493e d70b 423d 0fce a33d b154 03be
00000210: 6910 86bd cb31 67bd 80ac 773d 346e 733e
00000220: a827 a63d 9a56 e4bd 11c7 3ebe fec0 a23d
00000230: 9d1c 8e3e 08a7 3fbd 6a25 efbd 1893 323e
00000240: 7a3b a13c 20aa ab3d e3ce 3ebc 1964 7b3e
00000250: 0306 73be 30ea 703e 84a0 11be 1ba3 913e
00000260: ff88 173e 7e24 ff3d 6a17 993d 3832 fcbd
00000270: e7d6 a73d aa96 2b3e 83df 8b3e 36f9 543d
00000280: f8ed 4b3e af2a b5be 7dda 4e3e 4163 053e
00000290: 31b3 b33c 91f1 90bd 0bf7 eabc 3ced 8ebb
000002a0: 1986 2c3e a027 b93d 0524 a7bd 6289 25bd
000002b0: 207a 6ebc 16b3 263e 3770 8bbd b256 26be
000002c0: 2d31 19be e16a 30bd c887 afbe 2bfc f83c
000002d0: 2c3a 38be 36fc fbbc 7f3a 09be cbaa 08bd
000002e0: 5837 2b3d c60d e73b f703 28be cb48 bd3c
000002f0: a6bc f5bd ab20 e83d 3df1 943c 9bca 8e3d
00000300: 5bc7 75be 2f51 08bc 266e f93c 4ef9 0dbd
00000310: 78df 2c3d e4e6 033e cc6f 9f3d 4ae9 2cbc
00000320: 611e 36bd 82e4 303d ee28 1a3c ab85 75bd
00000330: 6cb3 f83d ad05 e1bb 0b9d 00be 0a89 47bd
00000340: f27e 32be 06aa d63d d747 a9bc 2a45 c9bd
00000350: a845 233d 4ccd 49bc 1347 063d e659 d03c
00000360: 0691 883e 0a5c bb3d b952 0c3d 491b 903d
00000370: 81ee 47be b08b d2bd 3d7e 90bc 416b f2bd
00000380: 95f2 2ebd 4a09 583e e84b 983d 46b4 3cbe
00000390: 3192 983d 8dea 9a3e 3064 21bd 3bd6 303c
000003a0: 9382 6a3c ac93 57be 3f03 873d 4cb5 25be
000003b0: f373 953c 7cd3 c03c 8a60 6cbd 1d94 ebbc
000003c0: 532b 76bc 0382 c6bd 7747 c23e 6b3f 10be
000003d0: 63bc 98bd 1e90 2e3e e3d7 c33d 6391 6f3e
000003e0: b56a 94be a8f8 17bb 01dc 56bd 24ff 40bd
000003f0: 30c4 183d 8915 48be 9ed6 783d b23e 273e

action_layer.4.bias f4 [4]
0.027616866 0.082797386 -0.065337524 -0.01204012
00000000: c43c e23c ad91 a93d aecf 85bd ec43 45bc

value_layer.0.weight f4 [64, 8]
0.3072339 0.07594726 -0.32765228 0.12580296 -0.036614418 -0.040571954 -0.2333791 0.17308019
0.0069362973 -0.007982057 0.1603823 0.25988862 -0.28488687 0.06484223 -0.06704117 0.09774187
0.037707157 0.30413145 -0.24227521 -0.27215084 0.16268441 -0.14732878 -0.0016177382 0.020918135
0.34776726 -0.22264318 -0.10973951 -0.2237703 -0.29814944 -0.10075356 0.04299625 0.21643479
-0.22159404 0.014643539 0.24611534 0.21680492 0.15025367 -0.3274461 0.24689591 0.14429528
0.04655102 -0.22222696 0.21100375 -0.24770652 -0.19454752 0.10563864 -0.024497885 0.22664984
-0.22914541 0.04409269 -0.010611118 0.28496194 0.27249163 0.10256867 0.20433077 -0.061315943
-0.22250281 -0.29570797 0.359487 0.35466546 -0.16302957 0.0877918 0.053264067 0.21304485
0.26263317 0.15776956 -0.332441 -0.2561604 0.16795821 0.1458375 0.36084846 0.15657808
-0.26098314 0.26343918 -0.10057991 0.28440413 -0.10731748 -0.2797253 0.22464056 -0.2305902
-0.16007644 -0.20454587 -0.23815154 0.03240594 0.22825627 0.3122915 0.2442768 -0.17472965
0.2993949 0.03179974 0.31103298 -0.25126767 0.29271537 -0.29777682 0.21192282 -0.07561551
-0.3847624 0.043867167 0.06896932 0.010938544 -0.38198128 -0.07927272 0.090322405 0.042372216
-0.15513116 0.20232925 0.21877468 -0.07694975 0.106618725 0.090545245 -0.18654878 -0.10885567
-0.10988486 0.1438522 0.2605145 0.00090014975 -0.21814486 0.14953212 -0.25269064 0.16700047
-0.17288703 0.16278115 0.2579059 0.08131249 -0.33069253 0.3311158 0.051599454 0.12414642
-0.019625586 0.15899123 0.18338676 -0.13825448 0.15769853 0.043145888 -0.2593169 0.26876712
-0.2647483 0.2253871 -0.12227321 0.17288716 -0.23116131 -0.08527009 0.16003 -0.12226793
-0.075705856 0.13711438 -0.0321476 -0.14963025 0.26264003 0.006700315 -0.13987966 -0.25156102
-0.31118152 0.056183744 0.313703 -0.08640932 0.23986688 0.13737705 -0.12413963 0.008856667
0.11962771 -0.14341985 -0.039025236 -0.3508805 0.26231968 -0.28954417 0.037114445 -0.050131477
-0.22157899 0.2382055 0.13357294 -0.17094773 0.21482955 -0.104352266 -0.18527102 -0.30791762
0.26970896 -0.25567973 0.17123735 -0.22771284 -0.07382576 0.29875955 -0.063214906 -0.00084200327
0.136969 -0.16348311 -0.08555791 -0.15786156 -0.20954043 0.102161705 -0.3846018 -0.028906297
0.15519653 -0.11778254 -0.28007886 -0.026152441 0.03801339 -0.20591864 0.16924772 0.29676458
0.06815558 -0.24711713 -0.34234557 -0.27084404 -0.24810839 -0.05259866 0.2384562 0.012917821
-0.2960729 0.23413137 -0.27203912 -0.0031987955 0.31246766 -0.16665584 0.08883862 -0.23452972
0.06618309 -0.06450004 0.018811269 -0.0025618798 0.06844939 0.02468192 0.24546331 -0.14766093
0.18361601 -0.086544715 -0.30119517 0.26472005 -0.15680625 -0.15045926 0.26280713 -0.20688756
0.040109888 0.25875872 -0.045903414 0.2849116 -0.22556141 -0.3526328 0.06359164 0.004921104
-0.12462194 0.03358265 0.2551615 0.18004833 0.27894628 0.22901578 -0.19320117 -0.077581815
0.19557102 0.121331915 0.1793466 0.06276361 0.22882462 0.1303546 0.20080186 0.30798838
00000000: c34d 9d3e 3d8a 9b3d 0ac2 a7be 7ed2 003e
00000010: 00f9 15bd c72e 26bd eefa 6ebe ef3b 313e
00000020: e149 e33b 2cc7 02bc 423b 243e 1f10 853e
00000030: b1dc 91be 01cc 843d e24c 89bd e42c c83d
00000040: d272 1a3d 1eb7 9b3e fe16 78be 5b57 8bbe
00000050: be96 263e 5bdd 16be 490a d4ba 825c ab3c
00000060: 8d0e b23e 93fc 63be 1cbf e0bd 0b24 65be
00000070: 0ba7 98be e257 cebd d61c 303d 15a1 5d3e
00000080: 8ce9 62be 74eb 6f3c a905 7c3e 1c02 5e3e
00000090: 19dc 193e 04a7 a7be 48d2 7c3e 24c2 133e
000000a0: 48ac 3e3d 778f 63be 5e11 583e c7a6 7dbe
000000b0: 7737 47be 1259 d83d caaf c8bc e516 683e
000000c0: 18a5 6abe 899a 343d 41da 2dbc 88e6 913e
000000d0: 0684 8b3e 860f d23d 163c 513e 6d26 7bbd
000000e0: c7d7 63be 0967 97be ae0e b83e b696 b53e
000000f0: 39f1 26be 30cc b33d 6c2b 5a3d 6e28 5a3e
00000100: db77 863e 588e 213e b535 aabe 7527 83be
00000110: 3dfd 2b3e 6d56 153e 21c1 b83e 0156 203e
00000120: 959f 85be 80e1 863e d7fc cdbd 6b9d 913e
00000130: 44c9 dbbd 2838 8fbe 2d08 663e d61f 6cbe
00000140: 14eb 23be 7974 51be ffdd 73be 17bc 043d
00000150: 03bc 693e ace4 9f3e b323 7a3e 54ec 32be
00000160: 4a4a 993e 7240 023d b73f 9f3e 28a6 80be
00000170: cade 953e 3476 98be 4c02 593e 4edc 9abd
00000180: 94ff c4be 0fae 333d c93f 8d3d 9437 333c
00000190: 0d93 c3be bc59 a2bd f4fa b83d 7d8e 2d3d
000001a0: b4da 1ebe 662f 4f3e 7806 603e d597 9dbd
000001b0: eb5a da3d c96f b93d a506 3fbe b9ef debd
000001c0: 500b e1bd fe4d 133e 2862 853e 07f8 6b3a
000001d0: 5e61 5fbe f31e 193e ab60 81be 2c02 2b3e
000001e0: 4c09 31be 1ab0 263e 3e0c 843e 2a87 a63d
000001f0: 8850 a9be 0388 a93e f359 533d 7a40 fe3d
00000200: d6c5 a0bc 99ce 223e bdc9 3b3e 9592 0dbe
00000210: b97b 213e beb9 303d 2fc5 84be d89b 893e
00000220: 178d 87be e0cb 663e 606a fabd 5509 313e
00000230: 8db5 6cbe 16a2 aebd e8de 233e 9c67 fabd
00000240: ac0b 9bbd b667 0c3e 34ad 03bd ac38 19be
00000250: c178 863e 518e db3b 9d3c 0fbe 9bcc 80be
00000260: 2f53 9fbe ed20 663d ae9d a03e 5ff7 b0bd
00000270: aa9f 753e 92ac 0c3e eb3c febd 8e1b 113c
00000280: 5fff f43d a7dc 12be edd8 1fbd 9ca6 b3be
00000290: c44e 863e 223f 94be 5105 183d aa56 4dbd
000002a0: 9ae5 62be 25ec 733e 58c7 083e ec0c 2fbe
000002b0: 47fc 5b3e a4b6 d5bd b0b7 3dbe 61a7 9dbe
000002c0: 4b17 8a3e 74e8 82be d858 2f3e 8e2d 69be
000002d0: f631 97bd 03f7 983e d176 81bd e2b9 5cba
000002e0: 9a41 0c3e 1e68 27be fc38 afbd 76a6 21be
000002f0: c491 56be 283a d13d 87ea c4be e6cc ecbc
00000300: d7eb 1e3e f937 f1bd 7f66 8fbe a53d d6bc
00000310: eeb3 1b3d 56dc 52be 464f 2d3e 87f1 973e
00000320: 2795 8b3d 460c 7dbe eb47 afbe 12ac 8abe
00000330: 2010 7ebe b171 57bd dd2d 743e 45a5 533c
00000340: de96 97be 22c0 6f3e b648 8bbe e2a2 51bb
00000350: c3fb 9f3e d4a7 2abe 06f1 b53d 8f28 70be
00000360: 008b 873d 9918 84bd 171a 9a3c 36e5 27bb
00000370: 322f 8c3d bd31 ca3c bc5a 7b3e 6d34 17be
00000380: d605 3c3e 5b3e b1bd 4136 9abe 6389 873e
00000390: d191 20be fe11 1abe a88e 863e 55da 53be
000003a0: 444a 243d 067c 843e 3805 3cbd efdf 913e
000003b0: 92f9 66be 498c b4be 553c 823d 3641 a13b
000003c0: ca39 ffbd f68d 093d 87a4 823e 975e 383e
000003d0: 0cd2 8e3e 1d83 6a3e 87d6 45be 37e3 9ebd
000003e0: c543 483e de7c f83d a3a6 373e 358a 803d
000003f0: 0051 6a3e ad7b 053e 019f 4d3e a7b0 9d3e

value_layer.0.bias f4 [64]
-0.06978906 0.15066284 -0.047706757 -0.28433523 0.25929284 0.17469187 -0.023612933 -0.18195207
0.092393115 -0.25331774 -0.043305475 -0.20591184 0.23227875 0.06618309 -0.336665 0.22408749
-0.107230015 0.20994589 -0.1097003 -0.042708285 -0.25626624 0.24562556 -0.26765266 -0.10943071
-0.09018167 -0.09699499 -0.22350027 0.26992083 -0.1254082 -0.29679888 0.07138996 -0.05888708
0.096708275 0.31472117 -0.116274826 0.07630988 0.00020511582 0.047488824 -0.16654219 -0.07014047
-0.20017923 0.20898817 -0.17226018 0.0010775088 -0.21259758 -0.22357246 0.32451692 0.30387983
-0.22971119 0.3397504 -0.12622753 0.08602938 -0.114816956 0.1718769 -0.15607928 -0.026962133
0.002566695 -0.03559665 0.012454179 -0.052519836 0.24054438 -0.09048304 0.11750805 0.2333209
00000000: 91ed 8ebd 5c47 1a3e 2968 43bd 6394 91be
00000010: 08c2 843e 6de2 323e e96f c1bc a551 3abe
00000020: 9a38 bd3d ddb2 81be 1561 31bd 8eda 52be
00000030: 7bda 6d3e 008b 873d 5b5f acbe 3177 653e
00000040: 699b dbbd 0efc 563e 8daa e0bd e2ee 2ebd
00000050: 5435 83be 4485 7b3e c509 89be 351d e0bd
00000060: 2bb1 b8bd 4fa5 c6bd 41dd 64be 1033 8a3e
00000070: 026b 00be 06f6 97be e634 923d 9433 71bd
00000080: fd0e c63d 2223 a13e 7f21 eebd 5b48 9c3d
00000090: 5c14 5739 a483 423d 098a 2abe cfa5 8fbd
000000a0: c9fb 4cbe ff00 563e f964 30be 323b 8d3a
000000b0: 2eb3 59be 2ef0 64be 1527 a63e 2396 9b3e
000000c0: 6939 6bbe c4f3 ad3e ca41 01be 2c30 b03d
000000d0: 2725 ebbd 8000 303e 3fd3 1fbe b1df dcbc
000000e0: ff35 283b cbcd 11bd 9d0c 4c3c 0a1f 57bd
000000f0: 4451 763e 2c4f b9bd 0fa8 f03d adeb 6e3e

value_layer.2.weight f4 [64, 64]
-0.07713202 -0.11583073 0.106202334 0.048274975 0.042889934 0.084280364 -0.06197612 0.1125782
0.09142494 -0.08997238 0.10447824 -0.042493653 0.045045447 0.10508145 -0.080818124 0.043156106
-0.0018507575 0.017150989 0.0433713 -0.094892286 -0.009312701 0.0037888435 0.084215194 -0.046542067
-0.08068953 0.042955752 -0.09186029 0.12561052 -0.0066236835 0.0100959325 -0.053385258 -0.012228793
-0.1000895 0.0021350428 -0.048495356 -0.06872674 -0.08410725 -0.11436189 0.09532802 0.0068745995
0.04644382 -0.0795261 0.033454154 -0.06373573 0.028939385 -0.011557654 0.035050433 0.06021517
-0.043448832 0.031788595 -0.064235315 -0.11481724 -0.033665758 -0.1187763 -0.13354896 0.042340353
-0.019414311 0.11741404 0.11053321 0.05044283 0.095689096 0.026806006 -0.12275396 0.030521238
-0.018946188 -0.015360248 0.11735502 0.045632053 -0.0569059 -0.10449238 0.1099995 -0.041435253
0.06662999 -0.067549974 0.055729598 0.010888393 0.08285782 0.059463516 -0.11574799 0.013873441
0.063380286 -0.03243392 0.003240134 0.028156588 0.0708351 -0.087447256 0.014229861 0.061447535
-0.024216693 0.026506402 -0.007150221 -0.0171592 0.10573441 0.10140691 0.029559094 0.016300226
0.074373476 -0.009879595 0.08751424 -0.07169303 0.062906474 -0.10533529 -0.10334646 -0.040416643
-0.04689213 0.12088192 -0.0757729 0.016500313 -0.06654743 -0.114012346 -0.06130557 -0.104391
0.0066485405 0.006060403 0.11695381 0.10810583 0.08360537 -0.09828725 -0.004934517 -0.10401192
0.003688106 0.050020974 0.120437786 -0.025633369 -0.11835381 -0.1032801 -0.029141475 -0.101047255
-0.0042665075 -0.050021164 -0.06401423 -0.008827022 0.0036625867 0.06812378 -0.104692005 0.0026187752
0.10557694 0.09957336 -0.052467868 0.015247274 0.01462811 0.125048 0.06599448 -0.027895655
-0.09368317 0.0024362127 -0.075928375 0.037333578 0.10855042 -0.0791968 -0.09979847 -0.03525786
-0.12575123 -0.1101964 -0.01589825 0.017193118 0.0584766 0.108825736 -0.036241334 0.025200892
-0.03883202 0.06377809 0.07290318 0.015871447 -0.030412672 0.01881004 0.056860857 -0.020961093
-0.07279326 -0.06451212 0.046832196 -0.02940451 0.059714295 0.071625724 -0.089225516 0.05017978
0.02244286 0.016424112 0.062416207 0.040463306 -0.0016083756 0.0054760952 -0.102603815 0.0068997424
-0.065908834 0.004268273 -0.07330694 0.11419662 -0.10152897 0.095962964 0.048441943 0.050453987
0.106477685 0.039700385 0.08253337 -0.054084033 0.038544867 -0.021212567 -0.033648405 0.06661139
0.08521268 -0.09303664 0.057141777 0.08949835 -0.0065487027 -0.099014916 0.0630646 -0.049041554
-0.06271628 0.026659438 -0.100983806 0.018685848 -0.009768176 0.05486437 -0.07408737 -0.12244266
-0.05501388 0.0219811 0.08486104 0.026779443 -0.013609556 -0.0661483 -0.035532422 0.057819434
-0.007733097 0.0067546866 0.121534705 -0.026232192 0.052441873 -0.067510955 0.030593684 0.025877168
-0.0038910892 0.0468837 -0.09191339 -0.08333058 -0.010434327 0.044642497 -0.05586912 0.078016765
0.024066443 -0.05566381 -0.10860259 -0.064794354 0.0024659755 -0.09187439 0.033617392 0.08119904
-0.016736053 0.080344506 -0.0026636543 0.070489034 -0.11643194 -0.111981675 0.068108745 0.00036947432
00000000: 64f7 9dbd a938 edbd 9c80 d93d fbbb 453d
00000010: 5bad 2f3d 2f9b ac3d acda 7dbd 668f e63d
00000020: 003d bb3d 7043 b8bd b0f8 d53d d30d 2ebd
00000030: 9381 383d f134 d73d f983 a5bd 75c4 303d
00000040: 1e95 f2ba 3b80 8c3c 1ba6 313d e356 c2bd
00000050: 4d94 18bc 3f4e 783b 0479 ac3d e5a2 3ebd
00000060: 8d40 a5bd 5ff2 2f3d 3f21 bcbd 0ba0 003e
00000070: 7c0b d9bb 6969 253c 80aa 5abd 475b 48bc
00000080: b9fb ccbd 13ec 0b3b 11a3 46bd 9bc0 8cbd
00000090: 6c40 acbd 9136 eabd 563b c33d 5244 e13b
000000a0: e03b 3e3d 94de a2bd 3907 093d e187 82bd
000000b0: 4a12 ed3c 505c 3dbc 0b91 0f3d 2fa4 763d
000000c0: 67f7 31bd c234 023d ce8d 83bd 4d25 ebbd
000000d0: 1be5 09bd fd40 f3bd 0fc1 08be 146d 2d3d
000000e0: c30a 9fbc c676 f03d 3c5f e23d 249d 4e3d
000000f0: a5f8 c33d 4598 db3c 6e66 fbbd ad07 fa3c
00000100: 0935 9bbc 8da9 7bbc d457 f03d ade8 3a3d
00000110: 2916 69bd 1a00 d6bd 6b47 e13d 03b8 29bd
00000120: 4e75 883d a457 8abd b844 643d 3b65 323c
00000130: 5cb1 a93d 0490 733d 480d edbd 6e4d 633c
00000140: 86cd 813d 6ed9 04bd 6e58 543b a5a8 e63c
00000150: fe11 913d 8c17 b3bd 5d24 693c 69b0 7b3d
00000160: 1662 c6bc f423 d93c 674c eabb 7391 8cbc
00000170: 488b d83d 6dae cf3d ea25 f23c 0d88 853c
00000180: 1f51 983d 06de 21bc aa3a b33d ccd3 92bd
00000190: 1cd5 803d 07ba d7bd 4fa7 d3bd ec8b 25bd
000001a0: f611 40bd f190 f73d d22e 9bbd aa2b 873c
000001b0: 054a 88bd 4e7f e9bd 8d1b 7bbd f3ca d5bd
000001c0: 00dc d93b 5896 c63b 7b85 ef3d 9766 dd3d
000001d0: 4b39 ab3d d34a c9bd bbb1 a1bb 3404 d5bd
000001e0: 27b4 713b cbe2 4c3d 16a8 f63d 12fd d1bc
000001f0: 7b63 f2bd 8484 d3bd 1aba eebc ddf1 cebd
00000200: 0fce 8bbb fee2 4cbd e519 83bd 379f 10bc
00000210: 0208 703b 7b84 8b3d c368 d6bd c29f 2b3b
00000220: b938 d83d 1eed cb3d 8ce8 56bd b4cf 793c
00000230: beaa 6f3c 950c 003e 1d28 873d 6e85 e4bc
00000240: f6dc bfbd dea8 1f3b 5680 9bbd 18eb 183d
00000250: af4f de3d ef31 a2bd 2463 ccbd 8c6a 10bd
00000260: eec4 00be a6ae e1bd 0c3d 82bc 95d8 8c3c
00000270: 2985 6f3d 07e0 de3d cb71 14bd 1a72 ce3c
00000280: 530e 1fbd 169e 823d 434e 953d d604 823c
00000290: ff23 f9bc 8317 9a3c eee6 683d 99b6 abbc
000002a0: a214 95bd ee1e 84bd 1ed3 3f3d bae1 f0bc
000002b0: fa96 743d 82b0 923d debb b6bd 5089 4d3d
000002c0: 17da b73c dc8b 863c 23a8 7f3d dabc 253d
000002d0: 21d0 d2ba d170 b33b f321 d2bd 3c17 e23b
000002e0: 36fb 86bd dedc 8b3b f321 96bd ebdf e93d
000002f0: 6cee cfbd 3b88 c43d 0f6b 463d d7a8 4e3d
00000300: f910 da3d df9c 223d 4107 a93d 3887 5dbd
00000310: 39e1 1d3d fac5 adbc e9d2 09bd 8d6b 883d
00000320: fc83 ae3d fe89 bebd 7f0d 6a3d e94a b73d
00000330: 8096 d6bb 55c8 cabd 0328 813d ccdf 48bd
00000340: 6571 80bd e564 da3c 99d0 cebd 1013 993c
00000350: b30a 20bc 76b9 603d 1ebb 97bd 38c3 fabd
00000360: 3c56 61bd b511 b43c a0cb ad3d 9060 db3c
00000370: 9dfa 5ebc c378 87bd 728a 11bd 12d4 6c3d
00000380: eb65 fdbb 6b56 dd3b 30e7 f83d e5e4 d6bc
00000390: 4acd 563d 2f43 8abd 9b9f fa3c 5bfc d33c
000003a0: a501 7fbb 1f09 403d 163d bcbd 39a9 aabd
000003b0: bdf4 2abc 0ddb 363d 05d7 64bd 41c7 9f3d
000003c0: fd26 c53c bcff 63bd 096b debd e7b2 84bd
000003d0: 349c 213b a428 bcbd 64b2 093d af4b a63d
000003e0: 0c1a 89bc a98b a43d b490 2ebb 8e5c 903d
000003f0: de73 eebd a656 e5bd 997c 8b3d 01b6 c139

value_layer.2.bias f4 [64]
-0.06509396 0.07802924 0.09920112 -0.063542716 -0.030747542 -0.010948067 -0.010301719 -0.06283773
0.06309598 -0.03757003 0.098839566 -0.108247936 -0.006083657 -0.030818619 0.08214856 0.017087867
-0.04287369 0.06947573 0.085596286 0.07786868 0.06725486 0.05045624 -0.014824358 -0.045504477
0.058961816 0.096366435 0.068508126 0.05186379 0.0883961 -0.12697174 0.103308804 -0.034945328
0.07963539 -0.074068286 0.09142736 -0.11657693 -0.011636096 0.01490931 0.03401151 -0.0069462974
0.05379414 -0.0090023205 0.09604637 0.029339343 -0.08301367 -0.094657846 -0.039158296 -0.118784145
-0.095656574 -0.105338834 -0.082573205 -0.044397857 -0.07847158 -0.048087995 0.02880358 -0.04098731
-0.10107729 -0.0913744 0.07943582 -0.016821643 -0.07068393 -0.044522014 -0.0618568 0.046833094
00000000: fb4f 85bd cbcd 9f3d f529 cb3d af22 82bd
00000010: 45e2 fbbc 855f 33bc 8bc8 28bc 11b1 80bd
00000020: 7738 813d 08e3 19bd 666c ca3d 18b1 ddbd
00000030: 6a59 c7bb 5477 fcbc 813d a83d dbfb 8b3c
00000040: 539c 2fbd 4b49 8e3d 1b4d af3d 9d79 9f3d
00000050: ebbc 893d 34ab 4e3d dde1 72bc e762 3abd
00000060: f281 713d c45b c53d fd4d 8c3d 206f 543d
00000070: 0409 b53d e104 02be 9193 d33d d522 0fbd
00000080: e117 a33d 1db1 97bd 453e bb3d e3bf eebd
00000090: 53a5 3ebc 2e46 743c a74f 0b3d c49d e3bb
000000a0: 3f57 5c3d 787e 13bc f6b3 c43d 1059 f03c
000000b0: 1203 aabd f9db c1bd 7364 20bd 1a45 f3bd
000000c0: 98e7 c3bd e3bb d7bd 241c a9bd 87da 35bd
000000d0: b5b5 a0bd ebf7 44bd 7cf5 eb3c 4fe2 27bd
000000e0: 9c01 cfbd 8022 bbbd 3faf a23d 8bcd 89bc
000000f0: bcc2 90bd b75c 36bd 8e5d 7dbd 0fd4 3f3d

value_layer.4.weight f4 [1, 64]
0.10089288 -0.006808773 0.0403967 0.032770414 0.08464906 0.052174516 0.018268729 -0.11566274
-0.10836105 0.04362761 -0.05780648 0.1019657 0.086029 -0.0578837 0.11396708 -0.062326908
5.1005933e-05 0.09084633 -0.06987874 -0.019965185 0.060376648 -0.059610225 -0.08959714 -0.07730303
0.0012659645 0.0507687 0.035076305 0.0004318555 -0.029103084 -0.04845095 -0.011418485 0.02631136
-0.11414782 0.010427015 -0.0008341083 0.03467696 -0.0693255 -0.0008367802 0.005275825 -0.050261218
-0.086188234 -0.07872054 0.0008488288 -0.05948121 -0.03566772 -0.097687915 0.047045637 -0.061325748
0.059287358 -0.027542887 0.071544774 -0.04738168 -0.057832424 -0.023811836 0.022022557 -0.0064290715
-0.095903 -0.0052528917 0.017822662 -0.059734233 0.0023098283 -0.056631207 0.058828384 -0.060113646
00000000: eda0 ce3d 211c dfbb 0377 253d 453a 063d
00000010: 7d5c ad3d f2b4 553d 4da8 953c 96e0 ecbd
00000020: 66ec ddbd ddb2 323d 7dc6 6cbd 65d3 d03d
00000030: f92f b03d 7517 6dbd 9367 e93d 804a 7fbd
00000040: 34ef 5538 a40d ba3d 961c 8fbd 078e a3bc
00000050: 814d 773d da29 74bd b57e b7bd 0d51 9ebd
00000060: b8ee a53a d7f2 4f3d 2cac 0f3d aa6a e239
00000070: 9769 eebc 8174 46bd 9914 3bbc ec8a d73c
00000080: 55c6 e9bd 12d6 2a3c 0fa8 5aba 6e09 0e3d
00000090: 87fa 8dbd 5e5b 5bba d4e0 ac3b b5de 4dbd
000000a0: 7583 b0bd 3c38 a1bd f083 5e3a 92a2 73bd
000000b0: 5118 12bd 9a10 c8bd edb2 403d b530 7bbd
000000c0: 4dd7 723d 9fa1 e1bc 1186 923d 4b13 42bd
000000d0: b1e1 6cbd 0a11 c3bc a668 b43c f6aa d2bb
000000e0: cb68 c4bd 7320 acbb d500 923c e2ab 74bd
000000f0: 7d60 173b 20f6 67bd 08f6 703d ba39 76bd
