8_gym-PPO/results_seed/PPO_LunarLander-v3_1000-eps0.2-seed10.pth (torch, 44306 bytes, 11 tensors)

action_layer.0.weight f4 [64, 8]
0	0x3e362e93	0.17791204
1	0x3d5feb96	0.05466803
2	0xbd3c7a34	-0.04601498
3	0x3d1ae771	0.037818376
4	0xbee014b5	-0.43765798
5	0xbe3c5343	-0.18391137
6	0x3e824ddf	0.25450036
7	0x3edaee72	0.42760044
8	0xbce805a0	-0.028322995
9	0xbd954891	-0.072892316
10	0x3b8a15e0	0.0042140335
11	0xbde80852	-0.11329712
12	0x3ebdd0e1	0.37073424
13	0x3e9dab9f	0.30795
14	0x3e04168a	0.12899223
15	0x3e801c8f	0.25021788
16	0xbdd9b1e1	-0.10629631
17	0xbd3900be	-0.045166723
18	0xbcfd3c74	-0.030912615
19	0x3db1719d	0.08664248
20	0xbe92aee3	-0.28649053
21	0xbf27c0d5	-0.65528613
22	0xbea4da48	-0.32197785
23	0xbe5022f3	-0.20325832
24	0xbe5b72c0	-0.21430492
25	0xbeae8468	-0.34085393
26	0xbe3a9d71	-0.18224122
27	0xbf0f2089	-0.5590902
28	0xbeb647f1	-0.35601762
29	0xbcbe521f	-0.023232518
30	0x3ea02fc1	0.31286433
31	0x3e82c984	0.2554437
32	0x3df4ceba	0.119534925
33	0x3dbe06e7	0.0927866
34	0x3e1691ff	0.1470413
35	0xbecf2a47	-0.40461943
36	0x3eda9dff	0.42698666
37	0xbbb67812	-0.0055685127
38	0x3ec7dba2	0.39034754
39	0x3cd662ca	0.026170153
40	0x3e8c71a0	0.2743044
41	0x3e1284c4	0.14308459
42	0xbdd81d1f	-0.105524294
43	0xbe2a3595	-0.16622002
44	0x3d30420c	0.043031737
45	0x3ba4c956	0.005028884
46	0x3db65642	0.08903171
47	0x3d7e8560	0.062138915
48	0xbe24b859	-0.16085948
49	0x3dc407b6	0.09571783
50	0xbe3a0553	-0.18166094
51	0x3ed39d74	0.41331065
52	0xbec2fd8f	-0.38084075
53	0x3e04bab5	0.12961848
54	0xbc8d5d16	-0.0172563
55	0x3e8c208b	0.27368578
56	0x3cb00e16	0.021491092
57	0xbb8e0e83	-0.004335226
58	0x3e9b627a	0.3034857
59	0x3ef68e6a	0.48155528
60	0xbee38c5e	-0.4444303
61	0xbf1c534c	-0.610646
62	0x3d048870	0.03235668
63	0x3e471b18	0.19443929
64	0x3d9ee14c	0.07757816
65	0x3e5426c8	0.20717919
66	0x3e605545	0.21907528
67	0xbeac4b36	-0.3365113
68	0xbe48da1b	-0.1961445
69	0x3e6969d8	0.22794282
70	0x3e9c62e5	0.305442
71	0xbdea470c	-0.11439332
72	0x3c67c647	0.014146394
73	0x3e119d7b	0.1422023
74	0xbe8ce14e	-0.27515644
75	0xbe005b26	-0.1253477
76	0xbee39f06	-0.44457263
77	0xbc88e569	-0.016710954
78	0xbe038f86	-0.12847719
79	0x3df00451	0.11719573
80	0xbe1b4f44	-0.15166956
81	0xbc3e8127	-0.011627472
82	0x3bbd70df	0.0057812775
83	0xbe38dd0d	-0.18053074
84	0x3e2d8f76	0.16949257
85	0xbe8ce3d3	-0.27517566
86	0xbd4a6fae	-0.049422912
87	0x3e953c9d	0.29147807
88	0xbeae7211	-0.340714
89	0xbd92b1d8	-0.07162827
90	0xbe8b55c4	-0.2721387
91	0x3f052c05	0.52020293
92	0x3edb7ae0	0.42867184
93	0x3d9647b3	0.07337894
94	0xbe8c82ee	-0.2744364
95	0x3dc44a03	0.09584429
96	0xbe124c99	-0.14287032
97	0x3d2a2940	0.041543245
98	0xbe3d5663	-0.18489985
99	0xbe9cbac9	-0.30611256
100	0x3e844d72	0.25840336
101	0x3ec544b8	0.3852899
102	0x3e676a3b	0.22599117
103	0x3d6cc96c	0.05780928
104	0xbdb8c555	-0.09022013
105	0x3e79ae91	0.24382998
106	0x3e8ea2b2	0.27858502
107	0x3e1e33a9	0.15449394
108	0xbeba8330	-0.36428213
109	0xbe7ca2bb	-0.24671452
110	0x3e843604	0.2582246
111	0x3e2f0059	0.17089976
112	0x3e848f92	0.25890785
113	0xbe10f1e5	-0.14154775
114	0x3e535acc	0.20640105
115	0xbe8e4281	-0.27785113
116	0xbe81dac6	-0.25362223
117	0xbec5e12d	-0.38648358
118	0x3d55ec9d	0.052227605
119	0x3e6e892f	0.23294519
120	0x3e5871d9	0.2113718
121	0x3e1d6772	0.15371493
122	0xbee92f4a	-0.4554389
123	0xbdc404f9	-0.09571261
124	0x3eef6938	0.46759963
125	0x3d6cecaa	0.057842888
126	0xbed8de86	-0.42357272
127	0x3dd34056	0.103150055
128	0xbe2c8b4d	-0.16850014
129	0x3d0c5363	0.03425921
130	0x3d1c509a	0.038162805
131	0xbe2a3a92	-0.16623905
132	0xbe377774	-0.17916662
133	0xbe669a49	-0.22519793
134	0xbce2ea57	-0.027699633
135	0xbdf725b0	-0.12067735
136	0x3d92a33c	0.07160041
137	0x3e4060ae	0.1878688
138	0xbeb95598	-0.36198115
139	0xbeae2958	-0.34015918
140	0xbcb007d3	-0.021488106
141	0x3ec6a986	0.3880121
142	0x3e823ca2	0.25436884
143	0xbe8e8ebb	-0.2784327
144	0x3dc8008e	0.09765731
145	0x3d9eb682	0.07749654
146	0x3d98f193	0.074679516
147	0xbe498f72	-0.19683626
148	0xbe3839a7	-0.17990743
149	0xbf21c2d4	-0.6318791
150	0xbedbfc85	-0.42966095
151	0x3e530ac9	0.20609583
152	0xbe72e1d0	-0.23718953
153	0x3cc42818	0.0239449
154	0xbdb069c5	-0.08613924
155	0xbec8284f	-0.39093253
156	0x3ef38692	0.47563607
157	0x3f219039	0.6311069
158	0x3e4252a1	0.18976833
159	0xbd67446f	-0.056461748
160	0xbe78f824	-0.24313408
161	0xbe91d6a7	-0.2848408
162	0xbdb19f26	-0.08672933
163	0xbe31d29f	-0.17365502
164	0xbe2fefce	-0.17181322
165	0x3df9a65c	0.12189934
166	0xbe42b045	-0.19012554
167	0x3e1eec2a	0.15519777
168	0xbe968867	-0.29400942
169	0x3c2b8a80	0.010470033
170	0x3e140c0b	0.14457719
171	0x3f14b45c	0.58087707
172	0x3e45379d	0.19259496
173	0xbd4d5911	-0.05013377
174	0x3e918287	0.28419897
175	0xbee6a38b	-0.45046648
176	0x3e2c8fff	0.16851805
177	0xbe5ec1a6	-0.21753559
178	0x3e573f0f	0.21020149
179	0x3d078ba7	0.033092167
180	0xbd285711	-0.041098658
181	0xbe34d514	-0.17659408
182	0x3ec07c51	0.37594846
183	0x3e09bdc5	0.13451298
184	0xbe0f7599	-0.14009704
185	0xbd7f3c5c	-0.062313423
186	0x3df7c1d4	0.12097517
187	0x3e96fe7d	0.29491034
188	0x3f193023	0.59839076
189	0x3f2a3fb1	0.66503435
190	0x3e7f95f7	0.24959551
191	0xbda14af4	-0.07875624
192	0xbe8a36ec	-0.26995027
193	0xbe8ea7fd	-0.2786254
194	0x3e74c090	0.23901582
195	0xbf124876	-0.57141817
196	0x3d14c13f	0.036317106
197	0x3e6b530b	0.22980897
198	0xbe49ff52	-0.19726303
199	0xbe409512	-0.18806866
200	0xbe932c24	-0.28744614
201	0x3dd5d2ea	0.10440619
202	0x3ea1bdf3	0.31590232
203	0x3e9a6dce	0.301619
204	0xbc8b085f	-0.016971765
205	0xbcc7f2dd	-0.024407798
206	0x3e9e4758	0.30913806
207	0xbe588d11	-0.21147563
208	0xbe238003	-0.15966801
209	0x3da7a1e7	0.08185177
210	0x3edcf4d0	0.43155527
211	0xbe913c5f	-0.28366372
212	0xbf118a09	-0.5685125
213	0xbe0dfbf3	-0.13865642
214	0x3e44a4a2	0.19203427
215	0x3de25f2f	0.11053311
216	0x3dcd7e8a	0.10033901
217	0xbc207b52	-0.009795027
218	0xbeb425a9	-0.35184982
219	0x3d435061	0.047684077
220	0x3ec0600a	0.37573272
221	0x3e3e7238	0.18598258
222	0xbe8dd3cf	-0.2770066
223	0xbdc6a7f6	-0.09700005
224	0xbe57b057	-0.21063362
225	0xbe1e377f	-0.15450858
226	0x3dc526d3	0.09626546
227	0x3e48bdca	0.19603649
228	0x3f1f3ac1	0.62199026
229	0x3f195ccc	0.5990722
230	0xbe3b3cef	-0.18284963
231	0xbeb14cb2	-0.34628826
232	0x3d7af1c5	0.061265726
233	0x3de53205	0.11191181
234	0x3e6cc558	0.23122156
235	0x3eec52f8	0.4615705
236	0x3e177833	0.14791946
237	0x3e27027d	0.16309543
238	0x3c85d9c6	0.016339194
239	0x3d892ed2	0.066983834
240	0xbe762ede	-0.24041316
241	0x3e013776	0.12618813
242	0x3e745a97	0.23862682
243	0x3dc7e5bd	0.09760616
244	0xbe6dc070	-0.2321794
245	0xbc202c17	-0.009776137
246	0x3caa6834	0.020801641
247	0xbe7254e2	-0.23665193
248	0xbe5dfa6a	-0.21677557
249	0x3e201763	0.15633921
250	0xbea44b7f	-0.3208885
251	0xbdd81816	-0.10551469
252	0x3ed01108	0.40637994
253	0x3eafe8fb	0.34357437
254	0xbeeaf1da	-0.45887643
255	0x3e10ff28	0.14159834

action_layer.0.bias f4 [64]
0	0xbd78fe4b	-0.060789388
1	0xbd2ca4a7	-0.042149212
2	0x3e18e888	0.14932454
3	0x3e8022d3	0.2502657
4	0xbe2d0c16	-0.16899142
5	0x3d5a01d3	0.053224396
6	0xbe3b606f	-0.18298505
7	0x3dedad48	0.116053164
8	0xbe038b2a	-0.12846056
9	0xbe014282	-0.12623027
10	0xbd69a6a2	-0.05704368
11	0x3d829e5e	0.063778624
12	0xbdb42a87	-0.08797174
13	0xbe88eab7	-0.26741573
14	0x3d5335c3	0.051564943
15	0xbe6f6a50	-0.23380399
16	0xbe0225b3	-0.12709694
17	0x3e22a1c3	0.1588202
18	0xbd95c92f	-0.07313763
19	0xbe9ec09e	-0.3100633
20	0x3e9999ab	0.30000052
21	0x3e10253c	0.14076704
22	0x3e523521	0.2052808
23	0xbcc89f92	-0.024490152
24	0x3e648799	0.22317351
25	0xbd3e337f	-0.04643583
26	0x3e49bd50	0.19701123
27	0x3e178902	0.14798358
28	0x3e4c4bea	0.19950834
29	0x3c22bdca	0.009932945
30	0xbdf8690d	-0.12129412
31	0xbe571fe0	-0.21008253
32	0xbe143414	-0.14472991
33	0xbda42586	-0.080149695
34	0x3ceebc67	0.029142572
35	0xbe6fd74f	-0.23421977
36	0xbe8afa76	-0.27144212
37	0xbe3b860f	-0.18312858
38	0xbe09db92	-0.13462666
39	0xbeacc2e5	-0.33742443
40	0xbdbe77cd	-0.09300194
41	0xbda52f68	-0.08065683
42	0xbd9d344b	-0.0767599
43	0xbe8f24c9	-0.27957752
44	0xbe1bcd1e	-0.15214965
45	0xbc04286f	-0.008066281
46	0xbd8f96b7	-0.070111685
47	0x3d5f82e4	0.054568186
48	0xbe2cf422	-0.16890004
49	0xbe62fa1d	-0.22165723
50	0x3c9fe045	0.01951612
51	0x3c6222a8	0.013802208
52	0x3e8d910a	0.2764972
53	0xbe67c302	-0.22632983
54	0x3e4d8547	0.20070373
55	0xbdfcbfdc	-0.12341282
56	0xbe06beb4	-0.13158685
57	0x3d90743d	0.07053421
58	0xbd93f05b	-0.072235785
59	0x3dff998f	0.12480461
60	0x3d8367c2	0.064162746
61	0x3e17211c	0.14758724
62	0xbe569c0d	-0.20957966
63	0xbdd2bbf5	-0.10289756

action_layer.2.weight f4 [64, 64]
0	0xbae60c06	-0.0017551191
1	0xbcd7dacc	-0.026349448
2	0xbd8fc909	-0.07020766
3	0x3e02f77b	0.12789719
4	0x3dd45819	0.10368366
5	0x3cb129d0	0.021626383
6	0xbb6fe1a5	-0.0036603
7	0xbca91c6f	-0.020643441
8	0x3e0c1c53	0.1368268
9	0xbd7f80c2	-0.062378652
10	0x3d4c2cf2	0.04984755
11	0xbdbf9321	-0.093542345
12	0x3e058cdd	0.13042016
13	0x3d8cd209	0.068759985
14	0x3c8d389b	0.017238906
15	0xbd7b921e	-0.061418645
16	0x3d9e2000	0.07720947
17	0xbded5f0c	-0.115903944
18	0xbd9cc5d8	-0.07654923
19	0x3dc764bb	0.0973601
20	0xbcb3a527	-0.021929337
21	0x3d922077	0.071350984
22	0xbd8ff7ba	-0.07029672
23	0x3de1c48a	0.11023815
24	0xbb0534a6	-0.002032557
25	0x3e0a2266	0.13489684
26	0xbcd080b4	-0.025451995
27	0x3d70a862	0.058754332
28	0x3e20fb28	0.15720809
29	0xbdc00ff7	-0.09378045
30	0x3d85b1d5	0.065280594
31	0xbc312530	-0.010812089
32	0x3dc975bb	0.098369084
33	0x3d6be66c	0.057592794
34	0x3db7ce52	0.08974899
35	0x3cd083fc	0.02545356
36	0xbe0aa931	-0.13541104
37	0x3d612d27	0.0549747
38	0xbd97240a	-0.07379921
39	0x3d5c59c8	0.05379656
40	0x3de11d5b	0.10991927
41	0xbd339df3	-0.043851804
42	0xbde52f99	-0.11190719
43	0x3d9ad161	0.07559467
44	0xbdc9965e	-0.098431334
45	0x3db1a589	0.086741515
46	0x3e2922c2	0.16517165
47	0x3d8d1e55	0.06890551
48	0xbd8d8692	-0.06910433
49	0x3e11a857	0.14224373
50	0x3dd8087d	0.10548494
51	0xbe072b5d	-0.13200136
52	0x3dd964a8	0.10614902
53	0xbba2f962	-0.0049735764
54	0x3dd60921	0.1045096
55	0xbdcfbca2	-0.10143401
56	0x3d62cc5c	0.055370674
57	0xbd190976	-0.03736254
58	0x3d214e52	0.039381333
59	0x3d711d43	0.058865797
60	0xbd8e55af	-0.069499366
61	0x3cc9cd5e	0.02463406
62	0xbcc9977f	-0.024608372
63	0xbd67333b	-0.05644534
64	0xbdff1c3c	-0.12456557
65	0x3cf207c7	0.029544724
66	0xbc5c739c	-0.013455298
67	0x3d0fcce8	0.035107523
68	0x3e18343d	0.14863677
69	0xbd2cb526	-0.042164944
70	0xbe05fb4d	-0.13084145
71	0xbd908469	-0.07056505
72	0x3dd6dabe	0.104909405
73	0x3ddd8230	0.10815847
74	0x3db030a1	0.08603025
75	0xbe19aa4c	-0.1500637
76	0x3d8e3b85	0.06944946
77	0x3db96d40	0.09054041
78	0x3dd586a9	0.10426075
79	0x3e2d027b	0.16895477
80	0xbbd22ebf	-0.006414264
81	0xbd8704a3	-0.06592681
82	0xba69c8fc	-0.00089181936
83	0x3e227d58	0.15868127
84	0x3dbd2b4a	0.09236772
85	0xbd9d8d7b	-0.07693001
86	0x3dc8e9ce	0.0981022
87	0xbe2cfda0	-0.16893625
88	0x3e3a2311	0.1817744
89	0xbdf026f2	-0.11726178
90	0x3cc4f423	0.024042195
91	0xbd9441a9	-0.07239086
92	0xbdf41aca	-0.11919172
93	0x3c271f14	0.010200281
94	0x3b9ace98	0.004724335
95	0x3dc1b470	0.09458244
96	0x3d1418ce	0.036156468
97	0xbe1d405d	-0.15356584
98	0x3d1890d8	0.03724751
99	0xbc8331a1	-0.016014876
100	0x3da12e2a	0.07870133
101	0xbe2f5eee	-0.17126057
102	0xbe2cfa50	-0.16892362
103	0x3e7f62d3	0.24940042
104	0x3d902a37	0.07039302
105	0xbe00129f	-0.12507103
106	0xbd98ba14	-0.074573666
107	0x3da24cd8	0.07924813
108	0xbcba1d96	-0.022719186
109	0x3db8bebc	0.09020755
110	0x3e0287ab	0.12747066
111	0x3da819f8	0.08208078
112	0x3dca2ae8	0.09871465
113	0x3dc9a825	0.09846524
114	0xbde18e44	-0.11013463
115	0xbe370cbf	-0.17875956
116	0x3db919eb	0.090381466
117	0x3e80ab41	0.25130656
118	0xbc9facf0	-0.019491643
119	0xbdcb5ae4	-0.099294454
120	0x3ddaf963	0.10692098
121	0x3d312c12	0.04325492
122	0x3d7d4101	0.06182957
123	0xbd83750e	-0.06418811
124	0x3decb601	0.11558152
125	0x3d7d1841	0.06179071
126	0x3dda5c66	0.10662155
127	0x3c06b7aa	0.0082225
128	0x3da48939	0.08033986
129	0xbe292eef	-0.1652181
130	0x3b8a0a10	0.0042126253
131	0x3caa674c	0.020801209
132	0xbc00f2e1	-0.007870407
133	0x3d06959b	0.03285752
134	0x3d9a8f55	0.0754687
135	0xbda67bbb	-0.081290685
136	0x3dccfee6	0.100095555
137	0x3d128071	0.035767023
138	0xbdbba256	-0.091618225
139	0xbe7d4a3e	-0.24735352
140	0xbe21a559	-0.15785731
141	0xbd382302	-0.04495526
142	0x3e1a3c67	0.15062104
143	0x3df29b57	0.11846035
144	0x3d5d9bd6	0.054103695
145	0x3d83cfa6	0.0643609
146	0x3e8d921d	0.27650538
147	0xbc74757f	-0.014920591
148	0xbd724edd	-0.05915724
149	0xbe6f73ac	-0.23383969
150	0xbd318fa1	-0.043349866
151	0xbe70159b	-0.23445742
152	0xbc4ad4c3	-0.012379828
153	0xbd4079bc	-0.046991095
154	0x3c620002	0.013793947
155	0xbcb6d80c	-0.022319816
156	0xbe083878	-0.13302791
157	0xbe3288f7	-0.1743506
158	0x3d8c751d	0.06858275
159	0xbd8147bd	-0.06312511
160	0x3d67d5ee	0.056600504
161	0xbe08669b	-0.13320391
162	0xbde9c149	-0.11413819
163	0x3e17e968	0.14835131
164	0x3e89f191	0.26942113
165	0x3b263116	0.0025358847
166	0xbd0c3a50	-0.0342353
167	0x3dc23e33	0.0948452
168	0x3c935472	0.017984603
169	0x3da26882	0.079300895
170	0x3d4a841e	0.049442403
171	0x3e6a5d97	0.22887264
172	0x3e335a95	0.17515023
173	0x3de6b8c3	0.11265709
174	0xbdf5ea24	-0.120075494
175	0xbd26654c	-0.040623948
176	0x3e251299	0.16120376
177	0x3e267c89	0.16258444
178	0xbd37e158	-0.04489264
179	0xbcb32f50	-0.021873146
180	0xbbbc4a97	-0.0057461965
181	0x3eb79dc8	0.35862565
182	0x3dd7c9eb	0.1053656
183	0x3ac70096	0.001518267
184	0x3df7b51d	0.120950915
185	0x3dc16374	0.09442797
186	0x3e1372c0	0.14399242
187	0xbe2b8dc1	-0.16753294
188	0x3d080e8d	0.033217
189	0xbdd72350	-0.10504782
190	0x3de5c147	0.11218505
191	0x3db0c89d	0.08632014
192	0xbd76b12d	-0.06022756
193	0x3d535540	0.051594973
194	0x3bf11c08	0.007358078
195	0xbe2155f6	-0.15755448
196	0xbdd36333	-0.10321655
197	0x3d753eda	0.059874393
198	0x3c40ba33	0.011763143
199	0xbb01c491	-0.0019801
200	0xbe34bae7	-0.17649423
201	0xbe0627c1	-0.13101102
202	0xbd6e1056	-0.058121048
203	0x3e3dba9a	0.18528214
204	0x3c686c0f	0.014185919
205	0xbd86d990	-0.065844655
206	0xbe23a773	-0.15981846
207	0x3de0dc49	0.10979516
208	0x3dfa1d43	0.122126125
209	0xbd9a68b5	-0.075395025
210	0x3da76487	0.08173471
211	0xbd61fde2	-0.055173762
212	0x3d6f9ed3	0.058501076
213	0xbab921fa	-0.0014124506
214	0xbdf50b22	-0.11965014
215	0x3d6a2a07	0.057168987
216	0xbd3adb2d	-0.04561918
217	0xbd9142f6	-0.0709285
218	0xbdec4a80	-0.11537647
219	0x3dce343e	0.10068558
220	0x3e5ec39c	0.21754307
221	0xbd443a06	-0.047906898
222	0x3db16972	0.0866269
223	0x3e110710	0.1416285
224	0x3d11ce3e	0.03559708
225	0xbd68834e	-0.056765847
226	0x3e3088ac	0.17239636
227	0xbd87ca41	-0.06630374
228	0xbd3f0d1f	-0.046643373
229	0x3da63c3b	0.08116957
230	0xbd510c0f	-0.05103689
231	0xbd8bf73a	-0.06834264
232	0xbdc501a8	-0.096194565
233	0xbcca8616	-0.02472214
234	0x3d40de82	0.0470872
235	0xbd049e7d	-0.03237771
236	0x3c45f725	0.01208285
237	0xbd180890	-0.03711754
238	0x3e6036ea	0.21895948
239	0xbdb746ed	-0.08949075
240	0x3e1c431a	0.15259972
241	0xbe08c4ab	-0.13356273
242	0x3dee415a	0.116335586
243	0xbe67efbe	-0.22650048
244	0xbd0c907f	-0.03431749
245	0x3d615aac	0.055018112
246	0xbe2fcc3b	-0.17167751
247	0xbdf5679f	-0.11982655
248	0x3b553ca5	0.0032537368
249	0xbdb450d8	-0.08804482
250	0xbe3706aa	-0.17873636
251	0x3e4796a5	0.1949106
252	0x3c96d0e0	0.018410146
253	0x3da6af91	0.081389554
254	0x3d5c23cb	0.053745072
255	0xbdd7eb25	-0.10542897

action_layer.2.bias f4 [64]
0	0xbd4f3b46	-0.050593637
1	0xbd04a44c	-0.03238325
2	0x3d284ec2	0.041090734
3	0xbb4d5424	-0.003133067
4	0xbd8c1382	-0.06839658
5	0xbd1a4b83	-0.03766967
6	0x3d395d45	0.045254964
7	0xbd8d35d5	-0.06895033
8	0x3d956147	0.07293945
9	0x3d9b07f7	0.075698785
10	0x3ba9ad30	0.0051781163
11	0xbdc10fb0	-0.0942682
12	0xbbe94fb6	-0.007120098
13	0x3dc27137	0.0949425
14	0x3e0012d3	0.12507181
15	0x3cfd928d	0.03095367
16	0xbcd39781	-0.025829079
17	0xbd396656	-0.04526361
18	0xbd0bf87c	-0.03417252
19	0x3d895ebf	0.067075245
20	0x3d22313c	0.039597735
21	0x3dadee47	0.084927134
22	0x3e150261	0.14551689
23	0x3d2e5acd	0.042567063
24	0xbc675b80	-0.014120936
25	0x3dd945d2	0.1060902
26	0x3bbb5ef6	0.0057181073
27	0x3d5d7fb4	0.054076865
28	0x3cfa49ad	0.03055271
29	0xbdc6cc82	-0.097069755
30	0x3d95d7cd	0.07316551
31	0xbddf538e	-0.10904609
32	0xb9f8cc0f	-0.00047454282
33	0xbc888358	-0.016664192
34	0xbdb5e1f3	-0.08880987
35	0x3d7e4868	0.06208077
36	0x3cb6a249	0.02229418
37	0x3d5c3d43	0.05376936
38	0x3d0f51aa	0.03498999
39	0xbd310c7d	-0.0432248
40	0xbdbe9907	-0.093065314
41	0x3d9234a6	0.07138948
42	0x3cca29c8	0.024678126
43	0xbdbf47db	-0.09339877
44	0x3cce05db	0.025149276
45	0xbde7ae21	-0.11312509
46	0x3b8dd146	0.004327926
47	0x3d36c09f	0.04461729
48	0xbe012c69	-0.12614597
49	0xbb9540a8	-0.0045548268
50	0xbde55333	-0.111975096
51	0x3c023b47	0.007948703
52	0x3d285e68	0.041105658
53	0xbd776ad4	-0.060404614
54	0xbd93e4ca	-0.072213724
55	0xbd0bf7ad	-0.03417175
56	0x3d87e944	0.06636289
57	0x3d95fb9f	0.073233835
58	0xbc80ced3	-0.015723621
59	0x3d673c86	0.056454204
60	0xbca589e9	-0.020207362
61	0xbd87f975	-0.06639377
62	0x3ca985a4	0.020693608
63	0x3d56c5e1	0.052434806

action_layer.4.weight f4 [4, 64]
0	0x3dc38c55	0.095482506
1	0xbcb7fc7a	-0.022459257
2	0xbcedab13	-0.029012239
3	0xbddecbcb	-0.10878714
4	0x3ae8514a	0.0017724421
5	0xbbcc9c47	-0.0062442156
6	0x3ced1b53	0.028943693
7	0xbd81c9fb	-0.06337353
8	0x3dc05fed	0.093932964
9	0xbc56b700	-0.013105154
10	0x3df1da3f	0.11809205
11	0xbdee52d6	-0.116368935
12	0xbe22f378	-0.15913188
13	0xbe11907d	-0.14215274
14	0x3cfbc3bc	0.030732982
15	0x3dec99b1	0.11552752
16	0x3ca15dff	0.019698141
17	0x3d825f45	0.063658275
18	0x3c825914	0.015911616
19	0xbc6e5259	-0.014546
20	0x3dbd6de0	0.092494726
21	0xbdb8ce86	-0.09023766
22	0x3e409b06	0.18809137
23	0xbe092c5a	-0.13395825
24	0x3e1720ec	0.14758652
25	0xbdc82d11	-0.09774221
26	0x3dc0bcb4	0.09410992
27	0x3dbb67c2	0.091506496
28	0x3d50fe3a	0.0510237
29	0xbd22987c	-0.0396962
30	0xbdb64409	-0.088996954
31	0x3d7176ed	0.058951307
32	0x3d9f3422	0.077736154
33	0x3d9f035b	0.07764312
34	0x3d429808	0.04750827
35	0x3c9969bd	0.018727178
36	0x3a6b1512	0.00089676783
37	0x3dfaa4ac	0.1223844
38	0xbd8ddd47	-0.06926971
39	0xbc27a126	-0.010231292
40	0x3d631f38	0.055449694
41	0xbd85c0c1	-0.065309055
42	0x3c067389	0.008206257
43	0xbe123d0d	-0.14281102
44	0x3e364814	0.17800933
45	0x3caf1926	0.021374296
46	0x3d9002c2	0.07031776
47	0xbdad9dd3	-0.08477368
48	0x3e15e4b5	0.14638026
49	0xbd6d504a	-0.057937898
50	0x3c9b524a	0.018960137
51	0xbb75e3ba	-0.0037519769
52	0x3de746be	0.1129279
53	0x3dcdf426	0.10056333
54	0xbc999d7e	-0.018751856
55	0x3de80808	0.11329657
56	0x3d953b82	0.07286741
57	0x3cce8f51	0.025214823
58	0xbd90de39	-0.070736356
59	0xbd52acf7	-0.051434483
60	0x3e1f30a7	0.15545903
61	0xbe04c558	-0.12965906
62	0xbe0752a6	-0.13215122
63	0xbddbba42	-0.10728885
64	0xbd73e335	-0.059542853
65	0xbd06161a	-0.03273592
66	0x3deed8cf	0.11662447
67	0xbde82c5f	-0.11336588
68	0xbe946e7a	-0.28990537
69	0xbd0870a4	-0.033310547
70	0xbcb2abb6	-0.021810394
71	0xbc8b51b9	-0.017006742
72	0xbd3db887	-0.046318557
73	0xbdf3f8cd	-0.11912689
74	0x3d63d4f2	0.055623002
75	0x3d102f25	0.03520121
76	0xbc1d7fcd	-0.00961299
77	0x3d3ab9de	0.045587413
78	0x3e02e3b9	0.12782182
79	0x3e43625c	0.1908049
80	0x3ca35039	0.019935714
81	0x3d96ef12	0.07369818
82	0x3c0a551a	0.008443141
83	0x3c9a316b	0.018822392
84	0xbdaf96bd	-0.08573673
85	0xbbe60426	-0.0070195375
86	0xbe0a5f64	-0.13512951
87	0x3d803b95	0.06261364
88	0x3d1b6b62	0.037944205
89	0x3de62bcd	0.11238823
90	0x3c7c3974	0.015394557
91	0x3dbfe2bb	0.09369417
92	0x3e2b1123	0.16705756
93	0xbdc85a99	-0.09782905
94	0xbac02674	-0.0014659897
95	0x3d1b0142	0.037842996
96	0x3e26808a	0.16259971
97	0xbdd52f72	-0.1040944
98	0x3df4d43b	0.11954542
99	0xbd872b96	-0.0660011
100	0x3dbb7e3e	0.09154938
101	0x3d19b84c	0.037529275
102	0x3cd6bd0c	0.026213191
103	0xbc06c8a3	-0.008226546
104	0x3d927661	0.07151485
105	0x3d8551f1	0.0650977
106	0xbe2c4f6b	-0.1682717
107	0xbe2f32a8	-0.17109168
108	0xbe1bb41d	-0.15205427
109	0xbca802c9	-0.02050914
110	0x3d5bdbb6	0.05367633
111	0x3e03c0d4	0.12866527
112	0x3d266f92	0.040633745
113	0xbe295831	-0.16537549
114	0xbd211ef3	-0.039336156
115	0x3de1c9b4	0.110248
116	0x3dda00a5	0.10644654
117	0x3e151daf	0.14562105
118	0xbd92d7f7	-0.07170098
119	0x3d89f320	0.067358255
120	0xbc73a4fd	-0.014870879
121	0x3d929d80	0.07158947
122	0xbd7e8254	-0.06213601
123	0xbd19e43e	-0.037571184
124	0x3d31f29f	0.043444272
125	0xbdacb466	-0.08432846
126	0xbdd94416	-0.106086895
127	0xbd2d347e	-0.04228639
128	0x3d71f53d	0.059071768
129	0x3de53904	0.111925155
130	0x3e4bbd72	0.19896486
131	0xbdc80fd9	-0.09768648
132	0x3e4437a4	0.1916185
133	0xbd4428de	-0.047890536
134	0xbd671f18	-0.056426138
135	0xbd7f5315	-0.062335093
136	0xbe52b968	-0.2057854
137	0x3e425c4e	0.18980524
138	0xbd1845b4	-0.03717585
139	0x3ca60ddf	0.020270286
140	0xbe157b62	-0.14597848
141	0xbdbd7e2d	-0.09252582
142	0x3de126c4	0.10993722
143	0xbda52e58	-0.0806548
144	0xbdac0f27	-0.084013276
145	0x3e2eba0f	0.17063163
146	0x3c6e1f9c	0.014533903
147	0x3d31de37	0.04342481
148	0x3de99d8b	0.11407002
149	0xbe82edf4	-0.2557217
150	0xbe465ece	-0.19372103
151	0x3daa8be6	0.08327465
152	0x3d920169	0.07129175
153	0xbd643cec	-0.055722162
154	0xbe73f565	-0.2382408
155	0x3d853e02	0.06505968
156	0xbe18c2e6	-0.14918098
157	0x3e56a31d	0.2096066
158	0x3e44f305	0.1923333
159	0xbd9a6858	-0.07539433
160	0xbe22bbb1	-0.15891911
161	0x3c44b5ac	0.012006205
162	0xbe034539	-0.12819375
163	0x3d980bea	0.074241474
164	0x3de61c21	0.11235834
165	0xbdf96843	-0.121780895
166	0x3d711043	0.0588534
167	0x3c8b84d6	0.017031115
168	0xbe1992fd	-0.14997478
169	0xbce19613	-0.027537381
170	0xbd02b116	-0.031907164
171	0x3dbb1f05	0.09136776
172	0xbdfad30d	-0.12247286
173	0xbe0e29c5	-0.13883121
174	0xbd06ea5a	-0.03293834
175	0x3e235889	0.15951742
176	0xbe09df2c	-0.1346404
177	0x3d0a082f	0.03369921
178	0x3cfb413a	0.03067075
179	0xbc29971b	-0.010350968
180	0xbd89d74c	-0.06730518
181	0xbe3d7504	-0.18501669
182	0x3d0d6970	0.03452438
183	0xbe5ee5cb	-0.21767347
184	0xbc91d37e	-0.017801043
185	0xbe095207	-0.13410197
186	0x3e269e85	0.16271408
187	0xbd8bb062	-0.06820752
188	0xbe74c98a	-0.23905006
189	0x3de85128	0.11343604
190	0xbc5d478c	-0.013505828
191	0x3e3f600b	0.18688981
192	0x3cc43cc8	0.023954764
193	0xbb78b711	-0.0037950913
194	0xbd95915f	-0.07303118
195	0x3e3bf6ee	0.18355915
196	0x3e371c86	0.17881975
197	0xbccc07cd	-0.024906063
198	0x3de387e5	0.11109904
199	0x3c6f7e83	0.014617565
200	0x3e25cd1b	0.16191523
201	0xbe46be1c	-0.19408458
202	0x3d0c225e	0.034212463
203	0x3d0a8f45	0.03382804
204	0x3e0288dc	0.1274752
205	0x3e2b8058	0.16748178
206	0xbe468cbe	-0.19389626
207	0xbdb82773	-0.08991899
208	0x3e4afbc3	0.19822602
209	0xbe688400	-0.22706604
210	0xbc8a39d0	-0.01687327
211	0xbb23ce90	-0.0024994947
212	0x3b92d64f	0.004481114
213	0x3d638a80	0.055552006
214	0x3e94a5dc	0.2903279
215	0x3daa9d65	0.08330802
216	0xbc3f7743	-0.011686149
217	0x3e14ba14	0.14524108
218	0x3d2ad631	0.041708175
219	0x3deb9685	0.11503319
220	0x3dd0ad56	0.10189311
221	0xbe5cf4cf	-0.21577762
222	0x3dae19ad	0.08500991
223	0x3dba91a5	0.09109811
224	0xbdc9febf	-0.09863042
225	0x3e6b1d52	0.22960404
226	0x3d78eba0	0.060771585
227	0xbd8b6d22	-0.06807925
228	0x3da992c5	0.08279947
229	0x3d598e6f	0.05311435
230	0x3da093f1	0.078407176
231	0xbc9fd83a	-0.019512285
232	0x3e2deb84	0.16984373
233	0x3df14c4d	0.11782131
234	0x3e816896	0.25275105
235	0x3e3a5f2b	0.18200366
236	0x3e6890a2	0.22711423
237	0xbe1b0510	-0.1513865
238	0xbde683c0	-0.11255598
239	0xbe1b2c0c	-0.15153521
240	0xbd03e737	-0.032202926
241	0x3e6fa41b	0.23402445
242	0xbdd3a074	-0.103333384
243	0x3e3882ed	0.18018694
244	0x3be67cf8	0.0070339404
245	0xbdec1aeb	-0.11528572
246	0x3e2de244	0.16980845
247	0x3e2d12ec	0.1690175
248	0xbcdfc479	-0.027315365
249	0xbcf93ba7	-0.030423952
250	0xbb840149	-0.0040284735
251	0xbc408b27	-0.0117519265
252	0x3e1b39e1	0.15158798
253	0xbdb9d51a	-0.09073849
254	0xbb31278c	-0.0027031628
255	0xbafa0f8d	-0.0019078121

action_layer.4.bias f4 [4]
0	0xbe00af30	-0.12566829
1	0x3dd0e22f	0.10199391
2	0x3d048353	0.032351803
3	0x3da73fc0	0.08166456

value_layer.0.weight f4 [64, 8]
0	0xbdcc2ff0	-0.09970081
1	0xbe41a6e8	-0.18911326
2	0xbd9b5a4e	-0.075855836
3	0x3ea40048	0.32031465
4	0x3e9f6392	0.31130654
5	0x3e5adcb5	0.21373256
6	0xbe846de4	-0.2586509
7	0xbe5be5b0	-0.21474338
8	0x3e2a1cb4	0.16612512
9	0x3e9280e7	0.2861397
10	0x3ea627d6	0.32452267
11	0x3e84e25d	0.2595395
12	0xbe2b2a7a	-0.16715422
13	0xbdbc857b	-0.09205147
14	0xbe805a3c	-0.25068843
15	0xbe061937	-0.13095556
16	0xbdead341	-0.11466075
17	0xbe81299f	-0.25227067
18	0x3d72fede	0.05932509
19	0xbe4e7292	-0.20160893
20	0x3df9405b	0.12170478
21	0xbd16a8ac	-0.03678195
22	0xbce823f6	-0.02833746
23	0x3c215ec6	0.009849256
24	0x3e0c5670	0.13704848
25	0x3ddfd779	0.1092977
26	0x3e8eec62	0.2791472
27	0x3e96dde9	0.2946618
28	0xbe5e79c8	-0.21726143
29	0x3e6d2002	0.23156741
30	0xbe0a2a74	-0.13492757
31	0xbe8b41a3	-0.27198514
32	0xbd82198b	-0.06352528
33	0x3e961209	0.29310635
34	0x3daceea3	0.08443954
35	0x3e259d92	0.1617339
36	0x3dccca24	0.09999493
37	0x3d9831dc	0.07431385
38	0x3e8e4852	0.2778955
39	0xbd959ec1	-0.073056705
40	0x3e80c282	0.25148398
41	0x3da72db9	0.08163018
42	0x3d508e84	0.050917163
43	0xbe99daae	-0.30049652
44	0xbe6c30bc	-0.23065466
45	0x3e4a92c0	0.19782543
46	0x3e00fba7	0.12595998
47	0xbe02e24a	-0.12781635
48	0xbeacd0d8	-0.33753085
49	0x3e855db1	0.26048043
50	0x3dd77ee3	0.105222486
51	0xbe252fa9	-0.16131462
52	0xbe7d7622	-0.24752095
53	0xbe5a522a	-0.21320406
54	0xba21436c	-0.0006151709
55	0x3daa4a43	0.083149455
56	0xbe423b28	-0.18967879
57	0xbdccd267	-0.100010686
58	0xbe1bd4fc	-0.15217966
59	0xbeac6df8	-0.3367765
60	0xbe0a574c	-0.13509864
61	0x3e1b3077	0.15155207
62	0x3db4760c	0.08811578
63	0xbe38c3a5	-0.18043382
64	0xbd6fdb2b	-0.058558624
65	0x3e5cfd1b	0.21580927
66	0x3cc38fcd	0.02387228
67	0xbd6465c0	-0.0557611
68	0xbd1580ce	-0.03649979
69	0x3e6d17e4	0.23153645
70	0x3cbab4d0	0.022791296
71	0xbe9f8391	-0.31155065
72	0xbcf07b37	-0.029355628
73	0x3ea2366b	0.31682143
74	0x3e102527	0.14076672
75	0xbdb4353a	-0.08799215
76	0x3d4efe47	0.050535467
77	0x3e85173e	0.25994295
78	0xbe934606	-0.2876436
79	0xbe54e3d2	-0.20790032
80	0x3c14510a	0.009052524
81	0xbdae029f	-0.08496594
82	0x3e2aeef4	0.16692716
83	0x3e8ebaed	0.27876988
84	0xbdbb28b8	-0.09138626
85	0xbd854f1c	-0.065092295
86	0xbc973485	-0.01845766
87	0xbea93c3f	-0.33053777
88	0x3d7ec6f4	0.062201455
89	0x3e383a04	0.17990881
90	0x3d226d97	0.039655294
91	0xbda24b10	-0.07924473
92	0xbdb94b5b	-0.09047576
93	0x3cb1c338	0.021699533
94	0xbda77c63	-0.08178022
95	0x3d85f0cc	0.06540069
96	0x3e6d0327	0.23145734
97	0x3d229ee8	0.039702326
98	0xbd88c03d	-0.066772915
99	0xbe5c4d92	-0.21513966
100	0xbeb6969d	-0.35661784
101	0x3e41181f	0.18856858
102	0x3d3000fc	0.04296969
103	0xbe7f5c87	-0.2493764
104	0xbe863feb	-0.2622064
105	0xbe25c916	-0.1618999
106	0xbd9b23e5	-0.07575206
107	0x3e382c03	0.17985539
108	0x3db62703	0.0889416
109	0xbe2ed9a3	-0.1707521
110	0x3c5bb4d0	0.013409808
111	0x3d969457	0.07352512
112	0xbe554125	-0.20825632
113	0xbd54892a	-0.051888622
114	0xbe4a2c80	-0.19743538
115	0x3e176920	0.14786196
116	0xbe15f7da	-0.14645329
117	0x3e1e29de	0.15445659
118	0x3e7c2f95	0.24627526
119	0x3e1f089b	0.15530626
120	0xbe06fbcb	-0.13181989
121	0x3e88a89e	0.26691145
122	0xbe7b6906	-0.24551782
123	0x3e987763	0.29778585
124	0x3e43f295	0.19135506
125	0x3e437cb9	0.19090547
126	0x3c369891	0.011144773
127	0xbd9a54e2	-0.07535721
128	0xbe1634a2	-0.14668515
129	0xbd6b97d2	-0.057517834
130	0xbd22626c	-0.039644644
131	0x3ea4fac3	0.32222566
132	0x3e4d4454	0.20045596
133	0x3e1298f2	0.14316157
134	0x3e9896d6	0.2980258
135	0x3e1e8eae	0.15484115
136	0x3cc64d52	0.024206791
137	0xbd31f53e	-0.04344677
138	0x3e8ef9c0	0.2792492
139	0xbe43c45a	-0.19117871
140	0x3e2efc79	0.17088498
141	0xbdc7c561	-0.09754444
142	0xbd9e3987	-0.07725816
143	0xbe016696	-0.1263679
144	0xbeb113c1	-0.34585384
145	0x3e93ca3d	0.28865233
146	0x3e88f03d	0.26745787
147	0x3e83e5ee	0.2576136
148	0xbe80da51	-0.25166562
149	0xbe74a469	-0.23890842
150	0x3e2fdfce	0.17175218
151	0xbea730ea	-0.32654506
152	0x3d962c62	0.07332684
153	0x3e79ce38	0.24395072
154	0x3dd690eb	0.1047686
155	0xbba48f12	-0.005021938
156	0x3e124597	0.14284359
157	0x3e118606	0.14211282
158	0xbdba91ea	-0.09109862
159	0xbe89d453	-0.26919803
160	0xbdd31a13	-0.10307708
161	0x3d7b933a	0.061419703
162	0xbe04428a	-0.12916008
163	0xbd5cc0f2	-0.053894944
164	0x3e2b09ad	0.1670291
165	0x3c302840	0.010751784
166	0xbec0237d	-0.37527075
167	0xbdc256ad	-0.09489188
168	0xbe9f62dc	-0.3113011
169	0x3e779e55	0.24181493
170	0xbd1bb4d6	-0.038014255
171	0xbc0503ea	-0.008118609
172	0xbcf0424c	-0.029328488
173	0xbdb8b29b	-0.09018441
174	0x3c74de01	0.014945508
175	0xbe2021e1	-0.15637924
176	0xbe983f3b	-0.2973574
177	0xbe92bfaf	-0.28661868
178	0xbcb415b6	-0.021983009
179	0x3eb05b9e	0.34444898
180	0xbe7bc6ef	-0.24587606
181	0x3e96b97b	0.29438385
182	0x3e80b8ff	0.2514114
183	0x3e303796	0.17208704
184	0xbeb0a4aa	-0.3450063
185	0xbe85fa34	-0.26167452
186	0xbe63c4ac	-0.22242993
187	0xbd6a0e7c	-0.05714272
188	0xbe82989e	-0.25507063
189	0x3e9715d7	0.2950885
190	0x3e9bb61a	0.3041237
191	0xbe804ebf	-0.25060079
192	0x3df07dff	0.11742782
193	0x3e00621a	0.12537423
194	0xbd1adbd2	-0.037807293
195	0x3ded84d3	0.115976
196	0xbdd896e2	-0.105756536
197	0xbe74c0a3	-0.2390161
198	0xbe40e484	-0.18837172
199	0x3ea09171	0.31360963
200	0x3e655358	0.22395074
201	0xbd86fea3	-0.06591537
202	0xbe6abb85	-0.22923096
203	0xbe6b4a63	-0.22977595
204	0xbdb382f2	-0.0876521
205	0x3e55e482	0.2088795
206	0xbe3eb6ba	-0.18624392
207	0xbe2d5a56	-0.16928992
208	0x3dad611a	0.08465786
209	0x3ccc629f	0.02494937
210	0x3c4f1788	0.012639888
211	0xbeb20fc6	-0.3477766
212	0x3d89b04e	0.067230806
213	0xbddbd878	-0.107346475
214	0x3e1c5131	0.15265347
215	0xbe578562	-0.21046975
216	0x3de56176	0.1120023
217	0xbea993fc	-0.33120716
218	0xbe8353b5	-0.256498
219	0x3e9eee5b	0.31041226
220	0x3e2b27ea	0.16714445
221	0xbe6e5514	-0.23274642
222	0xbd57025d	-0.05249249
223	0x3e95172e	0.29119247
224	0x3e80e710	0.25176287
225	0x3e897fb0	0.2685523
226	0x3ea56f6c	0.3231157
227	0x3e95667a	0.29179746
228	0x3e253ab8	0.1613568
229	0x3ea2c2af	0.31789157
230	0x3ea55022	0.322877
231	0x3d2ab3e8	0.04167548
232	0xbeac4506	-0.3364641
233	0xbe675146	-0.22589597
234	0x3d979053	0.074005745
235	0xbe7337f9	-0.2375182
236	0x3ddd6625	0.10810498
237	0xbe1ed3fd	-0.15510555
238	0x3e3bbfad	0.18334837
239	0xbea124ee	-0.31473488
240	0xbd848be6	-0.06471996
241	0xbe48cf15	-0.19610246
242	0xbe042815	-0.12905915
243	0x3e744be9	0.23857082
244	0xbe92e506	-0.28690356
245	0x3e7d8275	0.24756797
246	0xbea40ca5	-0.32040897
247	0xbe1a3bf1	-0.15061928
248	0xbe9b4c12	-0.30331475
249	0xbd481b34	-0.048854068
250	0xbe31380c	-0.17306536
251	0x3e83ff14	0.25780547
252	0x3e01ff38	0.12695014
253	0xbe97ebc4	-0.29672062
254	0xbe30cc05	-0.17265327
255	0xbdc6479d	-0.09681628

value_layer.0.bias f4 [64]
0	0x3e72c5f0	0.2370832
1	0xbe7a0dd7	-0.24419342
2	0x3e9c5cc6	0.3053953
3	0x3e7421ae	0.23840973
4	0x3e089cc9	0.13341059
5	0x3e317a8e	0.17331907
6	0xbd91af40	-0.071135044
7	0x3ea4ff47	0.3222601
8	0xbe3151cb	-0.17316358
9	0xbdfb8835	-0.12281839
10	0x3e24dd6a	0.16100088
11	0x3e5fe1fe	0.21863553
12	0x3d8cb903	0.06871226
13	0xbe1c8a9e	-0.15287253
14	0xbe47a7ea	-0.19497648
15	0xbeb48242	-0.3525563
16	0x3ea38202	0.31935126
17	0xbe46e4aa	-0.19423166
18	0x3e635a10	0.22202325
19	0xbea62e94	-0.3245741
20	0x3e3c4578	0.18385875
21	0x3d07df22	0.03317178
22	0x3e47f1f5	0.19525893
23	0x3e12c6a1	0.14333583
24	0xbe73e7cc	-0.23818892
25	0x3e112234	0.14173204
26	0x3cfdd99f	0.030987559
27	0x3d09e0dd	0.033661712
28	0xbd39c981	-0.045358185
29	0x3e91ac8e	0.2845196
30	0x3e3ccc1d	0.18437238
31	0x3b9da7f4	0.0048112813
32	0x3b86893b	0.0041057146
33	0xbe83921d	-0.25697413
34	0xbea7deaa	-0.32787067
35	0x3dc7faf0	0.097646594
36	0xbe6f65f1	-0.23378731
37	0xbe563b52	-0.20921066
38	0x3e86feb8	0.2636621
39	0x3e825e92	0.25462776
40	0xbd77a9e5	-0.06046476
41	0xbe8217e7	-0.2540886
42	0xbd573e00	-0.052549362
43	0xbe9cad9c	-0.30601203
44	0xbe47785e	-0.1947951
45	0x3eafa611	0.34306386
46	0x3e8abfa8	0.27099347
47	0x3e984f12	0.29747826
48	0x3e787fbf	0.24267481
49	0xbcc741cb	-0.024323365
50	0x3e349a03	0.17636876
51	0xbdb6fdf8	-0.089351594
52	0xbe923298	-0.28554225
53	0xbe875a41	-0.26436046
54	0x3e929001	0.2862549
55	0x3e3caa1d	0.18424268
56	0x3e2f03b7	0.17091261
57	0x3eae9fae	0.341062
58	0xbe53a703	-0.20669179
59	0xbe5dff53	-0.2167943
60	0x3d97f8a3	0.074204706
61	0xbd31a2e7	-0.043368246
62	0xbd86cd19	-0.06582088
63	0xbe9fd06c	-0.312137

value_layer.2.weight f4 [64, 64]
0	0xbc17fd62	-0.00927672
1	0x3d2e5845	0.04256465
2	0x3d314ea9	0.043287907
3	0x3dafeb6e	0.085898265
4	0xbdb1b537	-0.08677142
5	0xbdf2fcdd	-0.11864636
6	0xbd092a61	-0.03348768
7	0x3db344d0	0.08753359
8	0x3d23b8d2	0.03997118
9	0x3de2cb71	0.110739596
10	0xbce44ed9	-0.027869629
11	0x3ddf0612	0.1088983
12	0xbde674e1	-0.11252762
13	0x3d945c74	0.072441965
14	0x3d9b7ead	0.07592521
15	0x3dc6c4c3	0.09705498
16	0xbce1f8da	-0.027584482
17	0x3dde004e	0.10839902
18	0x3df77b1e	0.120840296
19	0x3c2fb421	0.010724098
20	0x3d63a53a	0.055577494
21	0xbdf4a429	-0.119453736
22	0x3ddf22f9	0.108953424
23	0x3de19dbc	0.110164136
24	0x3dedbad2	0.11607899
25	0xbc132a21	-0.008982212
26	0x3db91297	0.09036749
27	0xbdf1be3f	-0.11803865
28	0x3d77e078	0.060516804
29	0xbd38974b	-0.04506616
30	0x3d5e9b81	0.05434752
31	0xbd09a5f8	-0.033605546
32	0xbbbf6e67	-0.0058420184
33	0x3dd76189	0.1051665
34	0x3cb31384	0.021859892
35	0xbca10d2a	-0.019659597
36	0xbd9f1857	-0.07768314
37	0x3d2bc865	0.041939158
38	0xbdb87faf	-0.09008729
39	0xbcc78bf1	-0.024358721
40	0xbde27e1d	-0.110592104
41	0xbd6d8823	-0.05799116
42	0xbc55b6ef	-0.013044103
43	0x3c8cd0d8	0.017189428
44	0x3d490fdf	0.0490874
45	0xbd20ee8e	-0.039290003
46	0x3dacc72c	0.084364265
47	0xbd4bc205	-0.04974558
48	0x3d45c76f	0.048285898
49	0x3dc95622	0.09830882
50	0xbded9ce3	-0.116021894
51	0x3d77a33e	0.060458414
52	0x3dc82a02	0.09773637
53	0x3c0efcbc	0.008727249
54	0xbd3a4c70	-0.045483053
55	0xbd812dd7	-0.063075714
56	0xbd8ecf66	-0.06973152
57	0x3db410e5	0.08792285
58	0xbdbf1892	-0.09330858
59	0xbd9dcf8f	-0.07705604
60	0x3d3825ba	0.044957854
61	0x3da98823	0.08277919
62	0xbd08ceb0	-0.033400238
63	0x3ddb715e	0.107149825
64	0xbd9b5e12	-0.07586302
65	0x3dd7c164	0.10534933
66	0x3d076fb6	0.03306552
67	0xbcdb1268	-0.026742175
68	0x3dcd086c	0.10011372
69	0xbdb49bf5	-0.08818809
70	0x3da41192	0.08011164
71	0x3dd6508b	0.10464581
72	0xbd41119e	-0.04713594
73	0x3dee57cc	0.1163784
74	0xbccc2776	-0.02492116
75	0x3df80cf0	0.12111843
76	0xbc85bd3a	-0.016325582
77	0x3dccaffa	0.09994502
78	0x3de6953c	0.11258933
79	0xbd861741	-0.06547404
80	0xbc1e9bbd	-0.009680686
81	0xbdc2ff9e	-0.09521411
82	0x3d8d884c	0.06910762
83	0xbdc4ca36	-0.09608881
84	0x3d43468d	0.047674704
85	0xbd4c3dff	-0.04986381
86	0x3db59698	0.08866614
87	0x3d7decb5	0.06199332
88	0xbc51dba2	-0.012808712
89	0x3cb0276f	0.021503178
90	0xbde2d771	-0.110762484
91	0xbd28d186	-0.041215442
92	0x3dc15e72	0.09441842
93	0xbd81f55f	-0.06345629
94	0xbd919cfd	-0.07110021
95	0xbd60f447	-0.05492046
96	0x3b846078	0.0040398203
97	0x3ca60d89	0.020270126
98	0x3d778307	0.06042769
99	0xbdfcbd41	-0.12340785
100	0xbcaebb77	-0.021329625
101	0x3d444ddd	0.04792582
102	0x3dfd7976	0.123766825
103	0xbd259b65	-0.0404314
104	0xbdf1b4de	-0.11802076
105	0x3d8a6c0f	0.06758892
106	0xbd0df5ed	-0.03465836
107	0xbd7f7211	-0.06236464
108	0x3dbc6645	0.09199194
109	0x3ce63314	0.028100528
110	0xbcb762e5	-0.022386024
111	0xbdd1edce	-0.10250436
112	0xbcd60403	-0.02612496
113	0xbdb1aa5a	-0.0867507
114	0xbc7a8a84	-0.015291814
115	0x3e00f40d	0.12593098
116	0xbd290142	-0.041260965
117	0x3db912ce	0.0903679
118	0x3d0dca0e	0.034616522
119	0xbd83e63c	-0.06440398
120	0x3dc899b3	0.09794941
121	0xbda549a5	-0.08070687
122	0xbd8e4b31	-0.069479354
123	0xbdf5d92c	-0.12004313
124	0xbd5ea7cd	-0.054359246
125	0xbc52e400	-0.012871742
126	0xbc3d0d1b	-0.011538769
127	0x3c1a045b	0.0094004525
128	0xbddd46df	-0.10804533
129	0x3a8d155c	0.0010763812
130	0xbd2fac8b	-0.04288916
131	0x3d938439	0.07202954
132	0xbbb589f5	-0.0055401274
133	0x3d65076a	0.055915274
134	0xbcf7b2ef	-0.03023669
135	0xba4ff193	-0.00079324207
136	0xbc97f010	-0.018547088
137	0x3d02ba74	0.031916097
138	0xbddec43c	-0.108772725
139	0x3c9eb9fc	0.019375794
140	0x3cba6399	0.02275257
141	0xbde6d23e	-0.11270569
142	0xbdb1767e	-0.08665179
143	0x3cc186ea	0.023623902
144	0xbc2f1689	-0.010686525
145	0x3c7ddf84	0.015495185
146	0xbd44b7bd	-0.04802679
147	0x3d9fb5e4	0.07798365
148	0xbdeb03eb	-0.11475357
149	0xb92d9be8	-0.00016556645
150	0x3d0fb13a	0.035081126
151	0xbd9867c9	-0.074416704
152	0x3d59070e	0.052985243
153	0xbcfd0e44	-0.030890591
154	0x3c1b1bd8	0.009467088
155	0xbe004f4b	-0.12530248
156	0xbdeaf38c	-0.11472234
157	0xbbfa02ad	-0.0076297135
158	0x3c724425	0.014786755
159	0xbd8b5308	-0.06802946
160	0xbdbf0bd9	-0.09328432
161	0x3dbe567e	0.09293841
162	0xbdd9f7c1	-0.106429584
163	0xbddd2b0c	-0.10799226
164	0x3d453fd3	0.04815657
165	0x3ba6d7b1	0.0050916304
166	0xbceb058e	-0.028689172
167	0xbdf09b12	-0.11748327
168	0xbd018d29	-0.03162876
169	0x3ac07d4e	0.0014685781
170	0xbd544af2	-0.051829286
171	0x3d11bd19	0.03558073
172	0xbd7aedfe	-0.061262123
173	0xbd2cf852	-0.042229004
174	0x3d622161	0.055207614
175	0x3da4360e	0.080181226
176	0xbdd6b124	-0.10483006
177	0x3da08adf	0.078389876
178	0x3d8fe1b6	0.07025473
179	0xbc71b38e	-0.014752282
180	0x3c854889	0.016269939
181	0xbda32120	-0.079653025
182	0xbd9c6ce7	-0.07637959
183	0x3dbe2f6f	0.09286391
184	0x3d832a38	0.06404537
185	0xbd3ff7b7	-0.0468671
186	0x3db82dbd	0.08993099
187	0x3c9eb2ba	0.019372333
188	0xbd346ebf	-0.04405093
189	0x3d06cf8a	0.03291277
190	0xbddd949f	-0.10819363
191	0x3d70a916	0.058755003
192	0x3d47c089	0.0487676
193	0x3d2b7ac5	0.04186513
194	0x3c50a724	0.012735162
195	0x3dd44228	0.10364181
196	0xbd516640	-0.051122904
197	0x3d850f1c	0.064970225
198	0x3dbeda0d	0.09318934
199	0xbdd6e867	-0.10493546
200	0x3db3579a	0.08756943
201	0xbdee7022	-0.116424814
202	0xbd237f33	-0.03991623
203	0xbc0a565a	-0.008443439
204	0x3da2c7ab	0.0794824
205	0x3d20a5de	0.039220683
206	0x3c7d0e8e	0.015445365
207	0x3c5dc85b	0.013536538
208	0x3daf3a88	0.08556086
209	0xbce85213	-0.028359449
210	0xbdd2c105	-0.10290722
211	0xbc7074da	-0.014676297
212	0x3dda9f0e	0.106748685
213	0xbd62bfd6	-0.05535873
214	0x3d82c6d2	0.06385578
215	0x3de93690	0.1138736
216	0x3dc21b0c	0.09477815
217	0xbdacf1fa	-0.08444591
218	0x3ba9b369	0.005178858
219	0xbd3797cc	-0.0448225
220	0x3e01890a	0.12649933
221	0x3da2a0ca	0.07940824
222	0xbdd8e292	-0.1059009
223	0x3dd88dd0	0.105739236
224	0xbdd55d58	-0.104181945
225	0x3d4df678	0.05028388
226	0x3cc038d2	0.023464594
227	0xbc85dbe4	-0.016340204
228	0x3d8fcbc7	0.07021289
229	0x3c66a66b	0.014077763
230	0x3de0b7e9	0.10972578
231	0xbc9b61d9	-0.018967556
232	0xbde95eb7	-0.113950185
233	0xbc55d107	-0.013050324
234	0x3d979802	0.0740204
235	0x3c282579	0.01026284
236	0x3d4276a1	0.047476415
237	0x3c99bc1e	0.01876646
238	0x3d324ec7	0.04353216
239	0xbd3c7c1b	-0.046016794
240	0xbd139b63	-0.03603686
241	0xbd5923a6	-0.053012513
242	0x3d0ce35d	0.034396518
243	0x3d651798	0.055930704
244	0x3d9eec2f	0.07759892
245	0x3c045083	0.008075836
246	0x3d914efe	0.07095145
247	0xbd99c388	-0.07507998
248	0xbcceb99b	-0.025234988
249	0xbdc2c9d9	-0.09511156
250	0x3d8aacba	0.06771226
251	0x3d649e7f	0.055815216
252	0xbd678013	-0.056518625
253	0xbc626c2a	-0.013819734
254	0x3decf589	0.115702696
255	0xbd8df9fd	-0.06932447

value_layer.2.bias f4 [64]
0	0x3d5dd7e1	0.054160956
1	0xbdfa753d	-0.12229393
2	0xbde912c6	-0.11380534
3	0xbc4da1e0	-0.012550801
4	0xbd67783e	-0.056511156
5	0x3d914e72	0.070950404
6	0x3d8d51ec	0.06900391
7	0xbdb3e392	-0.0878364
8	0x3dcc4325	0.09973744
9	0x3d9322f0	0.07184398
10	0x3dc5dcfe	0.096612915
11	0xbd927cde	-0.07152723
12	0x3d0cf509	0.03441337
13	0xbda08bd4	-0.0783917
14	0x3debdd80	0.11516857
15	0xbd904cae	-0.070458755
16	0x3dafc889	0.08583171
17	0x3d057815	0.032585222
18	0x3dcf0383	0.10108092
19	0x3db55b46	0.088553
20	0x3d252dd6	0.040326916
21	0xbd68848e	-0.05676704
22	0x3ca40320	0.020021021
23	0xbce0c16a	-0.027435977
24	0x3ddfbcf4	0.10924712
25	0x3cf5bac2	0.02999628
26	0x397ecdaf	0.00024299951
27	0x3cdb2bff	0.026754377
28	0x3df077c5	0.11741594
29	0xbdc46cd4	-0.0959107
30	0xbc6d23c0	-0.0144738555
31	0x3a9143c1	0.0011082814
32	0x3b0e4e8f	0.0021714305
33	0x3dd284fb	0.1027927
34	0xbdcd1f68	-0.10015756
35	0xbd62e5e8	-0.055395037
36	0xbdd80d71	-0.10549439
37	0x3ba1f465	0.004942464
38	0x3be217a1	0.0068997894
39	0xbde80486	-0.11328988
40	0x3c7c31a5	0.015392696
41	0xbd79b62b	-0.060964745
42	0x3d82af28	0.06381065
43	0xbdbdffd6	-0.092773125
44	0xbdd49c8c	-0.103814214
45	0xbd740e2d	-0.05958383
46	0x3d6b9eb1	0.057524387
47	0x3d4878c6	0.048943304
48	0x3d83c6d0	0.06434405
49	0xbd082a5d	-0.033243526
50	0xbc8c34e4	-0.017115064
51	0xbd66f653	-0.056387257
52	0xbd013e37	-0.031553473
53	0xbda686da	-0.0813119
54	0xbcd09e24	-0.025466032
55	0x3dba14d7	0.09086006
56	0xbdb185ae	-0.086680755
57	0x3d4f2249	0.050569806
58	0xbc85701c	-0.01628881
59	0xbbbf55eb	-0.0058390996
60	0x3dc22554	0.09479776
61	0xbcacae7f	-0.0210793
62	0xbdec21e2	-0.115299
63	0xbdac5d8a	-0.08416279

value_layer.4.weight f4 [1, 64]
0	0xbdb66c0d	-0.08907328
1	0x3d9c5977	0.076342516
2	0xbd9538ca	-0.07286222
3	0xbda85d7b	-0.08220955
4	0x3d27a854	0.040932015
5	0xbc814e4c	-0.015784405
6	0xbbc441ff	-0.0059893127
7	0x3daa9ec7	0.083310656
8	0xbb9846b7	-0.0046471017
9	0xbc0c7bf6	-0.008574476
10	0xbca95b42	-0.020673398
11	0x3dd64581	0.104624756
12	0xbc90eb06	-0.017690193
13	0x3ca19f9d	0.01972943
14	0x3d73a24e	0.059480958
15	0x3d59a100	0.053132057
16	0x3cf8a107	0.030350221
17	0x3ceec538	0.029146776
18	0xbd3f1752	-0.0466531
19	0xbd5387e0	-0.051643252
20	0x3a696102	0.00089027
21	0x3d2698eb	0.040673178
22	0xbd62f23e	-0.0554068
23	0xba1243d8	-0.00055795675
24	0xbc478f24	-0.0121801235
25	0x3d1ae573	0.037816476
26	0x3cfc11c7	0.030770196
27	0xbaa5dbdb	-0.0012654023
28	0x3bfd4b7c	0.0077299457
29	0xbd96bf13	-0.07360663
30	0xbdb526a4	-0.08845261
31	0xbd4570fd	-0.048203457
32	0x3dc4a4ed	0.096017696
33	0x3d2f019c	0.042726144
34	0xb947aeff	-0.0001904331
35	0xbc8a7e70	-0.016905993
36	0x3c6407ad	0.013917846
37	0xbdb2f7d2	-0.08738674
38	0x3d18f574	0.037343457
39	0x3d6a1b9d	0.05715524
40	0xbd7b0be5	-0.06129064
41	0x3d1030cd	0.03520279
42	0x3d84e83c	0.06489608
43	0x3c9ea43c	0.019365422
44	0x3db21542	0.08695461
45	0xbd369481	-0.044575218
46	0x3d0bfc00	0.034175873
47	0xbd414400	-0.04718399
48	0x3d571670	0.052511632
49	0xbd3e86f2	-0.046515413
50	0x3da1e47c	0.07904908
51	0xbd1a9a48	-0.03774479
52	0xbc8ab057	-0.016929789
53	0x3db4f42b	0.08835634
54	0xbce282ee	-0.027650323
55	0x3dc2f6f5	0.095197596
56	0xbd2bf53f	-0.04198193
57	0x3d3cc238	0.04608366
58	0xbda1e81d	-0.079056
59	0x3da75339	0.0817017
60	0x3dc31a7b	0.09526535
61	0xbdabb705	-0.083845176
62	0x3c376c0e	0.011195196
63	0x3d917980	0.071032524
