project/experiments/SoftActorCritic/Hockey/runs/TE_1_2025-02-22_16-08-17/models/policy_net.pth (torch, 223586 bytes, 12 tensors)

fc1.0.weight f4 [256, 18]
0	0x3f22859c	0.6348512
1	0x3f01a10b	0.5063636
2	0xbe4e9ec2	-0.20177749
3	0x3ca3d09f	0.01999694
4	0x3ddc142f	0.10746037
5	0xbd6a473e	-0.057196848
6	0x3f226be5	0.63445884
7	0x3eb68706	0.3564989
8	0x3f353d91	0.7079707
9	0xbd3f0144	-0.046632066
10	0x3e31b224	0.17353112
11	0xbbf3d776	-0.0074414564
12	0xbec54bcb	-0.38534388
13	0xbeaf7912	-0.34272057
14	0x3d89d933	0.067308806
15	0xbcbcf5ae	-0.023066368
16	0xbf060916	-0.52357614
17	0xbec51672	-0.38493687
18	0x3f1e03c0	0.6172447
19	0x3f0e463e	0.5557593
20	0xbde4f88c	-0.11180219
21	0xbb2f43fa	-0.0026743398
22	0x3e2b4dbb	0.1672887
23	0xbd950e52	-0.07278122
24	0x3e37cbb1	0.17948796
25	0xbf7108d7	-0.94154114
26	0xbc8e10e2	-0.017342035
27	0xbe1fef6f	-0.1561868
28	0xbcfca196	-0.030838769
29	0xbe1fb645	-0.15596874
30	0xbf32f43c	-0.6990392
31	0xbef4050b	-0.47660097
32	0xbde77b5d	-0.113028266
33	0xbe35f547	-0.17769347
34	0xbf8b957b	-1.0904993
35	0xbe03ff84	-0.1289044
36	0x3edcf849	0.43158177
37	0xbec12486	-0.37723178
38	0xbfa46045	-1.2841879
39	0x3d804e05	0.06264881
40	0xba69deb7	-0.0008921432
41	0xbc57e056	-0.013176044
42	0xbd69420e	-0.05694776
43	0x3eef6862	0.46759325
44	0xbe868e48	-0.26280427
45	0xbd211e07	-0.039335277
46	0xbe14de31	-0.14537884
47	0x3e2a0a35	0.16605456
48	0x3f218153	0.6308796
49	0xbdf8aa80	-0.12141895
50	0x3dfb0693	0.12257113
51	0x3e1ae508	0.15126431
52	0x3ee5c7ba	0.44878942
53	0xbeeeeaa8	-0.46663404
54	0x3e2a8e47	0.16655837
55	0x3ea7ee54	0.32799017
56	0xbf7ea1d5	-0.99465686
57	0xbe0a540c	-0.13508624
58	0xbd683e76	-0.056700192
59	0x3d121af0	0.03567022
60	0xbe8b0b1a	-0.27156907
61	0x3f438022	0.7636739
62	0x3f8db35e	1.1070364
63	0xbc193707	-0.009351498
64	0xbe2097f0	-0.1568296
65	0x3e6d5efb	0.23180763
66	0x3f2c984d	0.6741989
67	0x3d169bf2	0.036769815
68	0x3dbf3383	0.09335997
69	0x3d84e809	0.0648957
70	0x3eb42b4c	0.35189283
71	0xbd24ca9e	-0.040232293
72	0x3f35456d	0.7080906
73	0xbe54c105	-0.20776756
74	0x3f373ec8	0.7158017
75	0x3ddd3b9a	0.10802384
76	0xbe05af69	-0.13055195
77	0xbdac8b8d	-0.08425055
78	0xbf2f654f	-0.6851396
79	0xbf6632ec	-0.8992145
80	0xbf4d1169	-0.8010469
81	0xbda6b09f	-0.081391566
82	0xbd058837	-0.032600608
83	0xb8d3f2c6	-0.00010106484
84	0x3e7eb8e6	0.2487522
85	0x3ed40aed	0.41414586
86	0x3c1a1d81	0.009406448
87	0x3d31c66b	0.043402117
88	0xbcd6c627	-0.026217533
89	0x3d1a67fb	0.03769682
90	0x3e9e8ae9	0.30965355
91	0x3feb38e0	1.8376732
92	0xbeb193d4	-0.34683096
93	0xbe2520f8	-0.16125858
94	0x3e3dd02e	0.18536445
95	0xbd234751	-0.039862934
96	0xbe486165	-0.19568403
97	0x3f3464c7	0.70466274
98	0xbe903f56	-0.2817332
99	0x3e30fcd6	0.1728395
100	0x3e85163e	0.25993532
101	0xbeaf9744	-0.34295094
102	0xbe130326	-0.1435667
103	0x3c9d4ef7	0.019202692
104	0x3c32afbb	0.010906155
105	0x3e2ee54f	0.17079662
106	0x3d2a973f	0.041648146
107	0xbefdbda5	-0.4955875
108	0xbea9e949	-0.33185795
109	0x3ee9dd4f	0.45676658
110	0x3e223594	0.15840751
111	0xbe081eb4	-0.13292962
112	0x3ab9d41e	0.0014177596
113	0x3d74446c	0.059635565
114	0xbdab7d89	-0.08373553
115	0xbf42b529	-0.7605768
116	0xc04ccc29	-3.199961
117	0x3c82750c	0.015924953
118	0x3ed83f38	0.42235732
119	0xbdbde8e2	-0.092729345
120	0x3be5e032	0.0070152516
121	0xbbc41552	-0.005983987
122	0x3d281798	0.041038126
123	0xbe46a22c	-0.19397801
124	0xbefc9fad	-0.49340573
125	0xbd071bc5	-0.032985467
126	0xbde37814	-0.111068875
127	0xbd9c1c03	-0.0762253
128	0xbfb367e5	-1.4016081
129	0xbe1df814	-0.15426666
130	0xbc8a8ee3	-0.016913837
131	0xbcb2ffcc	-0.02185049
132	0xbde47e97	-0.111569576
133	0x3fae3bc2	1.3611987
134	0x3f0c7576	0.5486673
135	0x3dddb939	0.10826344
136	0xbea89c44	-0.3293172
137	0x3bb88760	0.0056313723
138	0xbe5eb918	-0.21750295
139	0xbe74eecd	-0.2391922
140	0x3d2c7735	0.042105872
141	0xbcffb1a6	-0.031212639
142	0xbe8119fc	-0.25215137
143	0x3d8f2e15	0.06991211
144	0x3e2931f9	0.1652297
145	0xbfdc0be0	-1.7191124
146	0xbe5ebf34	-0.21752626
147	0xbdbcad1a	-0.09212704
148	0x3dad4ad3	0.08461537
149	0xbd063322	-0.032763608
150	0xbe45a448	-0.1930095
151	0x3e1ba094	0.15197974
152	0xbe0296de	-0.12752864
153	0x3cf54022	0.029937807
154	0xbe65c33c	-0.22437757
155	0xbe75e1e8	-0.24011958
156	0xbe8b018c	-0.27149618
157	0xbe4af6ea	-0.19820753
158	0xbc2c8472	-0.010529624
159	0x3ded6a2a	0.11592515
160	0x3cab0825	0.020877907
161	0xbe75b941	-0.2399645
162	0x3fc27418	1.5191679
163	0xbed81c00	-0.42208862
164	0x3d5e3191	0.05424649
165	0x3d328c4d	0.043590833
166	0xbdf4bc45	-0.11949972
167	0xbd94c90e	-0.07264911
168	0xbdffd570	-0.12491882
169	0x3f8c0095	1.0937678
170	0x3f341cec	0.7035663
171	0xbcac633e	-0.021043416
172	0xbe929be0	-0.28634548
173	0x3d3561c1	0.04428268
174	0xbecf873b	-0.4053286
175	0x3f2065e8	0.62655497
176	0x3ca42085	0.020035038
177	0xbb8b67ee	-0.0042543327
178	0x3df55c8c	0.119805425
179	0xbf0b25d2	-0.54354584
180	0xbc9bc1f3	-0.01901338
181	0x3fb8a512	1.4425375
182	0xbec16c2e	-0.37777847
183	0xbd24a4c4	-0.040196195
184	0xbe6f5abb	-0.23374455
185	0x3e041aaf	0.12900804
186	0x3d1758fd	0.0369501
187	0xbfa8c845	-1.3186117
188	0xbedacf62	-0.42736346
189	0x3e02e13c	0.12781233
190	0xbf4269f0	-0.759429
191	0xbd9a6fd4	-0.07540861
192	0xbd31e82b	-0.043434303
193	0xbef07ef7	-0.46971866
194	0x3ca58d88	0.020209089
195	0x3cb0c63f	0.021578906
196	0xbf350603	-0.707123
197	0xbeae9cc6	-0.34103984
198	0x3ed110fb	0.40833268
199	0x3f416216	0.7554029
200	0x3e660964	0.2246452
201	0xbda22b61	-0.0791843
202	0x3dcc7460	0.09983134
203	0x3e065a9f	0.13120507
204	0xbbd5fcff	-0.0065304036
205	0x3f21d472	0.6321479
206	0x3ed5e284	0.4177438
207	0x3da10292	0.078618184
208	0xbda878ef	-0.08226191
209	0xbe554a81	-0.20829202
210	0xbd244263	-0.040102374
211	0xbc89d5ba	-0.016825546
212	0x3cdddeac	0.027083717
213	0xbd950ab1	-0.0727743
214	0x3e77be17	0.24193607
215	0xbf0090f2	-0.5022117
216	0x3edc775e	0.4305982
217	0x3e59a728	0.21255171
218	0xbecc4fab	-0.39904532
219	0x3ddb3c98	0.10704917
220	0x3dd5eaa3	0.10445144
221	0xbc91f472	-0.017816756
222	0x3de40844	0.11134389
223	0x3ef31f92	0.47485024
224	0xbd275873	-0.040855836
225	0xbb4ae393	-0.0030958399
226	0xbe19e3ed	-0.15028353
227	0xbd549714	-0.05190189
228	0x3e667437	0.2250527
229	0xbf79ee03	-0.976288
230	0x3deb5629	0.11491043
231	0xbe96f92e	-0.29486984
232	0x3def018b	0.11670216
233	0xbee54948	-0.44782472
234	0x3ff60935	1.922156
235	0x3f692a15	0.9107984
236	0x3e1d10bd	0.15338416
237	0x3e1ec2fc	0.15504068
238	0xbdc6c324	-0.09705189
239	0x3d8e9eda	0.06963892
240	0x3c16273e	0.0091646295
241	0x3de42e9d	0.11141703
242	0xbe982524	-0.29715836
243	0xbd89cf71	-0.067290194
244	0xbe067762	-0.13131478
245	0xbd85b6ed	-0.06529031
246	0x3f504775	0.81359035
247	0x3e19604a	0.14978138
248	0xbcedbef5	-0.02902172
249	0x3de559fc	0.11198804
250	0x3e21558f	0.15755294
251	0xbda03511	-0.078226216
252	0xbdc6fc53	-0.09716096
253	0xbecb9ba0	-0.3976717
254	0xbef7dc2b	-0.48410162
255	0x3d56004a	0.05224637

fc1.0.bias f4 [256]
0	0x3f35ad5b	0.70967644
1	0xbdaa5285	-0.083165206
2	0xbf262ed4	-0.64915204
3	0xbf29b6e7	-0.6629471
4	0x3f9fdc19	1.2489043
5	0xbf94bb62	-1.1619685
6	0xbf04539f	-0.51690096
7	0xbdc1016e	-0.09424101
8	0xbf0bc191	-0.54592234
9	0x3e9e2710	0.30889177
10	0xbea2ba1a	-0.3178261
11	0xbded2bde	-0.115806326
12	0xbf6756af	-0.90366644
13	0x3d0844cb	0.03326873
14	0xbf17de85	-0.5932391
15	0x3d8983ba	0.06714578
16	0xbe104f9a	-0.14092866
17	0xbf3e9c5a	-0.74457324
18	0xbed9c174	-0.42530406
19	0xbd0f92ef	-0.035052236
20	0xbf221ccc	-0.6332519
21	0xbea21ef8	-0.31664252
22	0xbf5139ad	-0.8172863
23	0xbd1f2c8c	-0.038860843
24	0xbf8691e5	-1.0513273
25	0xbe7471cc	-0.23871535
26	0xbe2107fa	-0.15725699
27	0x3ea267e5	0.3171989
28	0xbf2a8f47	-0.66624874
29	0x3e5e0731	0.21682431
30	0xbf98bfa7	-1.1933488
31	0xbdd6c9c3	-0.10487702
32	0xbefb068d	-0.49028435
33	0xbf6836e9	-0.90708786
34	0xbf0be7ce	-0.5465058
35	0x3c1a80a3	0.009430083
36	0xbf8db3ef	-1.1070536
37	0xbf3047d3	-0.68859595
38	0x3e48c404	0.19606024
39	0xbf8bf7b9	-1.0934974
40	0xbe72f972	-0.23727968
41	0xbf2dd5fa	-0.6790463
42	0xbf6c25f1	-0.92245394
43	0x3e67ef2f	0.22649835
44	0x3e168d02	0.14702228
45	0xbe1449e4	-0.14481312
46	0x3bd96358	0.006634157
47	0xbd0f22da	-0.034945346
48	0xbf325e0e	-0.69674766
49	0xbf11307c	-0.56714606
50	0xbf4db6f1	-0.8035727
51	0x3f9ca3a5	1.223744
52	0xbe97898d	-0.2959713
53	0xbf64b3b8	-0.8933673
54	0xbe2cba9a	-0.16868058
55	0xbe8226a9	-0.2542012
56	0xbf4ab66c	-0.79184604
57	0xbf0aa55d	-0.54158574
58	0xbfac8dbb	-1.3480753
59	0x3f0c92a9	0.54911286
60	0xbf0230e5	-0.5085586
61	0xb618d580	-2.2774038e-06
62	0xbd738070	-0.05944866
63	0x3e7f308c	0.24920863
64	0xbf718d20	-0.94355965
65	0x3f4f1162	0.808859
66	0xbe88c751	-0.26714566
67	0xbf1dd552	-0.61653626
68	0x3de8c32a	0.113653496
69	0xbe2f807c	-0.17138857
70	0xbeeb843e	-0.4599933
71	0xbf291798	-0.66051626
72	0x3ee5a243	0.44850358
73	0xbf371f19	-0.71531826
74	0x3f95395b	1.1658128
75	0x3e52c699	0.20583571
76	0xbf2907e4	-0.66027665
77	0xbf7f5465	-0.9973815
78	0xbf43493d	-0.7628363
79	0xbf0c05a5	-0.5469611
80	0xbdae8ce0	-0.085229635
81	0xbda10c49	-0.07863671
82	0xbda3d466	-0.07999496
83	0xbe863652	-0.26213318
84	0xbeb8cf0f	-0.36095473
85	0x3e2c49f6	0.16825089
86	0x3de8cfcd	0.1136776
87	0xbe9b0a1d	-0.30281153
88	0x3eeed25a	0.4664486
89	0xbe09f9e2	-0.13474229
90	0xbf4e1780	-0.8050461
91	0xbe87ee7b	-0.26549134
92	0x3f39089c	0.7227876
93	0x3f004b31	0.50114733
94	0x3f313b56	0.69231164
95	0x3fa0c8af	1.2561244
96	0x3f83726b	1.0269293
97	0xbed0402a	-0.40673953
98	0xbf92a01f	-1.1455115
99	0x3e245244	0.16047007
100	0x3f10937d	0.5647505
101	0xbf01efa2	-0.50756276
102	0xbfb5dfec	-1.420896
103	0xbf217a06	-0.6307682
104	0xbdb9e661	-0.090771444
105	0xbdd50f5b	-0.104033194
106	0x3d84b69b	0.06480142
107	0xbea33a0e	-0.3188023
108	0xbeb245eb	-0.34818968
109	0xbf2be114	-0.67140317
110	0xbf0d5e2a	-0.5522181
111	0x3f015558	0.5052085
112	0x3eaf2085	0.34204498
113	0xbe117641	-0.14205267
114	0x3f63d407	0.88995403
115	0xbedb8e7a	-0.42882138
116	0x3eeb805f	0.45996377
117	0xbd644754	-0.055732086
118	0x3e7a85ef	0.24465154
119	0x3da0a68d	0.07844267
120	0x3f02e899	0.51136166
121	0xbddc691d	-0.10762236
122	0xbed2a525	-0.4114162
123	0xbed7daa2	-0.4215899
124	0xbf0d4d1f	-0.551958
125	0xbfa3b295	-1.2788874
126	0xbf29397e	-0.6610335
127	0x3f00c8b1	0.5030623
128	0xbf761920	-0.9613209
129	0xbf13a843	-0.5767862
130	0xbd911ac7	-0.070851855
131	0xbce25668	-0.027629092
132	0x3e4913d2	0.19636467
133	0xbdc6ca17	-0.09706514
134	0x3f48b5ad	0.78402215
135	0x3ddfe83b	0.10932966
136	0x3e2cbef0	0.16869712
137	0xbf0c929f	-0.54911226
138	0xbf5d34c3	-0.86408633
139	0x3f99667f	1.1984404
140	0x3eb79f78	0.35863853
141	0x3ee66d54	0.45005286
142	0xbe026c2e	-0.1273658
143	0xbe28f903	-0.1650124
144	0xbe8508da	-0.25983316
145	0x3c3b3ff4	0.011428822
146	0xbe48aa60	-0.19596243
147	0xbda81a99	-0.08208198
148	0xbf02edba	-0.5114399
149	0xbed21ea3	-0.41039
150	0xbee26339	-0.44216326
151	0x3d31c6d9	0.043402527
152	0xbd962aaf	-0.0733236
153	0xbdc4861f	-0.09595894
154	0x3e9c9d64	0.3058883
155	0xbe76ee3c	-0.24114317
156	0xbef4da5e	-0.4782285
157	0xbf098d0b	-0.5373084
158	0xbe0acb96	-0.13554224
159	0xbfaa03e3	-1.3282436
160	0x3e15e39e	0.1463761
161	0xbf490a10	-0.7853098
162	0xbf2f22f9	-0.6841274
163	0xbea206b1	-0.3164573
164	0xbecf707b	-0.40515503
165	0xbed6b7de	-0.41937155
166	0xbee54be9	-0.44784477
167	0x3f289c25	0.6586326
168	0xbe753784	-0.23946959
169	0xbd23db22	-0.040003903
170	0x3e0c0f7d	0.13677783
171	0xbf9da50f	-1.2315997
172	0xbf0daea7	-0.55344623
173	0xbe8615e7	-0.26188585
174	0x3eac3c88	0.33639932
175	0xbe932519	-0.2873924
176	0xbe357449	-0.1772014
177	0xbf880527	-1.0626572
178	0x3e9c9848	0.3058493
179	0x3c908622	0.017642085
180	0xbef833cc	-0.48477018
181	0xbf05fe9f	-0.52341646
182	0xbde5d2ee	-0.11221872
183	0xbf92d1dd	-1.1470295
184	0x3e20a934	0.15689546
185	0xbd7ba2de	-0.06143462
186	0xbe4508f7	-0.19241701
187	0x3dea5c2a	0.1144336
188	0xbf7139ce	-0.9422883
189	0x3e547648	0.20748246
190	0xbde097e7	-0.10966473
191	0xbf1d4bd3	-0.61443824
192	0x3d1934dd	0.03740393
193	0xbf891a38	-1.0711126
194	0xbf2c9c1f	-0.6742572
195	0xbf07d912	-0.530656
196	0xbd08bc5f	-0.03338277
197	0xbe45d4aa	-0.19319406
198	0xbf6f995f	-0.935934
199	0xbe48e017	-0.19616733
200	0xbf9db47e	-1.2320707
201	0xbea2af7e	-0.31774515
202	0xbf078d93	-0.529504
203	0xbf5484ad	-0.8301495
204	0xbf05d042	-0.522709
205	0xbf7491b7	-0.95534843
206	0xbf4b02eb	-0.7930133
207	0xbd0b941b	-0.03407679
208	0x3d7d0dd2	0.06178076
209	0xbf93b7ac	-1.1540427
210	0xbdce6d9b	-0.10079499
211	0xbdc9ae72	-0.09847726
212	0x3f090103	0.5351717
213	0x3ea57ed1	0.32323316
214	0xbe983812	-0.29730278
215	0xbf4747f3	-0.7784416
216	0xbf77024e	-0.9648789
217	0x3e30b776	0.17257485
218	0xbe7cd964	-0.24692303
219	0xbf0b78f8	-0.5448146
220	0xbf4f1e25	-0.8090537
221	0xbf32d0e9	-0.6985002
222	0xbef432d7	-0.47695038
223	0x3f0cb0c8	0.54957247
224	0xbfc69f19	-1.5517303
225	0xbdc6024f	-0.09668409
226	0x3e7aac2c	0.24479741
227	0xbeb46039	-0.35229662
228	0xbef6d005	-0.4820558
229	0xbfb96f7c	-1.4487147
230	0xbd988855	-0.07447878
231	0xbf061bd3	-0.52386206
232	0xbf34661c	-0.70468307
233	0xbd67d61e	-0.056600682
234	0x3e277e00	0.16356659
235	0x3eca637b	0.39529023
236	0xbf7944b7	-0.97370476
237	0xbf75ffe4	-0.96093583
238	0xbf264738	-0.6495242
239	0xbf349a56	-0.70548
240	0xbefd668e	-0.49492306
241	0x3f0dc3fc	0.55377173
242	0xbef426c3	-0.47685823
243	0xbfb6e3a3	-1.4288219
244	0x3f243330	0.64140606
245	0xbf028887	-0.50989574
246	0xbf6cf7c0	-0.92565536
247	0xbee44a13	-0.44587764
248	0x3f59564f	0.8489732
249	0xbf6212c6	-0.88309896
250	0xbea6ac42	-0.32553297
251	0xbfc35437	-1.5260075
252	0xbf0f9b1c	-0.56096053
253	0x3dc0a192	0.09405817
254	0x3ceb846a	0.028749663
255	0x3d0d83be	0.034549467

fc1.2.weight f4 [128, 256]
0	0x3e455a89	0.19272818
1	0x3c9c0342	0.019044522
2	0xbd807cd1	-0.06273807
3	0xbcff5623	-0.031169003
4	0x3df1dad6	0.11809318
5	0x3f3ece6e	0.74533737
6	0x3e201913	0.15634565
7	0x3d1197fb	0.03554533
8	0x3e6d3609	0.23165144
9	0xbf1cac02	-0.61199963
10	0x3ede4347	0.43410704
11	0x3e835aea	0.256553
12	0xbe326e56	-0.17424902
13	0x3d5f997f	0.054589745
14	0x3c6aa199	0.014320754
15	0x3cf2b13a	0.029625524
16	0xbeed48c4	-0.46344578
17	0xbeb7da99	-0.35908964
18	0x3e851a2b	0.25996527
19	0x3cd68709	0.026187437
20	0xbe1c447f	-0.15260504
21	0x3d4ddf97	0.05026206
22	0xbf1d94c7	-0.6155514
23	0xbe368f7b	-0.17828171
24	0x3eef7a5f	0.4677305
25	0xbea48821	-0.32135108
26	0xbe5384d0	-0.20656133
27	0x3bc7dd48	0.006099377
28	0xbd014c94	-0.03156717
29	0xbd7e803c	-0.062134013
30	0xbf5400f9	-0.82813984
31	0xbc57dc86	-0.0131751355
32	0x3f4a34d0	0.78986835
33	0xbe4d3d70	-0.20042968
34	0xbe8505db	-0.2598103
35	0xbd5a98f9	-0.053368542
36	0xbee53d5e	-0.44773382
37	0x3ec92d21	0.39292243
38	0x3dbbfa08	0.09178549
39	0xbe470ab9	-0.19437684
40	0xbdfff36c	-0.12497601
41	0xbe25b63e	-0.16182801
42	0xbf19b1fe	-0.6003722
43	0xbd1ad27d	-0.037798394
44	0xbe44200d	-0.19152851
45	0x3da1fb22	0.07909228
46	0x3debb8d9	0.11509866
47	0xbd02ac3c	-0.031902537
48	0xbed721c4	-0.4201795
49	0x3ed5262f	0.41630694
50	0xbe9db786	-0.3080408
51	0x3e2dc89e	0.1697106
52	0xbe8e083b	-0.27740654
53	0xbe7857fe	-0.24252316
54	0x3e94ee8a	0.2908824
55	0x3e4af68b	0.19820611
56	0xbe8b689b	-0.27228245
57	0x3d814fbe	0.06314038
58	0x3ee7be99	0.45262602
59	0x3e763af6	0.2404593
60	0xbdb28e8a	-0.087185934
61	0xbf5c950a	-0.86164916
62	0x3ddb37ae	0.107039794
63	0x3e542e9a	0.20720902
64	0x3b3bad48	0.002863722
65	0x3e94b574	0.29044688
66	0x3e3a40f0	0.18188834
67	0x3e20c486	0.15699968
68	0xbe181047	-0.1484996
69	0x3d05be60	0.03265226
70	0x3ea0bda0	0.31394672
71	0xbe3c20cd	-0.18371888
72	0xbf0e1a45	-0.55508834
73	0x3f665c53	0.89984626
74	0xbd6faf83	-0.05851699
75	0xbcb08e9f	-0.021552382
76	0xbe1ef8da	-0.15524617
77	0x3ecda22f	0.401628
78	0xbebc24a3	-0.36746702
79	0xbdf8dd56	-0.121515915
80	0xbdeb1325	-0.11478261
81	0xbeaf8879	-0.34283808
82	0xbf936f02	-1.1518252
83	0xbdd956e3	-0.106122755
84	0xbeb0c50e	-0.3452534
85	0xbdf28e0f	-0.11843502
86	0x3c48f8b0	0.012266323
87	0xbe8cae1f	-0.27476594
88	0xbf35183a	-0.7074009
89	0x3e8f8b1d	0.28035823
90	0xbdd47735	-0.103742994
91	0xbe1571e8	-0.14594233
92	0xbdf6cf62	-0.12051274
93	0xbeb8d87f	-0.36102673
94	0x3e387bfd	0.18016048
95	0x3c96e1eb	0.018418273
96	0xbe41c9c2	-0.18924621
97	0xbebf19ae	-0.3732428
98	0xbe8ed88b	-0.27899584
99	0x3d82a3f8	0.06378931
100	0x3d92e275	0.071720995
101	0x3debe87c	0.11518952
102	0xbd46e133	-0.04855461
103	0xbdcf7d6f	-0.101313464
104	0x3e8ced38	0.27524734
105	0xbda1d63b	-0.07902189
106	0xbe5a4824	-0.21316582
107	0x3e39619c	0.18103641
108	0x3ec8ea34	0.39241183
109	0x3e9443e1	0.28958037
110	0x3df38b06	0.11891751
111	0x3eb594e9	0.35465172
112	0x3e1a18f9	0.15048589
113	0x3eb9e39e	0.3630647
114	0xbef7e568	-0.4841721
115	0xbed3e130	-0.41382742
116	0x3ed52117	0.41626808
117	0x3ccd62eb	0.025071582
118	0x3e3eea58	0.18644083
119	0xbf2c4a8d	-0.67301255
120	0x3e440995	0.1914428
121	0xbdcfbcb4	-0.10143414
122	0x3dc3a294	0.09552494
123	0xbe877a13	-0.26460323
124	0xbeacc129	-0.3374112
125	0xbf983f34	-1.1894288
126	0xbfb8e285	-1.4444128
127	0x3e85e78b	0.26153216
128	0x3d0ba168	0.034089476
129	0xbdb758a4	-0.08952454
130	0x3e8f1d9f	0.27952287
131	0x3e89e5a8	0.26933026
132	0xbc62c876	-0.013841739
133	0x3eb64c58	0.3560512
134	0xbd673ca1	-0.056454305
135	0xbea6979b	-0.3253754
136	0xbec384d7	-0.38187286
137	0x3e9d5251	0.30726865
138	0xbe0432b0	-0.12909961
139	0x3e4bcf84	0.1990338
140	0xbe375205	-0.17902382
141	0xbf0df2ee	-0.55448806
142	0xbec98bd6	-0.393645
143	0xbef54d18	-0.4791038
144	0x3ed2312d	0.41053143
145	0xbd91ae5c	-0.071133345
146	0xbe883257	-0.26600906
147	0x3ebb7642	0.3661366
148	0xbf11da12	-0.56973374
149	0x3ec023c6	0.37527293
150	0xbde4f2c4	-0.11179116
151	0xbc207f9e	-0.009796051
152	0xbf135bb8	-0.57561827
153	0xbe4ac628	-0.19802153
154	0xbf421ea7	-0.7582802
155	0x3e9ca746	0.3059637
156	0xbe7b0608	-0.2451402
157	0xbf0bf686	-0.5467304
158	0x3e18a080	0.14904976
159	0x3e7eeb27	0.24894391
160	0x3eb694fb	0.35660538
161	0xbaa4975f	-0.0012557319
162	0xbedc54a6	-0.43033332
163	0xbd889132	-0.06668319
164	0xbe3b2554	-0.18275958
165	0xbef350a0	-0.4752245
166	0xbf72ec67	-0.9489197
167	0xbf13b90b	-0.5770423
168	0xbe227cb3	-0.15867881
169	0x3f1458dc	0.5794809
170	0xbe895c59	-0.26828268
171	0x3e1023bf	0.14076136
172	0xbdc5b3cd	-0.09653435
173	0x3c02d82c	0.00798611
174	0xbec89a5e	-0.39180273
175	0xbdd08194	-0.10180965
176	0x3e1a9a1e	0.15097854
177	0x3de73005	0.11288456
178	0xbf4341b4	-0.7627213
179	0x3e7ace97	0.2449287
180	0xbe6b19f9	-0.22959127
181	0xbeef1df5	-0.46702543
182	0xbe811b7f	-0.2521629
183	0xbe21eae0	-0.15812254
184	0xbf078187	-0.5293202
185	0xbed14ea5	-0.40880314
186	0xbe28c386	-0.16480836
187	0x3e88f4d1	0.2674928
188	0xbf16ea6f	-0.5895147
189	0xbf718e37	-0.9435763
190	0x3e8c27ce	0.2737412
191	0x3c639bfe	0.013892172
192	0xbe7b1bb8	-0.24522293
193	0xbf169c85	-0.5883258
194	0xbdf2040f	-0.1181718
195	0x3e1311e7	0.14362298
196	0xbe9fe45d	-0.31228915
197	0xbeab11f6	-0.3341214
198	0xbe44df1b	-0.19225733
199	0x3e01ab4d	0.12663002
200	0xbed83724	-0.4222957
201	0x3d6570c0	0.05601573
202	0x3e83fdf0	0.25779676
203	0xbdf53a8b	-0.11974057
204	0xbdf9c77a	-0.1219625
205	0xbf05f545	-0.52327377
206	0x3e2fc16f	0.17163633
207	0x3cf6d970	0.03013298
208	0x3ec3505c	0.38147247
209	0xbf0c0f61	-0.54710966
210	0xbe2a2c67	-0.166185
211	0x3e19ab85	0.15006836
212	0xbe1b57e8	-0.15170252
213	0x3d8b1bf1	0.06792439
214	0x3d76a836	0.060219012
215	0xbea51150	-0.3223977
216	0xbdf36725	-0.11884908
217	0xbcf44fe4	-0.029823251
218	0x3e1b33c5	0.15156467
219	0x3dc920bc	0.09820697
220	0xbd5f860b	-0.054571193
221	0xbe7297ef	-0.2369077
222	0x3b912641	0.004429609
223	0xbe419233	-0.18903427
224	0xbea82704	-0.32842267
225	0x3e045a34	0.12925035
226	0x3dcaa086	0.09893899
227	0xbe19bda1	-0.15013744
228	0xbf594355	-0.84868366
229	0xbf1a25a2	-0.60213673
230	0xbf332220	-0.69973946
231	0x3e1ccff4	0.15313703
232	0x3d32c07c	0.0436406
233	0xbe88e886	-0.267399
234	0xbe2f53ff	-0.17121886
235	0xbdd281c9	-0.10278661
236	0x3e9ad36b	0.30239424
237	0x3cb4c0db	0.022064617
238	0x3ed146bc	0.4087428
239	0xbeabba94	-0.33540785
240	0x3d136719	0.035986993
241	0xbe71b19e	-0.23602912
242	0x3dccb97b	0.09996315
243	0x3d913580	0.070902824
244	0x3d386cf9	0.0450258
245	0xbe2bfcef	-0.16795705
246	0x3ea6fa38	0.32612777
247	0x3cea7191	0.028618606
248	0xbe41066c	-0.18850106
249	0xbf488916	-0.78334177
250	0xbd689916	-0.05678662
251	0xbd88a794	-0.06672588
252	0x3f2f5e1a	0.6850296
253	0xbe2b2959	-0.16714992
254	0xbe4ac2df	-0.198009
255	0x3e86eb59	0.2635143

fc1.2.bias f4 [128]
0	0x3d08e873	0.033424806
1	0x3e8bc61b	0.2729958
2	0xbe1a607d	-0.1507587
3	0xbe740e40	-0.23833561
4	0x3db7fada	0.08983393
5	0x3da74168	0.08166772
6	0x3d99a1fa	0.07501598
7	0x3f20cabe	0.6280936
8	0x3f4874d4	0.78303266
9	0x3a810ba7	0.0009845392
10	0x3ed4291c	0.41437614
11	0x3d54cac8	0.0519512
12	0x3f257956	0.6463827
13	0x3cab0c7f	0.020879982
14	0x3f484b6b	0.7824008
15	0x3e2c74c9	0.16841425
16	0xbf04ca7b	-0.5187146
17	0x3e6ab9ff	0.22922514
18	0xbeae7ec0	-0.34081078
19	0x3f176149	0.5913282
20	0x3dc2283a	0.09480329
21	0x3e87afc0	0.26501274
22	0x3d92f5f9	0.07175822
23	0xbdbb77d0	-0.09153712
24	0xbe4c4373	-0.19947605
25	0x3f0e4c3f	0.5558509
26	0xbf5869b0	-0.84536266
27	0x3db97a9c	0.09056589
28	0x3eca18a5	0.39471927
29	0xbe943831	-0.2894912
30	0xbe4ca38d	-0.19984265
31	0xbe87d7cd	-0.2653183
32	0x3ecf93bb	0.40542397
33	0xbe2bd02f	-0.16778634
34	0x3d956260	0.07294154
35	0x3eb3ad62	0.35093218
36	0x3e0ab4c0	0.13545513
37	0x3f122451	0.57086664
38	0xbcf77f10	-0.030211955
39	0xbe9f16fb	-0.3107222
40	0x3e28624c	0.16443747
41	0x3e4eef80	0.2020855
42	0x3ecae5bc	0.39628398
43	0xbf644794	-0.8917172
44	0xbeaaebd5	-0.3338305
45	0xbe213e34	-0.15746385
46	0xbead515e	-0.3385114
47	0xbb36fbab	-0.0027921002
48	0x3f27e5c1	0.6558495
49	0x3d1e4ff6	0.038650475
50	0x3e5d3996	0.21603999
51	0x3e0ee4b8	0.13954437
52	0x3e7ffd09	0.24998869
53	0xbf652293	-0.8950588
54	0xbc3ab9bf	-0.011396824
55	0xbe859909	-0.2609332
56	0x3e75fb38	0.24021614
57	0xbe463ec3	-0.19359879
58	0x3ec37f7c	0.381832
59	0xbdb266bb	-0.087110005
60	0xbe211451	-0.15730406
61	0xbe356e65	-0.17717893
62	0xbdd8a175	-0.105776705
63	0x3e9d4e1f	0.30723664
64	0xbd50f55a	-0.051015235
65	0x3e87c3a6	0.26516455
66	0xbf0a321e	-0.5398272
67	0x3e349ad1	0.17637183
68	0xbe1c7774	-0.15279943
69	0xbe7c1355	-0.2461675
70	0x3eb24974	0.34821665
71	0xbe23520b	-0.15949266
72	0x3ef1ad7c	0.4720267
73	0xbd0d0df7	-0.034437146
74	0x3e93f52a	0.28897983
75	0x3ddc511f	0.1075766
76	0x3bb2f6f7	0.0054615694
77	0xbd89eec8	-0.06734997
78	0x3ea52ff5	0.3226315
79	0xbf05cb00	-0.5226288
80	0x3e77dfa1	0.24206401
81	0xbcb7b432	-0.022424791
82	0xbdeab98f	-0.11461174
83	0xbeb7572d	-0.35808697
84	0x3f85bfbc	1.0449138
85	0xbe0342c1	-0.12818433
86	0xbebc00fe	-0.36719507
87	0x3eafcf95	0.3433806
88	0x3e8d3cf1	0.27585557
89	0x3eb88f76	0.36046952
90	0x3de15764	0.110029966
91	0xbda1fdbf	-0.07909726
92	0x3f7be458	0.983953
93	0xbee0cbcb	-0.43905482
94	0x3eeac169	0.45850685
95	0x3e6ae6db	0.22939627
96	0xbe65bc9d	-0.22435232
97	0xbea837a1	-0.3285494
98	0xbd2cdd53	-0.04220326
99	0x3ccb2553	0.024798071
100	0x3efdcf80	0.49572372
101	0x3dc75fe1	0.09735084
102	0x3f36a61f	0.7134723
103	0x3e64193b	0.2227525
104	0x3d71b47a	0.059010006
105	0xbeeb68d1	-0.45978406
106	0x3e253f9a	0.16137543
107	0x3f7ce62c	0.98788714
108	0x3cc9d74b	0.024638792
109	0x3e0198b6	0.12655911
110	0xbd8fa877	-0.07014554
111	0x3e51eccb	0.20500486
112	0x3dfea0c5	0.12433008
113	0x3d31a8e2	0.04337395
114	0xbec1f71f	-0.3788385
115	0x3e589b33	0.21152954
116	0xbe4f5920	-0.20248842
117	0x3deef436	0.11667673
118	0x3e37ad34	0.17937165
119	0x3da38232	0.07983817
120	0x3ec0d573	0.3766285
121	0x3da36481	0.07978154
122	0x3e9f336d	0.31093922
123	0x3f43bfc4	0.76464486
124	0xbd0b38c9	-0.0339897
125	0x3d9c4f58	0.07632321
126	0x3dc67678	0.09690565
127	0x3d519ad1	0.051173035

fc_mu.0.weight f4 [64, 128]
0	0x3d44faac	0.04809062
1	0xbdfe9223	-0.12430217
2	0x3e1f98a1	0.15585567
3	0xbe8eee41	-0.27916148
4	0xbf8bd066	-1.0922973
5	0xbd60ad08	-0.054852515
6	0xbd828b64	-0.06374243
7	0x3c8e9245	0.017403731
8	0xbe98888a	-0.2979167
9	0xbf14892a	-0.58021796
10	0x3d8e4579	0.069468446
11	0x3e20bfc4	0.15698153
12	0x3dab2a7d	0.08357713
13	0x3dbbb9b5	0.0916628
14	0xbedd344f	-0.4320397
15	0x3f0395e8	0.51400614
16	0xbe8202bd	-0.25392714
17	0x3b9500ec	0.004547229
18	0xbe3c9f18	-0.18420064
19	0xbdb269c1	-0.08711577
20	0xbccc55f9	-0.024943339
21	0x3e32cb1d	0.17460294
22	0x3d8a1d44	0.06743863
23	0xbd989a71	-0.07451332
24	0x3ecdaff2	0.40173298
25	0xbe39c335	-0.18140872
26	0xbf49ff65	-0.78905326
27	0xbd622852	-0.055214234
28	0xbd23f8d0	-0.040032208
29	0x3f2174d3	0.63068885
30	0xbf4ae873	-0.7926094
31	0xbe801e3e	-0.25023073
32	0x3ef89896	0.48553914
33	0xbeb0b998	-0.34516597
34	0x3d9f8c56	0.07790439
35	0xbea216aa	-0.31657916
36	0xbf465b47	-0.7748303
37	0x3e971317	0.29506752
38	0xbed04bab	-0.4068273
39	0x3e321158	0.17389429
40	0xbe98f6e6	-0.2987587
41	0xbd367374	-0.0445437
42	0x3d5e2274	0.054232076
43	0xbe377b5f	-0.17918156
44	0xbe03b81b	-0.128632
45	0xbdb14674	-0.08656016
46	0x3d965b77	0.07341664
47	0xbf0714c7	-0.5276608
48	0x3dcfbc43	0.1014333
49	0x3e0b87e3	0.13626055
50	0x3e966781	0.29375842
51	0xbe79b041	-0.24383642
52	0x3e796958	0.24356592
53	0xbeebc634	-0.46049654
54	0xbe3d4279	-0.18482389
55	0x3e3b494f	0.18289684
56	0x3bdafaf0	0.006682746
57	0xbdab37d2	-0.08360256
58	0xbe905d75	-0.28196302
59	0xbcfd1f96	-0.03089885
60	0xbed46c35	-0.41488805
61	0x3d27f44f	0.041004475
62	0x3d8f3288	0.0699206
63	0xbe3f4a93	-0.18680792
64	0xbe902451	-0.28152707
65	0x3da77906	0.0817738
66	0xbc81f24f	-0.015862612
67	0xbe8fe65d	-0.2810544
68	0x3e566be2	0.20939592
69	0xbf3545f4	-0.70809865
70	0x3e100c61	0.14067222
71	0x3d8345a9	0.06409771
72	0xbd95aec0	-0.073087215
73	0xbccd01ac	-0.025025211
74	0xbf00e972	-0.5035621
75	0xbdb3d934	-0.087816626
76	0xbf289436	-0.6585115
77	0x3e627ef2	0.22118738
78	0xbe90eadc	-0.28304183
79	0xbed67534	-0.41886294
80	0x3e306f83	0.17230038
81	0x3c2b1ab2	0.010443376
82	0x3e4d9d80	0.20079613
83	0xbea47607	-0.32121298
84	0xbe240368	-0.16016924
85	0x3e359fd6	0.17736754
86	0x3eb30707	0.349663
87	0xbf07c457	-0.53033966
88	0xbddd0dd2	-0.10793652
89	0x3ee9efcf	0.45690772
90	0xbeac36c7	-0.33635542
91	0xbdaf8ac6	-0.08571391
92	0xbbf596d7	-0.007494788
93	0xbea6d8ed	-0.32587376
94	0x3cbd366e	0.023097243
95	0xbc898280	-0.01678586
96	0x3d18a168	0.037263304
97	0x3de5da9d	0.11223338
98	0xbeefc9f6	-0.4683377
99	0x3e985868	0.2975495
100	0xbed1d7d0	-0.40984964
101	0x3e5ab998	0.21359861
102	0xbda544ee	-0.08069788
103	0xbdb1d8c8	-0.08683926
104	0xbe56d4ed	-0.20979662
105	0xbee80fa5	-0.45324436
106	0x3e87527f	0.26430127
107	0xbe7f88ed	-0.24954577
108	0x3e2cbf5e	0.16869876
109	0xbe7f6f3d	-0.24944778
110	0xbefe65c3	-0.49687013
111	0xbe5b1cfd	-0.21397777
112	0x3e3e4a56	0.18583044
113	0xbe548c7d	-0.20756717
114	0xbf1094dc	-0.5647714
115	0x3e56837a	0.20948592
116	0x3ecab2a7	0.39589426
117	0x3c41dad1	0.011831955
118	0xbe3bb98f	-0.18332504
119	0x3e815775	0.25262037
120	0xbdfe94e5	-0.12430743
121	0xbe58892e	-0.2114608
122	0xbe95d06d	-0.2926058
123	0xbf142a4f	-0.5787706
124	0x3ceac6fd	0.028659338
125	0x3d6cd768	0.057822615
126	0xbe28c8ef	-0.164829
127	0xbf20f49b	-0.6287324
128	0xbec2fb4a	-0.38082343
129	0xbe702bde	-0.23454234
130	0xbd101099	-0.03517208
131	0xbf477413	-0.7791149
132	0x3d74b7cf	0.059745606
133	0x3e17ef3f	0.14837359
134	0x3b80c55b	0.0039297766
135	0xbeae4a4c	-0.3404106
136	0xbf53ed3e	-0.8278388
137	0xbfb183be	-1.386833
138	0x3d8a31c6	0.06747775
139	0x3d950431	0.0727619
140	0x3e5a836f	0.213392
141	0xbf0d08a8	-0.55091333
142	0x3e0ac4a7	0.1355158
143	0xbcbad38f	-0.022805957
144	0x3ccfb44e	0.02535453
145	0xbed78951	-0.42096952
146	0xbeecc9de	-0.46247762
147	0xbdc484d0	-0.095956445
148	0xbe9ff356	-0.31240338
149	0xbe52aa68	-0.20572817
150	0xbe02ffc5	-0.12792881
151	0x3d340e7f	0.043959137
152	0xbf2b35b2	-0.6687881
153	0xbe197664	-0.14986569
154	0xbe28cfdc	-0.16485542
155	0x3ea0501c	0.3131112
156	0xbea2b0ee	-0.31775612
157	0x3ef78975	0.4834706
158	0xbd602093	-0.054718565
159	0x3d22c9d8	0.039743274
160	0xbd23daf5	-0.040003736
161	0x3c0bf6c5	0.008542721
162	0x3e80c77e	0.251522
163	0xbe1db003	-0.15399174
164	0x3e38609f	0.18005608
165	0x3d49ffd2	0.049316235
166	0xbe90f6fd	-0.28313437
167	0xbe889634	-0.26677096
168	0xbed817ec	-0.4220575
169	0xbea3ae99	-0.31969145
170	0x3f353bd8	0.7079444
171	0x3d125bc4	0.035732046
172	0xbd01f5b0	-0.031728446
173	0xbc24df17	-0.010062954
174	0xbd35a61d	-0.04434787
175	0x3e1e0407	0.15431224
176	0xbdec14ff	-0.11527442
177	0xbceddd6a	-0.029036243
178	0xbe992d9c	-0.2991761
179	0xbe2ad6f8	-0.16683567
180	0x3de17b3f	0.110098355
181	0x3d7c83ca	0.06164912
182	0xbd2c93bb	-0.042133074
183	0xbe5cc5e1	-0.2155986
184	0x3d8e80b7	0.06958144
185	0xbf6e3e03	-0.9306337
186	0x3e6215ec	0.22078675
187	0xbceafd54	-0.02868525
188	0xbef9c266	-0.48781127
189	0x3db1a980	0.08674908
190	0xbe64265a	-0.22280255
191	0x3e3061d9	0.17224826
192	0xbefe918f	-0.49720427
193	0x3e350457	0.17677437
194	0x3e5b1b9f	0.21397255
195	0x3e904345	0.28176323
196	0x3d62d6f1	0.055380765
197	0x3f0a739a	0.54082644
198	0xbe8d8573	-0.27640876
199	0xbe53bfd7	-0.2067865
200	0x3e9bfdd5	0.30467096
201	0x3d7a3c03	0.061092388
202	0xbe4335a0	-0.19063425
203	0xbf28fd3f	-0.6601142
204	0xbe5b0610	-0.21389031
205	0xbf21f292	-0.6326076
206	0xbe3bd6fb	-0.18343727
207	0xbc3be94f	-0.011469199
208	0xbe81b2c5	-0.25331703
209	0x3e7ec4f4	0.24879819
210	0x3c7400ec	0.014892798
211	0xbe5a8e73	-0.21343403
212	0x3e311575	0.17293341
213	0xbc15042f	-0.009095236
214	0xbe9223df	-0.28542992
215	0xbe33ab78	-0.17545879
216	0xbc095123	-0.008381161
217	0xbe3445fc	-0.17604822
218	0x3e11074c	0.1416294
219	0xbe863ed1	-0.262198
220	0xbefc482c	-0.49273813
221	0xbec20846	-0.37896937
222	0xbf92efb8	-1.1479406
223	0x3ea94c01	0.330658
224	0xbe15da71	-0.1463411
225	0xbe641dc3	-0.22276978
226	0xbf2eef41	-0.6833382
227	0xbedc5ffb	-0.43041977
228	0xbeb98b2e	-0.36238998
229	0xbee3ff41	-0.4453068
230	0x3e2cf2db	0.16889517
231	0xbd0bcd1e	-0.034131162
232	0xbe3e0e8b	-0.18560235
233	0xbf0d0440	-0.5508461
234	0x3ec37978	0.3817861
235	0xbc9e01d7	-0.019287987
236	0xbf6a5fbe	-0.9155234
237	0xbd5de134	-0.05416985
238	0xbe8e95d8	-0.27848697
239	0xbd1a1901	-0.0376215
240	0xbf14b7af	-0.5809278
241	0xbefa2e91	-0.48863652
242	0xbe8a841f	-0.27053925
243	0xbd9fd091	-0.07803453
244	0xbe07a792	-0.13247517
245	0xbfca469e	-1.5802801
246	0x3e422d6e	0.18962643
247	0xbf4a3c53	-0.789983
248	0xbe8c4549	-0.2739661
249	0x3ea511fc	0.32240283
250	0x3ea3ff77	0.32030842
251	0xbc9ba6af	-0.01900038
252	0xbdb5f786	-0.08885102
253	0xbeebd73b	-0.46062645
254	0xbf151168	-0.58229685
255	0xbf003d92	-0.5009395

fc_mu.0.bias f4 [64]
0	0xbd6db2b4	-0.058031753
1	0x3f3e1396	0.74248636
2	0x3f55367d	0.8328627
3	0x3f13276f	0.57482046
4	0x3f1c7843	0.61121005
5	0x3e9d57c6	0.30731028
6	0xbd89cfab	-0.06729063
7	0x3f211085	0.6291583
8	0x3e506641	0.20351507
9	0x3e702e19	0.23455085
10	0xbd69573a	-0.05696795
11	0x3e4866a6	0.19570407
12	0x3efd847b	0.49515137
13	0x3ed936ec	0.42424715
14	0xbdb8ed7e	-0.09029673
15	0x3f2205b9	0.6328998
16	0x3dee05c1	0.11622191
17	0x3f3b534f	0.73173994
18	0x3e825b54	0.25460303
19	0x3ed986a1	0.42485526
20	0xbcbbabcc	-0.022909068
21	0x3eabd833	0.33563384
22	0x3f2033cf	0.62579054
23	0x3e4c0788	0.19924748
24	0x3dfdcd58	0.12392682
25	0xbefcb742	-0.49358565
26	0x3f4c76ce	0.7986878
27	0xbe21c3dd	-0.15797372
28	0x3e922f2f	0.28551623
29	0x3ef0ada4	0.47007477
30	0x3f2ce373	0.6753456
31	0xbec790ab	-0.3897756
32	0x3e46c0c2	0.19409469
33	0x3e87ce65	0.26524654
34	0x3e261773	0.16219883
35	0x3e50b1c1	0.20380308
36	0xbf2a17d9	-0.6644264
37	0x3edef735	0.4354798
38	0x3e062a7e	0.13102147
39	0x3f39de41	0.7260476
40	0x3d8b6102	0.06805612
41	0xbec51085	-0.38489166
42	0x3d13dfd7	0.036102142
43	0xbd8e88a8	-0.06959659
44	0x3d63aa0d	0.055582095
45	0x3f52e7a1	0.8238469
46	0x3f308a21	0.6896077
47	0x3f6225ab	0.88338727
48	0x3db3845e	0.087654814
49	0x3e8b11a9	0.2716191
50	0x3ef4c65f	0.47807595
51	0xbe6b73d0	-0.22993398
52	0x3d58b520	0.05290711
53	0xbe894700	-0.2681198
54	0xbe815a65	-0.25264278
55	0x3dfa2609	0.12214286
56	0x3eedd3ff	0.46450803
57	0x3eaae637	0.33378765
58	0x3f30cc31	0.6906157
59	0x3e8ca772	0.274715
60	0x3ed68ae8	0.41902852
61	0x3f2b4ffb	0.66918916
62	0x3f25e9af	0.648097
63	0x3df88455	0.12134615

fc_mu.2.weight f4 [4, 64]
0	0x3e624979	0.2209834
1	0xbe5b0d59	-0.2139181
2	0x3da3caf8	0.079976976
3	0x3e7398c1	0.2378874
4	0x3e5f8955	0.21829732
5	0xbe02cf0d	-0.12774296
6	0x3c0efd19	0.008727335
7	0xbd3398a0	-0.043846726
8	0x3e8bf2c6	0.2733366
9	0x3e633866	0.22189483
10	0xbeab28dc	-0.3342961
11	0xbe8caa75	-0.27473798
12	0x3ed6c99d	0.41950694
13	0x3f0bac80	0.5456009
14	0xbe7547d0	-0.23953176
15	0x3e571ea1	0.21007778
16	0xbcabac10	-0.02095607
17	0xbd9b2406	-0.0757523
18	0xbd07dd3e	-0.033169977
19	0xbe89e633	-0.2693344
20	0x3e1af608	0.15132916
21	0x3e141475	0.14460929
22	0xbcf9c4e8	-0.0304894
23	0xbdd88e4e	-0.105740175
24	0x3e4c95e0	0.19979048
25	0xbdee5e0b	-0.11639031
26	0x3e3efc1b	0.18650858
27	0x3dca6a9a	0.09883614
28	0xbd358992	-0.04432065
29	0x3d1e15df	0.038595077
30	0x3d9b7e27	0.07592421
31	0xbe0e7176	-0.1391047
32	0xbe70672a	-0.23476854
33	0xbea44430	-0.32083273
34	0x3ded41f5	0.11584846
35	0xbd05736d	-0.03258078
36	0xbed66ad0	-0.41878366
37	0xbe3ba376	-0.18324074
38	0x3dbb91a6	0.091586396
39	0xbbe8001c	-0.007080091
40	0x3e3d50ab	0.18487804
41	0xbd8b9155	-0.06814829
42	0x3ead432d	0.33840314
43	0xbdc3ff7a	-0.09570213
44	0xbe1da6b4	-0.15395623
45	0x3e0b0961	0.13577797
46	0xbe8a3e20	-0.27000523
47	0xbe7770d4	-0.24164134
48	0xbf0480f5	-0.5175927
49	0xbc311a05	-0.010809426
50	0x3e4ca78e	0.19985792
51	0x3e8e7dc8	0.27830338
52	0xbe2b3f03	-0.16723256
53	0xbebdcdb5	-0.37071005
54	0x3d3403e9	0.04394904
55	0xbe2b497e	-0.16727254
56	0xbeaa5c87	-0.33273718
57	0x3e0131f7	0.12616716
58	0xbdb26132	-0.08709945
59	0x3dab455a	0.08362837
60	0xbdeb389a	-0.11485405
61	0xbcf89fc1	-0.030349614
62	0x3e513a93	0.204325
63	0xbeae4c88	-0.34042764
64	0xbeaa23a6	-0.33230323
65	0xbdfcba20	-0.12340188
66	0xbdffd280	-0.124913216
67	0x3e6dface	0.23240206
68	0x3e4e3234	0.20136338
69	0xbe387f53	-0.1801732
70	0xbe0ca2e6	-0.13734016
71	0x3d985895	0.07438771
72	0xbdc48a56	-0.09596698
73	0xbde6f43e	-0.11277054
74	0x3da8ddd0	0.082454324
75	0xbe4d9abe	-0.2007856
76	0x3e86f17f	0.26356122
77	0xbb104bc3	-0.0022017814
78	0x3e0242c8	0.12720788
79	0xbe7b1be0	-0.24522352
80	0x3e33d3f2	0.1756132
81	0x3ef9fc6b	0.48825392
82	0xbdb7970b	-0.08964356
83	0x3d19e7d0	0.03757459
84	0xbe755377	-0.2395762
85	0xbda711b9	-0.08157677
86	0x3da29cc2	0.079400554
87	0xbe09f727	-0.13473187
88	0xbd8b10f3	-0.06790342
89	0xbea6402b	-0.3247083
90	0xbee9aec1	-0.4564114
91	0x3e044d3a	0.12920085
92	0x3e0bd746	0.13656339
93	0xbea4b358	-0.32168078
94	0x3e97e2de	0.29665273
95	0xbc75aecf	-0.014995291
96	0x3eb942aa	0.36183673
97	0x3d50a98e	0.05094295
98	0xbe6c896e	-0.230993
99	0xbe593dab	-0.2121493
100	0x3dd3584b	0.10319575
101	0x3e4c1675	0.19930442
102	0x3c6d1c2e	0.014472051
103	0xbd3c71f9	-0.04600713
104	0xbe0a706f	-0.13519453
105	0xbe718a35	-0.23587878
106	0xbe0afd42	-0.13573173
107	0x3d8d8158	0.06909436
108	0xbc8cc8c3	-0.017185574
109	0x3ec2dc95	0.38058916
110	0x3d04acdf	0.032391425
111	0x3ee3fc8f	0.44528624
112	0x3e15e754	0.14639026
113	0x3d949b83	0.07256224
114	0xbea4982b	-0.32147345
115	0x3d6396dd	0.055563796
116	0xbdccb070	-0.0999459
117	0xbd659844	-0.056053415
118	0x3aadc1d2	0.0013256615
119	0x3f18f62d	0.59750634
120	0xbdc1ccea	-0.094629124
121	0x3dc2df65	0.095152654
122	0xbd2780d0	-0.04089433
123	0x3e3e607e	0.18591496
124	0xbe8eda24	-0.27900803
125	0x3dafedbe	0.085902676
126	0x3dcc2fad	0.09970031
127	0xbc7e37c0	-0.0155162215
128	0x3cc8986e	0.024486747
129	0x3e453056	0.1925672
130	0x3e6e996a	0.2330071
131	0x3e304ef9	0.17217626
132	0x3c4cefec	0.012508374
133	0xbe5a8b06	-0.21342096
134	0xbe88e131	-0.26734307
135	0x3e3891bf	0.18024348
136	0x3e8c9a2f	0.27461383
137	0x3d94d9fa	0.07268138
138	0x3d52b835	0.051445205
139	0xbda82a7e	-0.0821123
140	0xbd198cfd	-0.037487973
141	0xbdca2806	-0.09870915
142	0x3d9cc522	0.076547876
143	0xbe74ade6	-0.23894462
144	0xbdbae271	-0.091252215
145	0xbdbb2425	-0.091377534
146	0x3e276052	0.16345337
147	0xbe8a81be	-0.2705211
148	0xbee3ecc2	-0.4451657
149	0x3d8d86d9	0.06910486
150	0xbd8de5bb	-0.06928583
151	0x3ebe3464	0.37149346
152	0xbea2cc5f	-0.31796548
153	0xbe176962	-0.14786294
154	0xbe044909	-0.12918486
155	0xbe1790ac	-0.14801282
156	0x3ed6b65c	0.41936004
157	0xbd670f0f	-0.056410845
158	0x3c3ccb81	0.0115231285
159	0xbea0c182	-0.31397635
160	0xbd3ebeed	-0.0465688
161	0xbcaeb8aa	-0.021328289
162	0x3c5f1224	0.013615165
163	0x3e725d3f	0.23668383
164	0x3e1dc3fe	0.15406796
165	0x3e0e5cd7	0.13902603
166	0x3c08bd8d	0.008345974
167	0x3e925c8f	0.28586242
168	0x3c2be04d	0.010490489
169	0x3e8c607f	0.2741737
170	0x3e077698	0.13228834
171	0xba0059f1	-0.0004896215
172	0xbe262441	-0.16224767
173	0xbef40a83	-0.4766427
174	0xbe4d86c4	-0.2007094
175	0xbd90c14e	-0.0706812
176	0x3e4ebc78	0.20189083
177	0xbe19934d	-0.14997597
178	0xbd2e92c1	-0.042620424
179	0x3e2d43a9	0.16920342
180	0x3e0f591b	0.13998835
181	0x3ea0594f	0.31318137
182	0xbd13185e	-0.03591191
183	0x3cd8973a	0.026439298
184	0xbeb2c82c	-0.34918344
185	0xbea5fad4	-0.3241793
186	0x3e083748	0.13302338
187	0x3dd892e2	0.10574891
188	0xbe351434	-0.17683488
189	0x3ec78462	0.38968188
190	0x3d562914	0.05228527
191	0x3e0f5ae2	0.13999513
192	0xbdc3a680	-0.09553242
193	0x3d354902	0.04425908
194	0x3ba76979	0.005109009
195	0xbc4be701	-0.012445212
196	0x3c58aecf	0.013225271
197	0x3d01ef47	0.031722333
198	0xbe1e5213	-0.15460996
199	0xbe8804c1	-0.26566127
200	0xbe82fc20	-0.2558298
201	0x3d379e03	0.044828426
202	0x3e5d8e72	0.2163637
203	0xbc861537	-0.016367538
204	0x3d11a6fd	0.035559643
205	0xbbb2a6db	-0.0054520196
206	0x3d3d0c75	0.046154458
207	0xbeab9e0a	-0.33519012
208	0xbde7cc4e	-0.11318265
209	0x3e985c35	0.29757848
210	0xbe973263	-0.2953063
211	0xbe1e25ae	-0.15444061
212	0x3edd23c5	0.43191352
213	0xbdda007d	-0.106446244
214	0x3e96a1cc	0.29420316
215	0x3c8f7e45	0.017516265
216	0x3e679056	0.22613654
217	0x3dd83a96	0.105580494
218	0xbd3b058a	-0.04565958
219	0xbd845fe0	-0.06463599
220	0x3b9d8082	0.004806579
221	0xbe62d8af	-0.2215297
222	0xbd797a3c	-0.060907587
223	0x3deec7d0	0.11659205
224	0x3e4b4a7a	0.1985263
225	0xbc7195ab	-0.014745156
226	0x3e8821cb	0.26588282
227	0x3d315ab0	0.043299377
228	0xbd887081	-0.066620834
229	0x3d79dd67	0.06100216
230	0x3e88adc5	0.26695076
231	0x3e0cccb6	0.13749966
232	0x3e361484	0.17781264
233	0x3e82680b	0.25470003
234	0xbd3c5823	-0.04598249
235	0x3ea4a129	0.32154205
236	0xbe72999a	-0.23691407
237	0x3cb56fa5	0.022147963
238	0x3e120834	0.14260942
239	0xbd5e3489	-0.05424932
240	0x3e2bb354	0.16767627
241	0x3e9777d6	0.29583615
242	0xbcadeb9d	-0.021230513
243	0x3d5a3f5d	0.053283084
244	0xbe11ff1c	-0.14257473
245	0xbec11375	-0.37710157
246	0xbe9c4665	-0.30522457
247	0x3dab8329	0.08374626
248	0xbd95abb4	-0.073081404
249	0xbe1c7400	-0.15278625
250	0xbf01552e	-0.505206
251	0xbf0df828	-0.5545678
252	0xbd4708c5	-0.048592348
253	0x3eb59c43	0.3547078
254	0xbe7a3c7a	-0.24437132
255	0xbe627411	-0.22114588

fc_mu.2.bias f4 [4]
0	0xbdbb11c1	-0.09134246
1	0x3e2d09cb	0.16898267
2	0xbe9bab1f	-0.30403993
3	0x3e18bc26	0.14915523

fc_std.0.weight f4 [64, 128]
0	0xbe1120c4	-0.14172655
1	0xbe83d85b	-0.25751004
2	0x3c8e2ab7	0.017354352
3	0xbd9f38a8	-0.07774478
4	0x3e093be1	0.13401748
5	0xbd98f55b	-0.07468673
6	0xbedaa65e	-0.42705053
7	0xbe511621	-0.20418598
8	0x3d23aedf	0.039961692
9	0xbea0917b	-0.31360993
10	0x3df8404d	0.121216394
11	0x3e8caffa	0.2747801
12	0xbe94ab41	-0.29036906
13	0xbe8b7326	-0.2723629
14	0x3d8278e7	0.063707165
15	0x3ebfb324	0.3744136
16	0x3eae81c0	0.34083366
17	0xbf305cca	-0.68891585
18	0xbf07e995	-0.5309079
19	0x3e1b302d	0.15155096
20	0xbd21336d	-0.039355684
21	0x3e07111f	0.13190125
22	0x3d4bacad	0.049725223
23	0x3a911fed	0.0011072137
24	0xbf035085	-0.5129474
25	0xbde200ea	-0.110353306
26	0x3c3522d6	0.011055669
27	0x3c1ec9e0	0.009691685
28	0x3d285631	0.041097824
29	0x3ed73587	0.42033026
30	0xbeb7deb6	-0.35912102
31	0xbae2728e	-0.0017276572
32	0xbf48416f	-0.78224844
33	0x3e5b0992	0.2139037
34	0x3e3356cd	0.1751358
35	0x3e9ba49b	0.30399022
36	0x3c561a64	0.013067815
37	0xbb68f5f1	-0.0035546983
38	0x3eb4638b	0.35232195
39	0xbe0768ae	-0.13223526
40	0xbd90d867	-0.070725255
41	0x3df3c492	0.11902727
42	0x3f366b3b	0.7125737
43	0xbdadf4e9	-0.084939785
44	0xbed580cc	-0.41699827
45	0x3dbdd3ca	0.09268911
46	0x3d96e7ce	0.07368432
47	0x3e463a1a	0.19358101
48	0x3ddcfc3e	0.10790299
49	0x3ec67110	0.38758135
50	0x3c2cb49e	0.010541109
51	0x3e86907b	0.26282105
52	0xbd92e7b7	-0.07173102
53	0x3ca973a2	0.02068502
54	0xbf611a73	-0.87930983
55	0x3ec24be1	0.37948516
56	0xbed66bc7	-0.41879103
57	0xbe8426ba	-0.25810796
58	0x3f0aed04	0.5426791
59	0xbd5a5b0d	-0.05330949
60	0xbeb18a4e	-0.3467583
61	0x3e9b91d9	0.3038471
62	0x3f103de0	0.56344414
63	0xbf2f5b69	-0.68498856
64	0xbe22c2fd	-0.15894695
65	0xbe4c9088	-0.1997701
66	0x3dcc90e7	0.099885754
67	0xbeed848d	-0.4639019
68	0xbe3bfebc	-0.18358892
69	0x3d22c6ad	0.039740253
70	0x3edba8e8	0.42902303
71	0xbe8b4483	-0.27200708
72	0x3d9d1dfe	0.07671736
73	0xbd63ddea	-0.055631556
74	0x3db8317c	0.089938134
75	0xbec8fc51	-0.39255002
76	0x3e758866	0.23977813
77	0x3e9c3861	0.30511764
78	0x3f194c02	0.59881604
79	0x3ebb8b80	0.36629868
80	0x3df3a525	0.11896733
81	0x3de1e429	0.11029846
82	0x3e2fd478	0.17170894
83	0xbecfa62f	-0.40556476
84	0xbea0edc5	-0.31431404
85	0x3e1fcbd3	0.15605097
86	0x3e2c7f68	0.16845477
87	0xbea52306	-0.32253283
88	0x3ec2b9b0	0.38032293
89	0xbf06820d	-0.5254219
90	0x3e36f0b4	0.17865258
91	0x3e9a37de	0.30120748
92	0x3e4df32b	0.20112292
93	0xbeb9a678	-0.36259818
94	0x3db83c25	0.08995847
95	0x3e0357b2	0.12826422
96	0xbd5d98f4	-0.054100946
97	0xbdfc2148	-0.123110354
98	0x3c5b70d8	0.013393603
99	0x3e84cd0f	0.25937697
100	0xbdde3148	-0.108492434
101	0x3e78ed1d	0.24309202
102	0x3e1f8867	0.15579377
103	0x3e0d9159	0.13824977
104	0x3eb58876	0.35455674
105	0x3c6e8b83	0.014559629
106	0xbe9ff43c	-0.31241024
107	0xbe50bbfc	-0.2038421
108	0x3e33bd33	0.17552643
109	0x3ed762b8	0.42067504
110	0x3ef77ac4	0.4833585
111	0x3d832f3f	0.06405496
112	0xbea9f050	-0.33191156
113	0xbe79f3df	-0.24409436
114	0x3e74112b	0.23834674
115	0xbf37ecff	-0.71846
116	0x3c5648a9	0.013078847
117	0x3f03d0b4	0.5149033
118	0x3d2868f1	0.041115705
119	0xbdcd1b35	-0.10014955
120	0x3c67617e	0.014122365
121	0xbef27263	-0.47352895
122	0x3e32c364	0.17457348
123	0xbde2e778	-0.110793054
124	0x3d38caba	0.04511521
125	0x3e276f2d	0.16351004
126	0xbebc5cfe	-0.36789697
127	0x3cfc3104	0.030785091
128	0xbf428dee	-0.7599782
129	0xbe35f9d1	-0.17771079
130	0xbeb99682	-0.3624764
131	0xbf0698de	-0.52577007
132	0x3ce30973	0.027714467
133	0xbe94da02	-0.29072577
134	0x3e81b974	0.25336802
135	0x3c67fb4a	0.014159033
136	0x3e9b94ee	0.30387062
137	0x3effe991	0.49982885
138	0xbe855be0	-0.26046658
139	0xbed7b54f	-0.42130515
140	0xbea96981	-0.33088306
141	0xbc877605	-0.016535768
142	0xbe9b7d70	-0.3036914
143	0xbd1ae7a1	-0.037818555
144	0xbeefef2f	-0.4686217
145	0xbedda25e	-0.4328794
146	0xbebf776c	-0.373958
147	0x3ead5143	0.3385106
148	0x3e4419fd	0.19150539
149	0xbf0f7af9	-0.56047016
150	0x3dacd796	0.08439557
151	0x3cb5e79f	0.022205172
152	0x3e5459f5	0.20737441
153	0xbe9145fc	-0.28373706
154	0xbeaa0de3	-0.3321372
155	0xbe86d063	-0.2633086
156	0x3dd9a05f	0.106262915
157	0xbf57a6e5	-0.84239036
158	0xbf9a328e	-1.2046678
159	0xbf517c84	-0.8183062
160	0xbd59fdb7	-0.053220477
161	0xbf29e73e	-0.6636847
162	0xbe02db90	-0.12779069
163	0xbe51465a	-0.20436993
164	0xbf2a7034	-0.6657746
165	0xbf01dd70	-0.5072851
166	0xbd8768b7	-0.0661177
167	0xbf044727	-0.5167107
168	0x3f05ca15	0.5226148
169	0x3e5a89d0	0.21341634
170	0xbe4aba13	-0.19797544
171	0xbe67741d	-0.22602887
172	0xbf568447	-0.8379559
173	0xbdb63291	-0.088963635
174	0xbd48775a	-0.048941948
175	0xbf75d46f	-0.9602727
176	0xbea5091c	-0.32233512
177	0xbe3182a8	-0.17334998
178	0xbec8811a	-0.39160997
179	0xbf874b7f	-1.0569915
180	0xbe8e629b	-0.27809605
181	0xbeb31dcb	-0.34983668
182	0xbebcd635	-0.36882177
183	0x3cf1c03b	0.029510608
184	0xbf68ed61	-0.9098721
185	0xbf6714b1	-0.9026595
186	0x3d068e44	0.03285052
187	0x3caf78f8	0.021419987
188	0xbea9999d	-0.3312501
189	0xbf1b8f8a	-0.607659
190	0xbeb620df	-0.35571954
191	0x3e9d0c54	0.30673468
192	0xbe7abd50	-0.2448628
193	0xbea47fc2	-0.3212872
194	0xbf8344d0	-1.0255375
195	0xbe9844d3	-0.2974001
196	0xbfa7ccdd	-1.3109394
197	0xbed17bac	-0.40914667
198	0x3e35bbba	0.17747393
199	0x3c11b4b1	0.008893178
200	0xbd9d07f2	-0.07667531
201	0xbc517222	-0.012783559
202	0x3ec5915d	0.38587466
203	0xbe6f5981	-0.23373987
204	0xbe181f52	-0.14855698
205	0xbf42200c	-0.7583015
206	0xbf28a02b	-0.65869397
207	0xbee30a18	-0.44343638
208	0xbe8f4388	-0.2798121
209	0xbe342c57	-0.1759504
210	0xbe6a694a	-0.22891727
211	0xbf3dac66	-0.74091184
212	0x3e3a7c04	0.1821137
213	0xbf0e88a1	-0.5567723
214	0xbec40189	-0.3828242
215	0xbd3d5d84	-0.04623176
216	0xbb159553	-0.00228246
217	0xbe3bd0da	-0.1834139
218	0x3e747b42	0.23875144
219	0x3ea6cb54	0.32577002
220	0x3e4584e9	0.19288982
221	0xbef50425	-0.47854725
222	0xbee9c0de	-0.45654958
223	0x3d94f61c	0.07273504
224	0xbe32883f	-0.17434786
225	0x3e2a7540	0.1664629
226	0xbefe8fb2	-0.49719006
227	0xbdedc906	-0.11610608
228	0x3d0273da	0.031848766
229	0x3e0014b7	0.12507902
230	0x3ebbc668	0.3667481
231	0xbef0cae0	-0.4702978
232	0xbeffe7f1	-0.49981645
233	0xbe142f5e	-0.14471194
234	0x3bae8391	0.0053257425
235	0x3e1b3f67	0.15160905
236	0xbf413d60	-0.75484276
237	0xbf3368a5	-0.7008155
238	0xbe48ef69	-0.19622578
239	0xbf2449f1	-0.64175326
240	0xbf58401e	-0.84472835
241	0xbe8b6ca7	-0.27231333
242	0xbea0fa6a	-0.3144105
243	0xbded65ff	-0.1159172
244	0xbf7463d6	-0.9546484
245	0x3ee3d2dc	0.4449681
246	0xbed02273	-0.40651283
247	0x3e156628	0.14589751
248	0xbeed8f68	-0.46398473
249	0xbf3acfbe	-0.7297324
250	0xbe4c2bff	-0.19938658
251	0x3d464174	0.048402265
252	0x3a82857d	0.0009957995
253	0x3ef4dc33	0.4782425
254	0xbf3b2187	-0.73098034
255	0xbf22c186	-0.63576543

fc_std.0.bias f4 [64]
0	0x3c856b1d	0.016286427
1	0x3e995dde	0.29954427
2	0x3d9be154	0.07611337
3	0x3decdadf	0.11565184
4	0x3f373835	0.7157014
5	0x3f20a189	0.62746483
6	0x3c3b63dd	0.0114373835
7	0x3e266f34	0.16253358
8	0xbcf38e32	-0.02973089
9	0x3f029b12	0.5101787
10	0x3e86fe3a	0.26365834
11	0x3e9b10cb	0.3028625
12	0xbf65b90e	-0.89735496
13	0x3f066f73	0.5251381
14	0x3f28c4b4	0.65925145
15	0x3f1c54c8	0.61066866
16	0x3e7188a3	0.23587279
17	0xbf56a201	-0.8384095
18	0x3e95918f	0.29212615
19	0xbf205d6f	-0.6264257
20	0xbebd803b	-0.37011895
21	0x3f862083	1.0478672
22	0x3f3cec96	0.737985
23	0x3dd95402	0.10611726
24	0xbd2cc97b	-0.042184334
25	0x3f055337	0.520801
26	0x3f2198e6	0.6312393
27	0x3fb06395	1.378039
28	0x3f5e4ec5	0.8683894
29	0x3ed1f109	0.41004208
30	0xbebab3cb	-0.36465296
31	0x3f24fbb3	0.6444656
32	0xbebf2424	-0.3733226
33	0x3e50386a	0.2033402
34	0xbf81a907	-1.0129708
35	0xbf8742f3	-1.0567306
36	0xbc9d2c9b	-0.019186309
37	0xbf05c5a5	-0.52254707
38	0xbd57f146	-0.05272033
39	0x3e7a0bfc	0.24418634
40	0x3f0099be	0.5023459
41	0x3f03e82e	0.51526153
42	0x3f3d5c4d	0.73968965
43	0x3f5fd1d7	0.87429565
44	0x3f0b7226	0.5447105
45	0x3e7fd8e8	0.24985087
46	0x3eed0d26	0.46299094
47	0x3f8314b7	1.0240697
48	0xbf8ee76b	-1.1164373
49	0x3f27569a	0.6536652
50	0xbfa28704	-1.2697453
51	0x3f75109b	0.9572846
52	0xbf255a0f	-0.64590544
53	0x3f0c3340	0.547657
54	0x3ed988d3	0.424872
55	0xbfd142d5	-1.634852
56	0x3d9b7a64	0.075917035
57	0x3f061e39	0.52389866
58	0x3e3721a9	0.17883934
59	0x3dab3867	0.08360367
60	0xbecb8ccd	-0.3975586
61	0x3e39d471	0.18147446
62	0x3f47f4b0	0.7810774
63	0x3f089963	0.5335905
