project/experiments/SoftActorCritic/Hockey/runs/TE_4_2025-02-21_23-30-13/models/policy_net.pth (torch, 223586 bytes, 12 tensors)

fc1.0.weight f4 [256, 18]
0	0x3e3c3052	0.18377808
1	0xbfe8432f	-1.8145503
2	0x3f34c299	0.7060943
3	0x3e4da0c8	0.20080864
4	0xbdacf97b	-0.08446022
5	0xbd79bd86	-0.06097176
6	0xbe86811a	-0.26270372
7	0xbebd70ff	-0.37000272
8	0x3f0ed907	0.5579991
9	0xbe129aa2	-0.143168
10	0x3e5bd3f6	0.21467575
11	0x3cd333ad	0.025781477
12	0xbeebe27f	-0.4607124
13	0xbec74ae3	-0.38924322
14	0x3d9ae67b	0.07563492
15	0xbe641c65	-0.22276457
16	0xbf251f87	-0.6450123
17	0x3dd2614e	0.10272466
18	0x3f04ba72	0.5184699
19	0xc00895a4	-2.1341333
20	0x3ec80920	0.39069462
21	0x3d374f5f	0.04475343
22	0x3c5452f5	0.012959232
23	0xbbe75cc9	-0.0070606214
24	0xbedbf10d	-0.42957345
25	0x3f797143	0.9743845
26	0x3f26721f	0.65017885
27	0x3d7a0566	0.061040305
28	0xbe7139ed	-0.23557253
29	0x3d73b8a6	0.059502266
30	0xbef101eb	-0.47071776
31	0x3f86101e	1.0473669
32	0xbd4384a2	-0.04773391
33	0xbd9493bd	-0.07254741
34	0xbec5fbf7	-0.38668796
35	0x3ed59fa4	0.4172336
36	0x3f59f217	0.85135025
37	0x3f80dd3a	1.0067513
38	0xbe6e8297	-0.23292004
39	0x3e282b36	0.16422734
40	0x3ed58881	0.41705707
41	0xbe1de455	-0.15419133
42	0xbf5ae24d	-0.8550156
43	0x3fc25a63	1.5183834
44	0x3e97372a	0.29534274
45	0x3ddfca0c	0.10927209
46	0x3d07de7f	0.033171173
47	0xbe8f820c	-0.28028905
48	0xbe26cff3	-0.16290264
49	0x3f249561	0.64290434
50	0xbdee5a37	-0.11638301
51	0xbe7b3723	-0.24532752
52	0xbecf9f08	-0.4055102
53	0x3e920ed3	0.28526935
54	0x3f88c0a5	1.068379
55	0xbf58e395	-0.8472226
56	0x3f1768fe	0.5914458
57	0xbde3be3d	-0.111202694
58	0xbb2999e2	-0.0025879075
59	0x3e27f9f6	0.16403946
60	0xbe4c09de	-0.19925639
61	0xbd4a024b	-0.049318593
62	0xbeeef523	-0.466714
63	0x3e4c27d1	0.19937064
64	0xbb3802f4	-0.0028077932
65	0xbe923f4f	-0.28563926
66	0x3e633f36	0.22192082
67	0xbf859966	-1.0437438
68	0xbd018a04	-0.031625763
69	0xbe9e66da	-0.30937845
70	0x3da9a107	0.08282667
71	0xbde53992	-0.11192621
72	0x3e6522c8	0.22376549
73	0xbeb2a638	-0.3489244
74	0xbd88d1c7	-0.06680637
75	0xbcc5b664	-0.024134822
76	0x3cc8be5b	0.024504831
77	0xbcc561ce	-0.024094488
78	0xbf88bdd0	-1.0682926
79	0x3e49eb1b	0.19718592
80	0x3ebcb358	0.36855578
81	0x3dab9d99	0.08379669
82	0x3ee126a8	0.43974805
83	0xbc788e8d	-0.0151707055
84	0x3f85814f	1.0430087
85	0xbee80f9f	-0.45324418
86	0x3db8aaea	0.09016974
87	0xbc160420	-0.009156257
88	0xbe477d12	-0.19481304
89	0x3dc12ba2	0.094321504
90	0x3dac6a9b	0.08418771
91	0xbf80a27f	-1.004959
92	0x3f2f58b0	0.684947
93	0xbba33775	-0.004980976
94	0xbcd1d3ab	-0.025613626
95	0xbcce9a76	-0.025220137
96	0xbee33d0c	-0.44382513
97	0x3e805312	0.25063378
98	0xbe37ec8c	-0.17961329
99	0xbe395968	-0.18100512
100	0x3e8485fb	0.2588347
101	0xbe3bc638	-0.18337333
102	0xbdd73ffd	-0.10510252
103	0x3ef85061	0.48498824
104	0xbd92ffa9	-0.071776696
105	0x3d76e08f	0.06027275
106	0x3daa15d5	0.083049454
107	0x3d2cf800	0.0422287
108	0x3db1d05d	0.0868232
109	0x3f4a5203	0.7903139
110	0xbef97369	-0.48720863
111	0x3d353cc0	0.04424739
112	0x3d992ced	0.07479272
113	0xbd990c1c	-0.07473013
114	0xbf0cd50c	-0.55012584
115	0xbf029cd6	-0.5102056
116	0x400ae295	2.1700795
117	0x3dee1fe1	0.11627174
118	0xbdaf178f	-0.08549415
119	0xbd922851	-0.07136596
120	0x3eb555fd	0.35417166
121	0xbf9d3c9a	-1.2284119
122	0xbde9e8bf	-0.11421346
123	0x3de5e56c	0.112253994
124	0xbf0410fb	-0.5158841
125	0x3e99e640	0.3005848
126	0x3e06ee57	0.13176857
127	0x3ed76057	0.4206569
128	0xbf3c27fe	-0.73498523
129	0x3d6dff87	0.058105018
130	0xbdbb4b22	-0.0914519
131	0x3dc5953c	0.09647605
132	0xbec20d25	-0.37900653
133	0x3f2b8232	0.6699554
134	0x3f64f95a	0.8944298
135	0xbe04002e	-0.12890694
136	0x3e63489b	0.22195666
137	0xbdc3afce	-0.095550165
138	0xbecf016c	-0.40430772
139	0x3da14ad6	0.07875602
140	0x3dba0b35	0.09084169
141	0x3e540c99	0.2070793
142	0xbe533a00	-0.20627594
143	0xbcb11e79	-0.021620976
144	0x3b9ea91c	0.0048419368
145	0x3f91fae2	1.1404688
146	0x3eb28972	0.34870487
147	0x3dc2433a	0.09485479
148	0x3dd70beb	0.1050032
149	0x3d457512	0.04820735
150	0xbd4495ce	-0.047994427
151	0x3e99a32e	0.3000731
152	0xbef5ae1e	-0.47984403
153	0x3e36210c	0.17786044
154	0xbe26d253	-0.1629117
155	0x3e174c73	0.14775257
156	0xbece9410	-0.40347338
157	0xbf2dc52b	-0.6787898
158	0x3e1f5ea0	0.1556344
159	0xbe6be69c	-0.23037189
160	0xbf9dceb6	-1.2328708
161	0xbf04de9b	-0.5190217
162	0x3e1022f0	0.14075828
163	0x3f8270cb	1.0190672
164	0x3e837c9c	0.25681007
165	0x3c55ea43	0.013056341
166	0xbcda48e2	-0.026646081
167	0x3d500284	0.05078365
168	0x3d053491	0.032520834
169	0xbe9fd416	-0.31216496
170	0x3fbb07c8	1.461175
171	0xbd6ce533	-0.05783577
172	0x3e91f15c	0.28504455
173	0xbe5cc0cb	-0.2155792
174	0x3eaa7356	0.3329112
175	0xbf308629	-0.6895471
176	0x3e930dd7	0.28721496
177	0xbee0d9c6	-0.43916148
178	0xbfe68a07	-1.8010873
179	0x3e438755	0.19094594
180	0x3f77a117	0.9673018
181	0xbca1aeb1	-0.01973662
182	0xbe3e9298	-0.18610609
183	0x3d2ca35c	0.04214798
184	0x3ddb524d	0.10709057
185	0xbd225a74	-0.039637044
186	0xbf80bff1	-1.0058576
187	0x3e52e62d	0.20595618
188	0x3f4da567	0.8033051
189	0xbe0b5d67	-0.13609849
190	0x3ae9825f	0.0017815343
191	0xbe2fc772	-0.17165926
192	0x3fb28671	1.3947278
193	0xbed62c15	-0.41830507
194	0x3e6b201d	0.22961469
195	0xbd66c42b	-0.056339424
196	0xbf26c2de	-0.65141094
197	0xbefd5156	-0.49476117
198	0x3f559ecc	0.8344543
199	0x3eb1cf3e	0.34728426
200	0xbd8c8917	-0.06862085
201	0xbe0f0be0	-0.13969374
202	0x3e555f5c	0.20837158
203	0xbe09323e	-0.13398072
204	0xbedc0f70	-0.42980528
205	0xbee07836	-0.43841714
206	0xbf4dc033	-0.803714
207	0xbe977c1c	-0.29586875
208	0x3f388576	0.72078645
209	0xbdf30660	-0.1186645
210	0xbedde572	-0.43339115
211	0xbf31490e	-0.692521
212	0xbe42122d	-0.18952246
213	0xbdb70b4d	-0.08937702
214	0xbe281e78	-0.16417873
215	0xbea8ea92	-0.32991463
216	0x3e5ffae2	0.21873048
217	0x3f105429	0.5637842
218	0xbe650a66	-0.22367248
219	0x3dd0cdf3	0.10195532
220	0x3d5a964d	0.053365994
221	0x3ce4662d	0.027880752
222	0xbea55283	-0.32289514
223	0x3ce6b812	0.028163943
224	0x3f8369e3	1.0266689
225	0x3dd4f83b	0.10398909
226	0xbe7cce4d	-0.24688073
227	0x3d475375	0.048663575
228	0x3f6446e2	0.8917066
229	0x3dc74fd4	0.09732023
230	0xbd106ee7	-0.035262015
231	0xbea39dc7	-0.31956312
232	0xbf30bbde	-0.6903666
233	0xbe1da4b6	-0.15394863
234	0xbecb69b6	-0.3972909
235	0x3d993d17	0.07482355
236	0xbe4d3046	-0.20037946
237	0x3cfbbc54	0.03072945
238	0x3c83e503	0.016100412
239	0x3bbad6d5	0.0057018795
240	0xbe001803	-0.1250916
241	0x3e814301	0.25246432
242	0x3e55a033	0.20861892
243	0xbd77729b	-0.06041203
244	0x3f374ccf	0.71601576
245	0xbd2f0c2b	-0.042736214
246	0x3f3efb41	0.74602133
247	0x3f8f5881	1.1198884
248	0x3d4fcd68	0.050733
249	0xbe14ca18	-0.14530218
250	0xbfdc227e	-1.7198026
251	0xbdeeca16	-0.116596386
252	0x3e051455	0.12996037
253	0xbe567196	-0.20941767
254	0x3e82fa9f	0.25581834
255	0x3dcd3252	0.100193635

fc1.0.bias f4 [256]
0	0xbf0b74ea	-0.5447527
1	0x3d961272	0.07327737
2	0xbe0e91ad	-0.13922758
3	0x3db0d821	0.08634973
4	0x3e0c52e2	0.13703492
5	0x3f9f6a84	1.2454381
6	0xbefb6102	-0.4909745
7	0xbe9f817b	-0.31153473
8	0xbd87ab13	-0.06624427
9	0x3e931067	0.28723451
10	0xbf6969e4	-0.911772
11	0xbd4bf65d	-0.049795497
12	0xbf206764	-0.6265776
13	0xbcd84a35	-0.026402572
14	0x3ec9b03f	0.39392278
15	0xbfa86974	-1.3157182
16	0x3d2dbca9	0.04241625
17	0xbe9624d1	-0.29324964
18	0xbf2cb8a5	-0.67469245
19	0xbe03785c	-0.12838882
20	0xbed6c368	-0.41945958
21	0xbf49bfa9	-0.78808075
22	0xbf1367bc	-0.5758016
23	0xbf001e6a	-0.5004641
24	0xbfb15ef1	-1.3857099
25	0x3d44f1aa	0.04808203
26	0xbee7c29b	-0.4526566
27	0xbe8f745d	-0.28018466
28	0xbeb363db	-0.3503712
29	0x3f1f0bd0	0.621274
30	0x3e3badb5	0.18327983
31	0xbf68681f	-0.90783876
32	0x3cec9a75	0.028882245
33	0x3eb9326e	0.36171287
34	0xbe8bf898	-0.273381
35	0x3e20a358	0.1568731
36	0xbe08e8fe	-0.1337013
37	0xbf04a2f3	-0.5181114
38	0x3e977326	0.2958004
39	0xbf76b1cf	-0.96365064
40	0xb98b30aa	-0.00026548404
41	0x3f0be85a	0.54651415
42	0xbec6d0c2	-0.38831145
43	0x3e93df09	0.288811
44	0xbfc4d624	-1.537785
45	0xbf9eb5c7	-1.2399224
46	0xbe84b777	-0.25921223
47	0xbcf1ead4	-0.02953092
48	0xbd570a30	-0.05249995
49	0x3d956b10	0.07295811
50	0xbfa35469	-1.2760135
51	0x3ea60701	0.3242722
52	0x3cc179a2	0.02361757
53	0xbe945c39	-0.2897661
54	0x3e74f176	0.23920235
55	0xbf6807f9	-0.90637165
56	0x3f66b908	0.90126085
57	0xbea9b0b4	-0.33142626
58	0x3ec0b60f	0.376389
59	0xbf661fb3	-0.8989212
60	0x3e302eca	0.17205349
61	0x3f6fa8e8	0.93617105
62	0xbfc5d556	-1.545573
63	0x3f45ecda	0.7731453
64	0xbf30954d	-0.68977815
65	0xbfb29863	-1.3952755
66	0xbea60278	-0.32423759
67	0xbf8b3219	-1.0874664
68	0x3dc3428e	0.09534179
69	0xbf4fc964	-0.8116667
70	0xbf000d5c	-0.50020385
71	0xbfbeb0ae	-1.4897668
72	0xbe659b36	-0.2242249
73	0xbe81515b	-0.25257382
74	0x3c3eb9d6	0.011640986
75	0xbec9f432	-0.3944412
76	0x3ee659dc	0.44990432
77	0xbf7c631c	-0.9858873
78	0x3f1a6911	0.6031657
79	0x3ef49af5	0.47774473
80	0x3e3d6eb0	0.18499255
81	0x3fc619b6	1.5476596
82	0xbd9d35fc	-0.07676312
83	0xbe6e0333	-0.23243408
84	0xbe87951d	-0.26480952
85	0xbc3274a1	-0.010892064
86	0xbd933dad	-0.07189498
87	0xbf9a175d	-1.203838
88	0x3f251b29	0.6449457
89	0xbf48b5a1	-0.78402144
90	0xbecb044d	-0.3965172
91	0x3e46421d	0.19361158
92	0x3ec94f84	0.39318478
93	0x3e565868	0.20932162
94	0xbd9c973a	-0.07646032
95	0xbe9e8977	-0.30964252
96	0xbdb4f471	-0.08835686
97	0xbde34848	-0.11097771
98	0xbe891ed9	-0.26781347
99	0xbe30ab10	-0.17252755
100	0xbc983e12	-0.018584285
101	0xbf373dd1	-0.715787
102	0x3eacd8a6	0.3375904
103	0x3d9187fa	0.071060136
104	0x3ebf9e01	0.37425235
105	0xbf415aed	-0.75529367
106	0xbf74f1d4	-0.956815
107	0xbe863a67	-0.26216432
108	0xbf035cd4	-0.5131352
109	0x3eaffd33	0.34372863
110	0x3dc886f7	0.097913675
111	0xbf206a35	-0.6266206
112	0xbe913ffc	-0.2836913
113	0xbf44f287	-0.7693257
114	0xbdc568ed	-0.09639154
115	0xbf4cc1a2	-0.7998296
116	0xbf6487c2	-0.8926965
117	0xbf6be97b	-0.9215314
118	0x3f060494	0.52350736
119	0xbe963111	-0.2933431
120	0xbf88f09c	-1.0698428
121	0xbf4cd0d5	-0.8000615
122	0xbef8632a	-0.48513156
123	0xbee77f23	-0.45214185
124	0xbec334ea	-0.38126308
125	0xbf358273	-0.70902175
126	0xbe9d187b	-0.3068274
127	0xbf899b48	-1.0750513
128	0xbee88f25	-0.4542171
129	0x3d3ff366	0.046862982
130	0xbf841c91	-1.0321218
131	0xbf0d57d9	-0.5521217
132	0xbf61fca7	-0.8827614
133	0x3f2cd008	0.6750493
134	0xbe52246c	-0.20521706
135	0xbfcd134f	-1.6021518
136	0xbf196ee9	-0.5993486
137	0xbefc1713	-0.49236354
138	0xbdf590e3	-0.119905256
139	0xbf855c4c	-1.0418792
140	0xbe15f895	-0.14645608
141	0x3b839758	0.0040158443
142	0x3e388553	0.18019609
143	0xbfaf9a9c	-1.3719058
144	0xbf0d2760	-0.55138206
145	0xbe8e1649	-0.27751377
146	0xbe621ded	-0.22081728
147	0xbf6459a5	-0.89199287
148	0xbd63f7b3	-0.055656146
149	0xbeb95611	-0.36198476
150	0xbf623d53	-0.88374823
151	0xbe8466bf	-0.2585964
152	0xbf33911b	-0.7014329
153	0xbe63fd51	-0.22264601
154	0x3dbb123e	0.09134339
155	0xbe1b1462	-0.15144494
156	0xbd58e2e1	-0.052950744
157	0x3edc1037	0.4298112
158	0xbd8e6507	-0.06952863
159	0xbe67ae3b	-0.22625057
160	0x3e206376	0.15662941
161	0xbf1304b9	-0.5742908
162	0x3d9507a0	0.07276845
163	0x3d215a5b	0.03939281
164	0xbed8e32f	-0.42360827
165	0xbe14d082	-0.14532664
166	0xbf81d8c9	-1.0144283
167	0xbe924b55	-0.285731
168	0x3e6d517c	0.23175615
169	0x3ea6bb9b	0.32565007
170	0x3cf25e42	0.029585961
171	0xbe71c0da	-0.23608723
172	0x3e8d20c9	0.27564076
173	0xbf8beb22	-1.0931132
174	0xbf7e0e5e	-0.9924067
175	0x3ef0d885	0.4704019
176	0xbf0f5798	-0.5599303
177	0xbc6227d4	-0.013803441
178	0x3d1dcae6	0.038523577
179	0x3f988c3f	1.19178
180	0xbdfeade9	-0.124355145
181	0xbf5a90a6	-0.85376966
182	0xbf8ffd16	-1.1249111
183	0xbee0ad56	-0.43882245
184	0xbd4e97e0	-0.050437808
185	0xbf56d4ea	-0.8391863
186	0xbf1fa6a6	-0.6236366
187	0xbf8419cd	-1.0320374
188	0x3e53403d	0.20629974
189	0xbd833dc1	-0.06408263
190	0xbf646064	-0.8920958
191	0xbdc6e116	-0.097109005
192	0x3e214e45	0.15752514
193	0xbeb2bae1	-0.34908202
194	0x3ec5c616	0.3862769
195	0xbe69a830	-0.22818065
196	0x3eb58031	0.35449365
197	0x3ed11735	0.40838018
198	0xbdad5ae2	-0.084646
199	0xbf8f2688	-1.1183634
200	0xbe671e15	-0.22570069
201	0x3e19fe87	0.150385
202	0xbf07939e	-0.5295962
203	0xbf2ff2cd	-0.6872986
204	0xbf5787dd	-0.84191686
205	0xbf5438e8	-0.8289933
206	0xbdbbd30e	-0.09171115
207	0xbe92e293	-0.28688487
208	0xbec0af33	-0.37633666
209	0x3d091906	0.03347113
210	0xbf02b49f	-0.51056856
211	0x3ed32f5f	0.4124708
212	0xbf065df6	-0.52487123
213	0x3d5ce1ea	0.053926386
214	0x3ed9da91	0.42549565
215	0xbf3a7611	-0.72836405
216	0x3e012361	0.12611152
217	0xbf32e6c8	-0.69883394
218	0xbccd0edc	-0.0250315
219	0xbe9faf33	-0.31188354
220	0xbf9d9da9	-1.2313739
221	0xbe9aa078	-0.30200553
222	0xbead2fb4	-0.33825457
223	0xbf64f501	-0.89436346
224	0xbfad7643	-1.3551716
225	0xbf07f4dc	-0.53108
226	0x3e177c79	0.14793576
227	0xbf349163	-0.7053434
228	0xbea65102	-0.3248368
229	0xbec1fe7e	-0.37889475
230	0xbf8a5b86	-1.0809181
231	0x3ea85fb8	0.32885528
232	0xbe0cfaf9	-0.13767613
233	0xbed1c42c	-0.4096998
234	0xbf2d0463	-0.6758482
235	0x3fb64201	1.4238893
236	0xbe73293f	-0.23746203
237	0xbdd65f46	-0.10467391
238	0xbddf6b23	-0.109091066
239	0xbdf9e431	-0.12201727
240	0x3eb72dbd	0.35777083
241	0x3ee37811	0.4442754
242	0xbe9c83da	-0.30569345
243	0xbf04e3b7	-0.51909965
244	0xbf185dd9	-0.595182
245	0x3ea9b805	0.33148208
246	0xbe4bebfc	-0.1991424
247	0x3f1c3601	0.61019903
248	0xbed5b2af	-0.41737887
249	0xbc616db1	-0.013759063
250	0xbe4dad7b	-0.20085709
251	0xbe6baaf1	-0.23014428
252	0xbe3e6ae5	-0.18595465
253	0xbf3ac07b	-0.7294995
254	0x3f2d8d03	0.6779329
255	0xbf34fd23	-0.70698756

fc1.2.weight f4 [128, 256]
0	0x3d40d48c	0.0470777
1	0x3dc3a8a4	0.0955365
2	0x3f3d27ae	0.7388867
3	0x3e880358	0.2656505
4	0xbf474d40	-0.7785225
5	0x3e14ca15	0.14530213
6	0xbf15b548	-0.5847974
7	0x3d7685a0	0.06018603
8	0x3e52a1f8	0.20569599
9	0x3ebfabdc	0.37435806
10	0x3e2b6722	0.16738561
11	0xbf08cb45	-0.53435165
12	0x3e595bf9	0.21226491
13	0xbe608923	-0.21927314
14	0x3d4c9c15	0.04995354
15	0xbf2b4ed7	-0.66917175
16	0xbdce53ca	-0.10074575
17	0x3e56cb32	0.2097595
18	0xbe6cadb2	-0.23113135
19	0x3eba23da	0.36355478
20	0xbf0257d0	-0.5091524
21	0x3e72f8f5	0.23727782
22	0xbecd32cc	-0.40077817
23	0xbca2770c	-0.019832157
24	0xbf32679a	-0.69689333
25	0x3ea3f78f	0.3202481
26	0xbd240731	-0.04004592
27	0xbf248a5e	-0.6427363
28	0x3e05b2e4	0.13056523
29	0x3d60cc74	0.05488248
30	0xbf367c5e	-0.7128352
31	0x3e3a3a69	0.18186344
32	0xbed7cb1d	-0.4214715
33	0xbe851569	-0.25992897
34	0xbe92dab0	-0.2868247
35	0xbf62cc7a	-0.88593256
36	0xbf6a43b3	-0.9150955
37	0xbf40374e	-0.7508439
38	0x3eef06be	0.4668483
39	0xbeaddd59	-0.33957937
40	0xbea2fba3	-0.3183261
41	0xbf89c689	-1.0763713
42	0x3e1a891a	0.15091363
43	0xbde6f404	-0.11277011
44	0xbeb32b42	-0.3499394
45	0xbf10a18f	-0.5649652
46	0xbdc50a8d	-0.09621153
47	0xbe3f9c59	-0.18711986
48	0x3e6e0962	0.23245767
49	0x3dd489a0	0.103778124
50	0x3dbf55c8	0.09342533
51	0x3ed8ce0d	0.42344704
52	0x3c12d0d5	0.008960922
53	0xbc83c712	-0.016086135
54	0xbdf91cbe	-0.12163685
55	0xbeb9b8d5	-0.36273828
56	0x3f0448bb	0.5167348
57	0x3e21fa29	0.15818085
58	0x3eb08f25	0.3448421
59	0x3ea988d2	0.33112198
60	0x3ed4c94c	0.41559827
61	0x3f133480	0.57501984
62	0x3ddec524	0.10877445
63	0xbf1eb173	-0.61989516
64	0x3e02e511	0.12782694
65	0xbe6620b6	-0.22473416
66	0xbe703494	-0.23457557
67	0xbe1b6ba0	-0.15177774
68	0x3e4f2a5d	0.20231004
69	0xbf4d372b	-0.80162305
70	0xbe2e7c0b	-0.17039506
71	0xbef6761c	-0.48136985
72	0x3e10a90f	0.1412699
73	0x3e01ed89	0.12688269
74	0xbe98f77a	-0.2987631
75	0xbf32a713	-0.69786185
76	0xbbe818e0	-0.0070830435
77	0xbe211518	-0.15730703
78	0xbd38c4eb	-0.04510967
79	0x3e61cbe3	0.22050433
80	0xbe420fd8	-0.18951356
81	0x3ca588e6	0.02020688
82	0xbeef7414	-0.46768248
83	0xbe93b61d	-0.2884988
84	0xbd877fd1	-0.06616176
85	0xbdef73a2	-0.11691977
86	0xbf14e458	-0.58160925
87	0xbece6e1a	-0.40318376
88	0xbddbf5ea	-0.10740264
89	0xbe4cdf52	-0.20007065
90	0xbe8a7570	-0.27042723
91	0x3e0ce4f9	0.13759221
92	0x3ea2f7ec	0.31829774
93	0x3cd01589	0.025400894
94	0x3e94223f	0.28932378
95	0x3e31ee5b	0.17376082
96	0x3f270c17	0.6525282
97	0x3e61924c	0.22028464
98	0xbe125d2f	-0.14293359
99	0xbedc4f14	-0.43029082
100	0x3efb7abc	0.49117076
101	0x3e1296a5	0.14315279
102	0x3d24aabc	0.040201887
103	0xbcd23c61	-0.025663557
104	0xbcdb9421	-0.026804032
105	0xbe08ed81	-0.1337185
106	0x3eb83e7e	0.35985178
107	0xbf887d12	-1.0663168
108	0xbd92c08e	-0.07165633
109	0xbe21d78b	-0.1580488
110	0xbef96d77	-0.48716328
111	0xbf323fc4	-0.6962855
112	0x3ebba466	0.36648864
113	0x3e7b2daf	0.24529146
114	0xbf47099a	-0.77749026
115	0xbf22c010	-0.63574314
116	0xbdcfa6df	-0.1013925
117	0xbf5538ed	-0.83289987
118	0x3eabf672	0.3358646
119	0x3d89e756	0.06733577
120	0xbe4eefb7	-0.20208631
121	0x3db1c464	0.08680037
122	0xbe5669d2	-0.20938805
123	0x3da36afb	0.07979389
124	0x3e9bad77	0.3040578
125	0xbf5b0e2e	-0.8556851
126	0xbe9f28d4	-0.31085837
127	0xbf1414e8	-0.578444
128	0xbc98c4ce	-0.018648531
129	0x3d892ac0	0.06697607
130	0xbed136de	-0.40862173
131	0xbe231bd4	-0.15928584
132	0xbf2a9f9d	-0.666498
133	0xbef2f575	-0.47452894
134	0xbb9bb577	-0.004751857
135	0x3cd7befd	0.026336187
136	0x3e0d8aa5	0.1382242
137	0xbf175edc	-0.5912912
138	0x3e99d2b8	0.30043578
139	0xbf2acaa6	-0.66715467
140	0x3da55ed1	0.080747254
141	0xbe8ca241	-0.2746754
142	0xbf13af98	-0.5768981
143	0x3d6d7da2	0.05798114
144	0x3dd1840c	0.10230264
145	0xbdbc12d9	-0.091832824
146	0xbec6a5c4	-0.38798344
147	0x3e51dbb0	0.2049396
148	0x3dd509c3	0.104022525
149	0xbc87e667	-0.016589357
150	0xbf293a2a	-0.66104376
151	0xbf36fdb3	-0.71480864
152	0xbeeeaae9	-0.4661477
153	0xbf27a187	-0.65480846
154	0xbf1d1138	-0.613544
155	0xbeaa08e1	-0.332099
156	0xbeb8ed9d	-0.36118785
157	0x3ec1e3f5	0.3786923
158	0xbc81805c	-0.015808277
159	0xbfd79d73	-1.6844925
160	0xbefd27fd	-0.4944457
161	0x3d9a8b62	0.075461164
162	0xbf49c1a5	-0.78811103
163	0xbe629e5f	-0.22130726
164	0xbe810b8f	-0.2520413
165	0xbf22ed65	-0.63643485
166	0x3de1c957	0.11024731
167	0xbe487611	-0.19576289
168	0xbdd584c0	-0.10425711
169	0x3e97d336	0.2965333
170	0x3bcd7674	0.006270224
171	0x3ee4ae58	0.44664264
172	0xbe77e821	-0.24209644
173	0xbe84004d	-0.2578148
174	0xbe9d7f37	-0.3076112
175	0x3e657f11	0.22411753
176	0xbe1fc56a	-0.15602651
177	0xbe43e091	-0.19128634
178	0xbf9eaa67	-1.2395753
179	0x3eb5df39	0.35521868
180	0xbeca613c	-0.3952731
181	0xbf0ab76b	-0.54186124
182	0xbeb01920	-0.3439417
183	0xbfb7b1f5	-1.4351183
184	0xbf084903	-0.5323641
185	0xbf03340e	-0.51251304
186	0xbe472587	-0.1944791
187	0xbf7c64ca	-0.9859129
188	0xbdbea6c0	-0.09309149
189	0xbe4c2e06	-0.19939432
190	0xbd653938	-0.05596277
191	0xbed4b219	-0.41542128
192	0x3e08afa7	0.13348256
193	0xbf3e63fa	-0.743713
194	0xbf098af9	-0.5372768
195	0xbeef2fbe	-0.46716112
196	0xbf486df5	-0.7829278
197	0x3ebbabb7	0.36654446
198	0xbf47c13b	-0.7802922
199	0x3e7f9089	0.2495748
200	0xbdf5cb05	-0.120016135
201	0xbf3ff995	-0.74990207
202	0xbf2bfbd4	-0.67181134
203	0xbf0c3a8d	-0.5477684
204	0xbe871e88	-0.2639048
205	0x3c53f6de	0.012937276
206	0xbd0b3901	-0.03398991
207	0xbf13fada	-0.57804644
208	0x3e5e8075	0.2172869
209	0x3eaee18d	0.34156457
210	0xbe1f8990	-0.1557982
211	0x3db23f72	0.087035075
212	0x3e9546d4	0.291556
213	0xbd7c643b	-0.061619025
214	0x3f0568b8	0.52112913
215	0xbe44bc60	-0.19212484
216	0xbe0e273e	-0.13882157
217	0x3d0837ef	0.033256467
218	0xbde9626c	-0.113957256
219	0xbcc3c62c	-0.023898207
220	0xbe8fa051	-0.28052
221	0x3d5cbd98	0.05389175
222	0x3d9a7abf	0.07542943
223	0xbdc1ce59	-0.09463186
224	0xbe87e1d4	-0.2653948
225	0xbf71e3cc	-0.94488215
226	0xbd9b182f	-0.07572972
227	0xbebeb2fe	-0.37245935
228	0x3dad75aa	0.08469708
229	0xbd88a384	-0.06671813
230	0x3b618f8b	0.0034417834
231	0xbf544db3	-0.8293106
232	0x3e968d92	0.29404885
233	0xbee5d9de	-0.44892782
234	0x3ee35545	0.44400993
235	0x3f106662	0.56406224
236	0xbe76a8ed	-0.24087878
237	0xbe4004e3	-0.18751864
238	0xbe239197	-0.15973507
239	0x3ec87a29	0.391557
240	0x3eb82d19	0.35971907
241	0xb9efae25	-0.0004571538
242	0xbf1897c3	-0.5960657
243	0xbe90bfb2	-0.28271252
244	0x3ea84e79	0.3287237
245	0xbf032f17	-0.5124373
246	0xbeaadef4	-0.33373225
247	0xbf464a4e	-0.7745713
248	0x3eeba927	0.4602749
249	0xbea46561	-0.32108596
250	0xbdaf0d81	-0.085474975
251	0xbd2c1a23	-0.042017113
252	0xbd9aeb33	-0.07564392
253	0xbe2d0c0a	-0.16899124
254	0xbee9ba14	-0.4564978
255	0xbf2b9ac2	-0.67033017

fc1.2.bias f4 [128]
0	0x3f372371	0.71538454
1	0x3f9b2663	1.212109
2	0x3e20a8a4	0.15689331
3	0x3d2ddeb2	0.042448707
4	0x3d2c6181	0.042085174
5	0xbe34758e	-0.17622969
6	0x3e3b3300	0.18281174
7	0xbe87ec25	-0.2654735
8	0x3efa11e6	0.4884178
9	0xbe86baf6	-0.26314515
10	0x3ef1748f	0.4715924
11	0xbe856d08	-0.26059747
12	0xbe001949	-0.12509646
13	0xbe5ec1ab	-0.21753566
14	0x3ec656b0	0.38738012
15	0xbd66fb19	-0.05639181
16	0x3d15ccb8	0.03657219
17	0xbdefe1f4	-0.11713019
18	0xbe7f09f9	-0.24906148
19	0x3e0630f5	0.13104613
20	0x3cf4848c	0.02984836
21	0xbf1357be	-0.5755576
22	0xbea1b092	-0.31580025
23	0xbe98c461	-0.29837325
24	0x3e8c7878	0.2743566
25	0x3e536b11	0.20646311
26	0xbed528a3	-0.41632566
27	0xbe953d4c	-0.29148328
28	0xbe0eace2	-0.13933137
29	0xbfae8b04	-1.3636174
30	0xbe9476d4	-0.2899691
31	0x3f04753e	0.517414
32	0xbd271bb5	-0.040797908
33	0x398774df	0.00025836282
34	0x3da47ebd	0.08031986
35	0x3dd3dd8e	0.103449926
36	0x3d96888c	0.07350263
37	0x3e6f3c9b	0.23362963
38	0xbd93a1bc	-0.07208583
39	0x3ba76f23	0.005109684
40	0xbf50079e	-0.8126162
41	0x3d8c06a6	0.068372056
42	0xbe8b8177	-0.2724721
43	0x3e989f90	0.29809237
44	0x3ab952f6	0.0014139104
45	0x3cce1ca8	0.025160149
46	0x3e552ee2	0.20818666
47	0x3efa808b	0.48926196
48	0xbf1ff051	-0.6247607
49	0xbe0e616b	-0.1390435
50	0xbba0c300	-0.0049060583
51	0x3f236554	0.6382649
52	0x3f1e67cc	0.6187713
53	0x3e419b6a	0.18906942
54	0x3eae12c0	0.3399868
55	0xbdd4bcc1	-0.103875645
56	0x3e2af7cc	0.1669609
57	0x3ce4a850	0.027912289
58	0x3f104304	0.5635226
59	0xbe239fed	-0.15978976
60	0x3efc4ad4	0.4927584
61	0x3da973a6	0.08274011
62	0xbe53a7eb	-0.20669524
63	0xbcf9b78c	-0.03048303
64	0x3dac2554	0.08405557
65	0xbe3945ad	-0.18092985
66	0x3e772be7	0.24137841
67	0x3ec65682	0.38737875
68	0x3ead1499	0.33804777
69	0x3ddd18e0	0.1079576
70	0x3f5f8d33	0.8732483
71	0x3eb75a26	0.35810965
72	0x3e2eb76f	0.17062162
73	0x3e89da99	0.2692459
74	0xbe7a4a41	-0.24442388
75	0xbe8d118d	-0.27552453
76	0xbee388be	-0.44440264
77	0xbdc62b9d	-0.09676287
78	0x3c796927	0.015222824
79	0xbd67e879	-0.056618188
80	0x3e439e8e	0.19103453
81	0x3ec1bfa0	0.3784151
82	0x3e37739c	0.17915195
83	0x3d9eb057	0.07748478
84	0xbdfa8d36	-0.12233965
85	0xbea528af	-0.32257602
86	0x3e41231b	0.18861048
87	0xbe79f2b2	-0.24408987
88	0x3e57a177	0.21057688
89	0xbe903d2e	-0.28171676
90	0x3f236ec6	0.638409
91	0x3f53849b	0.82624215
92	0xbeba2a9a	-0.36360627
93	0x3ecb4a75	0.39705244
94	0xbf2078f3	-0.62684554
95	0x3ed688f5	0.41901365
96	0xbd73fc8b	-0.059567016
97	0x3e322b5f	0.17399357
98	0xbd235174	-0.0398726
99	0x3e48b41c	0.19599956
100	0xbd9b358a	-0.07578571
101	0x3ea83585	0.32853332
102	0x3dac5aa1	0.084157236
103	0xbe4f220c	-0.20227832
104	0xbe183deb	-0.1486737
105	0x3e3215df	0.17391156
106	0xbee7407c	-0.45166385
107	0xbeb0588c	-0.34442556
108	0x3f477d74	0.779258
109	0x3e568666	0.20949706
110	0x3ee70731	0.45122674
111	0x3e485e88	0.19567311
112	0xbe465b5e	-0.19370791
113	0xbd92fd1a	-0.071771815
114	0x3d672388	0.05643037
115	0x3d737913	0.059441637
116	0xbd98940a	-0.07450111
117	0x3f0692bb	0.5256764
118	0x3eea82bd	0.4580287
119	0x3eb42100	0.35181427
120	0xbd8074ae	-0.06272255
121	0x3ef2af85	0.47399536
122	0xbd6606bd	-0.05615877
123	0xbda9646d	-0.08271108
124	0xbf7a77d9	-0.97839123
125	0x3e89cc08	0.26913476
126	0xbed211ba	-0.4102915
127	0x3de19a86	0.11015801

fc_mu.0.weight f4 [64, 128]
0	0xbe91be75	-0.2846562
1	0xbede753d	-0.4344882
2	0x3c29281b	0.010324503
3	0x3e3ad051	0.18243529
4	0xbe6512e7	-0.22370492
5	0xbeac065a	-0.33598596
6	0x3e0aaa92	0.1354163
7	0x3ecc042f	0.39846942
8	0x3c01c1e8	0.007919766
9	0xbed99bf9	-0.4250181
10	0x3ea7ceae	0.32774872
11	0xbe09ac56	-0.13444647
12	0x3f0e9157	0.5569052
13	0x3dfe71f9	0.12424082
14	0x3da11ca4	0.07866791
15	0xbf3bcd87	-0.73360485
16	0x3ea5542e	0.32290787
17	0x3d0e7a0f	0.034784373
18	0x3e74b0ec	0.23895615
19	0x3eb7a18e	0.35865444
20	0xbde51f40	-0.11187601
21	0x3dc36aea	0.095418766
22	0xbf59045f	-0.84772295
23	0x3e34ed23	0.17668585
24	0x3dea77d7	0.11448639
25	0xbebd3d8c	-0.3696102
26	0x3e87ddb1	0.26536325
27	0xbeeb8095	-0.45996538
28	0x3f9ae901	1.2102357
29	0xbe7371d6	-0.23773894
30	0xbec3d1f9	-0.38246134
31	0xbebb1a7d	-0.36543646
32	0xbccbc0a4	-0.024872132
33	0xbdeb65c4	-0.1149402
34	0x3e991b63	0.29903707
35	0x3ef3a11f	0.47583863
36	0x3e71fdec	0.2363202
37	0xbdfa8fe6	-0.12234478
38	0xbe0c151f	-0.13679932
39	0x3baaccb7	0.005212392
40	0xbe7c44e4	-0.24635655
41	0xbe2c058f	-0.16798995
42	0xbf99a79b	-1.2004274
43	0x3d5bb000	0.053634644
44	0x3e5dfe44	0.21679026
45	0x3db9c54f	0.09070837
46	0xbf042978	-0.51625776
47	0x3f0fea24	0.56216645
48	0xbd9865fc	-0.07441327
49	0x3dce61e9	0.10077269
50	0x3ef925fc	0.48661792
51	0x3def64c9	0.11689145
52	0xbe35cc05	-0.17753609
53	0xbee2f76b	-0.4432939
54	0xbe038bc6	-0.12846288
55	0x3d82a98e	0.06379996
56	0xbd20741f	-0.03917324
57	0x3da2675d	0.07929871
58	0xbf9606c3	-1.1720814
59	0xbedf165d	-0.4357175
60	0xbea344e3	-0.31888494
61	0xbf04c35e	-0.51860607
62	0x3cf14a10	0.029454261
63	0xbd29f2f0	-0.04149145
64	0x3e693d08	0.22777188
65	0xbe9cd96c	-0.3063463
66	0x3e6e1d75	0.23253424
67	0xbe6ff67f	-0.23433875
68	0xbf473180	-0.77809906
69	0xbf809c7c	-1.0047755
70	0x3cc11fd5	0.023574749
71	0x3dd0ea98	0.10200995
72	0xbc005094	-0.007831711
73	0xbf329431	-0.6975737
74	0xbeb428ae	-0.35187286
75	0xbdad9839	-0.084763
76	0xbc6cab60	-0.014445156
77	0x3e207d3f	0.15672778
78	0xbe8156c4	-0.2526151
79	0xbef0b092	-0.47009712
80	0x3d5e9938	0.05434534
81	0x3c0aa774	0.0084627755
82	0x3e86abf9	0.2630308
83	0x3da7aaba	0.081868604
84	0xbf819a0c	-1.0125136
85	0x3cb3a92b	0.021931252
86	0xba196604	-0.00058516883
87	0xbe3bbfa1	-0.1833482
88	0xbafb8f1e	-0.0019192433
89	0xbd6442bc	-0.055727705
90	0x3eda0e6e	0.42589134
91	0xbf31e204	-0.694855
92	0x3e08b7a1	0.13351299
93	0xbc86985b	-0.01643007
94	0xbf05596d	-0.5208958
95	0xbd0f1be9	-0.034938727
96	0xbd32b3de	-0.043628566
97	0xbf653d29	-0.8954645
98	0xbf07587b	-0.52869385
99	0xbe4f3260	-0.2023406
100	0x3e278a71	0.16361405
101	0xbf007115	-0.5017255
102	0xbecec6ab	-0.40385947
103	0xbed0470c	-0.40679204
104	0xbdff362c	-0.12461504
105	0xbf88fc8b	-1.070207
106	0x3d41fa44	0.047357813
107	0x3e1de830	0.15420604
108	0xbef7c5e4	-0.48393166
109	0xbde062e5	-0.10956363
110	0x3de026dc	0.10944912
111	0xbf384ad6	-0.7198919
112	0xbf290d78	-0.66036177
113	0xbe75f10f	-0.24017738
114	0xbd8cfe2c	-0.06884417
115	0x3f26f9a4	0.6522467
116	0xbdda9130	-0.106722236
117	0x3dfff0f4	0.1249713
118	0xbe388217	-0.18018375
119	0x3ecb1fe4	0.39672768
120	0x3d2f78e4	0.0428399
121	0xbdd33d16	-0.103143856
122	0xbd2bfea7	-0.041990902
123	0xbd179276	-0.03700491
124	0x3dd9a80c	0.106277555
125	0x3ea953c6	0.33071727
126	0xbf01dd4b	-0.5072829
127	0xbf481e7a	-0.78171504
128	0x3da3d3c6	0.07999377
129	0x3e8ac9de	0.27107137
130	0xbe9dece1	-0.30844787
131	0xbf2068d1	-0.6265994
132	0xbc5d435f	-0.013504832
133	0x3e4fb8ec	0.20285386
134	0xbd9a98c6	-0.075486705
135	0xbc09326e	-0.00837384
136	0xbce2cc9d	-0.027685458
137	0xbde9c19c	-0.11413881
138	0xbe9c5038	-0.30529952
139	0xbe66b9aa	-0.22531763
140	0x3e337afc	0.17527384
141	0xbe3fcae1	-0.18729736
142	0xbe211370	-0.15730071
143	0x3df26314	0.11835304
144	0x3d15d1c1	0.03657699
145	0x3e2a9090	0.16656709
146	0x3e95410f	0.29151198
147	0x3d3079db	0.04308496
148	0x3de91985	0.113818206
149	0xbef91656	-0.48649853
150	0xbf1b3393	-0.6062557
151	0x3d5666e8	0.052344233
152	0xbf7ee871	-0.9957343
153	0xbce97dff	-0.028502462
154	0xbc40385b	-0.011732186
155	0x3c9b4190	0.018952161
156	0x3e66e21e	0.22547194
157	0xbe5aaca0	-0.21354914
158	0x3db7bf4f	0.08972036
159	0xbd95cad9	-0.07314081
160	0xbe469eef	-0.19396566
161	0xbe49baf1	-0.19700219
162	0x3e11247c	0.14174074
163	0xbe964d1c	-0.29355705
164	0x3f11c166	0.5693573
165	0xbf029cb0	-0.51020336
166	0x3d6643cf	0.05621701
167	0x3e1df155	0.15424092
168	0xbb786efe	-0.0037907953
169	0xbe552681	-0.2081547
170	0xbbd710ef	-0.006563298
171	0xbf450744	-0.7696421
172	0xbebcd898	-0.36883998
173	0x3de7bc56	0.11315219
174	0xbf3e7c7c	-0.744087
175	0xbd9e1bcc	-0.077201456
176	0x3e13ae44	0.14421946
177	0xbbbf2d91	-0.0058342894
178	0xbe01f324	-0.12690407
179	0xbc055dd9	-0.008140051
180	0x3ddfc6ac	0.109265655
181	0x3dcc86ec	0.09986672
182	0xbdb8b078	-0.09018034
183	0x3e107ba3	0.14109664
184	0xbf353a5d	-0.7079218
185	0xbefae99c	-0.49006355
186	0x3eb0e98a	0.34553176
187	0x3e935507	0.28775808
188	0xbf72ee0c	-0.9489448
189	0xbcdeba61	-0.027188482
190	0x3d4b9644	0.04970385
191	0x3dc1a09d	0.09454463
192	0x3d71f11d	0.059067834
193	0xbd71759f	-0.058950063
194	0xbf4e60fe	-0.8061675
195	0x3e8def52	0.2772165
196	0x3ea57cb7	0.32321712
197	0xba0ee0db	-0.0005450376
198	0xbddfc3bb	-0.109260045
199	0x3f09215e	0.5356654
200	0xbefeec36	-0.4978959
201	0xbd74ed94	-0.059796885
202	0x3f14a0da	0.5805794
203	0xbe0f52d5	-0.13996442
204	0x3c5497f9	0.012975686
205	0xbd6b92da	-0.057513095
206	0x3e54e5e3	0.2079082
207	0x3dbfb7f1	0.09361256
208	0x3ea78ed8	0.3272617
209	0xbeb4a64b	-0.3528312
210	0xbf0475fa	-0.5174252
211	0xbf2c7d23	-0.67378443
212	0x3dfe5fa1	0.124205835
213	0xbe497232	-0.19672468
214	0xbf1250ea	-0.57154715
215	0x3e45e9ee	0.19327518
216	0xbe9bad99	-0.30405882
217	0xbef05cc7	-0.46945783
218	0xbe5cf9dd	-0.2157969
219	0xbdcb5b3b	-0.0992951
220	0xbf5e023c	-0.8672216
221	0x3f4fe003	0.8120119
222	0x3de8eebf	0.11373662
223	0xbd8887a8	-0.066664994
224	0xbdd6cbba	-0.104880765
225	0xbe3d46bb	-0.18484013
226	0x3ec2484d	0.37945786
227	0x3ec59723	0.3859187
228	0x3ecb143c	0.39663875
229	0xbdb4ab59	-0.088217445
230	0xbe983441	-0.29727367
231	0xbf5eaca3	-0.8698217
232	0xbec7ce6e	-0.3902468
233	0x3ec36351	0.3816171
234	0xbe3fe5aa	-0.18739954
235	0x3eb50e47	0.35362455
236	0xbf9ff10f	-1.249544
237	0xbf13a51c	-0.5767381
238	0xbf1a7f60	-0.6035061
239	0xbf20abf2	-0.6276237
240	0xbf828719	-1.0197479
241	0xbe1d5090	-0.15362763
242	0xbf01d79a	-0.50719607
243	0xbe97b5a0	-0.29630756
244	0x3e09fd6d	0.1347558
245	0x3d858026	0.06518583
246	0x3bcd2c8a	0.006261413
247	0xbdcc61b2	-0.099795714
248	0xbd2c335b	-0.042041164
249	0xbd02303b	-0.031784277
250	0xbdca4e77	-0.09878247
251	0x3e049372	0.12946871
252	0xbe225375	-0.15852149
253	0xbe0dc3c5	-0.13844211
254	0x3db3bd22	0.087763086
255	0xbf054e1f	-0.5207233

fc_mu.0.bias f4 [64]
0	0xbe7c1355	-0.2461675
1	0x3f529bb4	0.82268834
2	0x3e77145b	0.24128859
3	0xbccb477c	-0.02481436
4	0xbed588f4	-0.4170605
5	0xbe9ac0ed	-0.30225316
6	0x3e3a0b9a	0.18168488
7	0x3d9f2c61	0.077721365
8	0x3eee4b43	0.46541795
9	0x3ec44b49	0.38338688
10	0x3f8fad33	1.1224731
11	0x3e8c2d33	0.27378234
12	0x3e944a7d	0.2896308
13	0x3e5a2cda	0.21306172
14	0x3e785fc4	0.24255282
15	0x3cbc88d7	0.02301447
16	0xbe6af5e4	-0.22945362
17	0x3e3b342b	0.18281619
18	0xbe3b1aad	-0.18271895
19	0x3e288e29	0.1646048
20	0x3eb1026c	0.3457216
21	0x3f08d512	0.5345012
22	0x3eac2c90	0.33627748
23	0x3f2783f8	0.65435743
24	0x3e78d806	0.24301156
25	0x3dd5207a	0.10406585
26	0x3f071374	0.5276406
27	0x3f00abb2	0.50261986
28	0x3f1a00bb	0.60157365
29	0xbd57e4d4	-0.052708462
30	0xbe0016ef	-0.12508748
31	0x3edc1909	0.4298785
32	0x3ea6c28e	0.32570308
33	0xbe92596c	-0.28583848
34	0xbe8368e3	-0.2566596
35	0xbf01a071	-0.5063544
36	0x3ed45d82	0.4147759
37	0xbe001322	-0.12507299
38	0x3edb2740	0.42803383
39	0x3d0e7ac0	0.034785032
40	0x3ef3977c	0.4757651
41	0x3f1b6f40	0.6071663
42	0xbc49c0b6	-0.012314012
43	0x3ebc3d98	0.36765742
44	0x3ec1292d	0.37726727
45	0x3eb84b8d	0.3599514
46	0xbeb0abf9	-0.34506205
47	0xbe0612db	-0.1309313
48	0x3e0c22ae	0.13685104
49	0xbe50c47d	-0.20387454
50	0x3d003473	0.03130002
51	0x3e708f73	0.23492222
52	0x3f5022e5	0.81303245
53	0x3eb16705	0.3464891
54	0xbe9471a3	-0.28992948
55	0x3edfc428	0.43704343
56	0x3ee5acb4	0.44858325
57	0xbe71ddcb	-0.23619764
58	0x3f7cd9eb	0.98770016
59	0x3c652dfe	0.013988016
60	0x3ec9894b	0.3936256
61	0xbe07942f	-0.13240121
62	0xbccfc6d6	-0.025363367
63	0x3e3d513a	0.18488017

fc_mu.2.weight f4 [4, 64]
0	0x3ca0a09d	0.019607836
1	0xbe86f5a1	-0.26359275
2	0x3e83b03a	0.25720388
3	0x3d95d2c7	0.07315593
4	0xbda4b6f7	-0.0804271
5	0xbe5e29ed	-0.21695681
6	0xbe85bb6d	-0.26119557
7	0xbdcc7799	-0.09983749
8	0xbd361651	-0.044454876
9	0xbd236cc7	-0.03989866
10	0xbe1847b4	-0.14871103
11	0x3ec3c81d	0.38238612
12	0x3e0cedf6	0.1376265
13	0xbe12d6d8	-0.14339769
14	0x3d0b6798	0.03403434
15	0xbc22ebe2	-0.009943934
16	0xbedca178	-0.4309194
17	0x3ea126c7	0.31474897
18	0x3d33ce2c	0.043897793
19	0xbe9d6883	-0.307438
20	0xbe214fb8	-0.15753067
21	0x3e6dab93	0.23209982
22	0xbdcf2956	-0.10115306
23	0x3ce66743	0.02812541
24	0xbced26ef	-0.028949229
25	0x3e2f10ab	0.17096202
26	0xbe272efa	-0.16326514
27	0x3b3e65c0	0.0029052347
28	0x3c7eb65f	0.01554641
29	0xbe308f5d	-0.17242189
30	0xbd5720d6	-0.05252155
31	0x3f314f40	0.6926155
32	0x3dcca374	0.09992114
33	0x3e49f996	0.19724116
34	0xbf3cec41	-0.73797995
35	0xbd629c8e	-0.055325083
36	0x3e0aab10	0.13541818
37	0xbcc0d910	-0.023541003
38	0x3e6a72c7	0.22895347
39	0xbeb37209	-0.3504794
40	0xbea9bb28	-0.331506
41	0x3e48afb5	0.19598277
42	0x3f14455e	0.57918346
43	0x3d43b9a2	0.047784455
44	0x3dc4a1ae	0.096011505
45	0xbe79a75d	-0.2438025
46	0xbef9b04c	-0.48767316
47	0xbdaa87c4	-0.083266765
48	0x3bcc7597	0.0062396037
49	0x3d12f953	0.035882305
50	0xbef7892f	-0.4834685
51	0xbc9e1f0c	-0.019301914
52	0xbed1aee9	-0.40953758
53	0x3fb4d0e9	1.4126254
54	0x3e2a6872	0.16641405
55	0xbd0d83b6	-0.034549437
56	0x3e4e80a6	0.20166263
57	0x3d7f3a6d	0.06231158
58	0x3ecd73f8	0.4012754
59	0xbf0737d4	-0.5281956
60	0xbe560036	-0.20898518
61	0xbe47bc0a	-0.19505325
62	0xbeda540e	-0.42642254
63	0xbe701f3f	-0.2344942
64	0xbe73542e	-0.23762581
65	0xbe290211	-0.16504695
66	0xbd0bd9c8	-0.03414324
67	0x3e18dfae	0.14929077
68	0x3ecace3e	0.39610475
69	0xbeb43aad	-0.35201016
70	0xbe68fb29	-0.2275206
71	0xbecbe586	-0.3982355
72	0xbd45b40c	-0.04826741
73	0xbb762f22	-0.0037564714
74	0x3d616d36	0.055035792
75	0x3d5a9928	0.053368717
76	0xbe8a8db0	-0.27061224
77	0x3d8b3d37	0.06798785
78	0x3e734140	0.2375536
79	0x3e3d0871	0.18460251
80	0xbe31a933	-0.173497
81	0xbd2cd6c4	-0.042197004
82	0xbd68fa37	-0.05687925
83	0x3d6e2164	0.058137313
84	0xbda47967	-0.08030968
85	0xbdf1aaf1	-0.118001826
86	0x3c38f54e	0.011288954
87	0xbdb83b79	-0.089957185
88	0xbe54c3ae	-0.20777771
89	0x3e710b0f	0.23539375
90	0xbc4b3c99	-0.012404584
91	0x3f366f81	0.7126389
92	0xbe5e2a37	-0.21695791
93	0x3e8cf9ab	0.27534232
94	0x3d764ebe	0.06013369
95	0xbe12eed2	-0.14348915
96	0xbdce586c	-0.10075459
97	0x3cd2ee94	0.025748529
98	0x3edacf90	0.42736483
99	0xbea10ac5	-0.3145353
100	0xbe143633	-0.144738
101	0x3ea6903f	0.32531926
102	0xbe3c8991	-0.18411852
103	0xbc46c473	-0.012131798
104	0x3dfd07a6	0.123549744
105	0xbda59ba3	-0.08086326
106	0x3d3c2331	0.045932
107	0xbcc93987	-0.024563564
108	0x3e15f1ca	0.14643016
109	0x3e8ad3a0	0.27114582
110	0xbe92f3d0	-0.2870164
111	0x3e5a4707	0.21316157
112	0x3ecfeb72	0.40609318
113	0x3d481812	0.04885108
114	0xbec03385	-0.37539306
115	0xbee74704	-0.45171368
116	0xbc69264f	-0.014230325
117	0x3d804db2	0.06264819
118	0xbe576167	-0.2103325
119	0x3e7b21e4	0.24524647
120	0xbe823a8a	-0.25435287
121	0xbec676a4	-0.3876239
122	0xba903453	-0.0011001922
123	0x3b949f89	0.0045356196
124	0x3e98ebde	0.29867452
125	0xbea9c545	-0.33158317
126	0xbe35271c	-0.176907
127	0x3c835eeb	0.016036471
128	0xbe1c380f	-0.1525576
129	0xbe487b57	-0.195783
130	0x3e8bf01a	0.2733162
131	0x3df2fffe	0.11865233
132	0x3eb397e6	0.35076827
133	0x3e9222f9	0.28542307
134	0xbedc7ac5	-0.43062416
135	0x3ee8124d	0.45326462
136	0xbed8fda7	-0.4238102
137	0x3f08a5c4	0.5337794
138	0xbcb3742c	-0.021905981
139	0xbe9d9582	-0.30778128
140	0xbeec05ea	-0.46098262
141	0xbeb4b4f1	-0.35294297
142	0xbe499f0c	-0.19689578
143	0x3e073b15	0.13206132
144	0xbe329e5d	-0.17443223
145	0x3ce36dde	0.02776235
146	0x3e2dfd3f	0.16991137
147	0x3cb2cc83	0.021826034
148	0xbe2a2cd3	-0.16618662
149	0x3c8121de	0.01576322
150	0x3e78fdad	0.2431552
151	0x3ea00eae	0.312612
152	0xbc303aaf	-0.010756179
153	0xbea7d75e	-0.327815
154	0x3eb69d4e	0.3566689
155	0xbe56903f	-0.20953463
156	0xbe547d66	-0.2075096
157	0xbe949af4	-0.2902447
158	0xbf4a13eb	-0.7893664
159	0xbe1b789f	-0.15182732
160	0x3e9e8a39	0.3096483
161	0x3e30a1b6	0.17249188
162	0x3f0c0088	0.5468831
163	0x3e7b8114	0.24560958
164	0x3e443381	0.19160272
165	0xbe46e103	-0.19421773
166	0x3d239680	0.03993845
167	0xbe98f245	-0.29872337
168	0xbd648c3c	-0.0557978
169	0xbe6440e8	-0.22290385
170	0xbdf2ffb6	-0.11865179
171	0x3e4af617	0.19820438
172	0xbe8a3c02	-0.26998907
173	0x3db68228	0.08911544
174	0xbe510ed3	-0.20415811
175	0x3ed1382f	0.40863177
176	0x3ddc0bde	0.10744451
177	0x3d8419fb	0.06450268
178	0xbeac9278	-0.33705497
179	0xbeb5ef02	-0.3553391
180	0x3f0ef7c4	0.5584681
181	0x3f049feb	0.51806515
182	0xbe4ad5bf	-0.198081
183	0xbead6f34	-0.33873904
184	0x3e9bdf31	0.3044372
185	0xbd116c5f	-0.03550374
186	0xbe9558c4	-0.29169285
187	0xbe22e14c	-0.15906256
188	0xbcdf4f69	-0.027259545
189	0x3ca408ae	0.02002367
190	0x3ece52ed	0.40297642
191	0x3e52ab12	0.2057307
192	0xbe83e907	-0.25763723
193	0xbcf6e015	-0.030136148
194	0xbdf892a9	-0.12137348
195	0xbe12034c	-0.1425907
196	0x3d9db1dd	0.0769994
197	0x3f16a89d	0.58851033
198	0xbd352bd3	-0.044231247
199	0x3e7dbef0	0.24779868
200	0x3bf513de	0.007479175
201	0x3df5cf8d	0.12002478
202	0x3e4adf19	0.19811668
203	0xbde7e69f	-0.11323284
204	0xbd10552b	-0.035237473
205	0x3d5d39f4	0.054010347
206	0xbe80e593	-0.2517515
207	0x3dc24cf2	0.094873324
208	0xbe681a4c	-0.22666281
209	0x3ef74d6c	0.48301256
210	0x3e57c9a1	0.21073009
211	0x3e8adc5d	0.2712125
212	0x3ed681b1	0.41895822
213	0xbd1cf7dd	-0.03832232
214	0x3e865e9d	0.2624406
215	0x3d70b37c	0.05876492
216	0x3dc99df6	0.09844582
217	0xbed35332	-0.4127441
218	0xbe39aeb1	-0.18133046
219	0x3e00bdcc	0.12572402
220	0x3e74fc44	0.23924357
221	0x3de37f7d	0.11108301
222	0xbf0b6bd0	-0.54461384
223	0x3e21b91c	0.1579327
224	0xbd79ac2f	-0.060955223
225	0xbf278b77	-0.6544718
226	0xbd89ac79	-0.0672235
227	0xbe363464	-0.17793423
228	0x3e4b489f	0.19851921
229	0xbe40d769	-0.18832172
230	0xbe976a61	-0.29573348
231	0xbe506956	-0.20352682
232	0xbe9c9d9f	-0.30589005
233	0xbed20e78	-0.41026664
234	0xbbe4451a	-0.0069662454
235	0x3eab899e	0.3350343
236	0xbc40a889	-0.011758932
237	0xbca09a64	-0.01960487
238	0xbdd3ad86	-0.10335831
239	0xbe12a6f4	-0.143215
240	0xbd25f13c	-0.040513262
241	0x3ea36fac	0.31921136
242	0x3e425f8f	0.18981765
243	0x3d745fcc	0.05966167
244	0x3d3fcb55	0.046824772
245	0xbddc0e16	-0.10744874
246	0x3da683bd	0.08130596
247	0x3e51f0e9	0.20502056
248	0xbe5cae45	-0.21550854
249	0xbebf0697	-0.37309715
250	0x3d0dd9b6	0.034631453
251	0xbcf122a8	-0.02943547
252	0x3c51881a	0.012788797
253	0xbe51f2c4	-0.20502764
254	0xbca5de00	-0.02024746
255	0xbe42f75c	-0.19039673

fc_mu.2.bias f4 [4]
0	0xbc5af95d	-0.013365117
1	0xbc8493e0	-0.016183794
2	0x3cea8c79	0.028631436
3	0x3ad8784a	0.0016515341

fc_std.0.weight f4 [64, 128]
0	0x3e813147	0.25232908
1	0xbf10d6db	-0.56577843
2	0x3e0dbac6	0.1384078
3	0x3f10808d	0.5644615
4	0x3eb56000	0.35424805
5	0xbe011df8	-0.12609088
6	0x3e23ff80	0.16015434
7	0x3e50d335	0.20393069
8	0xbd94a763	-0.07258489
9	0xbe72001b	-0.23632853
10	0xbe636deb	-0.22209899
11	0xbec28465	-0.37991634
12	0x3e0f51dc	0.1399607
13	0xbeb7500a	-0.35803252
14	0xbd97b296	-0.074071094
15	0x3e727be9	0.2368008
16	0x3db36afb	0.08760639
17	0x3e2e498c	0.17020243
18	0xbe9d9466	-0.30777282
19	0xbf141408	-0.57843065
20	0x3ddd999f	0.108203165
21	0x3dcfe7ff	0.101516716
22	0xbdd62ad0	-0.104573846
23	0xbe0eb687	-0.13936816
24	0xbe150c59	-0.14555492
25	0x3d8cee48	0.06881386
26	0xbe186527	-0.14882337
27	0x3d4a064a	0.049322404
28	0xbd3ad69f	-0.045614835
29	0xbdfe01e0	-0.124027014
30	0xbf7c8830	-0.98645306
31	0xbe54f7db	-0.20797674
32	0x3e7a4581	0.24440576
33	0x3e9b1e99	0.30296782
34	0xbc9285b3	-0.017886018
35	0xbdb88675	-0.09010021
36	0x3da7029f	0.08154797
37	0x3e5f555e	0.21809909
38	0x3f14d7a2	0.5814153
39	0x3ef12196	0.47095937
40	0xbf0952a7	-0.5364174
41	0x3f09aa4f	0.53775495
42	0xbe760203	-0.24024205
43	0x3f39751f	0.7244434
44	0xb851efa8	-5.005268e-05
45	0x3eb16df6	0.34654206
46	0x3ebfdc94	0.37472975
47	0x3f04f085	0.51929504
48	0x3d846dee	0.0646628
49	0x3d25b5a9	0.040456448
50	0xbe45ac41	-0.19303991
51	0x3e5fd7d6	0.21859679
52	0x3ee123ed	0.43972722
53	0xbc85cb70	-0.016332358
54	0xbde2c637	-0.11072963
55	0x3e1f465a	0.1555418
56	0x3e2f5edf	0.17126034
57	0xbd045f05	-0.03231718
58	0xbe036b39	-0.12833871
59	0x3f02c197	0.51076645
60	0xbd501cdc	-0.050808772
61	0xbdc7ab15	-0.09749428
62	0x3e613818	0.21994054
63	0xbca55b30	-0.020185083
64	0x3be442e7	0.006965983
65	0x3c969275	0.018380383
66	0xbde8b5a7	-0.113627724
67	0x3eedd3dc	0.46450698
68	0x3ef32e8f	0.4749646
69	0xbf9f009c	-1.2422061
70	0x3f3223ad	0.69585687
71	0x3dd72ac9	0.105062075
72	0x3e7e6f76	0.24847206
73	0xbd94e0fa	-0.072694734
74	0x3b9db895	0.0048132637
75	0x3e5d07ed	0.21585055
76	0x3edc93a3	0.43081388
77	0x3d1f612c	0.03891103
78	0x3eca0164	0.39454186
79	0x3e1a1620	0.15047503
80	0xbe3dee48	-0.18547928
81	0x3e8f3667	0.27971193
82	0x3f057b9c	0.5214174
83	0x3d5aaca3	0.053387295
84	0x3e90be89	0.28270367
85	0xbd3750d0	-0.044754803
86	0x3d75337c	0.059863552
87	0xbe062419	-0.13099708
88	0xbd6024ca	-0.054722585
89	0x3e379383	0.17927365
90	0x3e634096	0.22192606
91	0x3eaf5670	0.34245634
92	0x3ea0226d	0.31276265
93	0xbdd9c1a2	-0.10632636
94	0x3ed74a4c	0.42048872
95	0xbe476b88	-0.19474614
96	0xba07a49c	-0.000517437
97	0x3db664d3	0.089059494
98	0x3e111431	0.14167859
99	0x3db22c23	0.08699825
100	0x3e63ba53	0.22239046
101	0x3e8b0150	0.2714944
102	0x3c8a9483	0.016916519
103	0xbdd0f408	-0.10202795
104	0xbe1e49c8	-0.15457833
105	0x3f2e54d8	0.6809821
106	0xbe9cd8a1	-0.30634025
107	0x3eadc55d	0.3393964
108	0xbdf9a8d3	-0.12190404
109	0x3f1e5a8d	0.6185692
110	0xbe172f89	-0.14764227
111	0xbed1191f	-0.40839478
112	0x3df5d7ee	0.12004076
113	0x3eb1ac66	0.34701842
114	0x3f4ca1bb	0.7993428
115	0x3eabc803	0.33551034
116	0xbda008bd	-0.07814167
117	0x3e8cc7b4	0.2749611
118	0x3eebe4ef	0.460731
119	0xbc377f9b	-0.011199857
120	0xbcab223d	-0.02089035
121	0xbe8a4e93	-0.27013072
122	0xbc249fff	-0.010047912
123	0xbce93a27	-0.028470112
124	0xbe2a555f	-0.16634129
125	0xbe2f5117	-0.17120777
126	0x3e2f47f8	0.17117298
127	0x3ee8d996	0.45478505
128	0x3f07b704	0.53013635
129	0x3f524120	0.8213062
130	0xbcbf5a2f	-0.023358433
131	0xbeb878c1	-0.36029628
132	0x3f26f8b1	0.6522322
133	0x3f759baf	0.9594068
134	0x3cc803de	0.024415907
135	0x3e069af4	0.13145047
136	0xbe513c9c	-0.20433277
137	0xbded3337	-0.11582034
138	0xbe27c0c1	-0.16382124
139	0xbe40cd5c	-0.18828338
140	0x3e5d8b2f	0.21635126
141	0x3c29330d	0.010327113
142	0xbeb513e6	-0.35366744
143	0x3e22a5f6	0.15883622
144	0x3e481f34	0.19543153
145	0x3e92e47f	0.28689954
146	0x3d707a79	0.05871055
147	0x3e22e622	0.15908101
148	0x3e8255b8	0.25456023
149	0xbe06d9d0	-0.13169026
150	0x3e79f64b	0.2441036
151	0x3f2f3da0	0.6845341
152	0xbe940826	-0.28912467
153	0xbde0000d	-0.1093751
154	0xbc92e4ea	-0.01793142
155	0xbdea5977	-0.11442845
156	0xbe044e61	-0.12920524
157	0x3ea1bc78	0.31589103
158	0xbe1308ee	-0.14358875
159	0x3e553601	0.20821382
160	0x3eab5acd	0.33467713
161	0x3e324feb	0.17413299
162	0x3d34a60a	0.04410366
163	0x3e9e25e9	0.30888298
164	0x3e40772a	0.18795457
165	0xbda0e4ca	-0.07856138
166	0x3e8e3ada	0.27779275
167	0x3f0f5fc3	0.56005496
168	0x3d1d7394	0.038440302
169	0x3f0b2a7f	0.5436172
170	0xbe23124a	-0.15924945
171	0x3edaea0f	0.42756698
172	0x3e8ea8b1	0.27863076
173	0xbd5db3d8	-0.05412659
174	0xbd489d74	-0.048978284
175	0x3c54050c	0.012940656
176	0xbe34c362	-0.17652658
177	0x3e435d6d	0.19078608
178	0xbe0a4fd5	-0.13507016
179	0x3d64dca0	0.055874467
180	0xbd62fc25	-0.055416245
181	0xbeb1a094	-0.34692824
182	0x3f64aaa5	0.8932288
183	0xbdba860b	-0.09107598
184	0x3db00168	0.08594018
185	0xbe05e7d9	-0.13076724
186	0x3d8de357	0.06928127
187	0xbe989c49	-0.29806736
188	0xbe587c47	-0.21141158
189	0xbd69ba21	-0.057062272
190	0xbe6bbeac	-0.23021954
191	0x3d67998b	0.056542914
192	0xbcc79b0f	-0.02436593
193	0xbd9318eb	-0.07182487
194	0x3e3fd37d	0.1873302
195	0x3e10b4f3	0.14131527
196	0xbdda56a0	-0.10661054
197	0x3e1be7d0	0.15225148
198	0x3e136e42	0.14397529
199	0x3dbb1c1a	0.09136219
200	0x3cd9d59b	0.026591113
201	0xbc49e9f0	-0.012323841
202	0xbd5481d1	-0.051881615
203	0x3db9d05b	0.09072944
204	0xbd979728	-0.07401878
205	0xbec673cd	-0.38760224
206	0x3ec3ade3	0.38218603
207	0x3dc5f67e	0.09666155
208	0x3ec7cde0	0.39024258
209	0x3e59cc5f	0.21269368
210	0xbe9ecf6d	-0.31017628
211	0x3ed7387c	0.42035282
212	0x3e80ee49	0.25181797
213	0xbeaf8f44	-0.3428899
214	0xbe3df579	-0.18550672
215	0x3d581fe8	0.052764803
216	0x3e1ada78	0.15122402
217	0xbf20e4e2	-0.6284925
218	0x3d2613a6	0.040546082
219	0xbddbc9e7	-0.10731869
220	0x3d2b196d	0.041772295
221	0xbdf4d102	-0.119539276
222	0xbe1a3b9c	-0.15061802
223	0xbe758174	-0.23975164
224	0xbd9a17f9	-0.07524104
225	0xbcc85381	-0.02445388
226	0x3f0fda5e	0.56192577
227	0xbdb568cf	-0.08857881
228	0x3ea2e3d3	0.3181444
229	0x3ec779e0	0.3896017
230	0x3dd2a34c	0.10285053
231	0x3ea82037	0.32837078
232	0xbd29128e	-0.04127746
233	0x3ec02f35	0.37536016
234	0x3e08be24	0.13353783
235	0x3efb0d60	0.49033642
236	0x3ea6519e	0.32484144
237	0xbe940702	-0.28911597
238	0x3f46faa6	0.7772621
239	0x3df67ce9	0.120355435
240	0xbe51ad22	-0.20476201
241	0x3e4e9e4e	0.20177576
242	0x3f8a10bb	1.0786356
243	0xbebf8b5d	-0.37411013
244	0xbeb3ef1f	-0.35143372
245	0x3e52e025	0.20593317
246	0xbd3eaf9c	-0.046554193
247	0xbea6a697	-0.32548973
248	0xbd7cf231	-0.06175441
249	0x3ddf4c72	0.10903253
250	0xbd846ad9	-0.06465692
251	0x3f097452	0.53693116
252	0xbda5a474	-0.080880076
253	0xbe1feee8	-0.15618479
254	0x3e3c079e	0.1836228
255	0x3e7ae014	0.24499542

fc_std.0.bias f4 [64]
0	0x3e193c62	0.1496444
1	0xbf03933a	-0.51396525
2	0x3bdffb20	0.0068353564
3	0x3d569ba9	0.052394543
4	0x3ef5c498	0.48001552
5	0x3fd92565	1.6964537
6	0xbe664925	-0.2248884
7	0xbee9361a	-0.4554909
8	0x3fd34b72	1.6507399
9	0xbf05fb0a	-0.5233618
10	0xbed8199c	-0.42207038
11	0xbf8e65fc	-1.1124873
12	0x3d895f32	0.0670761
13	0xbf9d2d01	-1.2279359
14	0xbf1ff70b	-0.6248633
15	0xbf6065f8	-0.8765559
16	0x3ec900ef	0.39258525
17	0x3dc3dfe0	0.09564185
18	0x3f7b019f	0.9804935
19	0x3f5f1589	0.87142235
20	0x3f5172ba	0.81815684
21	0xbe845de1	-0.25852874
22	0xbe781242	-0.24225715
23	0xbf892225	-1.0713545
24	0x3f534d1a	0.8253952
25	0xbe134a73	-0.14383869
26	0xbd3eb38e	-0.046557955
27	0xbf29f111	-0.66383463
28	0x3f06ea21	0.52701
29	0xbec0c161	-0.37647536
30	0xbf1290ea	-0.5725237
31	0x3f3701f5	0.7148736
32	0x3fd23392	1.6421988
33	0x3e4180f2	0.18896845
34	0x3fbe1ce6	1.4852569
35	0xbe08d33b	-0.13361828
36	0xbfb7d89f	-1.4362983
37	0xbf055f7f	-0.5209884
38	0xbea22b2d	-0.31673566
39	0xbecbe556	-0.39823407
40	0x3f29ae51	0.6628161
41	0x3ea681b7	0.3252084
42	0x3f286f27	0.65794605
43	0xbf04c93f	-0.5186958
44	0x3f9272d4	1.1441293
45	0xbe870708	-0.26372552
46	0x3f5c039a	0.85942996
47	0x3cfad9a4	0.030621357
48	0xbf26f52c	-0.6521785
49	0xbeee119d	-0.46497813
50	0xbebcdd93	-0.36887798
51	0x3f17d266	0.5930542
52	0x3f122a1c	0.57095504
53	0x3e451c6b	0.19249122
54	0x3f84c6b5	1.037314
55	0x3f99b440	1.2008133
56	0xbed5cf87	-0.41759893
57	0xbef7c7c7	-0.48394606
58	0xbebdceac	-0.3707174
59	0xbf0019c2	-0.50039303
60	0x3e980618	0.2969215
61	0x3eaaf1a3	0.3338748
62	0x3e307ae7	0.17234384
63	0x3fb67c63	1.425671
