9_gym-DDPG/results/DDPG_Pendulum-v1_1000-eps0.1-t32-l0.0001-sNone.pth (torch, 176234 bytes, 12 tensors)

layers.0.weight f4 [128, 4]
0	0x3e4bb9cb	0.19895093
1	0x3f12bae6	0.57316434
2	0xbd9878f2	-0.074449435
3	0xbd14ffbf	-0.03637671
4	0xbe2481f3	-0.16065197
5	0x3f103c8a	0.56342375
6	0xbddc6c3d	-0.10762832
7	0x3e8d5fe4	0.2761222
8	0x3e784f6a	0.24249044
9	0xbd53842b	-0.051639717
10	0x3e9a0e2d	0.3008894
11	0xbeea119a	-0.45716554
12	0xbdff53e9	-0.124671765
13	0xbf539879	-0.8265453
14	0xbe1f13bd	-0.15534873
15	0x3df5a9d0	0.1199528
16	0xbedec8b0	-0.43512487
17	0xbef02311	-0.46901754
18	0xbe2b381b	-0.16720621
19	0x3eacea93	0.33772716
20	0x3d4f73f8	0.050647706
21	0xbea65aa1	-0.3249102
22	0x3e80d71d	0.25164118
23	0xbed90077	-0.42383167
24	0xbe76f8ad	-0.241183
25	0xbd86dfb7	-0.06585639
26	0x3e577dd7	0.21044098
27	0xbee8bf20	-0.45458317
28	0x3ed85023	0.4224864
29	0xbe0a0e6f	-0.13482068
30	0xbec2df47	-0.38060972
31	0xbe0d3006	-0.1378785
32	0x3e5de1c4	0.21668154
33	0x3ee7a860	0.45245647
34	0x3e450146	0.19238767
35	0xbece6611	-0.40312245
36	0x3e85aa76	0.26106614
37	0x3f1c8914	0.61146665
38	0xbede3585	-0.43400207
39	0xbec59702	-0.38591772
40	0x3c877e66	0.016539764
41	0x3f320ca8	0.6955056
42	0x3e1f631a	0.15565148
43	0x3d757d58	0.05993399
44	0x3df26cc7	0.11837154
45	0x3f30241b	0.6880509
46	0xbc1cb178	-0.009563796
47	0xbe9e220e	-0.30885357
48	0xbeb7bd0e	-0.35886425
49	0xbed950ab	-0.42444357
50	0xbee5a875	-0.44855085
51	0xbeaeec35	-0.34164587
52	0xbe6546a2	-0.22390226
53	0xbf10c1ad	-0.56545526
54	0x3db38726	0.08766012
55	0xbea5c23f	-0.3237476
56	0xbef1319b	-0.47108158
57	0xbe1e96cb	-0.1548721
58	0x3d655140	0.05598569
59	0x3e257cfe	0.16160962
60	0x3e4e5c91	0.20152499
61	0xbec45092	-0.3834272
62	0xbe171b92	-0.14756611
63	0xbe7222c5	-0.23646076
64	0xbe279ac5	-0.16367634
65	0x3c97affa	0.01851653
66	0x3eae4117	0.34034035
67	0x3ea1af64	0.31579125
68	0xbf02c886	-0.51087224
69	0xbe74ed38	-0.23918617
70	0x3e589707	0.21151362
71	0xbdc82238	-0.09772152
72	0x3ed82c6f	0.422214
73	0x3e73a1d6	0.23792204
74	0x3d0fb0a3	0.035080563
75	0xbe8bbcbe	-0.27292436
76	0xbecad6b1	-0.39616922
77	0xbe9fd8b2	-0.31220013
78	0x3e0efdb6	0.1396397
79	0xbe9a35ed	-0.30119267
80	0x3ec8e587	0.39237615
81	0xbea8e686	-0.32988375
82	0xbe78ae18	-0.24285161
83	0xbe68be11	-0.22728755
84	0x3ecf30eb	0.4046701
85	0x3f513815	0.817262
86	0x3d6eb15b	0.058274608
87	0x3dfeb9ad	0.124377586
88	0x3cff542f	0.031168072
89	0x3e951fee	0.29125923
90	0xbd5158d5	-0.051110107
91	0xbee08dc1	-0.4385815
92	0x3ef925ba	0.48661596
93	0xbe997358	-0.29970813
94	0xbedd31e4	-0.43202126
95	0x3dc3eef6	0.095670626
96	0xbc14a6a9	-0.009072938
97	0x3eea7253	0.45790347
98	0xbd9afaff	-0.07567405
99	0x3e45a25c	0.19300216
100	0xbe11454f	-0.14186595
101	0xbda7f769	-0.082014866
102	0x3e84616f	0.25855586
103	0xbf071d7b	-0.5277936
104	0xbe9dd048	-0.30822968
105	0x3f200fb9	0.6252399
106	0x3e7dc6ee	0.24782917
107	0xbe167322	-0.14692357
108	0xbefcfef4	-0.49413264
109	0x3e204f79	0.15655316
110	0x3ea05a15	0.31318727
111	0xbe25c539	-0.16188516
112	0xbe2466b8	-0.16054809
113	0x3f06d198	0.52663565
114	0xbdbabffc	-0.09118649
115	0x3e976eee	0.2957682
116	0x3f2c6fd1	0.6735812
117	0xbdad4e02	-0.084621444
118	0x3ca31b1b	0.019910386
119	0x3f060d2a	0.52363837
120	0xbd1429ee	-0.0361728
121	0xbefb91b1	-0.4913459
122	0xbea2f75d	-0.31829348
123	0xbec8ca15	-0.39216676
124	0xbe902ee4	-0.28160775
125	0x3f12c4dd	0.5733164
126	0xbda0b6c9	-0.078473635
127	0xbbb1859c	-0.005417539
128	0x3e3efd8b	0.18651406
129	0xbf40240b	-0.75055
130	0xbd09186b	-0.033470552
131	0xbe963e3d	-0.2934436
132	0xbe5b9e7f	-0.2144718
133	0xbe769c64	-0.24083096
134	0xbe93f0c3	-0.28894624
135	0x3ec84e73	0.39122352
136	0xbf061c69	-0.523871
137	0xbec0dfc1	-0.3767071
138	0xbdb578bc	-0.08860919
139	0x3e5a57e0	0.21322584
140	0xbdb19577	-0.08671086
141	0x3f144ab1	0.5792647
142	0xbe0e2ff8	-0.13885486
143	0xbed2d67d	-0.41179267
144	0x3ebb3072	0.36560398
145	0xbe3fc169	-0.18726124
146	0xbeb43db0	-0.35203314
147	0x3f1055ed	0.5638111
148	0x3ef05e5e	0.46946996
149	0x3e23cf87	0.15997134
150	0x3ed55fcf	0.4167466
151	0xbf0abdd1	-0.54195887
152	0x3e9f4758	0.31109118
153	0xbe822c7d	-0.25424567
154	0xbdf43abc	-0.11925265
155	0xbe60dff6	-0.21960434
156	0x3ec5f767	0.38665316
157	0xbf2fad77	-0.6862406
158	0xbe607bcc	-0.21922225
159	0x3ef036ce	0.46916813
160	0x3ea0bf58	0.31395984
161	0xbf0bd473	-0.54621047
162	0x3d608f97	0.054824438
163	0xbc900d38	-0.017584428
164	0xbe9c0623	-0.30473432
165	0xbe1ebf65	-0.15502699
166	0x3db37234	0.08762017
167	0x3ef9185d	0.486514
168	0x3e1619fc	0.1465835
169	0x3f095ba7	0.53655475
170	0xbcdab22b	-0.026696285
171	0x3ee88e0b	0.4542087
172	0x3e2a6a5a	0.16642132
173	0x3f29f772	0.66393197
174	0x3e205d31	0.1566055
175	0xbe2e2c45	-0.17009075
176	0xbeb5ae99	-0.3548477
177	0xbf3c837e	-0.7363814
178	0xbe3ed7e3	-0.18637042
179	0xbe296acc	-0.16544646
180	0x3e0aaa3e	0.13541505
181	0x3f1c39a2	0.6102544
182	0x3aae7d6a	0.0013312523
183	0x3eeb07a3	0.45904264
184	0x3d903f80	0.07043362
185	0xbe147a3f	-0.14499758
186	0xbe716eb5	-0.23577388
187	0xbe0924dd	-0.13392968
188	0xbeb8f9ef	-0.36128184
189	0x3e9e389f	0.30902573
190	0xbe8f550d	-0.27994576
191	0xbe5963f2	-0.21229532
192	0xbdd2c6b1	-0.10291804
193	0xbd3de723	-0.046363007
194	0xbe34c2e9	-0.17652477
195	0x3e84aff7	0.259155
196	0x3cfaba0e	0.030606296
197	0xbf4ca05f	-0.79932207
198	0xbcfd9a15	-0.030957261
199	0x3d5ed3a9	0.054401074
200	0x3e570e5b	0.2100157
201	0x3e09a6e6	0.13442573
202	0x3c51f491	0.012814657
203	0xbe3ca471	-0.18422104
204	0x3ed56d98	0.41685176
205	0xbe8560c5	-0.26050392
206	0xbe7b3ef6	-0.24535736
207	0x3c16ffe6	0.009216284
208	0x3c37b40e	0.011212362
209	0xbf13bdf5	-0.57711726
210	0xbe5d8852	-0.21634033
211	0xbe2441ac	-0.16040677
212	0xbe277738	-0.16354072
213	0x3d8a8e89	0.06765468
214	0x3d738540	0.05945325
215	0xbe20ef2e	-0.1571624
216	0x3de567a1	0.11201406
217	0x3d08c7d0	0.03339368
218	0xbe82a3de	-0.25515646
219	0x3eff221c	0.4983071
220	0xbefeef96	-0.49792165
221	0xbe7aadb0	-0.24480319
222	0x3cb59695	0.02216653
223	0x3e12382c	0.1427924
224	0x3d3f6705	0.046729106
225	0x3e86d7a3	0.26336393
226	0x3d1cb372	0.03825707
227	0x3e1ec06e	0.15503094
228	0x3e187764	0.14889294
229	0xbec5bf59	-0.3862255
230	0xbe841da2	-0.25803858
231	0xbe593a63	-0.21213679
232	0x3ea5234b	0.3225349
233	0xbe18300d	-0.1486208
234	0x3df34fc9	0.11880452
235	0xbeef09f4	-0.4668728
236	0x3e451d29	0.19249405
237	0xbebd212b	-0.36939368
238	0xbec072c7	-0.37587568
239	0xbe1562fc	-0.14588541
240	0xbe2e65d5	-0.17031033
241	0x3ebb5f88	0.36596322
242	0xbee3a3e3	-0.44460973
243	0xbe0a121c	-0.1348347
244	0x3ec0974c	0.3761543
245	0xbec669d1	-0.38752607
246	0xbe728766	-0.23684463
247	0xbee0e3bf	-0.43923756
248	0x3f0bd254	0.5461781
249	0xbe12bc0c	-0.14329547
250	0xbe81bbce	-0.25338596
251	0xbed5f656	-0.41789502
252	0x3e80935c	0.25112426
253	0xbe12f93a	-0.14352885
254	0x3ed02298	0.40651393
255	0xbc2b9379	-0.010472172

layers.0.bias f4 [128]
0	0xbef11b94	-0.47091353
1	0x3ed0513e	0.40686983
2	0x3efc130f	0.4923329
3	0xbd8beeec	-0.0683268
4	0xbef8ff6a	-0.48632365
5	0xbc6818ee	-0.0141661
6	0xbd8ed292	-0.06973757
7	0x3e8485ff	0.2588348
8	0x3afb5a1f	0.0019176638
9	0xbe358a49	-0.17728533
10	0x3e98a4fe	0.2981338
11	0x3e50b34a	0.20380893
12	0xbe579de9	-0.21056332
13	0xbf03598f	-0.5130853
14	0x3dc6a0ed	0.09698663
15	0x3f10389e	0.5633639
16	0x3e6e0861	0.23245384
17	0xbeab2ba4	-0.33431733
18	0xbe308572	-0.17238405
19	0xbf0928d8	-0.5357795
20	0x3ea8713c	0.3289889
21	0x3e75e4ca	0.24013057
22	0xbf10e616	-0.56601083
23	0x3ce2f975	0.027706841
24	0x3ee03243	0.43788347
25	0xbf059fd1	-0.52196985
26	0xbeb782ac	-0.35841882
27	0xbe67920d	-0.22614308
28	0xbf109ab2	-0.56486046
29	0xbe8af85c	-0.27142608
30	0xbe925f6b	-0.28588423
31	0x3f01646c	0.50543857
32	0xbd9e4e22	-0.077297464
33	0x3f0d1ddb	0.5512368
34	0x3d33c524	0.04388918
35	0xbe31feed	-0.17382403
36	0x3eb1cb4c	0.34725416
37	0x3e38c761	0.18044807
38	0xbec633ce	-0.387114
39	0xbe9647bf	-0.29351613
40	0xbf0114ad	-0.50422174
41	0xbeb60ab7	-0.3555505
42	0x3e120935	0.14261325
43	0x3e02301b	0.12713663
44	0x3f013ac5	0.504803
45	0x3d25e8fe	0.0405054
46	0xbf0c7827	-0.5487084
47	0xbe98e0b8	-0.29858947
48	0xbebfb629	-0.37443665
49	0xbe22b8d4	-0.15890819
50	0x3ecb8c69	0.39755562
51	0xbf0ad831	-0.5423613
52	0x3ef7f6cc	0.4843048
53	0x3e68b2c2	0.2272444
54	0xbc32856f	-0.010896071
55	0x3e15fe78	0.14647853
56	0x3e4bcfbf	0.19903468
57	0x3ed63344	0.41835988
58	0xbea2c671	-0.31792024
59	0xbdb075a7	-0.086161904
60	0xbe32dbf5	-0.1746672
61	0xbe395126	-0.18097362
62	0xbd7b4ba3	-0.06135143
63	0x3e84edd4	0.25962698
64	0xbd2aedef	-0.041730817
65	0xbf1cccea	-0.61250174
66	0x3eb41331	0.35170892
67	0xbea2cb48	-0.31795716
68	0xbe722843	-0.23648171
69	0x3eb8227e	0.35963815
70	0x3e894318	0.26809
71	0x3f1cae18	0.61203146
72	0x3e109936	0.14120945
73	0x3e4fe178	0.20300853
74	0x3e64a1ad	0.223273
75	0xbf08e690	-0.5347681
76	0x3f1bf57a	0.6092144
77	0xbe8752f6	-0.26430482
78	0x3d67314d	0.0564435
79	0xbdbb5626	-0.09147291
80	0xbda02190	-0.078189015
81	0xbf183d9b	-0.59469
82	0x3ebfd0b1	0.37463906
83	0x3e628dc1	0.22124387
84	0x3efc070a	0.4922412
85	0x3eb8c3c1	0.36086848
86	0x3ec7eed6	0.39049405
87	0xbe1ac7be	-0.15115258
88	0xbef3b593	-0.47599468
89	0xbf0958d3	-0.5365116
90	0x3efd1be7	0.4943535
91	0x3f01d26a	0.5071169
92	0x3eb89652	0.36052185
93	0x3e64440b	0.22291581
94	0xbe0313f2	-0.12800577
95	0x3ed1acd0	0.40952158
96	0x3ee419fb	0.44551072
97	0xbe6d54ab	-0.2317683
98	0x3f1bcfd1	0.6086398
99	0x3ca88fbe	0.020576354
100	0xbeb99141	-0.36243632
101	0xbe18078a	-0.14846626
102	0x3e207f8c	0.15673655
103	0xbd9fb4c7	-0.077981524
104	0x3e94429d	0.28957072
105	0x3d5a52e6	0.053301714
106	0xbee6cd39	-0.45078447
107	0x3efe8c5f	0.4971647
108	0xbefd9482	-0.49527365
109	0xbf13645c	-0.5757501
110	0xbe361bad	-0.17783995
111	0xbe73539d	-0.23762365
112	0x3f11447d	0.5674513
113	0x3ea1a390	0.315701
114	0x3e19f28d	0.15033932
115	0x3f002f7d	0.5007246
116	0xbe2cffa3	-0.16894393
117	0x3eae44fa	0.34037
118	0x3ead3d4b	0.33835825
119	0x3ef42c96	0.47690266
120	0xbeca9b76	-0.39571732
121	0x3db93134	0.09042588
122	0xbe5b04cd	-0.2138855
123	0xbf07e463	-0.53082865
124	0x3d25ccf7	0.040478673
125	0xbe9565ad	-0.29179135
126	0xbf0fb109	-0.5612951
127	0x3ea0814a	0.3134864

layers.1.weight f4 [128, 128]
0	0xbdeb92f9	-0.11502642
1	0x3d061d74	0.032742932
2	0x3d9c7201	0.07638932
3	0xbd2ae2ea	-0.04172031
4	0x3c21dec7	0.009879774
5	0xbd097e37	-0.033567633
6	0x3a1271d3	0.0005586419
7	0xbdcd9337	-0.10037845
8	0x3d325999	0.04354248
9	0xbd4cb063	-0.049972903
10	0xbcc2749e	-0.023737248
11	0x3dac08fd	0.08400152
12	0xbd9a79bc	-0.0754275
13	0x3a90380a	0.0011003029
14	0x3dbbc95a	0.09169264
15	0xbc8be23c	-0.01707565
16	0x3db922fc	0.09039876
17	0xbd33bd72	-0.04388184
18	0xbd429c64	-0.047512427
19	0xbd50d871	-0.050987665
20	0xbd7a0be3	-0.061046492
21	0xbdac573f	-0.08415078
22	0xbda36197	-0.07977598
23	0x3d194326	0.037417553
24	0x3d869948	0.06572205
25	0xbd41307b	-0.047165375
26	0x3cb8303e	0.022483941
27	0xbc859208	-0.016304985
28	0x3b5fa8dc	0.0034127748
29	0xbd5e2bc2	-0.05424095
30	0xbddc2bb6	-0.10750525
31	0xbc8fc0b0	-0.017547935
32	0x3b090dab	0.0020912688
33	0x3c5b3ea8	0.013381638
34	0x3ce554da	0.027994562
35	0xbd750642	-0.05982042
36	0xbda1a6a3	-0.078931116
37	0xbdc0f68e	-0.094220266
38	0xbd22d32c	-0.03975217
39	0x3de7b013	0.1131288
40	0xbd363144	-0.044480577
41	0x3d862f0c	0.06551942
42	0xbda57396	-0.08078687
43	0xbcca0fa8	-0.024665669
44	0x3d42bdc3	0.047544252
45	0x3c3764a8	0.011193432
46	0x3c91ed82	0.017813448
47	0xbd5605b2	-0.052251525
48	0x3bed6fe2	0.0072460035
49	0x3c8d9917	0.017284913
50	0x3d4cd717	0.050009813
51	0xbc01f0f2	-0.007930981
52	0xbc1bfd8d	-0.0095209
53	0x3d8a970f	0.067670934
54	0xbd58a033	-0.052887153
55	0xbc3379cc	-0.010954332
56	0x3d421242	0.047380693
57	0xbd0569ae	-0.032571487
58	0x3ac277cb	0.0014836726
59	0xbdd90bee	-0.105979785
60	0xbd4c3d37	-0.049863067
61	0xbd036acc	-0.03208427
62	0xb8bede71	-9.101339e-05
63	0x3dac2455	0.08405367
64	0xbd93cd36	-0.07216875
65	0x3d96f378	0.07370657
66	0xbd79bb36	-0.060969554
67	0x3dc53944	0.09630063
68	0x3d5a335f	0.053271648
69	0xbcb48cd6	-0.022039812
70	0x3d18fc81	0.03735018
71	0xbce563bb	-0.028001657
72	0xbd11bd91	-0.035581175
73	0xbd28053f	-0.041020628
74	0x3e0bef8f	0.13665603
75	0xbe0b7524	-0.13618904
76	0x3d494601	0.049139027
77	0xbdfb7844	-0.12278798
78	0xbdde02f9	-0.10840411
79	0x3c83cc70	0.016088694
80	0xbd888130	-0.066652656
81	0x3c5e7d3a	0.013579661
82	0x3cd7982c	0.026317678
83	0xbd9dcc05	-0.07704929
84	0xbb409e8d	-0.0029391379
85	0x3ca6560e	0.020304706
86	0x3de299b0	0.1106447
87	0xbe08178a	-0.1329023
88	0x3d8de265	0.06927947
89	0x3bebbd75	0.007194216
90	0x3da69e7a	0.08135696
91	0x3d18eb04	0.037333503
92	0x3c232a79	0.009958857
93	0xbd8c0264	-0.068363935
94	0xbd936f17	-0.07198923
95	0x3dfdd986	0.12395005
96	0x3db5c3fc	0.08875272
97	0x3d8e5d72	0.06951417
98	0x3d7ce2a8	0.061739594
99	0x3df0fc68	0.11766893
100	0xbd09ea67	-0.03367081
101	0xbdd8c1b0	-0.10583818
102	0x3c1acf44	0.00944883
103	0x3de4e794	0.111769825
104	0xbd0c8d27	-0.0343143
105	0x3cf44c0b	0.029821416
106	0x3d05c6c1	0.03266025
107	0x3d5dd351	0.054156605
108	0xbe1275df	-0.14302777
109	0xbd34e582	-0.04416419
110	0xbdb21f26	-0.08697347
111	0x3d1994e9	0.037495527
112	0xbdb97930	-0.09056318
113	0x3d82c775	0.063857
114	0x3ca1a398	0.019731328
115	0x3d6cccb4	0.057812408
116	0x3ceecba1	0.029149832
117	0xbbd6ac37	-0.0065512913
118	0x3d812b27	0.06307059
119	0xbd9058ec	-0.070482105
120	0xbd45234c	-0.048129365
121	0x3d8d0e6f	0.068875186
122	0xbded73ef	-0.11594378
123	0xbdab9dbf	-0.08379697
124	0x3d8be607	0.068309836
125	0x3c8c316e	0.017113414
126	0xbd5694f1	-0.052388135
127	0xbd198cdc	-0.03748785
128	0x3ba337d5	0.004981021
129	0x3daebc30	0.08531988
130	0x3c04debc	0.008109745
131	0x3d8266bd	0.06367252
132	0xbdbd8a54	-0.092548996
133	0x3d8bc7ef	0.06825244
134	0xbd3ce6f1	-0.04611868
135	0x3dd0d22d	0.10196338
136	0x3dbf36db	0.09336635
137	0xbd9c25a7	-0.07624369
138	0xbb95a37d	-0.0045666085
139	0x3cb182de	0.021668848
140	0x3bc343cf	0.005959011
141	0xbcd8d95f	-0.026470838
142	0x3ddf5cfa	0.10906406
143	0x3e1efa58	0.15525186
144	0x3c72cbbd	0.014819083
145	0xbd93e6a1	-0.07221723
146	0xbbd3e7eb	-0.0064668558
147	0xbdd37688	-0.103253424
148	0x3c542ebf	0.012950598
149	0x3dd199df	0.10234427
150	0xbe0c95ac	-0.1372897
151	0xbd85de24	-0.065365106
152	0x3e091a17	0.13388859
153	0xbd324b87	-0.04352906
154	0x3c6d0a94	0.014467854
155	0xbd82d183	-0.063876174
156	0x3d24c463	0.04022635
157	0xbe039438	-0.1284951
158	0x3c4c61ce	0.01247449
159	0x3dcf6e8d	0.10128508
160	0xbd4c065b	-0.04981075
161	0x3d81de14	0.06341186
162	0x3d230723	0.039801728
163	0xbd5a74d3	-0.05333407
164	0x3d898997	0.06715696
165	0x3b0999cc	0.002099621
166	0xbdd67d76	-0.104731485
167	0x3c2b9631	0.01047282
168	0xbd8db6be	-0.06919621
169	0x3cf23d49	0.029570239
170	0x3c19a3d4	0.009377439
171	0x3dd91ce1	0.10601211
172	0x3db1872f	0.08668362
173	0xbcdd352d	-0.027002895
174	0x3c99b683	0.018763786
175	0xbc9c2bc7	-0.019063843
176	0xbdce5a1b	-0.1007578
177	0xbdb13938	-0.08653492
178	0x3d9b23c1	0.07575179
179	0x3d51ecd1	0.051251236
180	0x3d2fb957	0.042901363
181	0x3e1d5fe5	0.15368612
182	0xbd00ba6f	-0.031427797
183	0x3e25a5c9	0.16176523
184	0x3deb0bf9	0.11476893
185	0x3d99eac7	0.07515483
186	0xbce1d3f2	-0.027566884
187	0x3d1fb44f	0.038990315
188	0x3c894983	0.016758686
189	0xbd8d1eeb	-0.06890663
190	0x3d50b2ba	0.050951697
191	0xbd63404c	-0.05548124
192	0x3d89be56	0.06725757
193	0x3da27683	0.079327606
194	0xbcd9cbe7	-0.026586486
195	0x3d985a4a	0.07439096
196	0xbcbfcef3	-0.02341411
197	0xbc1d3654	-0.009595472
198	0x3da17712	0.07884039
199	0x3c538066	0.012909031
200	0x3dcddee1	0.100522764
201	0xbb556e96	-0.0032567135
202	0x3d4c1071	0.049820367
203	0xbd791a89	-0.06081632
204	0x3db8c647	0.090221934
205	0xbbb5d3bd	-0.005548923
206	0xbd9d58ab	-0.07682928
207	0x3c9dd88d	0.019268299
208	0xbdce0904	-0.10060313
209	0xbdfa1255	-0.12210528
210	0xbce2a1d4	-0.027665056
211	0xbcd48afa	-0.025945175
212	0x3db065a1	0.08613134
213	0xbaf25f5d	-0.0018491555
214	0x3cc7fad2	0.024411593
215	0xbc83cd9a	-0.01608925
216	0xbdcc9a4f	-0.099903695
217	0xbdcc42d3	-0.09973683
218	0x3e15d465	0.14631803
219	0xbce24992	-0.027622972
220	0x3d93d3f4	0.07218161
221	0x3d37db4a	0.044886865
222	0x3d0cb6aa	0.03435389
223	0xbb8b39e4	-0.0042488445
224	0x3d86b50c	0.06577501
225	0xbcd99cf0	-0.026564091
226	0x3d656720	0.05600655
227	0x3d397c87	0.045284774
228	0xbcff9cce	-0.0312027
229	0xbde5fcb8	-0.11229843
230	0x3d6fc350	0.058535874
231	0xbd7816e2	-0.060568698
232	0x3b6d9c6a	0.003625656
233	0x3d0430e8	0.032273203
234	0xbd1f2580	-0.038854122
235	0x3c74a208	0.014931209
236	0xbd125267	-0.035723116
237	0xbd21fc57	-0.03954729
238	0x3cbef629	0.023310738
239	0x3d0166c4	0.031592146
240	0xbcfb4aba	-0.03067528
241	0x3e3f6304	0.18690115
242	0x3ccfc6d1	0.025363358
243	0xbcab9e3d	-0.020949477
244	0xbd636c41	-0.05552316
245	0xbc62b6d4	-0.013837535
246	0x3c04ad7e	0.008098004
247	0x3cfbbbb3	0.03072915
248	0xbd9bea13	-0.076130055
249	0x3deb894e	0.11500798
250	0x3d3cbe74	0.046080068
251	0xbd629b0c	-0.055323645
252	0x3dfd2704	0.12360957
253	0xbc82c320	-0.015962183
254	0xbc9d5cc8	-0.01920928
255	0x3d1fcefb	0.03901575

layers.1.bias f4 [128]
0	0x3ddfcbc2	0.109275356
1	0x3b8a9f33	0.004230404
2	0xbd6adbb5	-0.057338435
3	0x3e019473	0.12654285
4	0x3c5016c6	0.012700742
5	0x3d2c4673	0.042059373
6	0xbe067b35	-0.13132937
7	0xbd57244d	-0.052524853
8	0x3cda2807	0.026630415
9	0x3d6b3c56	0.057430588
10	0x3c04640c	0.008080494
11	0x3ddeda60	0.108814955
12	0xbcb24d3d	-0.021765346
13	0xbd814dee	-0.06313692
14	0xbc318d3c	-0.010836896
15	0xbd088a01	-0.033334736
16	0x3e14588e	0.14486906
17	0xbd490a74	-0.049082235
18	0xbe001d7a	-0.12511244
19	0x3df17136	0.117891714
20	0xbe2e0a84	-0.16996199
21	0x3c082865	0.008310412
22	0x3d860332	0.06543578
23	0xbd8726fd	-0.06599233
24	0xbe16166c	-0.14656991
25	0x3de1f9af	0.110339515
26	0xbd3058cc	-0.043053433
27	0x3b626a43	0.00345482
28	0x3cfe572e	0.03104743
29	0x3e1d1465	0.15339811
30	0xbcdfb30d	-0.027307058
31	0xbe02db7c	-0.12779039
32	0xbe117398	-0.14204252
33	0xbd9cf0f0	-0.07663143
34	0x3da3bfbf	0.07995557
35	0x3d508566	0.05090847
36	0xbd2bee3b	-0.04197524
37	0x3dd784d7	0.10523384
38	0xbdc632c8	-0.096776545
39	0xbcc256b3	-0.023722982
40	0xbc2a2643	-0.010385099
41	0x3dd26288	0.102726996
42	0x3ca4a31f	0.020097313
43	0x3dbd9133	0.0925621
44	0x3c8c02b3	0.01709113
45	0xbe002a82	-0.12516215
46	0x3e1c1389	0.15241827
47	0x3d2edc5e	0.042690627
48	0x3d7ccc71	0.061718408
49	0x3ce5dede	0.028060373
50	0x3c9e195f	0.019299207
51	0xbd1fb97d	-0.038995255
52	0x3c881c2a	0.016614992
53	0x3e25eb98	0.16203153
54	0xbd817e56	-0.06322925
55	0xbd3e90df	-0.04652488
56	0x3da834a3	0.08213165
57	0x3dc8eeaf	0.0981115
58	0x3dfc8561	0.123301275
59	0x3d4280f2	0.047486253
60	0x3e26e43f	0.16298006
61	0xbe0da1cf	-0.13831256
62	0xbde6f1c0	-0.11276579
63	0xbe02e7b7	-0.12783705
64	0x3df01132	0.1172203
65	0x3da6a309	0.08136565
66	0xbdf560f0	-0.1198138
67	0xbd2cdd3a	-0.042203166
68	0x3d1400b0	0.03613347
69	0x3e24f648	0.16109574
70	0xbdfbf544	-0.1230264
71	0x3e281f5d	0.16418214
72	0xbcca2631	-0.024676414
73	0x3d4aa848	0.04947689
74	0xbde6b12a	-0.1126426
75	0xbdecaa2e	-0.11555897
76	0xbb4e18a1	-0.0031447785
77	0xbd750d6c	-0.059827253
78	0xbd58a886	-0.05289509
79	0x3d98d19c	0.07461855
80	0x3e044c48	0.12919724
81	0xbda373c6	-0.079810664
82	0xbe1e80c6	-0.1547881
83	0xbd05b0e3	-0.032639395
84	0xbe1ae154	-0.15125018
85	0x3dad5cef	0.08464991
86	0x3dd16dd1	0.10226024
87	0x3d60906b	0.054825228
88	0xbd8597e6	-0.06523113
89	0xbdde41ba	-0.1085238
90	0xbd994841	-0.074844845
91	0x3d2a9cab	0.041653316
92	0x3c0cd42f	0.00859551
93	0xbd65085d	-0.05591618
94	0xbcd99098	-0.026558205
95	0x3cd9eb8e	0.026601579
96	0xbe1f9052	-0.15582398
97	0xbdec4d69	-0.11538202
98	0xbe164397	-0.14674221
99	0xbe162a9a	-0.14664689
100	0xbdb918e6	-0.09037952
101	0xbd983b8e	-0.07433234
102	0x3df26c93	0.11837115
103	0xbca64454	-0.020296253
104	0xbde5f950	-0.11229193
105	0x3e1abbc6	0.15110692
106	0xbbe79d71	-0.007068329
107	0x3e02313c	0.12714094
108	0x3dbcd244	0.092197925
109	0x3df55fb4	0.119811445
110	0x3c862c8b	0.016378662
111	0xbd9fd0b7	-0.07803481
112	0x3dcf7039	0.10128827
113	0xbd0064b1	-0.031346027
114	0x3d9ce034	0.07659951
115	0x3e00e6be	0.12588021
116	0x3d4ec18f	0.05047756
117	0x3d699659	0.05702815
118	0xbda2250b	-0.07917222
119	0x39057b66	0.00012729838
120	0xbcbfeeac	-0.023429237
121	0xbc455bec	-0.012045842
122	0x3d6965f4	0.056981996
123	0xbd2758c2	-0.04085613
124	0xbe230d8a	-0.15923133
125	0x3d7fd9c1	0.062463526
126	0xbd6e5b3c	-0.058192477
127	0xbd912ca3	-0.07088592

layers.2.weight f4 [64, 128]
0	0x3d35c026	0.0443727
1	0x3d59a749	0.05313805
2	0xbd8858b7	-0.06657546
3	0x3d3215ae	0.043477707
4	0xbdc5bbb7	-0.096549444
5	0x3e10716c	0.14105767
6	0x3d713aaf	0.058893856
7	0x3ba65bec	0.005076876
8	0xbcf2fea8	-0.029662445
9	0xbde69151	-0.11258186
10	0xbdc8007e	-0.09765719
11	0xbea5e36c	-0.32400072
12	0x3b703592	0.0036653024
13	0x3cedcee9	0.029029327
14	0xbe7f1a43	-0.24912362
15	0x3d582596	0.05277022
16	0xbd285ed3	-0.041106056
17	0x3dc3bdbf	0.095576756
18	0xbad2eea2	-0.0016092847
19	0xbb983f34	-0.0046462063
20	0x3bc1ea51	0.0059178253
21	0xbde62886	-0.11238198
22	0xbd80f5e3	-0.06296899
23	0x3cf2ffda	0.029663015
24	0x3df4b8aa	0.119492844
25	0xbd65a872	-0.056068845
26	0x3e29432c	0.1652953
27	0x3e5e0cc5	0.21684559
28	0xbe099212	-0.13434628
29	0xbe8a7f9c	-0.27050483
30	0xbdd83ae3	-0.10558107
31	0x3d6b9779	0.057517502
32	0x3b64e7c6	0.0034928187
33	0xbd800a06	-0.06251912
34	0xbd0d3943	-0.034478437
35	0x3ccb276c	0.024799071
36	0x3d698621	0.05701268
37	0x3da34408	0.0797196
38	0x3b3e1001	0.0029001238
39	0xbeb5e49e	-0.35525984
40	0xbc552863	-0.013010117
41	0x3ce23072	0.027610991
42	0xbdcb3f5f	-0.099241965
43	0x3d2d82e7	0.042361166
44	0x3ce83dee	0.028349843
45	0x3db74ae5	0.08949832
46	0xbc6667f9	-0.014062875
47	0x3df4ee44	0.11959508
48	0xbe99cfbb	-0.30041298
49	0xbd9e3990	-0.07725823
50	0xbd34f4e9	-0.044178877
51	0xbe354dc5	-0.17705448
52	0xbdbe038b	-0.092780195
53	0x3dac6b9d	0.08418963
54	0xbd05e9c7	-0.03269365
55	0x3d7046d6	0.058661304
56	0xbdeff1fd	-0.117160775
57	0xbdfbac6c	-0.12288746
58	0xbc8a4d73	-0.016882634
59	0xbc1d9771	-0.009618626
60	0xbe0836b1	-0.13302113
61	0xbd189fa3	-0.037261616
62	0x3de1e11a	0.11029263
63	0x3d17dcfc	0.03707598
64	0xbdea96f7	-0.114545755
65	0xbe8fb4d0	-0.28067636
66	0x3e1392ce	0.1441147
67	0x3e02eea0	0.1278634
68	0xbc1c0d06	-0.009524589
69	0xbe219f2c	-0.15783376
70	0x3c66e203	0.014091971
71	0xbd0f7b20	-0.03502953
72	0xbcb0019a	-0.021485139
73	0xbe154673	-0.14577655
74	0x3d5ac6d1	0.053412262
75	0x3d7542ef	0.059878286
76	0xbe291f4c	-0.16515845
77	0x3db2d7a7	0.08732539
78	0xbd3a4a83	-0.045481216
79	0xbe377b70	-0.17918181
80	0xbe510c08	-0.20414746
81	0x3d105146	0.03523376
82	0x3eb2d756	0.34929913
83	0x3e34f42e	0.17671272
84	0x3de7cd2c	0.1131843
85	0xbdd18064	-0.10229567
86	0xbdbc5f29	-0.09197838
87	0xbe84f4b5	-0.25967947
88	0x3d23bd12	0.039975233
89	0xbca5263c	-0.020159833
90	0x3c47c26a	0.012192348
91	0x3c84091d	0.016117627
92	0x3e0db2a5	0.13837679
93	0x3da27a2e	0.0793346
94	0x3e527ef2	0.20556238
95	0x3dd7595c	0.10515091
96	0x3e1aa657	0.15102516
97	0x3db1d4de	0.08683179
98	0x3e42513d	0.18976302
99	0x3a311653	0.0006755341
100	0xbd99366c	-0.07481083
101	0xbcdea5cd	-0.02717867
102	0xbe752a35	-0.23941882
103	0xbd95c44f	-0.073128335
104	0xbd74cbbb	-0.059764605
105	0xbd81625c	-0.06317589
106	0x3d9388f8	0.07203859
107	0xbda7a41b	-0.081855975
108	0x3bc5d0da	0.00603686
109	0xbd3a0f1c	-0.045424566
110	0x3ec892d2	0.39174515
111	0xbd64bd3b	-0.055844527
112	0xbe04175f	-0.1289954
113	0x3e1eb840	0.15499973
114	0xbd580fcc	-0.05274944
115	0xbe7f7f9c	-0.24951023
116	0xbe6ef46d	-0.23335429
117	0x3d772fa0	0.060348153
118	0x3d8663dd	0.06562016
119	0x3e319cc4	0.17344958
120	0x3ebd264f	0.3694329
121	0x3cccbe6b	0.024993142
122	0x3c354884	0.011064652
123	0xbc0f3fbe	-0.008743225
124	0xbd83a0a0	-0.06427121
125	0x3cb6d088	0.022316232
126	0xbcac5545	-0.021036753
127	0x3df87af4	0.121328264
128	0xbdf87ceb	-0.12133201
129	0x3d10cf84	0.035354152
130	0x3e263cc0	0.16234112
131	0xbc0eda2c	-0.008719008
132	0x3d85ac54	0.065270096
133	0x3dd38945	0.103289165
134	0x3e89565e	0.26823705
135	0x3f0a0f9e	0.5393008
136	0x3d7a5c44	0.061123148
137	0xbe414e2b	-0.18877475
138	0xbdd74a8e	-0.10512267
139	0xbaeee2d7	-0.0018225563
140	0x3e1fa9c9	0.15592112
141	0x3da22d85	0.079188384
142	0x3d824b48	0.06362015
143	0xbe93e32b	-0.28884253
144	0x3d0c5f8c	0.034270808
145	0x3dadc5db	0.084850036
146	0x3dc052a1	0.0939076
147	0x3c153bf2	0.00910853
148	0x3d7d8cff	0.061902042
149	0xbd591f2b	-0.05300824
150	0xbe99a6aa	-0.30009967
151	0x3dc4e9cb	0.09614905
152	0xbd36f0d5	-0.04466327
153	0xbe7a81a3	-0.24463515
154	0x3da5bae7	0.080922894
155	0xba4f421c	-0.00079062744
156	0xbbab155c	-0.005221052
157	0x3db73b59	0.089468665
158	0x3eb79e72	0.35863072
159	0x3de0f629	0.10984451
160	0x3d84e856	0.06489627
161	0x3e31d14b	0.17364995
162	0xbe26e553	-0.16298418
163	0x3e4ceaa4	0.20011383
164	0x3e229066	0.15875396
165	0x3cec1c88	0.028822199
166	0x3e4c4412	0.19947842
167	0xbb18fe82	-0.0023345058
168	0x3d2702ea	0.040774263
169	0xbdcce931	-0.10005415
170	0xbe36a508	-0.17836392
171	0x3d55ae5b	0.05216823
172	0xbdb4dbea	-0.08831008
173	0x3aa09172	0.0012250377
174	0x3d374b1c	0.044749364
175	0x3d68747a	0.056751706
176	0x3e245227	0.16046964
177	0x3dd7e21a	0.10541172
178	0xbc52b095	-0.012859483
179	0xbeaa0739	-0.33208635
180	0xbd5809e1	-0.052743796
181	0xbe227720	-0.15865755
182	0x3e46a2c5	0.19398029
183	0xbe4893be	-0.19587609
184	0x3bb32d1c	0.005468024
185	0x3dec1887	0.11528116
186	0xbe13a7b3	-0.14419441
187	0xbd09f408	-0.033679992
188	0xbd348044	-0.044067636
189	0x3ba20ffc	0.004945753
190	0x3d9ce54c	0.076609224
191	0xbb864090	-0.004097052
192	0xbdc25822	-0.09489466
193	0x3d22e792	0.039771624
194	0xbd6d9083	-0.057999145
195	0xbd5d5fae	-0.054046325
196	0xbdbf9ea4	-0.0935643
197	0xbd924a0b	-0.07143029
198	0x3e9f490f	0.31110427
199	0xbd093cef	-0.033505376
200	0x3eb4d704	0.35320294
201	0xbea51566	-0.32242888
202	0xbcdbb20a	-0.026818294
203	0x3d524f83	0.05134536
204	0xbd017f01	-0.03161526
205	0xbd16cbeb	-0.036815565
206	0x3e465e6d	0.19371958
207	0xbd22d94f	-0.039758023
208	0xbdeb0f47	-0.11477523
209	0xbd7a5994	-0.061120585
210	0xbdac25f5	-0.08405677
211	0xbd74a73c	-0.0597298
212	0x3cb2e19e	0.021836098
213	0xbea29456	-0.31753796
214	0xbce6a14f	-0.02815309
215	0x3b00f520	0.0019677356
216	0x3d047314	0.03233631
217	0xbc8ae462	-0.016954605
218	0x3e05c142	0.13062003
219	0x3d871836	0.06596415
220	0xbcf5113b	-0.029915443
221	0x3e1f1e37	0.1553887
222	0x3d02ac97	0.031902876
223	0x3c7208f5	0.014772643
224	0x3d9206be	0.07130192
225	0x3d836290	0.06415284
226	0x3ab48671	0.0013772977
227	0x3d80ba5d	0.06285546
228	0x3d1c0f51	0.038100544
229	0x3e34ef7b	0.1766948
230	0xbbd703c5	-0.0065617287
231	0xbca2b331	-0.019860836
232	0xbc472328	-0.012154378
233	0x3d25e4cb	0.040501397
234	0x3deaf226	0.114719674
235	0xbe0d25ed	-0.13783999
236	0xbe5e3de5	-0.21703298
237	0xbe8695e5	-0.26286235
238	0x3e1af688	0.15133107
239	0x3da12656	0.0786864
240	0xbe3108d9	-0.17288531
241	0x3d9473b9	0.07248635
242	0xbd8ec2d9	-0.06970758
243	0x3dfa27ff	0.1221466
244	0xbd4ebfa2	-0.050475724
245	0xbdf1a4fd	-0.11799047
246	0x3da2d06d	0.0794991
247	0xbe4fbc48	-0.20286667
248	0x3d75bf18	0.059996694
249	0x3d0fa6c8	0.035071164
250	0xbd249ee5	-0.040190596
251	0xbe081d62	-0.13292459
252	0x3de095bd	0.1096606
253	0xbe926569	-0.28592995
254	0xbd1709e8	-0.03687468
255	0x3d1aebed	0.037822653

layers.2.bias f4 [64]
0	0xbd1e5873	-0.03865857
1	0x3d2c911b	0.04213057
2	0x3d84e6c0	0.064893246
3	0x3d1138f5	0.03545471
4	0xbdecb1e0	-0.115573645
5	0xbd128e09	-0.035779987
6	0xbd8b78b8	-0.06810135
7	0xbdfdea22	-0.12398173
8	0x3dbbaf6a	0.09164317
9	0xbdb2a68c	-0.087231725
10	0x3e17b6ed	0.14815874
11	0xbd31c520	-0.043400884
12	0x3ca3fb1e	0.020017203
13	0xbdf1c769	-0.118056126
14	0xbc23f871	-0.0100079635
15	0x3c50c70d	0.01274277
16	0xbdb12d39	-0.08651204
17	0xbe0c7130	-0.13715053
18	0x3d2bb0f4	0.041916803
19	0x3d084fca	0.033279218
20	0xbadc058c	-0.0016786321
21	0x3ba8eb7f	0.0051550264
22	0xbd39fb03	-0.0454054
23	0xbca58c3a	-0.020208467
24	0x3b93c15f	0.0045091356
25	0x3ccebae5	0.025235603
26	0x3dbaa55c	0.09113571
27	0xbd3c5dae	-0.045987777
28	0xbddd1950	-0.107958436
29	0xbd72dcbc	-0.05929254
30	0xbb916ffc	-0.0044383984
31	0xbdd10d1e	-0.1020758
32	0x3dfbc73e	0.12293862
33	0xbd9990da	-0.07498331
34	0xbc3868d1	-0.011255459
35	0x3d93e670	0.07221687
36	0xbd4604dc	-0.048344478
37	0xbe060150	-0.13086438
38	0x3d3b64cd	0.045750428
39	0x3d0e6f04	0.03477384
40	0xbcbddfb8	-0.023177966
41	0xbc49a23b	-0.012306745
42	0x3c871817	0.01649098
43	0x3d887a6a	0.06663974
44	0xbdbf5382	-0.093421
45	0x3de1120e	0.10989772
46	0xbd03aafd	-0.03214549
47	0xbd9a43fa	-0.07532497
48	0xbe023bfb	-0.12718193
49	0x3a7090de	0.00091768603
50	0x3e08e9e1	0.13370468
51	0xbc341f8c	-0.0109938495
52	0xbb03a409	-0.0020086786
53	0x3d9545a2	0.07288672
54	0xbdac6292	-0.08417238
55	0x3c1f06a2	0.009706171
56	0xbd0fe829	-0.035133515
57	0x3c1c1cb7	0.0095283305
58	0xbd2f558b	-0.04280619
59	0x3d9fd2b8	0.07803863
60	0x3d0aeba8	0.033916146
61	0xbd3030d8	-0.04301533
62	0x3cebc09f	0.028778372
63	0xbdf758a7	-0.12077456

readout.weight f4 [1, 64]
0	0x3f983172	1.189009
1	0x3fb162e4	1.3858304
2	0xbf8ca4ae	-1.0987756
3	0xbf8f04a5	-1.1173292
4	0x3f8921af	1.0713404
5	0x3f8c8303	1.0977482
6	0x3f8fbe74	1.1229997
7	0x3f8f491c	1.1194186
8	0xbf8a019a	-1.0781739
9	0x3f8c3994	1.0955071
10	0xbf8f06b1	-1.1173917
11	0x3f8f575c	1.1198535
12	0x3f99d5fc	1.2018428
13	0x3f926a17	1.1438626
14	0x3f8adeee	1.0849283
15	0x3f881064	1.0630002
16	0x3f92b582	1.1461642
17	0x3f8ed575	1.1158892
18	0x3f8f9c72	1.1219618
19	0x3f9426b8	1.1574316
20	0xbf9bc05f	-1.2168082
21	0x3f88a86e	1.0676401
22	0x3f8d0950	1.1018467
23	0xbf92de43	-1.1474079
24	0x3f98cebe	1.1938093
25	0xbf8afc47	-1.0858239
26	0xbf8d5fc6	-1.1044853
27	0x3f8a49e6	1.0803802
28	0x3f84e152	1.0381262
29	0x3f92a241	1.1455766
30	0xbf911fc1	-1.1337816
31	0x3f8afcea	1.0858433
32	0xbf8e5348	-1.1119165
33	0xbf8624dd	-1.048
34	0xbf9cb023	-1.2241253
35	0xbf863fda	-1.0488236
36	0xbf9deab2	-1.2337248
37	0x3f8923bd	1.0714031
38	0xbf8ce366	-1.1006896
39	0x3f8c873a	1.0978768
40	0x3fa1d1a8	1.2642107
41	0x3f8af6d4	1.0856576
42	0x3f9495b7	1.1608189
43	0xbf91aae5	-1.1380278
44	0x3f8a4237	1.0801457
45	0xbf8bbbc9	-1.0916682
46	0x3f90c73d	1.1310803
47	0xbf93a147	-1.1533593
48	0x3f8eca9f	1.1155585
49	0x3f8eac32	1.11463
50	0xbf86247c	-1.0479884
51	0x3f8c9e34	1.098578
52	0xbf97a5a5	-1.1847426
53	0xbf908322	-1.1290019
54	0x3f8bc504	1.0919499
55	0x3f823fc2	1.0175707
56	0xbf99cb78	-1.2015219
57	0x3f9bd076	1.2172992
58	0x3fa2d512	1.2721274
59	0xbf893b66	-1.0721252
60	0x3faa3cb6	1.3299778
61	0x3f846d5c	1.0345874
62	0x3f94d654	1.1627908
63	0x3f865535	1.0494753

layers.0.weight f4 [128, 3]
0	0x3e967229	0.29383972
1	0x3ebc2dd2	0.36753708
2	0x3ee9c68b	0.4565929
3	0x3e7682a1	0.24073268
4	0x3f14c459	0.581121
5	0x3e947bf3	0.29000816
6	0xbebef32a	-0.37294894
7	0x3eb96d1a	0.3621605
8	0xbe5464e6	-0.20741615
9	0x3ee4a23d	0.44655028
10	0x3f7fdae6	0.9994339
11	0xbe5dfd3c	-0.21678632
12	0xbf2d5c8c	-0.6771934
13	0x3e85619e	0.26051039
14	0x3e17ddb5	0.14830668
15	0xbdbc3a9f	-0.091908686
16	0xbedb7e0f	-0.42869613
17	0x3ebde200	0.37086487
18	0xbb592358	-0.0033132639
19	0x3ebc41bf	0.3676891
20	0x3e6256d5	0.22103436
21	0xbda1d222	-0.07901408
22	0x3f582f05	0.84446746
23	0xbde0a212	-0.109684125
24	0x3ed678aa	0.41888934
25	0xbd79348f	-0.06084114
26	0xbf0b0e97	-0.5431914
27	0x3ebcc66a	0.36870128
28	0x3f126a17	0.5719313
29	0x3eace511	0.33768514
30	0xbf3e99a0	-0.74453163
31	0xbec4b217	-0.38417122
32	0x3e6ca2d1	0.23108985
33	0xbd84f462	-0.06491925
34	0xbe129e82	-0.14318278
35	0xbf04c788	-0.5186696
36	0xbc875d2e	-0.016523924
37	0x3ee0a9c0	0.4387951
38	0xbf1a2115	-0.6020673
39	0xbef913c4	-0.48647892
40	0xbf3caf2f	-0.7370481
41	0x3e90ba55	0.2826716
42	0x3e3e06c6	0.18557271
43	0xbe460965	-0.19339521
44	0x3e3da385	0.18519409
45	0xbf170c1a	-0.5900284
46	0x3e84eb00	0.2596054
47	0x3edc3c9a	0.43014985
48	0xbd942b00	-0.07234764
49	0xbf161d18	-0.58638144
50	0xbe8db9d3	-0.27680835
51	0x3ef2542a	0.47329837
52	0x3f11d25a	0.56961596
53	0xbe78ab54	-0.24284106
54	0x3db036ad	0.086041786
55	0xbed8cb5b	-0.42342648
56	0xbe836712	-0.25664574
57	0x3d93bc75	0.0721368
58	0x3eb0dcd0	0.34543467
59	0x3e5c815a	0.21533719
60	0x3f255d10	0.6459513
61	0x3e921946	0.28534907
62	0x3ed6ae62	0.4192992
63	0x3e293aa8	0.16526282
64	0xbeacb8d2	-0.33734757
65	0xbe35a229	-0.1773764
66	0x3eed1aae	0.46309417
67	0x3f01d1d7	0.50710815
68	0x3dd62e4a	0.10458048
69	0xbef44c93	-0.47714671
70	0x3e6a5b34	0.22886354
71	0x3e2ab2e7	0.16669808
72	0x3db9d538	0.090738714
73	0xbf440ff5	-0.7658685
74	0xbe9cb041	-0.3060322
75	0xbedd811b	-0.43262562
76	0x3e29ca04	0.16580969
77	0x3f11fe23	0.57028407
78	0xbf30ddf5	-0.6908868
79	0xbf1a95a8	-0.6038461
80	0x3e94a945	0.29035392
81	0xbec56041	-0.38549998
82	0xbf46912a	-0.7756525
83	0xbe84b334	-0.2591797
84	0xbf215fda	-0.6303688
85	0xbea78214	-0.3271643
86	0x3e0b05c9	0.13576426
87	0xbf226ef9	-0.6345058
88	0x3ebad3ed	0.36489812
89	0xbd58b6ba	-0.052908637
90	0xbe1eb7c2	-0.15499786
91	0x3ddf946c	0.10916981
92	0xbec7263e	-0.38896364
93	0x3f25026a	0.6445681
94	0x392c375f	0.00016423826
95	0x3ef265e3	0.47343358
96	0xbd5b35b5	-0.053518016
97	0x3e82a351	0.25515226
98	0x3e648143	0.22314934
99	0xbe583611	-0.21114375
100	0x3f2e80d4	0.68165326
101	0xbe60ee5d	-0.21965928
102	0xbe78cfe5	-0.24298055
103	0xbe91916c	-0.2843126
104	0xbe745950	-0.23862195
105	0xbeaf2cbd	-0.3421382
106	0x3f28b476	0.6590036
107	0xbc92bcdf	-0.017912326
108	0xbf4bfd0d	-0.79683
109	0x3e28db6a	0.1648995
110	0xbcbcb020	-0.023033202
111	0xbef8d7e7	-0.4860222
112	0xbe0880d1	-0.1333039
113	0xbe9bd643	-0.30436906
114	0x3bb42098	0.0054970495
115	0xbf565a40	-0.8373146
116	0x3edcf42b	0.43155035
117	0x3eaef622	0.3417216
118	0xbf5f64ef	-0.8726339
119	0xbe5babda	-0.21452275
120	0xbf09d2d2	-0.5383731
121	0x3f4fd332	0.81181633
122	0xbdb27fd6	-0.08715789
123	0xbef76b6f	-0.48324153
124	0x3f0a6760	0.5406399
125	0x3eaae065	0.33374324
126	0xbdaf536a	-0.08560832
127	0x3e822d26	0.2542507
128	0x3db72ede	0.08944486
129	0x3ccbb826	0.024868082
130	0x3ee7ce45	0.4527456
131	0x3ec8ddc4	0.39231694
132	0xbe6dbe06	-0.2321702
133	0x3f8062e4	1.0030179
134	0xbf1e3d43	-0.6181223
135	0xbe7abf7d	-0.2448711
136	0x3e9838a7	0.29730722
137	0x3f15e1a7	0.58547443
138	0x3e6e08db	0.23245566
139	0x3e42076d	0.18948145
140	0x3f06f50e	0.52717674
141	0x3ed80496	0.42191
142	0xbd91fbca	-0.07128103
143	0xbea69203	-0.32533273
144	0x3ea2ac0f	0.31771895
145	0x3d173d98	0.036923975
146	0x3f02cacd	0.510907
147	0xbeaf45e2	-0.34233004
148	0xbf2565cf	-0.6460847
149	0xbe9e567d	-0.3092536
150	0x3e898626	0.2686016
151	0x3f7792cc	0.9670837
152	0x3e44220e	0.19153616
153	0xbe47d451	-0.19514586
154	0xbf89d1da	-1.0767167
155	0xbee796cc	-0.45232236
156	0xbf213603	-0.6297304
157	0x3d8b8c12	0.06813826
158	0x3f21bc85	0.6317828
159	0xbcf00fbf	-0.029304383
160	0x3d519d79	0.05117557
161	0x3dc54ecc	0.0963417
162	0x3ecf1daa	0.4045232
163	0x3f684ab4	0.9073899
164	0xbf15aa11	-0.58462626
165	0xbe3dcd75	-0.18535407
166	0xbf43f7d6	-0.7655004
167	0x3e8ea8d8	0.27863193
168	0xbe0dcb54	-0.13847095
169	0xbf3d3043	-0.73901767
170	0xbecdb9c6	-0.40180796
171	0x3b3410a7	0.0027475746
172	0xbf312362	-0.69194615
173	0x3e0eb88a	0.13937584
174	0x3e957d0b	0.29196963
175	0x3dd408cf	0.103532426
176	0x3e509c9a	0.20372239
177	0xbd87b188	-0.06625658
178	0x3f7156c1	0.94273
179	0xbe301808	-0.17196667
180	0xbe330490	-0.17482209
181	0xbf590250	-0.84769154
182	0x3f09f8d1	0.5389529
183	0x3d8b82bb	0.06812044
184	0xbf2d59e1	-0.6771527
185	0x3dd3031a	0.10303326
186	0xbd57917c	-0.05262898
187	0xbf545dc5	-0.8295558
188	0xbf0040ee	-0.50099075
189	0xbea0a955	-0.3137919
190	0xbe4ace72	-0.19805315
191	0xbe5c5ad1	-0.21519019
192	0xbe9b1e16	-0.3029639
193	0xbe9d2c3b	-0.30697808
194	0x3f28facf	0.66007704
195	0xbe863c5a	-0.2621792
196	0xbf1dea34	-0.6168549
197	0xbeef25f2	-0.46708637
198	0xbef8419b	-0.48487553
199	0xbf215261	-0.63016325
200	0x3e2bf620	0.16793108
201	0xbf307ebe	-0.68943393
202	0xbd56791b	-0.05236159
203	0x3ebb5dc1	0.36594966
204	0x3f371cce	0.7152833
205	0x3e006355	0.12537892
206	0xbe7161c5	-0.23572452
207	0xbca21938	-0.019787416
208	0x3f2ca5b6	0.67440355
209	0xbf12c41b	-0.57330483
210	0x3ef09f36	0.46996468
211	0xbe9931a1	-0.29920676
212	0x3eec906f	0.46203944
213	0xbe3ca77e	-0.18423268
214	0xbf1b411d	-0.6064623
215	0x3e725c29	0.23667969
216	0x3f2330cb	0.6374633
217	0xbef820c9	-0.48462513
218	0xbd66c3dd	-0.056339134
219	0x3e477de9	0.19481625
220	0xbeef1497	-0.46695396
221	0xbe05e17f	-0.13074301
222	0x3ed6afed	0.41931096
223	0xbf29fda0	-0.66402626
224	0x3ddea3f4	0.10871115
225	0x3e4faadf	0.20280026
226	0xbd14f7ba	-0.036369063
227	0x3e6b6380	0.22987175
228	0xbe3aff94	-0.18261558
229	0xbef2e4e3	-0.47440252
230	0xbeaf8d11	-0.34287313
231	0x3e914bfa	0.28378278
232	0x3e2bc254	0.16773349
233	0x3e84d98a	0.2594722
234	0xbef4fa76	-0.47847337
235	0x3f0b8be6	0.54510343
236	0x3d3b5fcf	0.045745667
237	0xbf1bf355	-0.6091817
238	0x3f756fc9	0.95873696
239	0xbe47a515	-0.19496568
240	0xbf49d2bb	-0.78837174
241	0xbe92853c	-0.28617275
242	0x3f0ea4a6	0.55719984
243	0x3e34b4a9	0.17647041
244	0xbe2062b2	-0.1566265
245	0xbe8e9ce9	-0.27854088
246	0x3e44e4dc	0.19227928
247	0x3ec2fcb6	0.38083428
248	0xbe6770ce	-0.22601625
249	0x3cadcbc5	0.021215329
250	0x3f495b6a	0.7865511
251	0x3e17ddf8	0.14830768
252	0xbf5259a6	-0.8216804
253	0x3ece170c	0.40251958
254	0xbcf6c41b	-0.030122807
255	0xbe9e7ad2	-0.3095308

layers.0.bias f4 [128]
0	0xbf23a1c4	-0.6391871
1	0xbec37c23	-0.38180646
2	0x3d096469	0.033543024
3	0x3f283812	0.65710557
4	0x3f2e3579	0.6805034
5	0xbdb09335	-0.086218275
6	0xbf3147b4	-0.69250035
7	0x3e3045ca	0.17214122
8	0xbd95e1a3	-0.073184274
9	0x3d821ab0	0.063527465
10	0xbe2dd754	-0.16976672
11	0x3e84135c	0.2579602
12	0xbee18665	-0.44047847
13	0xbe4d0ddb	-0.20024817
14	0xbed2b700	-0.41155243
15	0x3f17a19f	0.5923099
16	0xbef4697c	-0.47736728
17	0xbeaf5486	-0.34244174
18	0xbf07af75	-0.530021
19	0xbf13072e	-0.5743283
20	0xbe10704b	-0.14105336
21	0xbeda0ea8	-0.42589307
22	0x3db29c40	0.087212086
23	0xbe46a8ce	-0.19400331
24	0xbeddbff0	-0.433105
25	0x3e64f7c1	0.22360136
26	0x3e03c793	0.128691
27	0x3f028c82	0.5099565
28	0x3ee6118b	0.4493526
29	0x3ea22b2e	0.31673568
30	0x3f27928e	0.65458
31	0x3dcc8398	0.09986037
32	0xbf3054e2	-0.6887952
33	0xbef61dcf	-0.48069617
34	0xbee7c17d	-0.45264807
35	0xbeb01550	-0.3439126
36	0x3d832c05	0.064048804
37	0xbdf848e4	-0.12123278
38	0x3e9939ac	0.29926813
39	0x3f10bcf1	0.565383
40	0xbdbdd426	-0.0926898
41	0xbed3b8b1	-0.41351846
42	0xbecfed9e	-0.40610975
43	0xbf25d40f	-0.647767
44	0xbcb9691c	-0.022633128
45	0x3eac3d5f	0.33640572
46	0xbd746ac5	-0.059672136
47	0xbe2010da	-0.15631428
48	0xbebd4766	-0.36968535
49	0x3e0612ac	0.1309306
50	0x3edea846	0.43487757
51	0x3da04d0b	0.07827195
52	0x3dec7bd7	0.11547058
53	0xbebb2672	-0.3655277
54	0x3ee70857	0.4512355
55	0x3e9c937b	0.3058127
56	0x3daf884b	0.08570918
57	0x3e538ec8	0.20659935
58	0x3e8099cd	0.2511734
59	0x3ed4fd88	0.4159968
60	0x3ec12ca9	0.37729385
61	0xbdd06cdd	-0.10177014
62	0x3dd33902	0.10313608
63	0xbef24894	-0.47320998
64	0xbec98eb6	-0.39366692
65	0x3f19a0b5	0.60010844
66	0xbe5433b9	-0.20722856
67	0x3e8a3402	0.26992804
68	0xbd8ab6c2	-0.067731395
69	0x3ecd7f62	0.40136248
70	0x3e14901e	0.14508101
71	0x3e15ceb1	0.14629628
72	0xbeb7b414	-0.35879576
73	0xbe653241	-0.22382452
74	0x3e51fd9c	0.205069
75	0xbf05a8a4	-0.5221045
76	0xbf20104a	-0.62524855
77	0xbecaaea7	-0.39586374
78	0x3e98dd1e	0.298562
79	0xbe74f18b	-0.23920266
80	0x3de0bd6f	0.109736316
81	0x3efe1f40	0.49633217
82	0xbf194031	-0.59863573
83	0x3d5685f2	0.052373834
84	0x3eae1cb8	0.34006286
85	0x3e920493	0.28519115
86	0x3e815c61	0.25265792
87	0x3c21e7e9	0.009881952
88	0xbf3d721b	-0.74002236
89	0x3db6f533	0.08933487
90	0xbf0c72ac	-0.54862475
91	0xbef38973	-0.47565803
92	0xbdeb154b	-0.11478671
93	0x3f250b91	0.64470774
94	0xbeeeadc5	-0.4661695
95	0x3e97b5eb	0.2963098
96	0xbedf7fc2	-0.4365216
97	0xbebf6572	-0.37382084
98	0xbe899e55	-0.2687861
99	0x3d8787d3	0.06617703
100	0xbf03d245	-0.5149272
101	0x3e997112	0.29969078
102	0x3ec4f524	0.38468277
103	0xbef116ad	-0.47087613
104	0xbf30ef74	-0.69115376
105	0xbebbbb2b	-0.36666235
106	0x3e18892c	0.14896077
107	0x3f036300	0.51322937
108	0x3d716d76	0.05894228
109	0xbe4c7996	-0.19968256
110	0xbeeba2a3	-0.4602252
111	0x3f338535	0.7012513
112	0xbde50487	-0.11182504
113	0x3f26f7fe	0.65222156
114	0xbe416d71	-0.18889405
115	0xbf07bf8d	-0.5302666
116	0x3f00719a	0.5017334
117	0x3e22ec58	0.1591047
118	0x3e878c18	0.2647407
119	0xbe3256af	-0.1741588
120	0xbe6fd325	-0.23420389
121	0xbe5df435	-0.21675189
122	0x3e79248c	0.24330348
123	0x3e6c35f6	0.2306746
124	0x3e17c55d	0.14821382
125	0xbd1f02d2	-0.03882105
126	0x3dd1fe17	0.10253542
127	0xbe927740	-0.28606606

layers.1.weight f4 [128, 128]
0	0x3e161c5b	0.14659254
1	0x3df3ef9a	0.11910935
2	0xbdd1498a	-0.102191046
3	0xbc8881ef	-0.01666352
4	0xbc5748dd	-0.013139931
5	0x3d1ce1e0	0.03830135
6	0x3df75215	0.12076203
7	0xbdd76536	-0.10517351
8	0x3dae8874	0.0852212
9	0xbd913391	-0.07089914
10	0x3d79a566	0.060948752
11	0x3dd0f80d	0.10203562
12	0x3d7ab3a7	0.061206486
13	0x3d09af82	0.033614643
14	0x3e10f6e5	0.14156683
15	0x3d1fd1a4	0.03901829
16	0x3e5c32c5	0.21503742
17	0x3df5fa21	0.12010599
18	0x3e8d2925	0.27570453
19	0x3d2a35a4	0.041555062
20	0xbd36d837	-0.044639792
21	0x3e889285	0.26674286
22	0xbdd3742f	-0.10324895
23	0xbd6f2586	-0.058385395
24	0x3e0f1be8	0.13975489
25	0x3c980ed2	0.018561754
26	0x3d0c6727	0.03427806
27	0x3e63c358	0.22242486
28	0x3d8bda60	0.06828761
29	0xbe63710d	-0.22211094
30	0xb7fd13c4	-3.0169154e-05
31	0x3e033da6	0.12816486
32	0x3e3a303f	0.18182467
33	0xbda27dec	-0.07934174
34	0xbe7599e5	-0.23984487
35	0x3d0dc460	0.034611106
36	0xbe9a280c	-0.30108678
37	0xbe63ac6d	-0.22233744
38	0x3dcf3d34	0.101190954
39	0x3ca3e835	0.020008186
40	0xbcaf1807	-0.021373762
41	0xbd460b9c	-0.048350915
42	0x3eb09c68	0.34494328
43	0xbca667b5	-0.020313123
44	0x3d90a3c2	0.07062484
45	0x3d81be97	0.0633518
46	0xbd610d0d	-0.054944087
47	0x3cbd7667	0.023127748
48	0x3da54414	0.080696255
49	0x3db05aed	0.08611093
50	0xbe2e01ee	-0.16992924
51	0x3e5b4ef1	0.21416833
52	0x3d9ac0f8	0.07556337
53	0x3e40eedb	0.18841116
54	0x3d353cb3	0.04424734
55	0x3c7c7c69	0.015410521
56	0x3e006d3c	0.1254167
57	0x3e1c1aea	0.15244642
58	0xbc0abc47	-0.00846774
59	0xbdc3012a	-0.095217064
60	0x3df8e575	0.121531405
61	0x3ee5d0d9	0.448859
62	0x3e2176a1	0.1576791
63	0xbdd9ac0d	-0.10628519
64	0x3de1132a	0.109899834
65	0x3d04def4	0.032439187
66	0x3e02cb67	0.12772904
67	0x3ced6159	0.028977083
68	0xbd1173d3	-0.03551085
69	0x3d953467	0.072853856
70	0x3d8265b2	0.06367053
71	0x3dbc7e32	0.09203757
72	0xbb259992	-0.0025268537
73	0x3e07eabf	0.13273142
74	0x3eb66b80	0.3562889
75	0x3e7bf2b7	0.24604307
76	0xbe54a561	-0.20766212
77	0x3e13ac16	0.14421114
78	0xbe75a8d4	-0.23990184
79	0xbccbce64	-0.024878688
80	0x3d5ea0b2	0.05435247
81	0xbdc6b0d3	-0.09701695
82	0x3e20b379	0.15693463
83	0xbb55636a	-0.0032560476
84	0xbe8ab171	-0.27088502
85	0x3dbdff76	0.09277241
86	0x3c8ece34	0.01743231
87	0xbdff0715	-0.12452523
88	0x3d862844	0.06550649
89	0x3dfd4974	0.12367526
90	0x3e911a30	0.28340292
91	0x3e2811b3	0.16413002
92	0xbde7e0ed	-0.11322198
93	0x3cc7e308	0.02440025
94	0x3e41631c	0.18885463
95	0xbd91c086	-0.07116799
96	0xbd89d530	-0.067301154
97	0x3e06fb83	0.13181882
98	0xbcdfced1	-0.027320297
99	0xbe9c1b5f	-0.30489632
100	0x3e1a179f	0.15048073
101	0xbcf38d2b	-0.0297304
102	0xbd6d8945	-0.05799224
103	0xbf05b6dc	-0.52232146
104	0xbe8f375a	-0.27971917
105	0x3e62a4e2	0.2213321
106	0xbd8049ff	-0.06264114
107	0xbe559171	-0.20856263
108	0xbdf1ce3f	-0.118069164
109	0x3de69394	0.11258617
110	0x3da85865	0.08219985
111	0xbd0d00f9	-0.034424756
112	0x3d44a1b2	0.048005767
113	0x3d82bf6b	0.06384166
114	0x3e657214	0.22406799
115	0xbc488403	-0.012238505
116	0xbd174081	-0.03692675
117	0x3d541b83	0.05178405
118	0xbde38e15	-0.11111084
119	0xbf0954c3	-0.5364496
120	0x3e007cf7	0.1254767
121	0xbcc1617c	-0.023606054
122	0x3dc8eacc	0.09810409
123	0xbdc401a8	-0.095706284
124	0x3d946b75	0.07247058
125	0xbcc925a0	-0.024554074
126	0xbcdf4213	-0.027253186
127	0x3e231faa	0.15930048
128	0x3d304bd1	0.043041054
129	0xbdb45380	-0.08804989
130	0x3d79f24c	0.061022088
131	0x3d1c0c7f	0.038097855
132	0xbd945dff	-0.07244491
133	0x3d247b5b	0.040156703
134	0xbe91b6fd	-0.2845992
135	0x3dad982b	0.08476289
136	0x3d7ad562	0.061238654
137	0x3d86cbb3	0.06581821
138	0xbe1b2742	-0.15151694
139	0x3dd08bc3	0.101829074
140	0x3ad18386	0.0015984632
141	0xbdfd596d	-0.12370572
142	0xbd513c98	-0.051083177
143	0xbddbf7d2	-0.10740627
144	0xbdf87fad	-0.12133727
145	0x3e3e7bc0	0.18601894
146	0xbc4b9b09	-0.0124271
147	0xbda08136	-0.07837145
148	0x3e0715b6	0.13191876
149	0x3d5802f2	0.052737184
150	0x3d03ea3c	0.032205805
151	0xbd2b2803	-0.041786205
152	0xbd133051	-0.03593475
153	0x3d0fcf89	0.03511003
154	0xbe0545d3	-0.13014917
155	0xbdbc18d9	-0.09184427
156	0xbdbfa32a	-0.09357293
157	0xbd8fea42	-0.07027103
158	0xbcd10205	-0.025513658
159	0x3df4f827	0.11961394
160	0xbe138b44	-0.14408594
161	0x3df3d72f	0.119062774
162	0xbd1af5f0	-0.0378322
163	0xbe9dfb04	-0.30855572
164	0xbe29bd61	-0.16576149
165	0x3d25bc45	0.04046275
166	0x3d86f782	0.06590177
167	0x3d8c180b	0.06840523
168	0xbd0539d3	-0.03252585
169	0x3cec725e	0.028863128
170	0xbc858315	-0.016297856
171	0xbd5514ee	-0.052021913
172	0x3e052b98	0.13004911
173	0xbd04f9c9	-0.032464776
174	0x3c93a497	0.018022818
175	0x3da65dfe	0.08123396
176	0x3c385dff	0.011252879
177	0xbda1fd9b	-0.079096995
178	0x3ae4f27c	0.0017467286
179	0x3cf8603c	0.030319326
180	0xbbdeb517	-0.00679649
181	0xbe5953ca	-0.21223369
182	0x3e16b819	0.14718665
183	0xbd60ea20	-0.05491078
184	0xbd36125c	-0.044451103
185	0x3dc438f6	0.09581177
186	0xbd05f96c	-0.03270857
187	0x3da89ea4	0.08233383
188	0x3da0e37b	0.078558885
189	0xbd77ac6a	-0.06046716
190	0xbc154367	-0.009110308
191	0xbcfb0dd8	-0.03064625
192	0x3d1211dd	0.035661567
193	0xbda19607	-0.078899436
194	0x3b6e0ac1	0.0036322328
195	0xbcbe389a	-0.02322035
196	0xbcf77599	-0.030207442
197	0x3da1d8ed	0.079027034
198	0x3d321a66	0.043482207
199	0x3ce70cc2	0.028204326
200	0x3d45e8ec	0.048317835
201	0xbdbf1fac	-0.09332213
202	0x3c21d9f3	0.009878623
203	0xbdb7049f	-0.08936428
204	0xbd936e5e	-0.07198785
205	0x3d1f0a71	0.038828317
206	0xbe2d8fa2	-0.16949323
207	0x3da282ec	0.079351276
208	0xbdea73fb	-0.11447903
209	0x3d528d4b	0.05140428
210	0x3e5883c3	0.21144013
211	0xbdd346e3	-0.10316255
212	0xbcab282a	-0.020893175
213	0x3d897b8f	0.0671302
214	0xbddf257e	-0.10895823
215	0xbe417b5c	-0.18894714
216	0x3b7107e9	0.0036778396
217	0xbcee119c	-0.029061131
218	0x3e30c4a5	0.17262514
219	0xbb160785	-0.0022892666
220	0x3a89b143	0.0010505099
221	0xbd931a9c	-0.0718281
222	0xbdc2c5b1	-0.09510363
223	0x3ce05f1f	0.027389107
224	0xbdb87a99	-0.09007759
225	0x3dce1c36	0.100639746
226	0x3c22b07a	0.009929771
227	0x3ca36b14	0.01994852
228	0xbd807752	-0.062727585
229	0x3d045d9e	0.032315843
230	0x3daa23b1	0.08307589
231	0xbcaef555	-0.021357218
232	0xbdd4e02e	-0.103943214
233	0x3d5fd13c	0.0546429
234	0xbb7db33e	-0.0038711573
235	0x3d2f51b8	0.042802542
236	0xbd1b4ea8	-0.03791681
237	0x3c97dbde	0.018537458
238	0x3b690360	0.003555499
239	0x3d0cf912	0.03441722
240	0x3d2c2b96	0.042033754
241	0x3cd67e9d	0.02618342
242	0xbc7a322c	-0.015270751
243	0x3dfd9b86	0.12383179
244	0xbe04fa70	-0.1298616
245	0xbbd9c285	-0.006645503
246	0x3d37c350	0.044864
247	0x3c93e699	0.018054293
248	0x3d752ae2	0.05985535
249	0xbd2c6030	-0.04208392
250	0x3d112634	0.035436824
251	0xbc7add2e	-0.015311522
252	0x3df1ea91	0.11812318
253	0x3df3b64f	0.11900007
254	0xbc48342b	-0.012219469
255	0xbbaeb380	-0.0053314567
