9_gym-DDPG/results/DDPG_Pendulum-v1_eps0.1_t32_l0.0001_update20_s372_500.pth (torch, 176360 bytes, 12 tensors)

layers.0.weight f4 [128, 4]
000000 0f 3c ee 3e 7b 6a a4 3e fe e2 95 3e 91 ea 8a 3e
       0.46530196 0.32112488 0.29274744 0.27132085
000010 d3 01 ae 3c 15 13 25 be 74 e6 70 3e 37 a1 bf 3e
       0.021241104 -0.1612056 0.23525411 0.37427685
000020 40 3b 01 bf c0 a1 af bc ea b7 a9 bd 72 d5 c8 3d
       -0.50481033 -0.021439433 -0.08287032 0.098063365
000030 75 6e 0a 3f 33 f0 96 be 4a c7 87 be 7a 1d 90 3c
       0.54074794 -0.29480132 -0.26519233 0.01759218
000040 5a 9b 82 3d a5 a2 b0 be 8c 08 17 3e cb 29 e6 3e
       0.06377287 -0.34499088 0.14749354 0.4495376
000050 d8 54 bd 3e 81 45 8c be b0 a8 87 bd 22 f9 66 be
       0.36978793 -0.27396777 -0.066239715 -0.22555974
000060 fe 69 cb be e9 b7 8c 3e 5e e8 8a bc 19 4f 3a 3e
       -0.39729303 0.27484062 -0.016956504 0.18194236
000070 d4 56 0a be b6 ea b9 bd c3 30 c2 bb 13 e1 e7 be
       -0.13509685 -0.09077971 -0.005926223 -0.45288906
000080 5a 5d 2c be 53 c4 b1 be a1 d0 8d 3e bb b0 f4 be
       -0.16832486 -0.34720096 0.27698234 -0.47791085
000090 1d c9 90 bd 50 9a d4 3e 5f af 3e be 88 41 94 bd
       -0.07069609 0.4152398 -0.18621586 -0.072390616
0000a0 62 6d 1e be d1 05 2a bd af ff bb be 5b 99 54 be
       -0.15471414 -0.041509453 -0.3671851 -0.20761625
0000b0 84 47 b4 3e c5 51 d7 3c 21 f4 d4 be cf 4a 1c 3f
       0.35210812 0.026284108 -0.41592506 0.6105165
0000c0 e8 56 54 be 85 95 fa be 45 98 71 3e 94 b3 0b bf
       -0.20736277 -0.489422 0.23593242 -0.5457089
0000d0 ea 28 97 3e 6e d5 07 bf 9e 91 a2 be 05 ba cd 3e
       0.29523402 -0.5306004 -0.31751722 0.40180984
0000e0 a5 96 dd be 92 b8 1b 3f 5b 36 d3 bd 56 1d 06 3e
       -0.43278995 0.60828507 -0.10313102 0.13097128
0000f0 79 7e ac be 65 2a 2a bf ed 0d 38 3e 23 b5 05 be
       -0.3369024 -0.6647094 0.17974062 -0.1305738
000100 83 0c b9 bd fa 7f b6 bd 1e 72 33 3e 62 6c af bc
       -0.090355895 -0.08911128 0.17524001 -0.021413986
000110 ae e6 48 3d 2f e5 f7 3d 26 5b 9c 3e d6 90 9a 3d
       0.04904812 0.1210426 0.3053829 0.075471565
000120 ba 6e 46 3f 17 b7 d3 be 8d 8c 67 be 24 88 7f 3e
       0.77512705 -0.41350624 -0.2261221 0.24954277
000130 e7 2e 9c be f5 cf 0b 3f 64 a0 af bd 94 16 15 bd
       -0.30504534 0.5461419 -0.08575514 -0.036398485
000140 db 06 b9 be ef e9 f4 3d 23 e7 b5 be 8e b9 2a be
       -0.36138043 0.11958682 -0.35527906 -0.16672346
000150 15 e9 9d be 5d 4d b1 be 89 82 74 be a6 8a 79 3e
       -0.3084189 -0.34629336 -0.2387792 0.24369296
000160 d3 3f 4c be c4 8b c6 be f6 77 31 be 17 9f a2 3c
       -0.19946222 -0.38778508 -0.17330918 0.01985125
000170 17 6f a4 bd 77 5e c8 be 63 9d 40 3e cb c1 9f be
       -0.08029001 -0.3913457 0.18810038 -0.3120254
000180 7a b4 d5 be 36 70 ae 3e cc e8 cb ba a5 17 48 be
       -0.41739255 0.34069985 -0.001555705 -0.1954027
000190 5e 7b e0 be 7f 90 e9 3d 9f 28 56 3d cb 13 b0 be
       -0.43844122 0.114045136 0.052284833 -0.343901
0001a0 05 d2 af be 52 d8 16 be 99 ca cf 3d aa 76 80 bd
       -0.3433992 -0.14730957 0.10146064 -0.062726334
0001b0 c1 69 ca bd 7b 8c dd bd 0c ea a3 3e b4 63 07 3e
       -0.09883452 -0.1081781 0.320145 0.13221627
0001c0 fa 26 95 be d6 3c fd bd c1 26 8b 3e ef 2d ab 3e
       -0.291313 -0.12365119 0.27178004 0.33433482
0001d0 5d 45 18 3f 33 ca 80 be 92 95 d5 be 3c 1b 92 3e
       0.5948084 -0.25154266 -0.41715676 0.28536403
0001e0 96 06 aa be d6 e8 de 3e 8d da fb 3c 55 82 88 3e
       -0.3320815 0.43537015 0.030743862 0.26661935
0001f0 15 fb a9 be 64 20 a6 3e 4c 4c 80 3e dd 57 b4 be
       -0.33199373 0.32446587 0.2505821 -0.35223284
000200 5d 13 a2 be 86 3d 3a be a6 0e ef 3c 03 56 2f be
       -0.31655398 -0.18187532 0.02918179 -0.17122655
000210 75 4d cc be 08 3e c7 be 5c 9b 19 be f9 7f 86 3e
       -0.39902845 -0.38914514 -0.15000671 0.2626951
000220 be 87 e3 be 2b 33 f8 be 10 91 5d bd 18 b7 a0 be
       -0.444395 -0.48476538 -0.05409342 -0.3138969
000230 bd d3 89 be aa 1c e3 3e 82 37 2a 3e 8a 72 99 3e
       -0.26919356 0.44357806 0.16622737 0.299702
000240 f6 9c 74 3e 02 c3 ff 3e 6b a3 50 3e e6 59 73 be
       0.23888001 0.49953467 0.20374839 -0.23764762
000250 7f b7 e9 be e5 12 47 be 6a 9c 82 3e 2f e1 8e 3e
       -0.4564781 -0.19440801 0.2550996 0.27906176
000260 33 ca 75 3e 04 7f ed be 31 dc 9a be 4e fd 1e bc
       0.24002914 -0.46385968 -0.30246118 -0.009703947
000270 11 eb f2 3d 27 0d 08 bf 89 19 15 3e 34 be 22 3e
       0.118612416 -0.5314507 0.14560522 0.15892869
000280 fc c9 a4 be c9 b1 cc 3e db ad ee 3c 97 78 b1 be
       -0.32185352 0.3997939 0.029135635 -0.34662315
000290 35 2a ad be 79 a4 86 bc 03 5b d5 3e e9 22 66 be
       -0.33821264 -0.016435849 0.41671 -0.22474255
0002a0 af f5 4a be 8d 74 2b be b0 93 13 3e b2 7e d5 be
       -0.19820283 -0.1674368 0.14411807 -0.41698223
0002b0 18 f4 34 be 89 66 42 be 53 3d 15 3d c1 8c d9 be
       -0.1767124 -0.18984427 0.036435436 -0.424902
0002c0 9f f5 6c 3e f8 fb 4b be db d2 a3 3d 3d 71 c5 be
       0.23140572 -0.19920337 0.07999202 -0.38562956
0002d0 d9 af cf be 74 2b d5 3e d3 03 a8 bd c4 32 ed 3b
       -0.4056385 0.41634715 -0.082038544 0.0072387177
0002e0 ce 1a cb 3e 2c 21 8a 3e a3 95 91 bd 27 b8 a2 3e
       0.39668888 0.26978433 -0.07108619 0.31781122
0002f0 1b fc e5 be 76 c8 10 3f 16 f1 b6 3e ca 96 b9 3e
       -0.44918904 0.5655588 0.3573081 0.36247855
000300 01 b7 93 3e c3 2e 7d 3e 8c 05 65 bd 80 a8 4a be
       0.28850558 0.2472487 -0.055913493 -0.1979084
000310 8e 2c 83 3e 2f b9 04 bf 79 ef ac 3e 85 25 f0 3e
       0.2561993 -0.5184507 0.33776453 0.46903625
000320 b7 a1 ee 3e d8 f7 31 3e 7e 3e b0 be ae 69 fc 3d
       0.46607754 0.17379701 -0.34422678 0.12324844
000330 18 31 21 3e 3e 7e 92 3e f6 20 9a 3e 09 df 10 bf
       0.15741384 0.2861194 0.30103272 -0.56590325
000340 38 03 68 be 20 48 c3 be 97 53 77 3e 41 6f de 3e
       -0.22657478 -0.38140965 0.2415298 0.43444255
000350 42 ef e8 be 80 ed 4e bf c4 1e 00 3e 21 62 06 3e
       -0.4549504 -0.80831146 0.12511736 0.1312337
000360 04 e7 0d bf 88 4e 86 3e 6c e5 a9 3e 81 1b 6e bd
       -0.55430627 0.2623179 0.33182847 -0.0581317
000370 58 e3 28 3e 32 b6 b2 3e 3d 09 26 3d f7 51 32 be
       0.16492975 0.3490463 0.040536154 -0.1741408
000380 01 0a 1b bf 7f 34 9e 3e 9c 84 ee 3e 84 b3 a8 be
       -0.6056214 0.30899426 0.46585548 -0.3294946
000390 33 38 19 3e fc 45 09 3f 82 62 83 bd e7 47 9d 3b
       0.14962845 0.5362241 -0.06415273 0.004799831
0003a0 12 0d 95 be 49 83 92 be 99 34 1b 3e 06 38 b0 be
       -0.29111534 -0.28615788 0.15156783 -0.34417742
0003b0 34 73 0c bf 35 41 1a be 15 48 68 be f6 76 b9 be
       -0.54863286 -0.15063937 -0.22683747 -0.36223572
0003c0 49 82 d3 3d 06 63 a2 bd 6d 83 fb 3e 3e 88 e3 bd
       0.10327584 -0.079290435 0.49123707 -0.111099705
0003d0 2c c1 09 3f 99 a4 95 3d 44 09 4c 3e 85 0a 59 be
       0.5381038 0.07306785 0.1992541 -0.21195419
0003e0 33 40 01 3f ea 1f ed be 22 26 5c be d2 43 cc 3e
       0.50488585 -0.4631341 -0.21498922 0.39895493
0003f0 57 dc c9 3e e3 f4 f0 be d1 8d c1 be 94 87 1b 3e
       0.39425918 -0.47061834 -0.3780351 0.15188438

layers.0.bias f4 [128]
000000 32 28 e5 bd f0 85 9e 3e 2e d7 0f bf 95 64 bd 3e
       -0.11189307 0.3096156 -0.56187713 0.369908
000010 40 7b 9f 3e 76 12 98 be 63 ec 8b 3e d4 45 f3 3e
       0.3114872 -0.29701585 0.27328786 0.47514212
000020 dd 75 87 3e 0e 73 39 be 64 13 9b 3e 52 65 9e 3d
       0.2645711 -0.18110296 0.3028823 0.07734169
000030 10 42 5d be 92 36 f8 be ea 7e 0c bf b1 9c 1e 3f
       -0.21607232 -0.48479134 -0.54881155 0.6195784
000040 2e fa f2 be ac 7f 04 3f 88 b9 98 be 41 54 0e 3f
       -0.47456497 0.5175731 -0.2982905 0.5559731
000050 b3 91 52 3e c6 6e 34 be ca d0 bc be 1e 86 06 3f
       0.20563392 -0.17620382 -0.36878043 0.52548397
000060 1c 95 c7 be bb ef 11 bf c7 76 f1 3e 27 f7 c5 3e
       -0.3898095 -0.57006425 0.47160932 0.38665125
000070 f1 88 d4 3e f5 0e a0 be 43 87 a0 3d e1 13 c9 3e
       0.41510728 -0.3126141 0.07838299 0.3927298
000080 3e dd 4d 3e 2a db a3 3d 09 88 24 be e9 82 ba 3e
       0.20103928 0.080007866 -0.16067518 0.36428002
000090 60 c2 be 3e 3a ba da bd 47 df a5 bd b4 72 fe 3e
       0.3725767 -0.10680051 -0.080992274 0.49696887
0000a0 72 48 a8 3e 52 a6 00 3f a9 a0 a0 be 6d 42 e0 3c
       0.3286777 0.50253785 -0.31372574 0.027375424
0000b0 14 42 f7 3e d8 d6 0b 3f d8 25 9b be 64 2d db bd
       0.482926 0.546247 -0.3030231 -0.10702017
0000c0 95 a0 a9 be e6 16 56 be 05 a7 11 3e 94 dd 66 3d
       -0.33130327 -0.20907173 0.14223869 0.056363657
0000d0 c6 20 5f bc 9e bc 00 bf fb 2f 9c be 44 4b 00 bf
       -0.013618654 -0.50287807 -0.30505356 -0.50114846
0000e0 37 8c cf 3e d1 ee 05 bf 45 55 dd be 5f e3 3a 3d
       0.40536663 -0.5231753 -0.43229118 0.045626994
0000f0 a6 88 a7 be 6b 10 b2 be dd 3e f6 3c 75 92 19 bd
       -0.32721442 -0.3477815 0.030059272 -0.037493188
000100 6b 65 06 3f 6f 83 bf 3d 08 5d 0e 3f be f9 26 be
       0.524985 0.09351241 0.55610704 -0.16306207
000110 19 97 28 bf 1c d5 41 be b1 46 eb 3b 36 67 7b 3e
       -0.65855557 -0.18928951 0.007180058 0.2455109
000120 3d df 1a bf 05 2e 1c 3f ab 63 e4 3e 7f 6b 04 3e
       -0.60496885 0.6100772 0.4460729 0.12931632
000130 94 99 a3 3e 35 ec fe 3d 61 f7 82 be 8a 3b 60 3e
       0.31953108 0.12447397 -0.2557936 0.21897712
000140 bd de 69 be fc c9 2e 3f 9d dc be 3e ae 23 08 bf
       -0.22838874 0.68276954 0.3727769 -0.5317944
000150 55 a8 9e bd 5b 27 b7 3e 04 8c ea 3e ee 8c d0 3d
       -0.077469505 0.35772213 0.45809948 0.1018313
000160 1e b6 f3 be 85 6a a8 be 26 b1 05 3f 51 54 8b be
       -0.47599882 -0.32893768 0.5222343 -0.27212766
000170 39 d8 ad 3d c4 ed f3 be ac c1 ea be 1b 72 7f 3e
       0.08488507 -0.47642338 -0.45850885 0.24945872
000180 2a cc 12 bf 10 2c a0 be b2 24 f0 3e 61 94 5a be
       -0.5734278 -0.31283617 0.46902996 -0.21345665
000190 30 6c d1 be 7f b9 46 3d 08 2a 95 3e ee 2a b3 bd
       -0.40902853 0.048516747 0.2913363 -0.087484226
0001a0 e7 d8 a4 3e 8f 38 9f be b8 e5 02 3f 16 4c 48 bd
       0.32196733 -0.31097838 0.51131773 -0.048900686
0001b0 64 0d cf 3e 26 cc 99 be 2e cc 0f 3f bd 67 f6 3d
       0.40439904 -0.30038565 0.5617093 0.12031505
0001c0 81 be 09 3e 9f fe 01 be 27 3b a7 3e 64 c4 ba be
       0.13451578 -0.12694786 0.32662317 -0.3647796
0001d0 3a 2b 04 bf d3 73 b4 bd fc d9 15 3f f7 c6 90 3e
       -0.5162846 -0.08811154 0.5853574 0.28276798
0001e0 dc 10 94 be 5c cb cb 3e f1 ee 8d 3e be c9 84 be
       -0.28919113 0.39803588 0.2772136 -0.25935167
0001f0 24 60 be be fc 7a 48 3e 4a 9d eb 3d 54 69 64 be
       -0.37182724 0.19578165 0.1150461 -0.22305804

layers.1.weight f4 [128, 128]
000000 0e 31 88 3d 2b 4c 95 bd 5b dd e3 3c c8 5e 8a 3d
       0.066499814 -0.072899185 0.027815511 0.06756359
000010 aa b0 67 3d f0 53 06 be 24 b9 e5 3c ab df bb bd
       0.056564964 -0.13117957 0.028042383 -0.09173521
000020 ed a1 45 bd 3a 58 bc 3d b7 48 a3 3d 59 a6 61 3d
       -0.048250128 0.091965154 0.07972854 0.055090282
000030 6d 87 0a 3d d9 05 02 be 68 14 8f 3d bf b2 c3 3c
       0.03382056 -0.12697543 0.06986314 0.023888944
000040 36 48 bc 3c f7 61 bb 3c 7a 5f 04 be 7e 66 f0 bd
       0.022983652 0.022873862 -0.12927046 -0.11738299
000050 3d 9b c7 bd 32 2e 1e 3d d6 7a 5f bd 01 42 01 bd
       -0.09746406 0.038618274 -0.054560505 -0.031557087
000060 15 58 ca 3d 28 bc d0 3d 22 18 84 3d cc 66 c1 bc
       0.098800816 0.10192138 0.064499155 -0.023608588
000070 99 1b 8c bd 3b 90 d4 3d 2c a8 16 3d eb 8d 0f 3e
       -0.06841201 0.10379072 0.036781475 0.14018981
000080 27 33 be bc f6 98 47 bc 34 80 be bd 52 3d de bc
       -0.02321775 -0.012182465 -0.093017966 -0.02712885
000090 5b 25 04 bd c9 2b f3 bb 39 82 32 bd 62 40 f5 bd
       -0.032262187 -0.007420991 -0.04358122 -0.11975171
0000a0 eb 03 84 ba e1 26 56 3c 0f 8e 4d 3b 96 3f 24 bd
       -0.0010071968 0.013070793 0.003136519 -0.040099703
0000b0 47 96 dd bd 54 d2 ac bb 92 d3 69 3d c1 fb d6 3c
       -0.10819679 -0.0052740965 0.057086535 0.026243092
0000c0 30 da 28 3d 19 ad bd 3d b7 63 2b 3d 26 bf 24 bd
       0.041223705 0.092615314 0.041843142 -0.040221356
0000d0 9d 61 90 bc 7c 04 de bc 91 10 81 bd 5f 7b a9 3d
       -0.01762467 -0.027101748 -0.06301988 0.08275484
0000e0 8a 0a 0d bd eb 4b f8 3c 39 dc 86 3d 6a 1a e8 bc
       -0.03443388 0.030309638 0.06584973 -0.028332908
0000f0 84 ff 85 3c 76 f0 6d 3d 60 86 fe bd 4e 2e 94 3d
       0.01635719 0.05809065 -0.12427974 0.072353944
000100 f8 58 1a 3d 8f e4 57 3d 46 68 87 bc 0b b7 1d 3d
       0.037682503 0.052708205 -0.016529214 0.03850464
000110 da 45 a1 bd 14 41 90 3d a1 70 8e bd 0c dd 8b bb
       -0.07874651 0.07043663 -0.06955076 -0.004268294
000120 2d 0e a5 3c 96 91 d0 bd 5a 65 37 3e a3 d7 86 bd
       0.020148361 -0.10184018 0.17909756 -0.06584098
000130 a1 af 58 3d 6e 4e 18 bd 38 24 9b 3d 57 60 60 bd
       0.052901868 -0.03718417 0.075752676 -0.054779377
000140 79 96 13 3d e6 95 f8 3d db c4 5f 3d 85 ce 17 3d
       0.036032174 0.12137966 0.054631095 0.037062187
000150 25 9e 6b 3d 2b c9 4e bd 89 8e 41 bd 17 9c 9e 3d
       0.057523865 -0.050484817 -0.047255073 0.077446155
000160 19 3a d6 3d 22 3c 05 3d 83 2b b1 bd b2 b2 6b 3c
       0.104603 0.03252805 -0.08650877 0.014385866
000170 d0 48 a6 3d f0 77 02 bc 9a 01 80 bd c8 e5 b2 bc
       0.08119357 -0.007963166 -0.062503055 -0.021838084
000180 e0 a1 df bd af 89 dd bd 64 46 4a 3d 5a 91 ef bd
       -0.10919547 -0.10817277 0.049383536 -0.116976455
000190 55 6c 79 bd 58 e1 74 3c db 5d fe 3d 21 94 93 bd
       -0.06089433 0.014946304 0.12420245 -0.07205988
0001a0 f4 a6 53 3d 7a b1 e1 3d 5f 1e 7e bc 25 c6 21 3c
       0.05167289 0.11020179 -0.015510171 0.0098739015
0001b0 1a 3e 3a bc 19 f4 80 3d 8e de 9a 3c df bc d2 bc
       -0.011367345 0.06296558 0.01890495 -0.025724826
0001c0 72 20 a9 bd e3 7c 04 3c b7 6b 0c 3d 21 5e 3a 3b
       -0.082581416 0.008086416 0.034282412 0.0028437453
0001d0 54 82 f0 3c 70 20 c5 bc 04 fe 03 be 3e d6 8f bd
       0.02935902 -0.024063319 -0.12889868 -0.07023285
0001e0 fa 59 d6 bd 94 69 72 bd 82 a2 e0 bd d3 e6 29 3c
       -0.104663804 -0.05918272 -0.10968496 0.010369974
0001f0 57 35 7e 3d d4 c5 fa 3c 40 2f 36 3d 55 bf 4d 3d
       0.062062588 0.03061191 0.044478655 0.050231297
000200 8c 46 cf bd f5 3f 94 3c de 26 e3 3c f0 b6 13 3d
       -0.101208776 0.018096903 0.027728494 0.036063135
000210 c4 ff 44 bd 24 3e 2e bc 97 0b 3c 3d e5 1e 61 3d
       -0.04809548 -0.010634933 0.04590949 0.054961104
000220 08 27 7a b8 60 a1 8b bd 0f e9 ca 3c 2c e6 fd bc
       -5.9640995e-05 -0.06817889 0.024769334 -0.030993544
000230 06 f6 95 3d 72 c1 94 ba 8c 5d 03 bd 15 41 91 3d
       0.07322316 -0.0011349155 -0.032071635 0.070924915
000240 77 e0 48 bd cd fe 5b 3d 80 bd 2f 3d bc b3 8a 3d
       -0.04904219 0.053709794 0.04290533 0.06772563
000250 5b 39 90 3d 2a d7 54 bd 80 b6 45 bd 3e 92 86 bc
       0.0704219 -0.05196301 -0.04826975 -0.016427156
000260 c9 16 0b bd fd 9f 0d 3d 9a 6b e6 bc c1 e6 04 bd
       -0.033957276 0.034576405 -0.02812748 -0.032446627
000270 9b 0a 36 bd 7d 88 f0 3c aa 05 dd bc c4 12 60 3d
       -0.044443708 0.029361958 -0.02698024 0.054705396
000280 b2 ef 7a 3d 0b 19 1f bd 21 f3 03 3e a4 f5 7a 3a
       0.061263748 -0.038842242 0.12885715 0.00095733465
000290 9b c8 a2 bd 17 11 6f bb 2f 41 fe bc f1 a2 59 3d
       -0.07948419 -0.0036478692 -0.031036941 0.05313391
0002a0 f7 e0 9a 3b 9b c8 9e bd da 7b c7 bd 33 a1 63 3c
       0.004726525 -0.07753106 -0.0974042 0.013893413
0002b0 7c 3a 81 3d 0e 39 e0 3d 8d 67 cc bd d9 62 ba 3d
       0.06309983 0.10948382 -0.09980688 0.09100885
0002c0 3b 89 ea 3c 65 a1 1b 3d bd 51 c8 bc 14 b0 3f bd
       0.02862989 0.037995715 -0.024453038 -0.04679878
0002d0 a6 e8 d0 bc cf a0 d4 3b c4 30 05 3c ce c8 fb bc
       -0.02550156 0.0064888964 0.008129302 -0.0307354
0002e0 14 5b 8f bd 06 37 ad bc bf b2 7a bd 28 9f 58 bd
       -0.06999794 -0.021144401 -0.06120562 -0.05288616
0002f0 ff d0 c7 bc d7 d6 b0 3b 26 29 2e bd db bb 13 bd
       -0.02439165 0.0053967047 -0.04251971 -0.036067825
000300 1a fe f1 3d cc 73 bd bc 6c f6 f3 bb 9a 80 13 bd
       0.11816044 -0.023126505 -0.0074451473 -0.036011316
000310 91 9b 94 bd cc f1 97 3d 59 a9 14 3d 86 de 23 3d
       -0.072562344 0.07419166 0.036294315 0.040007137
000320 80 05 92 bd 5a 24 81 ba cc be d0 3c 03 58 a6 bd
       -0.07129955 -0.0009852753 0.025481604 -0.08122256
000330 ac 88 bb 3d 78 c7 8a bd 5b cd ad 3b 0d 66 f7 3c
       0.091569275 -0.06776327 0.0053040213 0.030200029
000340 4d 14 07 bd 40 d1 2f 3d 45 1c 02 bd 24 cc 5e bc
       -0.032978345 0.042924166 -0.03176524 -0.013598476
000350 07 cd 25 bd 4a db 87 bc 56 40 2e 3c f4 39 f3 bd
       -0.040478732 -0.016584057 0.010635456 -0.11876288
000360 c8 a8 1d 3c 07 50 88 3d f4 66 87 3d 76 16 a7 3d
       0.00962276 0.06655889 0.066114336 0.08158581
000370 75 6f df 3d b1 8d a3 bd 35 6f 50 bc 72 92 0e be
       0.109099306 -0.0798601 -0.012721826 -0.13923052
000380 1d ca 7e 3d 1b 9d 87 3d 37 cf 88 3c 1a e5 d5 3d
       0.06220447 0.06621762 0.01670037 0.10444088
000390 0a 4a c1 3d 96 95 8c bd b8 37 9d 3d fa 1d b4 3d
       0.0943795 -0.06864469 0.07676643 0.0879478
0003a0 bf 05 f3 3d ac 3c 8a 3d ca e5 af 3d 8e 53 2e 3d
       0.1186633 0.067498535 0.08588751 0.042560153
0003b0 a8 ce 7a 3c 47 a4 30 3d 4b b0 a4 3d 32 98 3c bd
       0.01530806 0.043125417 0.08041438 -0.046043582
0003c0 ff 0a 45 3d a4 9e b1 3c b8 02 76 3d b0 c9 91 3d
       0.04810619 0.021682091 0.060061187 0.07118547
0003d0 f0 48 18 3d 11 af 56 bd 35 8e c1 3c 3c 42 7f bd
       0.037178934 -0.05241305 0.02362738 -0.062319025
0003e0 ad e1 2b bd 71 b8 22 bd 19 0d 25 3d e4 79 99 bd
       -0.041963268 -0.03972668 0.040295694 -0.07493952
0003f0 11 61 d9 bd df d5 84 bd be 3e 8e 3d e9 d4 67 3d
       -0.10614217 -0.06486105 0.06945561 0.05659953

layers.1.bias f4 [128]
000000 5f 17 d2 bd 83 fd 96 3d 5b ca 83 bd f3 a1 2c be
       -0.10258364 0.07372572 -0.064350806 -0.16858654
000010 55 cf fe 3a 20 c1 ec bc 45 4b df bd 4b 8e 76 bd
       0.0019440452 -0.028900683 -0.109030284 -0.060194295
000020 0e a2 1d be 16 68 c0 3d a8 b6 fa bd 98 18 db 3d
       -0.1539385 0.09394853 -0.1224187 0.1069805
000030 a5 8e 11 bc 7e 3a b6 bd ac ff 59 bd 61 33 de bb
       -0.008884107 -0.08897875 -0.053222343 -0.006781027
000040 f0 af 91 bd a1 6f b8 3d b9 f4 02 3e 93 81 0d 3e
       -0.071136355 0.090056665 0.12788667 0.1381896
000050 f2 07 3d bd 6a b3 e3 bd c9 e5 27 bd d8 0f 91 ba
       -0.046150155 -0.11118205 -0.040990625 -0.0011067344
000060 12 f4 41 bd a2 b9 ad 3d 57 28 ec 3d 8a 2c 0d bc
       -0.047351904 0.08482672 0.11531132 -0.008616576
000070 5b 89 3b 3d 59 8c 84 3c 76 3f 23 3d f6 1c ca bd
       0.04578529 0.016180204 0.039855443 -0.09868805
000080 67 0b c6 bd 5e a5 eb bd 35 bf ff bd 53 bf 1d be
       -0.096701436 -0.11506151 -0.12487642 -0.15405016
000090 db 45 b6 bd ff 6d 71 3d ab 4b 8e 3d 98 49 9b bd
       -0.089000426 0.05894279 0.06948026 -0.07582396
0000a0 31 ba 25 bd 05 53 81 b9 0f 37 d8 bd 9f 04 be 3d
       -0.04046077 -0.00024666652 -0.105573766 0.09278225
0000b0 55 13 fc bd ad 15 3f 3b 78 9b 7b bd f5 44 53 3d
       -0.12308375 0.0029157207 -0.061427563 0.051579434
0000c0 13 22 75 3d 67 be 78 3c bb 22 3f be 75 88 94 bd
       0.05984695 0.015182114 -0.18665592 -0.072525896
0000d0 82 82 38 3c e7 36 bd bd e9 0b 9d bd 4c 64 1a be
       0.011261584 -0.092389874 -0.07668287 -0.15077323
0000e0 19 61 0c be 2d 8d 27 3e 01 bc 02 be be 5b a9 3c
       -0.13708915 0.16362448 -0.1276703 0.020673629
0000f0 58 ce 47 3d ad bc 9f bd 35 72 a3 3d b5 4f 24 3d
       0.04878077 -0.07799659 0.07980768 0.040115077
000100 89 ab 3e 3d ce 71 67 be b6 05 f4 bd cf 45 da bc
       0.046550307 -0.22602007 -0.11915152 -0.026644615
000110 57 ca a8 3d 28 b9 05 3d 52 7b b8 bd 75 6f 7e bd
       0.08241718 0.032647282 -0.090078965 -0.062118012
000120 8a f2 82 3c 09 a1 43 bd e6 40 43 3c dd e9 ff bc
       0.015984792 -0.047760997 0.011917328 -0.031239444
000130 0b ba bd bd 8c 26 c6 bc a1 39 77 bd 96 25 dd bd
       -0.092640005 -0.024188302 -0.060357694 -0.107981846
000140 ba a0 3e 3e 9e 2e 4b be 33 23 31 bd 7f 38 d2 bd
       0.18616 -0.19842002 -0.04324646 -0.10264682
000150 43 5e 29 bd 4f f8 1f 3d 3d 58 90 bd e1 5a a9 bd
       -0.04134966 0.039055165 -0.0704808 -0.08269287
000160 ea 3c 8f bc 01 54 99 3b 95 5f 76 bd 40 9f 26 be
       -0.0174851 0.0046792035 -0.060149748 -0.16271687
000170 b9 20 e0 bd 17 fe 06 3b d1 07 59 3c 0d 48 27 b9
       -0.10943741 0.0020598227 0.0132464925 -0.00015953202
000180 75 aa 8b 3d 70 e6 42 bd c3 5c 21 3e e0 9f 52 3e
       0.068196215 -0.047583044 0.15758042 0.205688
000190 af ca 9b bd 92 da ed bc d8 75 d7 bd b5 87 80 3d
       -0.07607018 -0.029034887 -0.10520524 0.06275884
0001a0 2c 2d 77 3d 6f 22 a3 bd 70 82 12 3d de c3 4e bd
       0.060345814 -0.07965552 0.035768926 -0.050479762
0001b0 06 5e 87 bd 0c 15 52 3d 91 39 e2 3d e4 cd c1 bc
       -0.066097304 0.051289603 0.11046136 -0.023657747
0001c0 7b d6 eb 3c e5 2d 7b bd cd 77 d9 bd 5f 23 0a bc
       0.028788796 -0.061323065 -0.10618553 -0.008431285
0001d0 7a 5a 14 bd 6c 25 b5 3c 60 e1 b3 bc e1 ca 27 3d
       -0.036219098 0.02211257 -0.021958053 0.040964965
0001e0 31 f8 0b bd 93 5d f7 3d 60 ec 8c 3d 7c 89 46 bd
       -0.03417224 0.12078395 0.068810225 -0.04847096
0001f0 9c 5c 54 bc cd 2b 10 be 80 53 f1 bc 03 06 c2 3d
       -0.012961533 -0.14079209 -0.029458761 0.09473803

layers.2.weight f4 [64, 128]
000000 d0 76 ee bb ee ad 6c 3d b5 6d d5 bc bd 0a ba 3d
       -0.007277347 0.05778306 -0.026053289 0.090840794
000010 87 24 92 3d 04 8f 72 be a8 5d 2a bd 28 e9 0f be
       0.07135873 -0.23687369 -0.041593224 -0.14053786
000020 4d c5 12 be e0 d1 47 bd e8 ef 82 bd dd 98 8f 3d
       -0.14333077 -0.048784137 -0.06393415 0.07011578
000030 9a 6d a9 bd 34 72 14 bd a6 59 84 3d a9 05 a9 bd
       -0.08272858 -0.036241725 0.064624116 -0.08253033
000040 e0 48 1d bd 69 ac 2d 3e 91 9c e3 3d 25 0a 02 bc
       -0.038399577 0.169603 0.11113847 -0.007936989
000050 16 ad c7 bd 7c ea 8b bd 6b 56 b9 be 27 03 1f 3c
       -0.097498104 -0.06831834 -0.36198744 0.009705341
000060 12 5f d2 bd 83 77 7d 3d 26 3b c9 3b fa d0 db 3c
       -0.102720395 0.061881553 0.0061410842 0.026833046
000070 80 54 9e be 32 33 b7 3e 6d e2 f0 3d 82 d2 4f 3c
       -0.30923843 0.35781246 0.11761937 0.012684466
000080 c3 4f 52 bd 5f aa 1b be a4 fb 83 3d 1d 57 8a 3d
       -0.051345598 -0.1520171 0.06444481 0.06754897
000090 e1 76 39 3c d9 76 17 3e 33 2d 43 3d 6a 6e 32 3c
       0.011319847 0.1479143 0.047650527 0.010890583
0000a0 eb bc 8e bd 92 15 3a 3d 5e 55 19 be f0 ad 73 3d
       -0.06969627 0.045430727 -0.14973971 0.05949205
0000b0 17 6d 1c be 4e af 30 3e 6f f7 64 bc c4 ec 40 bd
       -0.1527599 0.17254373 -0.013975008 -0.047100797
0000c0 69 20 15 bd 7f d3 28 bb 86 95 1c 3d 5b 71 61 bd
       -0.03640786 -0.0025760827 0.038228534 -0.055039745
0000d0 3e 02 12 3e 64 1a 5a be e0 c0 81 bd 91 c2 18 bd
       0.14258668 -0.2129913 -0.06335616 -0.037294928
0000e0 3f b7 0a 3d 60 56 eb bd 75 b2 01 be 34 a0 1a 3d
       0.033866163 -0.11491084 -0.12665732 0.037750438
0000f0 5a 8a 30 bd b5 6b 9c bd 8b 36 c3 3e 03 e8 19 3b
       -0.043100692 -0.07637731 0.3812755 0.0023484237
000100 c7 72 e0 bd a9 42 52 3e bc 5e 97 bc 0d 79 17 bd
       -0.10959392 0.20533241 -0.01847779 -0.036980677
000110 7a 2c 35 3e be 18 bb be 97 9e 98 3d a1 e7 cb 3c
       0.17692748 -0.36542314 0.074521236 0.024890723
000120 a1 19 05 3a 31 af 23 3e dc bc 28 3d b1 32 5a 3e
       0.00050773664 0.15984799 0.041195735 0.213084
000130 b3 a6 cd 3d e5 a3 c3 3d ed ad 97 be 34 ae ad be
       0.10041561 0.09552745 -0.29624882 -0.3392197
000140 eb d8 6f bc 50 7d 36 bc 6f d6 32 3d 25 03 ce bc
       -0.01463912 -0.011138275 0.04366153 -0.025147984
000150 ce 44 3a 3e 6c a1 fe bd 8f aa cb bd 9f 83 8b 3c
       0.1819031 -0.124331325 -0.09944641 0.017030535
000160 9a 87 cd 3c 9c 52 68 be 53 87 57 bd fa b6 99 bc
       0.025089074 -0.22687763 -0.05261929 -0.018764008
000170 48 25 79 3d 59 eb aa bd ad 9d 1d bd e1 3e f9 3d
       0.06082657 -0.0834567 -0.03848045 0.12170196
000180 a4 f1 9f 3d 97 6e b1 be 2e a3 98 bd 11 50 49 3d
       0.07809761 -0.34654686 -0.07452999 0.049148623
000190 70 e9 f0 bd 1e d9 bd be 33 13 18 bd 90 bc 9b 3d
       -0.11763275 -0.3707971 -0.037127685 0.07604325
0001a0 94 1e e8 3c 8f 10 b3 be 79 00 e7 3d 68 99 17 be
       0.028334893 -0.3497357 0.11279387 -0.14804614
0001b0 95 f2 49 bd 9b 68 ad 3c ed 38 d7 3d 2a 54 8f 3e
       -0.04930361 0.021168044 0.105089046 0.279939
0001c0 c2 34 6e be 71 4e 06 3e 5a f8 54 3c b9 88 93 3e
       -0.23262313 0.1311586 0.012998665 0.2881525
0001d0 41 27 37 be 21 23 99 bd 31 ed 06 be 27 00 cf 3d
       -0.17886068 -0.074774034 -0.13176419 0.10107451
0001e0 94 ec b5 3d e5 79 fa bc 54 02 1d 3e fa 76 52 3a
       0.08883014 -0.030575702 0.1533292 0.0008028593
0001f0 f4 74 1f 3e 31 46 9b 3c 38 d8 a2 bd 1e 8a a2 3d
       0.15571958 0.018954368 -0.07951397 0.079365
000200 0f 4f 6d bd 80 72 35 bd a9 d1 fe 3d 16 ae d3 bc
       -0.057936724 -0.04429865 0.12442333 -0.025839847
000210 fd 61 d6 bd 5d d2 ce bb 17 86 f1 3d c0 0c 30 bc
       -0.104679085 -0.0063116984 0.11793154 -0.010745227
000220 75 fd f6 bd 67 72 dd 3b 36 f3 3a be 38 ff 5a 3e
       -0.12060062 0.0067580226 -0.1825684 0.2138642
000230 71 f4 08 be 5b bf 64 3d 43 7e ca 3d 03 fe f3 3d
       -0.13374497 0.055846553 0.09887364 0.11913683
000240 81 72 f7 3d 2e 11 8d 3d a7 9a 43 3e 5e 8d 84 3d
       0.12082387 0.068880424 0.19101964 0.06472276
000250 f0 ae 4c 3d e1 c4 24 bd 2c 16 79 be 32 34 ce bd
       0.04997152 -0.04022682 -0.24324864 -0.10068549
000260 c2 64 2d 3d 53 e4 27 3e bd 1b 85 3c 6e 64 14 3e
       0.04233242 0.16395693 0.016248578 0.14491436
000270 88 f8 b2 be 59 3b a7 3e 49 98 44 bd 87 af 1b be
       -0.3495524 0.32662466 -0.047996793 -0.15203677
000280 5e 60 fd 3c 56 60 8e 3d c3 6c e3 3d 35 d2 1e 3e
       0.03092974 0.06951968 0.11104729 0.15509875
000290 9f 39 a3 3b 3a 09 40 3e 3d 5d 03 be 58 a0 1a 3e
       0.004981234 0.1875352 -0.12828536 0.15100229
0002a0 d6 37 4d bc 70 b4 03 3d 1c 6d bf bd 2b a9 50 3e
       -0.012525519 0.0321545 -0.09346983 0.20377032
0002b0 7c 51 81 be 80 f9 a9 3e e1 eb fd bd 83 6e 98 3d
       -0.2525748 0.33198166 -0.12398506 0.074429534
0002c0 65 9d 4e 3d e2 ce c9 bd ee 9b 0e 3e 47 31 14 be
       0.050443072 -0.09853913 0.1392667 -0.14471923
0002d0 ee c1 19 3e 85 f7 02 be 19 2a 98 3d da 3e 8c 3d
       0.15015385 -0.12789734 0.074299045 0.068479255
0002e0 57 6b 77 bd 59 64 29 be 1b d2 8a be 6d 2f cc 3b
       -0.0604051 -0.16542186 -0.27113423 0.0062312395
0002f0 d9 94 43 3e aa 13 e3 bd 98 c4 dc 3e 08 05 2a 3d
       0.1909975 -0.11087735 0.4311874 0.041508704
000300 55 67 4d be 1b 8d 33 3e 4d 32 80 3a 40 97 60 3d
       -0.2005895 0.17534296 0.0009780616 0.054831743
000310 2c 03 bb 3d 18 fc d3 be 73 fc f5 3e bd e3 5d be
       0.09131464 -0.4140327 0.48044166 -0.21668907
000320 92 d5 3a 3c c1 10 89 bd f6 e7 f9 bd ba 37 2f 3e
       0.011403458 -0.06692649 -0.12202446 0.17111102
000330 5b 02 23 3e ac 7a ef 3d bb aa b9 bd 67 ea aa be
       0.15918867 0.1169332 -0.090657674 -0.3338196
000340 7d df e4 3c a0 65 f3 bd 26 be be 3c 03 76 2a bd
       0.027938599 -0.11884618 0.02328403 -0.04161645
000350 e1 82 d7 3e a3 e5 23 be e3 32 b2 3c a5 8d 81 bc
       0.4209204 -0.16005568 0.02175278 -0.015814612
000360 db 40 ec bd b5 6d cd be ba a5 d7 bd c8 08 a1 bd
       -0.11535808 -0.40122762 -0.10529657 -0.07863003
000370 4e 8f 01 3e 30 83 4c 3c 7f da d8 3d 46 a5 ae 3e
       0.12652323 0.012482449 0.1058855 0.3411047
000380 13 3c d1 bd 81 83 d7 be 23 83 a0 bd 6e e8 27 bd
       -0.102165364 -0.42092517 -0.07837512 -0.040993147
000390 2b c6 15 3b 41 77 94 be 8c 68 b7 be 3b fa 4c 3e
       0.0022853713 -0.28997234 -0.3582195 0.2001733
0003a0 53 2b 09 3e bc a5 eb be b7 e8 e3 3b cb ed af be
       0.13395433 -0.46024883 0.006955232 -0.3436111
0003b0 74 ce e0 bd 17 e6 4a 3b 50 9d d7 3b 8f 08 b7 3e
       -0.10976878 0.0030959898 0.0065800324 0.35748717
0003c0 96 37 3e be 10 24 48 be f1 99 91 3d ff 94 98 3e
       -0.18575892 -0.19545007 0.0710944 0.29801175
0003d0 0e 91 40 bd d6 57 e6 bc c2 6d 06 be 08 60 59 3d
       -0.047013335 -0.028118055 -0.13127807 0.0530701
0003e0 3f 7d 8f bd d7 d3 13 be 0d 45 0a 3e 2a 57 68 be
       -0.07006311 -0.14436279 0.13502903 -0.226895
0003f0 7c aa 0d 3d 96 6d de 3d a4 96 90 3d 37 38 09 bd
       0.034586415 0.108607456 0.070599824 -0.033500876

layers.2.bias f4 [64]
000000 c8 36 e7 bd 88 91 f7 bc 48 83 be bd b2 f3 8a bc
       -0.112897456 -0.030220762 -0.09302384 -0.016961906
000010 85 e2 4b bd 10 43 73 bd a2 e4 70 bd 79 8d c7 bd
       -0.049776573 -0.059390128 -0.05881179 -0.09743781
000020 71 97 14 be be 99 1d 3d 6c 5f d7 bc 0b 89 be 3d
       -0.14510895 0.038476698 -0.026290618 0.093034826
000030 3b 33 16 be dd f5 ae 3d f5 e0 11 be 3c 50 93 bd
       -0.1466798 0.085429884 -0.1424597 -0.07193038
000040 ba ff f5 bd 64 12 9e bc 9c b3 8d 3c d9 b4 02 bd
       -0.120116666 -0.019295879 0.017297558 -0.03191075
000050 94 f2 39 bd 44 9d 3d 3d d6 e3 08 3e 8b f6 3b 3d
       -0.045397356 0.04629256 0.13368163 0.04588942
000060 9c 69 b7 3d 18 de bb bd 5e b8 42 3d 74 80 ac 3c
       0.0895569 -0.091732204 0.047539108 0.021057345
000070 21 c1 79 bd 28 d2 16 bd eb f1 71 3d 8d 38 91 bc
       -0.060975198 -0.036821514 0.0590686 -0.01772716
000080 2a e8 90 bd b5 ac f6 3d 7b 66 e5 3d 10 2d c6 bd
       -0.07075532 0.1204466 0.11201187 -0.09676564
000090 2f 11 93 bd 1d 1d 98 3d 44 49 0a 3e 9b 10 3e bd
       -0.07181012 0.07427428 0.13504511 -0.046402555
0000a0 02 57 d9 bc 26 ae 48 bd 36 01 fd 3d e2 0a c4 bc
       -0.026530746 -0.048994206 0.123537466 -0.02393097
0000b0 3a 9d 46 3d 6c 41 d2 bd f9 74 05 be 85 7f 96 3b
       0.048489787 -0.102663845 -0.13032903 0.004592838
0000c0 41 c0 0f bc 1c 72 08 3d 2f da e8 bd 08 8d 92 bc
       -0.008773864 0.03331195 -0.1136974 -0.017889515
0000d0 c3 ef 3b 3d 45 56 dc 3d 36 92 8e 3c c6 0c dc 3d
       0.04588295 0.10758642 0.017403703 0.10744624
0000e0 c4 66 e3 3d 03 84 ac bd 9b 71 83 bc 23 d1 3f bd
       0.11103585 -0.08423617 -0.016045382 -0.046830308
0000f0 c5 41 06 be d2 56 ec bd 01 f6 18 bd 8e 83 7e bd
       -0.13111027 -0.11539997 -0.037343983 -0.06213718

readout.weight f4 [1, 64]
000000 5a e2 bd bf 1d cf b1 bf dc ef b5 3f 40 e0 b8 bf
       -1.4834702 -1.3891331 1.4213824 -1.4443436
000010 62 13 b6 3f 01 c1 bb 3f e4 58 b3 3f d4 b9 bc 3f
       1.4224665 1.4668275 1.4011502 1.474421
000020 c4 62 ba 3f 39 1e bd bf b1 56 b3 bf ae 2d bc bf
       1.4561391 -1.4774848 -1.4010831 -1.470144
000030 4f 1c ae bf 0b f0 b5 bf f4 51 af bf f5 aa ba 3f
       -1.3602389 -1.421388 -1.3696885 1.4583422
000040 a6 64 b6 3f 6b 77 b7 bf 92 23 b5 3f 24 1d b1 bf
       1.4249465 -1.4333318 1.415148 -1.3837018
000050 24 ea b7 3f 88 98 ba bf 60 5c b5 bf bf 39 b2 3f
       1.4368329 -1.4577799 -1.4168816 1.3923873
000060 b1 e2 b9 bf 4b c4 b0 3f 3c 54 bc bf aa 42 b4 bf
       -1.4522306 1.3809904 -1.4713206 -1.4082844
000070 5a c5 ad 3f f0 66 b5 3f 21 a0 ba bf 31 a4 b4 3f
       1.3575852 1.4172039 -1.4580117 1.4112607
000080 84 62 bc 3f a1 0b ae bf c2 0b bd bf 80 37 bb 3f
       1.4717565 -1.3597299 -1.4769213 1.4626312
000090 df a4 ba 3f 3f cd b4 bf 88 d5 b6 bf 64 81 b4 3f
       1.4581565 -1.4125136 -1.4283915 1.4101987
0000a0 b7 ac b6 3f b8 cd ba 3f 07 9f b3 bf 38 d5 bc bf
       1.4271458 1.459403 -1.4032906 -1.4752569
0000b0 c8 b5 b1 bf 44 27 b2 3f 62 cb b6 3f ec 18 b9 3f
       -1.38836 1.3918233 1.4280818 1.446073
0000c0 38 63 af 3f ef 9c ae 3f e7 8d ba 3f 06 80 b5 bf
       1.3702154 1.3641642 1.4574555 -1.4179695
0000d0 4f 62 bb bf fe 08 b9 bf ea 92 ad 3f db 06 af bf
       -1.4639376 -1.4455869 1.356046 -1.3673967
0000e0 74 f0 bc bf 31 03 b5 3f 1f 1b ba bf 17 c1 b0 bf
       -1.476088 1.4141599 -1.4539527 -1.3808926
0000f0 b0 65 b2 3f 5b bf ae 3f 48 e4 b1 bf b6 d8 af 3f
       1.3937283 1.3652147 -1.3897791 1.373801

layers.0.weight f4 [128, 3]
000000 cb 3e d6 3e 1a d0 db be 0b f2 ed 3e ab 65 74 be
       0.41844782 -0.42932206 0.46473727 -0.23866908
000010 13 5e d2 3e 9f 2b 0a bf 53 0f a7 be fa 00 a0 be
       0.41087398 -0.5397281 -0.3262888 -0.31250745
000020 b9 dc 01 be 28 4c d2 bc 26 05 28 3f 35 bb fd be
       -0.12681855 -0.02567108 0.65632856 -0.4955689
000030 c4 25 1f 3f df e8 50 3e d8 26 a7 be 25 49 b2 3e
       0.62167 0.20401333 -0.32646823 0.3482143
000040 ee 1f 2d bd 69 1a 70 be f8 7e ed be 04 7d 0f bf
       -0.04226678 -0.23447575 -0.46385932 -0.56050134
000050 60 a0 24 3e 24 46 09 bc cc f5 3f bf 49 f7 e8 3e
       0.16076803 -0.008378539 -0.7498443 0.45501164
000060 93 0e 11 bf 72 96 79 3e 1a 78 9f bc 8b 4f cb bd
       -0.56662863 0.24373797 -0.019466449 -0.09927281
000070 41 38 0f 3d 94 84 c9 3e 70 56 03 3f 2f 61 cc be
       0.034965757 0.39358962 0.5130377 -0.39917895
000080 20 bc f6 be 07 58 6f 3e f2 82 9f 3e 41 2e 78 be
       -0.48190403 0.23373424 0.3115459 -0.24236394
000090 30 16 80 3e 0c 60 0e 3f 60 93 75 3e f7 b6 cc be
       0.25016928 0.55615306 0.23982 -0.3998334
0000a0 96 a3 24 3f b3 e2 2c be 63 80 ad be 9a c4 12 bf
       0.6431211 -0.16883354 -0.33887014 -0.5733124
0000b0 e4 9d 1a be 09 fd 16 be 66 13 ee be c5 9b 8a be
       -0.15099293 -0.14744963 -0.46499175 -0.27071968
0000c0 73 b1 f2 3e 6a 6f c3 3e dd af 7b 3e cb b8 73 bd
       0.47401008 0.3817094 0.24578805 -0.059502404
0000d0 71 e0 b0 3e 37 37 e7 be 93 b7 3d bd eb a4 e1 be
       0.34546235 -0.45159313 -0.04631765 -0.44071135
0000e0 ed 06 b1 be 8e 8f 12 bf 23 c9 9d bc 66 21 ad be
       -0.34575596 -0.572503 -0.019260949 -0.33814543
0000f0 96 8c d0 3e dc 88 4f 3f 48 5c 54 3c d6 5f 7d 3e
       0.4073226 0.81068206 0.012961455 0.2474359
000100 8c d8 21 3f 25 68 b6 3d f2 ff e2 be fa c9 f6 be
       0.6322105 0.08906583 -0.44335896 -0.4820097
000110 c9 6c 89 be 11 b5 23 bf 08 23 05 be be cb 3d 3d
       -0.2684081 -0.6394816 -0.13001645 0.04633688
000120 fd a0 f1 3e 31 57 9a be 6b b8 08 3f 3e 78 39 3e
       0.47193137 -0.30144647 0.534064 0.18112275
000130 5c 3b 36 3f 2c 04 bb 3d 7f 47 45 be 2d ec 0c bf
       0.71184325 0.09131655 -0.19265555 -0.55047876
000140 74 66 72 3e 94 43 9e be 06 16 aa bd f8 94 1a be
       0.23671895 -0.30910933 -0.08304982 -0.1509589
000150 91 64 8c 3d ec 38 ff 3e ae 08 ad 3d 17 9b e3 be
       0.06855119 0.49848115 0.08448921 -0.44454262
000160 bb b2 c8 be 3e 5c ef 3e 5b f5 93 be 80 4c 3c bf
       -0.3919886 0.46750063 -0.2889813 -0.7355423
000170 0d 84 91 3e 47 73 c0 3e de f3 0e bf 4c 84 fd bd
       0.2842106 0.3758795 -0.5584086 -0.12378749
000180 1e 39 09 bf aa 2b 69 3e 96 6f 4e bd 44 75 57 3e
       -0.5360278 0.22770563 -0.050399385 0.21040827
000190 7b 96 e4 be 03 15 cc 3e 3d 53 2c bf 94 1c 7d 3d
       -0.44646057 0.3985978 -0.6731451 0.061794832
0001a0 1c 99 dc bd a7 e7 fe be e8 e7 23 be 0d 64 2a 3f
       -0.10771391 -0.49786112 -0.16006434 0.66558915
0001b0 f1 7a da 3e b4 1b 0e bf 3d 12 17 3f 2f eb 35 bf
       0.42671922 -0.5551102 0.59012204 -0.71061987
0001c0 8c a0 62 bc a5 f3 ae bd 48 f4 6e 3d 72 35 6e be
       -0.013832223 -0.08542565 0.058338434 -0.23262575
0001d0 ee 50 80 3e 1d b7 bb bc aa f4 95 be fe 2d d9 3d
       0.25061744 -0.022914464 -0.29288226 0.106044754
0001e0 67 4f 01 3f 95 55 4c be 71 2b b8 3e 14 26 08 3f
       0.50511783 -0.19954522 0.35970643 0.531831
0001f0 39 2b 9b 3e 8f 00 22 3e 20 42 8d bd a7 f8 47 3e
       0.30306414 0.15820526 -0.06897378 0.19528447
000200 a4 f9 91 be c7 5d 10 bf 99 5e d0 3e 5f 0c e1 3d
       -0.28510773 -0.5639309 0.40697172 0.10988688
000210 d3 c3 c3 be f2 b4 e1 3e c8 d4 05 bf 02 c5 03 3d
       -0.3823534 0.44083363 -0.52277803 0.032170303
000220 ed d2 c5 3e cf b9 14 3e c9 43 77 be 9c 5b c7 3e
       0.38637486 0.14524005 -0.24146952 0.3893708
000230 f1 28 96 3e f5 26 c0 be 7a 1c ee be b6 f9 0c bf
       0.2932811 -0.37529722 -0.465061 -0.5506853
000240 02 13 06 bf 64 92 03 bd 44 42 a1 3e 98 12 56 be
       -0.52372754 -0.03212203 0.3149587 -0.2090553
000250 da 5d 39 3f a1 99 fe be 84 47 77 bd 7c f4 0e 3f
       0.7240883 -0.49726585 -0.060370937 0.55841804
000260 20 2b e2 be f6 6a 88 be 6e c8 e7 3e 89 98 a3 be
       -0.44173527 -0.26644105 0.45270103 -0.31952313
000270 8b a8 c3 3c 0a 55 35 bf d9 ac 9d 3e ee be 6a 3d
       0.023884078 -0.70832884 0.30795935 0.05731099
000280 a2 b5 5d be b5 b7 11 bf a7 60 fd be 81 62 d7 be
       -0.21651319 -0.5692094 -0.49487802 -0.4206734
000290 e7 57 f2 3e 5b 74 9f be c7 10 0d 3e 83 69 e7 be
       0.4733269 -0.3114346 0.13775931 -0.45197687
0002a0 4f 22 3f 3e e9 e1 0e 3f bc 37 94 be 83 87 26 bd
       0.18665431 0.5581346 -0.28948772 -0.040656578
0002b0 06 19 f5 3e 0a 1e 0f be 3a 20 71 be 8b ad a2 be
       0.47870654 -0.13976303 -0.2354745 -0.31773028
0002c0 63 8d e8 be e6 5f fc 3e cd 8d 64 be d6 cc 61 be
       -0.4542037 0.49291915 -0.22319718 -0.22050795
0002d0 6e b3 fd be 52 36 ee 3e 05 c4 4e bd 73 fd 34 bf
       -0.49550956 0.46525818 -0.050479908 -0.7069923
0002e0 0d fd 93 be a4 f7 b1 3d 34 87 a7 bd 2a 0d 5e be
       -0.28904 0.08689812 -0.08180085 -0.21684709
0002f0 49 19 e8 be a9 41 84 3e fe 30 1b be 1f 8c 80 be
       -0.4533179 0.25831345 -0.15155408 -0.25106904
000300 46 bf cb be 56 be 18 3f 82 00 e5 3c 05 ce 1b bf
       -0.39794368 0.5966543 0.027954344 -0.60861236
000310 e0 b3 16 3f d1 ea 95 3d 09 6c a0 3e ad 48 bd 3e
       0.5886822 0.07320178 0.31332424 0.3696951
000320 1f 26 ed 3e 68 85 f3 be a4 37 02 3f 38 49 4c bb
       0.46318147 -0.47562718 0.5086615 -0.0031171571
000330 64 79 34 be 86 b7 4d be e3 6c eb bd dc 23 a0 3e
       -0.17624432 -0.2008954 -0.11495378 0.3127736
000340 8d dc d1 3e c3 1f 0e 3e 2b 7a 22 3e 90 57 19 bf
       0.4098858 0.13879304 0.15866916 -0.59899235
000350 48 17 ea 3e 5d 08 9d be 00 22 77 be ad 96 ab be
       0.45720887 -0.30670443 -0.24134064 -0.33513394
000360 4f fe be be 77 3d f2 be 64 71 8e be 8d 19 9c 3d
       -0.37303397 -0.4731252 -0.27820885 0.07622061
000370 23 a6 c1 bd 4f e7 cb 3e de 16 12 3f 27 ba 1b be
       -0.09455516 0.39824912 0.5706614 -0.1520773
000380 d4 ef af be 6b cf 3d 3e 40 77 36 3e 37 f9 5d bd
       -0.34362662 0.18536155 0.17818928 -0.054192748
000390 0b 44 64 bc b6 1c 20 3f 69 cd 80 3e f2 33 bb 3e
       -0.013932238 0.6254381 0.25156716 0.3656307
0003a0 b2 8b 34 bf 0e 42 d4 be 15 4d c8 be c6 04 ee bd
       -0.7052566 -0.41456646 -0.3912131 -0.11622004
0003b0 0d fa 81 3e e6 2b cf 3e 81 df 0a 3f 05 b9 e9 be
       0.25386086 0.4046318 0.5424729 -0.4564897
0003c0 b8 ad 0b 3f 17 23 05 3f 30 16 3d bb bf 09 7c 3e
       0.5456195 0.5200667 -0.0028852336 0.24613093
0003d0 ea b9 44 3e 76 ab df 3e f0 db 37 3d 6c 38 bf 3e
       0.19211546 0.43685502 0.044887483 0.37347734
0003e0 e1 40 60 3d ec ae 23 bd 54 f1 0a bf 5b 51 ae 3d
       0.054749373 -0.03996174 -0.5427449 0.08511611
0003f0 29 f0 81 be a4 ca a6 bd 98 90 08 bf fd ae 14 3f
       -0.2537854 -0.081441194 -0.5334563 0.5807951

layers.0.bias f4 [128]
000000 06 0f 21 3f 34 6e 9f bd a6 45 9b 3e b3 6f 94 be
       0.6291355 -0.077846915 0.30326575 -0.2899147
000010 eb 24 e3 3e 12 8c 29 bf 77 73 ec be 78 1d 15 3f
       0.44364104 -0.66229355 -0.46181843 0.5824809
000020 d2 9f 48 3e 6f b2 88 3e e9 63 a4 3e 6f 68 02 3e
       0.19592217 0.26698634 0.32107475 0.12735151
000030 10 6f d1 be 44 9a 1d 3c 42 fd 21 be df 0b d6 3e
       -0.40905046 0.009619299 -0.15819266 0.41805932
000040 16 52 63 be 09 4f 21 3e b1 d1 8d bd 02 b4 41 3e
       -0.22199282 0.15752806 -0.06924761 0.18916324
000050 37 87 76 bd 81 62 10 3f f9 b7 13 bf 90 f1 72 3d
       -0.060187545 0.56400305 -0.57702595 0.059312403
000060 8c 64 76 3e c1 fd fa 3e bf 71 97 be 61 3a 7b be
       0.24061793 0.49021724 -0.2957897 -0.24533989
000070 90 09 f2 3e ca c9 50 be 39 fc 3d 3f 47 5e fb 3e
       0.4727292 -0.20389476 0.74212986 0.49095365
000080 37 99 20 bf 56 dc ae be de b6 b6 3e b5 dd b7 3d
       -0.6273379 -0.34152478 0.35686392 0.08977834
000090 4d 8c a2 be 7a 33 ad 3e 3e aa b6 3e da 4a 08 3f
       -0.31747666 0.33828336 0.3567676 0.53239214
0000a0 88 20 47 bd cb 87 0e bf 31 ca ae be ff de b6 3e
       -0.04861501 -0.55675954 -0.34138635 0.35717008
0000b0 6e 55 99 be 02 74 cd bd 88 d1 02 3f 6a 36 64 3e
       -0.2994799 -0.10031892 0.5110097 0.22286382
0000c0 70 ac c2 3e e4 b4 b6 be 4a 26 57 bd 38 9e d8 3c
       0.38022184 -0.35684884 -0.05252675 0.026442632
0000d0 db b7 1b 3f 53 9e 5e 3e 5e a4 9c be 10 0c 46 bd
       0.60827416 0.21740083 -0.30594152 -0.048351347
0000e0 b1 b6 dd 3d 60 e3 65 3e 9f 42 00 bf 27 48 19 bf
       0.10825861 0.22450018 -0.50101656 -0.5987572
0000f0 65 8b 9d bc d9 46 e2 3e eb 06 a9 bd 84 4e 13 bc
       -0.019231508 0.44194677 -0.082532726 -0.008990888
000100 58 12 b5 3e cc de 16 be d2 a4 68 be a5 b2 d9 3e
       0.35365558 -0.14733428 -0.22719124 0.42519107
000110 9b 5b 85 bb f3 ef b2 be 16 71 9d bc 94 d9 80 be
       -0.004069758 -0.34948692 -0.019218963 -0.25166
000120 13 3e e7 be ca 05 1e bd 37 cc cc be f3 75 08 bf
       -0.45164546 -0.03857974 -0.39999554 -0.53304976
000130 35 c9 90 be 28 8f 9e bd cc 72 b1 3d 82 ca 90 bd
       -0.2827851 -0.07742149 0.08664474 -0.07069875
000140 ce 11 ff 3d 7c 66 e5 be a9 2a 87 3e 88 44 59 3e
       0.12454568 -0.44804752 0.26399735 0.21217549
000150 9c 26 b8 3e 8e a3 06 3f 35 3e aa 3e c7 64 08 bf
       0.35966957 0.52593315 0.33250585 -0.53278774
000160 53 44 02 3f 5d 12 10 3f 14 88 69 3e 6d 12 2b 3e
       0.50885504 0.5627802 0.22805816 0.16706248
000170 ac 96 30 3d 01 76 81 bd 1a 5b fb 3c 35 c4 1c 3d
       0.043112442 -0.063213356 0.030683089 0.038273055
000180 be c4 12 3f 34 b0 dd 3d a4 b6 98 3e 29 21 57 3e
       0.57331455 0.10824624 0.29826844 0.21008743
000190 2a 90 e1 3e 84 f2 50 3e 5f b6 1c bd a9 36 da be
       0.440553 0.20405012 -0.03825986 -0.42619827
0001a0 f3 7b a5 be e8 a4 1c 3f d4 df cf 3e 8c e7 84 bd
       -0.32321128 0.61189127 0.40600455 -0.064894766
0001b0 88 99 a4 be 3d 04 ae bd 7a e6 74 3e 9f 6d 85 be
       -0.32148385 -0.08496902 0.23916045 -0.26060197
0001c0 7a 0a bc 3d 0c 5d b1 be c2 7a c3 3e 57 93 6b 3e
       0.09181686 -0.34641302 0.38179594 0.23005424
0001d0 37 c9 8b be 5b b2 b1 3e d9 b6 17 bd f3 ab a8 3e
       -0.27301952 0.34706387 -0.03703961 0.32943687
0001e0 b0 3e 0c 3e d3 55 99 3e 13 3d 0e bf a9 c2 e6 3e
       0.13695788 0.2994829 -0.5556194 0.4507039
0001f0 2a a3 d8 3e c4 cd e7 be 04 a4 8c be 99 56 d8 3c
       0.42311984 -0.45274174 -0.27468884 0.02640848

layers.1.weight f4 [128, 128]
000000 1b e6 31 b8 83 cf 4f 3d e9 8c 4a bd d6 1d 1c ba
       -4.241439e-05 0.050735008 -0.04945079 -0.00059553736
000010 79 ac 00 bd c2 ee 88 3c b6 b5 9f bc 9a 6e 91 3d
       -0.031414483 0.016715411 -0.019495826 0.07101174
000020 5f 58 a6 3d 17 92 fb bc 50 19 46 3c ed f1 c3 bd
       0.08122324 -0.03070931 0.012090996 -0.09567628
000030 b6 fd 6e bd e6 ee 8e 3c 7f 79 9f 3d dd 71 6f bc
       -0.058347426 0.0174479 0.077868454 -0.014614549
000040 04 61 cd bd 63 48 87 3d 4c 1f 43 bd 88 50 01 3d
       -0.1002827 0.066056035 -0.04763727 0.03157094
000050 d0 6a 88 3b e6 d6 fc 3c 09 4f 75 bd fb 53 72 3c
       0.0041631237 0.03086419 -0.059889827 0.01479053
000060 98 cb 49 3c 20 29 75 bc b6 e8 ec 3c 65 61 86 3d
       0.012316607 -0.014963418 0.028919559 0.06561545
000070 62 1a 83 3d 0f 8c 5f bc 33 c7 b8 bd 59 e0 9e 3c
       0.064015165 -0.013644232 -0.09022369 0.019394087
000080 95 74 27 3d d4 5c b8 bd 26 2d 5e 3d 43 2d 13 bd
       0.040882666 -0.090020806 0.054242276 -0.035931837
000090 c0 15 12 bd 9e 00 2f bd 1e 9b d0 bb 53 e9 c3 bd
       -0.035665274 -0.042725198 -0.0063661477 -0.095659874
0000a0 06 b0 67 bd 7e f5 92 bc 3f 97 e1 bc e1 8d 89 3d
       -0.056564353 -0.017939325 -0.02753794 0.067165144
0000b0 e9 6e 8e bd 51 de 53 bd b7 1b bb bd c5 f4 52 3c
       -0.06954748 -0.05172569 -0.091361456 0.01287574
0000c0 a0 b9 4d 3d aa 8f 11 bd aa ed b2 bd c6 af 8a 3d
       0.050225854 -0.0355374 -0.08736737 0.067718074
0000d0 5e 0e d5 3c 9e ae 93 bd ff c0 c5 3c 80 d4 04 3d
       0.026007827 -0.0721104 0.02413988 0.03242922
0000e0 9f 6d 9b 3d 32 8c ff bc 03 40 3a bd 25 c3 a9 bd
       0.07589268 -0.03119478 -0.045471203 -0.08289174
0000f0 cf 31 55 bd f4 0d f5 3c 04 0e a1 3d 1b a3 00 3d
       -0.052049454 0.02991388 0.078640014 0.03140555
000100 9f eb 7d 3d 20 8e 87 bd a7 6f 07 3b 8d df 9b bd
       0.061992284 -0.06618905 0.0020665915 -0.07610998
000110 92 2c d9 bc e3 a1 50 3d 16 ac 88 bd cc a7 c4 39
       -0.02651051 0.050935637 -0.06673448 0.00037509052
000120 ea 24 48 bb 74 f9 b2 3c b2 7e 68 bd 66 51 7c 3d
       -0.003053958 0.021847464 -0.05676145 0.061601065
000130 b3 1e 98 bd 62 3d c1 3c 24 55 89 3d 18 f1 c6 bd
       -0.074277304 0.02358884 0.067056924 -0.09713954
000140 c1 85 c0 bd 74 44 a4 3c e0 24 b0 bd 0f ee d9 bb
       -0.094005115 0.020052172 -0.08600783 -0.0066506932
000150 cb 28 93 3d 16 db 80 bd 7a 00 68 3c 3b 4e 0b 3d
       0.07185515 -0.06291787 0.01416027 0.034010153
000160 94 6a 71 3d 16 2a 36 3d 58 7e de bb 86 29 e2 3b
       0.05893953 0.04447373 -0.0067899637 0.0069019226
000170 ed ff c2 bd d6 dc 11 bc 08 c9 aa 3a 48 2c b7 bd
       -0.0952147 -0.008902749 0.0013029883 -0.08943993
000180 be 7d 13 3d b4 f5 57 bd b5 d3 36 3b 3e 12 83 3c
       0.03600859 -0.052724555 0.0027897183 0.01599991
000190 2a 8c 64 bd 78 9c 19 3d 25 c9 d5 bd 06 20 42 bc
       -0.055797733 0.037502736 -0.10438756 -0.011848455
0001a0 3a 8e 85 bd 3a e9 3f 3d 92 63 f7 bd 2b 15 eb 3c
       -0.06521268 0.04685328 -0.120795384 0.028696617
0001b0 c8 76 36 bd 33 38 f7 bc 80 02 81 bd 8d 08 2d 3c
       -0.044546872 -0.030178165 -0.06299305 0.010561121
0001c0 6d 38 6b bc 0c 9a 9c 3d 58 1c b1 3d 2d 88 42 bb
       -0.014356715 0.076465696 0.08647984 -0.0029683218
0001d0 83 28 53 bd 1e b7 1b 3d 09 8f 3d 3b 37 3b 2a bc
       -0.051552307 0.03801643 0.0028924367 -0.0103900945
0001e0 49 38 a9 bd 5e e0 95 3d 8a bc 77 3d c4 5c dc bc
       -0.08262689 0.07318185 0.06048254 -0.026899703
0001f0 4a 3d cc bd 2d 1f 5f bc ef 82 9b bd 72 53 28 3d
       -0.099726275 -0.013618273 -0.07593333 0.041095205
000200 17 6d 35 3d cb 57 db bc e0 5a 0f bd 01 1b fa bc
       0.04429349 -0.026775261 -0.034998775 -0.030530455
000210 7a 1b 44 3d 7e 76 32 3e 6f c0 88 3c 80 0b 00 be
       0.047877766 0.17428014 0.016693322 -0.12504387
000220 d8 ba 1e be 07 30 9e 3d ac 80 34 3d 38 47 ef bc
       -0.15500963 0.07724004 0.044068024 -0.029208764
000230 7d 37 0c be 5f b8 9d bd bf bd 32 3e 96 2d aa 3c
       -0.13693042 -0.077011816 0.17455195 0.02077369
000240 8b ad 1a 3d a0 b1 ce 3d 5b d2 22 bc 25 49 7d 3c
       0.03776316 0.10092473 -0.009937848 0.015459334
000250 50 f0 5c bd 97 c7 70 bd 48 39 84 3d a8 9d ca be
       -0.053940117 -0.058784094 0.06456238 -0.39573407
000260 9d 47 96 3d a2 b0 c3 bc a4 4a a4 bd 32 c4 98 3d
       0.07337878 -0.023887936 -0.08022049 0.07459296
000270 3a a0 13 bc 84 7f 3c bc 82 3a e1 bd 9b b5 49 3d
       -0.009010369 -0.0115050115 -0.109974876 0.049245458
000280 4f 6e 7f 3e 5e ab fd 39 59 a2 69 bc e7 16 ae bd
       0.24944423 0.000483836 -0.014259898 -0.08500462
000290 f5 67 ab 3c 68 c1 49 bd 6d fd 77 bd 4d ec 81 bd
       0.020923594 -0.049256712 -0.06054442 -0.06343899
0002a0 47 23 1d 3c d7 57 42 3c 1f be cf 3c e5 58 76 be
       0.00959093 0.011861763 0.025359211 -0.24057348
0002b0 5f 39 99 3b 1d f3 15 bd b7 16 ec 3d a7 3a f3 3d
       0.0046760286 -0.036608804 0.1152777 0.118764214
0002c0 55 69 df bd 66 69 06 bc 1a 33 92 3d a6 e9 9e bd
       -0.10908762 -0.00820384 0.07138653 -0.07759409
0002d0 2a 96 ec bd 9e f7 f5 3c 5e 20 53 3d c1 8d 46 bd
       -0.11552079 0.0300253 0.05154454 -0.04847503
0002e0 0d 4d 21 bc b8 ce 0c 3d 63 00 19 3d 37 2e b3 3d
       -0.0098450305 0.03437683 0.037353884 0.08749049
0002f0 0a c9 04 be 1e aa b2 be ec ab cf 3d f4 a9 4f 3d
       -0.12967315 -0.34895414 0.10140213 0.05069919
000300 32 27 1e be 48 8b 4c bd 39 22 04 bb 4a 1c fd bd
       -0.1544464 -0.049937516 -0.0020162 -0.12358911
000310 c6 55 4a bd f4 56 24 be 8d 1f 2c 3d 19 b2 b6 3c
       -0.049398206 -0.16048795 0.042022277 0.02230172
000320 45 43 8a 3c f4 dd 41 bd 92 83 c1 3b 2a 2b ef bd
       0.01687778 -0.04733081 0.005905577 -0.11678155
000330 86 0b a7 bd 52 19 9a 3c fd c3 b2 bd 92 80 7c 3d
       -0.08156495 0.018810902 -0.08728788 0.06164605
000340 a7 82 32 3c 7d 2d 20 bd 5e a3 0f be 32 88 26 be
       0.010895408 -0.03910588 -0.14027163 -0.16262892
000350 66 3e 1e 3d b1 90 d4 3b fe b8 8e bd b6 c1 34 3d
       0.038633727 0.006486975 -0.06968878 0.04413005
000360 0d 19 21 bd 4d 6d ce 3d ef f4 00 3e 15 06 96 bd
       -0.03933053 0.10079441 0.12593435 -0.07325379
000370 73 b2 08 3c dc 28 ab 3d c4 62 62 bd 7c 50 cc 3c
       0.008343327 0.08357403 -0.05526997 0.024940722
000380 7b 43 bc be 95 fb e2 bd 6b 5c 3f 3c 16 ec 08 bd
       -0.36770234 -0.11083142 0.011679749 -0.033428274
000390 4d 3e 89 3d 41 4b d8 3c b5 0a 8e 3d c4 15 a9 3c
       0.06701336 0.026403071 0.06935636 0.020640261
0003a0 b8 14 05 3d a2 60 b3 bd 10 39 ae bb a2 ba 37 bd
       0.032490462 -0.087586656 -0.005316861 -0.04485572
0003b0 04 e3 14 3e 5c ab 70 3c 1f 95 a7 ba 5e c1 b2 3b
       0.14539725 0.014689293 -0.001278553 0.00545518
0003c0 05 e8 58 bd a4 7e 24 3d 67 cb a0 bd fc 1f 8b be
       -0.052955646 0.040159836 -0.07851296 -0.2717284
0003d0 03 c7 1c 3e de f0 3f b9 b2 6e d3 3c e1 8b aa 3d
       0.15310292 -0.0001830491 0.02580962 0.08327461
0003e0 52 11 3a bc 2d 27 09 be 26 a9 69 3d 7e 82 a3 3d
       -0.011356669 -0.1339385 0.05704608 0.07983874
0003f0 9c 83 a1 be 68 9e 09 3d 84 3f 44 bd 1f c5 64 bd
       -0.31545722 0.033598334 -0.047912136 -0.05585205
