9_gym-DDPG/results/DDPG_Pendulum-v1_eps0.1_t32_l0.0001_update20_s372_2000.pth (torch, 176442 bytes, 12 tensors)

layers.0.weight f4 [128, 4]
0.49403065 0.40264332 0.2737182 0.26229274 0.10247093 -0.373056 0.30135977 0.4029627
-0.6221575 -0.0011378127 -0.079830565 0.091439374 0.5254648 -0.41806266 -0.23462547 0.037660696
0.017322507 -0.6445574 0.14991708 0.549685 0.5207951 -0.38683355 -0.08536677 -0.17831923
-0.55714357 0.35514975 0.04517024 0.21778998 -0.16185886 -0.15629987 -0.036205348 -0.4627448
-0.22467029 -0.32779175 0.24743176 -0.46807384 -0.1522486 0.73920375 -0.3393001 -0.093314976
-0.28258142 -0.47362238 -0.2843518 -0.2155346 0.49358383 -0.072978295 -0.3861213 0.5836287
-0.025185855 -0.52749956 0.21340172 -0.5624897 0.33576158 -0.5287624 -0.3330478 0.3592302
-0.48989135 0.6068891 -0.08854581 0.12612456 -0.3420616 -0.6958445 0.18846034 -0.11178793
-0.061502177 0.24815041 0.1106553 -0.026275773 0.014108398 0.2662925 0.24577796 0.09897893
0.8333759 -0.43690494 -0.21565673 0.20906751 -0.3016632 0.6038869 -0.19675851 -0.0264291
-0.38558176 0.14934948 -0.3607899 -0.1615274 -0.28352353 -0.46689877 -0.24570021 0.11827523
-0.14651504 -0.4461363 -0.19655009 0.018715864 -0.09670731 -0.42465007 0.17847289 -0.30342537
-0.4560385 0.36271283 -0.010957976 -0.17081022 -0.47559768 0.15201946 0.050833102 -0.3225211
-0.4318764 -0.10956202 0.11866116 -0.033874247 -0.12046837 -0.061549153 0.29303554 0.1350515
-0.29003665 -0.10703544 0.29966742 0.31817907 0.7317551 -0.31223035 -0.37611583 0.2635173
-0.48279655 0.603145 0.06608907 0.221918 -0.37191454 0.3185315 0.26557922 -0.3106787
-0.5088981 -0.2073985 0.08512538 -0.098094694 -0.43279922 -0.43036777 -0.1044989 0.24551293
-0.43691328 -0.5066809 -0.06685082 -0.3071162 -0.39246887 0.5773554 0.16578451 0.2928269
0.20247254 0.5396387 0.20909132 -0.19873266 -0.43757874 -0.039232533 0.2621222 0.22748384
0.27181107 -0.62527484 -0.27559745 -0.022503221 0.14640766 -0.5655741 0.13447547 0.16443904
-0.32393554 0.44421092 0.023761677 -0.36552474 -0.40587038 0.02768915 0.36980397 -0.20381984
-0.20137255 -0.19628859 0.15139715 -0.42742383 -0.17684098 -0.17182262 0.056408927 -0.42515755
0.24964154 -0.19903892 0.07686309 -0.38623273 -0.40592033 0.47625154 -0.1649184 0.018370833
0.4679358 0.32234758 -0.13235162 0.2612954 -0.41591972 0.7418069 0.34516022 0.27440545
0.30442756 0.27074632 -0.059202682 -0.21374875 0.26119936 -0.6718454 0.4181883 0.38209483
0.47831354 0.119774826 -0.32614684 0.12062821 0.13581324 0.30192155 0.28687978 -0.5619761
-0.21570803 -0.4765253 0.4560844 0.39374715 -0.4749083 -0.8068438 0.18038476 0.098477624
-0.5409129 0.39093044 0.30072773 -0.069943815 0.16476302 0.39236227 0.022082822 -0.17125373
-0.75952786 0.36147746 0.42769593 -0.29397482 0.1310261 0.5916428 -0.050925005 -0.005761403
-0.30191663 -0.29441142 0.15132327 -0.34718758 -0.55705065 -0.1601314 -0.26480147 -0.3441816
0.13504125 -0.116921015 0.50330216 -0.07708315 0.5625104 0.060982462 0.19221419 -0.19236831
0.60302186 -0.51020956 -0.27809313 0.35778996 0.4263113 -0.56694597 -0.3570731 0.13239862
00000000: 96f1 fc3e 4427 ce3e cb24 8c3e 3c4b 863e
00000010: 47dc d13d 3201 bfbe d44b 9a3e 2151 ce3e
00000020: b745 1fbf a922 95ba 357e a3bd 9144 bb3d
00000030: dc84 063f 4f0c d6be a941 70be 1a42 1a3d
00000040: eee7 8d3c b701 25bf dd83 193e 28b8 0c3f
00000050: d452 053f 0c0f c6be c6d4 aebd 5199 36be
00000060: f6a0 0ebf 30d6 b53e 6e04 393d 5604 5f3e
00000070: 54be 25be 130d 20be 0f4c 14bd e3ec ecbe
00000080: f80f 66be 52d4 a7be c05e 7d3e 60a7 efbe
00000090: 0fe7 1bbe 753c 3d3f beb8 adbe ec1b bfbd
000000a0: 83ae 90be a27e f2be 8f96 91be 1ab5 5cbe
000000b0: 05b7 fc3e a575 95bd b1b1 c5be b168 153f
000000c0: 9152 cebc 360a 07bf fb85 5a3e 53ff 0fbf
000000d0: f1e8 ab3e f95c 07bf 3e85 aabe 05ed b73e
000000e0: 0ad3 fabe 165d 1b3f 8157 b5bd cc26 013e
000000f0: b322 afbe dd22 32bf bffb 403e 12f1 e4bd
00000100: b5e9 7bbd 241b 7e3e 3f9f e23d 4a40 d7bc
00000110: e926 673c 7e57 883e 38ad 7b3e 77b5 ca3d
00000120: 1f58 553f 01b2 dfbe 1ed5 5cbe cb15 563e
00000130: 9973 9abe 5598 1a3f 107b 49be d781 d8bc
00000140: f96a c5be 12ef 183e 74b9 b8be 7067 25be
00000150: ff29 91be 5b0d efbe d698 7bbe 493a f23d
00000160: 0a08 16be fa6b e4be 6d44 49be 0352 993c
00000170: 7b0e c6bd bc6b d9be 99c1 363e 925a 9bbe
00000180: e17d e9be 7fb5 b93e 1589 33bc e0e8 2ebe
00000190: 8a81 f3be fdaa 1b3e 5f36 503d 7c21 a5be
000001a0: e71e ddbe 0d62 e0bd 9f04 f33d b9bf 0abd
000001b0: 1fb8 f6bd f71a 7cbd c108 963e f14a 0a3e
000001c0: af7f 94be 6635 dbbd 026e 993e 5ee8 a23e
000001d0: 4d54 3b3f a8dc 9fbe 4192 c0be bdeb 863e
000001e0: 1c31 f7be b667 1a3f b559 873d 793e 633e
000001f0: 956b bebe 9016 a33e 00fa 873e 4711 9fbe
00000200: 2547 02bf 4660 54be 3756 ae3d dfe5 c8bd
00000210: dc97 ddbe 2a59 dcbe 8503 d6bd be67 7b3e
00000220: 19b3 dfbe d7b5 01bf 15e9 88bd 563e 9dbe
00000230: aef1 c8be 90cd 133f 6ac3 293e 68ed 953e
00000240: f654 4f3e c325 0a3f 091c 563e 9380 4bbe
00000250: 520a e0be 4bb2 20bd e234 863e 86f1 683e
00000260: d22a 8b3e 0312 20bf 1c1b 8dbe ad58 b8bc
00000270: e4eb 153e 77c9 10bf f0b3 093e b562 283e
00000280: e1da a5be 9d6f e33e d9a7 c23c 0f26 bbbe
00000290: 3ece cfbe 5bd4 e23c f256 bd3e 26b6 50be
000002a0: 9b34 4ebe e0ff 48be db07 1b3e 4cd7 dabe
000002b0: cd15 35be 45f2 2fbe 0c0d 673d 40ae d9be
000002c0: 08a2 7f3e dcd0 4bbe 656a 9d3d 4cc0 c5be
000002d0: cad4 cfbe 3ed7 f33e 5ee0 28be 6e7e 963c
000002e0: 4895 ef3e be0a a53e 2f87 07be 83c8 853e
000002f0: 6ef3 d4be 0fe7 3d3f d7b8 b03e df7e 8c3e
00000300: eedd 9b3e 439f 8a3e 837e 72bd f4e0 5abe
00000310: ecbb 853e 0ffe 2bbf c71c d63e efa1 c33e
00000320: 83e5 f43e 814c f53d b8fc a6be ec0b f73d
00000330: a012 0b3e 7695 9a3e e8e1 923e aadd 0fbf
00000340: 91e2 5cbe 20fb f3be e583 e93e 3a99 c93e
00000350: 2e27 f3be 518d 4ebf c8b6 383e a3ae c93d
00000360: 4579 0abf 0928 c83e fcf8 993e b43e 8fbd
00000370: a3b7 283e b5e3 c83e 09e7 b43c 235d 2fbe
00000380: 6b70 42bf 9313 b93e f6fa da3e de83 96be
00000390: b52b 063e e775 173f bd96 50bd 27ca bcbb
000003a0: d194 9abe 18bd 96be 7df4 1a3e 92c2 b1be
000003b0: df9a 0ebf 7cf9 23be 0f94 87be 9238 b0be
000003c0: 4148 0a3e 4974 efbd 69d8 003f c5dd 9dbd
000003d0: ae00 103f bfc8 793d ccd3 443e 33fc 44be
000003e0: a45f 1a3f 189d 02bf 3962 8ebe 3f30 b73e
000003f0: 7a45 da3e 5f23 11bf 49d2 b6be 8193 073e

layers.0.bias f4 [128]
-0.11391738 0.20668405 -0.5742018 0.37605113 0.3468277 -0.35836154 0.33783785 0.54170084
0.29293808 -0.051215317 0.34283718 0.07710555 -0.28676283 -0.48571464 -0.5527997 0.6235366
-0.54115933 0.5433617 -0.32961753 0.54849875 0.2118038 -0.24952513 -0.4097309 0.5356623
-0.38276213 -0.57224745 0.50175595 0.3983087 0.4134002 -0.358759 0.1478617 0.39968377
0.2437508 0.07048081 -0.17519726 0.46650213 0.4323943 -0.11491736 -0.07838754 0.4822328
0.31201285 0.5356195 -0.3233338 0.023621053 0.48557884 0.5383206 -0.318616 -0.10621362
-0.34784108 -0.24617016 0.13641022 0.051496696 -0.06835041 -0.5716497 -0.30297044 -0.5007021
0.44062987 -0.5190143 -0.4325637 0.045649126 -0.35362878 -0.3460861 0.034067914 -0.03582694
0.53986126 0.0989138 0.68889207 -0.16853689 -0.7007134 -0.22820352 0.014644097 0.28457457
-0.657019 0.5962213 0.50718385 0.17826806 0.3431449 0.18354666 -0.25549775 0.16700375
-0.24209386 0.69930726 0.37665778 -0.5580903 -0.098188214 0.38429776 0.45987767 0.13164867
-0.4887456 -0.35377783 0.5237126 -0.29223096 0.18724982 -0.47853622 -0.49387246 0.24390545
-0.5882809 -0.32726207 0.517122 -0.26214194 -0.4166332 0.049026627 0.2789797 -0.09607325
0.331574 -0.32060114 0.5130198 -0.07062332 0.43459374 -0.3129431 0.5670915 0.11390973
0.14448595 -0.1130454 0.33751568 -0.38458776 -0.5474058 -0.0769462 0.5891994 0.26560998
-0.28663105 0.40292808 0.28154036 -0.25095975 -0.37629035 0.23742615 0.10410186 -0.2183507
00000000: 844d e9bd fca4 533e e4fe 12bf c689 c03e
00000010: 6693 b13e 2a7b b7be 15f9 ac3e e8ac 0a3f
00000020: fbfb 953e 27c7 51bd 5b88 af3e 84e9 9d3d
00000030: 94d2 92be 97af f8be 4884 0dbf 18a0 1f3f
00000040: 6b89 0abf c119 0b3f a1c3 a8be 6a6a 0c3f
00000050: 18e3 583e 8483 7fbe 40c8 d1be 2a21 093f
00000060: 66f9 c3be cf7e 12bf 1473 003f 1eef cb3e
00000070: 31a9 d33e 42af b7be 0f69 173e 5aa3 cc3e
00000080: cf99 793e 3e58 903d e966 33be 5ed9 ee3e
00000090: c962 dd3e cb59 ebbd a689 a0bd 38e7 f63e
000000a0: 26c0 9f3e 5c1e 093f 028c a5be f080 c13c
000000b0: ca9d f83e 61cf 093f a321 a3be 8786 d9bd
000000c0: 3a18 b2be 0814 7cbe 1faf 0b3e 33ee 523d
000000d0: 4dfb 8bbd a257 12bf f11e 9bbe 032e 00bf
000000e0: 3d9a e13e 1fde 04bf fd78 ddbe 94fa 3a3d
000000f0: d50e b5be 3332 b1be cc8a 0b3d 45bf 12bd
00000100: 5934 0a3f 5293 ca3d 3b5b 303f ef94 2cbe
00000110: f461 33bf 2fae 69be cbed 6f3c c2b3 913e
00000120: 6632 28bf f6a1 183f cdd6 013f e78b 363e
00000130: b0b0 af3e a8f3 3b3e 9ad0 82be 0803 2b3e
00000140: 74e7 77be cd05 333f 4ad9 c03e 02df 0ebf
00000150: e716 c9bd adc2 c43e 1675 eb3e e9ce 063e
00000160: dd3c fabe 5e22 b5be 0712 063f 4c9f 95be
00000170: 6bbe 3f3e b302 f5be dadc fcbe 5ac2 793e
00000180: 9499 16bf e58e a7be 1b62 043f 7837 86be
00000190: f250 d5be 25d0 483d 6dd6 8e3e 0dc2 c4bd
000001a0: 11c4 a93e d525 a4be 4455 033f f6a2 90bd
000001b0: 1283 de3e 143a a0be e92c 113f 8149 e93d
000001c0: 20f4 133e 5984 e7bd dbce ac3e b0e8 c4be
000001d0: c922 0cbf f895 9dbd c6d5 163f 08fe 873e
000001e0: 4ec1 92be 974c ce3e 0f26 903e cc7d 80be
000001f0: 21a9 c0be d71f 733e 5b33 d53d 5397 5fbe

layers.1.weight f4 [128, 128]
0.0581884 -0.089635216 0.061231416 0.08545281 0.031836838 -0.18188107 0.0777963 -0.07665484
-0.04863357 0.11885713 0.093350075 0.041825924 0.03152781 -0.12357894 0.110914655 0.026902443
0.015160346 0.010862109 -0.16929996 -0.105717584 -0.077204704 0.05957879 -0.04477722 -0.038570866
0.14903222 0.119151495 0.1349666 -0.046945788 -0.078681745 0.10345429 0.057687704 0.14039122
0.03967986 0.015869742 -0.048480637 -0.024606748 -0.04231526 -0.018146677 -0.022206277 -0.14563853
0.019767608 0.0014832144 -0.0051262067 -0.025427299 -0.11206122 0.0071516326 0.032954175 0.009431089
0.03899102 0.07153687 0.058887653 -0.05604203 -0.032584608 -0.032901 -0.084331475 0.080659874
-0.031675298 0.0546062 0.059619088 -0.0111277625 -0.0066671916 0.03492655 -0.12968342 0.09431013
0.030639531 0.022359762 -0.010971354 0.04469325 -0.07054132 0.0632966 -0.058724597 0.00997712
0.024515351 -0.14250648 0.20098943 -0.10365986 0.07118451 -0.06345689 0.06503163 -0.0504645
0.012695933 0.112209745 0.080201544 0.026273046 0.06361702 -0.08187831 -0.025536563 0.06993039
0.09747106 0.0522858 -0.07894902 0.04967781 0.102371596 -0.027402407 -0.044530105 -0.0023069994
-0.116493106 -0.1332817 0.075728826 -0.1042767 -0.09059539 0.00835746 0.12281099 -0.0951065
0.018942324 0.113502696 -0.0074448884 0.015247142 0.0021290674 0.0665835 0.025555918 -0.021645024
-0.102504514 0.017894806 0.056095768 0.02383979 0.017503327 -0.047467187 -0.1261197 -0.04911389
-0.11067641 -0.05425733 -0.10228128 0.036476646 0.04449738 0.007428287 0.061324682 0.06702304
-0.10512669 0.02554485 0.016206883 0.03610813 -0.034779437 0.03670914 0.001651744 0.05509905
0.010069387 -0.082722284 0.027172621 -0.029383682 0.0795547 -0.011901239 -0.06199209 0.10427498
-0.050883275 0.05403029 0.05305685 0.059743516 0.0650696 -0.049764182 -0.030172478 0.0009444783
-0.06002546 0.032272108 -0.049708366 -0.017019836 -0.036960818 0.013510674 -0.06471545 0.061446976
0.0374625 -0.04185668 0.12070511 -0.012566251 -0.09059925 -0.0053170337 -0.038350333 0.07685869
-0.012773403 -0.060049236 -0.09149202 0.01778381 0.073748246 0.09939823 -0.09980582 0.08570007
0.020638315 0.04395794 -0.02910726 -0.029842716 -0.0217737 0.006358535 0.013085715 -0.053108998
-0.053724736 -0.07127749 -0.058744296 -0.05779474 -0.01874652 0.01573681 -0.045991633 -0.057268497
0.13306513 -0.01776976 0.0069238995 -0.046867598 -0.05660417 0.07075284 0.046613492 0.027341407
-0.086305216 0.030006122 -0.0021344507 -0.07271619 0.08866022 -0.056047108 0.005038195 0.030032441
-0.059758138 0.030381657 -0.05552041 -0.015325328 -0.03789309 -0.0027981303 0.03707995 -0.14312749
0.012071394 0.07779237 0.06112054 0.07620586 0.10027004 -0.07238099 -0.019772703 -0.14775763
0.055540264 0.08054174 0.010014377 0.11989299 0.10964435 -0.062246658 0.087010026 0.10367401
0.17338702 0.059006378 0.08220721 0.04769576 0.015285897 0.07223003 0.075398535 -0.033479866
0.049763497 -0.0076505165 0.04937711 0.06524042 0.03337132 -0.048381448 0.023800438 -0.06916538
-0.033475306 -0.03924188 0.033114556 -0.08772487 -0.089194715 -0.055147853 0.0676402 0.037157394
00000000: f656 6e3d ab92 b7bd cbcd 7a3d e201 af3d
00000010: 5867 023d 083f 3abe ab53 9f3d 36fd 9cbd
00000020: ff33 47bd 5e6b f33d 532e bf3d a951 2b3d
00000030: 4e23 013d f516 fdbd 3927 e33d 8362 dc3c
00000040: 1a63 783c fdf6 313c f85c 2dbe 7682 d8bd
00000050: 801d 9ebd e408 743d 5168 37bd 7cfc 1dbd
00000060: e79b 183e b305 f43d af34 0a3e 3a4a 40bd
00000070: e523 a1bd d8df d33d f149 6c3d b7c2 0f3e
00000080: 5987 223d 4301 823c a293 46bd 1794 c9bc
00000090: c452 2dbd 57a8 94bc f0e9 b5bc 4422 15be
000000a0: aeef a13c 6b68 c23a bdf9 a7bb e94c d0bc
000000b0: 5a80 e5bd 3e58 ea3b f5fa 063d db84 1a3c
000000c0: 0cb5 1f3d ec81 923d 2e34 713d 548c 65bd
000000d0: 7077 05bd 33c3 06bd fbb5 acbd 0131 a53d
000000e0: f5bd 01bd c0aa 5f3d 2533 743d 3851 36bc
000000f0: 7578 dabb 240f 0f3d bbcb 04be ab25 c13d
00000100: c1ff fa3c d22b b73c 32c1 33bc 4510 373d
00000110: f877 90bd a6a1 813d 3489 70bd 1377 233c
00000120: 6bd4 c83c 38ed 11be 2cd0 4d3e 9f4b d4bd
00000130: 2fc9 913d b0f5 81bd 4e2f 853d ddb3 4ebd
00000140: 9a02 503c 39ce e53d b540 a43d 923a d73c
00000150: a449 823d d1af a7bd 0e32 d1bc aa37 8f3d
00000160: e89e c73d a329 563d 06b0 a1bd f67a 4b3d
00000170: 33a8 d13d 037b e0bc 3365 36bd 0731 17bb
00000180: f093 eebd ff7a 08be b717 9b3d 068f d5bd
00000190: 138a b9bd baed 083c 5484 fb3d 32c7 c2bd
000001a0: ef2c 9b3c 1a74 e83d 40f4 f3bb 26cf 793c
000001b0: d387 0b3b ee5c 883d a55a d13c e850 b1bc
000001c0: e3ed d1bd 2198 923c adc4 653d aa4b c33c
000001d0: 2363 8f3c f46c 42bd 8625 01be a52b 49bd
000001e0: 50aa e2bd ef3c 5ebd d978 d1bd 8968 153d
000001f0: e242 363d fd68 f33b 972f 7b3d 6043 893d
00000200: a94c d7bd 6f43 d13c 4cc4 843c 1ee6 133d
00000210: e274 0ebd 535c 163d 557f d83a 8baf 613d
00000220: 12fa 243c 4d6a a9bd 1e99 de3c 0cb6 f0bc
00000230: 93ed a23d 6afd 42bc 6beb 7dbd 1f8e d53d
00000240: fb6a 50bd de4e 5d3d 2452 593d 9eb5 743d
00000250: 3643 853d 87d5 4bbd 462c f7bc de96 773a
00000260: 42dd 75bd c22f 043d 009b 4bbd 2f6d 8bbc
00000270: 3a64 17bd e05b 5d3c 8989 84bd d3af 7b3d
00000280: 4772 193d e971 2bbd 3e34 f73d ade2 4dbc
00000290: 198c b9bd 833a aebb 3d15 1dbd 1768 9d3d
000002a0: 8947 51bc 30f6 75bd 2b60 bbbd 5aaf 913c
000002b0: 5209 973d 4d91 cb3d fe66 ccbd 8583 af3d
000002c0: af11 a93c 3e0d 343d 5972 eebc b678 f4bc
000002d0: c25e b2bc 425b d03b 7765 563c d288 59bd
000002e0: 780e 5cbd eff9 91bd dc9d 70bd 2dba 6cbd
000002f0: 4d92 99bc 7cea 803c b961 3cbd 5f92 6abd
00000300: 3a42 083e e391 91bc e1e1 e23b 3df8 3fbd
00000310: c6d9 67bd dde6 903d caed 3e3d 16fb df3c
00000320: cac0 b0bd 66cf f53c 24e2 0bbb 3aec 94bd
00000330: 7d93 b53d a791 65bd 7117 a53b 9806 f63c
00000340: f3c4 74bd f4e2 f83c 5f69 63bd 1617 7bbc
00000350: c935 1bbd d660 37bb 25e1 173d 0390 12be
00000360: 19c7 453c 9b51 9f3d 8859 7a3d d111 9c3d
00000370: 615a cd3d 7c3c 94bd 5dfa a1bc c74d 17be
00000380: 307e 633d 11f3 a43d 5713 243c 758a f53d
00000390: 388d e03d 5af6 7ebd 5032 b23d 0a53 d43d
000003a0: 5e8c 313e acb0 713d 415c a83d a15c 433d
000003b0: b371 7a3c 57ed 933d 8c6a 9a3d 2f22 09bd
000003c0: cfd4 4b3d 2fb1 fabb a73f 4a3d c59c 853d
000003d0: 5eb0 083d a02b 46bd 23f9 c23c 94a6 8dbd
000003e0: 671d 09bd 18bc 20bd 21a3 073d 19a9 b3bd
000003f0: b8ab b6bd b7e2 61bd f286 8a3d 5a32 183d

layers.1.bias f4 [128]
-0.10360089 0.07400462 -0.061645016 -0.17673455 0.03607919 -0.0155336205 -0.10443397 -0.040979642
-0.1557215 0.10295307 -0.12837179 0.12568806 -0.021094756 -0.08660704 -0.054917723 -0.005247977
-0.075471245 0.088247575 0.13707916 0.15666276 -0.050769247 -0.09204966 0.005179264 -0.008553806
-0.13628188 0.08453163 0.12202023 -0.009965582 0.03391395 -0.01761171 0.035137102 -0.11012476
-0.09545196 -0.10953171 -0.123771 -0.16264917 -0.09086371 0.07573116 0.063503005 -0.1815742
-0.03444598 -0.027757369 -0.096093394 0.07429963 -0.10697025 -0.007777438 -0.07158822 0.06630392
0.06336504 0.025472783 -0.21714605 -0.08566076 0.021055438 -0.091416106 -0.0830219 -0.14531885
-0.13295402 0.18377315 -0.14458875 0.031002775 0.055853434 -0.087069735 0.061222658 0.12510662
0.099576294 -0.3120312 -0.13656503 -0.03377552 0.07326981 0.0942853 -0.1537592 -0.069713116
0.017695518 0.15558423 0.011658603 -0.08599876 -0.118832245 -0.010145723 -0.055166416 -0.07311052
0.20021124 -0.1926229 -0.044528887 -0.090580426 -0.1101283 0.07080338 -0.0766993 -0.07775832
0.025023542 -0.01625538 -0.06353115 -0.17285405 -0.11143648 -0.036536783 0.016850606 -0.060412437
0.08155941 0.0065478133 0.15819672 0.27491856 -0.06527401 0.062110342 -0.12792109 0.06448527
0.08802048 -0.043268487 0.072612256 -0.057510357 -0.05887932 0.050999854 0.1245284 -0.074187495
0.04906637 -0.0479111 -0.10336844 -0.039510164 -0.106461525 0.023990596 -0.01987715 0.042915437
-0.035937954 0.1282781 0.07294457 -0.037629496 -0.04358095 -0.1453384 -0.056389917 0.096502446
00000000: b42c d4bd bc8f 973d 7c7f 7cbd e7f9 34be
00000010: c6c7 133d ba80 7ebc 7ae1 d5bd 45da 27bd
00000020: 7575 1fbe 0fd9 d23d e573 03be 5fb4 003e
00000030: e9ce acbc 085f b1bd 68f1 60bd 39f7 abbb
00000040: ab90 9abd 25bb b43d 7b5e 0c3e 346c 203e
00000050: 6af3 4fbd 8884 bcbd d1b6 a93b 4325 0cbc
00000060: 7a8d 0bbe eb1e ad3d bee5 f93d ae46 23bc
00000070: 5be9 0a3d 6f46 90bc eceb 0f3d 1789 e1bd
00000080: 517c c3bd 2952 e0bd a67b fdbd 818d 26be
00000090: c116 babd f018 9b3d dd0d 823d 96ee 39be
000000a0: 3a17 0dbd 6c63 e3bc 9dcc c4bd 682a 983d
000000b0: 3813 dbbd e1d9 febb d89c 92bd 59ca 873d
000000c0: 88c5 813d 4cac d03c 895b 5ebe e96e afbd
000000d0: 747c ac3c 5e38 bbbd 6307 aabd 77ce 14be
000000e0: 1925 08be 072f 3c3e 130f 14be 88f9 fd3c
000000f0: 92c6 643d 9e51 b2bd 9cc4 7a3d f31b 003e
00000100: a8ee cb3d 8ec2 9fbe b4d7 0bbe 3358 0abd
00000110: 7b0e 963d a718 c13d 0d73 1dbe c0c5 8ebd
00000120: 31f6 903c 7951 1f3e ba03 3f3c 1e20 b0bd
00000130: 525e f3bd 3f3a 26bc 2ef6 61bd f8ba 95bd
00000140: 2d04 4d3e f03e 45be ec63 36bd 3b82 b9bd
00000150: f28a e1bd 5d01 913d 8614 9dbd c13f 9fbd
00000160: 2cfe cc3c 012a 85bc 9f1c 82bd a700 31be
00000170: cf38 e4bd 98a7 15bd 480a 8a3c 0873 77bd
00000180: 9f08 a73d 0a8f d63b 52fe 213e 20c2 8c3e
00000190: 61ae 85bd 6a67 7e3d bffd 02be da10 843d
000001a0: 1544 b43d 4c3a 31bd bcb5 943d fb8f 6bbd
000001b0: 712b 71bd 39e5 503d bf08 ff3d 9def 97bd
000001c0: d1f9 483d 6e3e 44bd d5b2 d3bd 69d5 21bd
000001d0: 8008 dabd ed87 c43c 68d5 a2bc 19c8 2f3d
000001e0: ad33 13bd 565b 033e f663 953d 6321 1abd
000001f0: f081 32bd 97d3 14be 1df9 66bd 13a3 c53d

layers.2.weight f4 [64, 128]
0.02591441 0.0087179765 -0.008714981 0.179421 0.15336314 -0.2305629 0.018701946 -0.12343247
-0.14029345 -0.0027689375 -0.061511867 0.15643086 -0.109247014 -0.021196462 0.13086101 -0.0759549
0.025731577 0.11277126 0.06333668 0.027399665 -0.03868586 -0.07478236 -0.3184542 0.0028174147
-0.17793034 0.062370993 -0.017164022 0.07534047 -0.424391 0.35304824 0.113483444 0.01498553
-0.0414412 -0.12467405 0.12419091 0.12379081 0.07061358 0.15568364 0.035586353 0.10574835
-0.043873448 0.07885138 -0.15340216 0.1571748 -0.09370491 0.076504014 -0.04417608 0.02644603
-0.05106888 -0.014688439 0.11441609 -0.1197157 0.20352417 -0.29195952 -0.03901026 -0.050812494
0.008390971 -0.089737676 -0.1411562 0.094760045 0.00245828 -0.04135583 0.37878484 0.08865157
-0.26368517 0.3469204 -0.072080545 0.032097675 0.14119898 -0.4262375 0.1960056 0.050807647
-0.06336817 0.39941478 -0.02875065 0.25938332 0.17225131 0.14006923 -0.33343324 -0.34900555
-0.025405012 0.023171116 0.10169066 -0.010017584 0.25156283 -0.10969373 -0.11277348 0.047141828
0.006759058 -0.3918984 -0.057993405 0.0035351156 0.101867355 -0.10452128 0.013290099 0.18337795
0.026442021 -0.47142386 -0.109643355 -0.0026884773 -0.105637856 -0.4301969 -0.08834444 0.14759803
0.09658221 -0.29530612 0.21008852 -0.20539169 -0.1395826 -0.04881362 0.06813519 0.2677181
-0.19410603 0.000533859 0.06137171 0.2970561 -0.24864502 -0.121586554 -0.15956062 0.05351713
0.0375291 -0.074552774 0.10856396 -0.091604665 0.25021484 0.07391908 -0.011200192 0.025404526
0.21424961 -0.07769083 0.19220188 0.279441 -0.12901309 0.1536373 0.20085067 -0.20953034
-0.108765006 -0.042879075 0.124128565 0.18257082 -0.08777991 0.13836198 0.14169306 0.07305672
0.15879412 0.0028326185 0.06481121 0.026915042 0.08222479 -0.113270395 -0.60262734 -0.024026439
0.053718966 -0.007208611 0.28376096 -0.11330114 -0.36226806 0.22621793 0.11853215 -0.0854015
0.06592929 -0.13864091 0.17924833 0.20168768 0.06741486 -0.054371994 -0.1421116 0.28140354
-0.020835467 0.19287118 -0.13771388 0.11599735 -0.25337747 0.23057474 -0.09858129 0.044236723
-0.12715492 -0.10326905 0.18595324 -0.08284508 0.13146086 -0.11888468 0.14085208 0.07617769
0.05466347 -0.26041898 -0.06636355 0.015841689 -0.0135464985 0.18081762 0.25461093 -0.03730295
-0.40042827 0.20969926 0.022294285 0.08032477 0.16115558 -0.7123551 0.8697498 -0.124526136
0.03707226 0.13375483 -0.20981815 0.46510637 0.20046698 0.12614438 -0.31085852 -0.6660279
0.03106398 -0.075795285 0.107215054 0.018187458 0.75363785 -0.19761893 0.04460615 0.024203803
-0.28693348 -0.4252565 -0.080265515 -0.021137817 0.17622325 -0.18286219 0.075051144 0.27621987
-0.1671193 -0.610349 -0.12822472 -0.057584167 -0.14578262 -0.65656275 -0.09295437 0.17484662
0.10687202 -0.64304274 0.19201289 -0.14629576 -0.07883925 -0.13927925 -0.09963223 0.4323707
-0.40991366 -0.09165984 0.16029501 0.57848245 -0.18035807 -0.11160553 0.08289999 -0.030029356
-0.01700647 -0.18818313 -0.16238584 -0.24643144 -0.000100946694 0.14758803 0.1844675 -0.082370706
00000000: 754a d43c d8d5 0e3c 48c9 0ebc 23ba 373e
00000010: 3a0b 1d3e ae18 6cbe d334 993c 2aca fcbd
00000020: 16a9 0fbe 1077 35bb def3 7bbd 692f 203e
00000030: e6bc dfbd 34a4 adbc 6e00 063e 3e8e 9bbd
00000040: 07cb d23c 9ef4 e63d a9b6 813d 4375 e03c
00000050: 1075 1ebd 7e27 99bd 6e0c a3be 60a4 383b
00000060: 5f33 36be ba78 7f3d 909b 8cbc 1b4c 9a3d
00000070: c749 d9be bdc2 b43e 026a e83d de85 753c
00000080: 3fbe 29bd 1c55 ffbd ce57 fe3d 0986 fd3d
00000090: da9d 903d 886b 1f3e ffc2 113d 9792 d83d
000000a0: a5b4 33bd d57c a13d 7515 1dbe 6ef2 203e
000000b0: 5ce8 bfbd 23ae 9c3d faf1 34bd 58a5 d83c
000000c0: 9a2d 51bd c7a7 70bc fc52 ea3d 812d f5bd
000000d0: a468 503e b87b 95be 39c9 1fbd c320 50bd
000000e0: 497a 093c 63c8 b7bd 408b 10be 8e11 c23d
000000f0: 181b 213b bb64 29bd 16f0 c13e f48e b53d
00000100: be01 87be 8d9f b13e f79e 93bd da78 033d
00000110: 7796 103e cd3b dabe b1b5 483e ae1b 503d
00000120: 2cc7 81bd 1880 cc3e 7c86 ebbc e4cd 843e
00000130: a662 303e 4f6e 0f3e c3b7 aabe dbb0 b2be
00000140: 2c1e d0bc 5ad1 bd3c 3143 d03d cb20 24bc
00000150: d8cc 803e 1ba7 e0bd c8f5 e6bd ca17 413d
00000160: 177b dd3b e8a6 c8be 7e8a 6dbd 66ad 673b
00000170: d59f d03d 410f d6bd b7be 593c 6ec7 3b3e
00000180: f09c d83c 785e f1be b28c e0bd 2a31 30bb
00000190: a958 d8bd c542 dcbe eeed b4bd f023 173e
000001a0: e5cc c53d 5d32 97be 7221 573e 3352 52be
000001b0: beee 0ebe caf0 47bd 768a 8b3d 5912 893e
000001c0: bbc3 46be acf2 0b3a e760 7b3d bd17 983e
000001d0: cd9c 7ebe 5f02 f9bd dc63 23be c734 5b3d
000001e0: 1db8 193d 20af 98bd c856 de3d 3a9b bbbd
000001f0: 291c 803e e362 973d 0381 37bc 271d d03c
00000200: 4064 5b3e 5f1c 9fbd 92d0 443e e412 8f3e
00000210: 021c 04be 1953 1d3e ccab 4d3e 1f8f 56be
00000220: 30c0 debd f8a1 2fbd 1e37 fe3d d8f3 3a3e
00000230: f4c5 b3bd c3ae 0d3e fc17 113e c39e 953d
00000240: ed9a 223e 74a3 393b bdbb 843d ef7c dc3c
00000250: 7865 a83d 4ffa e7bd c945 1abf 18d3 c4bc
00000260: 6b08 5c3d 3636 ecbb 1e49 913e 6e0a e8bd
00000270: 337b b9be aca5 673e fcc0 f23d fbe6 aebd
00000280: f005 873d e2f7 0dbe e08c 373e 3787 4e3e
00000290: cd10 8a3d 2bb5 5ebd b485 11be 2014 903e
000002a0: 24af aabc 0680 453e de04 0dbe 0590 ed3d
000002b0: b1ba 81be c91b 6c3e fde4 c9bd 9131 353d
000002c0: e634 02be b97e d3bd 876a 3e3e aeaa a9bd
000002d0: ad9d 063e d079 f3bd 873b 103e 0c03 9c3d
000002e0: cde6 5f3d a355 85be 9de9 87bd 6ec6 813c
000002f0: 22f2 5dbc 4128 393e 5d5c 823e faca 18bd
00000300: ef04 cdbe 67bb 563e 81a2 b63c 5081 a43d
00000310: f805 253e e75c 36bf eca7 5e3f 8f07 ffbd
00000320: 15d9 173d 07f7 083e 92da 56be 6c22 ee3e
00000330: 3747 4d3e fe2b 013e d928 9fbe ce80 2abf
00000340: e379 fe3c 8f3a 9bbd 9193 db3d ddfd 943c
00000350: 69ee 403f 9e5c 4abe f0b4 363d 0e47 c63c
00000360: f2e8 92be 38bb d9be 3f62 a4bd 3729 adbc
00000370: de73 343e 3a40 3bbe 6ab4 993d b16c 8d3e
00000380: 5221 2bbe d53f 1cbf 574d 03be 60dd 6bbd
00000390: 0a48 15be 7f14 28bf dc5e bebd fe0a 333e
000003a0: b8df da3d 739e 24bf 079f 443e 8ece 15be
000003b0: 7976 a1bd 389f 0ebe fc0b ccbd b15f dd3e
000003c0: 34e0 d1be 27b8 bbbd 6024 243e 6d17 143f
000003d0: c9af 38be 7191 e4bd 78c7 a93d 2000 f6bc
000003e0: 2751 8bbc 14b3 40be 7948 26be 8658 7cbe
000003f0: 58b3 d3b8 5121 173e 0ce5 3c3e f9b1 a8bd

layers.2.bias f4 [64]
-0.17452808 -0.06884259 -0.10663209 -0.027073361 -0.08422837 -0.029389434 -0.058312636 -0.08180478
-0.16497144 -0.093340725 -0.124099255 0.096319996 -0.20282125 0.09401492 -0.15359561 -3.444466e-06
-0.10408068 -0.038044997 0.04548414 -0.012928974 0.09167081 -0.0041460386 0.13707706 0.1318012
0.14018239 -0.098646946 0.05002355 0.026360147 -0.07733799 -0.036627844 0.06737504 -0.008819247
-0.07375458 0.15200236 0.13375543 -0.08524883 -0.06695316 0.09475384 0.13654628 -0.042025607
-0.024732985 -0.03822853 0.12433373 -0.07021038 0.06947139 -0.1315875 -0.13754117 -0.03379219
-0.029582934 0.08932896 -0.12473407 0.0026423922 0.036582172 0.10925987 -0.0025124673 0.12739235
0.14448383 -0.093175694 0.0162348 -0.040672347 -0.121499196 -0.12451217 -0.16807872 -0.045804434
00000000: 7db7 32be 58fd 8cbd ed61 dabd f4c8 ddbc
00000010: ec7f acbd 1cc2 f0bc 3bd9 6ebd 4489 a7bd
00000020: 46ee 28be 6c29 bfbd c027 febd 6b43 c53d
00000030: 60b0 4fbe e58a c03d 2b48 1dbe 7a27 67b6
00000040: 4028 d5bd 12d5 1bbd 944d 3a3d 0cd4 53bc
00000050: e8bd bb3d 7edb 87bb ee5d 0c3e e5f6 063e
00000060: f98b 0f3e 6907 cabd 7ee5 4c3d 3cf1 d73c
00000070: 6163 9ebd 1407 16bd edfb 893d 9a7e 10bc
00000080: a40c 97bd 82a6 1b3e 2ff7 083e f096 aebd
00000090: bd1e 89bd 4d0e c23d cad2 0b3e 0b23 2cbd
000000a0: d49c cabc 8595 1cbd afa2 fe3d 76ca 8fbd
000000b0: 0447 8e3d e0be 06be 98d7 0cbe ae69 0abd
000000c0: e957 f2bc 1af2 b63d 9374 ffbd fc2b 2d3b
000000d0: 30d7 153d a4c3 df3d 35a8 24bb 2473 023e
000000e0: 92f3 133e e6d2 bebd d8fe 843c 0c98 26bd
000000f0: 92d4 f8bd 3d00 ffbd d41c 2cbe 6e9d 3bbd

readout.weight f4 [1, 64]
-2.6849258 -2.6048632 2.3916836 -2.7588367 2.3126297 2.734096 2.349444 2.3874834
2.3579116 -2.9081962 -2.6854546 -2.6168313 -2.4572673 -2.4253583 -2.628572 2.689925
2.3425038 -2.60631 2.562649 -2.3011506 2.9120429 -2.572366 -2.2926784 2.760438
-2.3123124 2.4327126 -2.3509812 -2.3389525 2.3907533 2.5876293 -2.459257 2.396639
2.3508604 -2.4422834 -2.6165006 2.3606694 2.3710027 -2.2960186 -2.3233526 2.4231331
2.448706 2.5376694 -2.4051614 -2.6214037 -2.330817 2.261399 2.3865201 2.3435717
2.3922849 2.6562808 2.5806262 -2.3316603 -2.3520463 -2.4129658 2.2728 -2.3750827
-2.369508 2.4272108 -2.354921 -2.485817 2.4095263 2.399293 -2.8146596 2.3889976
00000000: d3d5 2bc0 14b6 26c0 5811 1940 c890 30c0
00000010: 2002 1440 6efb 2e40 4a5d 1640 87cc 1840
00000020: 06e8 1640 e31f 3ac0 7dde 2bc0 2a7a 27c0
00000030: de43 1dc0 1239 1bc0 863a 28c0 bb27 2c40
00000040: 95eb 1540 c8cd 26c0 7102 2440 0d46 13c0
00000050: e95e 3a40 a5a1 24c0 3ebb 12c0 04ab 3040
00000060: edfc 13c0 90b1 1b40 7a76 16c0 66b1 15c0
00000070: 1a02 1940 b89b 2540 7764 1dc0 8962 1940
00000080: 7f74 1640 5f4e 1cc0 bf74 27c0 3515 1740
00000090: 82be 1740 f8f1 12c0 cfb1 14c0 9d14 1b40
000000a0: 99b7 1c40 2d69 2240 2aee 19c0 14c5 27c0
000000b0: 1b2c 15c0 c3ba 1040 bfbc 1840 14fd 1540
000000c0: 321b 1940 8100 2a40 fb28 2540 ec39 15c0
000000d0: ed87 16c0 086e 1ac0 8e75 1140 5b01 18c0
000000e0: 05a6 17c0 6c57 1b40 07b7 16c0 a017 1fc0
000000f0: ae35 1a40 048e 1940 6223 34c0 56e5 1840

layers.0.weight f4 [128, 3]
0.51622176 -0.74986506 0.26950815 -0.088318005 0.4275807 -0.5026201 -0.40451193 -0.34915215
-0.10522675 0.11223251 0.73721665 -0.45035905 0.67331064 0.20246778 -0.33073 0.2720975
-0.0043925433 -0.21247318 -0.59154445 -0.6435382 0.13393193 -0.07372891 -0.9797047 0.30075565
-0.53985304 0.17030048 -0.0068234215 -0.10379316 0.26156154 0.36055648 0.5227928 -0.38425267
-0.4769584 0.27454096 0.35748863 -0.23698328 0.23995939 0.75833243 0.17726889 -0.39251155
0.60021806 -0.15534951 -0.26153007 -0.8068869 -0.0809661 -0.20294075 -0.42173555 -0.23874517
0.4090263 0.6067155 0.37672043 -0.0007767134 0.3860805 -0.43948525 -0.06698739 -0.5166676
-0.30540863 -0.5456029 -0.04351966 -0.32896107 0.4192223 0.75424725 -0.020107105 0.31239295
0.47729918 -0.010718641 -0.45138738 -0.42934427 -0.26226532 -0.58610696 -0.1070753 0.08224976
0.48988187 -0.57919216 0.24182734 0.1594225 0.6790173 0.032818545 -0.21457408 -0.8601835
0.13437001 -0.305251 -0.143723 -0.12628028 0.03876885 0.49357742 0.042682733 -0.5251049
-0.54998684 0.45190558 -0.3692473 -0.7658604 0.1649739 0.35692132 -0.52934206 -0.1186262
-0.532609 0.10775513 -0.013591697 0.28062996 -0.81544083 0.28890586 -0.590628 0.059636
-0.123942636 -0.5193252 -0.03037319 0.6366939 0.4083315 -0.9688621 0.30154172 -0.58491266
-0.0067326594 -0.108637504 0.0942719 -0.48386675 0.1486599 -0.07295144 -0.19604884 0.05210278
0.5160462 -0.43759444 0.11644413 0.51291996 0.5877203 0.2785581 -0.11429714 0.21270792
-0.22081925 -0.4751836 0.47688702 0.12517908 -0.33645803 0.41194212 -0.50045 0.0628324
0.51881814 0.08365239 -0.29581594 0.62638104 0.1466888 -0.40217844 -0.517628 -0.49368125
-0.49298447 0.27189147 0.26013017 -0.18316148 0.7042465 -0.46388218 0.003711404 0.6141447
-0.4052988 -0.14947733 0.47285235 -0.274505 -0.0057128863 -0.7701792 0.11362052 0.06559909
-0.18575314 -0.5587985 -0.5624954 -0.54435086 0.5093813 -0.2548961 0.15212964 -0.41178378
0.21539873 0.63289994 -0.26713985 0.008435789 0.39486188 -0.13326652 -0.31386173 -0.33853203
-0.42140186 0.4279217 -0.23212819 -0.19859765 -0.4049348 0.4482881 -0.015613471 -0.74275947
-0.28986952 0.11379288 -0.11201573 -0.28833702 -0.39921066 0.26641345 -0.13804972 -0.24847408
-0.31762227 0.56660646 0.061667725 -0.6668237 0.57339054 0.05809362 0.32826293 0.59495395
0.4448405 -0.39845952 0.4429233 -0.0072282637 -0.22677004 -0.24659277 -0.08469555 0.34587795
0.22023743 0.18808673 0.13323098 -0.8664196 0.18475106 -0.37852842 -0.30453172 -0.31074333
-0.32366225 -0.4090472 -0.30105007 0.1710457 -0.03208255 0.2521439 0.5899989 -0.10950429
-0.3423162 0.13822964 0.16859995 -0.089601964 0.023186542 0.88760704 0.19451618 0.3497003
-0.6610456 -0.40547988 -0.5006348 -0.2405066 0.1883872 0.44062147 0.5940336 -0.4530367
0.8328278 0.36655685 -0.048329923 0.3181986 -0.041631743 0.52723384 0.021293407 0.35237807
0.017767804 -0.073788814 -0.5694237 0.037242856 -0.26417506 -0.107530974 -0.46548972 0.68976116
00000000: 1c27 043f 28f7 3fbf f9fc 893e 12e0 b4bd
00000010: dceb da3e b6ab 00bf 301c cfbe 12c4 b2be
00000020: 1f81 d7bd 28da e53d 3bba 3c3f 7695 e6be
00000030: 165e 2c3f b753 4f3e 7155 a9be 5d50 8b3e
00000040: 53ef 8fbb 9292 59be 756f 17bf ebbe 24bf
00000050: 7425 093e 2fff 96bd edcd 7abf a5fc 993e
00000060: cf33 0abf 4063 2e3e 0297 dfbb 8291 d4bd
00000070: 65eb 853e dc9a b83e c0d5 053f c4bc c4be
00000080: e433 f4be a290 8c3e c008 b73e bfab 72be
00000090: eab7 753e 1322 423f fa85 353e 46f7 c8be
000000a0: e4a7 193f f113 1fbe 45e7 85be 2490 4ebf
000000b0: 8ed1 a5bd b3cf 4fbe b9ed d7be 9d79 74be
000000c0: e56b d13e b551 1b3f 80e1 c03e 5b9c 4bba
000000d0: 58ac c53e 3604 e1be af30 89bd 5444 04bf
000000e0: 855e 9cbe a2ac 0bbf ac41 32bd 966d a8be
000000f0: 4ea4 d63e 5916 413f a8b7 a4bc f8f1 9f3e
00000100: 8f60 f43e 3d9d 2fbc 3f1c e7be 03d3 dbbe
00000110: a447 86be 1b0b 16bf 4b4a dbbd 9072 a83d
00000120: ccd1 fa3e f045 14bf 96a1 773e a73f 233e
00000130: 14d4 2d3f bd6c 063d 4fb9 5bbe fc34 5cbf
00000140: 4b98 093e dc49 9cbe 1f2c 13be 9e4f 01be
00000150: 16cc 1e3d 2eb6 fc3e 17d4 2e3d 466d 06bf
00000160: f0cb 0cbf 2b60 e73e fb0d bdbe 6d0f 44bf
00000170: ebee 283e 64be b63e f682 07bf 4bf2 f2bd
00000180: 1059 08bf b9ae dc3d b6af 5ebc bbae 8f3e
00000190: bbc0 50bf 78eb 933e 6633 17bf e144 743d
000001a0: a3d5 fdbd 7ff2 04bf 32d1 f8bc 5ffe 223f
000001b0: d410 d13e 5907 78bf ad63 9a3e d6bc 15bf
000001c0: a49d dcbb 577d debd a011 c13d 62bd f7be
000001d0: 4d3a 183e 9167 95bd 07c1 48be ba69 553d
000001e0: 9b1b 043f 610c e0be 437a ee3d b94e 033f
000001f0: d674 163f 2b9f 8e3e 9e14 eabd 1bd0 593e
00000200: 711e 62be 444b f3be 892a f43e f22e 003e
00000210: 3a44 acbe 14ea d23e 7e1d 00bf 46ae 803d
00000220: 44d1 043f f251 ab3d 3075 97be 825a 203f
00000230: 9735 163e 55ea cdbe 4583 04bf cac3 fcbe
00000240: 7668 fcbe 5c35 8b3e c82f 853e af8e 3bbe
00000250: 8049 343f f781 edbe 073b 733b 9638 1d3f
00000260: 5383 cfbe 9610 19be b419 f23e eb8b 8cbe
00000270: 2a33 bbbb 772a 45bf e0b1 e83d d158 863d
00000280: 1236 3ebe 6b0d 0fbf b3ff 0fbf 945a 0bbf
00000290: d066 023f be81 82be dfc7 1b3e 53d5 d2be
000002a0: 7c91 5c3e bb05 223f 8ec6 88be 4336 0a3c
000002b0: 562b ca3e 0577 08be 7cb2 a0be 1254 adbe
000002c0: fcc1 d7be 8e18 db3e 03b3 6dbe 2f5d 4bbe
000002d0: 9d53 cfbe 0586 e53e a5cf 7fbc 7c25 3ebf
000002e0: c769 94be 3e0c e93d 8168 e5bd e9a0 93be
000002f0: 5765 ccbe 5867 883e e85c 0dbe fd6f 7ebe
00000300: 639f a2be 1f0d 113f 4c97 7c3d f5b4 2abf
00000310: b9c9 123f 93f3 6d3d 1412 a83e e74e 183f
00000320: 22c2 e33e e302 ccbe d8c6 e23e 12db ecbb
00000330: 6836 68be d182 7cbe dc74 adbd ea16 b13e
00000340: ec85 613e cf99 403e b46d 083e adcd 5dbf
00000350: 622f 3d3e 7ace c1be 95eb 9bbe c019 9fbe
00000360: 0fb7 a5be a26e d1be 3c23 9abe 9b26 2f3e
00000370: fe68 03bd 0119 813e 2b0a 173f c943 e0bd
00000380: 1244 afbe 128c 0d3e 77a5 2c3e 3c81 b7bd
00000390: b4f1 bd3c 373a 633f 402f 473e eb0b b33e
000003a0: 493a 29bf 0f9b cfbe 9a29 00bf 5d47 76be
000003b0: 93e8 403e 2399 e13e 9612 183f 6df4 e7be
000003c0: 3434 553f 57ad bb3e 99f5 45bd edea a23e
000003d0: 0c86 2abd ccf8 063f 836f ae3c e66a b43e
000003e0: c98d 913c 971e 97bd c0c5 11bf f78b 183d
000003f0: f441 87be 3339 dcbd ab54 eebe 3094 303f

layers.0.bias f4 [128]
0.79184186 -0.106917284 0.22900234 -0.3014107 0.48760927 -0.7158127 -0.37771127 0.567172
0.15750048 0.26142 0.34968054 0.16230136 -0.39953333 -0.03588106 -0.11392334 0.3969435
-0.2764859 0.2116612 -0.07837331 0.17790754 -0.036956955 0.6509366 -0.568655 -0.010388233
0.30359128 0.50042313 -0.09917845 -0.31354398 0.465855 -0.0854602 0.74721515 0.5016084
-0.65405965 -0.18645214 0.38032126 0.058835004 -0.29647636 0.37440202 0.42354947 0.51038486
-0.002340397 -0.5558352 -0.48819995 0.35148892 -0.3272077 -0.04642219 0.55737144 0.19508702
0.3002245 -0.4462731 -0.022894187 0.032834254 0.6411488 0.24581698 -0.18265468 -0.073900655
0.122591235 0.22905034 -0.51588184 -0.65372896 -0.074346095 0.31947532 -0.10509945 0.0111992415
0.36156532 -0.17578232 -0.20388782 0.45531598 -0.095347926 -0.31222767 0.00064266217 -0.3452274
-0.39239758 0.050812576 -0.37261426 -0.5437422 -0.22261897 -0.06593881 0.20844819 -0.044777587
0.33256593 -0.37747598 0.2622039 0.20647967 0.35197467 0.59901625 0.5872209 -0.4880444
0.5146684 0.58399045 0.16016604 0.22283217 0.13055569 -0.08053957 0.02525449 0.07441872
0.4070919 0.08624666 0.22174492 0.16562267 0.43851674 0.29095697 -0.012428648 -0.42640364
-0.26597762 0.5744079 0.41904718 -0.10440442 -0.37397614 -0.051001992 0.23406184 -0.33222517
0.08024349 -0.43102676 0.38199094 0.08583007 -0.20261835 0.31625965 -0.0018280627 0.38275042
0.22349364 0.33361295 -0.5556194 0.37854037 0.4315393 -0.46798727 -0.43267387 0.031037865
00000000: 26b6 4a3f 73f7 dabd 977f 6a3e 8152 9abe
00000010: eca7 f93e 803f 37bf 5f63 c1be 2f32 113f
00000020: ce47 213e d8d8 853e 5409 b33e 5432 263e
00000030: a28f ccbe 05f8 12bd a450 e9bd 2e3c cb3e
00000040: 8f8f 8dbe b7bd 583e 3082 a0bd 652d 363e
00000050: 2d60 17bd c8a3 263f 6093 11bf 6833 2abc
00000060: 5170 9b3e bb1b 003f 121e cbbd d688 a0be
00000070: 8c84 ee3e c205 afbd 7e49 3f3f 6869 003f
00000080: 7470 27bf 4fed 3ebe 78b9 c23e f9fc 703d
00000090: c0cb 97be 9fb1 bf3e 7adb d83e 95a8 023f
000000a0: 5961 19bb 374b 0ebf 58f5 f9be 5bf6 b33e
000000b0: c587 a7be 3225 3ebd e5af 0e3f e4c4 473e
000000c0: 07b7 993e e87d e4be 978c bbbc 367d 063d
000000d0: 5422 243f 72b7 7b3e d409 3bbe 3a59 97bd
000000e0: 1d11 fb3d 2c8c 6a3e d510 04bf c85a 27bf
000000f0: c442 98bd 4592 a33e 613e d7bd 067d 373c
00000100: 171f b93e 4800 34be f8c7 50be 2d1f e93e
00000110: c645 c3bd 4edc 9fbe 5478 283a a5c1 b0be
00000120: 56e8 c8be d920 503d 4cc7 bebe b032 0bbf
00000130: 3af6 63be ed0a 87bd 7173 553e b468 37bd
00000140: 1546 aa3e 8844 c1be 973f 863e 686f 533e
00000150: 0636 b43e 2159 193f 1c54 163f f5e0 f9be
00000160: 4fc1 033f 6680 153f 9102 243e 1e2e 643e
00000170: 64b0 053e eef1 a4bd 81e2 ce3c d868 983d
00000180: 596e d03e 17a2 b03d 1a11 633e fd98 293e
00000190: 4485 e03e 50f8 943e 87a1 4bbc 9451 dabe
000001a0: 382e 88be 650c 133f 5a8d d63e fcd1 d5bd
000001b0: cd79 bfbe 77e7 50bd e8ad 6f3e 6b19 aabe
000001c0: b356 a43d 8aaf dcbe 5194 c33e adc7 af3d
000001d0: 2f7b 4fbe c9ec a13e 9b9b efba ddf7 c33e
000001e0: 84db 643e 51cf aa3e 133d 0ebf 0bd0 c13e
000001f0: b8f2 dc3e 079c efbe 6e87 ddbe 1f43 fe3c

layers.1.weight f4 [128, 128]
-4.241439e-05 0.050735008 -0.04945079 -0.00059553736 -0.031414483 0.016715411 -0.019495826 0.07101174
0.08122324 -0.03070931 0.012090996 -0.09567628 -0.058347426 0.0174479 0.077868454 -0.014614549
-0.1002827 0.066056035 -0.04763727 0.03157094 0.0041631237 0.03086419 -0.059889827 0.01479053
0.012316607 -0.014963418 0.028919559 0.06561545 0.064015165 -0.013644232 -0.09022369 0.019394087
0.040882666 -0.090020806 0.054242276 -0.035931837 -0.035665274 -0.042725198 -0.0063661477 -0.095659874
-0.056564353 -0.017939325 -0.02753794 0.067165144 -0.06954748 -0.05172569 -0.091361456 0.01287574
0.050225854 -0.0355374 -0.08736737 0.067718074 0.026007827 -0.0721104 0.02413988 0.03242922
0.07589268 -0.03119478 -0.045471203 -0.08289174 -0.052049454 0.02991388 0.078640014 0.03140555
0.061992284 -0.06618905 0.0020665915 -0.07610998 -0.02651051 0.050935637 -0.06673448 0.00037509052
-0.003053958 0.021847464 -0.05676145 0.061601065 -0.074277304 0.02358884 0.067056924 -0.09713954
-0.094005115 0.020052172 -0.08600783 -0.0066506932 0.07185515 -0.06291787 0.01416027 0.034010153
0.05893953 0.04447373 -0.0067899637 0.0069019226 -0.0952147 -0.008902749 0.0013029883 -0.08943993
0.03600859 -0.052724555 0.0027897183 0.01599991 -0.055797733 0.037502736 -0.10438756 -0.011848455
-0.06521268 0.04685328 -0.120795384 0.028696617 -0.044546872 -0.030178165 -0.06299305 0.010561121
-0.014356715 0.076465696 0.08647984 -0.0029683218 -0.051552307 0.03801643 0.0028924367 -0.0103900945
-0.08262689 0.07318185 0.06048254 -0.026899703 -0.099726275 -0.013618273 -0.07593333 0.041095205
0.08871724 -0.02929599 -0.006753156 -0.029251378 0.058482006 0.13713247 0.12005859 0.0056659365
-0.113240086 0.14531696 0.041710626 -0.019820716 -1.4067783 -0.05349796 0.20391941 0.019438125
0.117410004 0.104238905 -0.013067164 0.0119241 -0.017008875 -0.016854012 -0.010114125 -0.27279174
0.12017649 0.019216383 0.24651565 0.0262534 0.038875584 0.15000224 -0.053214643 0.05686199
0.20175125 0.12753992 -0.0087878555 0.023457963 0.10393473 -0.039815746 0.027340831 -0.04345775
0.045918375 0.31039855 0.023102624 -0.4150692 0.00082095905 -0.5783968 0.22920775 0.11862967
0.0009849718 -0.004137025 0.07711031 -0.07386076 -0.06063466 0.025122458 0.1721407 -0.054541297
0.005132089 0.06052705 0.017928882 0.0007190966 -0.09258027 -0.2398909 0.0954683 0.0399765
-0.028721297 0.022733653 0.124379754 -0.041156385 -0.069848925 -0.09460077 0.119436756 0.0075474004
-0.040317055 -0.07129307 -0.020250928 -0.33594847 -1.2159904 -0.0076687713 0.07442568 0.06770122
0.04459091 -0.15485905 -0.0959708 -0.111977324 0.037100084 0.022038301 -0.045762368 0.08557933
-0.032964937 0.11373031 0.142501 0.046682153 0.35031414 0.10868435 -0.04639906 0.041490264
-0.23208201 -0.0859954 0.054457393 -0.0073244814 0.07928479 0.24349335 0.07862634 0.03368047
0.037726786 -0.065428354 0.0009634276 -0.043964416 0.56855506 0.0027225146 0.00591553 0.010035852
-0.041383203 0.026018547 -0.038377237 0.00896533 0.120603375 0.013659791 0.04464781 0.119576894
-0.03627255 -0.077740714 0.05704608 0.085611425 -0.2652495 0.04578489 -0.030250227 0.11927713
00000000: 1be6 31b8 83cf 4f3d e98c 4abd d61d 1cba
00000010: 79ac 00bd c2ee 883c b6b5 9fbc 9a6e 913d
00000020: 5f58 a63d 1792 fbbc 5019 463c edf1 c3bd
00000030: b6fd 6ebd e6ee 8e3c 7f79 9f3d dd71 6fbc
00000040: 0461 cdbd 6348 873d 4c1f 43bd 8850 013d
00000050: d06a 883b e6d6 fc3c 094f 75bd fb53 723c
00000060: 98cb 493c 2029 75bc b6e8 ec3c 6561 863d
00000070: 621a 833d 0f8c 5fbc 33c7 b8bd 59e0 9e3c
00000080: 9574 273d d45c b8bd 262d 5e3d 432d 13bd
00000090: c015 12bd 9e00 2fbd 1e9b d0bb 53e9 c3bd
000000a0: 06b0 67bd 7ef5 92bc 3f97 e1bc e18d 893d
000000b0: e96e 8ebd 51de 53bd b71b bbbd c5f4 523c
000000c0: a0b9 4d3d aa8f 11bd aaed b2bd c6af 8a3d
000000d0: 5e0e d53c 9eae 93bd ffc0 c53c 80d4 043d
000000e0: 9f6d 9b3d 328c ffbc 0340 3abd 25c3 a9bd
000000f0: cf31 55bd f40d f53c 040e a13d 1ba3 003d
00000100: 9feb 7d3d 208e 87bd a76f 073b 8ddf 9bbd
00000110: 922c d9bc e3a1 503d 16ac 88bd cca7 c439
00000120: ea24 48bb 74f9 b23c b27e 68bd 6651 7c3d
00000130: b31e 98bd 623d c13c 2455 893d 18f1 c6bd
00000140: c185 c0bd 7444 a43c e024 b0bd 0fee d9bb
00000150: cb28 933d 16db 80bd 7a00 683c 3b4e 0b3d
00000160: 946a 713d 162a 363d 587e debb 8629 e23b
00000170: edff c2bd d6dc 11bc 08c9 aa3a 482c b7bd
00000180: be7d 133d b4f5 57bd b5d3 363b 3e12 833c
00000190: 2a8c 64bd 789c 193d 25c9 d5bd 0620 42bc
000001a0: 3a8e 85bd 3ae9 3f3d 9263 f7bd 2b15 eb3c
000001b0: c876 36bd 3338 f7bc 8002 81bd 8d08 2d3c
000001c0: 6d38 6bbc 0c9a 9c3d 581c b13d 2d88 42bb
000001d0: 8328 53bd 1eb7 1b3d 098f 3d3b 373b 2abc
000001e0: 4938 a9bd 5ee0 953d 8abc 773d c45c dcbc
000001f0: 4a3d ccbd 2d1f 5fbc ef82 9bbd 7253 283d
00000200: 62b1 b53d 25fe efbc 9449 ddbb 96a0 efbc
00000210: d48a 6f3d 746c 0c3e 47e1 f53d 52a9 b93b
00000220: 6bea e7bd f8cd 143e c3d8 2a3d 0e5f a2bc
00000230: 5011 b4bf ad20 5bbd 40d0 503e b43c 9f3c
00000240: a874 f03d 357b d53d a917 56bc 4d5d 433c
00000250: 3256 8bbc 6d11 8abc b7b5 25bc 5cab 8bbe
00000260: 171f f63d ad6b 9d3c 996e 7c3e 5f11 d73c
00000270: 013c 1f3d 309a 193e 99f7 59bd 1ee8 683d
00000280: e197 4e3e d399 023e f0fa 0fbc ea2a c03c
00000290: bbdb d43d d615 23bd e1f9 df3c c100 32bd
000002a0: e814 3c3d 8fec 9e3e b741 bd3c f383 d4be
000002b0: a135 573a d011 14bf 70b5 6a3e 1df4 f23d
000002c0: 2b1a 813a e28f 87bb 03ec 9d3d 4f44 97bd
000002d0: 0d5c 78bd 9dcd cd3c a745 303e b266 5fbd
000002e0: 152b a83b 36eb 773d 97df 923c c281 3c3a
000002f0: b99a bdbd f6a5 75be e284 c33d 66be 233d
00000300: ed48 ebbc ed3b ba3c d0ba fe3d 9993 28bd
00000310: f40c 8fbd 0cbe c1bd 429b f43d 2f50 f73b
00000320: 7f23 25bd 1a02 92bd 46e5 a5bc 7001 acbe
00000330: 93a5 9bbf 514a fbbb 7e6c 983d f0a6 8a3d
00000340: f5a4 363d 5f93 1ebe 578c c4bd 5e54 e5bd
00000350: 42f6 173d ab89 b43c 5271 3bbd 3744 af3d
00000360: 3e06 07bd 70eb e83d c8eb 113e c935 3f3d
00000370: 605c b33e e795 de3d f10c 3ebd b2f1 293d
00000380: e8a6 6dbe 5b1e b0bd b70e 5f3d 3402 f0bb
00000390: 1060 a23d 5256 793e d906 a13d 88f4 093d
000003a0: 6787 1a3d 4dff 85bd 888e 7c3a 0814 34bd
000003b0: d38c 113f 376c 323b 10d7 c13b 6a6d 243c
000003c0: 6f81 29bd d924 d53c 7331 1dbd 52e3 123c
000003d0: e7fe f63d 51cd 5f3c 9fe0 363d bbe4 f43d
000003e0: 8692 14bd 8636 9fbd 26a9 693d 0b55 af3d
000003f0: c8ce 87be f088 3b3d 53cf f7bc 9147 f43d

layers.1.bias f4 [128]
-0.053957485 -0.015450843 0.13410254 0.016102778 -0.08626078 -0.051945496 0.062340595 0.0013661486
0.04664383 0.10915845 0.090901904 0.076139934 0.01416518 0.04288461 0.00859175 -0.04192528
0.020498484 0.06030202 0.050963476 0.038526066 0.0066301716 0.07841859 0.065562576 0.065654084
-0.056064233 -0.039447557 -0.07727989 -0.060554028 0.07431256 0.05834876 -0.03888136 0.08370526
0.09860246 0.011579463 0.09814912 -0.059745714 -0.07133829 -0.014776636 -0.07124975 -0.050636396
0.056909174 0.06795882 -0.032547683 0.017579192 0.038928553 0.09920125 -0.026133776 0.09124594
0.038237996 0.13641787 -0.05719157 0.05990445 -0.04581525 0.025086312 0.11385097 -0.020418946
0.10351775 0.038707 0.019474436 -0.042672746 0.066561356 -0.025783308 -0.0446509 0.00021985915
0.05284699 0.005488315 0.052186962 0.091596514 0.13277346 0.10017924 0.058934048 0.12645294
-0.07362496 -0.0365262 0.014752995 0.053175077 0.012366099 0.023418166 -0.06822755 0.07636517
0.025081465 0.06560768 -0.04208982 0.029260436 0.008203116 0.0907455 0.0420287 -0.0095109595
0.036375426 0.059140176 -0.07913522 -0.027549174 -0.019265093 -0.08501902 0.12477221 0.1213905
-0.091467336 -0.024609216 -0.040826462 0.021704732 0.006508537 0.06603409 0.102793045 -0.01638551
0.07666284 -0.050262652 0.0693296 -0.06867713 0.027051402 -0.05213495 -0.11881402 -0.02453436
0.015842311 0.07318105 0.07340079 0.023520594 -0.018084615 0.089156 0.06729843 -0.064173244
-0.065582745 -0.07076499 -0.068524376 0.114328325 0.09522612 -0.00070485985 0.06631582 0.0048222863
00000000: 8602 5dbd 8825 7dbc 2d52 093e f9e9 833c
00000010: 7ea9 b0bd cdc4 54bd da58 7f3d 5710 b33a
00000020: 9a0d 3f3d 778e df3d c72a ba3d 41ef 9b3d
00000030: 1215 683c c6a7 2f3d 69c4 0c3c d8b9 2bbd
00000040: 70ec a73c 40ff 763d 14bf 503d 82cd 1d3d
00000050: e941 d93b ed99 a03d ac45 863d a675 863d
00000060: 9ca3 65bd c393 21bd eb44 9ebd 8007 78bd
00000070: 2f31 983d 1cff 6e3d 1042 1fbd aa6d ab3d
00000080: 16f0 c93d cab7 3d3c 6802 c93d ecb7 74bd
00000090: cf19 92bd b419 72bc 64eb 91bd 1c68 4fbd
000000a0: 9819 693d fe2d 8b3d b850 05bd 3d02 903c
000000b0: 8c73 1f3d 062a cb3d 8016 d6bc 27df ba3d
000000c0: 729f 1c3d 20b1 0b3e b541 6abd 5e5e 753d
000000d0: c6a8 3bbd cf81 cd3c b32a e93d a245 a7bc
000000e0: 1d01 d43d 3b8b 1e3d da88 9f3c 9ec9 2ebd
000000f0: 5251 883d 8437 d3bc dde3 36bd fe89 6639
00000100: 1676 583d 53d7 b33b ffc1 553d f496 bb3d
00000110: c4f5 073e c62a cd3d d464 713d e17c 013e
00000120: afc8 96bd 7f9c 15bd 8cb6 713c 1cce 593d
00000130: 2e9b 4a3c 74d7 bf3c e3ba 8bbd 5865 9c3d
00000140: a577 cd3c 525d 863d 6066 2cbd 95b3 ef3c
00000150: 5d66 063c c7d8 b93d 4926 2c3d dbd3 1bbc
00000160: 66fe 143d f83c 723d a511 a2bd ceae e1bc
00000170: d4d1 9dbc 741e aebd 9388 ff3d 959b f83d
00000180: 3a53 bbbd 4499 c9bc a639 27bd 1fce b13c
00000190: 9145 d53b e23c 873d 2985 d23d e83a 86bc
000001a0: 6801 9d3d 36e0 4dbd adfc 8d3d 98a6 8cbd
000001b0: e79a dd3c 758b 55bd c454 f3bd 48fc c8bc
000001c0: bcc7 813c f2df 953d 2753 963d 43ae c03c
000001d0: 3026 94bc 6c97 b63d c2d3 893d 436d 83bd
000001e0: 3f50 86bd 3ced 90bd 8256 8cbd f824 ea3d
000001f0: e905 c33d 58c6 38ba 97d0 873d 4504 9e3b

readout.weight f4 [1, 128]
0.0829994 0.14033794 -0.14250503 0.07225397 0.046051938 0.059994854 -0.55131626 -0.512496
0.28704464 -1.4085582 -0.28965265 -0.008899644 0.06800608 0.068491034 0.075650625 0.027719574
-0.14543168 0.06762892 -0.030144406 0.112686165 0.097307466 -0.9677797 -0.18981048 -1.0574062
0.39507407 0.07920978 0.05002919 0.10759933 0.06297656 0.04329394 -0.041151088 0.07636164
-0.2634983 0.11414598 0.0955737 -0.112789065 -0.6833755 -0.16032733 -0.07475217 0.07308477
-0.30787784 0.13317025 -0.038308002 0.10569307 -0.056771487 0.14302523 -0.035840467 0.06189357
0.1156634 -0.2164871 0.09015209 -0.31985763 0.12875293 -0.19286694 -0.15331388 -0.22050597
-0.15254158 0.086408414 0.07483782 0.101424634 -0.1249728 -0.2939702 -0.0021214848 -1.206471
-0.4027325 -0.37934056 -0.20183638 -1.0952257 -1.3483456 -0.15788098 0.04890177 -0.18271142
-0.04135367 0.06985411 -0.23014282 -0.2339224 -0.06175729 -0.013177183 0.045910265 -1.4696268
-0.17030452 0.09089681 0.03726863 0.029514754 -0.16997625 0.06286446 0.08267796 -0.08139299
0.044503182 0.038086466 -0.042853452 0.08736882 -0.16218011 0.040845193 -0.16848226 -1.4017192
0.0451058 0.025031086 -0.5465743 0.06960117 0.1013729 -0.8153652 -0.20162135 0.01609506
-0.43281117 0.045546826 -0.2381259 0.020872978 0.09499322 0.032281745 0.64798975 -0.26083285
0.07696484 0.08766489 0.08545923 0.12641832 0.11262826 0.107428305 -0.08728014 -0.30077887
-0.36685562 -0.02456551 -0.012550817 0.3405511 -1.9529753 -0.58951163 -0.05080425 -0.41277722
00000000: 97fb a93d c0b4 0f3e d7ec 11be e4f9 933d
00000010: f5a0 3c3d 2abd 753d 1023 0dbf f032 03bf
00000020: 84f7 923e a34b b4bf 5a4d 94be d0cf 11bc
00000030: c646 8b3d 0745 8c3d b7ee 9a3d 2914 e33c
00000040: 0bec 14be 0881 8a3d 67f1 f6bc 01c8 e63d
00000050: 2349 c73d 69c0 77bf ae5d 42be 1659 87bf
00000060: 2647 ca3e bd38 a23d 68eb 4c3d 0a5d dc3d
00000070: dbf9 803d fd54 313d 0b8e 28bd 7e63 9c3d
00000080: 40e9 86be 5ec5 e93d 25bc c33d f4fd e6bd
00000090: b2f1 2ebf d92c 24be aa17 99bd 78ad 953d
000000a0: 2aa2 9dbe c85d 083e dae8 1cbd 9c75 d83d
000000b0: 3889 68bd 3575 123e 74cd 12bd 1d84 7d3d
000000c0: efe0 ec3d cbae 5dbe a9a1 b83d 61c4 a3be
000000d0: cfd7 033e e97e 45be 50fe 1cbe 51cc 61be
000000e0: dc33 1cbe e5f6 b03d 9244 993d b8b7 cf3d
000000f0: bdf1 ffbd 4383 96be 9c08 0bbb a46d 9abf
00000100: f432 cebe ed38 c2be 32ae 4ebe 5b30 8cbf
00000110: 9796 acbf 8dab 21be 394d 483d b418 3bbe
00000120: 7762 29bd ac0f 8f3d 8faa 6bbe 5b89 6fbe
00000130: 36f5 7cbd 1de5 57bc 670c 3c3d bb1c bcbf
00000140: 4f64 2ebe 1b28 ba3d fea6 183d edc8 f13c
00000150: 410e 2ebe 15bf 803d 1053 a93d 5eb1 a6bd
00000160: f848 363d 8e00 1c3d 1a87 2fbd 6dee b23d
00000170: 8b12 26be 4a4d 273d 9d86 2cbe 896b b3bf
00000180: dcc0 383d fe0d cd3c 4bec 0bbf 0f8b 8e3d
00000190: 989c cf3d c6bb 50bf d475 4ebe cad9 833c
000001a0: 6d99 ddbe 4f8f 3a3d 47d7 73be cffd aa3c
000001b0: ce8b c23d dd39 043d a8e2 253f e28b 85be
000001c0: be9f 9d3d a689 b33d 4005 af3d ce73 013e
000001d0: a5a9 e63d 5f03 dc3d eebf b2bd b0ff 99be
000001e0: 80d4 bbbe 9c3d c9bc f1a1 4dbc b75c ae3e
000001f0: 18fb f9bf 3cea 16bf 1e18 50bd 8957 d3be
