9_gym-DDPG/results/DDPG_Pendulum-v1_eps0.1_t32_l0.001_update100_s277_1000.pth (torch, 176442 bytes, 12 tensors)

layers.0.weight f4 [128, 4]
00000000: 9687 04bf 5446 b3be 316a 4e3d 56b5 b6be
00000010: b33d 203f dc3c bb3e c0c5 6abd 71ee 993c
00000020: 4be4 89be 5f65 f8be f111 603d 09e7 45be
00000030: 7439 d4be b4d5 89be 71a0 acbe 2965 65be
00000040: 2e2b 96be 4a3e 79be 7b78 563e 6460 6e3e
00000050: 9fe8 c93e 05fb a7bc ffc1 75bd 2fee d13e
00000060: 77ef 053f 411b 9abe d2a1 40be 9982 efbe
00000070: 333d 7c3c 14f2 0cbe afdf e83d ccf7 ab3e
00000080: ee28 a13e a93b 873e 7498 7f3e 36d7 073e
00000090: 50cc f23e 0a0f f23e e190 043e ddc0 e0be
000000a0: a344 743e 04bb 79be 0a1e ec3e 9e14 ca3e
000000b0: 143c 10be 14d0 89be 1c2e ef3d da93 fe3e
000000c0: 718f 6f3e b556 2e3e 93f5 453e 1a34 eb3e
000000d0: 63fb bd3e 2494 20bf afb5 103e d8eb f0be
000000e0: e024 153d e64e bcbe 3c73 153d 750c 983e
000000f0: 446b 08bf 0532 85be 016c b4be 7156 35be
00000100: 3e41 24bc 8f18 e53e f0c1 653e 4ecb d1be
00000110: ffaa 06bf e62b ed3e d912 f1bb dc32 c5be
00000120: b06b bbbb de4d cbbd d5a3 e4bb 97f9 113d
00000130: ded8 9cbe cd2f 183f aaa7 c7bd 0440 783e
00000140: 5d25 c0bd 6077 2abe d5aa edbe 3415 67be
00000150: 7e04 943e 6d28 df3e 89a5 8c3e 905b 96be
00000160: deba dabd bc99 a63e 47df 96be 8207 a1bd
00000170: 5329 bdbe 5f21 a93c d4d3 11bb 6e11 0cbe
00000180: 04a7 51be 4bc9 483d d4ee 3b3d abb1 6e3e
00000190: f6ef 1c3f 201e 0f3d ecf1 c73e 307f e73e
000001a0: 66a2 5b3d 89e8 1e3f e758 533e e156 b4be
000001b0: 8f7e d2be ad39 0dbf 1b13 2dbe 2239 023f
000001c0: a271 933e 0585 35bf 0852 003e 87e8 813e
000001d0: f4c9 083f b762 a53e c9c1 9e3e ed46 a53e
000001e0: d4d2 0fbf 25d2 cf3d ea4b 903d d881 b83e
000001f0: 1bc7 68be d441 723c 10cd bb3d ec00 99be
00000200: cf51 78be aa9a a33e 8a98 373b e35a 043c
00000210: 1985 9b3e 2aea 04bf 9ba9 88be 05c2 24bf
00000220: ed8e 75bd e80d f63e 52c1 413e d477 c23d
00000230: 770e 6ebc b95f c03e 51a5 89be 5a21 943a
00000240: 90df 5dbe cf7a 273f a7dd 593e 7c4f 50be
00000250: 5321 17bd a37e 3b3f a2c1 543e 812e bdbe
00000260: 22a1 e0bd 5349 513f 9605 dbbd ec26 cc3d
00000270: b34c a8be c67c 98bd e7aa 1b3d 5606 d83e
00000280: 00de 833e 2923 073f 24b8 9ebe d563 01bf
00000290: 1f0c b43d b22a 08bf 5b2b 93be 6322 243f
000002a0: 84f5 87be 496a 55be e1b3 f13e b098 3d3e
000002b0: a23c af3e 0bb0 1abe 7aae d8bc 450c ccbe
000002c0: 981a 943e 233e b03e 9283 783e 146e b63e
000002d0: 5a19 d43e f4f3 c2be 09f3 d7bc 75a0 98be
000002e0: 586d f0be f0cb 9dbe 2637 b5be d1f8 d8be
000002f0: bb43 61bd eafb 57bf c2b7 d33d 0e86 0abe
00000300: b9dd 873d 1d0a e0be fe5b 243d 5913 cb3d
00000310: 4d73 8fbd e267 093f 78c1 93bd f6a2 4d3d
00000320: d17a f3be 60cf 2cbe 273a e13e 2fd6 01be
00000330: e8b9 96be 586a b73e af2e 83bd 9d7a f1be
00000340: 171f 493e 45bd 45bd 4457 5dbe 95ea 0a3f
00000350: beca 65be 0f99 383f b12a 38be dd66 b6be
00000360: 17da f13e fcc1 0bbf 1404 7c3e 2af3 53be
00000370: 720c adbe 6046 a53e 991b 9d3d e62c 9dbe
00000380: a30a 933e 908d 1a3f 5bfc 833e 14fb 4dbe
00000390: 2873 6bbe 5995 e8be 40c9 a6be bdb5 303e
000003a0: ad07 963e 2fc3 65bd 1cb8 eb3e 6755 0e3e
000003b0: 3eb8 27be 3153 18bf 8fb7 e03d 3777 b43e
000003c0: f4ef 70be 6d47 d7be 1b56 7fbe 8f0b 2bbd
000003d0: a901 ecbe c3da bbbe c9f0 f83e 3423 fc3d
000003e0: a17c fcbd bf32 cfbe 70b1 59be 2d1e 17be
000003f0: 4776 e33e ab6e b63e 4c6c 153f 8fbd a93d
-0.5176939 -0.35014594 0.05039424 -0.35685223 0.62594146 0.3656987 -0.057317495 0.018790456
-0.26931986 -0.4851484 0.05470461 -0.19326414 -0.41450083 -0.26920855 -0.33716157 -0.22401871
-0.29329818 -0.24340168 0.20944397 0.23278958 0.39435288 -0.020505438 -0.059999462 0.41002032
0.5231852 -0.30098918 -0.1881173 -0.46779326 0.01539545 -0.1376422 0.11370789 0.33587492
0.3147654 0.26412705 0.249605 0.1326569 0.47421503 0.472771 0.12945892 -0.43897143
0.23854308 -0.24387747 0.46116668 0.39468855 -0.14085418 -0.26916564 0.116787165 0.49722177
0.23394562 0.17025264 0.1933196 0.45938188 0.37105855 -0.62726045 0.14131807 -0.47054935
0.03641212 -0.36778945 0.03648685 0.29697004 -0.53288674 -0.26014724 -0.3523865 -0.17708756
-0.010025321 0.447453 0.22437263 -0.40975422 -0.5260467 0.46322554 -0.007356983 -0.38515365
-0.0057196245 -0.09926961 -0.006977538 0.035638418 -0.30634207 0.5944794 -0.09748776 0.2424317
-0.093821265 -0.166471 -0.46419397 -0.22566682 0.28909677 0.4358553 0.27470043 -0.29366732
-0.10680173 0.32539165 -0.29467222 -0.0786276 -0.3694559 0.020645795 -0.0022251504 -0.13678524
-0.20473868 0.049020093 0.04588206 0.23309962 0.6130365 0.03494084 0.3905176 0.45214224
0.053621672 0.6207357 0.20639382 -0.35222533 -0.41112182 -0.5516613 -0.1690182 0.5086843
0.28797632 -0.70906097 0.12531292 0.25372717 0.53433156 0.32301876 0.3100722 0.32280675
-0.56181073 0.10147504 0.070457295 0.36036563 -0.22732203 0.014786202 0.09169972 -0.29883516
-0.24249958 0.31953937 0.0028014504 0.00807831 0.30374983 -0.51919806 -0.266919 -0.6435855
-0.059950758 0.48057485 0.18921402 0.09495512 -0.014529816 0.3757303 -0.2688394 0.0011301443
-0.21667314 0.65421766 0.2127596 -0.20342821 -0.036897015 0.7324011 0.2077699 -0.36949542
-0.10968234 0.8175251 -0.10694425 0.09968361 -0.32871017 -0.07445674 0.038004782 0.42192334
0.2575531 0.52788025 -0.30999863 -0.50542957 0.087913744 -0.5319015 -0.28744015 0.6411497
-0.265545 -0.20841326 0.4720755 0.18515277 0.34225947 -0.15106218 -0.026450384 -0.3985311
0.2892654 0.34422407 0.2426894 0.35630858 0.41425592 -0.38076746 -0.026361005 -0.2980992
-0.46958423 -0.30819654 -0.35393637 -0.42377332 -0.054996233 -0.84368765 0.103377834 -0.135277
0.06634087 -0.43757716 0.040126793 0.099158 -0.07004414 0.5367414 -0.072146356 0.05020424
-0.4755464 -0.16875982 0.4398968 -0.12679361 -0.2943871 0.3582332 -0.064053886 -0.4716386
0.19640766 -0.048276205 -0.2161532 0.54264194 -0.22440621 0.7210855 -0.17985035 -0.35625353
0.47236702 -0.5459287 0.2461093 -0.20698228 -0.33798558 0.32280254 0.076712795 -0.30698317
0.28719053 0.6037226 0.2577847 -0.2011531 -0.22993147 -0.45426443 -0.32575417 0.17256828
0.2930273 -0.056094345 0.46038902 0.13899766 -0.16378877 -0.5950194 0.10972511 0.35247204
-0.23529035 -0.4204668 -0.2493519 -0.04175907 -0.46095017 -0.3669034 0.48621204 0.12311402
-0.123284586 -0.40468404 -0.21259093 -0.14757605 0.44426176 0.35631308 0.5836837 0.082881086

layers.0.bias f4 [128]
00000000: 1c4d 013e e1f6 903e 1eb0 9d3e 3ce7 623e
00000010: 99fe e9be 7e33 91be 0388 42bd 480f cabe
00000020: 7772 643e ec2b 343e 0bfb 283e c2c0 9a3e
00000030: 4adf d43e cf79 ac3e 6266 4f3e 20b3 c8be
00000040: 2d86 ccbd 71c2 fd3e b2f1 fc3e 094f ab3e
00000050: 2233 5e3e b22e f93e 3b11 c73d d95e 183f
00000060: 43ac d03e dd6c 1c3e 1a97 843e 46d0 863e
00000070: 381f ee3e d39a 883e d2c8 113e 7b02 b8be
00000080: 99a8 d6be 9bf7 163d 67c5 f3be 3218 f73e
00000090: cbff edbe 1e83 fc3e f0bf 983e dd60 7dbd
000000a0: 7faa c93e fc5b b33d 3885 973d f907 453c
000000b0: 9b03 bd3e d7c3 103e 9e2f fb3e 80af 043f
000000c0: fd17 42be bb0b 15bf 927b 0dbe a017 10be
000000d0: 498b ec3e 136d cabe ddaf 4a3e dd53 663e
000000e0: 0f2c 65be 27aa 0f3f 8d6e 423e 2146 dcbe
000000f0: f7ce 41be 1e73 263e 3570 18bf ee82 26bb
00000100: 913d 97bd b7b5 16be 1c75 c9be caa9 b53e
00000110: 8c85 f8be 2bd2 12be 3f08 1e3e e286 ef3e
00000120: 3c64 f0be 242b 023f c495 db3e 52cb 21bd
00000130: 9d69 b0be b46a 09be e470 e0bc ce07 c1be
00000140: 9e2a 7e3e d876 66be 36cf 7e3e 11ce 183e
00000150: e82b 08bf 285e a73e 8757 bcbe 56b1 b1be
00000160: c111 0d3f 9b73 b13e a56f c2be 841d 623e
00000170: 7079 ac3e 4caf de3e 5e96 14be d9c9 9cbe
00000180: 156c 28bd 550e d83e 2a40 c03e be57 d9bd
00000190: 0072 f1be 5762 debe 6779 053f 2cb0 99be
000001a0: cef6 c3be cf5d ddbe ccd2 b13e 9729 f9be
000001b0: 918f a9be d9ba c8be d65f 1b3d 0583 773d
000001c0: c899 e03d 0808 f9be 7429 943e 5287 14bf
000001d0: 725c a33d 3977 0b3f 40f7 d8be 6ec8 e83e
000001e0: eb9a 0f3f 2436 1a3e c40c 113f e98c 02bf
000001f0: 9438 53be 4551 753e 56fc 41be 3cdb acbd
0.12627071 0.28313354 0.3079843 0.22158521 -0.45702055 -0.28359598 -0.047492992 -0.39464784
0.2230929 0.1759488 0.16502015 0.30225188 0.41576606 0.33686683 0.202539 -0.39199162
-0.099865295 0.4956241 0.4940315 0.33458737 0.21699193 0.48668438 0.09720083 0.59519726
0.40756425 0.15275903 0.2589653 0.26330775 0.46508193 0.26680622 0.14236763 -0.35939392
-0.41925505 0.03685723 -0.47611544 0.48260647 -0.46484217 0.49318784 0.29833937 -0.061859954
0.3938789 0.08757779 0.07398456 0.012025827 0.36916813 0.14137207 0.49059767 0.5183029
-0.18954463 -0.58221024 -0.1381667 -0.14071512 0.46200016 -0.39536342 0.19793649 0.22492929
-0.22380088 0.56119007 0.18987484 -0.43022254 -0.18926607 0.16254851 -0.59546214 -0.002540763
-0.0738479 -0.14717756 -0.3934716 0.354811 -0.48539388 -0.14337985 0.15432833 0.46782595
-0.46951473 0.5084708 0.428877 -0.039500542 -0.34455577 -0.1341961 -0.02739758 -0.37701267
0.24820945 -0.22506273 0.24883732 0.14922358 -0.53191996 0.32689023 -0.36785528 -0.3470561
0.55105215 0.34658512 -0.37975803 0.22081572 0.336864 0.43493116 -0.14510486 -0.30622748
-0.0411187 0.42198434 0.37548953 -0.106124386 -0.47157288 -0.43434402 0.5213837 -0.3001722
-0.38274235 -0.43235633 0.34731138 -0.48664543 -0.33117345 -0.39205053 0.037933193 0.060427684
0.109668314 -0.4863894 0.28937876 -0.5801898 0.07976617 0.54478794 -0.42376137 0.45465416
0.5609576 0.15059716 0.56660104 -0.5099626 -0.20627052 0.23956783 -0.18943915 -0.08440253

layers.1.weight f4 [128, 128]
00000000: 6c3c 1a3d f31a 5d3d 86b1 3b3e 43c1 343d
00000010: 32c3 5fbd c028 89bd 20b0 0ebe 943d 533d
00000020: 8d55 28bd 6da8 ebbd 8bca e43d c1aa c23d
00000030: 2d68 e03d b581 e13c e1a8 973c 083a aebc
00000040: c2f7 24be 190b d53d e2d3 013e 5d98 3a3e
00000050: b44d 333c ff32 003c a162 82bd 64f7 083e
00000060: cf82 f53b e657 183d c696 a8bd 676e 893e
00000070: fb20 bb3d d54f debc 13bc 6b3d 313e a9be
00000080: 0008 33be ca16 17be 67cf 823d a082 023d
00000090: a97d f6bd feac fcbd 35fe b53d 2456 383d
000000a0: 0a5f 13bc a0aa 613e 362d af3d 8f90 23bc
000000b0: 1817 83bc cdea b43c c098 8abb 7e2e 1a3e
000000c0: 7e71 313d 83dd a7bd 5399 823d 554e edbc
000000d0: 2e9b 5f3e 303d a3bd 283b 0dbe e923 d5bd
000000e0: 2353 d8bd 672b 443d 0a9b cb3d e0f9 3dbd
000000f0: 7d80 7a3d a7b6 a53d 320c d13d 28ba 30bd
00000100: 2785 553d 01c4 b63d a47b b93c 4f8a 873d
00000110: 35e2 67bd fa83 08bd 272b ca3d 78d7 2b3d
00000120: 562e 4a3d 2631 a1bc 1aa0 50bc 80da c43d
00000130: b3f9 4dbc b355 37be 285a 6cbe 8827 65be
00000140: a27a b6bc 0985 a9bd b7b0 59bd 0611 10be
00000150: c30f 23be 21da 9dbd cd0f 863d ba49 453c
00000160: f6ad 9b3c 9af2 ca3d 2ebc ed3b c75b 85bd
00000170: fa7e 0cbc 1197 143c aebe 91bd f025 9abe
00000180: bed3 99bd 52f1 a43e 795b 32bd ee54 0d3d
00000190: 44b1 07be 51f1 94bd e271 7e3e 9107 50bd
000001a0: 8e22 023e 6088 8c3c 9d4e 5e3e 93cf a73d
000001b0: 4a7b 68bd b726 41be c7d0 473e e2c6 103d
000001c0: f5c8 0f3e c681 f4bd 8ae6 383d 2b14 4bbe
000001d0: a415 2c3d 25e5 5a3e fe3c 8a3c 1e14 263d
000001e0: 3a43 bdbd f39f 7d3b 33ee 803e 9ccb 83bd
000001f0: 97cb 65be 0a1e 193e fc53 7bbd fdd5 c7bd
00000200: c22d db3d 4f92 dd3d 6d5b 153c 2cff 343d
00000210: fa17 e8bd a794 8f3c c3bb 0c3d ea2f 4fbd
00000220: b88c ca3d c49e f8bc 5e5e a5bc dbec 4abb
00000230: cb0d ad3d 7e21 403d cac0 983d 8916 4fbd
00000240: 92a3 053d 7b87 d5bd f72e 4c3d b972 423a
00000250: 4911 b53c a16b f73d 7e8e 5bbd e0fc 1abc
00000260: 746a ce3d 7aa3 923d 1408 17bd c892 a53d
00000270: 4d7a b4bd 9f41 1bbc 92f5 9b3d f1bc c4bd
00000280: dc45 f4bd df0f 50bd 2fe7 d1bd dc11 1e3d
00000290: 312a e8bd 1c21 fcbc 9a21 55be db31 2abc
000002a0: 6cfb 943d 8de3 8fbd 3bee 3d3c ad25 05bc
000002b0: 9209 a63c aec1 bfbb 7996 543c 5629 2b3d
000002c0: d1de 1a3e 8ca5 23bd 80b3 493c c020 3ebd
000002d0: f7ab aa3c 2432 793d 70be 7f3d 4a1d 0cbe
000002e0: 15d4 543c d0e9 023d 4140 aa3d 4782 503c
000002f0: e218 adbd eb95 78bd 09bd 7cbd 5cc3 0cbd
00000300: 4b18 043e 7d8c 03be fca5 56bc 0e10 86bd
00000310: a4dc adbd 5fb9 993d 225e 613e 069e fd3c
00000320: 47b8 eebc 3ae7 963d e408 a43d e06f fa3d
00000330: bbbd b73b b9b0 8ebb a103 22bd 7be2 14be
00000340: e50c 1a3d 0734 78be c556 b9bd aa3e be3c
00000350: 356d 63bc c9df 25bd 891e ecbd 9c6b febd
00000360: 4724 fc3d 5a46 99bd 04ae 85bc 4ebc 893d
00000370: aab8 053d f1fe 893c d25b 70bb 4a43 af3c
00000380: 37c3 2b3d 9b7f b73d aea0 a73c 2973 cf3d
00000390: a835 5b3d 4c15 383d 4c29 9cbd c55c f93d
000003a0: 4fbe 10bd 6fbb a5bd b426 b43d d1f6 8ebd
000003b0: f66b 04be bffd 3f3d 53d1 94bd c001 7d3d
000003c0: debe f03d 003b f2bd 0b53 5a3d b88a 92bd
000003d0: 1ddf 8fbd 050b 3abd 9712 bbbd 6ade c2bc
000003e0: 1c98 ff3c 4604 943d 8196 8abd 4794 38be
000003f0: 9a33 b5bd 5337 f1bc 9d42 e83c 6441 993d
0.03765528 0.05398078 0.18329439 0.04412962 -0.054629512 -0.066972256 -0.13934374 0.051572397
-0.041097213 -0.11506734 0.111714445 0.09505225 0.1095737 0.02752767 0.018513145 -0.021267906
-0.16110137 0.10402507 0.12678483 0.18222184 0.010943819 0.007824658 -0.06366468 0.13375622
0.0074924002 0.0371932 -0.08231883 0.26842043 0.0913715 -0.027137676 0.05755241 -0.3305526
-0.1748352 -0.14754787 0.06387215 0.031862855 -0.120356865 -0.12337683 0.08886377 0.045004025
-0.008994827 0.22037745 0.08553545 -0.009983196 -0.016002223 0.022084618 -0.004229635 0.15056798
0.043321125 -0.08196547 0.063769005 -0.028968016 0.2183654 -0.07970655 -0.13792098 -0.1040724
-0.10562732 0.047892954 0.09941681 -0.046380877 0.061157692 0.08091479 0.10207404 -0.043146282
0.052128937 0.089241035 0.022641964 0.06618177 -0.056612212 -0.033328988 0.09871512 0.041953534
0.049360596 -0.019676756 -0.012733484 0.09611988 -0.01257174 -0.17903785 -0.23081267 -0.22378361
-0.022275273 -0.082773276 -0.053147044 -0.14068994 -0.15923981 -0.077076204 0.065459825 0.012041504
0.01900385 0.09909554 0.007255099 -0.06511646 -0.008575195 0.00906922 -0.071164474 -0.3010707
-0.0751109 0.32215363 -0.043544266 0.034504823 -0.13251215 -0.0727259 0.2484813 -0.050788466
0.12708494 0.017154872 0.21709676 0.081938885 -0.056758203 -0.18862425 0.19513236 0.03534592
0.14041503 -0.11938815 0.045141734 -0.19831912 0.042012826 0.21376474 0.016874786 0.04054653
-0.09241338 0.0038700073 0.25181732 -0.0643532 -0.22440945 0.14952865 -0.06135939 -0.09757612
0.10702087 0.10818922 0.009116036 0.044188663 -0.11332698 0.017526938 0.03435875 -0.050582804
0.09890121 -0.030349143 -0.0201866 -0.003096393 0.084498964 0.04690694 0.074586466 -0.0505586
0.032626696 -0.104262315 0.049849477 0.00074176077 0.022102969 0.120810755 -0.053602688 -0.009459704
0.10078898 0.07160087 -0.03687294 0.08084637 -0.088123895 -0.0094760945 0.07615198 -0.0960635
-0.11927387 -0.050796386 -0.10249173 0.03859125 -0.11336172 -0.030777507 -0.20813599 -0.010387863
0.072745174 -0.07025824 0.011592443 -0.008126658 0.020268235 -0.005851946 0.012975329 0.041787468
0.1512406 -0.0399528 0.012310863 -0.04641795 0.020833952 0.060838833 0.062437475 -0.13683048
0.012990017 0.031961262 0.08313037 0.012726373 -0.08452012 -0.060689848 -0.061703715 -0.034365997
0.12899892 -0.12846561 -0.013101097 -0.06546031 -0.084893495 0.0750606 0.22008565 0.03095914
-0.029140605 0.07368322 0.08009508 0.1222837 0.0056073344 -0.004354563 -0.039554242 -0.1453952
0.037609953 -0.24238597 -0.09049753 0.02322324 -0.013881017 -0.04049662 -0.115292616 -0.124228686
0.12311607 -0.074841216 -0.016318329 0.067253694 0.032646812 0.016845198 -0.0036675823 0.02139439
0.04193422 0.08959886 0.02046236 0.10129387 0.053517967 0.044942185 -0.07625064 0.121758975
-0.035337742 -0.08092391 0.087964445 -0.0698067 -0.12931809 0.04687285 -0.07266488 0.061769247
0.11755155 -0.118276596 0.053301852 -0.07155365 -0.07024977 -0.045420665 -0.09134405 -0.023787696
0.031200461 0.072273776 -0.067669876 -0.18025313 -0.08847733 -0.029445326 0.028352076 0.074831754

layers.1.bias f4 [128]
00000000: 87ff 3d3e 116d d13c 2e04 25be 12e8 b33d
00000010: fcb3 8a3d 83b6 9cbd 70b6 203e ab20 343e
00000020: a779 7dbc db14 323d af07 0c3b 9b12 2e3e
00000030: 2447 df3c 3754 3e3e abd6 0fbd aae4 dcbc
00000040: e0bb 1abd e4b3 b1bc b194 f1bd fed5 0bbe
00000050: 412a 41bc 32f9 e8bc 2f08 8b3d 47f1 b03d
00000060: a624 c6bd fa0c c9bd e7ca d03d c884 cd3d
00000070: 5889 193e ea3f 5f3d c6ae aa3d 00e1 143d
00000080: 9361 13bd ab9d 4cbd 1b95 85bd b2ce 0d3e
00000090: ec61 413e ebb3 0b3e 4477 17bd d478 783d
000000a0: d5a0 093e ea44 18bd e496 ab3d d0ff 10be
000000b0: 7f22 2abe 6367 52be e497 86ba 3188 0e3e
000000c0: 7db3 883d 031a 153e d263 193e ef87 bf3c
000000d0: 2350 b63c aaf6 72bd 2a63 7cbd 8319 2cbd
000000e0: a91f 84bd 503e 2fbe 66f9 65bd 38e8 393d
000000f0: 6fd1 c8bd 1843 4abd 8a90 41bd aac1 9ebd
00000100: 44fb 28be c621 18bc f4b7 ab3c 4ae4 14be
00000110: 7cba 6a3d 5cd7 abbc 1802 0e3e d451 3fbd
00000120: 3a4f d93d 9fae 41be a71b 5ebe 0d21 c93d
00000130: b4e6 fcbd c2f7 9539 15dc 14be 265b 16be
00000140: 5f87 f6bd 02e4 d23d ac74 6bbd 41f3 073e
00000150: 0f26 9cbc 3192 993c 8add 703d 674f 52bc
00000160: 2328 e33d 3236 e63d 5b95 183e e738 e73d
00000170: 61f1 5c3c 2ccd c0bd 8aff 96bc 5b37 70bd
00000180: 2739 be3d 5e98 1fbe 976b 0dbe e7ef 1c3e
00000190: 970f 16be 8ba4 17be 0a9b 25be 63e3 9bbd
000001a0: e7d9 32be 49a0 82bd fae5 bebd 814e 67bd
000001b0: 5fca 50bd 8a52 883b 179d 81bc 8116 ffbd
000001c0: f69d 2e3d b9d7 d63d ad25 a8bc f20e 76bd
000001d0: 1168 043e f145 693c d045 0a3e 3ccb 36bd
000001e0: 6f64 67bd 26fc 34be 3434 cd3d 5335 1e3d
000001f0: d2b8 a0bc 4646 03be 7efe 973d 5764 b63d
0.18554507 0.025564702 -0.16114876 0.08784498 0.067726105 -0.07651999 0.15694594 0.17590587
-0.015470899 0.04347692 0.0021366884 0.16999285 0.027255602 0.18586813 -0.035116833 -0.026964504
-0.037776828 -0.021692224 -0.11795939 -0.1365585 -0.011789859 -0.028439138 0.0678867 0.0863977
-0.09674959 -0.09816928 0.101949506 0.10035092 0.14993799 0.054504313 0.08334117 0.03634739
-0.035981726 -0.04995505 -0.0652258 0.13848379 0.1888501 0.13642852 -0.036978975 0.060662106
0.13440259 -0.037175097 0.083783895 -0.14160085 -0.16614722 -0.20547251 -0.0010268656 0.1391914
0.0667486 0.14560704 0.14979485 0.023380248 0.022255009 -0.05931727 -0.061618008 -0.042016517
-0.06451351 -0.17113614 -0.056146048 0.045387477 -0.09805571 -0.04938039 -0.047256984 -0.07751782
-0.165021 -0.009285396 0.02096174 -0.1454021 0.05730675 -0.020976715 0.13867986 -0.046708897
0.106108144 -0.18914269 -0.21690236 0.09820757 -0.12348691 0.0002860409 -0.1453708 -0.14683208
-0.12037539 0.10297395 -0.057484314 0.13276388 -0.019061117 0.018746467 0.058805026 -0.012836314
0.1109164 0.11240806 0.14900725 0.1129015 0.013485284 -0.094141334 -0.018432397 -0.05864654
0.09288245 -0.15585467 -0.13810574 0.1532589 -0.14654385 -0.14808862 -0.16172424 -0.0761173
-0.17465936 -0.06378228 -0.09321208 -0.05647135 -0.050974246 0.00416023 -0.015821977 -0.12455464
0.042631112 0.104903646 -0.020525778 -0.060072847 0.12930323 0.014237867 0.13503194 -0.044627413
-0.056492265 -0.17674312 0.100197226 0.038625073 -0.01961938 -0.12819776 0.074215874 0.08905857

layers.2.weight f4 [64, 128]
00000000: 6eae 00be 270b dc3d 8c81 4c3d a223 723b
00000010: 129e 74bc 1b0a 363e 8171 14bd dc5e 5c3c
00000020: 229c a8bd 42fd 81ba 86fe abbc bb7c 12be
00000030: 6acb b33c ab64 60bd eb6e d73d a5aa c23d
00000040: b39a e0bd 26fc b7bd 7f9f 883d e122 513d
00000050: 0e4d 2cba a371 25bd 4797 20be e837 9cbd
00000060: 5bd4 4cbd 3631 c93d d4eb c4bc 3a81 c0bd
00000070: 7b35 d8bd e0c4 63bd 429f 3e3e d491 babd
00000080: e71a ccbd b9ee 90bd 13fa ba3b de27 00be
00000090: 8200 6abe 3966 37be 5984 383b d40d e43c
000000a0: 83d1 eabc 126f f93c 01c8 b93c c855 583d
000000b0: dae4 833e d277 223e 7fb0 ef3c 13e3 11be
000000c0: 3195 053d 5438 8bbe eadf 20be f4a8 813b
000000d0: 77c7 89bd 84d5 313e 883d 48bd 4317 45bd
000000e0: 2f38 a03d 584b ddba 1ff1 943d 0019 a93d
000000f0: 2410 323e c528 be3d 24c4 9d3a 9f82 5b3e
00000100: 4200 a23d 562c 623d c767 c43b 6dd8 213d
00000110: feae 99bc 3d7b c7bd 0289 2fbd 1a06 3e3c
00000120: dc9c 3c3d 9a01 1b3b 6fe5 733e e0bc b13c
00000130: 07b8 e5bd 09ea 233e 2c56 e93d 46d9 7a3e
00000140: 24b3 80bc 4856 3abd ebf0 3f3e 5030 313d
00000150: 033e 13bd 41ff 803b b490 1dbd b89a 14be
00000160: 5d1a 28be 59fb 93bd 9ef4 98be 3a37 2bbd
00000170: efad 073e 32fb c43d 315e f9bd 342d 2e3d
00000180: c167 5ebe a2f5 523d d4f6 22bb a8df c6bc
00000190: 218a cd3c c019 2abc 6c51 c23d 61ce 1b3d
000001a0: fc0f a23e 5219 39bd d602 9ebd 448b 953d
000001b0: 415c 3abd 61fe 85be 3c8a 8a3e 0a94 f13c
000001c0: 363a 02be d108 ef3c 4d6a c7bd 9414 febd
000001d0: 46d6 edbc f6b0 e2bd bc9a 733a f311 133d
000001e0: a59d 24bb 83f7 593e 4249 08be 2cbd 6c3d
000001f0: 1a5f 5c3d fb2a e8bc 0100 a43c 1cc5 47bd
00000200: 77f6 ddbb 9904 583c eaee aebd 23bf 053e
00000210: db6a 11bc 9e41 52bd c54c e1bc 85a9 663d
00000220: e941 bc3d 693e 393e f99e a43d dcae 1c3e
00000230: 3d7b a93d 8ae5 0cbc c943 72bd c222 6abe
00000240: 8d69 cebd a190 c73d fd58 62bd ad84 b0bd
00000250: ea23 363d e0be 1b3e 5ebe aa3e 9aec 473d
00000260: cbe6 c0bd 2a67 3f3d 9305 a4bc ebc5 15bd
00000270: 5731 e23d b2f4 cc3d edc2 273c 1559 643d
00000280: 21d9 ed3d 0234 bc3b 59fe 0dbe ed47 333e
00000290: df03 0d3e cfb4 083e 54f7 cdbd ebaf 05be
000002a0: 836e 683c 52bf f9bd b943 223c 23fa 5dbd
000002b0: 8980 fdbd 17b0 f4bd c20c d6bc 0f65 003e
000002c0: 5c63 df3d 4f66 493e 04a9 be3c e7f1 ff3c
000002d0: 7e36 0c3e eeec 2dbd 95cf 813c 7464 0abe
000002e0: f747 9abd 6be0 41bc 451a b33b 209e c7bc
000002f0: f1d4 4d3d 554a a63d 3ed5 afbd d346 c23d
00000300: 96ee 7bbc aa80 b43d 345f 0c3e 04e1 7cbd
00000310: 4237 2ebe bb44 813c 9654 0fbd 6f5f 2c3d
00000320: 1ffe 8f3d 9b4f 6dbd 7fd6 37be 5513 20bd
00000330: c7e5 28be 45fb fd3d 1c4c 68bc 7d02 8abd
00000340: 1cd6 103d 12d7 f43d 08f4 6ebd 7f38 f23d
00000350: 755c 2b3d 877e 843d e8c4 df3d 3add 25be
00000360: 2deb b73c cbc7 353e 3424 be3d 7098 813e
00000370: 1c54 46be 22a1 4bbd 3d14 783c 2605 efbd
00000380: f0dd d63c 38d1 b1bd 2a91 eb3c c51e 593d
00000390: 1cdf 60bd 9485 e83b cdb8 87bd 91b5 cfbd
000003a0: 45a1 cfbc 7b81 afbc d21d 433d 2bf4 953e
000003b0: f0f8 ed3d 7e05 0d3e 6f07 d6bd d05d 68be
000003c0: 74e5 f13d 613d f03d 7e62 4fbc ce31 ca3d
000003d0: 7eac 043c bb11 debd d951 663c c7bc b33d
000003e0: dc20 733d 061d 0cbd f56f 35bd 8f77 963d
000003f0: 90ca 613e b3fe 34bc c4b0 03bd e7a3 4d3e
-0.1256654 0.10744315 0.049928233 0.0036947508 -0.014930265 0.17777292 -0.03624106 0.013450351
-0.08232905 -0.0009917396 -0.02099539 -0.14305393 0.021947581 -0.054783504 0.10519203 0.09505204
-0.109670065 -0.089836404 0.066710465 0.051058654 -0.00065727613 -0.040391576 -0.15682708 -0.07627851
-0.050007205 0.09823839 -0.024038233 -0.09399648 -0.105570756 -0.055607677 0.1861544 -0.09109846
-0.09966069 -0.07076783 0.0057060807 -0.12515208 -0.22851756 -0.17910089 0.0028155057 0.027838625
-0.028664356 0.03044847 0.022678377 0.052816182 0.25760537 0.1586602 0.029258965 -0.14246778
0.032612983 -0.27191412 -0.15710416 0.0039569084 -0.06727498 0.17366606 -0.048886806 -0.048117887
0.07823216 -0.0016883416 0.07272553 0.082567215 0.1738897 0.0928512 0.0012036604 0.21436547
0.079102054 0.055218063 0.0059938165 0.03951304 -0.0187602 -0.09740303 -0.04285527 0.011598134
0.04604803 0.0023652078 0.2381799 0.021696508 -0.11216741 0.16007246 0.11393389 0.24496946
-0.01571042 -0.04549244 0.18744247 0.043258965 -0.03594781 0.0039366786 -0.038468078 -0.14512146
-0.16416307 -0.07225675 -0.29874128 -0.041800715 0.13249944 0.09618224 -0.12176169 0.042523578
-0.21719266 0.051503785 -0.002486636 -0.02427657 0.025090279 -0.010382116 0.09488186 0.038038615
0.3165282 -0.045190163 -0.07715385 0.073019534 -0.045498136 -0.26170638 0.2705859 0.029489536
-0.12717518 0.029179009 -0.09737072 -0.12406269 -0.029032838 -0.11068909 0.00092927716 0.03590579
-0.0025118378 0.21285824 -0.13309196 0.057797596 0.053801633 -0.028340807 0.020019533 -0.048771963
-0.0067737657 0.01318469 -0.08541663 0.13061194 -0.008875574 -0.05133211 -0.027502427 0.05631401
0.09192259 0.18090214 0.08038134 0.15301079 0.08275459 -0.008599648 -0.059146676 -0.22864822
-0.10078726 0.09744383 -0.055260647 -0.08619056 0.044467844 0.15209532 0.33348364 0.048809625
-0.0941902 0.046729244 -0.02002219 -0.036565702 0.11044567 0.100076094 0.010239345 0.055749018
0.1161368 0.0057435045 -0.13866557 0.17507906 0.13771008 0.13350223 -0.1005694 -0.13055389
0.014186504 -0.121946946 0.009903842 -0.054193627 -0.12378032 -0.11947649 -0.02612913 0.12538551
0.10907623 0.19667934 0.023273952 0.031243278 0.13692662 -0.042462282 0.015846053 -0.13514882
-0.075332575 -0.011833291 0.005465778 -0.024367392 0.050251905 0.081196465 -0.085855946 0.09486165
-0.015376708 0.08813603 0.13708192 -0.06173803 -0.17013267 0.015779844 -0.034992777 0.0420832
0.070308916 -0.057937246 -0.17952918 -0.039080936 -0.16493903 0.124014415 -0.014178302 -0.06738756
0.03536044 0.11955084 -0.058338195 0.11827182 0.04183622 0.06469446 0.10926229 -0.16197672
0.022451008 0.17751996 0.09284249 0.25311613 -0.19368023 -0.049714215 0.015141544 -0.11670904
0.026228875 -0.086824834 0.028755743 0.05300786 -0.054900274 0.007096002 -0.06627045 -0.10142053
-0.025345454 -0.021424046 0.04763586 0.29287848 0.11619747 0.13771626 -0.104506366 -0.22692037
0.11811343 0.11730457 -0.01265776 0.09872781 0.008097766 -0.108432256 0.0140576 0.08776241
0.05935751 -0.034207366 -0.044296224 0.07347023 0.22049928 -0.011047053 -0.032151 0.20082055

layers.2.bias f4 [64]
00000000: 3fc4 1abe 609c de3d 24ef 83bd 497a 84bc
00000010: 98cc 8fbc f2c0 12be cf62 d5bd 2ea9 dbbd
00000020: 0d07 19be 7811 f73c bea7 9abd e1f6 0dbd
00000030: e576 cdbb 38f5 5abc ed34 a43d 39c1 3d3e
00000040: b0f4 4c3d 0530 b33d 903f 203e 48df 02be
00000050: 1e6a 05be eb1f 133e 1228 0c3b 4d45 22bd
00000060: f833 00be e6cf 10be d1dd 74bd dfec 2cbd
00000070: 47e8 e83d 4b24 3ebd d524 00bd 2464 fcbd
00000080: fa6e 5e3c bc4c 91bc efee 543e a3c6 083e
00000090: bbf9 e03a 7418 283d fe28 1f3e 56ea 473d
000000a0: a456 d1bd 705b a93d fa44 58bc 3d3f 643b
000000b0: 41d6 cebd d817 b13d 5f46 5dbd 1657 e9bc
000000c0: e214 08be fb38 a23c d601 833d cb62 a03d
000000d0: bf03 6b3d 0026 243d 8e83 e73d 9bb0 d2bd
000000e0: 3dca 0a3e 615d 30bd 9871 aa3c 1f55 dbbd
000000f0: 317a 47bc 1279 5ebd 5a0b 18be fe38 c03d
-0.15113924 0.1086967 -0.06442097 -0.016171591 -0.017553613 -0.14331415 -0.10419237 -0.10725628
-0.14944096 0.030159697 -0.075515255 -0.03465927 -0.006270277 -0.013364129 0.08017907 0.1853074
0.05003804 0.087493934 0.15649247 -0.12780488 -0.13028762 0.14367644 0.0021386188 -0.03961687
-0.12519825 -0.14141807 -0.059781853 -0.042218085 0.113724284 -0.04642133 -0.031285126 -0.12323788
0.013576264 -0.017736785 0.20794271 0.13357024 0.0017164269 0.041038945 0.15542981 0.048807465
-0.102216035 0.082693934 -0.013200039 0.0034827732 -0.100994594 0.08647126 -0.05402219 -0.028483909
-0.13289216 0.019802561 0.063968346 0.07831343 0.05737662 0.040075302 0.11304389 -0.10287591
0.1355371 -0.043057803 0.020806119 -0.10709595 -0.012175129 -0.05431468 -0.1484808 0.093858704

readout.weight f4 [1, 64]
00000000: dc97 8d3f ebc6 a6bf d5da 8e3f 55ca 8f3f
00000010: e260 8c3f 6f95 963f 52c9 943f 23a4 913f
00000020: 0629 883f d4ed 8cbf 3e68 8c3f 3fa0 82bf
00000030: a43e 8fbf 9b71 87bf a430 8abf 9016 83bf
00000040: 0341 873f b313 85bf 8f64 97bf fe5b 953f
00000050: 6bbf 823f 69ae 82bf ac97 903f 068d 8b3f
00000060: 69f5 803f 856c 943f 7d40 a93f e8f5 893f
00000070: 5141 84bf 32c8 903f e622 923f b1c6 a53f
00000080: 2ab6 a23f 315d 8d3f 7513 83bf 98ad 89bf
00000090: ab31 85bf 70f9 863f e33c 8bbf 4bf4 8f3f
000000a0: 4ee9 873f 91b4 92bf 58dc 84bf 2aea 8ebf
000000b0: e4fa 883f 611d 92bf e627 8f3f 7a92 8b3f
000000c0: ef51 a03f 75ca 88bf b73d a1bf 8896 91bf
000000d0: 5339 84bf 0e14 a53f 0820 87bf 8e5a 8a3f
000000e0: 5f31 90bf 986d 8c3f ae84 a83f c01b aa3f
000000f0: 8099 9dbf ef5b 9c3f cd84 853f aaf9 90bf
1.1061969 -1.3029455 1.1160532 1.1233622 1.0967066 1.1764354 1.1623938 1.1378216
1.0637519 -1.1010079 1.0969312 -1.0205153 -1.1190991 -1.0581545 -1.0796094 -1.024126
1.0566715 -1.0396637 -1.1827563 1.1668699 1.0214666 -1.0209476 1.1296287 1.0902412
1.0074893 1.1595618 1.3222805 1.077817 -1.0332433 1.1311095 1.14169 1.2951261
1.2711842 1.1044065 -1.0240313 -1.0756102 -1.0405782 1.0544872 -1.0877956 1.1246427
1.0618074 -1.1461354 -1.0379744 -1.1165211 1.0701566 -1.1415216 1.1184051 1.0904076
1.2525004 -1.0686785 -1.2596959 -1.1374063 -1.0329994 1.2896745 -1.055665 1.0808885
-1.1265067 1.0970945 1.3165491 1.3289719 -1.231247 1.2215556 1.0431153 -1.1326191

layers.0.weight f4 [128, 3]
00000000: fb62 653e 8219 803f 2181 553e 24e5 3a3f
00000010: 0a86 203f 8d4e 943e cd85 c3be af9b d4be
00000020: d8fc 7bbe c20a b63e de54 f63e f7e9 7a3e
00000030: 7af5 d9be 03ae 6c3f f416 b4be 310f 2f3f
00000040: 2dbe 293f 807e c43e 0e94 9a3c 16c2 023f
00000050: 396d 1abe 9a5c 393f ff2e 9f3d b7b8 0cbf
00000060: 4d75 313f 4e36 5c3f cbbb b9be ef3f 743e
00000070: 9072 2dbf 2096 04be ec52 633f b731 34be
00000080: cb25 713e 2512 2c3f 54d6 723f b9b6 e23e
00000090: d1db 80be 9236 0c3f 975b 3abf e55d 1fbf
000000a0: ba22 2e3f 285e c5be efa2 49bf 22d4 8f3a
000000b0: 52f1 a7be d921 333f 07ee 963e 9d52 adbe
000000c0: 2bbb 42bf 7a74 8abe 9d69 833d 9c32 85be
000000d0: 0ec6 e83d 93e7 2d3c 88cb 1ebf c0db 863d
000000e0: f4d2 f93d 64b6 173f ffcb 6b3e c7b1 aabe
000000f0: 1a66 17bf e136 053f 7c45 633b 420d e6bd
00000100: 4d83 a6bf cc63 08be b589 47bf 81f9 133f
00000110: 28a0 803e aca6 b6be 8ab9 2ebf 9496 1b3e
00000120: 02ca 483e 7cfa 8bbd c470 c3be dd8a 423f
00000130: da08 9abe 94a1 9c3e f8b6 033f 757b 3c3e
00000140: e66e a2be 2a4d 20bf 8f91 603f 7e22 413e
00000150: fade 53bf 6fe7 fe3e d62a acbe 33bc 523e
00000160: 72c8 1abf 35d8 c9be 4084 86bb de5a b0bd
00000170: 6dcf b23d fe4b 093f 819d 87be 0895 d7be
00000180: 8c95 ee3e 1acd 08bf 9d75 f03e 6135 053e
00000190: 823c c63e f977 c0be 9491 f7be 4917 12bf
000001a0: bbd1 513d 6959 5ebf 60f7 2abf ea88 8ebe
000001b0: aaa3 1f3f 2699 7b3e 34bc 92be 56a1 4bbe
000001c0: d11a b8be e165 5a3c 3b20 87be d70d a0bf
000001d0: 9c16 803e 6aba d83c b6a6 c23d cce0 29be
000001e0: 573a e23e 594a 0abf d21b 3b3e 5a39 c73e
000001f0: 9fbe bcbf 1db8 953e 8f04 0d3f 43cf 373e
00000200: ea79 a4be 7aa7 f7bd d8be 903f 6a8f 283e
00000210: f889 6dbf d7e8 9bbe c795 953e cd8f 51bf
00000220: 2147 8c3d b79d 69bd ff12 713e 7d80 55bf
00000230: a150 cebe 945c 2abf 360f f0be d509 dc3e
00000240: 00af 65bf 6691 6d3e dd13 10bd 4337 fa3e
00000250: bac8 84bf 5276 323e 0394 253f e715 6f3f
00000260: f45b 2e3e 1215 1a3f d38d e0be ade4 cabe
00000270: 0e9e 373f a499 86bd b364 593e b4cf 3fbf
00000280: 0b46 25bf fdd3 e23d fac6 9abe f4a7 d23f
00000290: cf21 a5be 3a07 c73e f0d5 4bbf 7a49 95be
000002a0: b3dd 69bf 32db b93d 43f2 67bd 908c 2ebf
000002b0: fb6a 8a3f 5798 0ebf a2ba cf3e e974 7bbf
000002c0: 42b5 c6be 6715 33bf c318 21bf 4b2b 183e
000002d0: e639 933e 1471 3cbf e154 85be b710 43bf
000002e0: a2c0 053f 5eb2 97be 9ba9 47bf 66bd 69be
000002f0: 276b 893e 8732 0abf ab4e ca3e b3b3 3bbf
00000300: 08e9 333f ca8e 843e 2a83 453e 9f03 123f
00000310: 7da7 423e 9cdc 86be 6df8 153f 0692 5fbe
00000320: c48d 9bbe bbc7 2b3f 29ac 73bf 43d3 8dbe
00000330: eac9 a83d 217d 24bf 3ee6 a5be 20f2 2fbf
00000340: 7824 f2be cd40 8a3e 65d2 83bf 4e61 423f
00000350: 59fa ab3e a913 80bf d79c 7c3e 2a56 9dbe
00000360: e910 393f 8042 383f d7aa 9a3e 9ea7 31bf
00000370: 7a3c d03e d6bd 803e a9a1 65bf 9198 3b3f
00000380: 2930 943e 8b46 46bf 5f29 4dbf ebfa 79bc
00000390: db6b cd3e 1a2d 96bd c9db abbd 7aba 1bbe
000003a0: 0ba5 fc3f 0173 cfbe db74 bcbd 085a 7e3f
000003b0: cad3 3b3e 4de4 1fbf 7fc6 0ebf 63de a3be
000003c0: 5d87 1cbc 05f2 a43f fb35 79be 19ae 51bf
000003d0: 37ac aebd 444d 033d b167 db3e b2e4 4b3f
000003e0: 1fbf 793e b006 babe 06ff 263e b20e 21bf
000003f0: 68f7 503f a0e2 4d3e c0eb 9e3e 5333 56bf
0.2240104 1.0007784 0.2085004 0.7300589 0.6270453 0.2896618 -0.3818802 -0.41525027
-0.24608171 0.35555083 0.48111624 0.24503313 -0.42570096 0.9245302 -0.35173762 0.68382555
0.6630581 0.38377762 0.018869426 0.510774 -0.15080728 0.72406924 0.07772636 -0.5496935
0.6931961 0.8602036 -0.36276087 0.23852514 -0.67752934 -0.12947893 0.88798404 -0.1759709
0.23549573 0.67215186 0.9485829 0.4428003 -0.25167707 0.5477077 -0.72796005 -0.62252647
0.6802174 -0.38548398 -0.7876424 0.0010973255 -0.328013 0.6997352 0.29478475 -0.3385209
-0.76066846 -0.2704199 0.064166285 -0.26015174 0.11365901 0.010614294 -0.62029314 0.06584883
0.12198439 0.5926268 0.23027037 -0.33338758 -0.5914017 0.52036864 0.0034678867 -0.112329975
-1.300882 -0.1331932 -0.779445 0.5780259 0.2512219 -0.35674036 -0.6825186 0.1519416
0.1960831 -0.068348855 -0.3817197 0.7599314 -0.30084878 0.30592024 0.51451063 0.1840647
-0.31725234 -0.62617743 0.87722105 0.18860814 -0.8276211 0.49785945 -0.3362643 0.20579605
-0.60462105 -0.39422765 -0.004105121 -0.086110815 0.087309696 0.5363158 -0.26487353 -0.4210589
0.4659847 -0.5343796 0.46964732 0.13008644 0.3871804 -0.37591532 -0.48353255 -0.5706678
0.051225405 -0.8685518 -0.66783714 -0.27838832 0.62359107 0.2457014 -0.28659213 -0.19885764
-0.3595796 0.013329954 -0.26391777 -1.2504224 0.2501725 0.026456077 0.09504454 -0.1658966
0.44185135 -0.54019696 0.18272331 0.38910943 -1.4745673 0.2924203 0.5508508 0.17950158
-0.32124263 -0.120924905 1.1308241 0.16460958 -0.9278865 -0.3045108 0.29215834 -0.8186005
0.06849504 -0.057035174 0.23542403 -0.8339918 -0.4029589 -0.66547513 -0.46886605 0.4297625
-0.89720154 0.23199996 -0.035175193 0.48870286 -1.0373757 0.17427948 0.6467897 0.93392795
0.17027265 0.601884 -0.43858203 -0.3962759 0.7172555 -0.065722734 0.2122982 -0.74926305
-0.6456 0.1107559 -0.30229932 1.6457505 -0.32252356 0.388727 -0.7962332 -0.2915762
-0.9135391 0.09075011 -0.056627523 -0.6818323 1.0813898 -0.557012 0.40572077 -0.98225266
-0.38810164 -0.6995453 -0.6292841 0.14860265 0.2875511 -0.73610044 -0.2604132 -0.7619738
0.5224706 -0.2962827 -0.7799317 -0.22826156 0.26839563 -0.5398335 0.39513144 -0.73321074
0.7027745 0.2589019 0.19288316 0.57036775 0.19009204 -0.26340187 0.5858219 -0.21833047
-0.30381596 0.6710164 -0.9518457 -0.27700242 0.08241637 -0.6425343 -0.32402223 -0.6872883
-0.47293448 0.27002564 -1.0298582 0.75929725 0.33589438 -1.0006 0.24669205 -0.307298
0.7229143 0.7197647 0.30208465 -0.6939639 0.4067114 0.25144833 -0.896998 0.7327967
0.28942993 -0.7745139 -0.8014125 -0.015257577 0.4012135 -0.07332821 -0.0839153 -0.15207854
1.9737867 -0.4051743 -0.09201976 0.99356127 0.1834251 -0.62457734 -0.5577163 -0.32005605
-0.0095537575 1.2886358 -0.24336998 -0.81906277 -0.08528941 0.032056108 0.42852548 0.79645836
0.24389313 -0.36333227 0.16308221 -0.6291305 0.8162751 0.20105982 0.31039238 -0.83672065

layers.0.bias f4 [128]
00000000: 7042 953d 24d6 d7be e675 953d 9bb5 4ebd
00000010: 5313 083f bc12 8ebe 313f ab3e d232 5cbf
00000020: 6f4d acbe f25c 1ebe 61af 9abe d061 bbbe
00000030: d6cd 01bd 4839 1e3f 72a4 fdbd a8e6 c3be
00000040: 3a7b 963d 5ac0 d0be cc26 b2be f999 13bf
00000050: d86d 14be 4272 673e e6f2 78be 4efc 16be
00000060: 663e ebbe af17 a8bc 6ca2 0abf 6acb aabe
00000070: 4bc8 cc3e c896 1abf 9bca 4dbf 383c 06bf
00000080: 480e f43d d0d4 da3e eca3 e5be 1839 b33e
00000090: 6286 93be 4269 11bf 3deb 31bf cdcf 1f3f
000000a0: 7817 b8be 3df1 73be ff84 08bf adaa d9be
000000b0: c661 2fbe 3686 633e 4e8f 24bf a93f 0dbf
000000c0: 676f 2c3e cbc0 d03d 47ae 613e 9b9a 12bf
000000d0: daff e53e b0e6 b9be aa3a 203e b10c a5be
000000e0: 8fcb 8b3e ebed bebe 0e89 46bf 1cc7 c3be
000000f0: 6f48 69be 8d5a 873e 2d50 99bc fcc5 d9be
00000100: 0121 d93d 61ee 73be 58c9 14bf e04c 19bf
00000110: fdf8 f3be fa2d 8b3d 2153 9ebe 8945 833e
00000120: e88b 5fbe 0ec5 f3be cd2f 86be a4dd b6be
00000130: 2bd7 223e bd09 d53e a517 e2be 3390 8ebc
00000140: ab00 763e 91ff fd3c 7ead 9abe 9143 93be
00000150: 79b0 4dbf 0542 89bd 8cb3 b4be 4b9a d3be
00000160: 1987 8abe 39fa ca3d 289c 08bf a023 b43e
00000170: d4c6 b9be 367d 363e 4f20 cdbe 1e6f 80be
00000180: a915 09bc d919 2cbf 204b c339 26f9 fa3d
00000190: af95 883b a01a 2bbe 65bf 2dbf b2fe 9bbb
000001a0: 58d5 6cbe 2618 a1be 1d64 37bf d97f 02bf
000001b0: fc0b 26bf 0c33 9ebe 390c c13e deae 653e
000001c0: 9636 e7be a31d dbbe 0ee3 10bf efc7 41bf
000001d0: 4902 5b3e 5829 39bf 1f93 553d 5bc4 943e
000001e0: d142 aa3e 6f5f 16bf 57a8 ed3e 48df 85bf
000001f0: 5a7f 263d 7dfb 22bf b278 1ebe 2c94 2ebd
0.072880626 -0.42155564 0.07297878 -0.05046616 0.53154486 -0.27748668 0.3344665 -0.86015046
-0.33652827 -0.15465143 -0.30211928 -0.36598063 -0.03169044 0.61806154 -0.12384881 -0.38261914
0.07347722 -0.40771753 -0.34795225 -0.5765682 -0.14495027 0.2260218 -0.24311408 -0.14744684
-0.45946044 -0.020519106 -0.54154086 -0.33358318 0.3999656 -0.60386324 -0.80387276 -0.52435637
0.119167864 0.42740488 -0.44851625 0.35004497 -0.28813463 -0.56801236 -0.6949957 0.62426454
-0.35955405 -0.23822494 -0.53327936 -0.42513028 -0.17127141 0.22219166 -0.64281166 -0.5517526
0.16839372 0.10193022 0.22039138 -0.5726716 0.44921762 -0.36308813 0.15647379 -0.32236245
0.2730374 -0.37290892 -0.7755288 -0.38237846 -0.22781537 0.26436272 -0.018714989 -0.42533863
0.10601998 -0.23821403 -0.58119726 -0.59882927 -0.476509 0.06795879 -0.30922797 0.2563899
-0.21830714 -0.47611278 -0.26208344 -0.35715973 0.15902393 0.41608992 -0.44158664 -0.017402744
0.24023692 0.031005653 -0.3021049 -0.28762487 -0.803474 -0.06702045 -0.35293233 -0.41328654
-0.27056196 0.099110074 -0.53363276 0.3518343 -0.36284506 0.17821202 -0.40063712 -0.25084776
-0.008366981 -0.6722694 0.0003724927 0.122545525 0.0041682343 -0.16709375 -0.6787017 -0.0047605867
-0.23128259 -0.31463736 -0.71637136 -0.5097633 -0.64862037 -0.3089832 0.37704638 0.22429988
-0.45158833 -0.4279605 -0.5659646 -0.756957 0.2138759 -0.7232871 0.05214226 0.29056057
0.33254102 -0.5873937 0.46417496 -1.0458765 0.040648796 -0.6366499 -0.15475729 -0.042621776

layers.1.weight f4 [128, 128]
00000000: 0c56 ef3d 6e32 093e 5c46 83bd 42f0 3a3d
00000010: 12fb 943d 6b74 183e e012 033d 60f2 9f3a
00000020: 782f 223d ea01 aebe 85f1 0c3e 7d95 5d3e
00000030: f7e3 4bbd cdef 74bd e2c9 b3bd b1bb 9cbc
00000040: 262a 8e3d 4c9d 423d de76 a03d aa85 2ebb
00000050: 4fa9 8c3c 0ec8 0abf 39ae d7bb 4851 07be
00000060: bce8 21be 6861 973d f51b 15bb 6025 353e
00000070: dea0 97bd 654a ab3c fd70 29bd 0aa3 3fbe
00000080: b392 5dbc c91b ac3d 9388 68bd 0b02 3fbe
00000090: ceff a53c 70ec 76bc 621c 403d a5dd cd3c
000000a0: 9a49 ffbd f3b4 27be 0e96 943d e39b da3d
000000b0: 8c72 8bbc 35b6 d939 72ba 71bd b2d3 c63d
000000c0: 21b5 07bd 117f d6bd 2d73 833d 6c35 aebe
000000d0: 6830 a93d dd27 05bc 3848 5f3d 4c85 4cbf
000000e0: bd12 af3d 08db a8bc 8715 b33c e396 383c
000000f0: 43d3 65bf 885e 85bd 90ff 21bc d80d efbd
00000100: d344 113e fdee 7abc 330e 70be dd0c 72bf
00000110: b5fc 243a f28e a73c a87e dc3d f653 fcbc
00000120: 3c34 243d 9725 d33d 1282 d93d 1216 8cbd
00000130: 597d f43c 7904 8c3d 8d53 263e 4985 c2bd
00000140: b003 f43d 3dcd 4fbc af53 053e ae8d b7bd
00000150: 6141 bbbc bd75 b6bd 6b32 243e 0730 aabd
00000160: 7f14 d7bc 4aec 603c 4371 80bd 8715 5fbd
00000170: 193f 9bbd a6a9 c9bc 695e 03bc 5b3c 6dbd
00000180: 8572 713d 6668 713d 52cb 73bf 7a1f 2ebe
00000190: ec10 77be 5ebd 05be c843 693c f001 bbbd
000001a0: 2512 2d3d 1e25 b1bd ebbb c4bd 79dd d3bd
000001b0: bf48 1fbe df86 d0bd 04be 0c3e 016b 05bd
000001c0: af44 09be 2c40 d0bc cd83 08be f27a bebc
000001d0: 26b9 413d a0c5 cc3b ee9f 49bd 6c77 6a3d
000001e0: 0c67 c43d a27e 76ba b2ce e33d c5a9 d83d
000001f0: b3d7 8abd e37f 193e 475c d0bd 3612 503a
00000200: daf2 efbd 81ae c2bf 6bc6 153d 5087 8fbd
00000210: cbb5 d6bd 9812 20be 8325 b5bd 8996 b23e
00000220: 1142 0b3e be39 303e 01c9 d6be 09d1 cdbd
00000230: cdd3 8abd 4b50 36be ae12 c7bd a684 83bd
00000240: 0496 dd3d 1528 04bd fc1b ee3d b564 bd3e
00000250: fddd 373c fa92 893d 8af0 853e 6fa6 c53e
00000260: 31df 443e a8be 8ebe fd82 1b3e 227d 28bb
00000270: 9505 ddbd 7ee7 403e c16d 3e3e c9de fb3d
00000280: 3dab da3c 32cb f1bd e909 6b3e 1d4f 4abe
00000290: 50a3 82bd a72f f3bc 953e 7b3c 373d f5bd
000002a0: 4bfc ccbd f946 d63d 196e 203e 075d b9bd
000002b0: aec7 1c3e 9b13 edba b3c4 493e 8b42 293d
000002c0: d1ca 8c3d 1574 713e 1481 a9be 39e1 083f
000002d0: a8fe a5bd dc60 f13e f043 5ebe a5f9 5c3e
000002e0: 5f54 ac3c 043c f0be 796a 3e3e 6f8f 1f3f
000002f0: 25bd 763e 6b3b debd aec8 d83d a521 bf3d
00000300: 2287 84bf a688 febd 588c e03e 9df8 d13e
00000310: e366 243e 1d6b f23b 3738 103e 33b3 07be
00000320: f786 c5be 5cb1 543e 5b40 5d3d e594 c0be
00000330: cd3b c13d 05a7 afbd 008d 0ebe 12d0 9b3d
00000340: 0c56 9cbe d6de 4a3d 2599 eebe 3ab1 113e
00000350: eb8a e7be adc8 123e 31df 09bc d24e 3b3d
00000360: 6ce5 e33e a380 90bd 2580 623d 78ec 943c
00000370: e423 1ebe 0974 183e 70f6 c0bd b77d 2b3e
00000380: 0823 51bd f884 883e 2d14 7f3c b423 3ebe
00000390: 0155 acbd 159d 23be dd09 ce3b a20c 903e
000003a0: 51cb 6cbe 8cd8 273e 9e2f b2bd 4d64 c33c
000003b0: f0df 993e d4a6 343f f866 5ebe 84dd febd
000003c0: 924c 843e 08b4 0abf f80c 373e f746 03bf
000003d0: 9dc5 aa3c 3092 4a3e 3712 c53d 76b8 923d
000003e0: 6710 c3bd e79e c03e c7c0 24be 15c4 babe
000003f0: a9cc d6bd f02e 8b3e 3de0 53bd 473a 423d
0.11686334 0.13398144 -0.06409904 0.045639284 0.0727445 0.1488816 0.032000422 0.0012202971
0.03959605 -0.33985835 0.13764007 0.21639057 -0.04977795 -0.059799004 -0.087787405 -0.019132467
0.06941633 0.04751329 0.07835172 -0.0026629963 0.017170576 -0.5421151 -0.0065820483 -0.132146
-0.15811437 0.07391626 -0.002275226 0.17690039 -0.0740373 0.020909498 -0.04136752 -0.18714538
-0.013523745 0.08403737 -0.056770872 -0.18653123 0.020263579 -0.0150710195 0.046902068 0.025130102
-0.1246521 -0.1637762 0.07255183 0.10674264 -0.017022394 0.0004152522 -0.0590157 0.097083464
-0.033131722 -0.10473455 0.064184524 -0.34025133 0.08261186 -0.00812718 0.054512233 -0.79890895
0.08548496 -0.020612255 0.021860851 0.011266443 -0.89775485 -0.06512171 -0.009887591 -0.11672562
0.1418641 -0.015315768 -0.23442917 -0.9455088 0.000629376 0.020453904 0.10766345 -0.030801754
0.040088877 0.10309904 0.10620512 -0.06840147 0.029844927 0.068367906 0.1624281 -0.094980784
0.11914766 -0.01268321 0.13020204 -0.0896257 -0.022858324 -0.089091755 0.16034858 -0.08309942
-0.02625489 0.013728211 -0.06271603 -0.05446389 -0.07580394 -0.024617027 -0.008018115 -0.057918888
0.058947105 0.058937453 -0.9523212 -0.17004195 -0.24127549 -0.13060519 0.014237352 -0.09131229
0.042253632 -0.08649658 -0.09606155 -0.10344977 -0.15555094 -0.101819746 0.1374436 -0.03257275
-0.13405107 -0.025421225 -0.13331528 -0.023251984 0.047295712 0.0062491447 -0.049224786 0.057242796
0.09589967 -0.0009403025 0.111234084 0.10579256 -0.067794226 0.14990191 -0.101738505 0.0007937284
-0.11716242 -1.5209504 0.03656618 -0.07008231 -0.10483893 -0.15632093 -0.088450454 0.34880474
0.13599421 0.17209527 -0.4195023 -0.10049636 -0.06778679 -0.17804067 -0.0972036 -0.06421785
0.10819629 -0.032264788 0.11626431 0.36990896 0.01122236 0.06717487 0.2616008 0.3860354
0.19225766 -0.27879834 0.15186687 -0.002570935 -0.1079208 0.18838307 0.18596555 0.12298352
0.02669298 -0.118063346 0.22952999 -0.19756742 -0.06378806 -0.029685808 0.015334745 -0.119745664
-0.100090586 0.10462756 0.15666999 -0.09050947 0.15310547 -0.0018087508 0.19703941 0.041323226
0.06874622 0.23579438 -0.3310629 0.5346866 -0.081052125 0.4714421 -0.21705604 0.21579607
0.021036325 -0.46920788 0.18595304 0.6232824 0.2409559 -0.10851177 0.105851516 0.09332589
-1.0353739 -0.12428407 0.43857074 0.4100999 0.16054873 0.007398023 0.14083944 -0.13251953
-0.38579533 0.20770782 0.054016452 -0.37613598 0.09435234 -0.08576778 -0.13920975 0.07608046
-0.305344 0.04952892 -0.46601215 0.14227763 -0.45223173 0.14334364 -0.008415029 0.045729466
0.44510972 -0.070557855 0.05529799 0.018179163 -0.15443379 0.14888014 -0.09422004 0.16747175
-0.0510588 0.26663947 0.015568775 -0.18568307 -0.08414651 -0.15977891 0.006287797 0.28134638
-0.23124434 0.163912 -0.087004885 0.023851538 0.30053663 0.7056706 -0.21718967 -0.124445945
0.2583967 -0.54180956 0.17876041 -0.5128016 0.020846182 0.19782329 0.09622615 0.071640894
-0.09524613 0.37621233 -0.16089164 -0.36477724 -0.104882546 0.27184248 -0.051727522 0.04741886

layers.1.bias f4 [128]
00000000: 12c4 d13c 57d7 50bd 37ee dfbd 607c 603b
00000010: dd4c b5bd 9322 dabd f662 ddbd 3de6 50bc
00000020: e0bd 8cbd 7ab6 cfbd 6b98 a0bd a1f4 06bd
00000030: 5b0f cfbd 263e dcbd 9dca 8a3c 3a12 153d
00000040: 6621 a0bd a5a9 fbbc ad4d c2bd dacb 3c3d
00000050: ec59 a5bd ddae c3bc 90fb 6ebe 9089 f53c
00000060: 931c 18be 1a6f 70bd 066d 87bd 4126 42be
00000070: ed5a 9cbd e5eb adbd b884 4dbe 8986 983d
00000080: c4d6 aaba 9f53 f93b 2969 653d a988 b1bd
00000090: 316b 9ebc 6db0 59bd 4bd6 8cbe fee5 3a3d
000000a0: 2148 99bd 5d98 acbd 563a 573e d906 dabc
000000b0: 4d08 143e 6828 a43d 4607 0a3c 1b38 f9bc
000000c0: dde2 94bb 23d3 733c 9f97 b1bd bd47 02bd
000000d0: a6a8 a6bb f2de 5f3d f88c acbd d045 933b
000000e0: cf36 403d 6864 b3bd d1d3 0a3d 34c2 2dbc
000000f0: 7e27 513d 692f d53d 745c c73d 30b0 1f3c
00000100: d333 203e cc53 4a3d cf68 d6bd ccdc dd3d
00000110: 3945 13bd e3f0 c5bc 4dc3 a13d c583 c5bd
00000120: 7c0e 2d3e d430 1a3d 0dc4 a03e 7066 853b
00000130: 2621 6f3d 9db4 24bd 4bec 15be bdc8 6bbc
00000140: f59d b5bd 3b47 213c d2cb 2abd 50ac 63bd
00000150: 3f33 cdbd 26b3 3a3d 73bd b7bd 03be 18bd
00000160: 4477 193e 00a8 0fbe 1286 ebbb 2ff1 a0be
00000170: dc7e b0bd 7f6d 133d 1523 643d 4fab bf3c
00000180: d647 e63d 8dc9 94be 635e 5bbd 2293 febb
00000190: 3640 253e c2f8 f33c 7c17 dabd da7b 07be
000001a0: ae01 63bd 3139 9bbd 771d 0cbd 62d7 98bd
000001b0: 74f5 27bd 243d 5dbe f75d 35be a332 8d3a
000001c0: b2cb 233d 5846 1b3e 94ad c4bd b193 fabd
000001d0: 0aea 83bd 9492 ec3c 8d03 5ebd 25c9 813c
000001e0: 2e40 5f3d 4f21 af3c ab85 d63c b0e6 d73b
000001f0: b84c eabd baf0 cabd 32b9 433e 7525 883d
0.025606189 -0.050986614 -0.10934108 0.003425382 -0.08852551 -0.10651126 -0.10809891 -0.012750206
-0.06872153 -0.101422265 -0.078415714 -0.03294814 -0.10110351 -0.107540414 0.016942317 0.036394335
-0.0781887 -0.030720541 -0.09487472 0.046092845 -0.08073792 -0.023887092 -0.23338151 0.029972821
-0.1485465 -0.058699705 -0.066125914 -0.18959905 -0.0763453 -0.08492259 -0.2007016 0.074475355
-0.0013033976 0.0076088454 0.05600849 -0.08668644 -0.019338222 -0.05314677 -0.27507243 0.045629494
-0.074844606 -0.084274985 0.21018347 -0.026614593 0.14456291 0.080155194 0.008424586 -0.030422261
-0.004543646 0.014881882 -0.086714976 -0.031806696 -0.0050860224 0.054655977 -0.08425325 0.0044944063
0.04692727 -0.08759385 0.03389341 -0.010605384 0.051063053 0.104094334 0.09734431 0.009746596
0.1564477 0.04939632 -0.104692094 0.10833129 -0.035954688 -0.024162715 0.07898579 -0.09644274
0.16900057 0.037644222 0.31399575 0.0040710494 0.058381222 -0.04021131 -0.1464092 -0.014391121
-0.088680185 0.009843643 -0.041698284 -0.055584252 -0.1001954 0.045581006 -0.089716814 -0.037290584
0.14986902 -0.1402893 -0.0071876133 -0.31434008 -0.086179465 0.035993095 0.05569752 0.023397116
0.1124417 -0.2906002 -0.05355681 -0.0077690044 0.16137776 0.029781703 -0.106490105 -0.1323084
-0.055421524 -0.07579268 -0.034207787 -0.07462956 -0.041005567 -0.21605355 -0.17711626 0.0010772537
0.03998918 0.15163553 -0.0960342 -0.12235201 -0.06441124 0.028878488 -0.054202605 0.015842983
0.054504566 0.021378187 0.026186785 0.0065887794 -0.11440414 -0.09909196 0.19113615 0.06647769

readout.weight f4 [1, 128]
00000000: a536 18be ead6 cb3e ba1b 833d a09d 30bd
00000010: 7a93 3ebc 66eb 1d3c e9b0 203c 8989 903c
00000020: dbb5 8ebd 0c59 993d 29fc 44bd 92b5 58bd
00000030: 8d4d 193d 0948 4ebd 4536 c8bb fc9e 1ebd
00000040: 1c59 dfbc f30d 1e3d 8e85 62bd 67e5 7abd
00000050: 136a 273d a318 6bbd 0b24 193e ddd8 7fbd
00000060: 112b 3a3f fe15 6d3c 02e9 0bbc 2d58 da3b
00000070: 0435 8cbb 5e9c 933c 702f 4a40 d39b 76be
00000080: 6dfd e63c 3567 9cbc 2e27 853d 9f02 51bd
00000090: a6ee 65bd 34be 20bc 0950 4a3e f57b 02bf
000000a0: 990d ecba 73d0 24be 019a 15bf 2483 3c3d
000000b0: 1dbf 4abe abe2 d13f 2f1b 47bd 20e4 2f3d
000000c0: f0e1 91bd 643c 3fbd 7a99 803f 5f55 6c3c
000000d0: d6ad 983d 663d 1abc 08eb 81bd ad7f 933c
000000e0: bed2 65bd 7136 78bd 08f4 8b3c 1236 923d
000000f0: fe72 7cbb 224a a83e f83b 03be d7e6 163d
00000100: 6c2e 043f 8cf7 20bd 30a1 853b 7dc5 c73e
00000110: a176 72bc 1784 203c 5c0d 803f da1e 99bb
00000120: 91f7 c53f ba3a 0e3c 7e94 053f 0bd3 033d
00000130: 4afb 7ebc 7e08 e2bc a76e b13d 84e9 4e3d
00000140: 3ea4 6a3f 8189 01bc a9b1 00bd 6df2 48bd
00000150: 6b30 2fbd 6670 d53c 2585 90b9 0cb9 9dbc
00000160: 02bb ddbe 079e 553c 9527 5cbd bb63 2d3f
00000170: 4f58 8bbd d6c8 a73c bb7f c23f ecc7 493d
00000180: ebc0 0c3e 78f4 543e 4c50 82bd d07c 03bd
00000190: b715 103f a3a9 693c 126a ecbc 483c 783f
000001a0: 3afb dabd 3632 d53c 0465 06bc 36e9 97ba
000001b0: 065a 4940 7232 723d 94b6 e43e 5c3c 923c
000001c0: 1fc8 92bd 1045 d1be 4fee 85bc 1c46 95be
000001d0: 80bc 11bf 3963 d5bc 3593 14bd 955d a6bc
000001e0: ab56 f7bc a893 05bd 38f4 3e3d 1e9f 6b3d
000001f0: c47f 92bc 99b5 9cbc 23d0 16bf 78bf d13d
-0.14864595 0.39812404 0.06401773 -0.043119073 -0.011631841 0.009638643 0.009807804 0.017643707
-0.0696828 0.074876875 -0.04809204 -0.052907534 0.037427474 -0.050361667 -0.006109985 -0.038725838
-0.02726417 0.03858752 -0.05530315 -0.06125393 0.040872645 -0.057396542 0.14955156 -0.062462676
0.72721964 0.014470575 -0.00853944 0.0066633434 -0.004278781 0.018018898 3.1591454 -0.2408288
0.028197015 -0.019092182 0.065016136 -0.05102789 -0.056135796 -0.009810973 0.19757093 -0.50970393
-0.0018009424 -0.16095142 -0.58438116 0.046023503 -0.19799466 1.6397299 -0.04860991 0.042942166
-0.07123172 -0.046688452 1.0046837 0.014424651 0.074550316 -0.009414053 -0.06343657 0.018005216
-0.056109183 -0.060598794 0.017084137 0.07139219 -0.003852069 0.3286906 -0.12815845 0.03684124
0.51633334 -0.03929858 0.004078053 0.3901786 -0.014798791 0.009797118 1.0004077 -0.0046728672
1.5466176 0.008680994 0.52179706 0.032183688 -0.015562842 -0.02759194 0.086636834 0.050515667
0.91656864 -0.007906319 -0.03141943 -0.04905932 -0.042770784 0.026054572 -0.0002756502 -0.019253276
-0.43306738 0.013038165 -0.053748686 0.677303 -0.06803953 0.020481508 1.519523 0.049262926
0.13745467 0.20796382 -0.06362972 -0.032101452 0.56283134 0.014261636 -0.028859172 0.9696698
-0.10692449 0.026024919 -0.008202795 -0.0011589888 3.1461196 0.05913014 0.44670546 0.017851047
-0.07167076 -0.40873003 -0.016348986 -0.29155052 -0.56928253 -0.02604829 -0.0362732 -0.020308295
-0.030192694 -0.03261152 0.046619624 0.057524793 -0.017883189 -0.019129561 -0.5891134 0.10241598
