9_gym-DDPG/results/DDPG_Pendulum-v1_eps0.1_t32_l0.001_update20_s451_500.pth (torch, 176342 bytes, 12 tensors)

layers.0.weight f4 [128, 4]
000000 15 52 06 3f a7 25 90 bd 64 7b 63 3e e6 ce 06 bd
       0.52469 -0.070384316 0.22215039 -0.032912157
000010 54 6d c9 be 1b 47 c5 3e bc 88 e9 3d c0 0d b1 bd
       -0.39341223 0.38530812 0.11403033 -0.08645201
000020 b5 de eb 3b a9 76 11 3f 8c 92 a8 bd 88 27 cc 3e
       0.0071981796 0.56821686 -0.082310766 0.3987391
000030 43 2b e3 be a1 d0 51 bd ff c2 52 3e 92 8f 1e bd
       -0.44368944 -0.051224355 0.20582198 -0.038711138
000040 fc bd f4 3e 1d da f9 be c1 97 cc bd 23 0b 62 3c
       0.47801197 -0.4879922 -0.09989882 0.0137966005
000050 74 58 ce 3e 93 09 a2 3b d5 cb 90 bb a8 20 2b 3e
       0.4030186 0.004944989 -0.00441883 0.16711676
000060 72 71 c4 3e ef f9 ce 3e 60 f0 1e 3e 82 94 4d 3d
       0.38367802 0.4042506 0.15521383 0.050190456
000070 7a 73 2a 3f 4b 36 ca be 54 67 d2 be 35 42 88 3d
       0.66582453 -0.39494547 -0.41094458 0.06653253
000080 a2 ed f2 3e fb 89 c9 3e 53 7c d1 3c dd 53 93 be
       0.47446924 0.39363083 0.025571978 -0.2877492
000090 4a 7c bb 3d 36 cb ed be 57 9d ec 3d 11 69 4b be
       0.09154566 -0.464441 0.11553448 -0.19864298
0000a0 36 af b6 be e5 23 d2 be b0 03 80 3e 6a 3c b2 3c
       -0.3568055 -0.4104301 0.25002813 0.021757323
0000b0 06 64 19 3f 0e 95 a3 3e 4d 33 1b bc 86 36 26 bc
       0.5991825 0.31949657 -0.00947268 -0.010144835
0000c0 4d f0 03 3e 9c 33 1d 3f 10 7a c4 bd b1 ad 84 3c
       0.12884636 0.61406875 -0.09593594 0.016196104
0000d0 50 6b f8 3b ad 71 18 bf 46 04 0d 3e 25 6c bf be
       0.007581152 -0.59548455 0.13771161 -0.37387195
0000e0 22 a9 84 3d 0b 93 8b 3e c1 41 63 3e 86 62 8d be
       0.06477572 0.27260622 0.22193052 -0.2761423
0000f0 77 a6 9b be 3f 82 1a 3f 0c 43 c6 3e 6b 8c a8 3e
       -0.3040044 0.6035499 0.38723028 0.3291963
000100 27 74 2c 3f 0f 6a 4f be 39 44 26 3e 35 52 b9 be
       0.67364734 -0.20255302 0.16236962 -0.3619553
000110 48 b1 84 be 6e 86 dc be 93 9d c2 be 43 d0 b9 bd
       -0.25916505 -0.43071312 -0.38010845 -0.09072926
000120 63 99 4b be 12 bd 0f bf fd 15 9c 3d 4b 6c 1e 3e
       -0.19882731 -0.56147873 0.076213814 0.15470998
000130 55 6f bb be 31 77 2e 3f 7b 83 6f 3e 9b c6 93 be
       -0.36608377 0.6815062 0.2339 -0.2886246
000140 2b 5c bc 3e 96 49 27 be 76 58 51 3e 2d 47 eb 3e
       0.3678907 -0.16336665 0.20443901 0.4595274
000150 01 49 4c bf 20 33 a5 bd 7b 6b 47 3d 73 fb 23 bd
       -0.79798895 -0.08066392 0.048686486 -0.040034723
000160 4b 1c dd be cf 33 f7 be 4e 64 8d bc 55 b3 ce 3e
       -0.43185648 -0.48281714 -0.017259743 0.40371194
000170 03 a1 65 3e fe 88 0f 3f 74 a4 fe bd f8 70 c1 3e
       0.22424702 0.5606841 -0.12433711 0.377815
000180 26 f4 04 bf 0c 84 16 3e be eb 97 3e 66 48 fb be
       -0.5193504 0.1469881 0.29672045 -0.49078673
000190 5d fc 04 bf 47 7c 77 3e 9b 04 98 be 6c f3 47 be
       -0.51947576 0.24168502 -0.29691014 -0.19526452
0001a0 9c ba b7 3e 86 24 dc be 70 c0 20 3e 5d 20 b8 be
       0.3588456 -0.42996615 0.15698409 -0.3596219
0001b0 c9 58 99 3e 95 25 35 bf a8 8b 0e be d3 7a dd 3e
       0.2995055 -0.7076047 -0.13920462 0.4325777
0001c0 d3 1d 00 bf 3a ad c7 3e 0e ae bf be d4 e6 90 be
       -0.5004551 0.3899935 -0.3743748 -0.28301108
0001d0 30 f0 28 3f 83 93 83 be 12 84 aa be 38 40 0a 3f
       0.659915 -0.2569848 -0.33303887 0.5400424
0001e0 db 64 d0 3e cc 3f 04 3f 6f 81 fe bd 6e ea 25 be
       0.40701947 0.51659846 -0.12427031 -0.16202709
0001f0 69 c1 d3 be 5c 11 98 3e 88 6b b1 3e 19 e4 ff be
       -0.41358498 0.29700744 0.34652352 -0.49978712
000200 cc 1a 28 be fe 03 77 3e 84 24 9f be 49 dc ce be
       -0.16416472 0.24122617 -0.31082547 -0.4040244
000210 a4 aa 2b 3e 0b fb 22 3e 79 ef 25 3e b3 e9 e6 be
       0.16764313 0.15916078 0.16204633 -0.45100173
000220 69 28 38 3e 76 e4 99 be 47 c8 a2 3e 3e ad ba bc
       0.17984165 -0.30057114 0.31793424 -0.022787686
000230 23 0c ff 3e 0b 52 5e bd e6 25 72 be cd 60 01 bf
       0.49813947 -0.05427746 -0.2364727 -0.5053833
000240 cd 13 0b bf f6 29 8b 3e 04 4a 09 3e f1 26 1b 3d
       -0.5432709 0.2718045 0.13407141 0.037878934
000250 2d 20 f0 bd dd b7 db be 9a 04 f9 3d 85 2b 8f bb
       -0.11724887 -0.42913714 0.12159081 -0.0043692016
000260 0f 7b 21 3f da a8 08 bf 7c 08 ad be 3a a0 a0 be
       0.630784 -0.5338265 -0.33795536 -0.31372243
000270 a3 df 4c bf 97 bb bb 3e 64 26 67 be ca 8f b2 3e
       -0.8002874 0.36666557 -0.22573239 0.34875327
000280 0c ab 5b be 69 c0 26 3e 01 fa 2e 3e 45 f9 ac bd
       -0.21451968 0.16284336 0.17087556 -0.08445982
000290 dd f7 b6 3e 49 c3 34 3d 32 e7 80 be cd ed 19 bc
       0.3573598 0.04413155 -0.25176388 -0.009395075
0002a0 e5 9b 11 bf 03 ca 88 be 04 ea 4a 3e 4b 31 12 bf
       -0.568785 -0.26716623 0.19815832 -0.57106465
0002b0 26 10 e3 be 93 83 fd bd b3 94 57 3e 2d e3 c5 3e
       -0.44348258 -0.123786114 0.21052818 0.38649884
0002c0 91 85 f4 be e9 58 c8 bd 32 42 8a 3e ca ae ba 3e
       -0.47758153 -0.09782583 0.27003628 0.36461478
0002d0 12 80 fc bd 03 ea 0a 3f 72 45 41 bd 01 c9 84 be
       -0.12329115 0.54263324 -0.04718537 -0.25934604
0002e0 8f 2b a9 3d d3 42 35 bf 07 a0 3c 3e 75 bb 90 bc
       0.08260261 -0.7080509 0.1842042 -0.017667511
0002f0 79 98 be be 6f 36 05 3f 72 91 ee bc 82 72 ad be
       -0.37225702 0.52036184 -0.029122088 -0.33876425
000300 aa 9b 08 3f a8 df 3c 3f 39 eb bc 3d fa 29 a4 3e
       0.53362525 0.7377877 0.09224553 0.32063276
000310 01 57 80 3e 33 96 39 bf 64 bd 24 be f5 6f 74 bd
       0.2506638 -0.7249481 -0.16087872 -0.059677083
000320 2f d5 76 3d 38 ba 03 bf 0f f9 c8 3b 03 75 36 3e
       0.0602619 -0.5145602 0.0061332057 0.17818074
000330 74 7b 0d bf 9c c4 df bc 29 17 d7 bd 78 4b a5 3d
       -0.552665 -0.02731543 -0.10502464 0.08071035
000340 df 74 93 be 33 94 9a bd 0b e3 9b be c2 54 2b be
       -0.28800103 -0.07547798 -0.30446658 -0.16731551
000350 7c cc 09 bf 23 1a 6c 3f 5c 33 1e 3e df 4d 09 bf
       -0.53827643 0.9222738 0.1544928 -0.53634447
000360 cf dd d5 3d 17 fc 04 3d 39 27 e9 bd 60 a6 b0 3e
       0.10442697 0.032466974 -0.11384434 0.34501934
000370 ba 41 13 3f 66 fd 33 3e 8d 68 b8 3e f7 4d 66 be
       0.57522166 0.17577133 0.36017266 -0.22490679
000380 b9 29 98 be 36 f2 e7 3e 91 9b a2 be b3 b2 80 3e
       -0.29719332 0.4530198 -0.31759313 0.25136337
000390 ed df 73 3e e9 a2 b8 be 80 d8 50 bd 26 3d 80 3e
       0.2381589 -0.3606179 -0.05098772 0.25046653
0003a0 41 41 a3 be bf 4d 96 3e 0b 8f bf 3c 50 df a4 be
       -0.31885722 0.2935619 0.023383638 -0.32201624
0003b0 81 49 6a be 51 2d 37 3f 30 c2 75 3e 6f c5 4d bc
       -0.22879602 0.7155352 0.23999858 -0.012559279
0003c0 de b1 1b bf 3e 1d 07 be cc c3 1e be e6 c6 be 3e
       -0.6081828 -0.13194749 -0.15504378 0.37261122
0003d0 c4 ce 4b 3e 14 45 c1 bd c0 b8 f4 bc 65 94 26 3e
       0.19903094 -0.09437004 -0.029873252 0.16267546
0003e0 86 bd 2b 3f 9e 9d a7 3e 5d 93 d3 3e bd 1c 32 bd
       0.67086065 0.3273744 0.41323367 -0.04348444
0003f0 c0 bc 17 bf e3 12 14 bc 55 13 af 3e 1b 60 d3 bd
       -0.59272385 -0.009037706 0.34194437 -0.10321065

layers.0.bias f4 [128]
000000 a1 b9 80 3e 6e a3 6e be 4a 07 13 3e 46 dc ef 3d
       0.25141624 -0.23304531 0.1435825 0.11711936
000010 b3 ae 1f 3e 2b e7 c7 be 9f 37 56 3e 18 49 a1 be
       0.15593986 -0.39043555 0.20919655 -0.3150108
000020 d4 9b 11 3f aa 3a d0 be 89 5b e8 3e 81 48 ec be
       0.568784 -0.40669757 0.45382336 -0.46149066
000030 75 ac 1c bf 70 3f 15 3f 76 53 f1 3e c1 46 cd 3e
       -0.6120065 0.5829992 0.47133988 0.40093043
000040 75 4e 67 be a5 46 fb 3e 90 d0 07 3f 7b 06 34 bd
       -0.22588523 0.49077335 0.53052616 -0.043951493
000050 c4 39 d2 be b3 cd da be c3 03 e3 3e 95 2a e6 3e
       -0.41059697 -0.4273506 0.44338807 0.44954363
000060 87 4a 18 bf 08 2b 08 3e 5e 77 33 be a5 05 dc 3e
       -0.5948872 0.13297665 -0.17526004 0.42973056
000070 c7 51 12 3f a8 7f 85 be 2d 85 16 bf 22 3b f5 be
       0.5715603 -0.26073956 -0.5879696 -0.47896677
000080 6b ca b9 3e 09 f7 a8 3e 78 8b 13 3f 74 51 f5 3e
       0.36287245 0.33000973 0.5763469 0.47913706
000090 49 3b e1 3e aa cd e9 be 90 7e 5b 3e f5 14 01 bf
       0.43990543 -0.45664722 0.21434999 -0.504226
0000a0 df c8 ac 3d b6 49 4d 3d 8e 6f 6d be 09 62 85 3e
       0.084367506 0.050119124 -0.23187086 0.26051357
0000b0 f9 90 82 3e 2b 78 be 3e 03 00 f3 3e 65 56 00 3f
       0.2550123 0.37201056 0.47460946 0.5013183
0000c0 f8 32 0d 3f 10 5f ec 3e 23 c1 5f be 0f 40 16 be
       0.551559 0.46166277 -0.2185102 -0.14672874
0000d0 f9 dc c9 3e ef 95 a4 be 4b 4d 7f 3e e1 7a 4b be
       0.394264 -0.3214564 0.24931829 -0.19871093
0000e0 e5 4f b2 3e 0f 8d 00 3f cd 59 c9 3e 89 62 0d bf
       0.3482658 0.5021524 0.39326325 -0.5522848
0000f0 c0 af c3 3d 6f 71 f6 be ce 6d 99 be 59 25 2d 3e
       0.09555006 -0.48133418 -0.29966587 0.16908778
000100 c5 f5 51 3e 87 ff be 3e 91 3e a3 be cb 11 84 3e
       0.2050391 0.37304327 -0.31883672 0.25794825
000110 3c fc e2 3e d5 3d 72 3e 95 f6 90 be 34 d8 ae 3b
       0.44333065 0.236564 -0.28313127 0.005335832
000120 19 87 a6 3e ae 26 f7 be 2e f6 9a be 87 23 a6 bc
       0.32524946 -0.48271698 -0.30265945 -0.020280613
000130 c2 06 10 bf b4 48 a3 be dc 2e cf be ad 5b e8 3d
       -0.5626031 -0.31891406 -0.40465438 0.11345611
000140 82 6b 02 3f ad 39 1c bf c0 35 dc be 2e da 21 3f
       0.50945294 -0.61025506 -0.43009758 0.6322354
000150 49 21 0c bf ad d1 39 be ac f1 ed 3d 38 96 31 3e
       -0.5473829 -0.18146391 0.11618361 0.1734246
000160 cd 44 d3 3e 2f 6e 0a bf 12 54 b0 be af 3d 25 be
       0.41263428 -0.54074377 -0.3443914 -0.16136812
000170 fa d9 09 3d c0 2d ca 3e a3 b4 85 be 32 d6 22 bb
       0.033655144 0.3948803 -0.26114377 -0.0024846909
000180 ec 5a 41 3d 7b a1 b0 be 9a c2 49 be f6 ed b2 bd
       0.04720585 -0.344982 -0.19703141 -0.08736794
000190 c3 a9 34 3e 33 d4 60 3e bc 72 9f be d4 7c b0 3d
       0.17642884 0.21955948 -0.31142223 0.08617559
0001a0 df 99 e1 3e a7 14 ca 3e 21 28 0d bf ba 31 e4 3e
       0.44062707 0.3946888 -0.55139357 0.44569188
0001b0 6f 72 f3 be f5 5f b5 bd a4 79 d9 3d 17 44 f8 3e
       -0.47548243 -0.08856193 0.10618904 0.48489448
0001c0 99 cd 5a 3e 37 d9 df bd 34 6e be 3e 03 db bf be
       0.21367492 -0.10930102 0.37193453 -0.3747178
0001d0 3b e1 e9 be b8 e1 a8 be 94 ff 4d be da f5 9a be
       -0.4567965 -0.3298471 -0.20117027 -0.30265695
0001e0 27 62 13 3f ae 23 16 3d 5a 9e 19 bd db bd c7 3e
       0.57571644 0.03665512 -0.03750453 0.39012036
0001f0 43 13 82 3e ff 24 13 be 9b 20 1e 3f f4 3b e3 3e
       0.2540532 -0.14369582 0.617685 0.44381678

layers.1.weight f4 [128, 128]
000000 f9 48 ca bc b3 cc 9c bb 7d 37 94 3d 42 6a 08 3d
       -0.024693 -0.0047851442 0.07237146 0.03330446
000010 54 9f 11 be 8e 60 35 bd b0 ae 8c bd 76 e5 d7 3d
       -0.14220935 -0.044281535 -0.068692565 0.10541813
000020 d8 15 12 be 51 86 ef 3d a5 5c 3c 3b 5e c4 9f bd
       -0.14266145 0.11695541 0.0028741744 -0.07801126
000030 11 e1 f3 3d fd e8 3c be 1c 27 39 bd 4d 50 c6 3b
       0.119081624 -0.18448253 -0.045203313 0.006052053
000040 48 4a ad bd d7 47 65 3c e6 00 12 be d3 3e b6 3d
       -0.08461434 0.013994179 -0.14258155 0.088987015
000050 ce 38 1d 3c 15 5b 78 3d b0 ab 30 bd f5 cb bb bd
       0.009596063 0.060633738 -0.043132484 -0.09169761
000060 bc f8 6b 3d a0 e2 c7 bc 35 45 1f be 58 f8 40 be
       0.05761026 -0.024400055 -0.15553744 -0.18844736
000070 5d 3b df 3c e2 9e a8 bd 78 58 4c bd a2 57 05 bd
       0.027249986 -0.082334295 -0.049889058 -0.032554276
000080 44 e5 d8 bd 36 cd ec 3c 06 44 8c bd 39 b8 4f bc
       -0.10590604 0.028906446 -0.06848912 -0.012678199
000090 a5 f7 48 3e 7c 3f 95 3d 09 e6 50 3d 40 04 0c 3c
       0.19625719 0.07287499 0.05100063 0.008545935
0000a0 1c a1 66 3d 6b 65 c1 3c e3 e3 1f bd ac 0b 97 3b
       0.05630599 0.02360793 -0.03903569 0.0046095457
0000b0 b5 ee 07 3d 1b 45 68 bd 7e 6c 76 bb 33 6c ec bd
       0.033186633 -0.05670653 -0.0037601287 -0.11544075
0000c0 50 c1 50 3d 3a d4 bf bb 8c e8 80 bd a9 f8 77 3d
       0.050965607 -0.005854157 -0.06294355 0.060539875
0000d0 7b ed dc bd 7d b6 45 3d e8 88 06 3b 46 18 3a 3d
       -0.10787483 0.048269738 0.002052838 0.045433305
0000e0 1e 7d 62 3d 69 ce f7 bd 9b 0b e9 3c 0c 86 69 3b
       0.055295102 -0.120999165 0.028447917 0.0035632877
0000f0 65 99 fb bc 4c c5 11 3e 3e 2d ea 3d 2d 17 f0 3b
       -0.030712793 0.14235419 0.114344105 0.0073269815
000100 94 ec 5d 3d df 8b 06 bd d0 8d b7 3d dc 36 4e bd
       0.054180697 -0.032848235 0.089625955 -0.050345287
000110 dc f4 15 bc 85 9e 96 3d 19 9b b1 3c 34 e5 5f 3d
       -0.009152617 0.07354454 0.021680402 0.054661945
000120 28 47 57 bd a0 27 d6 3b 41 a4 b9 3c 67 38 cc 3c
       -0.052558094 0.0065354854 0.02266133 0.024929238
000130 a1 22 1a 3d 46 1b 13 3d 1e 9c 1a bd 8b b5 e2 3d
       0.03763068 0.03591468 -0.03774654 0.11069783
000140 99 57 64 3c 04 6b 2c 3e 3b 66 68 3c d7 4c ae bd
       0.0139369005 0.16837698 0.01418453 -0.0851075
000150 98 27 8d 3d f1 50 a4 3d 1f f6 6c bd c3 f0 bf bc
       0.068923175 0.08023251 -0.057851907 -0.023430234
000160 a7 b2 32 bd a6 ed 80 3d 3a f4 56 3e c0 65 0c 3d
       -0.043627407 0.06295328 0.20991603 0.034276724
000170 bf 26 02 bd 12 df b8 bb 6a 44 cf 3c 8e 25 49 bd
       -0.031775232 -0.0056418264 0.025301177 -0.04910808
000180 55 42 91 3d 94 dc f3 3c 84 d1 ab bd 5c 9a df 3c
       0.0709273 0.029768266 -0.08389571 0.027295284
000190 92 a0 24 3d 50 23 d9 3c cc 28 6b 3d d8 b2 ad bc
       0.040192194 0.026506096 0.057411954 -0.021203443
0001a0 3a b1 b8 3c 37 a5 e4 bc 2e b4 d2 bb 56 62 a7 3d
       0.022545446 -0.027910812 -0.0064301705 0.08173053
0001b0 5b 1d 53 be a3 15 97 3d 44 2b b4 bd 70 c0 94 bd
       -0.20616667 0.07377174 -0.08797315 -0.07263267
0001c0 40 65 e8 bc 87 34 4c bd 3c ae 13 3d 8a c1 5c 3b
       -0.028368592 -0.04985478 0.036054835 0.0033684694
0001d0 ad 63 06 3e 6f 24 9b 3d 79 2d 7d 3d 3b 38 b8 3d
       0.13123961 0.075753085 0.061810944 0.089951
0001e0 00 83 a1 bc 9e 5f 2c 3b b8 9c a7 3d 7d c6 0d 3d
       -0.019715786 0.002630211 0.081841886 0.03461312
0001f0 ab 9f 9a bd 36 57 8c 3d e8 53 1d 3d c7 8c d2 bd
       -0.075499855 0.06852572 0.038410097 -0.102807574
000200 9e 22 de bd 33 32 2c 3e 0e f8 14 3e db a0 fa 3c
       -0.108464465 0.16816024 0.1454775 0.03059428
000210 53 03 37 be 3d ea 7f ba f2 71 90 bc 49 80 81 3c
       -0.17872362 -0.0009762382 -0.017632458 0.015808241
000220 82 c7 63 3d f5 4a 66 3b 14 ef 07 3d 49 06 12 bc
       0.055610187 0.0035139893 0.033186987 -0.008912631
000230 a3 a2 00 3d 3f a6 90 bd 02 62 66 bd a4 1b 71 3d
       0.031405102 -0.07062959 -0.05624581 0.05886425
000240 c0 e4 f0 bd 8a 34 ab bd 46 c0 0f bd f4 90 55 3d
       -0.117623806 -0.083596304 -0.035095476 0.05214019
000250 38 e2 ec bd 55 38 9c bc 8d 1c 96 bc 87 f2 8b bd
       -0.11566585 -0.01906983 -0.018324161 -0.06833368
000260 99 8a 4b 3d 54 e5 71 bd ef fb ff bc af db 2c be
       0.049692724 -0.059056595 -0.031248061 -0.16880678
000270 5d 12 54 3d 60 0e 16 3d b2 06 d6 bd 6f 52 03 3c
       0.051775325 0.036634803 -0.10450496 0.008015259
000280 77 b9 23 bd 9d 83 ad bd dc 94 03 3c 6b 8b 08 3d
       -0.039971795 -0.08472369 0.008031096 0.033336084
000290 7c d3 42 3d ba 39 f9 bd 13 ba 0a 3c b2 4a c2 3d
       0.04756497 -0.121692136 0.008467215 0.09486903
0002a0 50 8d 9d bd e4 fc b8 bd 07 61 75 3d d3 aa ab 3d
       -0.07692969 -0.0903261 0.059906986 0.083821915
0002b0 4a 80 d8 3b 7e 7b 8d 3d dd ce 66 bd 47 17 54 3c
       0.00660709 0.0690832 -0.056349624 0.012945003
0002c0 58 cd 0b be d6 44 06 be 4e 8b 02 be 74 7f 1a 3e
       -0.13652551 -0.13112196 -0.12748453 0.15087682
0002d0 80 65 0f 3c e6 af d5 3c 5d b4 56 bd c3 38 1c 3d
       0.008752227 0.026084851 -0.0524181 0.03814007
0002e0 81 77 a4 3d 59 eb 3b be a6 9c ac 3d 69 79 20 3d
       0.08030606 -0.18351497 0.08428316 0.039178286
0002f0 c9 33 bc 3d 60 68 93 3c 34 54 81 3d 8e fb 63 3d
       0.09189565 0.017994106 0.063148886 0.055659823
000300 fe 3f e2 3d cd 02 11 3c 4c 0d 10 be f4 02 ae 3d
       0.11047362 0.008850765 -0.14067572 0.08496657
000310 a8 f5 12 bd 0b 77 93 bc f4 f8 73 3c 23 6a a7 bd
       -0.035878807 -0.0180011 0.014890898 -0.08174541
000320 75 32 84 3d a8 f3 f8 bd ea 96 bd 3c 98 b6 84 bd
       0.064549364 -0.12155849 0.02314325 -0.064801395
000330 e3 cf 88 bd 39 59 b2 bd b7 20 92 bc 6e 83 2d 3d
       -0.06680276 -0.08708424 -0.017837865 0.04236167
000340 45 2e 1c 3d b2 bd f8 3d 0e 2e 56 bb 2a 9f dd bd
       0.038130064 0.121455565 -0.003268126 -0.10821374
000350 df 9b 1b 3c fa cb 79 bd f0 6d 58 bc 24 34 88 3c
       0.009497612 -0.060985543 -0.013209805 0.016626425
000360 9a 53 43 3d 1f 83 c7 bd c6 3d b4 3d 0a ab c9 3d
       0.04768715 -0.09741806 0.08800845 0.09847076
000370 0e 32 3b bd c3 22 03 be 6b 94 4c 3d b1 8c 08 bd
       -0.045702033 -0.1280623 0.04994623 -0.0333373
000380 9b 89 15 3d 3a 2b 16 3d 71 22 91 3d 09 d4 b8 bc
       0.036508184 0.036662318 0.07086647 -0.022562044
000390 85 13 01 bd 7d 94 bb bc ab d1 fe bc 62 f4 af 3d
       -0.031512756 -0.022897953 -0.031105837 0.08591534
0003a0 ba 38 42 3d 26 26 6d bd 65 a0 dd 3d d6 99 6f bd
       0.04741738 -0.05789771 0.108216085 -0.05849632
0003b0 d9 bc 62 3d 8a 25 9c 3d 3a 51 7a 3c f1 a4 d9 3c
       0.05535588 0.076243475 0.015278155 0.026567908
0003c0 be 46 4a 3d a3 cb 6b 3d 37 06 54 3c 8a eb 93 bd
       0.04938387 0.05756725 0.012940935 -0.0722266
0003d0 29 9a 02 3e 85 9d d8 3d be 5f 9a 3d f4 e9 62 3d
       0.1275412 0.105769195 0.075377926 0.055398896
0003e0 9c d2 00 be 7f 80 86 bc a3 bb 9a 3b 68 0b cc 3d
       -0.12580341 -0.016418694 0.004722075 0.09963113
0003f0 95 4c 53 bd f9 76 b5 bd 6e b8 3b bd 5b 0b 0f 3c
       -0.051586706 -0.08860583 -0.045830183 0.008730735

layers.1.bias f4 [128]
000000 8a c5 0a be d6 4a c0 bd e7 b8 42 3d f1 09 d4 bd
       -0.13551918 -0.09389274 0.047539618 -0.10353459
000010 73 21 2a 3d 72 92 91 3d 2a 9e 2b bd 11 59 71 bd
       0.041535806 0.0710801 -0.041898884 -0.05892283
000020 19 b8 d8 3c 4e de 12 3d 4e 73 1b 3d bf bd 32 3d
       0.026454972 0.035856538 0.03795176 0.043637987
000030 8c 75 9d bc db e6 78 3d 96 bb 91 3d 50 94 76 bd
       -0.01922109 0.060767036 0.07115857 -0.060200036
000040 2a 8f 24 be 59 9b b1 bc 5c ef 0f bd 29 fe 14 3e
       -0.16070238 -0.02168052 -0.03514038 0.1455008
000050 d8 d3 7c 3d c2 3d 2d bd 76 d7 0d 3e c1 f4 c7 3d
       0.061725467 -0.042295225 0.13851723 0.0976348
000060 5d 1e d8 bc 92 9d c0 3d 44 3c bf bd dd a4 71 3c
       -0.026381666 0.09405054 -0.09337667 0.014748779
000070 c4 41 99 bd 40 78 7b bd 15 31 8d bd d8 ca bc 3d
       -0.07483247 -0.061393976 -0.06894127 0.09218377
000080 bc 34 13 be c3 ba 9c bd dd 6c b4 bd 40 fc ae 3d
       -0.14375585 -0.076528095 -0.088098265 0.085442066
000090 26 90 16 3d 2a 60 07 3e e9 96 32 3d ee 53 e1 bd
       0.036758564 0.13220277 0.04360095 -0.110023364
0000a0 16 eb e8 bc 3f b0 cc bd 88 45 76 3d 4c 1e dd ba
       -0.02843241 -0.09994554 0.060124904 -0.0016869991
0000b0 77 3d 54 bb b4 b7 45 bd 63 1f c6 3d ef f3 16 3e
       -0.0032385269 -0.048270896 0.09673955 0.14741491
0000c0 f8 99 3b 3d 32 95 0c bd 32 9b 42 3c e9 72 a4 bd
       0.045801133 -0.03432197 0.011877822 -0.0802973
0000d0 e8 c0 2b bc ba 70 92 3d 1f d2 fa 3d 79 6a a2 3d
       -0.010483004 0.07150407 0.12247109 0.07930464
0000e0 a5 c1 bb bc 8f c3 6a bc 7d 40 92 bd 0d 59 33 3e
       -0.022919485 -0.014328851 -0.071412064 0.17514439
0000f0 0f 37 e7 3c 11 12 b8 bd 17 24 df 3d 97 f2 b6 3d
       0.028224496 -0.08987821 0.108955555 0.08932989
000100 92 e2 67 bd a8 9c e3 bd 22 9f 8a 3c e0 f6 15 be
       -0.05661256 -0.11113864 0.016921584 -0.14644957
000110 8a fd 08 3e 62 fc 90 bd 53 3c 94 bd 00 16 32 3e
       0.13377967 -0.07079388 -0.072380684 0.17391205
000120 15 b0 10 be 09 0c 15 3e 3b 4e 00 bd 52 38 f4 bd
       -0.1412967 0.14555372 -0.031324606 -0.11924805
000130 ee b3 f2 bb 1a ad de bc 7f 23 8d bd 40 b1 f7 bc
       -0.007406703 -0.02718215 -0.06891536 -0.030235887
000140 3c ff 73 3d 98 16 d0 bc b7 a4 17 bd 36 50 15 be
       0.059569582 -0.025401399 -0.03702232 -0.1458138
000150 52 44 25 3c 5d 6d e6 3d db 62 04 3e dd b3 89 bd
       0.01008709 0.11251328 0.12928335 -0.06723759
000160 49 42 16 be f7 bb 06 3e 69 8c 2f be 9b 40 d6 3d
       -0.14673723 0.1315764 -0.17143406 0.10461541
000170 3e 59 e6 bd fc f2 0e 3e eb 80 ca bd 89 8b 51 3b
       -0.1124749 0.13959879 -0.098878704 0.0031974039
000180 8e 53 1e be cc 30 19 bd 65 20 93 3c cb 85 55 3d
       -0.15461561 -0.037400052 0.017959783 0.052129548
000190 6d 54 18 bd db 40 b9 bd df 6c af 3d d6 a4 1e bd
       -0.03718989 -0.09045573 0.085656874 -0.03873142
0001a0 8f a2 0c bd ed 9b 30 be 52 1a e4 3d 5f 90 58 bd
       -0.034334715 -0.17246981 0.11137833 -0.052872058
0001b0 38 67 ff 3b 8d 13 63 bd aa a5 a9 3c 13 3d 79 bd
       0.007794287 -0.055438567 0.020708878 -0.06084926
0001c0 07 7d cc 3d 02 86 44 bc 7a 25 c5 3b 27 8f ef 3d
       0.099847846 -0.011994841 0.0060164304 0.11697226
0001d0 35 ae b6 3d 78 7e 00 3e 95 79 bc 3d 04 70 f9 3d
       0.08919946 0.12548244 0.092028774 0.121795684
0001e0 40 f6 df bd 15 ca 59 3c b2 d9 0a be 4e 55 f0 3d
       -0.1093564 0.013292809 -0.13559607 0.117350206
0001f0 31 c3 f9 3d 46 d4 f4 ba 9d ed 46 3c 6f 74 ca bd
       0.12195433 -0.0018678985 0.012141612 -0.09885489

layers.2.weight f4 [64, 128]
000000 a2 89 d1 bd 76 fc 30 be b1 20 a8 3d 44 23 8a bd
       -0.102313295 -0.17283806 0.082093604 -0.06745008
000010 82 33 d2 3d 0f 0c 61 3d 90 2f 2b 3d b6 81 0c be
       0.102637306 0.05494314 0.041793406 -0.13721356
000020 ee 65 50 bd 27 3a fc 3d ec c1 e8 bc 70 84 0e 3e
       -0.050878458 0.12315779 -0.028412782 0.13917708
000030 8e b0 e1 3d be b9 ae bc 87 95 7d 3d 8b b4 d2 bd
       0.11020003 -0.021328803 0.06191018 -0.10288342
000040 39 dd 05 be 90 27 3c bc 00 40 0e 3e 6d 74 19 3d
       -0.13072671 -0.011484042 0.13891602 0.037464548
000050 f0 0c 22 bc dc 20 d1 3d 6b b8 a1 3e 2e f1 02 3d
       -0.00989078 0.102113456 0.31586012 0.031968288
000060 db 56 78 be 2b 09 c3 bd 36 56 66 be aa b0 70 3d
       -0.24251883 -0.09523233 -0.22493824 0.05876223
000070 25 1c 26 be e7 87 b5 ba 85 b0 26 be 9b fb 91 3d
       -0.16221674 -0.0013849706 -0.16278274 0.07128068
000080 6d 4f 79 be 9d 19 e2 bd 0e 50 67 bd dc 07 3c 3d
       -0.24346705 -0.110400416 -0.05647283 0.045905933
000090 db 47 3e 3e 92 24 a5 3d 26 e6 ca 3c a0 c0 54 3d
       0.18582098 0.08063616 0.024767946 0.051941514
0000a0 14 cb c4 bd 82 d6 21 be 99 6e 34 3e c2 e9 a2 3c
       -0.096090466 -0.15804484 0.17620315 0.019886855
0000b0 d3 2c 66 be 81 a3 34 be 0a 1b 85 bd c7 b4 ff 3d
       -0.22478037 -0.17640497 -0.06499298 0.124856524
0000c0 22 f1 b8 3c fb ea 26 3e 6e 1c c1 3d f8 29 58 bd
       0.022575919 0.16300575 0.09429251 -0.0527744
0000d0 64 13 4d 3e 63 17 3f bd f3 9f 7d 3d 03 51 d7 3c
       0.20026928 -0.046653163 0.061920118 0.026283747
0000e0 3a 05 2d be ae db 6b 3e 4b 61 00 be e1 0b 91 3e
       -0.16896525 0.2303302 -0.12537114 0.28329375
0000f0 c6 a3 e7 bc 67 4d d9 bc 93 6d 77 3e 67 42 99 3e
       -0.028276335 -0.026526166 0.24162893 0.29933473
000100 6e 49 22 3e a4 11 2d bc 5f 60 bd 3d c5 71 02 3c
       0.15848324 -0.010563288 0.09246897 0.007961695
000110 27 ec 0b 3d eb d7 bf bd 53 16 95 bd 96 3d 7b 3c
       0.03416076 -0.09367355 -0.07279649 0.015334507
000120 63 37 76 be 91 1a d6 3d 06 90 84 be 24 1a de bd
       -0.24044566 0.10454286 -0.2589113 -0.1084483
000130 dd 45 51 bd c5 61 cc bc 7f 21 f0 bc d7 18 9f 3c
       -0.051092017 -0.024948964 -0.029312847 0.019421024
000140 cd ea 31 bc 39 0c d6 bc d4 95 ae bd 7f 30 72 bd
       -0.0108592035 -0.026128875 -0.08524671 -0.05912828
000150 0b 58 78 3d ec 0a 13 bd ca 6d 46 3d ce 4d 4f be
       0.06063084 -0.035899088 0.048444547 -0.20244524
000160 88 f5 c2 3d 54 9d 24 3d c3 a7 bc bb 49 c5 19 3d
       0.095194876 0.040189102 -0.0057573034 0.03754166
000170 f8 28 a6 bd 0f 2d 90 3d 3f 3d 82 be 3b 5f 67 bd
       -0.08113283 0.07039844 -0.25437352 -0.056487303
000180 3f 1b e8 bd 96 2f 4c 3e 16 c2 9a be c6 9f 07 3e
       -0.11333322 0.19940028 -0.302262 0.13244542
000190 ac d5 73 3e e7 13 97 bd 59 50 ff 3d d6 99 4e bc
       0.23811978 -0.07376843 0.12466497 -0.0126099195
0001a0 27 cf 1e 3d 77 df 60 be 95 92 13 3e 7a 29 ef 3d
       0.038771775 -0.21960245 0.14411385 0.11677833
0001b0 c8 ee c5 3c 32 ba d9 bd 68 99 7f bc 2b 4c cb bd
       0.024161711 -0.10631217 -0.01560054 -0.09926637
0001c0 40 c0 db 3b 37 e3 98 3c ff 66 b8 bc b1 bc 12 3e
       0.0067062676 0.018663032 -0.02251005 0.14329793
0001d0 b3 fc 96 3e b8 58 07 3e 1b db c4 3d 57 d5 81 3d
       0.2948967 0.13217437 0.096121036 0.063395195
0001e0 46 ee e5 bd 81 6e c4 3d 6c d0 70 be 82 e8 fe 3d
       -0.11227088 0.095913894 -0.23517007 0.12446691
0001f0 ed 2d 0b 3e f0 2e 13 3e ea a2 13 bd d0 d7 7d bd
       0.13591738 0.14373374 -0.03604404 -0.061973393
000200 6d 31 43 bc 8b cb 70 3e 0c 8e 1a 3e 51 64 71 3e
       -0.0119136395 0.23515145 0.15093249 0.23573424
000210 d3 e5 45 3e 9f 4f 81 3e e1 7d 9f bd 2e 24 02 be
       0.19325952 0.2525606 -0.07787681 -0.12709114
000220 15 21 af bd e1 f6 e3 bd 64 63 40 bb 09 60 e1 3c
       -0.08551232 -0.11131073 -0.0029356116 0.027511613
000230 a3 1b ee 3d 8b a9 23 3e a1 47 6d 3e af 9c 0c bc
       0.11626365 0.15982644 0.23171856 -0.008582278
000240 05 f9 1f 3d 78 bb 18 be f6 79 4a 3e 92 7c 26 bd
       0.039055843 -0.14915264 0.19773087 -0.040646143
000250 6f 8e 20 3d d9 2b 39 3d cf 88 27 3d 9b 8c 91 3d
       0.039198335 0.045207832 0.040901955 0.071068965
000260 28 d5 c7 bd 3d 2b 71 be 0d 4b 5f 3e a3 d2 e5 3d
       -0.09757453 -0.2355165 0.21805973 0.112218164
000270 4c 29 12 bc d0 fd 11 bc 0c 13 37 be c3 f0 61 3e
       -0.008920979 -0.008910611 -0.1787836 0.220645
000280 a3 31 9a 3c 8b 57 13 be 06 2e dc 3c 65 ed f5 3d
       0.018822497 -0.14388864 0.026877414 0.1200817
000290 48 98 31 3d 13 68 5d 3e 6b 53 b7 bd d7 5e e0 bd
       0.043358117 0.21621732 -0.089514576 -0.10955589
0002a0 bc 8c 8e bd da bd 94 be f7 63 6f be 89 7a 86 bc
       -0.06960437 -0.29051095 -0.23377977 -0.016415851
0002b0 f4 95 06 bd ce 66 09 be 66 2b a8 bd 2a de 3d 3d
       -0.03285785 -0.13418123 -0.082114026 0.04635445
0002c0 49 21 1b 3d 4c 80 d9 bd a6 9f 73 3e c4 d2 7e bd
       0.03787354 -0.10620174 0.2379137 -0.06221272
0002d0 82 fd 69 3e 0b 95 04 3e 89 94 54 be bc 86 be bd
       0.22850612 0.1294748 -0.20759787 -0.09303042
0002e0 c3 eb 64 3e ad 64 f3 3d bd b1 4c 3c 94 9e c7 3a
       0.22355561 0.11884437 0.012493548 0.0015229755
0002f0 c3 71 ed 3d 0a d5 8e 3c de f6 68 3d d8 a8 34 3d
       0.11593964 0.01743557 0.056876056 0.044106334
000300 a7 a8 70 3e d4 c8 2b 3e 71 93 39 3e 3f 7f da bd
       0.23501836 0.16775829 0.1812265 -0.106688015
000310 2e f9 b7 bc c4 31 28 3e f3 6f cb bc 3e 7c 15 bd
       -0.022457685 0.16425234 -0.024833655 -0.03649544
000320 32 ec 1c be dd 02 66 3e cc 7f 0f 3d f0 bb 8b bd
       -0.15324476 0.2246203 0.035033986 -0.068229556
000330 a7 70 2a 3e 23 be 67 3e fd 66 90 3e 57 c2 5b 3d
       0.16644536 0.22631125 0.28203574 0.053652134
000340 ba 2e 68 3e ff 4c 88 3e 39 32 46 bd 8d 38 7c bc
       0.22674075 0.26621243 -0.04838774 -0.015394342
000350 d1 e7 46 be fd 98 17 3e 9f c6 24 3e 80 c5 d3 3c
       -0.19424368 0.14804454 0.16091393 0.025851011
000360 8f 4c 0c be 84 3f 18 3e 48 d3 0d bc b4 4b b1 be
       -0.1370108 0.1486798 -0.00865633 -0.3462807
000370 39 bd ca bb d6 4b 91 3c 08 a3 81 bd aa 34 a3 ba
       -0.006187108 0.017736357 -0.06329924 -0.0012451608
000380 09 d9 26 bd c2 6d 6d 3d 53 fd c0 bd 92 a3 fd 3d
       -0.040734325 0.057966 -0.09423318 0.12384714
000390 d8 0c 84 be 68 51 26 be dd 49 1d 3e 6e 83 97 bd
       -0.2579105 -0.16241992 0.15360208 -0.07398115
0003a0 e6 f8 92 3d 44 78 e2 3d 8f 5c 2e bd b7 f1 8e 3e
       0.0717638 0.11058095 -0.04256874 0.2791879
0003b0 98 c0 ce 3d 2e 80 4e 3b bc bb 26 3c 3d 9f e3 bd
       0.10095328 0.0031509507 0.010176595 -0.11114357
0003c0 07 09 3b 3e e3 0f 60 be ee 40 23 be e5 ad 16 3e
       0.18265162 -0.2188106 -0.15942737 0.14714773
0003d0 56 92 ee 3d a3 71 2f 3b 16 db 53 3b 2c c4 5c 3d
       0.11649005 0.0026770614 0.003232663 0.05389802
0003e0 7e 1c 46 3e 42 a2 d0 3d af 2f 3b bd b1 5a 3c be
       0.19346806 0.10187198 -0.04569977 -0.18393971
0003f0 fe 16 50 3d 96 dc 8a 3d 92 0a ed 3d 6b 80 44 bd
       0.050803177 0.06780355 0.11574282 -0.04797403

layers.2.bias f4 [64]
000000 59 81 3f 3d f5 5b 87 bc 94 64 09 bc 75 64 80 3d
       0.046754215 -0.01652334 -0.008385796 0.06269161
000010 f8 e1 9a bc 86 b9 13 3d 54 9d d5 3c ef 54 31 bd
       -0.018906578 0.0360656 0.026075996 -0.04329389
000020 3b 58 2b bd 06 a8 cc 3c c9 d8 00 be 31 4a a5 3c
       -0.04183219 0.024982464 -0.12582697 0.020176979
000030 a3 c2 73 3d f9 38 36 be 5a 8a 22 3d b7 27 bb bd
       0.059511792 -0.17795171 0.039682724 -0.091384344
000040 ad 52 b7 3d 38 bb 87 bc 75 be 90 bd 6f 26 57 3d
       0.08951316 -0.016568765 -0.07067577 0.052526888
000050 16 d6 e0 bd 20 42 03 be 9f 58 3f 3e d1 35 df 3c
       -0.10978334 -0.12818193 0.1868615 0.027247341
000060 8d 33 2b 3d 15 da a8 3d 3e 33 07 3d 9f 16 af 3d
       0.04179721 0.08244721 0.033007853 0.085492365
000070 af 1b c3 bd ee b3 b3 bd 3a 00 2e bd 79 96 de bd
       -0.095267646 -0.08774553 -0.042480685 -0.10868544
000080 8a e8 a2 3d 8c 3e 79 3d 7d 48 88 3c 16 47 6a bc
       0.079545096 0.060850665 0.016636128 -0.014299175
000090 93 c5 cc bd 87 79 cb 3d 5b c7 84 be 1d 9a ac bc
       -0.09998622 0.09935289 -0.25933346 -0.02106958
0000a0 75 a7 09 bd a4 62 9f 3d 0c 82 db bc 93 0a 8c 3d
       -0.033606965 0.07782486 -0.02679541 0.06837954
0000b0 77 66 f1 bd 07 00 e0 3d 8a 3e c0 bc 63 35 06 bd
       -0.11787122 0.10937505 -0.023467321 -0.032765757
0000c0 94 60 bc ba d4 69 e2 3d b6 69 f7 3c 22 e0 b9 bc
       -0.0014372044 0.11055341 0.030201774 -0.022689883
0000d0 08 e1 ab bc a2 f9 f3 bd d1 0a b8 bc 7c 39 d6 3d
       -0.020981327 -0.11912848 -0.022466095 0.10460183
0000e0 de 8a 3e bc b3 13 ad bd db 25 df bd 1e 52 32 bd
       -0.011629788 -0.08451023 -0.10895892 -0.043535344
0000f0 4f b9 1c bd be 3d 99 bd 31 8a a8 3d 22 8a d0 bc
       -0.03826266 -0.074824795 0.08229483 -0.025456492

readout.weight f4 [1, 64]
000000 3f 50 b5 bf 55 84 bb bf 69 bb b6 bf da 3f ad 3f
       -1.4165114 -1.464976 -1.4275943 1.3535111
000010 b9 e6 ba 3f 98 8d b7 bf 44 d9 b9 bf 2d e7 b5 bf
       1.4601661 -1.4340086 -1.4519429 -1.4211174
000020 53 b9 af bf f0 64 b9 3f 20 b2 b7 3f d7 cb ab 3f
       -1.3728431 1.4483929 1.4351234 1.3421582
000030 82 d9 af bf c0 43 b1 3f f0 55 b2 bf 45 de bb 3f
       -1.3738253 1.3848801 -1.3932476 1.4677206
000040 04 cc b2 bf 3d cf b8 3f e3 a1 b6 3f 30 58 b5 bf
       -1.3968511 1.4438244 1.4268154 -1.4167538
000050 2d d2 b1 3f 25 38 b7 3f 85 ca ad bf 91 60 b5 bf
       1.3892266 1.4314009 -1.3577429 -1.4170095
000060 6c f3 ad bf de 3c b8 bf 0c 95 b8 3f 3a f6 b0 3f
       -1.3589911 -1.4393575 1.4420485 1.3825142
000070 ae b5 b0 3f 48 e3 b8 3f 33 88 b2 bf d8 aa b5 3f
       1.3805444 1.4444361 -1.3947815 1.4192762
000080 f9 c7 ac bf d2 b2 b5 bf 77 e6 ab 3f d7 3b b8 bf
       -1.3498527 -1.4195197 1.3429707 -1.4393262
000090 63 ad bb 3f 64 4c b7 bf 26 60 b2 bf c9 69 ae bf
       1.4662288 -1.4320188 -1.3935592 -1.3626033
0000a0 b1 c7 ba bf 42 87 b3 bf 45 d4 b7 3f 8f 1d b3 3f
       -1.4592191 -1.4025652 1.4361655 1.3993396
0000b0 4e b9 b6 3f 05 0f ad bf ba a6 b6 3f b5 e1 ac 3f
       1.42753 -1.3520209 1.4269631 1.350638
0000c0 c1 c4 b6 3f 79 b4 bb bf 33 ce b3 bf 81 b0 b4 3f
       1.4278795 -1.4664451 -1.4047302 1.4116365
0000d0 ff 5d b5 3f da 0b b3 3f b1 8b b5 3f 23 c7 b6 3f
       1.416931 1.3987992 1.4183255 1.4279522
0000e0 06 09 b8 3f 12 35 b8 3f 94 9c b9 3f 86 cf b2 bf
       1.4377754 1.4391196 1.4500909 -1.3969581
0000f0 d3 92 ba bf f9 60 bb 3f 8c a0 ae bf 92 b0 b3 3f
       -1.4576057 1.4638969 -1.3642745 1.403826

layers.0.weight f4 [128, 3]
000000 f6 09 8f 3d 04 6e b6 bd 82 e9 c5 3d 89 f2 34 3d
       0.06984322 -0.089077026 0.09663679 0.044176612
000010 fb f6 4c 3f 2b 53 7c 3e ed 10 2e bf 6c 99 16 3d
       0.8006436 0.24641101 -0.67994577 0.03676741
000020 4c 2e 5b 3e 9f b8 d5 3c a4 b8 36 3f cf 47 94 3e
       0.2140438 0.02608901 0.7137549 0.28961036
000030 d4 5f 88 bf 7e 9c 8d bd 4a 26 9e 3d 83 a8 91 be
       -1.0654244 -0.06914614 0.07722147 -0.28448877
000040 97 f5 89 be 88 02 2d be 44 1f cf be ba 25 99 bd
       -0.26945183 -0.16895497 -0.4045354 -0.07477899
000050 7b 71 80 3d 0b ce 87 bf 0f 4d d6 be e6 55 d7 3d
       0.06271645 -1.0609754 -0.41855666 0.10514431
000060 77 ea 94 3f e4 c4 e1 be e0 eb 9e 3e 76 d0 cc bd
       1.1634053 -0.44095528 0.31039333 -0.10000698
000070 d7 6a 1f 3f 66 21 5b be 68 89 9b 3d 74 91 6f 3e
       0.622724 -0.21399459 0.075945675 0.2339533
000080 60 72 11 bd ea d3 09 3f 91 7c ce 3f fa c8 e6 3d
       -0.035509467 0.5383898 1.6131765 0.11268802
000090 0b 3d ce be b4 a8 d7 3e 36 9f d2 3e 67 ee 10 3f
       -0.40280947 0.42120898 0.41137093 0.56613773
0000a0 91 20 e4 be c9 23 70 bf b7 81 55 3f b7 81 d6 be
       -0.44556096 -0.93804604 0.83401054 -0.4189584
0000b0 fc 00 c7 bd d9 86 83 be d1 aa 1a 3f 99 9d e3 be
       -0.09716985 -0.25688818 0.60416895 -0.44456175
0000c0 07 e1 0f bf e9 2b 43 bf 3d 25 35 3e c1 a9 50 3e
       -0.5620274 -0.76238877 0.17689987 0.20377256
0000d0 b5 57 fc bb 05 d4 18 3c 67 a3 92 bf 3e 11 64 3f
       -0.007700885 0.009327893 -1.1456116 0.8908881
0000e0 09 51 89 3d 65 25 7d be 58 50 a6 3e 1d 39 89 3e
       0.06704909 -0.24721296 0.32483172 0.26801386
0000f0 7c 2c 31 3f 54 bc 60 bf d5 f3 94 bf 1f 9e 3f be
       0.692085 -0.87787366 -1.1636912 -0.18712662
000100 c8 ff 57 bf bd 77 99 3e b3 26 1a 3c 41 08 b0 3e
       -0.84374666 0.29974166 0.009408641 0.34381297
000110 f5 51 56 bc 3f c3 a0 bf f9 98 8a 3e 1f 6b 03 bd
       -0.0130810635 -1.2559584 0.27069834 -0.03208458
000120 95 97 2b 3d 15 90 0d 3f 7d 94 19 3e ba d8 4b 3e
       0.041892607 0.55297977 0.1499805 0.19906893
000130 59 7a 75 3e 75 80 03 bc 73 57 a8 3d 70 dd 5b bf
       0.23972453 -0.008026232 0.082198046 -0.8588476
000140 78 fe 1e bf d8 cd fd bd 06 ef 33 be 82 a1 64 3e
       -0.6210704 -0.12392777 -0.17571649 0.22327235
000150 37 c9 19 bf a4 f4 25 bf af 3d 44 3e 26 fc 20 3e
       -0.60072654 -0.64826417 0.19164155 0.15721187
000160 b7 79 c1 3e a6 e1 f2 3c 81 23 ae bd 27 a8 d4 be
       0.37788174 0.029648613 -0.085028656 -0.4153454
000170 5d e3 99 3e 5e 5f 6b bf fc fb 29 bf bf ab 54 3e
       0.30056277 -0.91942394 -0.6640012 0.20768641
000180 0d 1c 2d bc 83 69 a2 3f 83 ff 01 3e 20 e8 0b bd
       -0.01056577 1.268845 0.12695126 -0.03415692
000190 0a 0a 19 bf ba 13 7f 3e 29 22 1a be fb be fa be
       -0.59780943 0.24909869 -0.15052094 -0.48973832
0001a0 53 ed 43 3e 73 a2 70 3e 93 75 c1 3e 34 49 42 3c
       0.19133501 0.2349947 0.37785015 0.011858273
0001b0 1d 21 44 bf 14 41 cb 3b 84 ef 0c 3e 66 06 a2 be
       -0.76613027 0.0062028263 0.13763243 -0.31645507
0001c0 78 d7 8f 3f f4 7a 2f be ef c7 80 bf 84 8b 30 3f
       1.1237631 -0.17136747 -1.0061015 0.68962884
0001d0 df e6 ca be c6 fa 9e bf 08 82 8e 3e 4f c7 78 be
       -0.39629266 -1.242028 0.2783358 -0.2429478
0001e0 7d e2 d1 be cf 02 f5 be 29 a3 48 be e4 75 e0 3e
       -0.4099311 -0.47853705 -0.1959349 0.43839943
0001f0 b7 5b 48 3f ee 31 19 3d bc 2b a7 be 39 1b a0 be
       0.78264946 0.037401132 -0.32650554 -0.3127077
000200 83 9b 7f 3b ba 0b d4 be dd ee aa be a2 82 ed 3d
       0.0039002604 -0.41415197 -0.33385363 0.11597182
000210 27 c1 47 3f 72 60 18 be d4 bf 4f bd 31 16 a1 be
       0.780291 -0.14880541 -0.05072005 -0.31462243
000220 57 f8 8f 3f 59 a3 b7 be b6 29 1a bf a1 55 74 3f
       1.1247662 -0.35866812 -0.60219896 0.9544316
000230 c9 b7 9d be cf f2 c1 3c 29 6e 61 bf 7a 5e 7f 3e
       -0.3080428 0.02367535 -0.88058716 0.24938384
000240 8c 82 dc be 50 32 d9 be 8e 53 03 3e 79 e5 20 bd
       -0.4306835 -0.42421198 0.12824842 -0.039281342
000250 e3 3f f3 be de 63 2e bf b9 1e ad bd cc f3 b6 3f
       -0.4750968 -0.68121135 -0.084531255 1.4293151
000260 2b 61 cb 3d 1e 4b 81 bf 6b ad 15 3f 20 21 c6 3d
       0.09930643 -1.0101049 0.5846774 0.09674287
000270 45 02 a0 bf 73 43 15 3f bc d0 89 3c e8 83 be be
       -1.2500693 0.58306044 0.016823165 -0.3721001
000280 68 f7 c1 be 0d 3e 2f 3e 80 51 45 bf f8 f7 49 bf
       -0.37884068 0.17113514 -0.77077484 -0.78893995
000290 2c 50 45 3d 6c fb 6c bf 64 19 dd be c8 62 8a bc
       0.04817216 -0.9257114 -0.43183434 -0.016892806
0002a0 ba de b5 3e 0a 48 0e be 21 b8 bf 3e b5 4a 95 bf
       0.3552149 -0.13894668 0.37445167 -1.1663424
0002b0 3c a2 c9 bd 1f 18 82 3c e1 93 8c bf 92 da 8b 3e
       -0.09845397 0.015880642 -1.0982629 0.27315193
0002c0 0f 3b b9 be 8f bd 28 bd 6d c6 6a bf be e2 e5 3e
       -0.3617787 -0.041196402 -0.91709024 0.44899553
0002d0 38 27 ea be f5 95 21 bf 5e 18 08 3e c0 87 74 be
       -0.45733047 -0.6311944 0.13290545 -0.2387991
0002e0 cd c1 df 3f f9 58 c6 3e 9f f4 f8 be d6 92 e8 be
       1.7481018 0.38739756 -0.4862413 -0.45424527
0002f0 c1 ea 14 bf 28 5d 26 3f 3b 9b 1a bf a2 77 66 bf
       -0.58170706 0.64985895 -0.6039311 -0.90026295
000300 fe c8 78 be 4b 94 27 bf 1b 7e 25 3e 9b 29 e7 bc
       -0.24295422 -0.6546065 0.16161387 -0.028218081
000310 6c e8 f1 3f 4a e0 d3 3e b2 29 e6 be 2a 2b 96 3f
       1.8899055 0.41382056 -0.44953686 1.1731923
000320 55 c0 85 3e ac c4 64 bf 7b 63 2c 3f c6 ce e9 bd
       0.261233 -0.893626 0.67339295 -0.11416392
000330 e0 86 d0 be f1 a2 58 bf 34 58 e2 3e 1e 19 54 3e
       -0.407279 -0.8462363 0.4420792 0.20712706
000340 cd 73 b3 3f b8 2d cf 3d 29 cf 7b 3e 3d 45 67 bf
       1.4019715 0.10116142 0.24590744 -0.90340024
000350 e0 65 34 3e 4c 14 7f 3e 54 df a2 3e 4a e3 15 be
       0.17616987 0.24910086 0.3181101 -0.14637485
000360 c3 f9 6f 3e 5d 09 8b 3e 7a e4 f6 bb 86 26 37 bf
       0.2343512 0.2715558 -0.0075345607 -0.7154316
000370 51 0f 03 be 7a 88 58 3d ed b1 01 3f e9 cd a8 3e
       -0.12798811 0.05286453 0.5066212 0.32969597
000380 3d 50 32 bf 97 9b 05 bf b9 17 83 3f 07 00 dd bd
       -0.69653684 -0.52190536 1.0241615 -0.10791021
000390 4f b7 9b bf ce 20 35 3f 1c ec 91 bb fc 97 b9 be
       -1.2165316 0.7075318 -0.0044531953 -0.36248767
0003a0 52 8c 23 3f 3d 64 1e 3e 15 59 a6 bf e7 96 5b 3f
       0.63885987 0.15467925 -1.2995936 0.85777134
0003b0 cc b3 88 bb 1e 05 14 3f f2 43 90 3e f9 76 40 bf
       -0.004171824 0.5782031 0.28176838 -0.7518154
0003c0 38 e2 fa be 53 77 0e bf ab 67 8d 3e d3 47 91 3d
       -0.49000716 -0.55650824 0.27618155 0.070937775
0003d0 8a 2d a3 bc 38 ba 8f 3e 9e 53 93 bf 45 9d a0 3e
       -0.019919176 0.2807176 -1.1509893 0.31369987
0003e0 5f 5b 78 bb 3c 96 5e bf 14 61 df bd ab 69 0a 3e
       -0.0037896258 -0.8694799 -0.10907188 0.13516872
0003f0 d5 74 eb bd b9 81 9c bd 9a c0 0b bf 0f 32 7d bf
       -0.11496893 -0.0764193 -0.5459076 -0.9890451

layers.0.bias f4 [128]
000000 27 34 47 bd aa ca 30 bf 3e 86 ee bd 95 34 c7 bc
       -0.04863372 -0.6905924 -0.116466984 -0.024317065
000010 7a 13 f3 3d 3e 3b 78 3e 1c 55 88 3e 3d fb 29 3f
       0.11868949 0.24241349 0.26627433 0.66398984
000020 e7 43 59 bb 01 42 0d bf e8 db 03 bf c0 de f8 bd
       -0.0033152045 -0.5517884 -0.51507425 -0.12151861
000030 ae b0 a3 3d af fa a0 3e 2a b6 62 3e f6 78 e3 be
       0.07992683 0.31441256 0.22139803 -0.44428223
000040 58 d1 c5 be 90 3b 8c be dc c0 f4 bd 71 3e 8c 3d
       -0.3863628 -0.27389193 -0.119508475 0.06847847
000050 d6 30 b7 3e 80 cc fc be a1 e2 ea be 36 79 58 3e
       0.35779446 -0.4937477 -0.4587603 0.21139988
000060 76 c6 a0 3d bb 3b fd 3e fe b2 ad be a8 35 1d bf
       0.078503534 0.49459633 -0.33925623 -0.6141
000070 79 a2 29 bf 6f 99 02 3f 4e 29 2f bf c0 d5 b0 be
       -0.6626354 0.5101537 -0.684224 -0.34538078
000080 db 6f 0f 3e 33 6b bb be dc 53 49 bf 5a 8e 03 3d
       0.14007513 -0.36605224 -0.78643584 0.03211818
000090 66 b2 b0 be 01 c5 2d be 70 a0 b7 be d2 1b 3e be
       -0.34511107 -0.16969682 -0.35864592 -0.185653
0000a0 75 fd 8c 3e cc c2 cc bd 85 f0 ff be f8 06 0f be
       0.27537122 -0.09998092 -0.4998819 -0.13967502
0000b0 ff b5 e0 bd f5 18 ec bc 08 46 d9 3d 84 f4 14 bf
       -0.10972213 -0.028820494 0.106090605 -0.581856
0000c0 6c 4f e2 be 78 39 93 3e c9 7a df 3e 53 60 dd bd
       -0.4420122 0.28754783 0.43648365 -0.10809388
0000d0 42 ee 21 be 96 be 05 bf da 11 ca 3e c0 d9 35 be
       -0.15813544 -0.52243936 0.39466745 -0.17758846
0000e0 16 d9 38 bf 3a 1b 3b be eb 4e 1f bf ee 8a 51 be
       -0.72206247 -0.18272105 -0.62229794 -0.20463154
0000f0 85 40 ac be ac 17 0e bf ea fc 00 3f 3d 26 8d 3d
       -0.33642974 -0.5550487 0.50385916 0.06892059
000100 8c c5 53 bf f7 c0 48 bf fe 7d 03 be 85 37 d4 3d
       -0.8272331 -0.7841944 -0.12841031 0.10362152
000110 8e f6 c8 bd 30 58 ed 3d ca 27 f1 bd 60 b6 ce bd
       -0.098126516 0.11589086 -0.11775167 -0.10093379
000120 3c 87 fb 3e 8e 2e 8e 3e 3c fc 83 3e 0c bc e4 bc
       0.49126613 0.27769893 0.25778377 -0.027921699
000130 07 ff 9f be 9c bd fd 3e 21 ec a0 be 72 77 4f 3e
       -0.31249258 0.49558723 -0.31430152 0.20260409
000140 67 6a 52 bf ad 40 3b bf cc 56 d4 3d e5 33 e4 be
       -0.8219361 -0.7314556 0.10368118 -0.44570842
000150 33 fe 7b 3e 38 ed 04 3e 12 69 03 bf 05 55 84 bf
       0.24608688 0.12981117 -0.513322 -1.0338446
000160 17 8e f3 be a2 b5 59 be 5a 6d 27 bf 51 ef 24 be
       -0.47569343 -0.21260694 -0.6540123 -0.16106917
000170 f5 fb 17 bf 9e 05 26 3e 44 6f 05 bf 89 67 c7 be
       -0.5936883 0.1621308 -0.521229 -0.3894618
000180 9c 62 1f 3e 56 86 4e 3e 37 0a 8e be bb 7e 31 be
       0.1556496 0.20168433 -0.27742168 -0.173335
000190 3e aa 12 be a5 0e 12 bf dd 64 f6 be e5 f6 c2 be
       -0.14322755 -0.57053596 -0.48123828 -0.3807899
0001a0 31 87 99 3d ad 9d 01 bf 92 dc 7c 3e c9 28 04 3e
       0.07496489 -0.5063122 0.24693516 0.12906183
0001b0 a9 9a 05 be dd 1c 24 bf 39 ea ad be 0a 1b 4f be
       -0.1304728 -0.6410654 -0.3396776 -0.20225158
0001c0 d3 b9 3a 3c d4 22 45 3d 64 66 06 bf be 94 8d 3e
       0.011396843 0.048128918 -0.52499986 0.27652544
0001d0 a6 1d 0e bf 0b 0d 81 3e 4e a9 76 3d a3 67 1e bf
       -0.5551399 0.25205263 0.060220055 -0.6187689
0001e0 82 9f 93 be 8d 9c 35 be 15 d7 ee be e6 fb 0b bf
       -0.28832632 -0.177355 -0.4664847 -0.5468124
0001f0 7b 13 48 3e 5b 94 c7 bc b7 5b 1e bf e3 75 60 be
       0.19538681 -0.024362734 -0.61858696 -0.2191997

layers.1.weight f4 [128, 128]
000000 e0 ac c8 bd 75 a5 4e 3d 34 29 41 bc 5f 1c 19 3d
       -0.09798598 0.05045076 -0.011789609 0.037380572
000010 75 ed ad bd 83 d4 b0 bd 7d 11 43 3d 8c dc 96 bd
       -0.08492557 -0.086342834 0.0476241 -0.07366285
000020 5d ca e4 bd c5 7f 90 bd f4 d3 9c bc bc 0e 83 3c
       -0.1117141 -0.0705562 -0.019144036 0.015998237
000030 2f 93 90 bd a1 e0 d5 bd 1a 01 d3 3c 97 b3 a6 bd
       -0.07059323 -0.10443235 0.025757361 -0.08139723
000040 f0 52 34 bd fa 75 4a 3d 82 18 8a 3d d7 48 9a 3d
       -0.044024408 0.049428917 0.06742956 0.07533424
000050 a4 e0 db 39 cd d6 f9 3c 24 ce 9e 3d 25 2c 1e bd
       0.00041938305 0.030497933 0.07754162 -0.03861632
000060 cb 4f 65 3c f3 16 5d bd fc 9a 41 3d f2 32 48 3d
       0.013996075 -0.053976964 0.047266945 0.04887671
000070 20 57 07 bc 60 ac 8e bd 30 51 b1 bb 41 da 2d 3c
       -0.008260518 -0.06966472 -0.0054112896 0.010611118
000080 c2 62 9e 3d 83 6e f1 3c de f7 f3 bc c3 8e e0 3c
       0.0773368 0.029471641 -0.029781278 0.027411824
000090 27 21 6b bd ac a3 ef 3b 93 87 8a bc 0d 20 4c 3d
       -0.057404663 0.0073132124 -0.01691035 0.049835254
0000a0 b9 bb 93 bd ff 0e fc bc d5 26 b1 3c 45 c9 5f 3b
       -0.0721354 -0.03076887 0.021624962 0.0034147066
0000b0 d9 2a db bd 25 ff 98 3d 10 02 fb 3c 42 30 b2 bc
       -0.10701532 0.0747054 0.030640632 -0.021751527
0000c0 de 0c 83 ba d1 45 86 bd 01 67 c6 bd c6 1f c6 3b
       -0.0009998342 -0.06556285 -0.09687615 0.006046268
0000d0 53 b0 70 3d a0 b8 69 bd a7 a1 78 bc 0c c6 ac 3d
       0.058761906 -0.057060838 -0.01517526 0.08436212
0000e0 0e be 14 bd 8d fe a1 bc 1e 86 72 bd 2a 26 8f bd
       -0.036314063 -0.0197747 -0.059209935 -0.06989701
0000f0 b0 15 8e bd e0 da fe 3c d2 bd 88 bc f0 d6 a2 bc
       -0.0693773 0.031110227 -0.016692076 -0.01987788
000100 f4 55 b6 bd e7 70 10 bd 8a 4e 0f bd 5c 4e 99 3d
       -0.08903113 -0.035263922 -0.03498701 0.07485649
000110 a9 b8 f9 bc 6d c0 41 3a 06 0c 8c 38 52 b0 c1 bd
       -0.03048356 0.00073910394 6.67796e-05 -0.094574586
000120 94 c3 49 3d a8 76 70 bd d2 01 9c bc d2 06 9f 3d
       0.049258783 -0.05870691 -0.019043837 0.07764973
000130 65 43 29 3d ba 0e c2 bd a3 42 63 3d 23 4b aa bc
       0.041324038 -0.09475465 0.05548347 -0.020787781
000140 09 fd 9b 3d c5 66 92 3d bd fa 1f bd 2f 8f 8e 3d
       0.07616622 0.07148508 -0.039057482 0.06960904
000150 55 b2 17 3d 9b 7e 92 3d ed 2b 9d 3d f0 38 d4 3c
       0.037035305 0.07153054 0.07674394 0.025906056
000160 ef 29 2c 3d 80 de f8 3b dc 5b 4d bd 6f d8 8c bd
       0.04203218 0.0075948834 -0.050136432 -0.06877219
000170 0a 6d fd bc c0 70 29 bd 0d 9d c4 3c e6 5b db 3c
       -0.030935783 -0.041367292 0.024000669 0.026777219
000180 c9 bc 8c bd d3 72 af 3b 46 14 a5 bd 36 4b 76 bd
       -0.068719454 0.0053542643 -0.080605075 -0.06013032
000190 81 b1 2b 3d c0 b9 48 3d 5b 8f 92 bd 8d 14 9a 3b
       0.041917328 0.04900527 -0.07156249 0.004702157
0001a0 29 28 4a bc fa 34 5f bd 2d fe 08 bd 0d 54 21 3d
       -0.0123386765 -0.05449388 -0.033445526 0.039386798
0001b0 58 9e 12 3d dc f4 01 bd 8b b0 1f 3d 24 35 8a 3d
       0.03579554 -0.031727657 0.038986724 0.06748417
0001c0 7c b6 cd bd fa 9b 2c 3d ee af 64 bd 89 d5 c1 bd
       -0.10044572 0.04214094 -0.055831842 -0.09464557
0001d0 22 0f 60 3d 05 d1 ab bd 34 59 ce bd ef 9d 8d bd
       0.05470193 -0.08389477 -0.10075608 -0.06914889
0001e0 71 82 a1 3d 44 cd 56 bd be dc 91 3d 12 d8 68 bd
       0.07886208 -0.05244185 0.07122181 -0.056846686
0001f0 43 25 be bd b6 45 c1 bd 0f 74 a4 bd 4e 25 27 3d
       -0.09284451 -0.094371244 -0.08029949 0.04080706
000200 88 a6 e8 bc af 7c 0f 3c c9 a8 93 3d 8c 02 16 3d
       -0.02839972 0.008757754 0.072099276 0.036623523
000210 d1 80 75 3d 96 62 e7 bd 48 dc 3d 3d bc 9f 97 bd
       0.059937302 -0.11298101 0.046352655 -0.07403514
000220 f1 3d f5 be 47 79 87 3d b2 25 6c 3d 9e 3e 7d bd
       -0.4789882 0.06614929 0.057653137 -0.061827295
000230 45 7d 5f bc 85 11 97 bc d7 6c 1a be 6b 84 6e bc
       -0.013640706 -0.018440971 -0.15080582 -0.014557938
000240 44 ac 29 3e 37 e0 6d be d1 77 b2 be 5d b7 4e bd
       0.1656962 -0.23230062 -0.34857038 -0.050467838
000250 f3 1c 84 3d 88 f5 5e 3d 26 4b bd bd b7 6d 2e be
       0.06450834 0.054433376 -0.09242849 -0.1703404
000260 35 20 a7 3d 79 0e 13 be 48 7d 99 bd 9a 48 fc bc
       0.0816044 -0.1436099 -0.074945986 -0.030796338
000270 4b 86 8a bd b5 2a 2e bd d5 86 cd bd 6a e7 05 3d
       -0.067638956 -0.042521197 -0.10035483 0.032691397
000280 0a 2c d7 ba 26 39 bd 3c 95 b4 ef 3c 95 88 52 bb
       -0.0016416323 0.02309854 0.029260913 -0.0032124866
000290 89 ca 47 3d 07 e4 1e 3e 33 bf 28 be 4c 94 4c bd
       0.048777137 0.15516673 -0.16479187 -0.049946114
0002a0 0a 3f 34 be 3b 65 dd bc 46 63 0b bd 18 de cd 3b
       -0.17602172 -0.02702581 -0.03403022 0.006282579
0002b0 4e db 2a be 64 f6 e4 3d 1d 7e 44 bd 66 a3 92 bd
       -0.1668522 0.11179808 -0.047971833 -0.07160072
0002c0 b0 d7 63 bd 34 5e 3b 3c 3d 32 37 be cd c4 ba be
       -0.055625618 0.011436034 -0.17890258 -0.36478272
0002d0 34 33 02 bf 1a e0 6c 3d e8 68 ee 3c b5 4f 64 bd
       -0.5085938 0.057830907 0.029102758 -0.055740077
0002e0 a6 80 a4 3c 6e 60 83 be f3 3d 13 be 3e be a2 bd
       0.020080876 -0.25659508 -0.143791 -0.07946442
0002f0 b7 a8 48 bd dd 8d db 3b 27 c0 6c 3c 7b 06 ed 3d
       -0.048989024 0.006700261 0.01445011 0.11573502
000300 d3 23 99 bd 17 fd 4e 3d 67 a7 8e bd 1c a9 11 be
       -0.07477536 0.050534334 -0.06965523 -0.14224666
000310 08 aa 2b bd 15 ec 0b be cd 5c fb bd 09 f7 41 bd
       -0.0419102 -0.13664277 -0.1227356 -0.04735473
000320 94 54 7b be 1a f8 aa 3d 3e e7 06 bc c4 f1 0c be
       -0.24543983 0.08348103 -0.008233843 -0.13764101
000330 ba b4 13 bf 3a ac db bc 1d 89 19 bf f3 ea cd 3d
       -0.5769764 -0.026815522 -0.59974843 0.10054579
000340 b1 bc a8 bd d8 92 8e bc c7 29 93 be 38 2d c6 3d
       -0.08239115 -0.017404005 -0.2874281 0.096765935
000350 ec 62 90 3d 6a 7a f4 bc 48 f5 3e be 98 58 7a bc
       0.07050118 -0.029843528 -0.18648255 -0.015279911
000360 6b a8 f3 bb 9a f7 88 bd 1a 68 d2 bd 15 4e cd bd
       -0.0074358485 -0.06687851 -0.10273762 -0.100246586
000370 a8 7a 04 3d 49 d2 94 bd a4 4e 8a bd 82 68 62 3d
       0.032343537 -0.07266671 -0.06753281 0.055275448
000380 a9 31 96 3c ab 1e 51 3c 84 35 c6 3d b3 86 92 3c
       0.018334227 0.0127636595 0.09678176 0.017886495
000390 31 8c df be 9e 33 92 bd 2c ee f9 bb be 0e 11 3d
       -0.43661645 -0.071387514 -0.0076272693 0.03541445
0003a0 d4 a2 b5 3c e0 9a 06 3c 69 f7 69 bd 73 34 4a bd
       0.022172369 0.008215636 -0.057120714 -0.049366426
0003b0 f4 f4 bc 3d e6 60 6e 3c c5 63 65 3d 37 8c 43 bd
       0.092264086 0.01454947 0.05600335 -0.04774114
0003c0 e8 c8 ef bd f8 8f e2 bd 88 40 2c bc 7d fd ff bb
       -0.11708242 -0.11062616 -0.010513432 -0.0078122006
0003d0 d0 79 48 bd 35 73 8b bc 32 f8 31 bd 1e b7 58 bd
       -0.048944294 -0.017022708 -0.043449588 -0.05290901
0003e0 5a 80 e0 bc 9d 6c 72 3c a7 04 b5 bc 39 f4 65 3c
       -0.027404953 0.014796403 -0.022096945 0.014035278
0003f0 d6 f1 a5 3d 4a f4 03 be 1c 60 4c bd 14 e6 01 be
       0.08102767 -0.12886158 -0.049896345 -0.12685424
