9_gym-DDPG/results/DDPG_Pendulum-v1_eps0.1_t32_l0.001_update100_s277_1500.pth (torch, 176442 bytes, 12 tensors)

layers.0.weight f4 [128, 4]
-0.52305746 -0.33925763 0.04197864 -0.3616878 0.66089225 0.38988847 -0.029111035 0.03172034
-0.26006165 -0.48609087 0.047915667 -0.19949023 -0.43216076 -0.3666124 -0.323983 -0.2169907
-0.30906424 -0.14095864 0.21763264 0.23002622 0.39971355 -0.0317464 -0.05093777 0.41596878
0.54085064 -0.26192483 -0.18857524 -0.44998437 0.02845635 -0.11174041 0.1197814 0.33819306
0.3384042 0.3416039 0.2540167 0.11795709 0.49310568 0.47723702 0.1300829 -0.4209264
0.22152153 -0.18023226 0.51743704 0.36276954 -0.17724527 -0.27471724 0.12963997 0.52615744
0.25216606 0.20118918 0.17051873 0.4409896 0.37519604 -0.61751854 0.14353219 -0.47217754
0.028064573 -0.39070016 0.048430424 0.29656237 -0.5631641 -0.3492345 -0.33758122 -0.15727496
0.037880007 0.4885926 0.22128001 -0.38867578 -0.52620894 0.4614336 -0.0075605814 -0.3777342
0.014752032 -0.08494461 -0.0031878036 0.03297722 -0.29643062 0.59667623 -0.093141355 0.2405585
-0.11018426 -0.23927458 -0.49276683 -0.19807993 0.312419 0.49652815 0.28468487 -0.2588226
-0.09804494 0.26451945 -0.38501987 -0.061860498 -0.36105 0.029748581 -0.0071310704 -0.13477497
-0.21308939 0.06863524 0.06939153 0.23743014 0.6449519 0.1284224 0.3601907 0.44729462
0.066652894 0.67266333 0.21066928 -0.30758315 -0.4533498 -0.61589485 -0.1991736 0.43509206
0.2852216 -0.70350343 0.12024116 0.25077426 0.56275123 0.42648882 0.3110024 0.29393423
-0.6425636 0.09915333 0.06559461 0.28325322 -0.24689536 0.0039729187 0.09550343 -0.2967448
-0.27180782 0.3006772 -0.009472098 0.009109709 0.2691862 -0.5691685 -0.25050205 -0.6353091
-0.04273758 0.5453116 0.17291977 0.08887424 0.0024963624 0.3568776 -0.27266937 0.0019454538
-0.19230758 0.70341986 0.20131771 -0.17592695 -0.04751998 0.77677715 0.20387016 -0.3174784
-0.092086 0.82632685 -0.11013719 0.09080655 -0.34028625 -0.10914692 0.05190424 0.42616257
0.2603477 0.49824432 -0.3524289 -0.4972545 0.07600848 -0.5914929 -0.29560703 0.5930743
-0.28436238 -0.11927521 0.5086195 0.18214619 0.3413294 -0.13042627 -0.026341595 -0.40505192
0.3082118 0.42917538 0.23712385 0.32573247 0.4173252 -0.3834749 -0.037823696 -0.2961263
-0.51040447 -0.40233228 -0.32340416 -0.41740653 -0.045061287 -0.8459162 0.12284106 -0.12372991
0.04736122 -0.45643404 0.040557574 0.09860371 -0.09423213 0.52538294 -0.07330281 0.045495346
-0.50839555 -0.08433912 0.46767974 -0.11349662 -0.28841355 0.37698218 -0.08705675 -0.47401664
0.2073211 -0.03600973 -0.21363227 0.54907304 -0.2187583 0.7127814 -0.17370266 -0.36263758
0.4716935 -0.5213196 0.257807 -0.20730656 -0.3419203 0.36518443 0.08667292 -0.2636644
0.31654617 0.67857116 0.21273686 -0.18446025 -0.24630444 -0.5201977 -0.27444434 0.15926138
0.30607963 0.0231897 0.5698886 0.1139138 -0.1447592 -0.58449185 0.10579812 0.33959782
-0.2624578 -0.49404645 -0.24962431 -0.03902256 -0.46563986 -0.27741972 0.523618 0.12371819
-0.12665507 -0.47949642 -0.19844359 -0.12817042 0.45768473 0.4278132 0.59682304 0.061656274
00000000: 18e7 05bf 2db3 adbe cbf1 2b3d 252f b9be
00000010: 3c30 293f 769f c73e 447a eebc 30ed 013d
00000020: cd26 85be e7e0 f8be 3843 443d 2b47 4cbe
00000030: 2d44 ddbe 9fb4 bbbe 1ae1 a5be cf32 5ebe
00000040: ab3d 9ebe 7657 10be 17db 5e3e fe8b 6b3e
00000050: 41a7 cc3e 8308 02bd 20a4 50bd dcf9 d43e
00000060: 3075 0a3f 031b 86be de19 41be 5a64 e6be
00000070: 4b1d e93c 28d8 e4bd f34f f53d a427 ad3e
00000080: 5143 ad3e b5e6 ae3e 7a0e 823e 7d93 f13d
00000090: 5978 fc3e 6958 f43e 7434 053e aa83 d7be
000000a0: 8ad6 623e ce8e 38be c176 043f eebc b93e
000000b0: c97f 35be bda7 8cbe 57c0 043e 41b2 063f
000000c0: e91b 813e 8904 4e3e 769c 2e3e 64c9 e13e
000000d0: b219 c03e b215 1ebf 1afa 123e 41c1 f1be
000000e0: ade7 e53c da09 c8be fb5e 463d 06d7 973e
000000f0: 862b 10bf ddce b2be 72d7 acbe b00c 21be
00000100: 1128 1b3d cf28 fa3e 3a97 623e 8300 c7be
00000110: a1b5 06bf 0641 ec3e c1be f7bb 6166 c1be
00000120: 82b2 713c 71f7 adbd 78ea 50bb 1f13 073d
00000130: c1c5 97be c6bf 183f e5c0 bebd f854 763e
00000140: 49a8 e1bd 6504 75be ef4b fcbe 77d5 4abe
00000150: 62f5 9f3e f038 fe3e 37c2 913e 6584 84be
00000160: c9cb c8bd 186f 873e 5321 c5be 6f61 7dbd
00000170: 8cdb b8be 4cb3 f33c c1ab e9bb 7302 0abe
00000180: 1b34 5abe a290 8c3d 251d 8e3d e320 733e
00000190: 911b 253f 2981 033e ea6a b83e cd03 e53e
000001a0: 5081 883d aa33 2c3f b0b9 573e 8a7b 9dbe
000001b0: 771d e8be 49ab 1dbf 2af4 4bbe 63c4 de3e
000001c0: 9108 923e cd18 34bf ff40 f63d 7c65 803e
000001d0: 7710 103f be5c da3e b53b 9f3e 8c7e 963e
000001e0: 0c7f 24bf e710 cb3d 7856 863d 9106 913e
000001f0: 23d2 7cbe 422f 823b 4d97 c33d efee 97be
00000200: 652a 8bbe 5df2 993e dc30 1bbc e440 153c
00000210: c6d2 893e 07b5 11bf ce41 80be 9ea3 22bf
00000220: 9a0d 2fbd 8b99 0b3f e111 313e b303 b63d
00000230: 039a 233b a9b8 b63e 529b 8bbe 99fe fe3a
00000240: 47ec 44be 5313 343f 3b26 4e3e 3226 34be
00000250: 50a4 42bd deda 463f 57c3 503e 878c a2be
00000260: 9697 bcbd 288a 533f 9b8f e1bd c9f8 b93d
00000270: 003a aebe 6c88 dfbd 8a99 543d fb31 da3e
00000280: 4b4c 853e e119 ff3e 9071 b4be 2498 febe
00000290: 55aa 9b3d 146c 17bf ce59 97be b8d3 173f
000002a0: f297 91be 9046 f4bd e334 023f 8884 3a3e
000002b0: bac2 ae3e 778e 05be 54ca d7bc f762 cfbe
000002c0: f0cd 9d3e e0bc db3e 98d0 723e 68c6 a63e
000002d0: a6ab d53e d256 c4be 05ed 1abd de9d 97be
000002e0: dea9 02bf 7ffe cdbe 3b95 a5be 4fb6 d5be
000002f0: 2f92 38bd f78d 58bf 1894 fb3d 1b66 fdbd
00000300: d7fd 413d b9b1 e9be b31f 263d bef0 c93d
00000310: c6fc c0bd 7f7f 063f c91f 96bd 5459 3a3d
00000320: 3626 02bf fdb9 acbd b873 ef3e ea70 e8bd
00000330: f1aa 93be cf03 c13e cf4a b2bd 4fb2 f2be
00000340: fc4b 543e f07e 13bd 6bc2 5abe 0d90 0c3f
00000350: 2d02 60be d878 363f 1cdf 31be a2ab b9be
00000360: cf81 f13e 3475 05bf 47ff 833e 2c48 54be
00000370: 2d10 afbe 74f9 ba3e 9281 b13d 05ff 86be
00000380: 5712 a23e d7b6 2d3f b1d7 593e 26e3 3cbe
00000390: 3b37 7cbe ad2b 05bf f883 8cbe 6a15 233e
000003a0: 78b6 9c3e 53f8 bd3c 38e4 113f a34b e93d
000003b0: c13b 14be 42a1 15bf afac d83d c4df ad3e
000003c0: de60 86be a8f3 fcbe 849d 7fbe 1fd6 1fbd
000003d0: 5968 eebe f509 8ebe d40b 063f f65f fd3d
000003e0: deb1 01be 8e80 f5be cc34 4bbe 1b3f 03be
000003f0: a755 ea3e 550a db3e 65c9 183f 4a8b 7c3d

layers.0.bias f4 [128]
0.13586293 0.28877664 0.30719346 0.2364296 -0.44542563 -0.28862017 -0.05416468 -0.40390804
0.22124316 0.17997445 0.16897671 0.32152307 0.41921252 0.3393194 0.20821328 -0.37921205
-0.11016497 0.4997447 0.49876148 0.33772302 0.22932504 0.49252516 0.10949752 0.60087204
0.42701352 0.13373157 0.25035754 0.28297088 0.4791907 0.24944061 0.16915911 -0.3601663
-0.42072958 0.06721128 -0.48698446 0.49621177 -0.4780157 0.49391967 0.30231693 -0.047104612
0.37646738 0.13683452 0.084324665 0.008861706 0.3689455 0.1392875 0.53665155 0.51325333
-0.1931439 -0.5859631 -0.13230973 -0.1390881 0.47050145 -0.41328436 0.20341362 0.24040441
-0.2548737 0.58539665 0.17301686 -0.42874664 -0.19731617 0.15718652 -0.6031439 -0.025200814
-0.08824536 -0.12321397 -0.41043913 0.36602482 -0.50904286 -0.1474653 0.15059428 0.46881655
-0.46051264 0.5430383 0.44870615 -0.06700852 -0.35101616 -0.15884277 -0.029879661 -0.3962623
0.26765686 -0.2207352 0.26238215 0.1503123 -0.53580827 0.3348077 -0.37148592 -0.3636164
0.53430885 0.3765506 -0.3766056 0.20200337 0.3409537 0.43241754 -0.13884267 -0.3146905
-0.040820792 0.42544338 0.39566395 -0.12420884 -0.47667056 -0.47327992 0.5230015 -0.29184175
-0.38051924 -0.4358268 0.3204625 -0.53255546 -0.3027799 -0.39388058 0.03880156 0.05411814
0.10982244 -0.49135503 0.2886036 -0.5890212 0.06914719 0.5515838 -0.43272194 0.45449612
0.5577876 0.15491866 0.5724814 -0.49191993 -0.21575463 0.24456766 -0.20549887 -0.09239806
00000000: a71f 0b3e 88da 933e 7648 9d3e 9a1a 723e
00000010: d40e e4be 06c6 93be c9db 5dbd 09cd cebe
00000020: 918d 623e 394b 383e 3b08 2d3e ac9e a43e
00000030: 06a3 d63e 46bb ad3e dd35 553e 1528 c2be
00000040: 2c9e e1bd 8ade ff3e aa5d ff3e 08ea ac3e
00000050: 2fd4 6a3e 422c fc3e 3c40 e03d c0d2 193f
00000060: 84a1 da3e eef0 083e dd2e 803e 8fe1 903e
00000070: 7c58 f53e 5c6d 7f3e 0c38 2d3e b867 b8be
00000080: de69 d7be 11a6 893d 0756 f9be 780f fe3e
00000090: 79be f4be 0ae3 fc3e 49c9 9a3e c4f0 40bd
000000a0: 55c0 c03e 591e 0c3e 69b2 ac3d b030 113c
000000b0: 6de6 bc3e 62a1 0e3e ff61 093f 9264 033f
000000c0: 84c7 45be ad01 16bf 347c 07be 1c6d 0ebe
000000d0: 91e5 f03e 029a d3be a94b 503e 932c 763e
000000e0: ce7e 82be 8edc 153f 552b 313e ae84 dbbe
000000f0: 400d 4abe 81f5 203e a367 1abf f071 cebc
00000100: fcb9 b4bd 9b57 fcbd 1425 d2be 9b67 bb3e
00000110: a250 02bf 2501 17be 6335 1a3e b908 f03e
00000120: 50c8 ebbe 8f04 0b3f d0bc e53e c33b 89bd
00000130: 64b8 b3be aea7 22be 31c6 f4bc e4e2 cabe
00000140: 520a 893e 6908 62be f456 863e 78eb 193e
00000150: bb2a 09bf ea6b ab3e 6733 bebe ee2b babe
00000160: 77c8 083f 3ecb c03e 73d2 c0be f9d9 4e3e
00000170: 7c91 ae3e d565 dd3e c62c 0ebe 1d1f a1be
00000180: b433 27bd b7d3 d93e 7794 ca3e 3461 febd
00000190: 2a0e f4be bf51 f2be 6de3 053f 486c 95be
000001a0: 6bd3 c2be b124 dfbe a913 a43e 8e55 08bf
000001b0: f805 9bbe b7aa c9be 62ee 1e3d fcaa 5d3d
000001c0: 96ea e03d e392 fbbe dac3 933e 18ca 16bf
000001d0: 0b9d 8d3d 9934 0d3f bb8d ddbe b7b3 e83e
000001e0: 2bcb 0e3f ffa2 1e3e 248e 123f eedc fbbe
000001f0: c8ee 5cbe f26f 7a3e 4c6e 52be 323b bdbd

layers.1.weight f4 [128, 128]
0.04233693 0.059679937 0.16463836 0.04631355 -0.04520763 -0.08869152 -0.1574168 0.051299464
-0.049331497 -0.106959306 0.120965995 0.1037412 0.10445332 0.0032665832 0.011241317 -0.010328849
-0.17190926 0.13408297 0.14172076 0.21338965 -0.0074287686 -0.01122311 -0.07437976 0.15756986
0.014779422 0.027404588 -0.08483691 0.27673098 0.07710901 -0.039313804 0.07123682 -0.34539297
-0.1794995 -0.1611775 0.072036706 0.021320272 -0.11415776 -0.11819029 0.103895865 0.05157362
-0.024455193 0.24035387 0.113084756 -0.0196207 -0.021269297 0.011247918 -0.003213029 0.12820853
0.028420152 -0.07450635 0.091753855 -0.0154962735 0.23287766 -0.07320033 -0.15990466 -0.07472298
-0.11589493 0.043255627 0.10514504 -0.04671538 0.0686689 0.11021665 0.114446305 -0.036268137
0.020496804 0.11559839 0.043142926 0.08311795 -0.06280262 -0.05777227 0.08483133 0.064779714
0.059052445 -0.0070072464 -0.025332069 0.08538571 0.0010083833 -0.18731375 -0.22905533 -0.22386776
-0.03718846 -0.079662554 -0.047568124 -0.13692294 -0.16150174 -0.04371919 0.060831245 0.0018397286
0.00225635 0.103466734 0.023847975 -0.065781236 -0.0098675415 -0.0120525425 -0.06807782 -0.3211243
-0.06644 0.3273134 -0.053676166 0.025226375 -0.14526281 -0.10686924 0.26437974 -0.072235584
0.15227191 0.011719134 0.21437313 0.07163109 -0.03887775 -0.22040574 0.22347479 0.053922568
0.12953874 -0.124714635 0.034157325 -0.20879929 0.043323964 0.22707142 0.021940881 0.030499443
-0.10246479 0.008814382 0.28199512 -0.050256293 -0.25625384 0.17844464 -0.07168454 -0.1079187
0.11662669 0.06084524 0.019429702 0.050551366 -0.073665 0.055695217 0.05301782 -0.013393632
0.06660307 -0.042416044 -0.034966793 -0.013733749 0.060151193 0.06320959 0.07643738 -0.029039057
0.021474874 -0.1488508 0.036481522 -0.014628532 0.021232614 0.08082389 -0.07080481 -0.023288872
0.0853838 0.060790855 -0.085302435 0.080993816 -0.09339048 -0.034049436 0.066457324 -0.08721041
-0.119893216 -0.027014032 -0.123257615 0.0073454375 -0.1269262 -0.11263677 -0.2547674 -0.0131788
0.053061754 -0.06404965 -0.006251816 0.00013386783 -0.009153696 0.0077226334 0.00930669 0.049089257
0.21823801 -0.03497694 0.011980615 -0.050518367 0.009320873 0.06833137 0.07772605 -0.19989537
-0.0001296487 0.03474761 0.07477221 0.06473798 -0.04308653 -0.080522925 -0.030727563 -0.045885447
0.15233676 -0.14649522 0.031178536 -0.053064477 -0.07703936 0.10628744 0.28251138 0.0021654891
-0.024271714 0.053074818 0.031884 0.19080462 0.049192265 -0.01710252 -0.04695027 -0.15464754
0.034638427 -0.25564793 -0.114051804 0.010780087 -0.0064939745 -0.114121705 -0.099108465 -0.091525994
0.09486133 -0.07465339 0.012924022 0.06882879 0.015104564 0.01637686 -0.015103369 0.021510987
0.014216466 0.09411056 0.0031527337 0.17630589 0.0631853 0.07177252 -0.08940194 0.13909777
-0.029395983 -0.051924672 0.085841134 -0.042889252 -0.14522359 0.049010925 -0.08337248 0.03477527
0.16866189 -0.111513086 0.09864277 -0.064609654 -0.09891018 -0.055469394 -0.025114981 -0.02659847
-0.014788893 0.059866928 -0.0756077 -0.19564533 -0.08503233 -0.047514852 0.041646726 0.0935625
00000000: 7d69 2d3d f372 743d f596 283e 47b3 3d3d
00000010: a32b 39bd e6a3 b5bd df31 21be 631f 523d
00000020: d30f 4abd 7b0d dbbd 05bd f73d 4476 d43d
00000030: 9feb d53d 2c14 563b 802d 383c 553a 29bc
00000040: fb08 30be 0c4d 093e 3f1f 113e d182 5a3e
00000050: 076d f3bb 23e1 37bc 6a54 98bd fe59 213e
00000060: 6425 723c 967f e03c f9be adbd afaf 8d3e
00000070: 54eb 9d3d 8307 21bd 9ce4 913d 59d7 b0be
00000080: b8ce 37be b70b 25be fb87 933d daa7 ae3c
00000090: 8bcb e9bd c00d f2bd 5bc7 d43d dc3e 533d
000000a0: 4256 c8bc 531f 763e fb98 e73d 97bb a0bc
000000b0: f33c aebc 3049 383c ae91 52bb 1949 033e
000000c0: 61d1 e83c c996 98bd 72e9 bb3d 15e4 7dbc
000000d0: 7b77 6e3e 0eea 95bd 0cbe 23be 5d08 99bd
000000e0: 525a edbd d02c 313d 4856 d73d a058 3fbd
000000f0: 48a2 8c3d 44b9 e13d d362 ea3d e68d 14bd
00000100: eae8 a73c d9be ec3d a3b6 303d be39 aa3d
00000110: a99e 80bd 9ea2 6cbd 0cbc ad3d 3aab 843d
00000120: fae0 713d 0b9d e5bb 3385 cfbc b4de ae3d
00000130: bb2b 843a 2dcf 3fbe 7b8d 6abe 973d 65be
00000140: ed52 18bd 1f26 a3bd cbd6 42bd 8735 0cbe
00000150: b660 25be e512 33bd 2f2a 793d 0c23 f13a
00000160: 45df 133b 5ee6 d33d d45c c33c 50b8 86bd
00000170: 78ab 21bc 0778 45bc 626c 8bbd 676a a4be
00000180: b211 88bd 9f95 a73e 8adb 5bbd 8ba7 ce3c
00000190: c6bf 14be 43de dabd c85c 873e 40f0 93bd
000001a0: 2bed 1b3e 9c01 403c a184 5b3e 52b3 923d
000001b0: 473e 1fbd 0bb2 61be 93d6 643e e9dd 5c3d
000001c0: cea5 043e 636a ffbd 8de8 0b3d 7bcf 55be
000001d0: 7874 313d 6985 683e 5dbd b33c f8d9 f93c
000001e0: 0fd9 d1bd 336a 103c aa61 903e 8bd9 4dbd
000001f0: b433 83be 31ba 363e 58cf 92bd 7b04 ddbd
00000200: f9d9 ee3d dc38 793d 0a2b 9f3c f30e 4f3d
00000210: addd 96bd ab20 643d 3729 593d f770 5bbc
00000220: 3167 883d 72bc 2dbd 5739 0fbd 8503 61bc
00000230: 1961 763d 0874 813d 338b 9c3d 51e3 edbc
00000240: 13ec af3c 586c 18be a66d 153d 83ac 6fbc
00000250: 05f0 ad3c ff86 a53d 1d02 91bd 4ec8 bebc
00000260: b4dd ae3d d5ff 783d 0bb3 aebd 16e0 a53d
00000270: 8243 bfbd 6c77 0bbd c71a 883d 5f9b b2bd
00000280: 938a f5bd 884c ddbc 7d6e fcbd ffb1 f03b
00000290: f1f8 01be 1bae e6bd df70 82be e5eb 57bc
000002a0: 4857 593d 772c 83bd 09dc ccbb df5e 0c39
000002b0: 62f9 15bc 250e fd3b 167b 183c d111 493d
000002c0: c979 5f3e fb43 0fbd 574a 443c 59ec 4ebd
000002d0: 93b6 183c 51f1 8b3d d62e 9f3d 5fb1 4cbe
000002e0: 4ff2 07b9 8353 0e3d 2c22 993d 5995 843d
000002f0: 807b 30bd 34e9 a4bd 5fb8 fbbc 61f2 3bbd
00000300: 2bfe 1b3e d802 16be 216a ff3c 235a 59bd
00000310: d0c6 9dbd 3bad d93d 55a5 903e e1ea 0d3b
00000320: 79d5 c6bc fb64 593d cc98 023d 4962 433e
00000330: d47d 493d 961a 8cbc ed4e 40bd ed5b 1ebe
00000340: 06e1 0d3d 49e4 82be fe93 e9bd f69e 303c
00000350: 68cb d4bb a4b8 e9bd 61f9 cabd fb71 bbbd
00000360: a846 c23d e0e3 98bd 47bf 533c 1cf6 8c3d
00000370: 2279 773c c428 863c 1f74 77bc cf37 b03c
00000380: 2eec 683c 0abd c03d 189e 4e3b 8889 343e
00000390: 4b67 813d 79fd 923d 5d18 b7bd a56f 0e3e
000003a0: d8cf f0bc f7ae 54bd 7acd af3d a4ac 2fbd
000003b0: 7eb5 14be aebf 483d 31bf aabd 8370 0e3d
000003c0: b4b5 2c3e f960 e4bd 3805 ca3d 1152 84bd
000003d0: 6c91 cabd e033 63bd efbd cdbc 09e5 d9bc
000003e0: 1d4d 72bc 0637 753d 36d8 9abd 4057 48be
000003f0: 6e25 aebd ef9e 42bd c295 2a3d b29d bf3d

layers.1.bias f4 [128]
0.20110564 0.0077439593 -0.1685556 0.07427108 0.065008655 -0.08377069 0.16026731 0.17818838
-0.00790506 0.04147309 0.003962621 0.17808187 0.026689263 0.18481734 -0.041797023 -0.027629951
-0.030223625 -0.018346585 -0.11888127 -0.14445914 -0.0037875953 -0.029875947 0.06729923 0.08638502
-0.11201054 -0.101521604 0.09509683 0.09486867 0.1480829 0.06704525 0.11160259 0.026529161
-0.0391052 -0.036127884 -0.077938035 0.14773928 0.19871035 0.13464665 -0.035268012 0.09090492
0.13138355 -0.040769387 0.08092334 -0.13949187 -0.17466268 -0.2188048 0.005002815 0.14040333
0.072239034 0.11897325 0.15781273 0.019073015 0.026611319 -0.08328679 -0.06730987 -0.036470443
-0.05235147 -0.17221197 -0.049984246 0.037324987 -0.100870185 -0.051676884 -0.048818633 -0.09321537
-0.1713106 -0.0066381725 0.027868945 -0.15044616 0.05586951 -0.01878657 0.14181091 -0.03876074
0.11366917 -0.19497415 -0.25214946 0.10138632 -0.108449064 -0.010228625 -0.14953677 -0.15527911
-0.11494386 0.10386959 -0.055716652 0.13596985 -0.028784776 0.019648198 0.068097 0.008847722
0.10745177 0.11219913 0.14561443 0.11497109 0.0067486377 -0.07006558 0.002442592 -0.032940913
0.092934914 -0.15811622 -0.13584572 0.15408818 -0.14633273 -0.14032128 -0.1685722 -0.07452762
-0.1818926 -0.0726235 -0.091858126 -0.05533682 -0.049948014 0.0036554765 -0.02867299 -0.13297293
0.049348604 0.092444874 -0.01872251 -0.052039184 0.13310276 0.018124737 0.1472673 -0.07436579
-0.054847237 -0.18199891 0.118287146 0.034636043 -0.005064299 -0.11285017 0.069786124 0.09876079
00000000: a3ee 4d3e 0ac1 fd3b d799 2cbe 701b 983d
00000010: 4223 853d f88f abbd 1d1d 243e 0477 363e
00000020: 3a84 01bc b0df 293d e0d8 813b 185b 363e
00000030: 71a3 da3c c240 3d3e 5b33 2bbd 3558 e2bc
00000040: 8997 f7bc 944b 96bc 0678 f3bd 19ed 13be
00000050: 4e39 78bb 67be f4bc 2ed4 893d a1ea b03d
00000060: c865 e5bd 8fea cfbd 20c2 c23d 814a c23d
00000070: 0ba3 173e 054f 893d e68f e43d af53 d93c
00000080: c62c 20bd d5fa 13bd fa9d 9fbd f748 173e
00000090: ba7a 4b3e d0e0 093e 3175 10bd 5c2c ba3d
000000a0: 6989 063e cdfd 26bd 23bb a53d f5d6 0ebe
000000b0: c6da 32be 5e0e 60be a7ee a33b e4c5 0f3e
000000c0: 0ff2 933d 3fa8 f33d a999 213e 033f 9c3c
000000d0: fbff d93c 4492 aabd c2d9 89bd 0862 15bd
000000e0: 7f6e 56bd 5658 30be 48bc 4cbd 16e2 183d
000000f0: 0795 cebd 24ab 53bd 0cf6 47bd b3e7 bebd
00000100: 0c6c 2fbe 0785 d9bb 6a4d e43c 8f0e 1abe
00000110: 6dd7 643d 4be6 99bc e136 113e 95c3 1ebd
00000120: 62cb e83d 4ea7 47be bc19 81be a2a3 cf3d
00000130: 8b1a debd f695 27bc 2b20 19be 7d01 1fbe
00000140: b067 ebbd 94b9 d43d 2537 64bd ae3b 0b3e
00000150: 0dce ebbc 42f5 a03c 7176 8b3d 09f6 103c
00000160: ac0f dc3d a8c8 e53d f31b 153e f675 eb3d
00000170: ad23 dd3b 8b7e 8fbd e513 203b 0ded 06bd
00000180: a954 be3d 38e9 21be 241b 0bbe 4bc9 1d3e
00000190: 3fd8 15be 62b0 0fbe 319e 2cbe f0a1 98bd
000001a0: 0e42 3abe a1bb 94bd 1d20 bcbd dda8 62bd
000001b0: 4a96 4cbd b890 6f3b 9ee3 eabc 0e2a 08be
000001c0: c321 4a3d bd53 bd3d f35f 99bc 0a27 55bd
000001d0: 174c 083e 547a 943c 3dcd 163e 174d 98bd
000001e0: 7fa7 60bd ec5d 3abe 8840 f23d 86de 0d3d
000001f0: 6bf2 a5bb fd1d e7bd 07ec 8e3d 1943 ca3d

layers.2.weight f4 [64, 128]
-0.13099952 0.18199787 0.052773606 0.026595203 0.0496736 0.25760284 -0.025342083 0.019231988
0.04544128 0.00062455883 -0.018370658 -0.19058506 -0.008898738 -0.06397698 0.11137457 0.05789001
-0.015746588 -0.07481908 0.044503335 0.057338186 -0.011359021 -0.07011746 -0.36170095 -0.13933346
0.043495625 0.10789786 -0.11719749 -0.07425505 -0.07944646 -0.046806246 0.258368 -0.07796892
-0.07126265 -0.17407836 0.009225155 -0.10297572 -0.41509137 -0.40542606 0.039151087 -0.022718277
-0.025383258 -0.10538933 -0.12677129 0.0032580185 0.31457633 0.1734573 0.11639621 -0.2048525
0.036276143 -0.32652572 -0.17788318 -0.098446056 -0.21030301 0.23249921 -0.048030876 -0.055708416
0.07971816 0.0077302908 0.06508975 -0.08049299 0.19886366 0.3114866 -0.015347858 0.37204298
0.08104861 0.033490665 0.038506757 0.039177883 0.069482975 -0.2591354 -0.09150743 0.061827585
0.04856227 0.0295677 0.26014745 0.030227657 -0.19975181 0.21880595 0.17530048 0.311105
-0.041793194 -0.22183631 0.5176244 0.06544959 0.053325392 0.024214178 -0.1630673 -0.241888
-0.31059188 0.04130202 -0.3671525 -0.041537493 0.16448003 0.047288895 -0.16067047 0.025941081
-0.29515782 0.08940725 0.0026790441 -0.044522993 0.037025463 -0.013260315 0.11065457 0.01256202
0.4182329 -0.0395858 -0.0661996 0.09732034 -0.09580144 -0.5184634 0.42630172 0.034892764
-0.29389638 -0.011086368 -0.16163066 -0.24811901 -0.03082773 -0.16171296 -0.0038013435 0.073526494
-0.019405007 0.17559144 -0.13462298 0.06788056 0.09021268 -0.15515384 0.033593204 -0.04398339
0.022157902 0.0341914 -0.100497924 0.15302767 0.0040647564 -0.037645936 0.0012436027 0.0662749
0.06395377 0.18240555 0.0937185 0.1681978 0.09302053 0.011250457 -0.05647811 -0.20031293
-0.09164191 0.10220448 -0.07353854 -0.11731063 0.054441977 0.1492461 0.39681518 0.06587372
-0.10193856 0.032979082 -0.023396708 -0.0127248345 0.132682 0.1076248 0.04215451 0.07649004
0.11079493 -0.011145204 -0.16095568 0.16347378 0.15125258 0.12260911 -0.09374678 -0.0949006
0.036151193 -0.14840813 0.03126352 -0.080974944 -0.13697352 -0.13691421 -0.032857016 0.14247227
0.13626878 0.18599522 0.04534964 0.05673611 0.1392432 -0.04939029 0.0016563284 -0.11691889
-0.085172005 -0.042389654 0.006578995 -0.047953475 0.032976568 0.08507944 -0.11422567 0.071127474
-0.040629715 0.087100804 0.13588877 -0.10466306 -0.19560723 -0.009172038 -0.032490328 0.035237312
0.100578204 -0.07181488 -0.19912933 -0.026988003 -0.157047 0.12763661 -0.028001549 -0.07354148
0.044052716 0.12195765 -0.08037891 0.12293156 0.022207431 0.03835055 0.10130617 -0.15286557
0.005076621 0.19008683 0.10280078 0.30300447 -0.20314898 -0.066464804 0.00442659 -0.084969595
0.038626272 -0.09801953 0.023386743 0.07995407 -0.076612175 -0.0037203885 -0.090017386 -0.12534043
-0.036206502 -0.044928033 0.032204036 0.277995 0.09897142 0.1493853 -0.17611457 -0.25456288
0.121010445 0.114220455 -0.05329178 0.011925532 0.033141997 -0.11152306 0.038719416 0.06451536
0.05937074 -0.037753675 0.0047266106 0.085164264 0.21335259 -0.024521966 -0.018892575 0.2140768
00000000: bd24 06be a65d 3a3e 2329 583d 2fde d93c
00000010: 8b76 4b3d 85e4 833e 339a cfbc 678c 9d3c
00000020: a320 3a3d 6fb9 233a 107e 96bc bb28 43be
00000030: 03cc 11bc 5d06 83bd 5a18 e43d 131e 6d3d
00000040: fdfe 80bc bf3a 99bd 2149 363d 72db 6a3d
00000050: 301b 3abc be99 8fbd de30 b9be 6ead 0ebe
00000060: 7828 323d 8ef9 dc3d 3d05 f0bd 0813 98bd
00000070: d3b4 a2bd e8b7 3fbd cf48 843e 2bae 9fbd
00000080: 27f2 91bd 9941 32be 1b25 173c efe4 d2bd
00000090: db86 d4be 0194 cfbe e45c 203d ae1b babc
000000a0: 8df0 cfbc 5cd6 d7bd 55d0 01be 7b84 553b
000000b0: 2610 a13e ca9e 313e 2361 ee3d dbc4 51be
000000c0: 4b96 143d 612e a7be 0227 36be 169e c9bd
000000d0: ac59 57be 4614 6e3e 06bc 44bd 822e 64bd
000000e0: 4643 a33d 614e fd3b c64d 853d 82d9 a4bd
000000f0: eaa2 4b3e 2c7b 9f3e 9575 7bbc 6b7c be3e
00000100: d0fc a53d 822d 093d 43b9 1d3d fd78 203d
00000110: 174d 8e3d 65ad 84be 3f68 bbbd ec3e 7d3d
00000120: 3be9 463d f637 f23c 0c32 853e fe9f f73c
00000130: bd8b 4cbe ab0e 603e f881 333e 2849 9f3e
00000140: 572f 2bbd 0f29 63be 0883 043f 6f0a 863d
00000150: ba6b 5a3d d05c c63c 1dfb 26be 7db1 77be
00000160: e605 9fbe 4f2c 293d 6afb bbbe 3823 2abd
00000170: 746d 283e 00b2 413d cd86 24be 6482 d43c
00000180: ed1e 97be 261b b73d e792 2f3b be5d 36bd
00000190: 03a8 173d cb41 59bc dd9e e23d eed0 4d3c
000001a0: 9f22 d63e b824 22bd a893 87bd e34f c73d
000001b0: 8c33 c4bd 04ba 04bf 3844 da3e b7eb 0e3d
000001c0: 9679 96be 99a3 35bc 8282 25be e912 7ebe
000001d0: 708a fcbc 1598 25be f61f 79bb 0f95 963d
000001e0: 40f7 9ebc 3ece 333e 9bda 09be f704 8b3d
000001f0: 6dc1 b83d a6e0 1ebe 0799 093d ed27 34bd
00000200: 7d84 b53c 480c 0c3d dbd1 cdbd 49b3 1c3e
00000210: a631 853b a032 1abd 6200 a33a 23bb 873d
00000220: 32fa 823d 85c8 3a3e 7cef bf3d 0b3c 2c3e
00000230: 8c81 be3d d653 383c 9755 67bd d51e 4dbe
00000240: c1ae bbbd 9550 d13d 609b 96bd 8e40 f0bd
00000250: 8dfe 5e3d f8d3 183e 5c2b cb3e cde8 863d
00000260: 2ac5 d0bd 1315 073d 74aa bfbc d37b 50bc
00000270: cadd 073e 646a dc3d 35aa 2c3d cfa6 9c3d
00000280: 74e8 e23d 609a 36bc 91d1 24be ac65 273e
00000290: f5e1 1a3e 7c1a fb3d 50fe bfbd 3f5b c2bd
000002a0: 4613 143d 4df8 17be 2d0e 003d 31d6 a5bd
000002b0: c942 0cbe 3d33 0cbe 1495 06bd 40e4 113e
000002c0: 0b8a 0b3e 8875 3e3e 8bc0 393d 2064 683d
000002d0: c595 0e3e 794d 4abd 2919 d93a 2c73 efbd
000002e0: a96e aebd c6a0 2dbd 9c94 d73b dd6a 44bd
000002f0: 7012 073d 213e ae3d 26ef e9bd 48ab 913d
00000300: 586b 26bd e861 b23d 6d26 0b3e 9659 d6bd
00000310: 434d 48be 5146 16bc 9414 05bd 0055 103d
00000320: f2fb cd3d ae13 93bd 8fe8 4bbe f215 ddbc
00000330: eed0 20be 2cb3 023e 8163 e5bc ea9c 96bd
00000340: 9f70 343d efc4 f93d b39d a4bd 8bc3 fb3d
00000350: 5cec b53c 7715 1d3d 9c79 cf3d cb88 1cbe
00000360: c959 a63b 1fa6 423e 3789 d23d 6723 9b3e
00000370: 4906 50be b31e 88bd ee0c 913b 8a04 aebd
00000380: 9536 1e3d 77be c8bd 8e95 bf3c f6be a33d
00000390: d8e6 9cbd c3d1 73bb 095b b8bd 3e59 00be
000003a0: 454d 14bd 7506 38bd 61e8 033d 5c55 8e3e
000003b0: 87b1 ca3d 76f8 183e 6157 34be 1156 82be
000003c0: 53d4 f73d 6aec e93d 7b48 5abd 4e63 433c
000003d0: e7bf 073d 3466 e4bd 4098 1e3d a120 843d
000003e0: bc2e 733d 99a3 1abd afe1 9a3b 9a6a ae3d
000003f0: 1a79 5a3e 4ae2 c8bc 9ac4 9abc f336 5b3e

layers.2.bias f4 [64]
-0.1591551 0.13058873 -0.087035686 -0.010506224 -0.0093904445 -0.15775523 -0.11403076 -0.09950437
-0.1469414 0.02588944 -0.07921401 -0.03708517 0.0005970351 -0.015380996 0.06798526 0.17387578
0.053582363 0.07437456 0.16023086 -0.14345592 -0.1356374 0.14375784 0.0056122052 -0.021750709
-0.13155748 -0.13647567 -0.07779234 -0.03964099 0.100425996 -0.042910457 -0.03507704 -0.1230862
0.019871814 -0.015764436 0.20004082 0.12573364 0.0014126058 0.046602488 0.14191793 0.044816855
-0.10896396 0.080638126 -0.028497532 0.004191023 -0.083079986 0.07348224 -0.059013076 -0.0230824
-0.13549931 0.009355786 0.0657476 0.07462436 0.05350918 0.015038802 0.110819206 -0.100634925
0.13527265 -0.04761952 0.0028242173 -0.09325012 -0.029886726 -0.053027675 -0.14744028 0.08212339
00000000: 8ef9 22be 0db9 053e c43f b2bd 4c22 2cbc
00000010: 61da 19bc 968a 21be f688 e9bd f2c8 cbbd
00000020: ce77 16be 1716 d43c f43a a2bd 9fe6 17bd
00000030: 5982 1c3a 9300 7cbc db3b 8b3d 7e0c 323e
00000040: 2e79 5b3d b051 983d 8f13 243e 1ce6 12be
00000050: 88e4 0abe 4135 133e 97e6 b73b 8b2e b2bc
00000060: 01b7 06be 47c0 0bbe 9751 9fbd 975e 22bd
00000070: 25ac cd3d e0c2 2fbd f1ac 0fbd 9e14 fcbd
00000080: 37ca a23c 6b24 81bc 80d7 4c3e 52c0 003e
00000090: 2f27 b93a 40e2 3e3d ef52 113e e191 373d
000000a0: 7f28 dfbd 9a25 a53d a873 e9bc d954 893b
000000b0: d725 aabd db7d 963d b2b7 71bd 4d17 bdbc
000000c0: 55c0 0abe 0349 193c ada6 863d a8d4 983d
000000d0: 712c 5b3d 4f65 763c 2ef5 e23d af19 cebd
000000e0: ea84 0a3e b00c 43bd 8116 393b ebf9 bebd
000000f0: 02d5 f4bc 8c33 59bd 96fa 16be 4f30 a83d

readout.weight f4 [1, 64]
1.4273058 -1.5732397 1.3545943 1.3707361 1.3433877 1.4231796 1.4473543 1.3810061
1.2990724 -1.3487115 1.333057 -1.2728736 -1.3649375 -1.3137307 -1.320452 -1.2598922
1.3028423 -1.2777555 -1.4461607 1.4265732 1.2734106 -1.2598536 1.3694005 1.3919317
1.2507179 1.4156259 1.613536 1.314633 -1.2782909 1.3780607 1.4168186 1.5907505
1.596 1.3471572 -1.2659094 -1.3174134 -1.2907622 1.320921 -1.3297064 1.402392
1.3060061 -1.400047 -1.2905517 -1.3708739 1.3103976 -1.3832067 1.3655617 1.3393383
1.5066552 -1.327253 -1.5268427 -1.4196781 -1.2729886 1.5643747 -1.2982676 1.3316026
-1.3656752 1.3425936 1.6022643 1.6095809 -1.565938 1.4682043 1.2860752 -1.384415
00000000: f5b1 b63f eb5f c9bf 5963 ad3f 4874 af3f
00000010: 21f4 ab3f c02a b63f e842 b93f cfc4 b03f
00000020: 0148 a63f 94a2 acbf 9da1 aa3f 86ed a2bf
00000030: 46b6 aebf 5428 a8bf 9204 a9bf 2644 a1bf
00000040: 89c3 a63f 7e8d a3bf cb1b b9bf f399 b63f
00000050: 1eff a23f e242 a1bf 8448 af3f d12a b23f
00000060: 8617 a03f 3b33 b53f 5988 ce3f e545 a83f
00000070: 099f a3bf 4b64 b03f 505a b53f b69d cb3f
00000080: ba49 cc3f a66f ac3f 5209 a2bf 01a1 a8bf
00000090: b237 a5bf f013 a93f d233 aabf 9581 b33f
000000a0: 352b a73f bd34 b3bf cc30 a5bf cc78 afbf
000000b0: 1cbb a73f eb0c b1bf baca ae3f 706f ab3f
000000c0: 14da c03f 6de3 a9bf 956f c3bf 03b8 b5bf
000000d0: 4af1 a2bf 6e3d c83f a22d a6bf f471 aa3f
000000e0: 72ce aebf 1bda ab3f ff16 cd3f bf06 ce3f
000000f0: a870 c8bf 1eee bb3f 1d9e a43f 8334 b1bf

layers.0.weight f4 [128, 3]
0.41158143 0.9251967 0.19184904 0.7698714 0.8116808 0.29770204 -0.3679644 -0.70794487
-0.14628685 0.22836477 0.72058606 0.048399087 -0.5011879 0.8868098 -0.42249748 0.49238685
0.8348778 0.37008297 -0.028914314 0.46858257 -0.28141454 0.7666522 0.027763272 -0.4854899
0.6079655 1.0162321 -0.28588745 0.25865164 -0.972803 -0.015149864 0.7513759 -0.20732662
0.32369006 0.642287 1.1091739 0.43004194 -0.36816195 0.2921056 -0.8729544 -0.69387496
0.59850657 -0.4945339 -0.87683743 -0.1715902 -0.36596707 0.66936904 0.2901049 -0.27855188
-0.8711251 -0.04727583 0.012008575 -0.26015174 0.11365901 0.010614294 -0.6601352 0.4115393
0.15662622 0.60690504 0.20587653 -0.29498357 -0.83903027 0.4692686 -0.016942866 -0.015371418
-1.3997359 -0.014412881 -0.78950626 0.99108994 0.33386412 -0.3618096 -0.67763746 0.12269536
0.1887376 -0.09062284 -0.2717305 0.5672734 -0.3645781 0.30872682 0.56550545 0.15804683
-0.26952794 -0.6984746 1.2547754 0.23066825 -0.7944497 0.34700704 -0.47881874 0.38464165
-0.67158216 -0.3393897 -0.004105121 -0.086110815 0.087309696 0.5518797 -0.3549145 -0.37469998
0.30013353 -0.5449791 0.5242219 0.053926107 0.078097686 -0.63891476 -0.3056677 -0.624886
0.07250896 -0.9176739 -0.8968842 -0.26132917 0.6253899 0.24456331 -0.21106885 -0.19885764
-0.3595796 0.013329954 -0.38280743 -1.1070294 0.40746483 -0.06401575 0.016967012 -0.267415
0.31260487 -0.5646101 0.26450178 0.32484943 -1.4865626 0.47120386 0.5693987 0.14768995
-0.26824805 0.06957944 0.95038974 0.21731192 -0.958971 -0.082228065 0.30562583 -0.9768462
0.16782133 0.00709666 0.3469838 -0.9511559 -0.40012234 -0.62165093 -0.37473142 0.2882317
-1.0873259 0.29392156 0.00551372 0.43622103 -1.030827 0.312661 0.68845755 0.9043594
0.18002933 0.5812263 -0.53858405 -0.3781494 0.6136686 -0.043114077 0.27497423 -0.8121087
-0.361936 0.1988499 -0.30842966 1.3241024 -0.6003465 0.3679493 -0.95191866 -0.2909602
-1.0732161 0.17803504 0.014047891 -0.6823324 0.8929957 -0.77964 0.44832522 -1.0833001
-0.4406227 -0.75443137 -0.33407032 0.24794444 0.24968734 -0.9039058 -0.2672029 -0.7403077
0.48215687 -0.38109338 -0.7999551 0.006039565 0.281809 -0.68928695 0.21076906 -0.8434051
0.67702657 0.32766187 0.20972328 0.5546801 0.113176964 -0.2239251 0.59193736 -0.29739124
-0.28138795 0.6084697 -1.0819639 -0.35305268 0.19710076 -0.7546306 -0.32409662 -0.7033224
-0.29307798 0.24694192 -1.0562135 1.1388451 0.38581967 -0.9618428 0.11546517 -0.41530553
0.6068173 0.85024077 0.32320398 -0.77251446 0.81775165 0.29325944 -0.8970133 1.1430676
0.36124775 -0.8379286 -0.68200535 -0.0061593703 0.21985035 -0.21660455 -0.08749138 -0.18262942
1.646449 -0.6867202 0.046776053 0.8560859 0.2361137 -0.74276966 -0.40250754 -0.083951436
-0.033069085 0.99294865 -0.5412681 -0.94581634 0.1051015 0.023723232 0.49163696 0.96069753
0.22767347 -0.54928356 -0.014061184 -0.68029493 0.9441863 0.20869583 0.34002045 -0.8938854
00000000: cdba d23e b1d9 6c3f 1374 443e 4b16 453f
00000010: 50ca 4f3f 676c 983e d465 bcbe e03b 35bf
00000020: 38cc 15be 74d8 693e 5478 383f 1f3e 463d
00000030: da4d 00bf f805 633f 9751 d8be 211a fc3e
00000040: 8dba 553f 847b bd3e b6dd ecbc 0eea ef3e
00000050: 9115 90be 5243 443f cd6f e33c 2292 f8be
00000060: a1a3 1b3f e513 823f d75f 92be fd6d 843e
00000070: 9e09 79bf 2337 78bc 2c5a 403f 6e4d 54be
00000080: b4ba a53e ec6c 243f 69f9 8d3f 752e dc3e
00000090: b97f bcbe dd8e 953e f179 5fbf caa1 31bf
000000a0: ba37 193f 8c33 fdbe 6b78 60bf 57b5 2fbe
000000b0: 0960 bbbe c55b 2b3f a188 943e 5a9e 8ebe
000000c0: 0e02 5fbf 4da4 41bd 9dbf 443c 9c32 85be
000000d0: 0ec6 e83d 93e7 2d3c 9ffe 28bf 47b5 d23e
000000e0: a062 203e 215e 1b3f 4cd1 523e 1608 97be
000000f0: b0ca 56bf f943 f03e c4cb 8abc 66d8 7bbc
00000100: 8c2a b3bf 0124 6cbc 151d 4abf 12b8 7d3f
00000110: 3df0 aa3e 1c3f b9be a679 2dbf b447 fb3d
00000120: 6e44 413e 7898 b9bd 4320 8bbe d438 113f
00000130: fba9 babe 7111 9e3e f7c4 103f 07d7 213e
00000140: 91ff 89be 3bcf 32bf 7b9c a03f 4c34 6c3e
00000150: 0e61 4bbf e8aa b13e bb27 f5be c0ef c43e
00000160: cfec 2bbf 7dc4 adbe 4084 86bb de5a b0bd
00000170: 6dcf b23d fd47 0d3f 5ab7 b5be add8 bfbe
00000180: 1aab 993e c083 0bbf 6833 063f 9fe1 5c3d
00000190: aef1 9f3d eb8f 23bf 7a80 9cbe 87f8 1fbf
000001a0: 947f 943d adec 6abf 349a 65bf f0cc 85be
000001b0: 8d19 203f ce6e 7a3e 6f22 58be 56a1 4bbe
000001c0: d11a b8be e165 5a3c 56ff c3be 24b3 8dbf
000001d0: 3b9f d03e b11a 83bd 67fe 8a3c 9eea 88be
000001e0: bf0d a03e 4a8a 10bf c76c 873e aa52 a63e
000001f0: af47 bebf a241 f13e 1dc4 113f 093c 173e
00000200: cf57 89be aa7f 8e3d be4c 733f 0487 5e3e
00000210: 207f 75bf 3067 a8bd fd7a 9c3e 9812 7abf
00000220: 5bd9 2b3e 198b e83b dca7 b13e f47e 73bf
00000230: d6dc ccbe 8424 1fbf ccdc bfbe 1b93 933e
00000240: 7f2d 8bbf e37c 963e 70ac b43b 5d58 df3e
00000250: 24f2 83bf 1a15 a03e c13e 303f 1984 673f
00000260: 9c59 383e 3fcb 143f a5e0 09bf cc9c c1be
00000270: 6319 1d3f 6398 30bd 6cc9 8c3e 5be6 4fbf
00000280: ad4f b9be 4f9f 4b3e 7eea 9dbe 307c a93f
00000290: 4fb0 19bf da63 bc3e f1b0 73bf bcf8 94be
000002a0: 255f 89bf d14e 363e 2029 663c 56ad 2ebf
000002b0: 5e9b 643f 7d96 47bf e28a e53e 94a9 8abf
000002c0: 4c99 e1be 6a22 41bf 440b abbe 26e5 7d3e
000002d0: 0aae 7f3e 5f66 67bf d2ce 88be ce84 3dbf
000002e0: 44dd f63e ac1e c3be dcc9 4cbf 8be7 c53b
000002f0: 4549 903e 1c75 30bf d8d3 573e 66e9 57bf
00000300: 9d51 2d3f 4cc3 a73e b3c1 563e 84ff 0d3f
00000310: 53c9 e73d 9f4c 65be 3589 173f aa43 98be
00000320: 1512 90be acc4 1b3f cb7d 8abf 52c3 b4be
00000330: c8d4 493e 792f 41bf feef a5be f00c 34bf
00000340: 510e 96be 58de 7c3e 0132 87bf adc5 913f
00000350: 288a c53e 543b 76bf 0179 ec3d eda2 d4be
00000360: 6158 1b3f 61a9 593f fe7a a53e 82c3 45bf
00000370: 2c58 513f 1a26 963e aaa2 65bf 0a50 923f
00000380: 77f5 b83e 7d82 56bf e797 2ebf 8bd4 c9bb
00000390: 7320 613e 95cd 5dbe ae2e b3bd 3503 3bbe
000003a0: d7be d23f e5cc 2fbf 3f98 3f3d 7228 5b3f
000003b0: cac7 713e 2726 3ebf 7815 cebe bbee abbd
000003c0: 7373 07bd e231 7e3f 8c90 0abf 0521 72bf
000003d0: 753f d73d 3957 c23c d7b7 fb3e 46f0 753f
000003e0: 3c23 693e d99d 0cbf e160 66bc cf27 2ebf
000003f0: 31b6 713f 5cb4 553e 2917 ae3e acd5 64bf

layers.0.bias f4 [128]
-0.15228157 -0.41987017 -0.058714837 -0.26367405 0.4482669 -0.55971867 0.19462012 -1.0418602
-0.5611892 -0.2377885 -0.4068752 -0.4970687 -0.068101235 0.518293 -0.18730432 -0.50981313
0.17608987 -0.40771753 -0.2814465 -0.765647 -0.051119346 0.20619619 -0.20770194 -0.09432382
-0.73617375 -0.31902498 -0.7159662 -0.23232806 0.3975348 -0.7200788 -0.80387276 -0.6892004
-0.020492597 0.26565444 -0.5683726 0.2591398 -0.38707048 -0.56801236 -0.8590142 0.4687499
-0.54179406 -0.44274276 -0.7321279 -0.60277826 -0.09996679 0.26861876 -0.6555522 -0.6795587
0.19432433 -0.21571845 0.033258196 -0.7034811 0.36731243 -0.20811252 0.1521853 -0.43845922
0.31906906 -0.40217912 -0.74259436 -0.2720684 -0.30215922 0.32702613 0.031735733 -0.38514936
0.037874185 -0.31471106 -0.7454085 -0.6984742 -0.4932702 0.08657741 -0.25153467 0.27267522
-0.3690517 -0.38866845 -0.23395182 -0.3725508 -0.022318766 0.36482015 -0.56487817 0.013903135
0.2301881 0.151803 -0.25369674 -0.24301848 -0.8254196 0.0478797 -0.25723687 -0.6211929
-0.40164253 0.0914232 -0.7027725 0.44516528 -0.487739 0.05745945 -0.40063712 -0.1906238
-0.26629582 -0.6373989 0.009274614 0.035390764 0.11613379 -0.16837901 -0.60161924 -0.15288177
-0.41929978 -0.27140358 -0.8200344 -0.5645935 -0.72569156 -0.18600869 0.30314612 0.0050683627
-0.4355678 -0.51646787 -0.8752062 -0.7961513 0.2075453 -0.7232871 0.13248649 0.31435844
0.26528296 -0.5269682 0.47639596 -0.98236805 0.08243122 -0.4972025 -0.0842146 -0.33682743
00000000: b3ef 1bbe 39f9 d6be f87e 70bd 4900 87be
00000010: 3d83 e53e b949 0fbf 7f4a 473e ad5b 85bf
00000020: 18aa 0fbf d47e 73be f251 d0be ca7f febe
00000030: a978 8bbd daae 043f b4cc 3fbe 1d83 02bf
00000040: e750 343e 5ac0 d0be c119 90be 7101 44bf
00000050: 8562 51bd 1825 533e d1af 54be d92c c1bd
00000060: e275 3cbf 3e57 a3be 9049 37bf 68e7 6dbe
00000070: ae89 cb3e 1657 38bf 9bca 4dbf 706f 30bf
00000080: 17e0 a7bc dc03 883e de80 11bf f9ad 843e
00000090: 1a2e c6be 4269 11bf 5be8 5bbf fdff ef3e
000000a0: 04b3 0abf 2eaf e2be bc6c 3bbf ad4f 1abf
000000b0: 63bb ccbd 6688 893e 45d2 27bf 8ff7 2dbf
000000c0: f5fc 463e 4ce5 5cbe bf39 083d 5617 34bf
000000d0: 6010 bc3e 731b 55be 77d6 1b3e ba7d e0be
000000e0: 055d a33e 6cea cdbe aa1a 3ebf 8d4c 8bbe
000000f0: 9db4 9abe f86f a73e 54fd 013d 4c32 c5be
00000100: f621 1b3d cf21 a1be 17d3 3ebf 35cf 32bf
00000110: e98d fcbe 7f4f b13d 27c9 80be 169c 8b3e
00000120: 58f4 bcbe 8dff c6be 1191 6fbe fabe bebe
00000130: d8d5 b6bc b5c9 ba3e db9b 10bf fac9 633c
00000140: 6eb6 6b3e 3f72 1b3e 8ae4 81be d6d9 78be
00000150: b34e 53bf 811d 443d 8db4 83be 7f06 1fbf
00000160: 17a4 cdbe 163c bb3d e6e8 33bf b4ec e33e
00000170: edb8 f9be 9a5a 6b3d 4f20 cdbe e332 43be
00000180: ed57 88be 932c 23bf 8df4 173c e8f5 103d
00000190: 8dd7 ed3d 8c6b 2cbe b803 1abf 0a8d 1cbe
000001a0: 76ae d6be 69f5 8abe c6ed 51bf 3389 10bf
000001b0: ecc6 39bf 1079 3ebe f835 9b3e 8214 a63b
000001c0: be02 dfbe 3d37 04bf 830d 60bf 92d0 4bbf
000001d0: c186 543e 5829 39bf 8aaa 073e 97f3 a03e
000001e0: 2bd3 873e 63e7 06bf 2cea f33e 797c 7bbf
000001f0: b3d1 a83d 5391 febe b478 acbd a574 acbe

layers.1.weight f4 [128, 128]
0.17374638 0.12042147 -0.21566172 0.16221893 0.1625429 0.20983815 0.034774292 0.12588239
0.11540435 -0.07765329 0.068323255 0.32346478 0.083583884 0.027272345 -0.2285494 0.0063351635
0.016933966 0.04751329 0.12434467 0.11700496 -0.14495851 -0.7906394 0.01725836 -0.021865703
-0.13712983 -0.005303617 0.056802224 0.19162704 -0.03515419 -0.06369115 -0.04136752 -0.34029996
-0.026959237 0.062405173 0.048014972 -0.49895212 0.044719726 -0.0150710195 0.18557405 -0.029573826
0.08663617 -0.040788278 0.18784852 0.13591184 0.01806928 -0.13077436 -0.17155929 0.20426588
-0.1571694 -0.1452216 0.051156584 -0.4569749 -0.019734006 0.07826175 0.2759673 -1.2706282
-0.041916553 0.061941672 -0.07653532 0.10723968 -1.2906572 -0.036003336 0.025821373 -0.044453993
0.047452904 -0.006840045 -0.3686941 -1.4832679 -0.08995228 0.056075566 0.12666349 -0.11073936
0.04576756 0.14646704 0.127033 -0.009537652 -0.028688 0.16289665 0.21933797 -0.31246465
0.1829641 -0.086235605 0.2154978 -0.014595835 0.041622218 -0.12548403 0.46834487 0.02519929
-0.05418963 -0.09542589 -0.19513473 -0.16667905 0.04104829 -0.12756725 -0.008018115 0.02057993
0.10913327 0.058937453 -1.607126 -0.57505834 -0.49323177 -0.44518244 0.077333845 -0.23249604
0.08685915 -0.17720519 0.015357455 -0.16969891 -0.41816214 0.004120358 0.28374878 -0.12936972
-0.006632552 0.04969869 0.027197303 0.17693086 0.2017925 0.0062491447 -0.14969659 -0.0012073364
0.012068717 0.15663715 0.16517971 0.36295012 -0.3556394 0.19045073 -0.16452529 -0.020943707
-0.045259107 -1.7356844 -0.036172975 -0.050941743 -0.12048249 -0.25680918 -0.09793577 0.38452637
0.19779216 0.34161076 -0.49996024 -0.19603693 -0.16989963 -0.2062642 -0.17756996 -0.007273841
0.17185223 -0.032264788 0.26388627 0.42670205 0.072773114 0.11538553 0.49121258 0.31941685
0.16412494 -0.30297843 0.21681865 0.27432194 -0.14606288 0.19797462 0.18596555 0.14080161
0.032660153 -0.19592884 0.23834834 -0.24149124 0.0064844564 -0.029685808 0.026387965 -0.117244385
-0.12936124 0.118465655 0.22080341 -0.09445256 0.24724722 0.06316823 0.23395167 0.031366695
0.14309557 0.2618942 -0.36468703 0.5841617 -0.0634153 0.44244334 -0.26597536 0.286136
0.08512478 -0.59241855 0.26083076 0.6265476 0.2977061 -0.13749366 0.21225423 -0.018511035
-1.0891404 -0.10879432 0.55430347 0.58412594 0.17875515 0.087319404 0.357383 -0.17372125
-0.52704513 0.4115548 0.28692356 -0.34452567 0.16992468 -0.12366054 -0.20502575 0.033915643
-0.35739183 0.11994464 -0.62309724 0.043698724 -0.712591 0.16616273 0.10957097 0.067627005
0.5511307 0.029374843 0.0325651 0.07409898 -0.17703149 0.115788735 -0.09422004 0.18907017
-0.064071044 0.3954145 0.09928346 -0.23437148 -0.0733364 -0.223728 0.1263728 0.37475455
-0.24799782 0.21623258 -0.16197811 0.03727697 0.3233311 0.7072476 -0.25111622 -0.13095571
0.26670572 -0.5993199 0.16671853 -0.69842476 -0.03139032 0.19782329 0.17406699 0.19589984
-0.08262417 0.49503163 -0.19500367 -0.5952243 -0.092158094 0.46422377 -0.067986175 0.061689157
00000000: 92ea 313e 889f f63d 6dd6 5cbe b81c 263e
00000010: a571 263e d0df 563e 7d6f 0e3d 50e7 003e
00000020: 1e59 ec3d b008 9fbd 10ed 8b3d 2d9d a53e
00000030: 072e ab3d 416a df3c db08 6abe 3497 cf3b
00000040: 1ab9 8a3c 4c9d 423d 6ba8 fe3d 4ca0 ef3d
00000050: 0170 14be 5867 4abf 6761 8d3c b41f b3bc
00000060: c36b 0cbe f7c9 adbb 73a9 683d e139 443e
00000070: d7fd 0fbd 8170 82bd fd70 29bd cc3b aebe
00000080: 9ed9 dcbc 919c 7f3d 59ab 443d a776 ffbe
00000090: 082c 373d 70ec 76bc 2007 3e3e cf44 f2bc
000000a0: 4e6e b13d 9c11 27bd 5d5b 403e 792c 0b3e
000000b0: 0706 943c b7e9 05be 3dad 2fbe 132b 513e
000000c0: 04f1 20be f9b4 14be 9189 513d 9df8 e9be
000000d0: 36a9 a1bc b247 a03d 964b 8d3e f2a3 a2bf
000000e0: b1b0 2bbd 8db6 7d3d 8dbe 9cbd 7aa0 db3d
000000f0: 4134 a5bf 3c78 13bd 5887 d33c 6415 36bd
00000100: fa5d 423d 7522 e0bb 79c5 bcbe b9db bdbf
00000110: e738 b8bd 7eaf 653d 13b4 013e 51cb e2bd
00000120: c476 3b3d 75fb 153e f014 023e d043 1cbc
00000130: 1903 ebbc 61ce 263e 229a 603e 5efb 9fbe
00000140: f15a 3b3e 4b9c b0bd 75ab 5c3e 5e23 6fbc
00000150: 0f7c 2a3d e37e 00be e6ca ef3e be6e ce3c
00000160: f2f5 5dbd a66e c3bd 66d1 47be eaad 2abe
00000170: 4022 283d fda0 02be 695e 03bc 3e97 a83c
00000180: 4481 df3d 6668 713d 4eb6 cdbf 0637 13bf
00000190: e088 fcbe f4ee e3be 3561 9e3d 7113 6ebe
000001a0: 36e3 b13d 4775 35be d69d 7b3c 8dc5 2dbe
000001b0: 5919 d6be 1104 873b 8547 913e 7f79 04be
000001c0: e155 d9bb db90 4b3d e1cc de3c 5d2d 353e
000001d0: b1a2 4e3e a0c5 cc3b 104a 19be 7d3f 9eba
000001e0: debb 453c 7d65 203e df24 293e 99d4 b93e
000001f0: 5e16 b6be 8405 433e 5179 28be 2392 abbc
00000200: 9d61 39bd e82a debf 1d2a 14bd 4aa8 50bd
00000210: 86bf f6bd 7e7c 83be 8d92 c8bd a4e0 c43e
00000220: 078a 4a3e 9be7 ae3e cafa ffbe e8bd 48be
00000230: 2bfa 2dbe ec36 53be e6d4 35be 6759 eebb
00000240: 08fa 2f3e 1528 04bd 1a1c 873e b178 da3e
00000250: 120a 953d 404f ec3d 3780 fb3e 9b8a a33e
00000260: 5e10 283e fd1f 9bbe b505 5e3e ed73 8c3e
00000270: 8291 15be dcb9 4a3e c16d 3e3e 4c2e 103e
00000280: a7c6 053d 92a1 48be 9611 743e 7b49 77be
00000290: 907b d43b a72f f3bc 932b d83c d31d f0bd
000002a0: 4677 04be 1f9e f23d 4a1a 623e 5870 c1bd
000002b0: 602e 7d3e 585e 813d 0791 6f3e 5d7a 003d
000002c0: a587 123e ff16 863e 42b8 babe 9f8b 153f
000002d0: e1df 81bd ef87 e23e ec2d 88be 6b80 923e
000002e0: e755 ae3d bea8 17bf 9c8b 853e 6c65 203f
000002f0: ef6c 983e 23cb 0cbe 2c59 593e 74a4 97bc
00000300: f468 8bbf 8ecf debd d5e6 0d3f 4789 153f
00000310: 970b 373e 84d4 b23d e8fa b63e fce3 31be
00000320: 6eec 06bf 50b7 d23e a5e7 923e ab65 b0be
00000330: bc00 2e3e bd41 fdbd 45f2 51be 21eb 0a3d
00000340: 10fc b6be 89a5 f53d 4d83 1fbf 6ffd 323d
00000350: 5d6c 36bf 9026 2a3e bf66 e03d 0780 8a3d
00000360: e716 0d3f 83a3 f03c fb62 053d 35c1 973d
00000370: be47 35be a522 ed3d 70f6 c0bd 9c9b 413e
00000380: ae37 83bd c573 ca3e 2055 cb3d 14ff 6fbe
00000390: 6531 96bd f418 65be df67 013e d4df bf3e
000003a0: 24f3 7dbe 136c 5d3e 97dd 25be bcaf 183d
000003b0: a78b a53e 2e0e 353f 4e92 80be 4119 06be
000003c0: a78d 883e 076d 19bf 43b8 2a3e f7cb 32bf
000003d0: 2393 00bd 3092 4a3e 9e3e 323e f899 483e
000003e0: dc36 a9bd c974 fd3e 0baf 47be 9f60 18bf
000003f0: 62bd bcbd bdae ed3e 563c 8bbd c5ad 7c3d

layers.1.bias f4 [128]
-0.07864185 0.055427972 -0.10934108 0.003425382 -0.08852551 -0.10651126 -0.10809891 -0.012750206
-0.06872153 -0.101422265 -0.078415714 -0.03294814 -0.10110351 -0.107540414 0.016942317 0.036394335
-0.0781887 -0.030720541 -0.09487472 0.046092845 -0.08073792 -0.023887092 -0.23338151 0.029972821
-0.36665162 -0.058699705 -0.066125914 -0.18959905 -0.0763453 -0.08492259 -0.10983423 0.039656274
-0.0013033976 0.0076088454 0.026618753 -0.08668644 -0.019338222 -0.05314677 -0.30607986 -0.011999659
-0.074844606 -0.20938686 0.21433242 -0.026614593 0.09347414 0.22046396 0.008424586 -0.030422261
-0.004543646 0.014881882 -0.08349895 -0.031806696 -0.0050860224 0.054655977 -0.08425325 0.0044944063
0.04692727 -0.08759385 0.03389341 -0.010605384 0.051063053 0.10125028 0.041744374 -0.014071013
0.14680354 0.04939632 -0.104692094 0.09406756 -0.035954688 -0.024162715 0.25260904 -0.09644274
0.14639217 0.037644222 0.3036985 0.0040710494 0.058381222 -0.04021131 -0.1464092 -0.014391121
-0.3082556 0.009843643 -0.041698284 -0.055584252 -0.1001954 0.038408853 -0.089718886 -0.037290584
0.11871046 -0.1402893 0.025509253 -0.357353 -0.086179465 0.035993095 0.1737394 0.023397116
0.014020923 -0.5103698 -0.05355681 -0.009673635 0.14787112 0.029781703 -0.106490105 -0.35767758
-0.13994877 -0.07579268 -0.034207787 -0.07462956 0.06448647 -0.21605355 -0.17711626 0.0010772537
0.03998918 0.119841576 -0.0960342 -0.056683447 -0.09048968 0.028878488 -0.054202605 0.015842983
0.054504566 0.021378187 0.026186785 0.0002832875 -0.11440414 -0.10300855 0.16413689 -0.03346378
00000000: fa0e a1bd 7108 633d 37ee dfbd 607c 603b
00000010: dd4c b5bd 9322 dabd f662 ddbd 3de6 50bc
00000020: e0bd 8cbd 7ab6 cfbd 6b98 a0bd a1f4 06bd
00000030: 5b0f cfbd 263e dcbd 9dca 8a3c 3a12 153d
00000040: 6621 a0bd a5a9 fbbc ad4d c2bd dacb 3c3d
00000050: ec59 a5bd ddae c3bc 90fb 6ebe 9089 f53c
00000060: c3b9 bbbe 1a6f 70bd 066d 87bd 4126 42be
00000070: ed5a 9cbd e5eb adbd c5f0 e0bd 9e6e 223d
00000080: c4d6 aaba 9f53 f93b 920f da3c a988 b1bd
00000090: 316b 9ebc 6db0 59bd 80b6 9cbe 389a 44bc
000000a0: 2148 99bd 8269 56be f579 5b3e d906 dabc
000000b0: 5f6f bf3d 4ec1 613e 4607 0a3c 1b38 f9bc
000000c0: dde2 94bb 23d3 733c 7f01 abbd bd47 02bd
000000d0: a6a8 a6bb f2de 5f3d f88c acbd d045 933b
000000e0: cf36 403d 6864 b3bd d1d3 0a3d 34c2 2dbc
000000f0: 7e27 513d 4f5c cf3d 26fc 2a3d 1b8a 66bc
00000100: ab53 163e cc53 4a3d cf68 d6bd 7ea6 c03d
00000110: 3945 13bd e3f0 c5bc f955 813e c583 c5bd
00000120: d4e7 153e d430 1a3d 5f7e 9b3e 7066 853b
00000130: 2621 6f3d 9db4 24bd 4bec 15be bdc8 6bbc
00000140: aed3 9dbe 3b47 213c d2cb 2abd 50ac 63bd
00000150: 3f33 cdbd 9a52 1d3d 89be b7bd 03be 18bd
00000160: 781e f33d 00a8 0fbe c8f8 d03c f9f6 b6be
00000170: dc7e b0bd 7f6d 133d bee8 313e 4fab bf3c
00000180: 03b8 653c 98a7 02bf 635e 5bbd 2a7e 1ebc
00000190: 876b 173e c2f8 f33c 7c17 dabd 8421 b7be
000001a0: bb4e 0fbe 3139 9bbd 771d 0cbd 62d7 98bd
000001b0: 7b11 843d 243d 5dbe f75d 35be a332 8d3a
000001c0: b2cb 233d 806f f53d 94ad c4bd e72c 68bd
000001d0: a752 b9bd 9492 ec3c 8d03 5ebd 25c9 813c
000001e0: 2e40 5f3d 4f21 af3c ab85 d63c 3486 9439
000001f0: b84c eabd 26f6 d2bd 8013 283e 5111 09bd

readout.weight f4 [1, 128]
-0.28648856 0.69267595 0.06401773 -0.043119073 -0.011631841 0.009638643 0.009807804 0.017643707
-0.0696828 0.074876875 -0.04809204 -0.052907534 0.037427474 -0.050361667 -0.006109985 -0.038725838
-0.02726417 0.03858752 -0.05530315 -0.06125393 0.040872645 -0.057396542 0.14955156 -0.062462676
0.79943854 0.014470575 -0.00853944 0.0066633434 -0.004278781 0.018018898 3.7133844 -0.15996791
0.028197015 -0.019092182 0.05256739 -0.05102789 -0.056135796 -0.009810973 0.17123757 -0.4265751
-0.0018009424 -0.3084928 -0.53054374 0.046023503 -0.15583552 1.7625934 -0.04860991 0.042942166
-0.07123172 -0.046688452 1.0333251 0.014424651 0.074550316 -0.009414053 -0.06343657 0.018005216
-0.056109183 -0.060598794 0.017084137 0.07139219 -0.003852069 0.25840664 -0.16554518 0.027173778
0.51598555 -0.03929858 0.004078053 0.38827768 -0.014798791 0.009797118 1.3143535 -0.0046728672
1.7863302 0.008680994 0.5100421 0.032183688 -0.015562842 -0.02759194 0.086636834 0.050515667
1.0017136 -0.007906319 -0.03141943 -0.04905932 -0.042770784 0.024895553 -0.00020080745 -0.019253276
-0.44203308 0.013038165 -0.19689564 1.0084985 -0.06803953 0.020481508 1.6493237 0.049262926
0.06736296 0.3726816 -0.06362972 -0.03195478 0.57518315 0.014261636 -0.028859172 1.0486163
-0.08474756 0.026024919 -0.008202795 -0.0011589888 3.5789247 0.05913014 0.44670546 0.017851047
-0.07167076 -0.41115388 -0.016348986 -0.35873696 -0.5695979 -0.02604829 -0.0362732 -0.020308295
-0.030192694 -0.03261152 0.046619624 0.057028756 -0.017883189 -0.017771754 -0.58852845 0.1162634
00000000: a1ae 92be 3653 313f ba1b 833d a09d 30bd
00000010: 7a93 3ebc 66eb 1d3c e9b0 203c 8989 903c
00000020: dbb5 8ebd 0c59 993d 29fc 44bd 92b5 58bd
00000030: 8d4d 193d 0948 4ebd 4536 c8bb fc9e 1ebd
00000040: 1c59 dfbc f30d 1e3d 8e85 62bd 67e5 7abd
00000050: 136a 273d a318 6bbd 0b24 193e ddd8 7fbd
00000060: 01a8 4c3f fe15 6d3c 02e9 0bbc 2d58 da3b
00000070: 0435 8cbb 5e9c 933c 17a8 6d40 a1ce 23be
00000080: 6dfd e63c 3567 9cbc e750 573d 9f02 51bd
00000090: a6ee 65bd 34be 20bc e758 2f3e 0d68 dabe
000000a0: 990d ecba c5f2 9dbe b7d1 07bf 2483 3c3d
000000b0: 5993 1fbe a99c e13f 2f1b 47bd 20e4 2f3d
000000c0: f0e1 91bd 643c 3fbd ff43 843f 5f55 6c3c
000000d0: d6ad 983d 663d 1abc 08eb 81bd ad7f 933c
000000e0: bed2 65bd 7136 78bd 08f4 8b3c 1236 923d
000000f0: fe72 7cbb e04d 843e ad84 29be 8b9b de3c
00000100: a117 043f 8cf7 20bd 30a1 853b 55cc c63e
00000110: a176 72bc 1784 203c bc3c a83f da1e 99bb
00000120: 78a6 e43f ba3a 0e3c 1e92 023f 0bd3 033d
00000130: 4afb 7ebc 7e08 e2bc a76e b13d 84e9 4e3d
00000140: 2738 803f 8189 01bc a9b1 00bd 6df2 48bd
00000150: 6b30 2fbd c2f1 cb3c d78f 52b9 0cb9 9dbc
00000160: 2952 e2be 079e 553c 039f 49be 7b16 813f
00000170: 4f58 8bbd d6c8 a73c 0a1d d33f ecc7 493d
00000180: 97f5 893d 1fd0 be3e 4c50 82bd 04e3 02bd
00000190: 343f 133f a3a9 693c 126a ecbc 0f39 863f
000001a0: 2190 adbd 3632 d53c 0465 06bc 36e9 97ba
000001b0: 1a0d 6540 7232 723d 94b6 e43e 5c3c 923c
000001c0: 1fc8 92bd c382 d2be 4fee 85bc 5fac b7be
000001d0: 2bd1 11bf 3963 d5bc 3593 14bd 955d a6bc
000001e0: ab56 f7bc a893 05bd 38f4 3e3d fc96 693d
000001f0: c47f 92bc 1296 91bc cda9 16bf 811b ee3d
