9_gym-DDPG/results/DDPG_Pendulum-v1_eps0.1_t32_l0.0005_update20_s455_1000.pth (torch, 176442 bytes, 12 tensors)

layers.0.weight f4 [128, 4]
0	0x3d48d0cf	0.04902726
1	0x3dfdf2ed	0.1239985
2	0xbb91c3aa	-0.004448374
3	0x3d8953c7	0.067054324
4	0xbef03dfe	-0.46922296
5	0xbe0f6dbd	-0.14006706
6	0x3eaf1225	0.3419353
7	0x3e83ba25	0.25727955
8	0xbeaf218e	-0.34205288
9	0x3e3fb5e1	0.18721725
10	0x3dc3bda3	0.09557655
11	0xbea8d94c	-0.32978284
12	0x3ee32cd5	0.44370142
13	0xbe49975a	-0.19686642
14	0x3c510284	0.012756947
15	0x3cb250b1	0.021766992
16	0xbef383c5	-0.4756147
17	0x3f27118e	0.6526116
18	0x3e93102c	0.28723276
19	0xbe07f192	-0.13275746
20	0xbd12a9d1	-0.03580648
21	0xbe14f901	-0.14548112
22	0xbe8acf4a	-0.27111274
23	0xbd8f4ccc	-0.0699707
24	0x3f04045f	0.5156917
25	0x3e97a046	0.29614466
26	0xbe0816f2	-0.13290003
27	0xbe59e753	-0.2127965
28	0x3e80fb9f	0.25191972
29	0x3d75e4c9	0.06003264
30	0x3e1922cb	0.14954679
31	0xbd80503f	-0.06265306
32	0x3dd0b00b	0.101898275
33	0xbeb2acea	-0.34897548
34	0x3d899108	0.06717116
35	0xbe3c54fc	-0.18391794
36	0x3f1342ad	0.57523614
37	0xbcdfe60c	-0.027331375
38	0x3e760c8c	0.24028224
39	0x3e9dade4	0.3079673
40	0x3e542e8c	0.20720881
41	0xbe37cdb7	-0.17949568
42	0xbedbfa50	-0.4296441
43	0x3f129c1d	0.5726946
44	0x3f14ac4b	0.580754
45	0xbf0e2450	-0.5552416
46	0xbe35e5a1	-0.17763378
47	0xbe087f3a	-0.13329783
48	0xbf262ce4	-0.6491225
49	0xbf0e581a	-0.5560318
50	0xbe15e989	-0.14639868
51	0xbd7b572c	-0.06136243
52	0x3dd23d27	0.1026557
53	0xbcba558c	-0.02274587
54	0x3e8d26d2	0.2756868
55	0x3ec929f9	0.39289835
56	0x3e78968c	0.24276179
57	0xbe3c2459	-0.1837324
58	0xbe7150e8	-0.2356602
59	0x3f133830	0.5750761
60	0x3ebd0664	0.36918938
61	0x3e958992	0.2920652
62	0x3e8dfdf5	0.27732816
63	0xbedf8e40	-0.43663216
64	0x3f0e38bd	0.55555326
65	0x3da8ce8e	0.08242522
66	0x3d2e93fc	0.042621598
67	0x3d88d8dd	0.066819884
68	0xbeaeb2eb	-0.3412088
69	0x3e7a3cbc	0.24437231
70	0x3dfbe8c3	0.12300255
71	0x3ca64848	0.020298138
72	0x3e3cbfd7	0.18432556
73	0xbed7bc1e	-0.4213571
74	0x3da35ca5	0.07976655
75	0xbe68eb9f	-0.22746132
76	0xbe520b2d	-0.20512076
77	0x3ea9132a	0.33022434
78	0x3d5a3035	0.05326863
79	0xbec11b28	-0.3771603
80	0x3cbe453d	0.023226375
81	0x3ea9fab6	0.3319909
82	0xbd998f57	-0.07498043
83	0x3e7e4e6a	0.248346
84	0x3e439063	0.19098048
85	0x3eb15f64	0.3464309
86	0xbed5c8c8	-0.41754746
87	0x3e7987a2	0.24368146
88	0xbe405f60	-0.18786383
89	0x3db7b835	0.089706816
90	0xbe952bd3	-0.29134998
91	0xbec26533	-0.37967834
92	0x3e3bf0d2	0.18353584
93	0x3d9587f3	0.07301321
94	0xbec5bc92	-0.3862043
95	0x3cbc972e	0.023021307
96	0xbec7c6df	-0.39018914
97	0xbd86e41d	-0.06586478
98	0xb985aa33	-0.00025494545
99	0x3ef9007f	0.4863319
100	0x3b089146	0.0020838543
101	0xbf12d88f	-0.5736169
102	0xbdcd8f45	-0.10037092
103	0x3d0233f0	0.031787813
104	0xbde84c83	-0.113427185
105	0x3f1d00f0	0.61329556
106	0x3e195feb	0.14977996
107	0x3ed4261f	0.41435334
108	0x3f29a139	0.6626163
109	0xbcbfbd02	-0.023405556
110	0xbe079f24	-0.13244301
111	0x3ba9005b	0.005157513
112	0x3eb8fb95	0.36129442
113	0xbaf0aacc	-0.0018361448
114	0xbd08dcfc	-0.033413872
115	0xbd9bcf6d	-0.07607923
116	0x3e2ffcdd	0.17186303
117	0xbf4063a6	-0.7515205
118	0xbe8379ca	-0.25678855
119	0x3e07e50d	0.1327097
120	0xbef1f4d4	-0.47257102
121	0x3e18c226	0.14917812
122	0x3e84e6c7	0.2595732
123	0x3e2915d9	0.1651224
124	0xbe974940	-0.29548073
125	0xbe63c9ad	-0.22244902
126	0x3c087f6c	0.008331161
127	0x3e9cd4b6	0.30631036
128	0x3df621ee	0.1201819
129	0xbd7d7433	-0.061878394
130	0xbe9266ee	-0.28594154
131	0x3d7c1e27	0.061552193
132	0xbeb5a602	-0.35478216
133	0x3f10c3d5	0.56548816
134	0x3e865f57	0.26244614
135	0x3d6cc300	0.057803154
136	0x3e6cc1b2	0.23120764
137	0xbe0becdd	-0.13664575
138	0x3e4f5b49	0.20249666
139	0xbe38deb8	-0.1805371
140	0xbebe6766	-0.37188262
141	0x3ea49ada	0.32149392
142	0x3d56604a	0.052337922
143	0x3eaf15dd	0.34196368
144	0xbaa9b7be	-0.0012948436
145	0x3e22ebe6	0.159103
146	0xbeb1f05a	-0.34753686
147	0x3df068b6	0.11738722
148	0xbc959b76	-0.018262606
149	0x3e9c22c1	0.30495265
150	0xbc962cf6	-0.018331986
151	0xbd8c9c58	-0.06865758
152	0xbee1d47d	-0.44107428
153	0x3d7ced9b	0.061750036
154	0x3ed9fb2e	0.42574447
155	0x3c993bfe	0.018705364
156	0x3e5078a8	0.20358527
157	0x3f07a9b2	0.5299331
158	0xbe795f59	-0.24352778
159	0x3f06fe3d	0.52731687
160	0x3f03dea4	0.515116
161	0x3f113c6b	0.56732816
162	0x3e890c04	0.2676698
163	0xbe8ba52b	-0.2727445
164	0x3e5a3fcd	0.213134
165	0xbf363cc6	-0.7118648
166	0xbe5d986b	-0.21640174
167	0x3d54e6ba	0.05197785
168	0x3e11d0b2	0.14239767
169	0x3f1e3669	0.61801773
170	0xbe9a0ab5	-0.30086294
171	0xbea6c3cd	-0.3257126
172	0x3ee8e5c8	0.4548781
173	0x3eb1dfed	0.34741154
174	0x3eaceca1	0.33774284
175	0x3e818af8	0.25301337
176	0xbde2a149	-0.11065919
177	0xbed28af9	-0.41121653
178	0x3e59c62e	0.21267006
179	0xbe4dacdf	-0.20085476
180	0xbd9b75e5	-0.07590846
181	0x3f1a5b3d	0.6029547
182	0xbd340efa	-0.043959595
183	0xbcaf5e4b	-0.021407267
184	0x3ebc96c2	0.3683377
185	0x3f015d3d	0.50532895
186	0xbc24e8b1	-0.010065244
187	0xbe4d8ea4	-0.20073944
188	0xbda24270	-0.07922828
189	0x3f47afee	0.7800282
190	0xbdde5ae3	-0.10857179
191	0xbe615071	-0.22003342
192	0xbeab41cb	-0.33448634
193	0xbe91c136	-0.2846772
194	0x3ee16209	0.44020107
195	0x3ee1ae74	0.4407841
196	0x3e7bb7d8	0.2458185
197	0xbefc26ce	-0.49248356
198	0xbd1bd292	-0.038042612
199	0x3e2e8d44	0.17046076
200	0x3ed3b862	0.4135161
201	0x3eb95fff	0.36206052
202	0x3d49a179	0.049226258
203	0xbee1fbd0	-0.4413743
204	0xbe7ef1ee	-0.24896976
205	0x3e1f51a3	0.15558486
206	0xbeaebd7a	-0.34128934
207	0x3e5859fe	0.2112808
208	0xbe85f0fb	-0.26160416
209	0x3ecf45d2	0.40482956
210	0x3dc5b274	0.09653178
211	0xbecd9691	-0.40153936
212	0xbe9d3c42	-0.30710036
213	0xbe3ab225	-0.18232019
214	0xbe9e5262	-0.30922228
215	0x3f147d43	0.58003634
216	0x3f073b5b	0.52824944
217	0x3f124a41	0.5714455
218	0x3ebaf0b1	0.36511758
219	0x3e1003a5	0.1406389
220	0x3e302e35	0.17205127
221	0x3e88f2fb	0.2674788
222	0xbe752f57	-0.2394384
223	0x3e3cbeee	0.18432209
224	0xbf08ddd2	-0.5346347
225	0xbea69f75	-0.3254353
226	0xbd96d755	-0.0736529
227	0x3ad644bc	0.0016347389
228	0x3c23390e	0.009962333
229	0xbf3d4b3f	-0.7394294
230	0xbe6d0940	-0.2314806
231	0x3e202711	0.15639903
232	0xbd926948	-0.07148987
233	0x3e9d96a5	0.30778995
234	0x3ca1c2a4	0.019746132
235	0xbe3735a8	-0.17891562
236	0xbdc0b49b	-0.09409448
237	0xbe108cb1	-0.1411617
238	0x3e7ceef6	0.24700531
239	0x3e71117d	0.23541827
240	0x3eb85ab6	0.36006707
241	0x3f207a66	0.62686765
242	0x3e9cc2a7	0.30617258
243	0x3cfc3970	0.030789107
244	0xbe6cd838	-0.23129356
245	0x3bc7b142	0.006094129
246	0x3edf4d03	0.43613443
247	0xbd2d7eff	-0.04235744
248	0xbdb2a2b7	-0.08722442
249	0x3e8545cc	0.26029813
250	0xbd4a4676	-0.049383603
251	0x3da1207d	0.07867525
252	0xbeb702e5	-0.35744396
253	0xbf7629a4	-0.9615729
254	0xbe95dd16	-0.29270238
255	0x3bee1ce4	0.0072666276

layers.0.bias f4 [128]
0	0x3eb85534	0.36002505
1	0xbf1dd3f9	-0.6165157
2	0x3eb15d16	0.3464133
3	0x3f130f3b	0.57445115
4	0xbe1cb492	-0.15303257
5	0x3e583a89	0.2111608
6	0x3d4c47c8	0.049873143
7	0x3d10a3fc	0.035312638
8	0x3f165477	0.58722633
9	0x3e37192f	0.178807
10	0x3ea3bf29	0.3198178
11	0xbf0bf8d6	-0.5467657
12	0x3e9567bb	0.29180703
13	0xbf0eab84	-0.5573046
14	0xbdc19d4f	-0.09453832
15	0xbeb31ced	-0.34983006
16	0x3e111ccd	0.14171143
17	0x3eaa1a43	0.3322316
18	0x3f1096c3	0.56480044
19	0xbed8f27e	-0.42372507
20	0xbeb81b33	-0.3595825
21	0x3ec8cb10	0.39217424
22	0x3eb072fa	0.3446272
23	0x3eda1c99	0.42599943
24	0x3d80211e	0.062563166
25	0x3dfae024	0.12249783
26	0x3d88d9c2	0.06682159
27	0xbe0e9743	-0.1392489
28	0xbf10ba6f	-0.56534475
29	0x3e3e445d	0.18580766
30	0xbe4a8c78	-0.19780147
31	0x3ec1d686	0.3785898
32	0xbeef9758	-0.46795154
33	0xbedaf0b3	-0.42761764
34	0x3e0a0c54	0.13481265
35	0xbdf449bd	-0.11928127
36	0xbe2c7b0d	-0.16843815
37	0xbf0f13da	-0.55889666
38	0x3f06ba17	0.526277
39	0xbeb2b601	-0.34904483
40	0xbf0d52dd	-0.55204564
41	0x3ebb1555	0.36539713
42	0x3cf3a2c6	0.029740702
43	0xbe0efd98	-0.13963926
44	0xbd5ff69c	-0.054678544
45	0x3e905809	0.28192165
46	0xbed6fa24	-0.41987717
47	0xbea534b4	-0.32266772
48	0x3ef0cff5	0.4703366
49	0xbeb77e1b	-0.35838398
50	0x3c8e64aa	0.017381985
51	0xbe938e4c	-0.288195
52	0xbf00d4c4	-0.50324655
53	0xbf0edf82	-0.55809796
54	0xbeaf98d1	-0.34296277
55	0xbec8d280	-0.392231
56	0xbde3c0d0	-0.111207604
57	0x3dfc2a48	0.12312752
58	0xbeefe1b8	-0.46851897
59	0xbe328a23	-0.17435507
60	0x3dbd1bc2	0.0923381
61	0x3edf442a	0.43606693
62	0xbeea282b	-0.4573377
63	0xbef281bf	-0.47364613
64	0x3ec8f63f	0.3925037
65	0xbdbd8fa8	-0.09255916
66	0xbd150570	-0.03638214
67	0xbedd4492	-0.43216377
68	0xbe60b032	-0.21942213
69	0xbab2cf3b	-0.0013642082
70	0x3eed3a91	0.46333745
71	0x3df4a494	0.11945453
72	0xbdbd0d39	-0.09231038
73	0xbe3e6903	-0.18594746
74	0xbe412203	-0.1886063
75	0xbece2cfb	-0.40268692
76	0xbf0a9f4b	-0.5414931
77	0xbf187ba6	-0.5956367
78	0xbe20aa89	-0.15690054
79	0xbea1b755	-0.31585184
80	0xbed23873	-0.41058692
81	0x3f1aaedb	0.6042306
82	0xbec29c7b	-0.3801001
83	0xbee9554c	-0.4557289
84	0xbe706c7a	-0.2347888
85	0xbf186e92	-0.59543717
86	0x3dd6b81b	0.10484334
87	0x3ef1f31e	0.47255796
88	0xbd380d0a	-0.04493431
89	0xbe50e0f1	-0.20398308
90	0xbedc9d32	-0.4308868
91	0x3ecc37ba	0.39886266
92	0x3f0568bb	0.5211293
93	0x3f13d964	0.57753587
94	0xbee87164	-0.4539901
95	0xbd91384e	-0.070908174
96	0x3cf60769	0.03003283
97	0xbef0f65f	-0.47062966
98	0x3de092be	0.10965489
99	0x3e0ee6cb	0.13955228
100	0x3e6b4512	0.22975567
101	0xbd223e2a	-0.039610066
102	0xbd83ed76	-0.064417765
103	0xbddde1aa	-0.10834058
104	0x3f0d8d87	0.5529408
105	0xbe6a37b0	-0.22872806
106	0xbf189531	-0.5960265
107	0x3ec50b30	0.38485098
108	0x3f270bd1	0.65252405
109	0xbec7ae0d	-0.38999978
110	0xbedd77fb	-0.432556
111	0xbe2ff73c	-0.17184156
112	0xbe4c0208	-0.1992265
113	0xbef4844a	-0.4775718
114	0xbeb6d693	-0.35710582
115	0x3e14f0f4	0.14545041
116	0xbec8e0d5	-0.39234033
117	0x3dd853fa	0.10562892
118	0xbd0cd2c4	-0.03438069
119	0x3f0fa751	0.5611468
120	0xbe7da067	-0.2476822
121	0xbe941219	-0.28920057
122	0x3e524df6	0.20537552
123	0xbdb3d9c2	-0.087817684
124	0xbeeee4b5	-0.46658865
125	0xbecf2095	-0.40454546
126	0xbf022ae0	-0.5084667
127	0x3e9c6ed3	0.30553302

layers.1.weight f4 [128, 128]
0	0xbd80e509	-0.06293685
1	0x3d88162b	0.06644853
2	0xbbc4d647	-0.006006989
3	0xbc203fb7	-0.009780816
4	0xbb94e0ad	-0.004543385
5	0x3c36b391	0.01115121
6	0xbd4fc81e	-0.050727956
7	0xbd52c905	-0.05146124
8	0xbe17dfe2	-0.14831498
9	0xbcd7421f	-0.026276646
10	0xbe19a31a	-0.15003625
11	0xbd44996b	-0.047997873
12	0x3de2f1f2	0.11081304
13	0xbda83562	-0.08213307
14	0xbd5edd20	-0.0544101
15	0xbd0401bb	-0.032228213
16	0xbe0815df	-0.13289593
17	0x3d7688ff	0.060189243
18	0xbdedfee1	-0.1162088
19	0x3e143e83	0.14476971
20	0x3d6857b0	0.05672425
21	0xbd1e3100	-0.03862095
22	0x3d05887a	0.032600857
23	0x3d66b270	0.056322515
24	0xbda869a1	-0.08223272
25	0x3dab88b0	0.083756804
26	0xbbf3a3be	-0.007435291
27	0xbd6fc0b6	-0.058533393
28	0x3d4ebe00	0.050474167
29	0xbdeaf93f	-0.11473321
30	0xbd6a6776	-0.057227574
31	0xbd6f98f6	-0.058495484
32	0xbd46e8c5	-0.04856183
33	0x3c7f9035	0.0155983465
34	0xbdb6f2be	-0.08933018
35	0xbc8d89a6	-0.01727755
36	0xbd0fb542	-0.03508497
37	0x3db76845	0.08955435
38	0xbb330df1	-0.0027321542
39	0xbbcea299	-0.0063060042
40	0xbdc2279f	-0.094802134
41	0x3dae46a5	0.08509568
42	0x3c0280e4	0.0079653
43	0xbb5b3c33	-0.003345263
44	0xbc24948e	-0.010045184
45	0x3d1f75c2	0.038930662
46	0xbcf61390	-0.030038625
47	0x3d956bcf	0.072959535
48	0xba810e3a	-0.0009846159
49	0xbddf6d0d	-0.10909472
50	0x3e046622	0.12929586
51	0x3da0b131	0.078462966
52	0x3dbb2fe8	0.09139997
53	0x3bd7af52	0.006582179
54	0x3d89e796	0.06733625
55	0x3dd4f61b	0.103985034
56	0x3e132a3d	0.14371581
57	0xbd859092	-0.06521715
58	0x3e0cb9bf	0.13742732
59	0xbd801e5c	-0.062557906
60	0x3dc69447	0.096962504
61	0xbd924009	-0.0714112
62	0x3df3c394	0.11902538
63	0xbd1ea79f	-0.038734075
64	0xbd77aacf	-0.06046563
65	0x3dc13655	0.09434191
66	0x3c996288	0.018723741
67	0x3a06a5b2	0.0005136385
68	0x3d0d877a	0.03455303
69	0xbd0b930a	-0.034075774
70	0xbe43f549	-0.19136538
71	0xbd81f776	-0.063460276
72	0xbdd3eb42	-0.10347606
73	0xbe364688	-0.17800343
74	0x3e2c04ac	0.16798657
75	0xbd64d153	-0.05586369
76	0x3d050b31	0.032481376
77	0xbdcb6a0f	-0.099323384
78	0x3dd4550e	0.103677854
79	0x3e195918	0.14975393
80	0xbd98bbbf	-0.07457685
81	0xbd3e2267	-0.046419527
82	0xbd16cddf	-0.036817428
83	0xbe1d0ba3	-0.1533647
84	0xbe136cb4	-0.14396936
85	0x3dc0050d	0.09375963
86	0xbd6deac1	-0.058085207
87	0x3da5edd4	0.08102003
88	0xbe43e737	-0.1913117
89	0x3db63ad1	0.08897937
90	0x3e61849d	0.22023244
91	0x3e2c54f5	0.16829284
92	0x3b0d3113	0.0021544143
93	0xbe10881f	-0.14114426
94	0x3d940d24	0.07229069
95	0xbdcaf939	-0.09910817
96	0x3c7b6ae1	0.015345306
97	0x3e19aafb	0.1500663
98	0xbbe3bc42	-0.0069499323
99	0x3d717682	0.05895091
100	0xbce9990b	-0.02851536
101	0xbaaf1593	-0.001335787
102	0xbca81dc0	-0.020521998
103	0xbcaa5288	-0.020791307
104	0x3c88c05a	0.016693283
105	0x3d5376d4	0.051626995
106	0xbd8a1262	-0.067417875
107	0x3d30832f	0.043093856
108	0xbbe6900e	-0.0070362156
109	0xbd82ba3d	-0.063831784
110	0x3e072587	0.1319791
111	0x3db8b4a5	0.0901883
112	0xbdb3bc85	-0.087761916
113	0x3e328007	0.17431651
114	0xbd9a856e	-0.07544981
115	0xbe211d94	-0.1573394
116	0xbc9c8f03	-0.019111162
117	0xbdb6df71	-0.08929337
118	0x3c6e327c	0.014538404
119	0xbe14a7ed	-0.14517184
120	0x3be71992	0.0070526088
121	0x3dcdbd0c	0.100458235
122	0xbda7d101	-0.08194161
123	0xbd017a2f	-0.031610664
124	0x3cd7e174	0.026352622
125	0xbdab78b4	-0.08372632
126	0xbd620f38	-0.055190295
127	0x3d8cadf2	0.06869115
128	0xbc83b836	-0.01607905
129	0xba5ab9a9	-0.00083437056
130	0xbdc79531	-0.09745253
131	0x3db94f54	0.09048334
132	0xbc11fda6	-0.008910572
133	0xbc655731	-0.013997839
134	0xbdfbc475	-0.122933306
135	0xbda1829b	-0.07886239
136	0x3e5b1263	0.21393733
137	0x3d96dbf7	0.07366174
138	0x3caf2831	0.02138147
139	0x3ec2cdde	0.3804769
140	0xbd0166af	-0.031592067
141	0xbc126450	-0.008935049
142	0xbca43045	-0.020042548
143	0x3acfb0ae	0.0015845501
144	0x3db77c91	0.08959306
145	0xbe623896	-0.22091898
146	0x3e837d46	0.25681514
147	0xbd936bc0	-0.07198286
148	0xbe093d79	-0.13402356
149	0xbd8b717f	-0.06808757
150	0xbd5fb406	-0.054615043
151	0x3d279b33	0.040919494
152	0x3d5884bc	0.05286096
153	0x3d1cbce6	0.038266085
154	0x3bd90861	0.0066233133
155	0xbd4f8503	-0.05066396
156	0x3d952035	0.07281534
157	0x3d35e8ec	0.044411585
158	0x3e15fc19	0.14646949
159	0xbb22c956	-0.0024839244
160	0x3caca1ca	0.02107324
161	0x3dda7281	0.10666371
162	0x3da47feb	0.08032211
163	0xbdb61bed	-0.08892045
164	0xbbe32ac6	-0.006932589
165	0xbe016069	-0.12634434
166	0x3d9fcfd5	0.07803313
167	0xbe4819d9	-0.1954111
168	0xbe2d082b	-0.16897647
169	0xbd73043b	-0.059330206
170	0xbe16c799	-0.14724578
171	0x3cb6a182	0.02229381
172	0x3e0eee0c	0.13957995
173	0xbe550826	-0.2080389
174	0x3ba012ff	0.004885077
175	0xbd90fea6	-0.0707982
176	0xbd38aee6	-0.04508867
177	0x3e50b5cc	0.2038185
178	0x3c3459aa	0.011007706
179	0xbc9e7361	-0.019342126
180	0xbe4defaa	-0.20110956
181	0x3c08cad2	0.008349137
182	0xbdcfa821	-0.1013949
183	0x3ca366e2	0.01994652
184	0xbb4e89a7	-0.0031515153
185	0x3d58b57f	0.052907463
186	0xbe303a78	-0.17209804
187	0x3c7c1bd4	0.015387494
188	0x3da1f43c	0.07907912
189	0x3db81b93	0.08989634
190	0xbe670462	-0.22560266
191	0x3e01645e	0.12635943
192	0x3e2fbf0c	0.17162722
193	0x3c4d0915	0.012514372
194	0xbc01b743	-0.007917228
195	0xbc842dea	-0.016135175
196	0x3d46d356	0.04854139
197	0xbb9b03db	-0.004730684
198	0xbbf91891	-0.0076018055
199	0x3dc96ad9	0.09834833
200	0x3d7eb234	0.062181666
201	0x3e838be4	0.25692666
202	0xbe96a1bc	-0.2942027
203	0xbdae4b35	-0.08510438
204	0xbcb2f1f3	-0.021843886
205	0x3c8efcbe	0.017454501
206	0x3d3918f7	0.045189824
207	0x3d181b15	0.037135202
208	0x3de34d91	0.11098779
209	0x3cb519ba	0.022106994
210	0xbd4f550a	-0.05061821
211	0x3dabd83a	0.08390851
212	0x3c5b1b98	0.013373278
213	0x3cdef632	0.027217004
214	0xbc9dafbe	-0.01924884
215	0xbc6ab123	-0.014324459
216	0x3d715543	0.058919203
217	0x3c45997c	0.012060519
218	0x3d23314d	0.03984194
219	0xbd9066d1	-0.07050861
220	0x3d81f134	0.06344834
221	0x3da345ec	0.07972321
222	0x3b31d99f	0.002713777
223	0x3d8e691c	0.06953642
224	0xbdf07ee9	-0.11742956
225	0xbde733bd	-0.11289165
226	0x3d006550	0.03134662
227	0xbcd42315	-0.025895635
228	0x3d7ca7d7	0.061683502
229	0x3c20eb0c	0.009821665
230	0x3cf2d666	0.029643249
231	0x3cbb1de3	0.0228414
232	0xbd542f5e	-0.051802985
233	0xbe2347bb	-0.15945332
234	0x3dc3a492	0.09552874
235	0x3c9f740d	0.019464517
236	0x3c63fc8b	0.013915191
237	0x3d18b1e3	0.03727902
238	0x3d72eb63	0.059306514
239	0x3d34eb30	0.044169605
240	0xbe1a97f5	-0.1509703
241	0xbcff1d15	-0.031141797
242	0xbdd005a1	-0.10157324
243	0xbb58f2df	-0.0033103747
244	0x3dfd6b9e	0.12374042
245	0xbda2213d	-0.07916496
246	0x3ac7803e	0.0015220714
247	0x3d536254	0.051607445
248	0x3e24e61a	0.16103402
249	0xbda29188	-0.07937914
250	0xbd80dc88	-0.06292063
251	0xbbd6a2f0	-0.0065501854
252	0x3d1620a8	0.036652237
253	0x3e4861d7	0.19568573
254	0x3ca15952	0.019695912
255	0x3df55bfc	0.11980435

layers.1.bias f4 [128]
0	0xbe13b8f5	-0.14426024
1	0x3d4bb1d5	0.04973014
2	0xbca53b33	-0.02016983
3	0xbca8a7da	-0.02058785
4	0xbc86de9e	-0.016463574
5	0x3deae503	0.11469462
6	0x3cf2aac9	0.029622452
7	0xbd163f3f	-0.03668141
8	0x3dce770c	0.100813
9	0xbdc72150	-0.09723151
10	0x3c75b8f8	0.014997713
11	0xbbab2c67	-0.005223799
12	0x3c1e34ad	0.009656114
13	0x3cb58a25	0.022160599
14	0xbda30771	-0.07960404
15	0xbdf3bedc	-0.11901638
16	0x3da2a3f1	0.079414256
17	0x3e1e802a	0.15478578
18	0x3e3b67ba	0.18301287
19	0x3de43be1	0.111442335
20	0xbdfa9235	-0.12234918
21	0xbc7270af	-0.014797374
22	0xbc448957	-0.011995635
23	0xbe2dc13d	-0.16968246
24	0x3cce6b54	0.025197662
25	0x3d46f810	0.048576415
26	0xbc72e634	-0.0148253925
27	0x3e0d47a6	0.13796863
28	0xbdb4a4c8	-0.08820492
29	0xbdd33255	-0.103123344
30	0x3d500cc1	0.050793413
31	0xb96c4617	-0.00022532824
32	0xbd73d13e	-0.05952572
33	0x3da1cb9b	0.07900163
34	0x3d95f634	0.0732235
35	0xbcd825f4	-0.026385285
36	0xbd78636d	-0.060641695
37	0xbd82abef	-0.0638045
38	0x3d137b87	0.036006477
39	0xbe695d74	-0.22789556
40	0xbe2e8a7f	-0.1704502
41	0xbd9da969	-0.07698328
42	0xbdd77518	-0.10520381
43	0xbce75b21	-0.028241696
44	0xbe10c16b	-0.14136283
45	0x3dc7d210	0.09756863
46	0xbcb7d79d	-0.02244168
47	0x3e455b7b	0.19273178
48	0xbc945772	-0.018108103
49	0xbe1e6d43	-0.15471368
50	0x3d72a0a1	0.05923522
51	0xbe098997	-0.13431393
52	0xbd8df892	-0.06932177
53	0xbbe123e7	-0.006870735
54	0x3d276da8	0.04087606
55	0xbda426d4	-0.080152184
56	0x3e1f0e79	0.15532865
57	0xbd8ca992	-0.068682805
58	0x3e2475ac	0.16060513
59	0xbd13cd6d	-0.03608458
60	0xbe3cc332	-0.18433836
61	0xbde11663	-0.10990598
62	0x3c2d57c6	0.010580009
63	0xbe1d674a	-0.15371433
64	0x3db8656d	0.090037204
65	0x3d76ccf2	0.060254045
66	0xbd8156b7	-0.06315368
67	0x3dbf07a0	0.09327626
68	0xbe4881ba	-0.19580737
69	0xbded97fc	-0.11601254
70	0xbd017157	-0.03160223
71	0xbe22a3f9	-0.15882863
72	0x3dd97834	0.1061863
73	0x3d85da6f	0.065358035
74	0x3db5d293	0.088780545
75	0x3dfb545b	0.12271949
76	0xbd92ea5c	-0.07173607
77	0x3e3ffab0	0.18747973
78	0x3d5bec84	0.053692356
79	0xbe362f32	-0.17791441
80	0x3e33e8b5	0.1756924
81	0x3e05f9d6	0.13083586
82	0x3ceae00b	0.028671285
83	0xbda47578	-0.08030218
84	0xbcca0c5d	-0.024664098
85	0x3da1ae3a	0.07894559
86	0x3d3337f8	0.043754548
87	0x3e176c57	0.14787422
88	0xbdc1605b	-0.094422065
89	0xbbbb6423	-0.0057187243
90	0x3e07c408	0.13258374
91	0xbd647295	-0.055773336
92	0x3e115aee	0.14194843
93	0xbd81cd8d	-0.06338034
94	0x3e13a95d	0.14420076
95	0x3deef62a	0.11668046
96	0xbe0b8241	-0.13623907
97	0xbe44c8b5	-0.19217189
98	0xbd811ee6	-0.063047215
99	0x3d5d7307	0.054064777
100	0xbd7a37bf	-0.06108832
101	0xbd505bf1	-0.050868932
102	0xbcbdf952	-0.023190174
103	0xbc72d7d6	-0.014821967
104	0xbca94d7f	-0.020666836
105	0xbe2b5acc	-0.16733855
106	0x3d0f82f9	0.035037015
107	0x3d0b7fd7	0.034057464
108	0x3db20129	0.086916275
109	0xbcdc639a	-0.026902962
110	0xbe1417bb	-0.14462177
111	0x3dc5d9f5	0.09660713
112	0xbdb18df1	-0.08669651
113	0x3e08cbfc	0.13359064
114	0xbdb371fb	-0.087619744
115	0x3cdd0115	0.026978055
116	0x3dc870ea	0.09787162
117	0xbe0c7701	-0.13717271
118	0xbdca2fa5	-0.09872369
119	0xbd87392d	-0.06602702
120	0xbe630c50	-0.22172666
121	0x3dfb390d	0.12266741
122	0x3d800173	0.062502764
123	0x3d1fdd96	0.03902968
124	0x3e00b16d	0.12567683
125	0xbe5005f5	-0.20314772
126	0x3d57d378	0.052691907
127	0x3c715be5	0.014731382

layers.2.weight f4 [64, 128]
0	0x3e20caf8	0.15702426
1	0xbe04cef3	-0.1296957
2	0xbe4cf390	-0.20014787
3	0xbe136690	-0.14394593
4	0xbd793f28	-0.060851246
5	0x3d00848d	0.03137641
6	0xbdc944a4	-0.09827545
7	0x3d908be6	0.070579335
8	0xbe816e57	-0.25279495
9	0x3db962d4	0.09052053
10	0xbd31687e	-0.043312542
11	0xbdf7f641	-0.12107516
12	0xbdc5cf1d	-0.09658644
13	0xbde69ab3	-0.11259975
14	0x3db54945	0.08851866
15	0xbd8c45f7	-0.06849282
16	0xbec5c159	-0.38624075
17	0xbe912b79	-0.2835348
18	0xbeacc9dc	-0.33747756
19	0xbe29b11a	-0.16571465
20	0x3d2be22f	0.041963752
21	0x3dd6040e	0.10449992
22	0x3e47e66e	0.19521496
23	0x3f011819	0.50427395
24	0x3d6b4c0e	0.05744558
25	0xbe02a284	-0.12757307
26	0x3d8fd085	0.07022194
27	0xbdc864e4	-0.09784868
28	0x3dd54032	0.10412635
29	0x3e8507c0	0.25982475
30	0xbdc4cff3	-0.09609976
31	0xbe97b207	-0.29628012
32	0x3e56ab6c	0.2096383
33	0x3e041de3	0.12902026
34	0xbda0cdf3	-0.07851782
35	0x3e8c4a38	0.27400374
36	0x3d042857	0.032265034
37	0x3e3f7d36	0.18700108
38	0x3cf7e289	0.030259388
39	0x3eb1a761	0.34698012
40	0x3d01df8d	0.031707335
41	0xbc8bb6b8	-0.0170549
42	0x3e17cb0e	0.14823553
43	0xbd9a8140	-0.07544184
44	0x3e232ff3	0.1593626
45	0xbe274bf1	-0.16337563
46	0x3d2e8e18	0.04261598
47	0xbf0daf25	-0.55345374
48	0xbd952c26	-0.07283811
49	0x3dbc0342	0.09180309
50	0xbec2fc65	-0.38083187
51	0xbcce1ded	-0.025160754
52	0x3ef54ae1	0.4790869
53	0x3d17afc5	0.03703286
54	0xbe09dcb1	-0.13463093
55	0x3e7f8f7a	0.24957076
56	0xbe8c2f2b	-0.27379736
57	0xbd89b75f	-0.067244284
58	0x3d15dafb	0.03658579
59	0x3e64514b	0.22296636
60	0x3e853274	0.26015055
61	0x3d32c0c2	0.04364086
62	0x3e559b82	0.20860103
63	0x3dd86f5b	0.10568114
64	0xbd098143	-0.03357054
65	0xbd65e889	-0.056129966
66	0x3e082334	0.13294679
67	0x3e1358da	0.14389363
68	0xbbcd9995	-0.006274412
69	0xbd8840e2	-0.066530004
70	0x3cf0591d	0.029339368
71	0x3e82f7aa	0.25579578
72	0xbcf0eefc	-0.029410832
73	0xbe9976aa	-0.29973346
74	0x3c5a8063	0.013336274
75	0xbe1b9c34	-0.15196306
76	0x3cf40f32	0.029792402
77	0xbd0746ea	-0.033026613
78	0xbdb1c476	-0.0868005
79	0x3d8cae6e	0.06869207
80	0xbe2505a4	-0.16115433
81	0xbe143538	-0.14473426
82	0x3d7708f2	0.060311265
83	0x3e29ca49	0.16581072
84	0xbd430e26	-0.047620915
85	0xbe59f2d3	-0.21284036
86	0x3de81580	0.11332226
87	0xbe911b07	-0.28340933
88	0x3d7e5519	0.062092874
89	0xbd04f65d	-0.032461513
90	0xbe940715	-0.28911653
91	0xbe429a2e	-0.19004127
92	0xbe3c6127	-0.18396436
93	0x3dc62f98	0.096770465
94	0xbede8974	-0.43464243
95	0xbdb77930	-0.089586616
96	0x3e046dfb	0.12932579
97	0x3e941cf5	0.28928342
98	0x3dc1e236	0.094669744
99	0xbe12b169	-0.14325489
100	0xbd95d350	-0.07315695
101	0x3dadebe7	0.084922604
102	0xbd705a48	-0.05867985
103	0x3dcc65ab	0.09980329
104	0xbdea56be	-0.11442326
105	0x3f01224b	0.5044295
106	0x3becdb83	0.0072283163
107	0xbcbeebdd	-0.023305828
108	0xbe846c00	-0.25863647
109	0x3d032f12	0.03202731
110	0x3ee7b2dc	0.45253646
111	0xbe9a8139	-0.30176714
112	0x3e33f540	0.17574024
113	0xbde6ac25	-0.11263303
114	0x3d161748	0.036643296
115	0xbe0abbba	-0.13548175
116	0x3d280d72	0.041028447
117	0x3eb604d8	0.3555057
118	0x3eb531db	0.353896
119	0x3c8fd13d	0.017555827
120	0x3e0e1347	0.13874541
121	0xbd725e2c	-0.05917184
122	0xbe42c130	-0.19019008
123	0x3d7249ba	0.059152342
124	0xbe450d88	-0.19243443
125	0x3e8c4ad3	0.27400836
126	0xbe2c8ffa	-0.16851798
127	0x3df9f56a	0.12205012
128	0xbd67a06c	-0.056549475
129	0x3e23ed1e	0.16008422
130	0x3db9c390	0.09070504
131	0x3b5801be	0.0032960023
132	0xbe3ff250	-0.18744779
133	0x3df08b80	0.117453575
134	0x3d5e852c	0.05432622
135	0xbe4498d3	-0.19198923
136	0x3dbcae03	0.092128776
137	0xbd33826b	-0.04382555
138	0x3e4524fc	0.1925239
139	0x3dccaeea	0.099943
140	0xbcb9efe7	-0.022697402
141	0x3e146fc5	0.14495762
142	0xbe079b7f	-0.13242911
143	0xbe746652	-0.23867157
144	0x3e000e35	0.1250542
145	0x3d20ff61	0.03930605
146	0x3e2835be	0.16426751
147	0x3e167272	0.14692095
148	0xbd9a2c71	-0.07528008
149	0xbe0e3aec	-0.13889664
150	0xbd875e9c	-0.06609842
151	0xbd185b2c	-0.037196323
152	0xbd9dd9f7	-0.07707589
153	0x3d2b3bbc	0.041805014
154	0xbdcdbf45	-0.100462474
155	0x3dac0a29	0.084003754
156	0xbe14a466	-0.14515838
157	0xbe0cc85d	-0.13748308
158	0x3e199c8c	0.15001124
159	0x3e691ba9	0.22764458
160	0xbdb3ca5b	-0.087788306
161	0xbd8c3054	-0.06845155
162	0x3db603a0	0.0888741
163	0xbe1c2827	-0.15249692
164	0xbdc16dc8	-0.09444767
165	0xbdd8174c	-0.105513185
166	0xbd14758f	-0.036244925
167	0xbd28cec6	-0.04121282
168	0xbd2480b2	-0.040161796
169	0xbdacd3b3	-0.08438816
170	0xbe94d142	-0.290659
171	0x3cd06cfc	0.025442593
172	0xbdcb8f29	-0.09939415
173	0x3e56292f	0.20914148
174	0xbe276cac	-0.16350049
175	0x3e20e5eb	0.15712707
176	0x3cb2223a	0.021744836
177	0xbced0199	-0.028931426
178	0x3da62e0f	0.08114254
179	0xbe3c20a5	-0.18371828
180	0xbdefcbc2	-0.117087856
181	0xbd64bd37	-0.05584451
182	0x3de0c03e	0.10974167
183	0xbe780dbd	-0.2422399
184	0x3d9b81db	0.07593127
185	0x3df55f84	0.11981109
186	0x3df6c695	0.12049595
187	0xbda9fad6	-0.08299796
188	0xbdadcffd	-0.08486936
189	0xbe3b0ef2	-0.1826742
190	0xbd51ed0a	-0.05125145
191	0xbc69bea9	-0.014266648
192	0x3e57a094	0.2105735
193	0xbd39ea39	-0.045389388
194	0xbd43ddc7	-0.047818925
195	0xbe81efd1	-0.25378278
196	0xbd920ba4	-0.071311265
197	0x3d1cc71b	0.03827582
198	0xbd93b410	-0.072120786
199	0xbde57945	-0.11204771
200	0x3df34ed2	0.11880268
201	0x3e1174ed	0.1420476
202	0xbe3808be	-0.17972085
203	0x3c354001	0.011062623
204	0xbb6665b9	-0.0035155846
205	0x3e369191	0.17828967
206	0x3d729141	0.059220556
207	0xbe06d0e1	-0.13165618
208	0x3d3fb897	0.046806898
209	0x3d89bec6	0.0672584
210	0x3a6996e0	0.0008910727
211	0xbe5d9197	-0.2163757
212	0x3c0afd83	0.0084832935
213	0x3da478b4	0.08030835
214	0xbe422996	-0.18961176
215	0xbc52635e	-0.012841074
216	0xbe24a71e	-0.16079375
217	0x3dc31cdf	0.09526991
218	0x3d8020a7	0.06256228
219	0x3e653c77	0.22386347
220	0xbc6885f9	-0.014192098
221	0x3d20dfe8	0.039276034
222	0x3e65bd54	0.22435504
223	0x3e4cc075	0.19995292
224	0xbcdfb5a2	-0.027308289
225	0xbe087c6e	-0.13328716
226	0xbc31ae38	-0.01084476
227	0xbd5ac7c6	-0.053413175
228	0x3e2e55e1	0.17024948
229	0xbd7dd9ab	-0.061975162
230	0x3e1a1deb	0.15050475
231	0xbe0b4a76	-0.13602623
232	0x3e4a7325	0.19770487
233	0xbd94819e	-0.07251285
234	0x3c6b7167	0.014370299
235	0xbca2e0f2	-0.019882653
236	0x3e0aa1e1	0.13538314
237	0xbd415cc0	-0.047207594
238	0x3b3d2f9d	0.002886749
239	0x3e8447d8	0.25836062
240	0xbe8e9c21	-0.27853492
241	0x3dd89e37	0.10577052
242	0xbe324aa7	-0.1741129
243	0x3d8d5660	0.0690124
244	0xbe48e041	-0.19616796
245	0xbe35b690	-0.17745423
246	0xbe2a6da1	-0.16643383
247	0xbde8f534	-0.11374894
248	0xbd19d40b	-0.037555736
249	0x3d1be68e	0.03806167
250	0x3c9a477a	0.01883291
251	0x3ca1fd19	0.019774007
252	0x3e07dd77	0.13268076
253	0xbdf1e798	-0.11811751
254	0x3df28836	0.118423864
255	0xbdc2d493	-0.095132016

layers.2.bias f4 [64]
0	0xbd407ad1	-0.046992127
1	0x3cc52f5e	0.024070438
2	0xbd507aea	-0.05089847
3	0x3e3c8ee3	0.18413882
4	0x3de88778	0.113539636
5	0x3ddc0c18	0.10744494
6	0xbcf3b488	-0.02974917
7	0xbd5cc346	-0.053897165
8	0x3d5f9c3f	0.054592367
9	0xbcf5e9a3	-0.030018633
10	0x3d4a601a	0.049408056
11	0x3c768de9	0.015048482
12	0x3d1063da	0.035251476
13	0x3ded42bb	0.115849935
14	0xbdeb5557	-0.11490887
15	0xbd8ba4df	-0.06818556
16	0xbdca02a6	-0.098637864
17	0xbd12bce2	-0.035824664
18	0xbcec8a4b	-0.028874537
19	0x3cd4a17b	0.025955906
20	0xbcf423ba	-0.029802192
21	0xbbd57455	-0.006514112
22	0x3d27df61	0.040984515
23	0x3d9ece2c	0.07754168
24	0x3db5ac99	0.08870811
25	0x3c9788be	0.018497821
26	0xbcbfe9b6	-0.023426872
27	0xbbd2c2d3	-0.0064319163
28	0x3d8f5234	0.06998101
29	0xbda54275	-0.08069316
30	0x3e10c727	0.1413847
31	0xbde1ebf6	-0.11031334
32	0xbc9f6249	-0.019456046
33	0x3dd31aaa	0.1030782
34	0xbcb5b496	-0.022180837
35	0x3cb74bb5	0.022374967
36	0x3d88b67d	0.06675432
37	0xbdeac49c	-0.114632815
38	0x3d39b4bd	0.04533838
39	0xbddcdaee	-0.10783945
40	0x3cfaf6e7	0.03063531
41	0x3e0e5e37	0.13903128
42	0x3c900d0d	0.017584348
43	0x3d1fb3e0	0.0389899
44	0xbd244b32	-0.040110774
45	0x3dbb3ff6	0.09143059
46	0x3cf79012	0.030220065
47	0x3da3f202	0.08005144
48	0xbd83366d	-0.06406865
49	0xbd3eb1ef	-0.04655641
50	0xbba4f3e1	-0.0050339554
51	0x3c87a8bb	0.01655995
52	0x3d5d3d08	0.054013282
53	0x3de1ea69	0.11031038
54	0xbd3ef50c	-0.046620414
55	0x3d79ab6d	0.0609545
56	0xbdd81286	-0.10550408
57	0x3d442815	0.047889788
58	0x3cf45eff	0.029830454
59	0x3c473e39	0.012160831
60	0xbd8b01ab	-0.067874275
61	0xbe0b2354	-0.13587695
62	0xbd2ca1bf	-0.04214644
63	0x3dcec837	0.10096782

readout.weight f4 [1, 64]
0	0x3ff5edad	1.9213158
1	0xbff24f64	-1.8930478
2	0xbff928c4	-1.9465566
3	0xc009248e	-2.1428561
4	0xbff7d3d7	-1.9361523
5	0xc00e28e6	-2.2212462
6	0x3ff9ae53	1.9506325
7	0xbffabdd1	-1.9589177
8	0xbff5ea6d	-1.9212166
9	0xbff8c9c6	-1.9436576
10	0xbff6a459	-1.9268905
11	0xbff4a25d	-1.9112049
12	0x3fffad3b	1.9974741
13	0xbff623f8	-1.9229727
14	0x3ff131c5	1.8843313
15	0x3ff9194b	1.9460844
16	0xc0066c07	-2.1003435
17	0xbff98336	-1.9493167
18	0x400565a1	2.084328
19	0x3ff38dcb	1.9027647
20	0xc007ecb6	-2.1238227
21	0x3ffe61fc	1.9873652
22	0xc001b4ac	-2.0266523
23	0xbffb0e83	-1.9613804
24	0xbfefc437	-1.8731755
25	0x40072a12	2.1119428
26	0x3fea76fe	1.8317564
27	0x40045a2d	2.068004
28	0xbfeb811f	-1.839878
29	0xbffae0e1	-1.9599878
30	0xbff6411f	-1.9238623
31	0x40046b89	2.0690634
32	0x3ff661ba	1.9248574
33	0xbffb0cab	-1.9613241
34	0x3ffcd8e4	1.975369
35	0xbff96d74	-1.9486527
36	0xbff5e404	-1.921021
37	0x3ff95dc2	1.9481738
38	0xbffbfd52	-1.9686682
39	0x3ff2f035	1.8979555
40	0x3ff1e751	1.8898717
41	0xbffd653a	-1.9796517
42	0x3ff40300	1.9063416
43	0xbff3e79d	-1.9055058
44	0xbffb1f2a	-1.9618886
45	0xbffbd85e	-1.9675405
46	0x3ff5b236	1.9195011
47	0xbffd76bf	-1.9801863
48	0xbff8486f	-1.9397105
49	0x3ff83746	1.9391868
50	0x3ffedab6	1.9910495
51	0x3ffbf2bd	1.9683453
52	0x400297a5	2.0405056
53	0x4004f0f0	2.0772057
54	0x3ff87d6a	1.9413273
55	0xbff2f482	-1.8980868
56	0x40086de5	2.1317074
57	0xbffef764	-1.9919248
58	0x3ff95123	1.9477886
59	0xc0024ec3	-2.0360572
60	0x400528e1	2.08062
61	0xc009e5e2	-2.154656
62	0xbfed7fe0	-1.8554649
63	0xc002dee8	-2.044855

layers.0.weight f4 [128, 3]
0	0x3f16c282	0.58890545
1	0xbcbf98e1	-0.023388328
2	0xbdc11e76	-0.09429638
3	0x3e8dc6a6	0.2769062
4	0x3f6095a2	0.8772832
5	0x3ece3b70	0.40279722
6	0xbf1360d3	-0.5756962
7	0xbea522ee	-0.32253212
8	0xbe9b9839	-0.30389574
9	0xbe85f7fa	-0.26165754
10	0xbe624aba	-0.22098818
11	0x3e2fdf8b	0.17175119
12	0x3f015130	0.5051451
13	0xbca6eff4	-0.02037809
14	0xbd9aad21	-0.07552553
15	0x3ef96e70	0.4871707
16	0xbf78d3e1	-0.971983
17	0x3e29c61c	0.16579479
18	0xbe860920	-0.26178837
19	0x3e6386a7	0.22219335
20	0xbe6343c0	-0.22193813
21	0xbf072188	-0.5278554
22	0x3f421c9f	0.7582492
23	0x3e83d1e1	0.25746062
24	0xbf41b12a	-0.75660956
25	0x3dbcce61	0.09219051
26	0x3dbcdaf6	0.09221451
27	0xbcfe0471	-0.031007977
28	0x3dcd2007	0.10015874
29	0x3eeca938	0.46222854
30	0xbf48355f	-0.7820644
31	0x3e484abe	0.19559762
32	0x3dd11773	0.10209551
33	0xbe09cc96	-0.1345695
34	0xbeee833b	-0.46584496
35	0xbee666a1	-0.45000175
36	0xbe90d933	-0.2829071
37	0x3fccadb1	1.5990506
38	0x3dfe7bc7	0.124259524
39	0x3d4e577a	0.050376393
40	0xbea4f3bd	-0.32217208
41	0xbe066255	-0.13123448
42	0xbe953077	-0.29138538
43	0x3f2ea761	0.6822415
44	0x3e292f8c	0.16522044
45	0x3e481a1b	0.19541208
46	0x3a81d124	0.0009904248
47	0xbf1b0c24	-0.605654
48	0x3f82180a	1.0163586
49	0xbfca0838	-1.5783758
50	0xbeb87c10	-0.36032152
51	0x3e7acb32	0.24491575
52	0xbcfc3945	-0.030789027
53	0x3f09848a	0.53717864
54	0xbe4020fc	-0.18762583
55	0x3f006566	0.5015472
56	0xbeec6656	-0.46171826
57	0xbbd07efb	-0.0063627935
58	0xbe9666a7	-0.29375193
59	0x3e69c65c	0.22829574
60	0x3c8f97c1	0.017528417
61	0xbf387c2d	-0.7206448
62	0xbd877938	-0.066149175
63	0xbf35f57a	-0.7107769
64	0x3e33cc4f	0.17558406
65	0x3dbf97de	0.09355138
66	0xbe92790d	-0.2860798
67	0x3f7580b4	0.9589951
68	0x3e5f7fe2	0.21826127
69	0x3dc8cbbe	0.09804486
70	0x3f71b135	0.9441102
71	0x3e509ccc	0.20372313
72	0xbf7220b1	-0.94581133
73	0x3f2c8898	0.67395926
74	0xbd891ab7	-0.066945486
75	0xbf4e4fe6	-0.80590665
76	0xbe8d69ca	-0.27619773
77	0x3da4af2b	0.08041223
78	0xbeef6fa0	-0.4676485
79	0x3f346bf0	0.704772
80	0x3e4eed5f	0.20207737
81	0x3ed1c82e	0.40973037
82	0x3e6374a5	0.22212465
83	0x3efd6bec	0.494964
84	0x3d883155	0.06650034
85	0xbefa1f0a	-0.48851806
86	0xbf0b3877	-0.54383034
87	0xbf3af377	-0.7302775
88	0xbe3d085a	-0.18460217
89	0xbec12978	-0.3772695
90	0xbe753a43	-0.23948006
91	0xbef7f778	-0.4843099
92	0xbf0408e3	-0.5157606
93	0xbec3b636	-0.38224953
94	0x3c567381	0.013089062
95	0x3d0ccc7e	0.034374706
96	0xbf466a01	-0.775055
97	0xbd63bc73	-0.05559964
98	0x3ecaca98	0.39607692
99	0x3f308233	0.6894867
100	0x3f5a3c28	0.8524804
101	0x3e717620	0.23580217
102	0x3dd716f6	0.10502426
103	0xbeeff4ab	-0.46866354
104	0xbda25309	-0.07925994
105	0xbebee7d7	-0.37286255
106	0xbe928d1d	-0.28623286
107	0x3e11b8ab	0.14230601
108	0xbe74f9bd	-0.23923393
109	0x3f8f74e6	1.120755
110	0x3ec276bf	0.3798122
111	0x3f2bc701	0.6710053
112	0x3f4ccddf	0.80001634
113	0xbef3121d	-0.47474757
114	0x3f332d0d	0.6999062
115	0x3f0c6d88	0.5485463
116	0x3ea3f037	0.32019207
117	0xbf14954d	-0.58040315
118	0xbd783598	-0.060597986
119	0x3dda98e7	0.10673695
120	0x3e5456c1	0.20736219
121	0xbed81317	-0.42202064
122	0x3ed4bb76	0.4154927
123	0xbe657065	-0.22406156
124	0x3f14f351	0.5818377
125	0x3e135125	0.14386423
126	0xbf9748e6	-1.1819122
127	0x3ddc0d73	0.10744753
128	0xbe6f1701	-0.23348619
129	0xbf61ae58	-0.8815665
130	0x3ddab210	0.10678494
131	0x3e5ca188	0.21545994
132	0x3f3d2c2f	0.73895544
133	0xbfca8cfd	-1.5824276
134	0xbebbca38	-0.36677718
135	0x3eaa7afb	0.33296952
136	0xbeea0f90	-0.45714998
137	0xbef3f78b	-0.47649798
138	0x3f14f3ae	0.58184326
139	0xbf193f3a	-0.598621
140	0xbe38cd39	-0.18047036
141	0xbec3453a	-0.38138753
142	0x3d63b643	0.05559374
143	0x3ed026bf	0.4065456
144	0xbeaaaaa0	-0.33333302
145	0x3f70e272	0.9409553
146	0x3e6dc8d8	0.23221147
147	0x3e9c8dc2	0.30576903
148	0x3f25994c	0.6468704
149	0x3e2f0a76	0.17093834
150	0xbf65782e	-0.89636505
151	0x3e802a5d	0.2503232
152	0x3e122beb	0.14274566
153	0x3d72b04c	0.05925016
154	0xbf2a3c35	-0.6649812
155	0xbea49c08	-0.32150292
156	0xbe90d464	-0.2828704
157	0xbdbe4a24	-0.09291485
158	0x3ef9b800	0.48773193
159	0xbf4c787a	-0.7987133
160	0x3c9c32f5	0.019067267
161	0xbee32155	-0.44361368
162	0xbed7d616	-0.42155522
163	0x3f38ff96	0.72264993
164	0x3e080876	0.13284478
165	0x3e16b6c4	0.14718157
166	0xbf49549b	-0.7864472
167	0xbeeb895c	-0.46003234
168	0xbdd9ce3c	-0.10635039
169	0x3fc6dded	1.5536476
170	0x3e1d9606	0.1538926
171	0x3e86594d	0.26240006
172	0xbf5bfc28	-0.85931635
173	0xbed15ab8	-0.40889525
174	0x3f1fa812	0.6236583
175	0xbcf3db24	-0.02976758
176	0x3eb32656	0.34990185
177	0xbf28fc70	-0.6601019
178	0x3d030bab	0.03199355
179	0x3e027fa3	0.12744002
180	0xbf11df4c	-0.5698135
181	0x3f9d5a3f	1.2293166
182	0x3e86c41c	0.26321495
183	0x3eaec965	0.34138027
184	0xbe14a1c6	-0.14514837
185	0x3ee9a6b7	0.45635006
186	0xbe0e9905	-0.1392556
187	0x3f17af16	0.59251535
188	0xbebedd03	-0.37277994
189	0x3f13dfce	0.57763374
190	0x3f2c87ee	0.6739491
191	0x3e11abb3	0.14225654
192	0x3e9a899d	0.30183116
193	0xbf49e6a1	-0.78867537
194	0xbeeb2cde	-0.45932668
195	0xbf14ae0e	-0.58078086
196	0x3f190f97	0.59789413
197	0x3e2f763c	0.17134947
198	0xbf227a24	-0.6346762
199	0xbd1e7e61	-0.038694743
200	0x3e091cec	0.13389939
201	0xbea892d0	-0.3292451
202	0x3f8bf3ff	1.0933837
203	0x3e7f7e54	0.24950534
204	0xbf28aac4	-0.6588557
205	0x3e450cd4	0.19243175
206	0xbe8496c3	-0.25896272
207	0x3f4063d9	0.75152355
208	0xbeeb4eb9	-0.45958498
209	0xbf0e5d02	-0.5561067
210	0x3f21647c	0.6304395
211	0x3db0c6bf	0.08631658
212	0xbec74633	-0.38920745
213	0xbf26c02a	-0.6513697
214	0x3eeca538	0.46219802
215	0xbefa1e00	-0.48851013
216	0x3f41d4ae	0.7571515
217	0xbf68d941	-0.90956503
218	0xbdff7bb3	-0.12474766
219	0xbddbe110	-0.10736287
220	0xbf246d4a	-0.6422926
221	0xbd858527	-0.065195374
222	0xbf054185	-0.520531
223	0x3e75acd6	0.23991713
224	0xbe9f9f1c	-0.31176078
225	0x3e1b3193	0.1515563
226	0x3fb86988	1.4407206
227	0x3e25a919	0.16177787
228	0x3e968523	0.2939845
229	0xbd53d0fa	-0.051712967
230	0xbe0c5e6b	-0.13707893
231	0x3eee0a7c	0.46492374
232	0xbeecaad1	-0.46224073
233	0xbedc986d	-0.43085042
234	0xbdf08574	-0.11744204
235	0xbf859ef9	-1.043914
236	0xbdf4feef	-0.11962687
237	0x3eb6b887	0.35687658
238	0x3f958540	1.168129
239	0x3e8e24a8	0.27762341
240	0xbf0728a8	-0.5279641
241	0x3ec99a8b	0.3937572
242	0x3ec535ba	0.38517553
243	0x3f125b3a	0.5717045
244	0xbf0a1494	-0.5393765
245	0x3f0ae639	0.5425754
246	0x3ee72990	0.45148897
247	0xbeefc003	-0.4682618
248	0x3ed5d6b5	0.4176537
249	0xbea4f983	-0.32221612
250	0xbea7ff11	-0.32811788
251	0x3e1eff09	0.15526976
252	0xbe614064	-0.2199722
253	0x3f5cda72	0.8627082
254	0x3d402d87	0.04691842
255	0xbd787466	-0.06065788

layers.0.bias f4 [128]
0	0x3f3258b2	0.6966659
1	0xbd2679bb	-0.040643435
2	0x3e9abea2	0.30223566
3	0xbf0c6049	-0.5483442
4	0x3f0f5b5e	0.5599879
5	0x3d196f1b	0.037459474
6	0xbf38b271	-0.7214728
7	0xbd8209c3	-0.06349518
8	0xbe41a538	-0.18910682
9	0xbf4956cd	-0.7864807
10	0xbe0cb5d3	-0.13741235
11	0x3e870467	0.26370546
12	0x3e88a11c	0.26685417
13	0xbdae193b	-0.08500906
14	0xbe245422	-0.16047719
15	0x3ea47870	0.32123137
16	0x3ee619dd	0.44941607
17	0x3d8456c3	0.06461861
18	0xbf4f9795	-0.8109067
19	0xbf27959d	-0.65462667
20	0x3e8f701d	0.28015223
21	0xbdf472d1	-0.11935962
22	0xbea7001d	-0.32617274
23	0xbec1d056	-0.3785426
24	0x3e664228	0.22486174
25	0xbeef9c87	-0.46799108
26	0xbf0551f5	-0.5207818
27	0xbf3d7c45	-0.74017745
28	0x3d7b2766	0.06131687
29	0xbed3acf2	-0.41342884
30	0xbd6a60de	-0.057221286
31	0xbe06910b	-0.13141267
32	0xbef5a5d6	-0.47978085
33	0xbed6a65f	-0.41923806
34	0x3f01faf0	0.50773525
35	0xbf4c0cc4	-0.7970698
36	0xbf5f15ef	-0.87142843
37	0xbeeea95a	-0.4661358
38	0xbf5e69b1	-0.8688002
39	0xbec105d4	-0.3769976
40	0xbea140f7	-0.31494877
41	0x3e6a5838	0.22885215
42	0xbe74cd32	-0.23906401
43	0x3dd357eb	0.103195034
44	0x3e36dcf9	0.17857732
45	0xba8b1f53	-0.0010614194
46	0x3ea3386e	0.3187899
47	0xbd2f9746	-0.042868875
48	0x3ea7c18c	0.32764852
49	0xbeebdc1b	-0.46066365
50	0xbc86fb1c	-0.01647716
51	0x3d37f3c4	0.044910207
52	0x3e1afa9e	0.15134665
53	0xbf09e94d	-0.53871614
54	0xbe4a1c20	-0.19737291
55	0xbc3ed7ae	-0.011648102
56	0x3dc14b57	0.09438198
57	0xbda6626c	-0.08124241
58	0x3e4491b0	0.191962
59	0x3c61d7fe	0.013784407
60	0xbeb5aa38	-0.3548143
61	0x3eab3d6d	0.33445302
62	0xbf2da06a	-0.678229
63	0xbe0bc05d	-0.136476
64	0xbe38251e	-0.17982909
65	0xbf1303a3	-0.57427424
66	0xbd803003	-0.062591575
67	0xbebe27b7	-0.37139675
68	0xbea4df3d	-0.32201567
69	0xbe389d51	-0.18028761
70	0xbe729eb8	-0.23693359
71	0xbea3c13f	-0.31983373
72	0x3cd844af	0.026399938
73	0x3e96886c	0.29400957
74	0x3e95c0a9	0.2924855
75	0x3e138b84	0.1440869
76	0x3f1ce335	0.6128419
77	0xbdd8c61c	-0.10584661
78	0x3f09b371	0.5378943
79	0xbf3fe216	-0.74954355
80	0x3e0ffc2a	0.14061037
81	0xbe2fa638	-0.17153251
82	0x3e962b7b	0.29330048
83	0xba8028b5	-0.0009777757
84	0x3ed22b6f	0.41048762
85	0xbf03b292	-0.5144435
86	0xbe6ae820	-0.22940111
87	0xbd7cd315	-0.06172474
88	0x3eb26b70	0.34847593
89	0xbeb0fddd	-0.34568682
90	0xbea61691	-0.32439092
91	0x3f64c0ec	0.89356875
92	0x3ef3b434	0.47598422
93	0xbeb97c70	-0.3622775
94	0xbc933be6	-0.017972898
95	0x3f06d8fe	0.52674854
96	0x3e864594	0.2622496
97	0xbefc8160	-0.49317455
98	0xbd1efe4d	-0.03881674
99	0xbe366697	-0.17812572
100	0xbe9e9421	-0.30972388
101	0x3e8e1c2d	0.2775587
102	0x3ef1309c	0.471074
103	0xbf33b42b	-0.7019679
104	0x3eefa3a5	0.46804538
105	0xbe204ca2	-0.15654233
106	0xbf2497de	-0.6429423
107	0xbe664b08	-0.2248956
108	0xbf2e7929	-0.68153626
109	0xbf4fd01e	-0.81176937
110	0xbec74814	-0.3892218
111	0x3d3b4f68	0.045730025
112	0xbee70c35	-0.451265
113	0x3e85de70	0.2614627
114	0xbeb71dd5	-0.35764948
115	0xbecee91e	-0.4041223
116	0x3f0521e6	0.5200485
117	0xbde22aa7	-0.110432915
118	0x3e04ed18	0.12981069
119	0xbe29254f	-0.16518138
120	0xbe67c844	-0.22634989
121	0x3e184fcb	0.14874189
122	0x3d11bfc0	0.035583258
123	0x3dbb4c7f	0.0914545
124	0xbe06425f	-0.13111256
125	0xbebbabc4	-0.36654484
126	0x3e8831b6	0.26600426
127	0xbea064f2	-0.31327015

layers.1.weight f4 [128, 128]
0	0xbd3aa94a	-0.045571603
1	0xbb20d149	-0.0024538806
2	0x3a75977f	0.0009368583
3	0x3d45e055	0.048309643
4	0xbd2d4ca7	-0.04230943
5	0x3bce77ec	0.006300917
6	0xbca51457	-0.0201513
7	0x3d399cee	0.045315675
8	0xbdadcc51	-0.08486236
9	0xbd43f062	-0.04783667
10	0xbca9a5e8	-0.020708993
11	0xbc14068d	-0.009034765
12	0xbd993b97	-0.07482069
13	0xbda79207	-0.081821494
14	0xbd96a5d7	-0.0735585
15	0xbd35bf1e	-0.044371717
16	0x3daf76e5	0.08567599
17	0xbcb1fc12	-0.021726642
18	0xbd6873bf	-0.05675101
19	0xbd9749a5	-0.073870935
20	0xbd9997be	-0.07499646
21	0xbc0c1c29	-0.008551636
22	0xbc3b79f4	-0.01144265
23	0xbcb768d1	-0.022388848
24	0x3c20e18e	0.009819401
25	0x3d959ff6	0.07305901
26	0xbd91f982	-0.07127668
27	0xbd4cc850	-0.04999572
28	0x3bb605bf	0.005554884
29	0x3d9e9eb6	0.077451155
30	0x3c95c415	0.018281976
31	0x3c29cebb	0.01036423
32	0x3d82344c	0.06357631
33	0xbd120149	-0.035645757
34	0x3d6e1232	0.05812282
35	0x3d04b6f3	0.032401036
36	0x3c429bb5	0.011877944
37	0xbd851701	-0.06498528
38	0xbd9a2efe	-0.07528494
39	0xbd9209b3	-0.07130756
40	0x3cd6a1e3	0.02620024
41	0xbd8c012c	-0.06836161
42	0x3d2af7f6	0.04174038
43	0xb92e87ff	-0.00016644596
44	0xbd13a490	-0.03604561
45	0xbda88423	-0.08228328
46	0xbe045c40	-0.12925816
47	0x3d22d44c	0.039753243
48	0xbd6e1bf8	-0.05813214
49	0xbbbe5933	-0.005808973
50	0x3da681f9	0.08130259
51	0x3cb9f87d	0.022701496
52	0x3b7a46f0	0.0038189255
53	0x3a818e31	0.0009884295
54	0xbb5f63f1	-0.003408667
55	0x3d8e55ff	0.06949996
56	0x3cadb8be	0.021206256
57	0xbc6ef784	-0.0145853795
58	0xbd5b1074	-0.053482488
59	0xbda964c0	-0.0827117
60	0xbda8194b	-0.08207949
61	0x3c93816f	0.018006055
62	0xbdc62b13	-0.096761845
63	0x3c7c9a66	0.015417671
64	0xbce5b9ed	-0.028042758
65	0x3d81a769	0.06330759
66	0xbd91753c	-0.07102439
67	0xbd01611c	-0.03158675
68	0x3ca3b4c2	0.019983653
69	0x3c99b6b7	0.018763883
70	0x3d2c06f6	0.041998826
71	0xbdcc3223	-0.099705
72	0x3daa3337	0.0831055
73	0x3d28c044	0.041198984
74	0x3d8a69c7	0.06758457
75	0xbd15ef09	-0.036604915
76	0x3c048622	0.00808862
77	0x3d6b15b3	0.05739374
78	0xbd984d0b	-0.0743657
79	0xbc826941	-0.01591933
80	0x3d8aaf74	0.06771746
81	0xbd438373	-0.04773278
82	0xbdcd18c1	-0.10014487
83	0xbbdd83c5	-0.006760093
84	0x3d4c96ab	0.049948376
85	0x3ca8fd1e	0.020628508
86	0xbc55522b	-0.013020079
87	0x3ba016ff	0.004885554
88	0xbdd8ec5f	-0.10591959
89	0x3d91e45b	0.071236335
90	0xbd719f69	-0.058989916
91	0x3c66048f	0.014039173
92	0x3ce81ece	0.028335001
93	0xbd2d9be2	-0.04238499
94	0x3d19cffd	0.03755187
95	0xbd800ff5	-0.062530436
96	0xbdc4c8f4	-0.09608641
97	0xbda5831c	-0.08081648
98	0xbcadb8e3	-0.021206325
99	0x3d898173	0.067141436
100	0xbcd045cc	-0.025423907
101	0xbdaebe1c	-0.08532354
102	0xbda165e7	-0.078807645
103	0xbb8aac16	-0.00423194
104	0xbc9a6795	-0.01884822
105	0x3b742856	0.0037255487
106	0xbca7fc0e	-0.020505931
107	0x3c58bc30	0.013228461
108	0xbce8a4f6	-0.028398972
109	0xbda94cf0	-0.08266628
110	0x3d1ad29a	0.0377985
111	0xbe22eb5b	-0.15910093
112	0x3bdd9158	0.006761711
113	0xba66b0f5	-0.00088001724
114	0xbd109afb	-0.03530405
115	0xbd9c0169	-0.076174565
116	0xbd6e5b7b	-0.05819271
117	0xbd87e07e	-0.06634615
118	0x3d04625a	0.032320358
119	0x3d9586e2	0.073011175
120	0xbd03c66e	-0.03217166
121	0xbd2b2650	-0.041784585
122	0xbd9478fa	-0.07249637
123	0xbc944ee2	-0.01810402
124	0xbdaf8308	-0.08569914
125	0x3d2c0349	0.04199532
126	0x3c57d8f9	0.013174289
127	0xbc97519f	-0.018471537
128	0xbec3a5e3	-0.382125
129	0xbdcb20a9	-0.09918339
130	0xbf2501b5	-0.6445573
131	0xbe0cd663	-0.13753657
132	0xbf013cb8	-0.50483274
133	0xbe3084a8	-0.17238104
134	0xbd7a9f5f	-0.061187144
135	0x3d2505e6	0.04028883
136	0x3f1eaa82	0.61978924
137	0xbdabbdd8	-0.08385819
138	0x3f0a226d	0.5395878
139	0xbf383fcd	-0.7197235
140	0x3e91781d	0.28411952
141	0xbe01ac01	-0.1266327
142	0x3e23c030	0.15991282
143	0xbf306770	-0.68907833
144	0xbcd31ec3	-0.025771504
145	0xbe4ecedd	-0.201961
146	0xbdd07b34	-0.10179749
147	0xbe03e130	-0.12878871
148	0x3e23457d	0.15944476
149	0x3ebeab29	0.3723996
150	0x3e3a8fe0	0.18218946
151	0x3d5aa09d	0.05337583
152	0x3f83e3fe	1.0303953
153	0x3f0acec2	0.5422174
154	0x3e5b57d4	0.21420223
155	0xbd9ed6c7	-0.07755809
156	0xbe56ade4	-0.20964772
157	0xbf0d144c	-0.55109096
158	0xbf5b1139	-0.85573155
159	0x3e088caa	0.13334909
160	0x3d99f3ab	0.07517179
161	0xbf5bb7f5	-0.8582757
162	0x3d6bb403	0.05754472
163	0xbdaa4d17	-0.08315485
164	0xbd8f1dac	-0.06988081
165	0xbec6e939	-0.3884981
166	0xbee0ed62	-0.4393111
167	0x3dfae7db	0.12251254
168	0xbe78204d	-0.24231072
169	0x3de819bc	0.113330334
170	0xbf27e5a8	-0.655848
171	0x3ddca45a	0.10773535
172	0x3f0123c2	0.5044519
173	0x3c959f6d	0.018264497
174	0x3e9b0972	0.30280644
175	0x3ddd1163	0.10794332
176	0x3db5f626	0.0888484
177	0xbec2719b	-0.379773
178	0x3e4434f2	0.19160822
179	0x3833dc49	4.2882082e-05
180	0xbc252ad0	-0.010081008
181	0xbef940c3	-0.48682222
182	0x3e5164d1	0.20448615
183	0xbcf60e6e	-0.030036177
184	0x3df2c17e	0.11853312
185	0xbe063421	-0.13105823
186	0xbe20ca5b	-0.15702192
187	0x3ce9a731	0.028522106
188	0x3e1df9d0	0.15427327
189	0xbbc0d8cc	-0.005885219
190	0xbea3a80e	-0.31964153
191	0xbf2e4332	-0.6807128
192	0xbd30a7d5	-0.043128807
193	0x3e41805c	0.18896621
194	0xbc7d37b9	-0.01545518
195	0x3e4b8d00	0.19878006
196	0xbf0c8c54	-0.54901624
197	0xbd90ae31	-0.070644744
198	0xbe48ae60	-0.19597769
199	0xbf31c63e	-0.6944312
200	0xbf03d1ed	-0.51492196
201	0x3e02bfd2	0.12768486
202	0xbf511977	-0.8167948
203	0xbdda5fdf	-0.10662817
204	0xbe83d939	-0.25751665
205	0xbd7c818d	-0.061646987
206	0x3e27d905	0.1639138
207	0xbdb8cb9c	-0.090232104
208	0xbb18aebd	-0.0023297512
209	0xbdff1707	-0.12455564
210	0xbdd8abc8	-0.1057964
211	0xbc00d160	-0.007862419
212	0x3e766437	0.24061666
213	0xbdc39dda	-0.09551592
214	0x3e3bf303	0.1835442
215	0xbf822a4c	-1.0169158
216	0xbe203b4b	-0.15647618
217	0xbf2562e7	-0.6460404
218	0x3f3b3225	0.7312339
219	0xbe9cab6f	-0.30599543
220	0x3e9030cb	0.28162226
221	0xbe0f451d	-0.13991208
222	0xbd19125b	-0.03737102
223	0x3e3df715	0.18551286
224	0xbd93df95	-0.07220379
225	0x3d09ee79	0.03367469
226	0xbf40f11c	-0.75367904
227	0xbf76405f	-0.9619197
228	0x3f592753	0.8482563
229	0x3d408bb6	0.04700824
230	0x3e3c14c8	0.18367302
231	0xbe2ccbef	-0.1687467
232	0xbe285cb1	-0.16441609
233	0x3e3b493b	0.18289654
234	0xbea31539	-0.3185213
235	0xbd0d1e94	-0.03445299
236	0xbe1bacaa	-0.15202585
237	0xbf809e91	-1.0048391
238	0xbd624af8	-0.055247277
239	0xbedb4f78	-0.42834067
240	0x3d9f1474	0.07767573
241	0xbeeaa86d	-0.45831624
242	0xbe09b9d0	-0.13449788
243	0xbf271595	-0.65267307
244	0x3eed8600	0.46391296
245	0x3d731238	0.059343547
246	0xbd8f6b1b	-0.070028506
247	0x3c249382	0.010044934
248	0xbe8fedfc	-0.28111255
249	0xbcd96b4b	-0.02654042
250	0xbd88c51f	-0.06678223
251	0xbe4adb96	-0.19810328
252	0xbe0a2c26	-0.13493404
253	0x3c4c9074	0.012485612
254	0xbe005523	-0.12532477
255	0xba8208aa	-0.0009920795

layers.1.bias f4 [128]
0	0xbca0899f	-0.019596873
1	0x3d9dd20d	0.0770608
2	0xbd826ba8	-0.0636819
3	0x3d22f8c4	0.039788023
4	0x39779d5f	0.00023614381
5	0xbdc1ff05	-0.09472469
6	0xbd869c1d	-0.06572745
7	0x3da87dbd	0.08227108
8	0xbd7d3aa6	-0.06182351
9	0xbe3860ac	-0.18005627
10	0xbdc5a2e3	-0.09650209
11	0x3d7c064a	0.061529435
12	0xbdf3e33a	-0.119085744
13	0xbd91b263	-0.07114103
14	0x3dbbf6ff	0.0917797
15	0x3d7630fd	0.060105313
16	0x3c25b746	0.010114497
17	0x3ccdc50d	0.025118375
18	0xbdb67484	-0.08908942
19	0x3d593b97	0.053035345
20	0x3d8bd874	0.068283945
21	0x3c03f695	0.008054395
22	0x3d8b982b	0.06816133
23	0xbd90136b	-0.07034954
24	0xbb195ed0	-0.002340246
25	0xbb042150	-0.0020161457
26	0x3dc5e085	0.09661964
27	0x3d56345c	0.052296028
28	0xbce80b48	-0.028325692
29	0xbd251357	-0.040301647
30	0xbd68cd56	-0.05683645
31	0x3d32b0f9	0.043625806
32	0xbdd47128	-0.10373145
33	0x3cf91fbe	0.030410644
34	0xbda0b0c3	-0.078462146
35	0x3d83a69c	0.064282626
36	0x3d6a3e04	0.05718805
37	0x3d9c3cae	0.07628761
38	0x3e153821	0.14572193
39	0xbda8aa5a	-0.08235617
40	0x3c11b7ad	0.008893889
41	0xbcee26c0	-0.029071212
42	0x3e0a84b9	0.13527192
43	0x3cfa5242	0.030556802
44	0x3dc9b27b	0.098484956
45	0x3c04b337	0.008099369
46	0x3d6d56c8	0.05794409
47	0x3de1e009	0.110290594
48	0xbd968ff4	-0.07351676
49	0xbd4e0b8a	-0.050303973
50	0xbbb12019	-0.0054054377
51	0xbdbef0b1	-0.09323252
52	0xbbe9e45e	-0.007137819
53	0xbd88ad35	-0.066736616
54	0x3c45d6e2	0.012075158
55	0xbdc679aa	-0.09691174
56	0xbdbd1ede	-0.09234403
57	0xbd3bb1fc	-0.045824036
58	0x3d2336f6	0.039847337
59	0xbc6f3f15	-0.014602442
60	0xbc5f3574	-0.013623584
61	0xbe6d5c9d	-0.2317986
62	0xbd976b56	-0.073935196
63	0x3cac2cd3	0.021017468
64	0xbdabc211	-0.083866246
65	0x3d61d02b	0.055130165
66	0x3d863232	0.06552543
67	0xbdb96e67	-0.09054261
68	0xbdb5aeb9	-0.08871216
69	0xbd8b7aa4	-0.06810501
70	0xbc7e0cbf	-0.015505969
71	0xbd9debe7	-0.077110104
72	0xbd8415f4	-0.064495
73	0x3e05f275	0.13080771
74	0xbc9b09f3	-0.018925643
75	0xbc3e0d7c	-0.011599895
76	0xbd81b72d	-0.06333766
77	0xbda86c03	-0.082237266
78	0xbda5488d	-0.080704786
79	0x3cbb0724	0.022830553
80	0x3bee78e9	0.007277597
81	0xbba5f556	-0.0050646467
82	0xbc66df80	-0.0140913725
83	0xbc953088	-0.018211618
84	0xbd5a1bc1	-0.053249124
85	0x3cbf36f7	0.023341639
86	0xbd0fdf7d	-0.035125244
87	0xbcff858d	-0.031191612
88	0x3d4f89c8	0.050668508
89	0xbdbe5843	-0.09294178
90	0xbd8c060c	-0.06837091
91	0xbda89688	-0.082318366
92	0xbcb54e5d	-0.022132093
93	0xbd1736fe	-0.03691768
94	0x3c052e4c	0.008128714
95	0x3d41a0aa	0.04727236
96	0xbcbda86f	-0.023151604
97	0x3d99925a	0.074986175
98	0x3c1e7811	0.009672181
99	0xbd2ae610	-0.04172331
100	0x3cd13163	0.025536245
101	0xbd413510	-0.047169745
102	0x3dd14b20	0.10219407
103	0x3d88f7de	0.06687902
104	0xbd4382d6	-0.047732197
105	0x3db5ca11	0.08876432
106	0x3dd8dc53	0.105888985
107	0x3e11c523	0.14235358
108	0xbcf53005	-0.029930124
109	0x3bdb07ec	0.006684294
110	0x3d49d59d	0.049275983
111	0xbd7c1043	-0.061538946
112	0x3d8d64e7	0.06904011
113	0x3e2bbf9d	0.16772313
114	0xbd328e04	-0.043592468
115	0x3d297b97	0.04137763
116	0x3d0b4c2d	0.034008194
117	0x3cf24cca	0.029577632
118	0x3d82a06a	0.06378253
119	0xbb1326f6	-0.0022453642
120	0xbdba7f52	-0.09106316
121	0x3d8b30b3	0.06796398
122	0xba8ee083	-0.001090065
123	0x3e050264	0.12989193
124	0xbd5ed67b	-0.054403763
125	0x3d562b26	0.052287243
126	0x3d4e3dbf	0.050351854
127	0x3e30c493	0.17262487
