9_gym-DDPG/results/DDPG_Pendulum-v1_eps0.1_t32_l0.0001_update100_s198_1500.pth (torch, 176460 bytes, 12 tensors)

layers.0.weight f4 [128, 4]
000000 21 ec c3 be 58 6f 02 be a6 51 56 bc e8 b4 21 3e
       -0.3826609 -0.12737787 -0.01308099 0.15791667
000010 2b 6d 37 3e 16 3a 37 bf 72 27 a9 3d 3a 32 e4 be
       0.17912738 -0.7157301 0.08259477 -0.4456957
000020 de 86 d2 be 2b fc c6 3c 12 07 26 be 86 8b e8 be
       -0.4111852 0.024290165 -0.16213635 -0.45418948
000030 7d 09 82 3e ad c2 f7 3e 7d a4 9e ba 14 76 9e be
       0.25397864 0.48390713 -0.0012103465 -0.3094946
000040 19 3e 8d be 80 6c 23 3f 74 b7 75 3d 25 8c cf 3e
       -0.2758644 0.6383743 0.059989408 0.4053661
000050 ee aa f1 3e 1f ca 05 3f 39 92 bf 3c d7 71 e2 3d
       0.47200722 0.5226154 0.023385154 0.110568695
000060 9b ed 84 3e a3 ce 63 be 26 1a 80 be 9a 87 13 bf
       0.2596253 -0.22246794 -0.2501995 -0.57628787
000070 f0 90 85 be c5 40 e4 be 50 1f b6 bd bc 60 e4 be
       -0.2608714 -0.44580665 -0.08892691 -0.44605052
000080 c3 5c 9b bd d9 87 ed 3e ed f7 84 3e a4 c9 a2 3e
       -0.07586052 0.46392706 0.25970402 0.31794465
000090 b9 00 ea be 7d dd b0 3e a8 e8 d6 3d 11 f3 c2 3e
       -0.45703676 0.34543982 0.104935944 0.3807607
0000a0 a3 06 af be 4a 2a d4 be cc 2b 1a be 01 49 fc be
       -0.3418475 -0.41438514 -0.1505577 -0.49274448
0000b0 62 6a 0b be d7 e4 ca 3e dc 39 89 3c 3f 13 c8 3e
       -0.136148 0.39627716 0.016751222 0.39077184
0000c0 0f df 09 bf 0d de 44 3d ff 00 91 be 47 13 c6 bc
       -0.53855985 0.048063327 -0.28321072 -0.024179114
0000d0 9e b6 cc be eb dd 34 bf da 9a d9 3d e6 38 5a bd
       -0.39983076 -0.7065112 0.10625239 -0.05327692
0000e0 85 22 fb bc c4 d1 7e bd 45 b7 36 3d d8 59 2e be
       -0.030656109 -0.062211767 0.044608373 -0.1702646
0000f0 c7 f2 cc 3e 52 42 0c bf 05 ff c5 bd 27 74 b2 3d
       0.40028974 -0.54788697 -0.09667782 0.087135606
000100 53 b8 f0 be 21 9d 2e 3f be ee 24 3e f9 e2 63 3e
       -0.47015628 0.6820851 0.16106698 0.22254552
000110 e7 cb bf be d3 74 2a be 7c ff 07 3f ad be 87 bd
       -0.37460253 -0.16646127 0.53124213 -0.066281654
000120 35 29 a5 3e 3b 75 ab be ec 13 bb 3c d8 d0 02 be
       0.32258 -0.33487877 0.022836648 -0.1277498
000130 de 5a d7 bd ac fc 49 3e 16 1c b0 be f1 bb b0 be
       -0.105153784 0.19725293 -0.34396428 -0.34518388
000140 d4 ab a9 3e 4c 9a c4 be b3 05 ed bc 0e db e6 3e
       0.33138907 -0.3839897 -0.028933382 0.45089
000150 62 10 6e be fa e7 b1 bd 3a f4 78 bd 91 c3 93 be
       -0.23248437 -0.08686824 -0.060779788 -0.28860143
000160 20 97 db bd 3e 79 8e 3e 74 be c2 be 89 d4 4e 3e
       -0.10722184 0.27826875 -0.3803593 0.20198263
000170 8e 44 96 bd 08 db 1a bf 9f 2f 42 3e b8 96 48 be
       -0.073372945 -0.60490465 0.18963479 -0.19588745
000180 da 65 83 be e2 ee c6 3d 46 00 91 be 56 82 aa bd
       -0.25663644 0.09713532 -0.2832052 -0.08325641
000190 d8 fc 84 bd 0c 30 49 3f 94 11 5d 3e 4c 51 81 be
       -0.064935386 0.7858894 0.21588737 -0.25257337
0001a0 13 6c f0 bd 5e 4d 0a bf ed 95 19 be de 98 7f bd
       -0.117393635 -0.540243 -0.14998598 -0.062401645
0001b0 31 41 13 be 9e ff 61 3f 56 e3 93 3e 6b d7 96 be
       -0.14380337 0.88280666 0.2888438 -0.29461226
0001c0 d4 96 b2 3b ff 59 db be 57 24 42 be 83 f4 28 bd
       0.005450109 -0.428421 -0.18959175 -0.04124881
0001d0 c6 5c f0 3e 61 30 a9 3e 5e 60 8c 3e 28 e3 9e bd
       0.4694578 0.33044723 0.27417272 -0.0775817
0001e0 dc bd 58 bd 89 0b 0b bf f6 3a b3 3d d3 3b 76 3e
       -0.05291544 -0.54314476 0.0875148 0.24046259
0001f0 7e bd 0f 3e bb 8e 10 3f 46 13 2c 3e df 2a 84 be
       0.1403713 0.5646779 0.16804227 -0.25813958
000200 e8 e1 dd 3e e4 d0 32 3f 03 8a 24 3e a8 22 ab be
       0.43336415 0.6984999 0.16068272 -0.33424878
000210 73 4d f0 be f1 89 e6 3d 9f cb 6e be 44 13 df bd
       -0.4693409 0.11256779 -0.23319863 -0.108923465
000220 6d 42 13 bf 87 12 35 3f f6 36 b5 bd 97 de 80 3d
       -0.5752323 0.70731395 -0.088483736 0.06292456
000230 5f bb 0c bf c1 9c 14 3e d6 e2 7a 3e f5 6b de be
       -0.54973406 0.14512922 0.24500594 -0.4344174
000240 21 30 d3 3e 99 9e aa be 25 6c 6b be bc 20 96 3e
       0.41247657 -0.33324125 -0.22990473 0.2932185
000250 84 4c 9f be 4f 47 c2 3e b2 34 2a bf 19 78 86 bd
       -0.31113064 0.3794503 -0.66486657 -0.065658756
000260 35 8b 1c bd e7 dd 85 3e bd 35 51 3e 48 a5 1a be
       -0.038218696 0.2614586 0.20430656 -0.15102112
000270 51 40 61 be 1d 94 3b 3f 96 68 9d 3e a5 88 e3 be
       -0.21997191 0.7327288 0.30743855 -0.4444019
000280 f0 7a f7 be 33 39 f4 be 89 c7 71 be 69 5c 66 3e
       -0.4833598 -0.4769989 -0.23611273 0.22496189
000290 02 3b 3e 3e d0 f8 20 3e e4 d5 fb bc 9e 30 1c 3e
       0.18577197 0.15719914 -0.03074164 0.15252921
0002a0 e8 74 00 3e 92 d2 0d bf ed 01 64 3d 1f 5f a8 3d
       0.12544596 -0.5539943 0.0556659 0.08221268
0002b0 93 02 de be a4 5a 8c 3d 13 5e 81 3e 6d 32 8a be
       -0.4336134 0.06853226 0.25267085 -0.26991597
0002c0 97 33 cc 3e 08 be ca 3e 53 d5 53 bf 79 eb 07 3d
       0.3988311 0.39598107 -0.8274738 0.03318355
0002d0 f6 ba d4 be 35 fd 12 bf 66 af b4 3d f1 14 61 3d
       -0.4154889 -0.57417613 0.08822517 0.054951612
0002e0 25 b4 36 bd ba 77 55 bf 4d f2 e8 3d f5 52 4a 3e
       -0.044605393 -0.83385813 0.1137434 0.19758208
0002f0 04 74 1c 3f ba 36 82 3e e7 4a 49 bd cb dd da 3e
       0.61114526 0.25432378 -0.049143698 0.4274734
000300 05 69 a3 be fb 30 90 3c fb 90 e8 be 4a f5 3e be
       -0.3191606 0.01760148 -0.4542311 -0.18648258
000310 59 35 d1 be 54 4d ec be 63 65 10 3e 74 76 be 3e
       -0.40861014 -0.46152747 0.14101176 0.37199748
000320 8d 66 d7 3e 56 f7 68 be f0 64 cc 3e a2 09 ae be
       0.42070428 -0.22750601 0.3992076 -0.33991724
000330 b1 f5 d4 be 4e 5b 21 3e ef a4 4e 3e aa 78 93 be
       -0.41593698 0.15757486 0.20180105 -0.28802997
000340 ad e2 01 be 80 50 ea be 98 ea a1 3e 8d 67 bc be
       -0.12684126 -0.45764542 0.31624293 -0.36797753
000350 29 d2 c5 be be 37 08 bf 1b 2d 26 3e b3 e5 f8 be
       -0.38636902 -0.53210056 0.16228144 -0.48612747
000360 29 8e eb bd aa 15 47 3f 0c 51 10 3e c2 0e 3c 3d
       -0.11501724 0.7776743 0.14093417 0.04591251
000370 63 dd 95 3e 09 cd 34 3f e8 86 2b 3c 30 c0 68 3e
       0.29270467 0.7062536 0.010469176 0.22729564
000380 b3 b6 05 3f 4e 17 30 3f 3b a1 88 3e d3 03 33 3e
       0.522319 0.6878556 0.2668551 0.17481928
000390 7e 76 f5 3d af 17 08 3f 61 e2 31 3e 0e 3a e6 be
       0.11985491 0.5316114 0.17371513 -0.44966167
0003a0 04 3f 7c 3c 2e 99 23 bf 64 ca 97 be f7 90 ba 3d
       0.0153958835 -0.6390561 -0.296466 0.09109681
0003b0 c9 85 63 3e 2c 8c 8c be 9b 29 13 3f 41 3d 4f 3e
       0.22219004 -0.27450693 0.5748536 0.2023821
0003c0 90 39 a4 3e fe f5 13 bf 16 ca 83 3e de a0 a5 be
       0.32075167 -0.5779723 0.25740117 -0.32349294
0003d0 a6 ab b5 3e ea 6a 09 be 9c 3a 31 be 20 18 3c 3e
       0.3548252 -0.1341969 -0.17307514 0.18368578
0003e0 9d 89 38 3e bb 3e 75 3f a8 ee 77 3c 6a a5 d9 3d
       0.18021245 0.95798844 0.015132584 0.10627253
0003f0 d9 09 61 be 5d 70 1a bf 73 78 80 be 53 d3 ca bd
       -0.21976413 -0.603277 -0.25091895 -0.09903588

layers.0.bias f4 [128]
000000 4e 79 f6 3e 73 01 65 3e eb 8b bc be 08 62 81 be
       0.48139423 0.22363834 -0.368255 -0.25270104
000010 82 f4 f9 be fa 7d 93 bd 87 2d e9 bd 69 ed c5 3d
       -0.48819357 -0.072017625 -0.11385637 0.09664423
000020 c9 e0 e8 be c6 68 2d 3e 5d ce b8 3d 4e d8 03 bf
       -0.45483997 0.16934499 0.09023736 -0.5150193
000030 f7 3e 06 bf 02 38 b5 3e 32 bb 10 bf 2a 4f 4e be
       -0.52439827 0.35394293 -0.5653564 -0.20147386
000040 c3 3a 1f 3f b7 53 cc be a2 e4 b4 bd df fa 5e 3e
       0.6219904 -0.3990762 -0.08832671 0.21775387
000050 26 4d 3d be db 6a 33 3e e2 b0 4a be 53 69 d4 be
       -0.18486461 0.17521231 -0.19794038 -0.41486606
000060 25 9c 2c be eb d6 e1 3e 14 de 5c 3e 0e 0e c2 3e
       -0.1685644 0.44109282 0.21569091 0.37901348
000070 11 8f c7 3e 5b 50 4d 3d 26 aa 8e 3d 1b e3 10 bf
       0.38976339 0.05012546 0.06966047 -0.56596535
000080 3a 26 e3 be 0c cb e1 be b7 8a b5 bd 1a 2c ea be
       -0.44365102 -0.44100225 -0.088643484 -0.45736772
000090 a9 58 0a bf 77 e1 6b be f8 13 da 3e 66 14 cc 3e
       -0.54041535 -0.23035227 0.4259336 0.39859313
0000a0 0f 7a 00 bf f8 20 fb 3e 17 f0 b3 be 11 72 55 be
       -0.50186247 0.4904859 -0.35144112 -0.20844294
0000b0 b7 ad 2c 3d 35 03 cd 3e ca d1 fc 3d 7a 15 ab 3e
       0.042157855 0.4004151 0.123447016 0.33414823
0000c0 56 fa 6c bc d5 30 34 bd 54 65 99 bd 4e 7a 9a bd
       -0.014463982 -0.043991882 -0.0749003 -0.07542859
0000d0 b8 dc 56 bb 63 fd e3 3e eb aa c1 3e 91 fa 3f be
       -0.0032785367 0.44529256 0.37825713 -0.18747927
0000e0 b1 3e f0 be ac 43 97 3e ae e7 c7 3e 27 cb 97 3d
       -0.4692283 0.29543817 0.39043945 0.07411795
0000f0 23 78 58 be 47 88 cb 3e 37 10 be bd c6 f7 f4 3e
       -0.21139579 0.3975241 -0.092804365 0.47845286
000100 94 f2 88 be b3 07 a8 be b0 78 fe 3b 84 5b 00 bf
       -0.26747572 -0.32818374 0.007765852 -0.5013964
000110 50 64 91 3e 93 8f a5 be 29 0e 01 bf a1 93 00 3f
       0.28396845 -0.323361 -0.5041223 0.50225264
000120 2b f0 0e bb 2f 99 bf bd 94 1c d7 be 2d 94 fe 3e
       -0.0021810632 -0.09355389 -0.4201399 0.49722424
000130 f1 1c 8a 3e d7 04 fa bd 08 9f 7b be d4 8b f7 3e
       0.26975206 -0.122079544 -0.24572384 0.48348868
000140 e5 b1 38 3e fc 29 f8 3e e4 80 33 be 2a f6 45 3e
       0.18036611 0.48469532 -0.17529637 0.19332185
000150 6a 51 9f 3c 55 7d ba be f1 7e 0c 3d 18 6a 0c 3f
       0.019448001 -0.36423746 0.03430075 0.54849386
000160 87 9b 02 3f 15 23 ac be ba 53 d2 be e2 cc d3 be
       0.51018566 -0.33620515 -0.41079503 -0.4136725
000170 0a 0b 95 be 1e 86 d8 bc 0e c9 8a 3e a4 d0 9a 3e
       -0.29109985 -0.02643114 0.27106518 0.30237305
000180 0e 4b 03 3f d8 4c 1a bf a3 70 20 3e 42 74 3f 3c
       0.512864 -0.60273504 0.15667967 0.011685433
000190 b2 76 22 be d5 58 a8 3e 25 65 bd be 29 33 16 3e
       -0.15865591 0.32880273 -0.3699123 0.14667954
0001a0 33 94 08 3d e4 2d 55 b8 b8 dd 48 3f 59 98 b5 3e
       0.03334446 -5.0825896e-05 0.78463316 0.35467795
0001b0 bd 94 af 3d 34 91 0f bf 03 78 5d 3e 82 9f e9 be
       0.085732915 -0.5608094 0.21627812 -0.45629507
0001c0 ea 29 b9 be c5 ce 14 bd 77 aa 23 3f 9a a9 c0 3e
       -0.3616479 -0.036330003 0.63931984 0.37629396
0001d0 17 c5 de be 11 b3 87 bc 22 cb 03 bf 22 d0 89 be
       -0.43509743 -0.016564878 -0.5148183 -0.26916605
0001e0 c9 28 b2 be 53 99 8b be 2d a6 13 3f 06 3c f8 bc
       -0.34796742 -0.27265415 0.5767544 -0.030302059
0001f0 76 bb 18 bf 97 f5 39 bd 68 52 9b 3d 88 cc 23 3e
       -0.5966104 -0.04540023 0.07584077 0.15995991

layers.1.weight f4 [128, 128]
000000 64 d3 8d 3d 82 38 47 bd ef 68 7f bb 05 0a 20 3d
       0.06925085 -0.048637874 -0.0038972457 0.039072055
000010 fa f5 6f 3d 8d e3 03 be e4 69 a3 3d da 51 07 bd
       0.05858419 -0.12879772 0.079791814 -0.033037044
000020 79 c8 ba 3d 3e 96 74 bd c4 42 65 3d ec 74 1f 3d
       0.091202684 -0.059713595 0.055971876 0.038929865
000030 5b e8 ed 3d 76 0d 1f 3e c3 81 04 bd 40 d5 17 3d
       0.11616584 0.15532479 -0.032350313 0.037068605
000040 3b 03 eb bb d6 94 b1 bb 28 30 eb 3c ea 6f 68 bd
       -0.007172016 -0.005419354 0.028709486 -0.056747355
000050 e9 fe 70 3c 83 e9 31 bc 8d 2f e3 bc 6d ff b8 bd
       0.014709213 -0.010858896 -0.027732635 -0.090330936
000060 46 87 1d 3d 0a 6c bd bd 34 f3 52 bd 1d fd 14 3d
       0.038459085 -0.092491224 -0.051501468 0.0363742
000070 b5 19 90 bc 33 ee 09 bd 21 2a 09 3d 1e 67 c8 3d
       -0.017590383 -0.03367443 0.033487443 0.09785293
000080 11 e7 8d 3d e8 1a ad bd 7a 16 1c bc a7 be c6 3d
       0.06928838 -0.084523976 -0.009526843 0.09704333
000090 60 96 df 3c 14 62 09 bd 4f 8e c8 bd ca 10 f6 3c
       0.027293384 -0.0335408 -0.09792768 0.030037303
0000a0 98 e7 1e 3d 67 d0 12 3e c5 c7 ab bd 7f 8e 16 3c
       0.038795084 0.14337312 -0.083877124 0.009189247
0000b0 d8 a5 cd bd fb 22 b9 3c 13 0d ae bc 12 ac 77 bc
       -0.10041398 0.022599688 -0.021246469 -0.015116708
0000c0 03 d2 68 bd a8 96 b3 3d a8 4d d3 bd 13 1c 88 bd
       -0.056840908 0.0876897 -0.10317546 -0.0664598
0000d0 76 d6 83 bd 79 2e cb 3d 7c 17 47 bc 22 5d 07 3d
       -0.064373896 0.09920973 -0.012151595 0.033047803
0000e0 df c3 40 3d 29 32 ba 3d 43 bd a8 3a 33 c2 cd bd
       0.047061797 0.090915985 0.0012873787 -0.10046806
0000f0 34 36 49 3d 96 b1 c7 3c 5b 20 4b bc cf c5 2f 3d
       0.049123958 0.024376672 -0.012397851 0.042913254
000100 25 4c a2 bc b3 6b 5b 3d 73 54 07 be 3d 20 79 bd
       -0.0198117 0.053569507 -0.13215809 -0.06082176
000110 e2 68 41 bc 4a 64 4b bc dd 9e b1 3d 41 5f 37 bd
       -0.011804791 -0.0124140475 0.08672879 -0.044768576
000120 f5 84 fe bc 91 34 77 bd 4b 72 c2 3c e1 6e 04 3d
       -0.031069258 -0.060352866 0.02373614 0.032332305
000130 d7 f2 44 3d be 97 ef ba a9 65 03 3d a8 6c 59 3d
       0.048083153 -0.0018279476 0.032079373 0.05308214
000140 10 51 4a bd 3c d7 86 3b 40 16 8e bd fe c0 ee 3c
       -0.049393713 0.0041150134 -0.069378376 0.02914476
000150 aa 6f 45 3d c0 1a 8c 3d 9f 5f 0b 3c b9 07 23 3d
       0.048202194 0.0684104 0.008506685 0.039802287
000160 a2 43 f3 ba 5f 3e ba bd d9 b6 73 3d bc b3 4c bc
       -0.0018559585 -0.090939276 0.05950055 -0.012494024
000170 b3 c4 06 bd 62 2e 51 3d ad 44 be b9 8f 47 cc 3d
       -0.03290243 0.051069625 -0.00036290791 0.09974586
000180 8a ad 26 bd 7b 45 b4 3d a7 b2 f7 3c 1e 81 86 3c
       -0.040692843 0.08802315 0.030236555 0.01641899
000190 06 6e 0c 3d 52 a6 56 3d 70 23 4d bb 0f 18 17 3d
       0.034284614 0.05240471 -0.003130164 0.03688818
0001a0 87 15 8c 3c b6 82 34 bd 04 50 65 bc bf 11 10 3e
       0.017100109 -0.04406997 -0.013996128 0.1406927
0001b0 8b 94 59 bd fb cd da 3a 2b 77 0f bd ec 18 53 3c
       -0.053120177 0.0016693467 -0.035025757 0.01288436
0001c0 6c fc af bc bd b6 a7 bd b3 18 7f bd 89 a8 37 3d
       -0.021482669 -0.081891514 -0.062279414 0.044838462
0001d0 63 d1 0d bc da b3 15 3d 44 d8 d9 bd 40 48 88 bd
       -0.008655879 0.036548473 -0.106369525 -0.066544056
0001e0 70 ec a6 bc 96 00 80 3d 63 a5 f5 3d aa 16 a9 bd
       -0.020376414 0.06250112 0.11994436 -0.08256276
0001f0 33 cf d3 bd 36 03 88 3c 3e db 16 3d a1 00 c2 3c
       -0.103422545 0.016603094 0.03683018 0.02368194
000200 9c 9c 70 3d 9e cf b3 3d 63 ac 0b bd c5 e2 be 3b
       0.058743104 0.08779834 -0.034099948 0.005825373
000210 29 4e 0d 3d 66 79 b9 3b 78 1e 15 3d c5 20 a9 bb
       0.034498367 0.005660224 0.03640601 -0.005161377
000220 2b da a9 bd 2b 54 88 3d 26 d0 fe bc 19 28 d9 bd
       -0.08293565 0.06656679 -0.031105112 -0.10603351
000230 bd fc 91 ba 7f 4a ab 3d 4b bb dd bd 02 af 1b be
       -0.0011137944 0.083638184 -0.10826739 -0.15203479
000240 06 b2 95 3d 8a d3 ed 3a 83 0c d1 bd 0b c2 64 3d
       0.07309346 0.0018144709 -0.102074645 0.055849116
000250 aa 35 93 3c df b4 f4 3c 54 5c 71 bd e2 c4 86 bc
       0.017969925 0.029871402 -0.05892594 -0.016451303
000260 d2 1a cc 3c 15 03 4b 3d fb 8a a0 3d 56 c8 8e 3d
       0.024915133 0.049563486 0.078390084 0.06971805
000270 9f eb 83 bb 59 83 1d bd 5e 2e a1 3c 0f 89 ce bd
       -0.004025891 -0.03845534 0.01967543 -0.100847356
000280 b9 6e 4c 3d 7f 57 69 3c 13 27 64 3c e2 e0 e3 bd
       0.04991028 0.014242052 0.013925332 -0.11126877
000290 01 3a cc bd 80 71 14 3d a2 be 3e 3d b5 ce 52 3d
       -0.09972001 0.036241055 0.04656852 0.051466662
0002a0 a8 cf 0e 3d 0d 0d 81 3d b0 ce 18 be e7 07 9a 3d
       0.034866005 0.06301317 -0.14922595 0.075210385
0002b0 33 3b e2 3c 68 8d f9 3d 67 a7 ba 3d e2 13 97 bc
       0.027616119 0.12185174 0.09113961 -0.018442098
0002c0 84 cf a3 3d d6 ef 12 3c 20 88 6b 3d 9e fa a8 3d
       0.07998565 0.008968314 0.057502866 0.082509264
0002d0 ed 50 42 3d 1a 53 b8 3c db 54 df bc 2a 6e 97 bd
       0.047440458 0.022500563 -0.027262142 -0.07394059
0002e0 a4 a9 c4 3c 5d ce 14 bd 1a 96 c9 bd a9 25 22 3d
       0.024006672 -0.036329616 -0.09843083 0.039586697
0002f0 ba 17 71 bd dc 27 87 3c d2 f7 8a bd 0b 6f 37 3d
       -0.058860518 0.016498499 -0.06785549 0.044783633
000300 80 10 08 bc a8 2d 4c bb dd 54 5c bb ee 36 cd bd
       -0.008304715 -0.0031155143 -0.0033619918 -0.10020243
000310 f3 16 97 3d ad e3 c2 3c 8d d1 c0 3d bc 33 d3 3c
       0.07377424 0.023790205 0.09414969 0.025781505
000320 82 98 93 bc 1c 9d ab bd 43 3c 61 3d e6 c3 f6 3d
       -0.018017057 -0.083795756 0.05498911 0.120490834
000330 36 2f 1f b9 01 af cd bb c9 7d 17 be 8d 6a b8 3c
       -0.00015181009 -0.0062769656 -0.14794077 0.022511745
000340 33 f7 b4 3d b5 83 13 3e 29 0d 8c bd b1 ae 7b 3d
       0.08836212 0.14405711 -0.068384476 0.061445896
000350 fd d4 29 bd e5 e8 db bb f0 c9 99 bc 6e 5e 45 3e
       -0.041462887 -0.006711113 -0.01877305 0.19274303
000360 0b f4 42 bd 1d 61 fc 3a 74 cd 9a bd a3 ef 0f be
       -0.04759602 0.0019255016 -0.07558718 -0.14056258
000370 f6 f5 35 bd c8 e1 b4 3d b5 74 b0 3c 6a 08 63 3d
       -0.04442402 0.08832127 0.021540025 0.055427946
000380 ca 53 8c 3d d7 58 8f bd 4c e2 0f 3d d7 a1 70 bc
       0.06851919 -0.06999367 0.035127923 -0.014687023
000390 44 de 14 3d b6 9a 03 3d 80 4a b4 bd 7c 0f 88 3b
       0.03634478 0.032129966 -0.08803272 0.0041522365
0003a0 4d 2f ab bc a2 74 68 bd 98 4b 0a 3c 8d 96 40 3e
       -0.020896578 -0.056751855 0.0084408745 0.1880743
0003b0 30 38 23 3d cf 46 d5 bd d0 0a 3f bd 24 b0 cd bc
       0.039848506 -0.10413896 -0.04664117 -0.025108404
0003c0 56 fd c0 bd 17 41 ad bc 94 81 13 3e db 82 5f 3d
       -0.0942332 -0.021149201 0.14404899 0.054568153
0003d0 37 77 b9 bd af ca 00 3d fb 43 a6 bd 15 87 00 be
       -0.090559416 0.031443294 -0.08118435 -0.1255153
0003e0 76 36 65 bd 39 c7 a4 bd 16 53 03 3e c2 ed 57 bd
       -0.05596014 -0.08045811 0.12824664 -0.052716978
0003f0 1d 5d 2a 3c 87 60 cd 3d 8a ea 58 3d b7 38 30 3e
       0.0103981765 0.10028177 0.05295805 0.17209135

layers.1.bias f4 [128]
000000 38 0e 1f 3e 4c 74 da 3d ed f4 d1 3b 2b af ce bd
       0.15532768 0.10666713 0.0064073713 -0.100920044
000010 ad a5 00 be 3e 1a fe 3c 45 4f 23 3d 89 ad 34 be
       -0.125632 0.031018373 0.03987052 -0.17644323
000020 95 9c df 3d c1 ea 10 be ff e6 24 be ec 0e 23 3e
       0.109185375 -0.14152052 -0.16103743 0.15923661
000030 fd 28 25 3d 0c d9 ae 3d 5d 30 ed bd 07 e8 23 3e
       0.040322293 0.08537492 -0.1158149 0.1600648
000040 14 51 b0 3c d8 d1 9e bd fa 59 44 3b a4 8f b2 3c
       0.021523036 -0.07754868 0.0029960857 0.021797009
000050 0a 90 fb 3d 48 1c 18 be 65 20 38 be 91 de d1 bd
       0.12283333 -0.14854538 -0.17981108 -0.10247529
000060 59 65 47 3d 74 d0 82 bd 61 2a 2f 3e c9 11 16 be
       0.048680637 -0.063874155 0.1710601 -0.14655222
000070 53 5c 03 3d 57 a0 1a 3e f4 68 4f bd 5d ca 3d bd
       0.03207047 0.15100227 -0.0506372 -0.046335567
000080 5a 95 26 3d 65 d6 c6 bd ab 3e 3b be a0 f4 e3 3c
       0.040669776 -0.09708861 -0.18285625 0.027826607
000090 f4 d6 61 3d e1 38 dd 3d 22 64 03 bd 4b e9 1f be
       0.055136636 0.108018644 -0.032077916 -0.15616338
0000a0 f0 e4 1b be 78 38 f4 3d 6f 01 53 be d0 c6 73 3d
       -0.15224051 0.11924833 -0.20606016 0.059515774
0000b0 3f 8a 23 3d 2e 28 4f 3e c5 cc a3 3d b6 b2 3a bd
       0.039926764 0.20230171 0.07998041 -0.04558059
0000c0 a9 d2 fe 3d 22 81 98 3d ec 31 27 3b ef 2f ea 3d
       0.12442524 0.07446505 0.0025511933 0.11434924
0000d0 bc 93 66 3c b3 64 9e 3d 34 85 a8 bd dd e3 17 be
       0.014073309 0.077340506 -0.082285315 -0.14833017
0000e0 c0 33 54 3d c0 c8 74 bd 28 9a ee 3d ea 0f ca bd
       0.051807165 -0.059761763 0.11650497 -0.098663166
0000f0 72 76 d0 bd 7b 11 a2 bd 12 bf 4c 3d 08 e7 4b bd
       -0.10178842 -0.079134904 0.049986906 -0.049780875
000100 35 b5 cb bd 5a b6 37 bc 1e e7 7f 3d 55 70 ba bd
       -0.09946672 -0.01121291 0.06247627 -0.09103457
000110 f6 2d 54 3c 7f b8 98 3c 9e e6 ec bb 94 22 95 3d
       0.012950411 0.018642662 -0.00722964 0.07281986
000120 b2 64 97 bd 32 18 23 3d a5 23 29 3e 19 f9 09 3e
       -0.07392253 0.039817996 0.16517504 0.1347393
000130 8b 6a 89 3e 35 ba da 3c 7e e1 04 3e a5 51 60 be
       0.26839098 0.026700119 0.12976643 -0.21906145
000140 07 93 90 bd 19 6d bd bd db e7 96 bc ba 7c e2 bd
       -0.07059293 -0.09249324 -0.018421104 -0.11058946
000150 66 5e 14 3e a0 23 c6 3d 7f 17 3e be 93 b7 00 3e
       0.14489135 0.09674764 -0.1856365 0.12570028
000160 19 1b 87 3d 40 3b 07 3a a2 33 46 3c db a0 1e bd
       0.06596965 0.000515867 0.012097271 -0.038727622
000170 10 45 6c be f4 cc a1 3d 55 82 b8 bd a6 46 5d bc
       -0.2307322 0.0790042 -0.09009234 -0.013505613
000180 e1 3f 9b bd 7a 42 4a 3d 82 4a 4a 3e e6 29 e8 bc
       -0.07580543 0.049379803 0.19754985 -0.028340291
000190 6d ae 06 3c 6b 83 f1 3d 45 94 3e be 1b ce 49 3d
       0.008220297 0.11792644 -0.18611248 0.049268823
0001a0 64 61 44 be 7d 0a 7d 3d c6 52 33 3e 94 d3 ec 3c
       -0.19177777 0.06177758 0.17512044 0.028909482
0001b0 3f 4f 52 3e d5 9e de bd 3a c6 b1 bd 57 5c 8f bb
       0.20538042 -0.108701386 -0.08680387 -0.0043750214
0001c0 6c d1 ef 3d 6d e2 bc bd 8a bc 8c bc f7 3c 0d 3e
       0.11709866 -0.09222875 -0.017179746 0.13792787
0001d0 b9 2f 9b 3d f3 32 39 3d 43 66 0f 3d 95 4b 21 3d
       0.07577462 0.045214605 0.035009634 0.03937872
0001e0 0e 14 f3 3d 06 ac db 3d 82 a6 a1 3d 0a a9 fd bd
       0.118690595 0.1072617 0.07893087 -0.12385757
0001f0 a4 36 e6 3c b4 2f f1 3d e4 e7 43 be 59 cb a6 3d
       0.028102227 0.11776677 -0.19131428 0.08144254

layers.2.weight f4 [64, 128]
000000 0f 19 ad ba 02 17 0f bd 45 1b dd bc 35 91 db 3d
       -0.001320632 -0.03493405 -0.026990542 0.107210554
000010 fe 9a 17 bb a9 50 1f 3e 5f cc ac 3d 39 7b 30 bd
       -0.0023133154 0.15558113 0.08437418 -0.043086264
000020 4c 91 df bd 11 3a 75 bd 3f 43 5f bc 77 a6 44 3d
       -0.10916385 -0.05986983 -0.013626873 0.048010316
000030 d2 cf 0e be c2 c5 96 3c d1 3b 24 3e 8c dd 3a 3d
       -0.13946465 0.018404845 0.16038443 0.04562144
000040 aa b7 24 bd b0 b6 8e 3e c4 4c 27 bd 03 01 cd be
       -0.04021422 0.27873755 -0.040844694 -0.40039834
000050 31 cb 06 be ab b2 cc 3d 60 7e 45 3c 7f ff 2d 3f
       -0.13163449 0.09995016 0.012054056 0.6796798
000060 63 17 74 bd 55 3d 39 be ae c3 81 3b 21 22 05 3e
       -0.059592616 -0.18089803 0.0039600944 0.130013
000070 81 0a ed 3d ec 45 c7 3d 7f 21 a7 3b 4d 85 33 3e
       0.11574269 0.097301334 0.0051004286 0.17531319
000080 9d 90 9f bd c1 28 98 3d d5 99 cf 3d bd 09 a9 3d
       -0.07791255 0.07429648 0.10136763 0.082538106
000090 ae fa 81 bd fb 61 a2 3d b3 ce 51 3d 79 43 aa 3d
       -0.063466415 0.079288445 0.051222514 0.08313651
0000a0 ae b6 d7 3d 67 47 69 be 94 c3 70 bd 2b 2c df be
       0.1053289 -0.22781144 -0.058780268 -0.43588385
0000b0 e7 41 10 3d 37 c7 a1 bd 8c dd 52 bd e3 68 70 3e
       0.0352191 -0.07899325 -0.051480815 0.23477511
0000c0 be ec 0d 3d ac 9a 77 bd f5 a9 72 be 6c d8 2b 3d
       0.034649603 -0.06045024 -0.23697646 0.041954443
0000d0 6b 35 19 3b 64 61 88 be e3 bc a5 3e af 6e 26 3d
       0.0023377787 -0.26636803 0.32370672 0.0406329
0000e0 ad dd 21 be 8e 2a 1a 3e 7c 17 8d be 46 70 ae 3e
       -0.15807219 0.15055296 -0.2755698 0.34070033
0000f0 42 fa ec 3d 05 09 98 3e 3f 90 98 3c 4e f7 6c 3d
       0.115711704 0.2969438 0.01862347 0.057853036
000100 37 e9 81 3e 11 4c 87 3d c2 35 30 bc 36 0b f5 3c
       0.2537324 0.066063054 -0.010755004 0.029912572
000110 a0 bd 14 be a4 d8 af bc 6e 4a 54 3d df 5f 11 3d
       -0.14525461 -0.021465607 0.051828794 0.03549182
000120 e3 f3 25 bd c1 d8 54 be 37 dd 52 bd 65 69 d4 bd
       -0.04051579 -0.2078581 -0.0514805 -0.10371665
000130 17 04 c8 3b 93 15 6a bd dc ba 74 bd a4 2a ab 3b
       0.006104003 -0.05714948 -0.059748515 0.005223589
000140 e5 00 b3 3c 70 52 b3 3d 83 66 21 bd 52 d8 99 3e
       0.021851012 0.08755958 -0.039404403 0.30047852
000150 69 74 fc bd 7f 31 68 3e e8 2f 34 bd 6d 08 49 b9
       -0.12326891 0.22675131 -0.043991 -0.00019171993
000160 82 7b 03 bd 1b 41 e5 3c 7d 16 1e be 18 5d f3 3d
       -0.032100208 0.027985146 -0.15438266 0.118829906
000170 1c f2 ac 3d 34 cb ba bd 1e 15 23 3e f9 59 81 3e
       0.08444616 -0.09120789 0.15926024 0.25263956
000180 a5 7d 09 3c f6 05 82 3d 10 e2 b1 3d 39 29 c8 bd
       0.008391772 0.06348793 0.08685696 -0.097734876
000190 03 e4 68 be 57 6c 44 bd f2 ba b3 3d ec 28 f1 3c
       -0.2274323 -0.047954883 0.08775891 0.029438458
0001a0 b2 53 19 3e d0 6f 58 3d f0 70 23 bc 02 74 10 bc
       0.14973333 0.052841008 -0.009975657 -0.008816721
0001b0 01 17 50 3c 16 60 3a bd 90 23 d2 3e c9 97 73 3c
       0.012700797 -0.04550179 0.41042757 0.014867731
0001c0 82 29 39 bd ad 25 3d 3c 38 bc 8d bd 29 d4 1f bd
       -0.0452056 0.011544627 -0.069206655 -0.03902069
0001d0 f8 b9 ea 3d ea c1 c5 be d8 53 71 be 62 66 a1 bd
       0.11461252 -0.38624507 -0.2356714 -0.07880856
0001e0 1e e1 32 be 82 e2 0f 3e 35 b3 17 bc 7f b0 c2 3d
       -0.17468688 0.1405125 -0.009259035 0.0950632
0001f0 54 a6 8e bd 0f 77 e3 3c 1d 7b c6 3d e0 cf 74 3e
       -0.06965318 0.027766732 0.09691451 0.23907423
000200 7f 36 11 be 90 cb d3 bd ba 81 c1 3c e3 05 4a 3c
       -0.14180945 -0.10341561 0.023621429 0.012330505
000210 1b 0d 98 3d 24 3b 79 3d 80 84 ee 3d 28 bb e2 3c
       0.07424375 0.060847417 0.11646366 0.027677134
000220 39 18 1c 3d 76 0b 75 3d 87 7a 1c 3e bf fc 04 be
       0.038109038 0.059825383 0.15281115 -0.1298704
000230 b2 e9 c1 bd 66 b0 ee bd ee 95 09 3e 25 b8 e6 bc
       -0.09468402 -0.11654739 0.134361 -0.028163979
000240 ec e1 37 be fb af ba 3c 56 86 f1 bd 43 f6 ff bc
       -0.17957276 0.022788992 -0.11793201 -0.031245356
000250 e9 19 12 be 1f ff a2 3d e6 61 e7 3d 5a 80 4f bc
       -0.14267696 0.07958817 0.112979695 -0.012664879
000260 30 97 54 be db 9f fc bd bb b0 e7 3a 48 2d cb 3c
       -0.20760798 -0.123351775 0.0017676571 0.024801865
000270 2b 7d b5 bc f2 56 43 bd 71 05 b0 bd fd d1 11 3e
       -0.022154411 -0.04769034 -0.08594788 0.1424026
000280 c4 68 1b 3c e2 d2 f0 3d 5d 17 f6 3d e5 35 c2 bd
       0.009485427 0.11758973 0.12016175 -0.09482936
000290 f0 98 7a 3d a3 3d 8b bd 3e ab 94 bc 64 f9 76 3d
       0.06118101 -0.06798866 -0.01814806 0.06029643
0002a0 b2 5d 3c 3c 9b 6c 2a be 33 8c bb 3d 5d de 01 be
       0.011496948 -0.16642992 0.091576 -0.12682481
0002b0 00 c2 fd bd e3 fe 13 bc 0f 68 5d bb 40 3e 24 3e
       -0.12390518 -0.009032938 -0.0033783948 0.16039371
0002c0 12 77 24 bd 7c 8a d1 bd d2 b6 9a bc c2 81 1c bc
       -0.040152617 -0.10231492 -0.018886004 -0.009552421
0002d0 77 dd ec bc 0d c8 48 be 96 80 75 3d 48 72 98 3d
       -0.028914196 -0.19607563 0.059937082 0.074436724
0002e0 5d 23 01 be b5 f7 3b 3e 4f 62 31 bd 83 8c 39 3e
       -0.12611146 0.18356211 -0.043306645 0.18120007
0002f0 7c 9d 5c 3d f1 fd 2f 3d 6f 08 5a 3e 45 b5 26 3e
       0.053861126 0.042966787 0.2129228 0.16280086
000300 42 71 41 bd 4a 0e 11 3e a9 d0 13 bd 11 83 9f 3d
       -0.04722715 0.14165607 -0.036087666 0.07788671
000310 cb 11 4c be 95 ba 01 3e 6e 15 78 3d 00 48 98 bc
       -0.19928662 0.12668832 0.060567312 -0.01858902
000320 5e 31 bb 3c 01 6d 2a be 5c 0d 00 be b6 67 5e be
       0.022850689 -0.16643144 -0.12505096 -0.2171925
000330 6e 39 a6 3c 83 ad 8f bd 3f c9 ad bd 2f 83 17 3e
       0.020291056 -0.070155166 -0.0848565 0.14796136
000340 fe 70 c1 3d 96 98 11 3e eb f9 0a be 84 86 8f 3d
       0.0944538 0.14218363 -0.13571899 0.07008079
000350 8d 42 84 bd 63 5c 06 3e 29 3d 1f bb 3b 62 2d be
       -0.06458006 0.1312118 -0.002429793 -0.16932003
000360 58 1b 22 bc 5c 80 5b bd b9 e2 2a be d7 aa 20 3e
       -0.009894215 -0.05358921 -0.1668805 0.1569017
000370 d0 67 b2 3d 8d d9 b6 ba da 5a 57 3e e6 ef 1a 3d
       0.08711207 -0.0013950333 0.21030751 0.03782644
000380 51 ec cc 3d e4 ec ab 3c fc 81 54 bd af e9 98 bc
       0.10006011 0.020986982 -0.051881775 -0.018666117
000390 ae a5 1c bd db b1 ad bd f2 2c ee 3d 80 e0 70 bd
       -0.038243942 -0.08481189 0.116296664 -0.05880785
0003a0 39 fe 01 bd f6 fd b4 bc 2e 2a a6 3c c4 0a c0 bd
       -0.031736586 -0.022093754 0.020283785 -0.093770534
0003b0 ad 6b 9c bd 5f cf f5 3d 31 70 5d 3c 21 a9 bf 3d
       -0.07637725 0.120024435 0.013515518 0.09358431
0003c0 13 ab a6 bd 25 7e 4e 3d 78 ac 68 3d 66 16 9e 3b
       -0.081380986 0.05041327 0.056805104 0.0048244474
0003d0 c8 a3 00 3e 6e 88 0d be 4a b1 90 be f0 e4 24 bb
       0.12562478 -0.13821575 -0.2826026 -0.0025160871
0003e0 23 1d 7f 3c 86 81 9c 3d bb ec d2 bd 15 e2 31 ba
       0.015570912 0.07641892 -0.10299059 -0.0006785703
0003f0 39 bc 07 bd 7b d7 cd bd 2a 32 c3 3d e5 f0 5c 3d
       -0.033138487 -0.10050865 0.095310524 0.053940672

layers.2.bias f4 [64]
000000 20 48 cc bd ec 09 10 bd ad ea 6a 3d df 7a d2 3d
       -0.09974694 -0.035165712 0.05735271 0.10277342
000010 06 5e 16 bd 82 30 0e bc ec fc a5 bd f4 e2 42 3c
       -0.03671076 -0.008678557 -0.08104882 0.01189493
000020 d2 75 08 3c 52 f2 d1 3d d6 fc 99 bc 67 cc 1b bd
       0.008328872 0.10251297 -0.01879732 -0.03803673
000030 a3 44 44 bd bd dc 6b bd 28 63 09 bb 64 d6 e4 3c
       -0.04791702 -0.05758356 -0.0020963643 0.02793426
000040 92 20 a6 bd d5 e5 35 3d db 19 ca 3d 01 ee be bd
       -0.08111681 0.044408638 0.09868213 -0.093227394
000050 30 d2 e1 bc 5b a9 06 3e 1c 08 3f bd d7 65 1e bc
       -0.027566046 0.13150541 -0.046638593 -0.009667835
000060 19 a8 ff 3c dc b4 d1 bd 1d ad a4 3d c7 05 ba 3d
       0.031208085 -0.10239574 0.08040831 0.09083133
000070 71 f8 ce bd 56 aa ec bd 71 fb b9 3d f2 26 13 3d
       -0.1010598 -0.115559265 0.09081162 0.035925813
000080 21 bc b1 bc ce b8 46 bd 84 7c 78 bc 3d 43 e9 bc
       -0.021696152 -0.048516087 -0.015166406 -0.028474445
000090 b4 12 70 bd 06 6e 36 bc 15 3f 1d 3d 61 f5 74 bc
       -0.058611587 -0.01113463 0.038390238 -0.014951081
0000a0 98 8f 03 be cd fb 0d be 2b 51 0d be df 34 ce bc
       -0.12847745 -0.13865586 -0.13800494 -0.025171695
0000b0 9a 97 08 bd 21 94 d4 3c ce 0f 28 be af 01 b6 3d
       -0.033347704 0.02594954 -0.16412279 0.0888704
0000c0 09 a6 14 3e 92 a3 3a be 69 e8 60 3d a7 d1 a8 bd
       0.14516462 -0.1822646 0.054909144 -0.08243113
0000d0 ac 57 e8 bc 48 f8 bd 3d 26 f0 b4 bd 41 6b 6f bd
       -0.028362118 0.092758715 -0.08834867 -0.058451895
0000e0 62 b2 02 bd 51 6c ee 3d f5 8a 57 3a 93 51 d9 3d
       -0.0319084 0.116417535 0.00082223053 0.10611262
0000f0 07 48 01 be c2 a9 c1 3c 5d 81 6f 3c 24 3f 5a bd
       -0.12625133 0.023640517 0.014618245 -0.05328287

readout.weight f4 [1, 64]
000000 98 f2 c5 3f ba cc a7 3f f1 3a c9 3f c2 05 b1 bf
       1.5464659 1.3109353 1.5721112 -1.3829882
000010 c1 b2 a4 3f 62 d5 bc bf 5b ce b2 3f 29 a6 ba 3f
       1.2867051 -1.4752619 1.3969225 1.4581958
000020 40 f1 b4 3f 2b 2f ae bf 1a 6a ac 3f 4a cd ae 3f
       1.4136124 -1.3608145 1.346988 1.3656399
000030 57 31 a9 3f 24 e9 c3 3f 5f b6 b0 bf 28 0f b6 3f
       1.3218182 1.5305524 -1.3805655 1.4223375
000040 65 da ae 3f 86 66 ab bf f6 70 b5 bf 94 a5 a2 3f
       1.3660399 -1.3390663 -1.4175098 1.270678
000050 dd da be bf 3b db b3 bf 70 71 c4 3f 3b f7 ad bf
       -1.4910542 -1.4051279 1.5347118 -1.3591074
000060 71 0d af bf db 4e a7 3f 0c 19 a5 bf fd 7c ab bf
       -1.3675977 1.307094 -1.2898269 -1.3397518
000070 d0 bc a5 3f d7 c1 b2 3f 0d 8a a4 bf 69 49 ae bf
       1.2948246 1.3965405 -1.285463 -1.3616153
000080 0f 66 ba 3f 93 3e b1 3f 11 cd a4 3f ad e7 a0 3f
       1.4562396 1.3847221 1.2875081 1.2570702
000090 43 ec c2 bf 14 5d bd bf b3 08 b2 bf c1 86 bb 3f
       -1.5228351 -1.479403 -1.3908905 1.4650499
0000a0 3d 7d ba 3f cf d5 a7 3f 16 9a ae 3f f4 a6 af 3f
       1.456947 1.3112124 1.3640773 1.3722825
0000b0 a1 3e b2 3f f8 01 c0 3f ea 57 a9 3f 25 9b b9 bf
       1.3925363 1.5000601 1.3229954 -1.4500471
0000c0 78 d4 a2 bf 2d a1 a7 3f 99 bb a5 bf a8 3c a8 3f
       -1.272109 1.3096062 -1.2947875 1.3143511
0000d0 0c c1 ad 3f 4b a5 c5 3f e3 05 ab 3f 16 36 af 3f
       1.3574538 1.5441068 1.3361171 1.3688381
0000e0 6a 54 a7 3f 2e 4a a6 bf cf 07 b5 bf 74 c2 a7 bf
       1.3072636 -1.2991388 -1.4143008 -1.3106217
0000f0 4f 62 af 3f 18 11 b3 3f d1 05 ae 3f 87 bb a7 3f
       1.3701876 1.3989592 1.3595525 1.3104104

layers.0.weight f4 [128, 3]
000000 cf e5 a5 be 0a 62 51 3f 17 41 c5 3d 6a 4e e4 3d
       -0.32401893 0.8179022 0.096315555 0.11147769
000010 1a 35 80 be 06 90 ad be 6e aa 93 be 4e 2a b8 be
       -0.25040513 -0.33898944 -0.28840965 -0.35969776
000020 75 49 18 bf 61 bc f4 be 8c 88 1c 3f 34 e7 8e be
       -0.59487087 -0.47799972 0.61145854 -0.2791077
000030 b8 ec e0 3e cd 0b 05 bf d7 90 05 bf 76 d4 19 be
       0.43930602 -0.5197113 -0.52174133 -0.15022454
000040 69 d7 02 3f 87 a4 01 3f 47 47 0b 3e 4c 47 ff 3e
       0.5110994 0.50641674 0.13601409 0.49859083
000050 a7 4e ba be 6b 3f ef bc f3 19 7f bd ed 38 0a bf
       -0.36388132 -0.029205045 -0.062280606 -0.5399311
000060 7c 03 2d bf c1 0c ec 3e 52 4a b8 3e 3e 60 75 be
       -0.6758344 0.4610348 0.35994202 -0.23962495
000070 2f 66 15 3e 46 08 a7 3e 3c 03 f6 3d 2d 24 f0 3e
       0.14589761 0.326235 0.12012336 0.469026
000080 2a 13 a0 be e6 2a 38 3f d2 00 93 3e 80 6d 1e bf
       -0.3126462 0.7194046 0.28711563 -0.61885834
000090 d5 42 f9 3e e5 02 71 bf 21 78 80 bd 95 e3 1a bf
       0.486838 -0.9414504 -0.06272913 -0.6050351
0000a0 66 6a e2 3e 80 b6 cd 3d 23 3d 05 3f 32 77 0e be
       0.442218 0.10044575 0.5204641 -0.13912657
0000b0 2c 06 f7 3d c7 81 78 bc d7 b7 2d bf 65 a1 16 bd
       0.12061724 -0.01516766 -0.6785864 -0.03677501
0000c0 e6 fc 2d be bd d4 22 be de c7 c7 3e 2c b0 fb be
       -0.16991004 -0.15901466 0.39019674 -0.49157846
0000d0 68 ce 26 3f 59 dd 92 be 3f ea 80 be ba f3 4b 3f
       0.651587 -0.286845 -0.25178716 0.7966877
0000e0 1b 21 94 be ae a9 43 bd 5b 0f 54 3f 70 59 0f 3e
       -0.28931507 -0.04776924 0.8283593 0.13998961
0000f0 e3 c9 cd be a4 6a 4c be 8e 97 a9 be a8 d5 39 bf
       -0.4019309 -0.19962555 -0.3312344 -0.7259164
000100 a8 1b 95 3e c8 6e b6 3e 97 de 2f 3e 7a 4a dc be
       0.29122663 0.35631394 0.17174755 -0.4302557
000110 fe 86 0a bf 3c de a0 3d 4c 51 38 bf 60 f7 e4 bd
       -0.5411223 0.07854888 -0.7199905 -0.111799955
000120 da c8 ca be a7 88 60 3f 42 10 24 be 98 04 c7 be
       -0.39606363 0.87708515 -0.16021827 -0.38870692
000130 c1 2b 1c 3f fc 50 64 3e 2c 4b c1 3d ef c8 a4 be
       0.61004263 0.22296518 0.09438166 -0.3218455
000140 bf 0f d9 3e 63 59 6d be 9b 0c 2a bd 38 6b 81 bd
       0.42394826 -0.2317863 -0.041515928 -0.063192785
000150 c3 e6 e6 be dd ae 3e 3f 69 54 44 be a8 79 b9 be
       -0.45097932 0.7448557 -0.19172825 -0.3622563
000160 4b 15 16 bf 19 35 be be 9b 0b 0a 3f 21 47 12 3f
       -0.5862624 -0.37149885 0.5392396 0.57139784
000170 88 fc ca 3e 46 6b 1e 3f 96 33 67 3f 63 8e ac 3e
       0.3964579 0.61882436 0.9031309 0.33702382
000180 60 73 2c 3d 08 57 32 bf c6 b5 f3 3e 4d 4e 16 bf
       0.042102218 -0.6966405 0.4759962 -0.5871323
000190 3d 6c 42 be 87 fb a7 3e b6 29 bd 39 02 1a 27 3f
       -0.18986602 0.32809088 0.00036079966 0.6527406
0001a0 87 6a 50 be 06 c2 08 bf ad 09 c7 be 15 1e 9b bd
       -0.20353137 -0.53421056 -0.3887457 -0.07574097
0001b0 94 fd 2c bf 6a 82 90 3d 88 97 ca 3e 06 f1 57 bd
       -0.6757443 0.070561245 0.39568734 -0.052720092
0001c0 44 43 01 3f b7 02 8f be 61 c2 e3 3d 12 0d 06 3f
       0.50493264 -0.2793176 0.11121059 0.52363694
0001d0 d4 a3 34 be 05 cf 06 bf 04 af 0b 3f c8 ca b3 be
       -0.1764062 -0.52659637 0.5456393 -0.35115647
0001e0 dd 3b e3 3e 55 eb 97 be f1 d8 4b bd 31 6c 8e 3d
       0.4438161 -0.29671732 -0.04976744 0.069542296
0001f0 70 90 58 3c 04 c0 0f bf c1 40 12 3f b8 e6 eb 3e
       0.01321803 -0.5615237 0.57130057 0.46074462
000200 6e d3 24 3f 90 91 28 3e 8e eb e0 be 4c 5b 38 3e
       0.64385116 0.16461778 -0.43929714 0.18003577
000210 da 6f 82 3d 1b 4f 4c bf 97 f8 e6 3e c6 6c 5f 3c
       0.0636899 -0.79808205 0.45111534 0.013636773
000220 9e 8c b1 3e 1f b2 00 3e 23 3f 81 be ed 5e 34 3e
       0.34677595 0.12567948 -0.25243482 0.17614336
000230 80 27 1e bd 76 4a 0f 3f a4 e9 cc be 86 73 20 bf
       -0.03861189 0.55972993 -0.40022004 -0.62676275
000240 a6 36 ea be 94 a5 d0 bd 8a b2 f2 3e 75 59 b2 3e
       -0.45744818 -0.101878315 0.4740184 0.34833875
000250 c5 30 37 3e 37 d1 81 3e 17 56 33 bf 71 c1 bb 3e
       0.17889698 0.2535493 -0.7005324 0.36671022
000260 0e 71 01 3f 90 48 21 3f 5e 76 53 bf 88 7a e2 be
       0.5056313 0.63001347 -0.8260249 -0.4423411
000270 6b ff 4b 3e 5a 11 1b bf 9f c4 ba be 66 25 5d 3e
       0.19921653 -0.6057335 -0.36478135 0.21596298
000280 50 01 44 3f 64 44 01 3e 43 6a c2 3c da bb c4 3e
       0.765645 0.12623745 0.02373231 0.3842457
000290 d2 c1 12 bf 29 f3 7f 3d 76 81 1f bf 30 09 85 3e
       -0.57326996 0.062487755 -0.62306917 0.25983572
0002a0 62 f6 33 be f8 1c cd 3e ea 0d 5b be 51 49 c8 3e
       -0.17574456 0.40061164 -0.21392027 0.39118436
0002b0 95 58 5d bf aa 42 55 3d a6 e0 fe 3e 32 b2 2a be
       -0.8646329 0.05206553 0.49780768 -0.16669539
0002c0 7d f2 bf 3e 77 60 e3 3e 6a 6a d9 bc 99 82 18 bf
       0.3748969 0.44409534 -0.02654 -0.59574276
0002d0 b9 d5 88 be 37 bf 3d 3f 22 0a b8 3e 1e 1d c7 be
       -0.26725557 0.74119896 0.3594523 -0.38889402
0002e0 1f c2 e6 3d 47 d6 01 bd 56 c8 06 bf 1b 60 48 bf
       0.112674944 -0.03169849 -0.5264944 -0.78271645
0002f0 4a 7b dd bd 49 c9 ee be 47 d3 3a 3f 2b 46 30 be
       -0.10814531 -0.46637943 0.72978634 -0.17214267
000300 8d 2e 31 3e 3c b1 47 bf ab 5e a8 3e e7 a5 30 3e
       0.17302914 -0.78004813 0.32884726 0.17250787
000310 a2 b6 6d 3f f4 7b 13 bf 1c bd 4b be ea a6 53 3f
       0.928568 -0.5761101 -0.19896358 0.82676566
000320 9e 78 af 3d 57 8f 6f 3e 7a 9b 10 be cb d7 a1 3c
       0.08567928 0.23394524 -0.1412181 0.019756218
000330 79 cb 7a 3e c4 a6 2a bd 84 ce ed 3b 55 89 0a be
       0.24491681 -0.041662946 0.0072572846 -0.1352895
000340 45 27 d7 3e a0 3c 35 bf 2e 56 47 3e 56 a2 ca be
       0.42022148 -0.7079563 0.19466469 -0.39576977
000350 9f ae 3b 3e a5 ae f5 bd 3c 01 f4 be 65 3d 16 bf
       0.18328331 -0.119962014 -0.47657192 -0.5868743
000360 da 5b 8b 3e a9 57 2b 3e 92 1a 86 3e ab a1 59 3e
       0.27218515 0.16732658 0.26192147 0.21253078
000370 c5 66 55 bf 68 22 9d 3e 91 2e d1 be 83 42 2e 3f
       -0.8335994 0.30690312 -0.4085584 0.6807024
000380 96 3a 2d be 7f 85 ca 3e f3 3c 32 bf 9b 97 05 bf
       -0.1691688 0.39554974 -0.6962425 -0.52184457
000390 2a 32 1d 3e e8 dd 23 3f f5 22 c8 be 17 4a 06 3f
       0.15351167 0.6401048 -0.3908917 0.524568
0003a0 4f bc 69 be 8e 2d e7 be b9 bb 31 be 65 9e 2a bf
       -0.2282574 -0.45151943 -0.17356767 -0.6664794
0003b0 75 dc ea 3e 7b 88 16 3f 37 97 3e 3f c7 52 c6 3e
       0.4587132 0.58802 0.74449486 0.3873503
0003c0 ed e1 1a 3f 67 25 10 3f ec 99 be 3e 96 c4 0b 3f
       0.60500985 0.5630707 0.37226808 0.5459684
0003d0 11 9a 79 bf e2 1f 1c be bc 2c c2 bd fe 70 31 bf
       -0.9750071 -0.15246537 -0.09481189 -0.6931304
0003e0 63 db f8 3b 0e f1 47 3e df 1a 40 bf 2f fd db be
       0.0075945123 0.19525549 -0.75041 -0.429666
0003f0 d3 b6 ab bd a1 be 13 be 56 4a 1d bf 4c 6c 98 3e
       -0.0838448 -0.14428188 -0.6144155 0.29770124

layers.0.bias f4 [128]
000000 3b 66 07 3f 55 2c 00 bf 62 7e 93 3e 7d 1f 70 be
       0.52890366 -0.50067645 0.2880736 -0.23449512
000010 98 a6 be be b2 a4 1b 3e db 7a 04 3f 44 da dc 3e
       -0.37236476 0.15199545 0.5174996 0.43135273
000020 09 2a 16 3d 33 e8 a0 3e 62 fa ce be 2f 45 11 bd
       0.03666118 0.31427154 -0.40425402 -0.03546637
000030 cc 7c 6f bd 0a 15 fe be 74 8c f3 3e 99 77 ea 3e
       -0.058468625 -0.49625427 0.47568095 0.4579437
000040 b3 9a 07 3f 23 a7 06 be 5a b8 96 3b 7a 7e df bd
       0.5297043 -0.13149695 0.004599613 -0.10912795
000050 84 5c 3b bd 5d 4d a0 be 2e 3f b5 be 60 c4 8a 3d
       -0.045742527 -0.31309023 -0.35399765 0.06775737
000060 e2 bb cf 3e ca 87 ee be 4f 66 2b 3f a3 3f cc 3e
       0.4057303 -0.46587974 0.66952986 0.398923
000070 6d e1 5a be 38 a0 03 bf ee f0 52 be e5 89 89 be
       -0.21375056 -0.5141635 -0.2059972 -0.26863018
000080 a1 a5 b8 3e 39 5f 62 3e ef 1a db 3d a5 ea 8f bd
       0.36063865 0.22106637 0.106984966 -0.07027177
000090 73 38 a0 be 1d 33 85 3e 23 a6 5d 3e 51 11 77 3e
       -0.31293067 0.2601556 0.21645407 0.241277
0000a0 0f 73 0c 3f 75 93 73 3e 7d 21 00 3f ff ce 1c 3f
       0.54863065 0.23786719 0.500511 0.6125335
0000b0 b9 01 ef be 5d cd ab 3e 47 ad b7 3e 00 9e ce 3e
       -0.46681002 0.33555117 0.35874388 0.4035492
0000c0 9a 5b 9d 3e 73 e1 db 3e 7e 56 34 3d 4e 57 ed be
       0.3073395 0.42945442 0.044027798 -0.4635567
0000d0 d5 c1 b9 3e 2f 12 b2 3e 05 b0 21 3e 2f 89 ac bd
       0.36280695 0.34779498 0.15789802 -0.08424603
0000e0 64 21 b4 3e 53 23 91 be 72 35 1d bf cd 73 46 3e
       0.35181725 -0.28347263 -0.61409676 0.19380112
0000f0 02 48 0a bf a8 8c d4 3e 75 11 4f bd 85 4f b1 be
       -0.54016125 0.41513562 -0.050553758 -0.3463098
000100 74 96 4a be 30 e0 ff 3e 1d 12 0e 3f 7e ee d2 be
       -0.19783956 0.4997573 0.5549639 -0.4119758
000110 0d 14 aa be 67 c2 e9 3c f7 5e ba 3d c2 07 42 3e
       -0.33218423 0.028535081 0.09100144 0.18948272
000120 30 fb 14 bf 76 c4 c2 bc 28 64 95 be 20 9a b5 3e
       -0.5819578 -0.02377532 -0.29177976 0.3546915
000130 30 3b ec be 25 0e d9 be fe 8e c3 3e 62 13 b8 be
       -0.46138906 -0.42393604 0.38195032 -0.35952288
000140 ff de e2 be 95 3a 0c 3f 05 68 f9 bd b8 cf 8a bd
       -0.44310758 0.5477689 -0.12178043 -0.067779005
000150 0d 24 ef 3e a8 0b c2 be cd 85 c6 be 9e fa aa bd
       0.46707192 -0.37899518 -0.38773957 -0.08348583
000160 49 4a d6 3e 19 fe ca be 87 0d 06 be 63 03 0b bd
       0.4185355 -0.39646986 -0.13091098 -0.033938777
000170 c9 08 db 3e 1b f9 1c 3e dc 7e be 3e 0f 7f 00 3f
       0.4278014 0.15329401 0.3720616 0.50193876
000180 3b 68 67 be 56 51 a8 be 0f 9e ab bd 39 7c 39 bf
       -0.22598355 -0.32874554 -0.08379757 -0.72455174
000190 a0 f8 05 3f 81 ce 3b 3c b6 a5 0e 3f 63 e2 ed bc
       0.52332497 0.011462809 0.55721605 -0.029038614
0001a0 39 de dc be cc 70 54 be 03 04 f1 be a1 7f 18 3f
       -0.43138292 -0.20746154 -0.47073373 0.59569746
0001b0 fd 4d d1 be 7a 75 f2 3e 02 af d0 3e e4 7a 0d bf
       -0.40879813 0.47355253 0.4075852 -0.5526564
0001c0 d1 b3 b5 be 10 71 cd 3c b2 dc 92 bd fc 3e 9d bd
       -0.35488752 0.025078326 -0.071710005 -0.07678029
0001d0 cd fa da be 6d d4 e2 3d 1b 55 50 3e c1 a2 05 bf
       -0.4276947 0.11075673 0.20344965 -0.5220147
0001e0 f8 8c 02 bf a2 6f 83 3e c2 58 91 3e 3c fb 61 3d
       -0.5099635 0.25671107 0.2838803 0.055171236
0001f0 59 9c 07 bf 68 48 2f 3f 68 02 4a 3d d4 ff 1e 3f
       -0.5297294 0.6846986 0.0493187 0.6210911

layers.1.weight f4 [128, 128]
000000 0d 6e f2 bc ba be 4a 3d d1 76 d4 bb b4 90 86 bd
       -0.029593492 0.049498297 -0.0064838906 -0.06570569
000010 b0 b4 3b bd 80 95 7c bd 74 4a b2 bd a1 02 a3 bb
       -0.045826614 -0.06166601 -0.08705607 -0.0049746786
000020 ea b5 8d bc 97 ce 9e bd ed 89 6d 3d af 66 82 3d
       -0.017298657 -0.07754248 0.057992864 0.063672416
000030 a9 90 30 3c 10 50 e3 3c 3d ed 2f b9 b0 e9 0b bd
       0.010776677 0.027748138 -0.00016777679 -0.03415841
000040 83 b1 85 bc 33 69 73 bd 4e ab 1f 3b 8d 2f 8f 3d
       -0.016319996 -0.059426498 0.002436358 0.069914915
000050 10 1f 18 3c c4 fe 44 bd b1 5e a1 bd 15 16 5e 3d
       0.00928475 -0.048094526 -0.07879389 0.054220278
000060 71 4f 8b bc ac ea fb 3c b4 12 b2 bc 1e 42 8d 3d
       -0.017005654 0.030751549 -0.021737434 0.068973765
000070 3a 51 21 3d f2 b8 5d 3d 0c 59 0d 3d 0a 45 04 3d
       0.039384104 0.054131456 0.03450875 0.032292403
000080 08 cf 41 bc f0 2a 99 bd ae 61 9e 3b 40 d6 09 3d
       -0.011829145 -0.07478893 0.0048334217 0.03365159
000090 cb 40 96 3d c6 f8 13 3d b7 ff 67 3d 23 a1 49 3c
       0.07336577 0.03612592 0.056640353 0.012306484
0000a0 a4 8e b2 3c 48 88 4c 3d 59 5e 6f 3d be 9f 6b 3c
       0.021796532 0.049934655 0.058439586 0.014381347
0000b0 4f bc b3 3d 3f 74 70 bd 64 68 6e 3d 5b e1 b0 bd
       0.087761514 -0.05870461 0.058205023 -0.08636733
0000c0 67 d1 81 3d e2 f5 0b 3d 46 49 b8 3a eb 30 99 3a
       0.063387685 0.03417004 0.0014059923 0.0011687552
0000d0 0c 1d d7 3b 0a c3 8b bd 0f 67 65 bd 52 9a d9 bc
       0.006564742 -0.0682431 -0.056006487 -0.026562843
0000e0 1e e5 f8 bc f3 1d db 3c 81 63 26 3d f6 f7 1c 3d
       -0.03038269 0.02674768 0.040622238 0.03832241
0000f0 40 80 12 3d 70 f9 11 bd c4 76 08 3d 12 36 af 3d
       0.03576684 -0.035638273 0.03331639 0.08555235
000100 61 01 88 3d dd 1a 9c bd c3 4c b2 bd d2 e0 9a bd
       0.06640888 -0.07622311 -0.087060474 -0.07562412
000110 6e eb 24 3d 1d 8b 65 bb 45 bd c5 3b b6 30 76 bd
       0.040263586 -0.0035025545 0.0060345256 -0.060105048
000120 6d b2 cb 3c 70 c8 34 3c 31 59 a9 bd 43 8f 9d bd
       0.024865353 0.011034116 -0.08268965 -0.07693341
000130 29 6e ad bd 06 a4 4c 3d 0d 4c 69 bd 01 ee 65 3b
       -0.08468277 0.049961112 -0.056957293 0.0035084488
000140 b2 42 c2 3c f8 3a 4d 3d de 4a 7c bd 1d dc c0 3c
       0.023713443 0.050105065 -0.061594836 0.023542458
000150 78 ae 93 bd 32 1f 7b bd 45 b1 0f 3a 4b a9 be bc
       -0.07211012 -0.061309047 0.00054814323 -0.023274085
000160 8b 5f 71 bd 0b af a5 3d ce a8 71 3d df 2d b3 bd
       -0.058929008 0.080900274 0.058998875 -0.087489836
000170 8c 1c 0a bd f1 26 2c bd 84 46 7a 3c d7 f7 b8 bd
       -0.03371863 -0.042029325 0.015275601 -0.09031647
000180 99 33 a3 3b 2c d9 b3 bd 64 cc c1 bc ca 3b 1b bd
       0.004980516 -0.087816566 -0.023657031 -0.037898816
000190 64 42 f3 3c 55 c0 42 3d 9b d0 84 bc 70 5b 74 bd
       0.029694743 0.047546703 -0.016212752 -0.059657514
0001a0 28 97 9f bc c0 d9 fe bb e1 bc 91 3d 66 11 87 bd
       -0.019481257 -0.0077774227 0.07116104 -0.06595115
0001b0 1a 2c 40 3d 0e 17 73 bd 3c 28 02 3d 69 76 9b 3d
       0.04691706 -0.05934816 0.03177665 0.07590944
0001c0 af 25 98 3d c0 31 e6 3c dd a5 5f bd 23 27 87 3d
       0.074290626 0.028099895 -0.05460154 0.065992616
0001d0 8f 6f ec bc fb 91 62 3c 42 83 27 3d 94 94 d7 3c
       -0.028861789 0.01382875 0.04089666 0.026315965
0001e0 3e f8 3c 3d 94 03 64 3c e3 26 4f bd 8c 65 94 bd
       0.04613518 0.013916869 -0.050574195 -0.07245931
0001f0 84 24 87 bd fc 88 2e bd 73 c2 28 bd 06 58 65 3d
       -0.06598762 -0.042611107 -0.041201066 0.05599215
000200 3d 85 92 3d 78 d2 22 3e f4 7f e4 3c ff fd 53 bd
       0.071543194 0.159006 0.027893044 -0.0517559
000210 62 a7 ba 3d fd 7c 7d bd 52 44 70 3d 41 9e 2b 3d
       0.09113957 -0.061886776 0.058658905 0.04189897
000220 86 11 65 3d 68 31 d4 bb 2f 20 bf 3d c9 71 a6 3d
       0.055924915 -0.0064756162 0.093323104 0.081271715
000230 dd cd 95 3e 72 6c 4e 3e ed 0f d9 bc 7c ec 7e 3d
       0.29258624 0.20158556 -0.026496852 0.062237248
000240 3e 9b f7 3d a7 26 a2 bd 3e d3 58 3b 05 76 5b 3e
       0.12090157 -0.079175286 0.0033084895 0.2143174
000250 c2 27 a1 bd 44 b5 88 ba 99 71 9e 3d c7 e7 70 3e
       -0.07868911 -0.0010429998 0.07736511 0.23525916
000260 ee 8d bd 3d c5 49 ec 3d 94 ed e7 3d 0a 70 22 bc
       0.092555866 0.11537508 0.11324611 -0.0099144075
000270 f0 a1 98 bd 2e fb 8d bc e4 53 92 bd 78 96 1b be
       -0.07452762 -0.017331686 -0.07144907 -0.15194118
000280 ac 41 7d bd 6f b7 b7 3c 40 37 16 bd 46 61 ed 3c
       -0.061830208 0.022426335 -0.036673784 0.028977048
000290 f0 b6 88 3d b3 4b d0 bd 04 5e 26 be 38 42 21 bc
       0.066755176 -0.101706885 -0.16246802 -0.009842448
0002a0 b4 1a eb 3d a5 06 d2 3c 0d 26 bd 3c 27 f1 fb 3d
       0.114797026 0.025637934 0.023089433 0.123018555
0002b0 e2 e9 ad bd 1a 82 25 bc 42 b2 1a bd 92 e2 18 3d
       -0.08491875 -0.010101819 -0.037767656 0.03732545
0002c0 07 bf 8a 3d c5 18 c4 b9 a0 02 23 3c 00 9c 0f 3e
       0.06774717 -0.00037402488 0.009949356 0.14024353
0002d0 75 d0 a3 bb 23 18 e3 bc af 3c 30 bd 3a e7 2e be
       -0.0049992152 -0.02772147 -0.043026622 -0.17080393
0002e0 59 e2 11 3d 9f c7 c1 3e 0f 2e 92 be b7 48 17 bc
       0.035616253 0.3784761 -0.28550765 -0.009233645
0002f0 40 54 b6 3c 0a 8e 8f 3d 9e f0 a6 bd 11 fa 52 be
       0.02225697 0.07009514 -0.08151363 -0.20603205
000300 02 22 3a be 0b ec ab bd ef 96 b0 ba ad e5 06 bd
       -0.18177035 -0.08394631 -0.0013472716 -0.03293388
000310 c5 4a a4 bc 64 7b a4 3d 68 2b 95 3c a4 f7 de 3c
       -0.020055184 0.080313474 0.018209174 0.027217694
000320 00 b3 6d be 61 99 63 bd 11 41 19 be b5 7c e2 3b
       -0.23212814 -0.055566195 -0.14966227 0.006911839
000330 20 8f 2e 3e 24 4b 54 3d dc ce c8 3d 1a 7b c5 bd
       0.17046785 0.051829472 0.0980508 -0.096426204
000340 92 44 20 be c5 13 11 3e 16 43 09 3e 0f 26 0f 3e
       -0.15651157 0.14167698 0.13404498 0.13979362
000350 9d b0 be 3d f8 01 ee bd 99 7f 4e 3d 7d 1b 3e bd
       0.0931103 -0.11621469 0.050414655 -0.046412934
000360 80 eb e1 bd b6 cd 7c 3c 3e e4 ac 3d 97 ce 40 bd
       -0.11031246 0.015429905 0.08441971 -0.04707202
000370 58 3a 9e 3d 71 8c 26 3d 3d af 8a bd 24 92 df 3d
       0.07725972 0.04066128 -0.06771705 0.10916546
000380 af a0 82 bd 8d 81 14 3e 6e 70 c2 bd e6 77 48 3e
       -0.06378304 0.14502545 -0.094941005 0.19576988
000390 f2 22 2d bd 0d 2b 01 bd 7d 62 d1 bd 16 9a c0 3d
       -0.042269655 -0.031535197 -0.10223863 0.094043896
0003a0 fe fa d4 bd 9f 18 7e 3c 02 08 51 be 67 a7 aa 3d
       -0.103994355 0.0155088 -0.20413211 0.08332711
0003b0 e9 06 ba 3d ae 45 38 bd 38 c0 8c bd 7c cb e5 3c
       0.09083349 -0.044988327 -0.068726 0.02805113
0003c0 3f 1e c5 3d c5 6c a3 3d a8 af 26 3d 3b a5 e2 bc
       0.096249096 0.079797305 0.040694863 -0.027666679
0003d0 6d 1b 2e be 8a 80 06 bb b8 ad f1 bc b5 44 d3 3d
       -0.1700265 -0.0020523393 -0.02950178 0.10315839
0003e0 7b a6 41 3e b8 26 a1 3c 4f 61 ba bd 89 22 8c bd
       0.18911164 0.019671783 -0.091005914 -0.068425246
0003f0 7f d1 12 be c3 b4 a3 3d 61 c8 aa bc ee 80 8b bc
       -0.14337729 0.07993462 -0.020847501 -0.017029252
