project/experiments/SoftActorCritic/Hockey/runs/TE_2_2025-02-22_13-30-16/models/policy_net.pth (torch, 223586 bytes, 12 tensors)

fc1.0.weight f4 [256, 18]
000000 0c 3f 78 3f 2c e8 12 bf 81 1d 30 be 6a 9f 15 3e
       0.969712 -0.57385516 -0.17198755 0.14611593
000010 70 12 5b bc 78 27 01 bd e0 63 7d be d1 47 f7 be
       -0.013371095 -0.03153178 -0.2474513 -0.4829698
000020 61 78 79 bf f2 aa 10 3d c0 ab 77 3e 42 4f 41 be
       -0.9744931 0.035319276 0.24186611 -0.1887789
000030 a1 bf 1c bf f8 90 5e 3e 2c f5 8c be a0 97 31 bd
       -0.612299 0.21734989 -0.275308 -0.04335749
000040 7b f0 0c bf dd 42 dd 3e 4b d7 a7 3e cc 61 a7 3f
       -0.55054444 0.43215075 0.32781443 1.307672
000050 c5 5f 85 be 1b 39 15 3e 0d 6f 08 3e 55 a9 08 bd
       -0.2604963 0.14572565 0.13323613 -0.033364613
000060 b0 80 1e bf d5 b7 94 bf 6d a1 49 3f f3 01 47 bc
       -0.6191511 -1.1618601 0.7876194 -0.012146461
000070 7b 02 b2 be 5d 95 f9 3c 67 c7 85 bd 82 91 33 bf
       -0.34767517 0.03046673 -0.065321736 -0.701439
000080 95 7a 6a 3e 81 ca 21 bd 31 fe f1 be 89 4e 9b bd
       0.22898324 -0.039499763 -0.47264245 -0.07583339
000090 af fc 3d 3f 25 59 ef bc fe f3 04 bf 6b d4 ce bd
       0.7421369 -0.029217312 -0.519348 -0.10099109
0000a0 14 4e 3b 3e 85 6b b2 bd c8 44 49 bd 06 5c 0c 3d
       0.18291503 -0.08711914 -0.04913786 0.034267448
0000b0 3b 43 0f 3f ea f5 c2 bb cb 00 5a be b6 fd 21 bd
       0.5596196 -0.0059497254 -0.21289365 -0.0395486
0000c0 fa 03 4f bf 51 ac 3b 3e 7e f8 f6 be 71 e5 1b 3c
       -0.8086544 0.18327452 -0.4823646 0.009515152
0000d0 cb 3a 05 bf 55 69 55 be af 67 96 3f 6b 27 ac bd
       -0.52042836 -0.20840962 1.1750392 -0.08405956
0000e0 3b 3e ab 3d bc 08 19 bd a7 96 28 be bd 87 16 bc
       0.08361479 -0.037361845 -0.1646372 -0.009187636
0000f0 39 bb 32 bf ae 46 35 3d ea ce ed 3e 83 30 a4 3d
       -0.6981693 0.04425686 0.46446925 0.080170654
000100 55 de 3b 3e 08 cc 9f bd 87 b7 83 3f ae 8a c4 bd
       0.18346532 -0.07802588 1.0290383 -0.095967636
000110 d4 f5 cd 3e 21 3b 23 3b 82 91 7c bf 0d cc 96 bd
       0.40226614 0.002490707 -0.9865953 -0.07363138
000120 cc d9 b3 be b7 50 0d 3d 46 22 8e bd 65 44 20 3d
       -0.35127103 0.034500804 -0.06940131 0.039127726
000130 b2 99 95 3b ff d6 03 bc 5a f4 fa bd 0b 74 0c 3f
       0.004565441 -0.0080468645 -0.122536376 0.5486457
000140 35 a5 89 3d ac 6d f2 bb ef 49 07 3f 80 02 93 3d
       0.06720964 -0.007398328 0.5284719 0.07178211
000150 33 44 9b bf c3 d2 cb 3e e7 ce 00 3e 82 67 f5 bd
       -1.2130188 0.39809236 0.12578927 -0.11982633
000160 2f 66 c3 be 5e 98 54 3e 61 31 9a 3e 94 8a f0 be
       -0.38163897 0.20761248 0.30115798 -0.46980727
000170 a4 0f 8a bf 93 10 98 bd 94 2f 19 3d dc b6 7d bd
       -1.0786023 -0.07425036 0.03739889 -0.061941966
000180 f4 9d b5 3d 15 bf 03 be 4a dc 8c bf ca 80 01 bd
       0.08868018 -0.12865861 -1.1004727 -0.031616963
000190 c2 f7 26 bf df a7 00 3d f5 b1 79 be c8 56 32 bf
       -0.652218 0.031410094 -0.24384291 -0.6966367
0001a0 1b 4e b5 3d 81 16 c2 bd 32 60 27 bf 43 5a 4c bc
       0.08852788 -0.094769485 -0.6538116 -0.012472692
0001b0 58 7d 1f 3f ac 7c 96 be 24 4a 5f bf 25 d3 e4 3d
       0.62300634 -0.29391992 -0.87222505 0.11173085
0001c0 ce 7e 9d be 3b cf fb bd 33 a8 18 bf 7d 92 b8 be
       -0.30760807 -0.122953855 -0.5963165 -0.36049262
0001d0 f6 bf 92 bc 90 87 bf 3d 10 6d 03 3e 35 e9 e7 bc
       -0.0179138 0.09352028 0.12834573 -0.028309444
0001e0 57 9d 4e bd 2b 79 b6 bd 75 b5 76 bd ee 48 20 be
       -0.05044302 -0.0890983 -0.060231645 -0.1565282
0001f0 d5 65 b5 bb 4b 71 74 be 6d c1 0e 3e a4 9c 6c 3f
       -0.005535821 -0.23871343 0.13940974 0.92426515
000200 03 27 c8 be be 10 9e 3d 86 1b 25 3e 09 8d 25 bd
       -0.39092264 0.07718037 0.1612378 -0.040417705
000210 d9 23 49 3d 0f 03 8b bf 31 24 d1 3e f9 73 51 3b
       0.049106453 -1.0860308 0.40847924 0.0031959994
000220 9b b8 93 3d 8b 17 9e bd 24 30 2d be 10 24 90 bf
       0.07212945 -0.07719334 -0.16912895 -1.1261005
000230 c6 9f d7 3d 3c 2a ff bc 11 08 82 3e 2b 4e f1 3d
       0.10528521 -0.031148069 0.2539678 0.117824875
000240 7d 09 96 3d 40 01 d8 be 10 be 8c bf 4b 80 8b bd
       0.073260285 -0.42188454 -1.0995502 -0.06811579
000250 ac 22 00 be 6d e0 b9 3d 15 f3 b9 be 20 e7 d8 be
       -0.12513226 0.09076009 -0.3631827 -0.42363834
000260 93 72 e5 bd 35 7d 8e bd d9 45 1b bf 26 f9 b4 bd
       -0.11203494 -0.06957475 -0.60653454 -0.08836584
000270 8d 13 e6 3e d8 ef 5e be 47 d5 eb bd 2a ca 6e be
       0.4493679 -0.2177118 -0.11515289 -0.23319307
000280 2f d0 3f bc 1a b8 26 be 4f 58 94 3e 20 b1 96 3f
       -0.01170735 -0.16281167 0.28973624 1.1772804
000290 15 5c af 3e 27 a8 c6 bd 98 62 64 3e 84 c0 c2 3d
       0.3424994 -0.09700041 0.22303236 0.09509376
0002a0 e7 75 3e bd 97 cf 4d bf 0b d6 b3 bf 09 cc 03 be
       -0.04649916 -0.8039488 -1.4049696 -0.12870802
0002b0 e7 6a 4c 3e da 42 27 bd f9 9a 14 bf 96 0d 8e be
       0.19962655 -0.04083524 -0.5804897 -0.2774474
0002c0 e6 81 50 3d c0 9b 44 3e 1d 70 7d bf f6 60 8b 3d
       0.05090513 0.19200039 -0.98999196 0.06805603
0002d0 89 35 10 3f b5 78 37 3e 18 43 26 3f ca 9b 32 be
       0.5633169 0.1791714 0.64946127 -0.17442241
0002e0 53 ad 83 3d 32 94 fe bd bc 00 79 be 46 09 b1 3e
       0.06429543 -0.1243061 -0.24316686 0.34577388
0002f0 36 e2 6f 3f 7c d2 3a be ef 6a 26 bc e4 f8 c4 3d
       0.93704545 -0.18244356 -0.010157331 0.096177846
000300 d1 f2 09 3f 07 75 26 be 62 9a 85 3d 45 e6 3b be
       0.53886133 -0.1625558 0.06523587 -0.1834956
000310 c2 f3 26 3e 23 e1 da be 85 12 88 bf 70 3d 32 3f
       0.16303924 -0.4274989 -1.0630652 0.69624996
000320 2e 88 90 be 69 63 19 3e 54 c8 07 3c 97 7c 52 bc
       -0.28228897 0.14979328 0.008287508 -0.012847087
000330 ea e4 96 be c4 7a 23 bf 09 d0 49 3e 7f b4 5e bc
       -0.29471523 -0.638592 0.19708265 -0.013592838
000340 c3 06 01 be 38 b3 c4 ba 23 95 10 3f 95 fb 0f bf
       -0.12600236 -0.0015007025 0.56477565 -0.5624326
000350 5b 98 3e bd 1d 2e 4d 3d f7 ef a5 3a c9 ef ca bd
       -0.046532016 0.050092805 0.0012660016 -0.09909017
000360 a4 8d 2e bf a1 43 e4 3e d9 15 42 bf 95 f5 ce bd
       -0.68184876 0.44582847 -0.75814587 -0.10105435
000370 25 c6 dd 3c ef 46 ef ba 59 51 75 be aa 0d 91 3f
       0.027072022 -0.0018255393 -0.23956813 1.1332295
000380 b9 31 73 3e fc 59 18 be 83 5a 53 3e 90 55 09 bd
       0.23749436 -0.14878076 0.20639996 -0.033528864
000390 52 f2 ec 3c 85 59 1e 3f cb 0f 1a bb 54 04 0a 3d
       0.028924141 0.61855346 -0.0023507948 0.033695534
0003a0 af 29 a1 3e 12 ab c3 3d 2a f9 1c bf cb c6 ac 3f
       0.31477115 0.095541134 -0.61317694 1.3498167
0003b0 5e ec a7 3d 1a 04 b1 bc 2b f3 1d 3e 4d bb 00 3c
       0.0819938 -0.021608401 0.15424792 0.007857156
0003c0 89 cc cb bd 9e 5f ac be f8 b7 92 3d 32 dd 18 be
       -0.09951121 -0.336667 0.071639955 -0.1492813
0003d0 11 e2 7f be 37 6f b9 bd 57 b3 a7 be 47 7f d8 3c
       -0.24988581 -0.09054416 -0.32754013 0.026427878
0003e0 be e3 2e 3b 2a a5 c2 bd 8f 2e 13 bf 80 7c 01 bf
       0.0026686038 -0.09504159 -0.5749292 -0.50580597
0003f0 fb d4 9a 3e 22 53 a0 3e 36 d1 58 be 6d 63 28 3b
       0.30240616 0.31313425 -0.21173558 0.0025694028

fc1.0.bias f4 [256]
000000 fa 07 c5 3d f8 bf 05 3e 7e 0f 41 be ed 54 4d bf
       0.09620662 0.13061512 -0.18853566 -0.8020771
000010 8b 91 25 be 15 85 43 3e a9 3f a7 be 64 70 d9 be
       -0.16168801 0.19093736 -0.32665756 -0.4246856
000020 4d 2f d7 bd a3 c9 38 be 26 84 6b bf a4 7e 69 be
       -0.10507069 -0.18045668 -0.9199852 -0.22802216
000030 de ed 99 bf 2b 41 14 bd f4 a0 57 bf 82 3c ca 3e
       -1.2025716 -0.03619496 -0.8422997 0.3949929
000040 fe e0 fb 3e 78 cc 33 3e 85 f0 75 bf 86 65 bf be
       0.49195093 0.17558467 -0.9607013 -0.37382144
000050 27 0f 0c 3f c2 45 1e bf 89 d1 bb bc 6d 07 b6 be
       0.5471062 -0.6182519 -0.022927063 -0.3555254
000060 71 31 fb be 4e 34 38 be 16 4b 51 bf 59 bd a2 3e
       -0.49061158 -0.17988703 -0.817552 0.31785086
000070 17 a4 e1 bd f4 c3 8c bf 8c 08 02 be 1b 12 e7 3e
       -0.11017626 -1.09973 -0.12698573 0.45131
000080 d9 57 f8 3d fd 16 e4 be 27 84 ce 3d d1 07 42 be
       0.121261306 -0.4454879 0.100838 -0.18948294
000090 50 52 62 3f 8c 3e 4a be de 27 b3 be 07 9b dc 3e
       0.8840685 -0.19750422 -0.34991354 0.43087026
0000a0 87 d7 1e bf 85 b5 b7 be 0a 82 2c 3f be 05 44 3f
       -0.6204762 -0.35880676 0.67385924 0.7657126
0000b0 3c f9 9f bd 3b 36 10 be 68 d0 b7 be b8 88 6f 3e
       -0.078112096 -0.14083187 -0.3590119 0.23391998
0000c0 97 4f 0f bf 3b 1a a8 3c 1b 77 cd be 10 79 62 bf
       -0.5598082 0.02052032 -0.40129933 -0.88465977
0000d0 00 10 15 bf 4e 03 89 bf 3c 66 c1 3e ba bf 9a be
       -0.5822754 -1.0704134 0.3777331 -0.302244
0000e0 f5 12 0d bf a2 d3 0f bf 02 c7 4c bf 58 0f 17 bd
       -0.5510705 -0.561823 -0.7999116 -0.036879867
0000f0 c3 7e 04 bf 36 5e 14 bf 04 b0 f7 be 09 89 20 bf
       -0.51755923 -0.57956254 -0.48376477 -0.627091
000100 d3 da 26 bf 0a b0 19 bf 7b 95 46 bf b3 be 64 bf
       -0.6517765 -0.6003424 -0.7757184 -0.89353484
000110 37 50 ed be df 15 6c bf 6a d5 df bd 98 51 34 bf
       -0.46350262 -0.9222087 -0.109293774 -0.70437
000120 a0 e3 ee be ea 78 79 bf 8f 3e 9a bf 21 95 85 3e
       -0.4665804 -0.97450125 -1.2050341 0.2609034
000130 4b 0f 11 3e 37 0a 8a be c5 c8 9b be 73 84 c3 3e
       0.1416599 -0.26960918 -0.30426612 0.38186988
000140 7e cf ea be 95 fb af be 33 c6 cb be 62 46 23 3f
       -0.4586143 -0.3437163 -0.39799652 0.6377927
000150 f0 5a b5 3f d1 d3 c7 be 1e 7d 33 bf 38 cf 85 be
       1.4168377 -0.3902879 -0.7011279 -0.26134658
000160 23 70 73 bf 2d d3 f4 be 3c 42 8f bd 02 fd bd be
       -0.9509298 -0.47817364 -0.06995055 -0.37107092
000170 49 ac e4 bd 42 14 12 bf df b6 12 3f aa 42 e4 be
       -0.11165673 -0.5706216 0.5731029 -0.4458211
000180 f1 31 4b bf 33 f1 0f 3f 32 e5 87 3f 27 55 b9 be
       -0.7937308 0.56227416 1.061682 -0.3619778
000190 36 0a 45 bf fb 9c 24 bf 2b 48 27 3c 73 bc 23 bf
       -0.76968706 -0.64302033 0.010210077 -0.63959426
0001a0 c7 09 71 3e 20 75 a4 bd f5 bf 36 bf 8c b1 88 3e
       0.23538886 -0.08030152 -0.71386653 0.26697958
0001b0 85 ea 32 bf a1 84 aa be 82 bc 12 bf b3 3b cf 3d
       -0.698891 -0.33304313 -0.5731889 0.101188086
0001c0 1f 15 a9 bf e1 58 0e bf 47 d7 dd be de 9e 8f 3e
       -1.3209571 -0.5560437 -0.43328306 0.28050894
0001d0 e3 f0 5b 3f 0d c2 b2 be 7d 15 48 bf a8 87 d8 be
       0.8591444 -0.34913674 -0.7815779 -0.42290998
0001e0 2e be 3d be e6 89 dc 3d aa fe fd bd a9 38 48 bf
       -0.18529579 0.107684895 -0.12402089 -0.78211457
0001f0 76 6e db be e7 fe 51 be 12 7b 82 3e 44 dd 27 bf
       -0.42857713 -0.20507394 0.2548452 -0.65572
000200 18 80 4d bd b6 a4 4c 3e b6 3c 60 bc 95 17 c4 be
       -0.050170988 0.19984707 -0.01368635 -0.38299242
000210 83 db f9 be 93 32 c3 3f 57 85 b1 be 73 4a 0d bf
       -0.48800287 1.5249809 -0.34672043 -0.55191725
000220 de fe 25 be ef ca b7 bf 58 2a cb 3e 13 66 8e be
       -0.16210505 -1.4358805 0.39680743 -0.2781225
000230 6d e7 b0 bd 20 09 24 be 86 58 ab be 5c 0f 2a 3f
       -0.08637891 -0.16019106 -0.33465976 0.66429687
000240 25 83 8e be ac db f8 bd d5 0f 07 bf 28 24 9e bb
       -0.2783443 -0.12151274 -0.5275853 -0.0048260875
000250 34 28 cc be 30 33 0c 3d b0 08 3c bf a6 98 db be
       -0.39874423 0.034228504 -0.73450756 -0.428899
000260 4a 57 7a be 74 2b 75 bf 86 30 00 bf dc d1 58 bb
       -0.2444736 -0.9576943 -0.5007404 -0.003308407
000270 cc 5f 65 bf b8 0e 39 bf 4d c3 5a 3e 47 84 c5 3e
       -0.895993 -0.72288084 0.21363564 0.38577482
000280 f4 47 20 bf 43 92 5d be 72 3b 83 be 0e 00 38 bf
       -0.6260979 -0.21637826 -0.2563129 -0.71875083
000290 7d e2 a3 be 0e 78 37 3e e0 03 b6 be af 78 8b bd
       -0.32008734 0.17916891 -0.3554983 -0.06810128
0002a0 de d8 cf be 81 4d 07 bf 0c e4 90 3e f1 b1 d0 be
       -0.40595144 -0.52852637 0.28298986 -0.4076076
0002b0 43 18 fd be 4a c7 be be da da bc bf 32 83 7a bf
       -0.49432573 -0.3726142 -1.4754288 -0.9785644
0002c0 34 f8 8e bf 4a 59 b0 be c9 eb 21 bf fb 96 83 be
       -1.1169496 -0.34443122 -0.63250405 -0.25701126
0002d0 46 63 40 bf 9b 10 2d 3f 7c 98 12 bf ba f7 2f 3f
       -0.7515148 0.6760346 -0.5726392 0.68737376
0002e0 c4 6f 00 3f 63 9d 80 3e 97 c1 ad bd e2 2d ae bc
       0.5017054 0.25120077 -0.0848419 -0.021262113
0002f0 dc 6e 43 be 3d 1a 2d bf ea 43 6c 3f 9b 26 94 be
       -0.19085258 -0.6761816 0.9229113 -0.28935704
000300 bd f6 28 3e be 1b 40 bf 52 7d 79 be f0 24 78 3f
       0.16500373 -0.7504233 -0.24364212 0.9693136
000310 cc 9e c4 bf 58 c0 bf 3e ba 4c 7d 3d a6 7b 67 3e
       -1.5360961 0.37451434 0.06184075 0.22605762
000320 57 75 3f be 4c 5d b4 3e 20 a0 97 bd 8e cc 9b be
       -0.18697105 0.3522743 -0.07403588 -0.304295
000330 76 75 d4 be 54 e7 aa be 57 a2 23 3f 9f 85 ac be
       -0.41495866 -0.33379614 0.63919586 -0.33695695
000340 e3 b4 d4 3e 5e e5 98 bf ed c2 c9 be e1 28 d7 be
       0.41544256 -1.1944997 -0.3940653 -0.42023376
000350 18 86 d0 be 10 46 cf be 19 da 04 bf 64 62 14 be
       -0.40727305 -0.4048314 -0.5189529 -0.14490658
000360 55 e9 e0 bd 8c 80 2c 3d d8 fc 4f bd e2 79 78 bf
       -0.109820046 0.04211478 -0.05077824 -0.9706098
000370 3d fc 34 bf 0e e2 61 3c cc a3 44 be c9 07 07 3e
       -0.70697385 0.013786806 -0.19203109 0.13186564
000380 48 a6 09 be 92 aa f7 be 69 94 83 3e 27 19 96 be
       -0.13442338 -0.48372322 0.25699165 -0.29316065
000390 f4 b1 f7 be fb f6 0c 3e 9b 75 c6 be e9 a0 78 bf
       -0.48377955 0.1376609 -0.387616 -0.9712053
0003a0 ae 35 38 bf b7 c9 62 3e 8d 8a a0 3c 26 b1 4b 3e
       -0.7195691 0.2214726 0.019597316 0.19891796
0003b0 29 bb 0a bf 17 1c 94 be 05 3f dc 3d 80 0f 73 bf
       -0.54191834 -0.2892768 0.107542075 -0.94945526
0003c0 73 24 31 bd c3 7d d7 bd 1a 54 73 bf 09 01 15 bf
       -0.04324765 -0.10522034 -0.95050204 -0.58204705
0003d0 e3 a8 35 3f e5 30 2e bf df 90 8b 3f 9a 4b a5 be
       0.70960826 -0.6804336 1.0903586 -0.32284242
0003e0 64 ec 59 bd 89 a9 9c 3e 17 8d da be 45 ad 8f be
       -0.053203955 0.30598095 -0.42685768 -0.28061882
0003f0 4e 4a b2 be 64 22 c6 be 2c 40 9f be 88 75 7f bf
       -0.34822315 -0.38698113 -0.31103647 -0.99788713

fc1.2.weight f4 [128, 256]
000000 d7 04 9b be 0e 03 83 bd ed 7a ba bd c7 f1 54 bf
       -0.3027713 -0.06397067 -0.091054775 -0.8318142
000010 c9 94 8d be 69 09 9c 3e 5b 11 ce 3d 64 db 9d 3e
       -0.27652577 0.3047593 0.10061904 0.30831444
000020 ed e5 4c 3e da 82 0f bf ed 91 f6 bc 78 c8 0f 3e
       0.20009585 -0.5605904 -0.03009888 0.14041317
000030 b0 6d d2 bd 5a 6a 11 bf e6 1b ea be 9f de ce be
       -0.102748275 -0.56802905 -0.4572441 -0.4040422
000040 d3 93 7e 3e 95 25 85 3e 16 83 8c 3e cf 9b 38 bd
       0.24861078 0.26005235 0.2744376 -0.045070466
000050 b8 85 f0 3c cd 23 86 be a8 ea fc 3e 94 b4 e2 be
       0.029360637 -0.2619919 0.4939778 -0.44278395
000060 04 5d 87 bd 34 25 c0 3d d2 bd 1d 3e da 0a 6a 3e
       -0.06609538 0.09382096 0.15404442 0.22855702
000070 43 0c 40 3e 83 da bf bd e6 e7 5e 3e f3 c2 db be
       0.18754677 -0.0936785 0.2176815 -0.42922172
000080 60 15 92 be f9 4a 22 bf 7e a0 62 3e 16 c0 f9 3e
       -0.28531933 -0.6339565 0.22131535 0.48779362
000090 54 41 f9 3e 97 68 d7 3e 52 02 55 be e8 55 86 3e
       0.48682654 0.42071983 -0.20801666 0.26237416
0000a0 1e 2e ae bd 1c 3b 1b bf db ba 38 be 9a 5e 04 3f
       -0.0850489 -0.6063707 -0.1804003 0.5170685
0000b0 5e 34 94 3e e5 ec 38 3e df 7d af be d0 09 1f 3e
       0.28946203 0.18059118 -0.3427572 0.15531087
0000c0 4d 6b 56 be 93 47 98 bd fe 31 e6 be bb c6 03 bf
       -0.2093937 -0.07435527 -0.44960016 -0.51475114
0000d0 5d 2c cd 3d 1b 3c 53 bf 54 d9 49 bf d8 03 20 bf
       0.10018227 -0.8251359 -0.7884724 -0.62505865
0000e0 f6 05 64 bf 34 7b 14 be 5d 7a 31 3e 99 5c 91 be
       -0.89071596 -0.14500123 0.17331834 -0.2839096
0000f0 79 12 db be db cf aa 3c 94 f4 9f 3e 53 99 db 3b
       -0.4278753 0.020851066 0.31241286 0.0067016273
000100 c3 f1 26 3f 02 08 7c bf 8a 49 aa be 1e 99 7e 3e
       0.6521265 -0.9844972 -0.3325923 0.24863097
000110 66 78 90 be 1e 95 a7 3e 9b 74 40 3e 70 ac 79 3c
       -0.28216857 0.32730955 0.18794481 0.015238866
000120 91 36 29 bf d5 37 06 be 86 4e 9c be 2c 63 03 3e
       -0.66098887 -0.13107236 -0.3052866 0.128308
000130 bd 0c 3b 3d d1 fa ad be d5 88 89 be a6 1b a7 bd
       0.045666445 -0.3398042 -0.26862207 -0.081595704
000140 bf da d1 be 1b 24 3d 3e 98 b7 e8 be 0c 58 96 3d
       -0.40987203 0.18470804 -0.4545257 0.07341012
000150 b5 05 cc bd 71 e7 33 bd bc dc 90 3c 09 35 a0 be
       -0.09962026 -0.04392189 0.01768338 -0.31290463
000160 d7 de bc bd e4 f6 cf 3b 53 58 ab 3e 92 c3 74 3e
       -0.09222191 0.0063465703 0.33465824 0.23902729
000170 36 0a 2a 3c d6 0e 9a 3d c8 cd 71 3d ab 1d 17 3e
       0.010378411 0.07522361 0.05903414 0.14757411
000180 d6 0f ec be 1a b2 38 3e f8 d2 ae bc 69 71 d9 be
       -0.46105832 0.1803669 -0.021340832 -0.42469338
000190 dc 59 62 3e d9 05 fc bd 13 f6 26 bf 7a 93 10 bf
       0.22104591 -0.12305803 -0.6521923 -0.5647503
0001a0 07 9b 12 3f 97 18 3d bd f9 37 75 be 84 8c 61 be
       0.572678 -0.04616603 -0.23947133 -0.22026259
0001b0 8b c9 87 3f 84 83 0a bf 8a cf 86 bd 0c a1 e3 be
       1.0608381 -0.54106927 -0.06582554 -0.44458807
0001c0 5c de f7 bd 57 75 45 3e 1a 4b 79 be 5c 96 a5 be
       -0.121029586 0.19283043 -0.24345055 -0.32341278
0001d0 5e 7e 25 bc 45 fc 3a bd 5b 57 8d 3e e9 02 10 bf
       -0.010100929 -0.04565074 0.2760571 -0.5625444
0001e0 2c ab bf bd 9b ed 22 be 96 c7 47 3d 0e e4 b7 3e
       -0.0935882 -0.15910952 0.048774324 0.3591618
0001f0 10 48 08 be c0 83 98 3d 28 e0 29 bf b8 7e cc be
       -0.1330874 0.07447004 -0.6635766 -0.3994043
000200 be 07 6e 3e fe cf d6 3d d7 75 2d 3f 68 dd 94 bd
       0.23245141 0.1048889 0.67757934 -0.072687924
000210 c2 b5 87 3b a5 42 a3 3e f1 05 89 bd 7f 23 d0 bd
       0.0041415403 0.31886783 -0.06690586 -0.1016302
000220 12 5e 00 3f 36 8a 4f bd 28 27 41 3f 5a 7b 45 3e
       0.5014354 -0.050668918 0.7545037 0.19285336
000230 7a 5c 0e bf e1 ea d4 bd 87 0b 30 3e e8 48 2a be
       -0.5560986 -0.10396362 0.17191897 -0.16629374
000240 5b 2e 4b bf b3 03 38 bb e0 a0 00 3e 17 b5 80 3d
       -0.7936761 -0.0028078377 0.12561369 0.0628454
000250 c1 61 06 be 73 2d 7e bd f9 fd 12 bd 02 92 be 3c
       -0.13123228 -0.062055063 -0.03588674 0.023262981
000260 6c 31 e1 3e 0a 6f 36 bf 2b 17 b3 bd 91 e2 51 3e
       0.43983018 -0.7126318 -0.08744653 0.20496584
000270 ce 53 ac be 90 2a 40 be 1a 84 e6 be 61 04 1e bf
       -0.33657688 -0.18766236 -0.4502266 -0.6172543
000280 6d 61 03 bf 4f a9 7e 3d f9 65 2b 3d a5 e1 55 be
       -0.51320535 0.062173184 0.041845296 -0.20886858
000290 c4 6f 15 3f 02 ba 7f be a8 b1 7a 3e 44 60 e6 be
       0.58373666 -0.249733 0.24481833 -0.4499532
0002a0 8a d9 62 3e 58 c6 b1 3d e8 5b 2d bf a7 33 44 be
       0.22153297 0.08680409 -0.6771836 -0.19160329
0002b0 12 03 41 3e e6 32 20 bf d9 18 34 bf bc b8 b8 be
       0.18848827 -0.62577665 -0.70350415 -0.3607844
0002c0 54 79 0d 3e c2 e4 b8 be 68 0b 28 3e 26 75 94 bd
       0.13815814 -0.36112028 0.16410601 -0.07248907
0002d0 69 37 a8 be 4a fb aa bd 37 37 86 be 41 1d 1a bf
       -0.32854775 -0.08348711 -0.26214 -0.6020089
0002e0 0d 77 41 3d 49 bf 0b 3c b5 b8 cf 3b bb 26 88 be
       0.047232676 0.008529493 0.0063391575 -0.2659205
0002f0 2e 44 1c bc ee 6d 83 bf 85 4c a2 be 78 44 64 be
       -0.00953774 -1.0267923 -0.31699005 -0.22291744
000300 62 90 38 3e 82 e4 84 3e 8d 08 a9 3d 54 e0 ab be
       0.18023828 0.25955588 0.08253584 -0.33569586
000310 e6 8c 38 bf 6f 1c bf 3d 17 82 95 bf 35 fe 85 ba
       -0.72089994 0.09331595 -1.1680325 -0.0010222854
000320 11 1c 11 bf 72 a8 ad be 9b ad 61 3e c3 0d cd 3e
       -0.5668345 -0.33917576 0.22038881 0.40049562
000330 e2 45 0b bf 86 48 1c bf ab 59 5c 3e df 3f 64 bf
       -0.5440351 -0.6104816 0.2151858 -0.8915996
000340 70 44 f9 be 8c c8 a0 3e 07 35 03 bf 2f 7f 09 3e
       -0.48685026 0.31403005 -0.5125279 0.13427423
000350 c2 b3 ae be 62 e0 7d 3e e3 84 e4 bd a9 ea a7 be
       -0.3412152 0.24792627 -0.11158159 -0.3279622
000360 da eb 7f bf 5f 3b 00 bb ac d6 27 be 92 ab fe 3c
       -0.99969256 -0.0019566638 -0.16390485 0.03108767
000370 f0 9c 5d bd 21 cb 13 3e fe 1a 95 bd e8 43 1e 3f
       -0.054104745 0.14432956 -0.07280539 0.61822367
000380 ee 64 6d be 94 e5 33 3e 09 21 34 3e a9 6e 3d 3e
       -0.23183033 0.17568046 0.17590727 0.18499245
000390 58 f4 33 3d 73 da 63 3e 8f 0d 6f 3e 71 8e 0c be
       0.043934196 0.222513 0.23345016 -0.13726212
0003a0 66 83 37 bf 08 cc 1d bf 66 52 a2 3e c5 ce cb be
       -0.71684873 -0.6163945 0.3170349 -0.3980619
0003b0 8b 97 d6 be 10 bc b2 bd cd 11 76 3e 14 21 58 bf
       -0.41912493 -0.08727276 0.24030228 -0.84425473
0003c0 83 28 92 bd 6f fe 21 be 43 42 72 be 35 42 1a 3f
       -0.07136633 -0.15819715 -0.2365809 0.60257274
0003d0 85 d9 43 be 33 01 2b bf ed 49 12 3f 41 95 97 3c
       -0.19125946 -0.66798705 0.5714405 0.018503787
0003e0 36 b2 02 bf 97 3a de be 3a 85 20 be ee 41 63 3e
       -0.5105318 -0.43404076 -0.15675822 0.22193119
0003f0 db af 1d be 07 a9 29 be 20 3f a3 3b 38 e5 84 bf
       -0.15399115 -0.16568385 0.0049818903 -1.0382452

fc1.2.bias f4 [128]
000000 e3 69 ed 3c b0 d1 1b 3f ff 8f 1f be b8 c1 13 bd
       0.028981155 0.6086683 -0.15582274 -0.036073416
000010 b8 50 ea 3d 84 1c 2f bf f7 0c cb 3e 32 98 d5 3e
       0.11441177 -0.68402886 0.3965833 0.41717678
000020 bd 6b 06 3e b7 64 14 bc 88 82 e6 be 0f ef a0 3e
       0.13127036 -0.009057215 -0.45021462 0.31432387
000030 1f 2b 22 bf b6 cf ff be ed 50 86 3e d9 8e 9f be
       -0.6334705 -0.49963158 0.26233616 -0.31163672
000040 50 8a 19 3f ad 65 b4 3e 1e 52 ae bc e7 31 5a 3f
       0.59976673 0.35233822 -0.02127939 0.85232395
000050 be d4 f5 3e 78 0e 9f 3e 30 79 04 3e 70 30 60 bd
       0.48013872 0.31065726 0.12936854 -0.054733694
000060 31 42 94 3c 43 59 38 3b 0b 14 37 3e 2c 8a 01 3e
       0.018097969 0.0028129376 0.1787874 0.12650365
000070 65 fb c4 bd 41 c3 41 3f d4 f3 09 3d 14 a1 8e be
       -0.09618262 0.7568856 0.0336798 -0.27857268
000080 8c 73 93 3e e1 e1 86 3e fa cd c9 3e 32 4f db 3d
       0.28799093 0.26344207 0.3941496 0.10708465
000090 c6 80 a2 bd 55 8a 0b be 1d 66 22 be 68 57 2f 3e
       -0.07934718 -0.13626988 -0.15859266 0.17123187
0000a0 f3 b7 72 bd 4a 15 32 3c 85 20 6b be b9 fe 16 be
       -0.05925746 0.0108693335 -0.22961624 -0.14745606
0000b0 30 d1 bc 3d 3d 55 9d 3d 98 b4 fb bd 1c 4b ae 3e
       0.09219587 0.076822735 -0.12290305 0.3404168
0000c0 56 b8 e4 3e b6 ab 62 bd 78 ff b4 3d c3 c9 1e be
       0.44671887 -0.055339538 0.08837789 -0.15506653
0000d0 00 f9 f1 3d 37 ec 30 bf 1a 18 81 3e 12 ed 7f 3e
       0.11815071 -0.69110435 0.252137 0.24992779
0000e0 c5 d0 8f be d0 c6 96 3e 71 06 17 3e bc 39 3f be
       -0.28088966 0.29448557 0.14748551 -0.18674368
0000f0 58 0c d2 3e 4c 2a ef 3c ba fd c1 3e 4b eb 7b 3f
       0.41025043 0.029194973 0.3788889 0.98405904
000100 93 bb 5e 3e 40 7e 12 3e 4b 93 92 3f e7 dd db be
       0.21751241 0.14305973 1.14512 -0.42942736
000110 2d 14 89 3e 1c c0 6a 3a 99 65 fe 3d bf e5 20 3f
       0.26773205 0.0008955018 0.12421722 0.62850565
000120 77 21 32 bf 04 45 33 be 9a 31 98 3e ac fb ab be
       -0.69582313 -0.17506796 0.29725343 -0.33590448
000130 7b 42 e2 bc 69 d5 f0 3e c5 dc 40 bd ae f0 3c be
       -0.027619591 0.4703782 -0.047085542 -0.18451187
000140 4b 3d f6 3d fb 15 af 3d ee 08 f7 be 8a 57 a4 bd
       0.120234095 0.08549114 -0.48249 -0.08024509
000150 13 2a 97 bd f9 66 08 3c 8f 4b df 3d 49 d8 63 3e
       -0.07381072 0.008325332 0.109030835 0.22250475
000160 d7 55 b0 bd 4d 7b dd bd a5 28 86 3e 76 18 3d be
       -0.08610123 -0.108145334 0.26202884 -0.18466362
000170 56 ae ac 3e ce 77 61 be 9a 8e 01 3e 6a 46 9b 3e
       0.33726758 -0.22018358 0.12652054 0.3032716
000180 1c 03 b5 3d a9 d8 88 3e c4 d5 63 be 9c 9e ea 3e
       0.08838484 0.267278 -0.22249514 0.45824134
000190 9d 30 ed 3e 4d 2a c5 3e 0f 34 f4 bc 52 9f b5 be
       0.46326151 0.38508835 -0.02980998 -0.35473114
0001a0 75 57 e1 bd 1d 93 71 3f b4 8f 86 3e 29 05 60 3e
       -0.11003009 0.943651 0.26281512 0.21876968
0001b0 65 9c de 3d ad 3c 0e be cd 7a 82 3e 67 c3 5c 3d
       0.10869674 -0.13890333 0.25484315 0.053897288
0001c0 79 2e 50 bc ae 89 29 3f a7 7c cb 3e 96 98 39 3e
       -0.012706392 0.6622571 0.3974354 0.18124613
0001d0 68 a4 2a 3e 96 ea f1 bd c7 8f 32 be 71 0e 0f 3f
       0.16664279 -0.11812322 -0.17437659 0.5588141
0001e0 6d a4 ea 3e 43 40 6e 3e 75 f6 ba be 83 d0 8d bd
       0.45828572 0.23266701 -0.36516157 -0.06924536
0001f0 4e 32 00 3e 69 5b d4 be 1c bf ae bd b3 a1 ad 3d
       0.1251919 -0.4147599 -0.08532545 0.08478107

fc_mu.0.weight f4 [64, 128]
000000 7a 39 af 3d 4e 82 6b 3e b3 7e ad 3e 24 0e a8 3e
       0.08555885 0.22998926 0.33885726 0.32823288
000010 ae 36 b1 39 6c 3c ad be 67 b7 1b 3f ba c9 a5 3e
       0.0003380081 -0.3383516 0.60826725 0.32380468
000020 a6 fe b1 3d 9f 20 e9 bd 6a 0a bb be cb 1c 79 be
       0.086911485 -0.11383175 -0.36531383 -0.2432739
000030 1f 2e 30 3e 8e 73 3d bf 18 d7 13 be f1 88 09 bf
       0.17205094 -0.7400445 -0.1443752 -0.5372458
000040 19 6f c5 be 66 f7 a3 bf 99 52 1e bf c8 78 f2 bc
       -0.38561323 -1.2809875 -0.61844784 -0.029598609
000050 46 ac 32 bf 51 b6 13 bf 82 f5 c3 be 40 57 54 be
       -0.6979412 -0.5770007 -0.38273245 -0.20736408
000060 30 b2 aa be 3f 51 dd 3e a8 87 8f 3d c2 a2 5a be
       -0.3333907 0.43226048 0.07008296 -0.2135115
000070 ec ff e0 3b 3e 2f ed be 65 c1 c2 be 19 1d df be
       0.0068664458 -0.46325105 -0.38038173 -0.43576887
000080 54 32 cc 3d 95 64 60 3e c0 af 03 3e 33 fc 4e be
       0.09970537 0.21913369 0.12860012 -0.20213394
000090 87 ca 95 bb 06 48 0b bf a9 29 53 bd 36 9e a6 be
       -0.0045712623 -0.54406774 -0.051553402 -0.3254258
0000a0 b8 c5 87 bd ed ed 82 bd a4 dd 73 bd 08 60 af 3e
       -0.06629509 -0.06393037 -0.059537545 0.34252954
0000b0 4e 58 5d 3e de be af be bb 5f d3 be 2e a6 d9 be
       0.21615717 -0.34325308 -0.41283974 -0.42509598
0000c0 98 a6 5e bc a1 ee 57 3d b4 6d 8f 3e 5e 0d 4b bf
       -0.013589524 0.05271781 0.28013384 -0.7931727
0000d0 e8 8e 21 be 44 07 76 be 6c b0 94 3d 70 ed 4d be
       -0.1577717 -0.24026209 0.07260212 -0.20110106
0000e0 21 1a 9d be 03 48 98 3e de 4b 10 be 0c 37 48 bd
       -0.30683997 0.2974244 -0.14091441 -0.04888062
0000f0 39 2e a4 be 72 8d 8a 3e cc 8f 1f bf 19 01 69 3e
       -0.32066515 0.2706104 -0.6232879 0.22754325
000100 75 50 84 be 08 25 97 be 0a 89 1e bf 4a ae c4 bd
       -0.25842634 -0.2952044 -0.61927855 -0.096035555
000110 47 de 62 3e 1c fe 8e bf 33 f8 12 bf 29 5f fb 3c
       0.22155105 -1.1171298 -0.5740997 0.030685024
000120 e7 36 47 bd 3d 68 97 be 69 95 04 3f 10 d6 a0 3e
       -0.048636343 -0.29571715 0.5179048 0.31413317
000130 88 34 18 be f7 3b 9e be 74 8d dd 3e 81 79 89 bd
       -0.14863789 -0.30905125 0.43271983 -0.06712628
000140 06 f4 37 be 89 86 d7 bd e1 b2 87 be cb 2d 7a 3e
       -0.17964181 -0.105237074 -0.2650366 0.24431531
000150 52 a4 c4 bb b0 7c 0a be 0b 2d 29 3e 12 7e bf be
       -0.006001034 -0.13524127 0.16521089 -0.37400872
000160 8f d7 d4 bd 47 8f c2 be 64 91 8f 3e 04 17 aa be
       -0.10392677 -0.37999937 0.28040612 -0.33220685
000170 97 29 cf be 19 97 7b bd 2b 1d 90 bd ce 64 ea bd
       -0.40461418 -0.061423395 -0.07036813 -0.11445008
000180 e1 95 ae be da 1e c3 be 8e c4 c2 3d 9b fb 87 3e
       -0.34098724 -0.38109475 0.09510146 0.26559147
000190 fb 09 e7 be ad 3f 63 3d 94 c5 0e 3e a6 99 bc be
       -0.45124802 0.055480648 0.13942558 -0.36835974
0001a0 d9 42 d8 3d be da c6 be e3 cb 61 be e0 00 93 3e
       0.10559625 -0.38838762 -0.22050433 0.28711605
0001b0 f2 19 8b be 67 16 a2 be 6e cd 97 3e 4c 9f ca be
       -0.27168232 -0.31657717 0.29648918 -0.3957466
0001c0 db b4 79 3d 05 83 b0 3d 47 d7 0a 3f 47 4e 0c bf
       0.060963493 0.0861874 0.5423474 -0.5480694
0001d0 0d de 07 3d 56 ef 8e be 15 c8 26 bf 40 98 a7 be
       0.03317075 -0.27916974 -0.6514905 -0.32733345
0001e0 a0 77 98 3a 08 72 2b 3e 38 b8 32 bd 3d 8d 4e be
       0.0011632331 0.16742718 -0.043632716 -0.20171066
0001f0 0c f8 0e 3f 5d 7b 13 be 1d 92 c8 be 47 34 c6 bd
       0.5584724 -0.14402528 -0.39173976 -0.0967794
000200 e8 a3 21 3e ff ce fa bd 27 c5 7f 3e 3c 4e 6d bf
       0.15785182 -0.122465126 0.24977551 -0.926975
000210 2a aa 39 3e 91 58 e6 be 4b c4 93 be d5 bd 45 3e
       0.18131319 -0.44989446 -0.28860697 0.19310696
000220 69 8e ff 3c 40 b9 0d be 32 73 7c bc a1 37 e0 be
       0.031195836 -0.13840199 -0.015408324 -0.4379244
000230 95 7a 60 3d e6 e1 89 bf 2b 37 21 be 85 58 2d 3e
       0.054804403 -1.0772064 -0.15743701 0.16928299
000240 36 18 2a bf c4 f7 32 bf c7 cf 14 bf 1b ac bb bf
       -0.6644319 -0.6990931 -0.58129543 -1.4661897
000250 49 96 d7 3e 7a fe 84 be b8 15 c9 be 63 36 42 be
       0.42106846 -0.259754 -0.39274383 -0.1896606
000260 dc d8 70 be 73 d5 27 be 43 9b 46 3e a2 08 07 bf
       -0.23520225 -0.16390018 0.19395165 -0.5274755
000270 fe 05 a7 be 80 3f 09 bf 6e e7 c2 3d db 99 c2 3e
       -0.3262176 -0.5361252 0.09516798 0.38008007
000280 c0 0b 7d bf 6e 55 28 bf a1 de 5f bf 1c bd fc be
       -0.98846054 -0.65755355 -0.8744908 -0.4936303
000290 23 80 96 3c 09 3c af be 9a 0f e9 bd cd ff 62 be
       0.018371647 -0.3422549 -0.11379929 -0.22167893
0002a0 f6 d4 8b 3d 76 fb b1 3d 82 3c 3a 3e d3 11 2e be
       0.068277285 0.086905405 0.18187144 -0.16998987
0002b0 b5 db 63 3c df c2 84 3e ba 05 20 bf b3 4b 74 be
       0.013907363 0.25929925 -0.6250874 -0.23857002
0002c0 89 b0 48 bd 18 78 28 bf ca 5e 00 be 23 8f 4d bf
       -0.048996482 -0.6580825 -0.12536159 -0.80296534
0002d0 76 57 e4 3e 62 db b0 be d7 78 5d be fb d3 a1 3d
       0.44597977 -0.34542376 -0.21628128 0.0790176
0002e0 6f 6e 47 be f2 dd f5 be 0a 2c 3a 3e 38 b2 2e 3d
       -0.19475721 -0.48020893 0.18180862 0.04265043
0002f0 0e 01 f2 bc 91 90 41 bf a2 d3 81 be c3 d2 d3 3d
       -0.029541519 -0.75611216 -0.25356776 0.10342934
000300 25 4e 26 3d 94 2c 7d 3e 30 8a 9f be 6b 32 85 3d
       0.04060187 0.24724036 -0.31160116 0.06503757
000310 92 9f 0d be 11 8e 5c 3d f1 1e 8c be 07 e0 1f 3e
       -0.13830402 0.053846423 -0.27367356 0.15612803
000320 4a e2 ec be e1 1c d2 be fe 95 8d be b6 d3 b1 3e
       -0.46266395 -0.41037658 -0.27653497 0.34731835
000330 39 e7 c1 be f8 fd 55 bd 78 d3 4a 3e 26 70 2a be
       -0.3787172 -0.052244157 0.19807231 -0.16644344
000340 d1 4a 59 be fb 57 6c 3d 23 ad ef be 70 bc cf be
       -0.21219946 0.057701092 -0.4681178 -0.40573454
000350 b4 33 b2 3d 83 ea 06 be 88 0a 2a 3f d5 0c 44 3c
       0.08701268 -0.13175397 0.6642232 0.01196595
000360 34 ab 18 3d d0 8a e3 bd 1f 1e 8a be e9 fd 4f bf
       0.037272647 -0.11110461 -0.26976106 -0.8124681
000370 fd f5 20 3f ae 7e 5b bd 5d 5f 9c bc 33 12 18 bf
       0.6287535 -0.053587608 -0.019088442 -0.5940277
000380 ca 88 f5 be f8 b9 7b bd 13 49 b0 be ce 11 a4 be
       -0.47955924 -0.06145665 -0.3443075 -0.32044834
000390 e7 df 07 bf cc 36 fe bd 92 c1 1e be e5 bb 00 be
       -0.5307602 -0.124127954 -0.15503529 -0.12571676
0003a0 de 19 e3 3d b0 bd 35 3e bc 19 19 bf 6a 6c ce be
       0.11088918 0.17748141 -0.5980489 -0.40317088
0003b0 ac 54 de 3e fd 16 0b 3d 84 0f 87 bd 70 f5 01 bf
       0.43423975 0.03395747 -0.06594756 -0.5076513
0003c0 57 78 d6 bc 12 aa 65 3e 6e ed 0d bf 93 cb f2 be
       -0.02618043 0.22428158 -0.55440414 -0.4742094
0003d0 58 00 e0 bd 85 49 87 bd 71 95 bf be ff f2 6b 3e
       -0.109375656 -0.066058196 -0.37418702 0.23041914
0003e0 ed ee 4b bf 89 46 dd bd 66 a8 1d bf 54 2b 83 3e
       -0.79661447 -0.10804469 -0.6158508 0.25618994
0003f0 20 4d 18 bf 47 47 05 bf c9 43 33 be c2 91 48 be
       -0.59492683 -0.52061886 -0.17506327 -0.19586852

fc_mu.0.bias f4 [64]
000000 63 e4 b3 bd 8c 90 4b 3f ae d2 23 3f 1c 5f 8b be
       -0.08783796 0.79517436 0.63993347 -0.27221
000010 6e bb ab 3e 8b 3c cb 3e 51 45 e0 3e bc af 27 3e
       0.33541435 0.39694628 0.43802884 0.16375631
000020 e0 bd 2a 3f d8 2c 8b be 1e 02 30 be f0 4f f0 3d
       0.66695976 -0.2718265 -0.17188308 0.11733997
000030 a2 a4 2b 3f 7a 6e 15 bc dd d7 a0 39 1c 95 fd 3e
       0.67048085 -0.009120578 0.0003067841 0.49527824
000040 d3 c4 34 3f 59 89 52 3f d0 9b 0b bc 00 11 48 3f
       0.7061283 0.82240826 -0.008521035 0.7815094
000050 5a fc 74 3f 65 16 21 3e 87 c9 7d 3e 2d 7e ac 3e
       0.9569756 0.15731199 0.24783908 0.33690014
000060 15 3d 4d 3d 82 67 c3 3e 81 17 2d be 76 b4 63 3e
       0.05010708 0.38164908 -0.16903497 0.22236809
000070 4a 82 02 be 98 84 99 3e ab 75 56 3f 06 f5 40 be
       -0.12745014 0.29983974 0.837733 -0.18843469
000080 9f 13 cf bd 0e c4 89 3e 52 d8 91 3e 72 90 8e be
       -0.10111164 0.2690739 0.28485352 -0.27844578
000090 fc f7 12 3e 58 7e 38 3e ab aa 3e 3f e3 19 a0 3e
       0.14352411 0.18016946 0.7447917 0.3126975
0000a0 c1 36 b3 3d 41 2e a1 3e 30 ad 33 3e 3c 7c 44 3f
       0.08750678 0.314806 0.17546535 0.76752067
0000b0 bf 54 cb be 29 c0 78 3e 18 55 83 3e 26 5f 5d 3f
       -0.39713094 0.24292053 0.2565086 0.8647331
0000c0 39 0a 29 3e 80 1c d9 3e 88 0d 4a be a9 29 17 3f
       0.16507806 0.42404556 -0.19731724 0.59047943
0000d0 0e da ba 3e 00 6a 14 bd d1 96 8d 3e 5a 43 e6 3e
       0.36494488 -0.036233902 0.27654126 0.4497326
0000e0 b3 a7 16 3d 5a 19 06 3f 2a 83 ff 3d 7d 5d 6e be
       0.036781024 0.52382433 0.124761894 -0.2327785
0000f0 4a 1a 25 3f 7c 84 0e 3f 3e 2f aa 3e dc 16 d7 3d
       0.6449324 0.55670905 0.33239168 0.10502407

fc_mu.2.weight f4 [4, 64]
000000 29 d4 51 3e 45 92 c4 bd d6 5d 2a be e9 75 3a bd
       0.20491089 -0.09598211 -0.16637358 -0.045522604
000010 8d f0 14 3e bb b8 2a bd 01 82 28 3d 1b 55 25 3d
       0.14544888 -0.04168008 0.041139606 0.040364366
000020 d6 90 2a 3d 07 e9 81 3e f2 64 09 be 60 08 8c bd
       0.041642033 0.25373098 -0.13417414 -0.06837535
000030 37 c7 b4 3e 28 eb b4 3c d6 82 f7 bd bf 22 3f 3d
       0.3530824 0.022084787 -0.12085502 0.046663996
000040 23 97 93 be eb 3c 2e 3e d3 e4 c3 bd 1f 97 cb bd
       -0.28826246 0.17015426 -0.09565129 -0.099409334
000050 c3 f4 17 3e 5d 50 c2 3c 9d 6a c3 be a4 e1 c7 3e
       0.14839463 0.02371996 -0.38167277 0.39039338
000060 c8 c3 06 3f a8 d5 7b 3c 3e 43 72 be 5a c7 28 3e
       0.5264249 0.015370764 -0.23658463 0.16482297
000070 bd b1 1a 3e b5 f6 55 bd c8 32 a6 3e d3 5e d5 3e
       0.15106864 -0.05223723 0.32460618 0.41673908
000080 b9 9a 8f be 30 93 8b 3e c2 8e 91 be 7c 14 16 bf
       -0.28047732 0.27260733 -0.28429228 -0.58625007
000090 f2 12 a1 3e 6b 06 f2 3e 40 5b d5 be fc e1 1f 3d
       0.31459767 0.47270522 -0.4167118 0.039033875
0000a0 78 ce 16 3a ee bc 4b be 19 a7 dd bc 83 84 93 3e
       0.0005752812 -0.1989629 -0.027057217 0.28812036
0000b0 75 de d4 3d ca 55 e5 bd c6 87 c3 bd 86 18 a5 3e
       0.10393993 -0.111980036 -0.09547381 0.32245272
0000c0 18 0f 11 bd 76 80 07 be 95 eb af be 3a fd 04 3e
       -0.035414785 -0.13232598 -0.34359422 0.12987223
0000d0 1c a3 8b 3d 8b 9e f2 3c 4e a3 9e bc c4 2d a5 3e
       0.0681822 0.029616615 -0.01936498 0.3226148
0000e0 de 57 91 be 7d 3e b2 be 4f d3 01 bf dc 85 e3 3d
       -0.2838735 -0.348133 -0.50713056 0.11109516
0000f0 94 0f 36 bd b0 2a b1 be 64 a4 a1 3b ab 61 69 be
       -0.04444845 -0.3460288 0.004932927 -0.22791164
000100 db d6 e4 be 50 e9 0f 3f 34 c8 fa 3c 6b 09 05 3e
       -0.44695172 0.5621538 0.030613042 0.12991874
000110 db 71 bb 3d f7 b7 5a 3e 9c 93 02 bd 16 d6 89 3d
       0.091525756 0.2135924 -0.031879053 0.06730287
000120 c1 3c 42 3f 27 c8 6e be 69 a8 9d be 99 53 dc bd
       0.75873953 -0.2331854 -0.3079255 -0.107581325
000130 54 36 a1 3c be ec 04 3e 5a 35 55 be 5a 47 54 be
       0.019679226 0.12980935 -0.20821133 -0.20730343
000140 6c d9 3f 3f 02 0c d8 3d 6e 24 1b 3e 82 c9 dc 3e
       0.74941134 0.10549165 0.15150616 0.43122488
000150 84 c7 af 3e ed cc 5f bf 3e 34 cb 3d 49 1a 3c 3e
       0.34331906 -0.87422067 0.09922074 0.18369402
000160 2d 0f b0 3d 2c c4 8e 3e 6a 24 79 be 48 fc ba 3d
       0.085966446 0.27884042 -0.24330297 0.0913015
000170 bd b7 12 be 41 b5 03 3e e1 6d 3e be c2 2e 11 be
       -0.14327903 0.12862112 -0.18596603 -0.14177993
000180 40 9c 1d bd d5 e2 01 be 04 e8 ba be 72 4c 9d 3b
       -0.03847909 -0.12684186 -0.3650514 0.0048003728
000190 2d f0 04 3e 31 07 ec be 4f e0 98 bd f9 9f 0c 3e
       0.12982245 -0.46099237 -0.074646585 0.137329
0001a0 74 9e 4f 3e d4 88 33 3e bc 55 74 be 30 07 9b 3e
       0.20275289 0.17532665 -0.2386083 0.3027892
0001b0 5c 17 4d bc 68 e4 f8 3d c3 84 87 3e 9b e1 db 3d
       -0.012517776 0.1215294 0.26468477 0.1073639
0001c0 0c b2 50 3c 6d 7b c4 bd 2f f4 a4 3d cb 67 b1 be
       0.012737762 -0.09593854 0.08054387 -0.346495
0001d0 61 12 82 3d 5c 56 0c be dc 08 18 be a6 9c ef 3d
       0.06351162 -0.13704818 -0.1484713 0.116998
0001e0 9d 46 13 3e af f0 0a be 6f b3 03 3f 59 2f 9f be
       0.14382406 -0.13568376 0.5144567 -0.3109081
0001f0 ac 7c f1 bc 20 58 87 3d d2 7f a5 3d 60 ae 02 be
       -0.029478393 0.066086054 0.080810204 -0.12761831
000200 fb ae e7 bc a2 73 b5 3d 17 d7 2f 3e b8 d9 90 3e
       -0.02828168 0.08859946 0.17171894 0.28291106
000210 d2 64 ae bc 45 e1 e3 bd 15 e4 d9 3e 1e 45 b1 be
       -0.02128831 -0.11126951 0.42556825 -0.34623045
000220 4d 7e c1 bc e5 2b 3e be 3f 21 c2 bd 03 49 d5 3d
       -0.023619795 -0.18571432 -0.094789974 0.104143165
000230 65 d2 18 3e 80 6e 41 3e ee ed c1 bc cf 60 a7 bd
       0.14924009 0.18889809 -0.023673024 -0.08172762
000240 cc 6e 8e 3d 00 c1 38 3e 47 2e f8 bd 7c f3 fd bd
       0.069547266 0.18042374 -0.12118202 -0.123999566
000250 23 3e 9e 3e 5e 3a a2 bd 62 2b 0a be bc 25 33 3e
       0.30906782 -0.07921289 -0.13493112 0.17494863
000260 d1 99 fe be b4 af 23 3e 25 e7 a4 bc bf 1a 4c 3e
       -0.49726728 0.15984994 -0.02012975 0.19932078
000270 af 47 2b be e1 ff 2a 3e 8f 98 ec 3d 60 00 fe bd
       -0.16726564 0.16699173 0.11552536 -0.12402415
000280 ef d1 a3 3c 32 c0 f2 3d 65 84 ff 3e 2e 86 7f be
       0.019997565 0.118530646 0.49905697 -0.24953529
000290 ec 9a 31 bf d3 34 30 bf 41 f4 f9 bc 0b 74 c1 be
       -0.6937702 -0.68830603 -0.030511977 -0.37783846
0002a0 d9 80 bb bd 11 a2 04 be 43 2d 68 3b 4a 67 95 bd
       -0.09155435 -0.12952448 0.0035427369 -0.072950915
0002b0 de e6 94 3d a1 26 6c 3e 8c f3 9b bd da 27 08 3e
       0.07270597 0.23061611 -0.07614812 0.13296452
0002c0 f1 d7 00 bd d7 7e cc 3d ff 9f 24 3e d9 06 8d 3d
       -0.031455938 0.0998513 0.16076659 0.06886072
0002d0 12 3c 65 bc 62 81 35 be 4a a3 6f bd 57 9f 9f 3e
       -0.013991373 -0.17725137 -0.058505334 0.31176254
0002e0 b6 65 85 be 94 43 59 3e 98 00 2e 3e 49 da 58 bc
       -0.26054162 0.21217185 0.16992414 -0.013235637
0002f0 38 aa 66 3e 9d 27 98 3e 9b 76 9c be 1d 29 69 be
       0.22525871 0.29717723 -0.3055924 -0.2276959
000300 f1 c2 ab 3d 25 1b d4 3b ac 81 16 3e 21 d5 49 bf
       0.083867915 0.0064729624 0.14697903 -0.78840834
000310 b3 45 88 3c bd 21 23 3c ec de e2 bc 84 d1 3a 39
       0.016634798 0.009956774 -0.027694188 0.00017816393
000320 3f 41 08 3d 41 6f 11 be 91 1d b3 bd 08 45 28 3e
       0.03326535 -0.14202596 -0.08745874 0.16432583
000330 2e f3 ae 3d bb 6c 92 be 48 f5 08 be 91 a0 ff 3e
       0.085424766 -0.2859858 -0.13374817 0.4992719
000340 b9 58 01 3e 45 90 51 3e e9 28 70 be b2 50 80 bd
       0.12631501 0.2046519 -0.23453106 -0.062653914
000350 f9 a2 64 3e a7 c7 54 3e ae 71 14 3e fe 56 8a 3d
       0.22327794 0.20779286 0.1449649 0.06754874
000360 91 19 1d be c7 3e 11 bf e5 b4 db bd 9d 32 20 be
       -0.15341784 -0.56736416 -0.10727862 -0.15644307
000370 0a 39 92 3c d2 01 97 bd 77 5d ad 3c 92 7e b6 be
       0.017849464 -0.07373394 0.021162732 -0.3564344
000380 d0 3e 83 be 7a c6 06 be 5c 8e c8 be ab 6c 6c bd
       -0.2563386 -0.1316165 -0.39171112 -0.05772082
000390 a0 92 57 3d da ff 9c be 08 cd 36 3d 81 44 56 3e
       0.052630067 -0.3066395 0.044629127 0.2092457
0003a0 fc 07 99 3e 7a f2 90 be 24 7a 3b 3e 46 30 20 be
       0.29888904 -0.28309995 0.18308312 -0.15643415
0003b0 ce d5 ba 3e 4f 21 59 3c cf 55 33 3e 2e 7d 32 bd
       0.36491245 0.01325257 0.17513202 -0.043576412
0003c0 96 6e 12 3e 4a ea 28 be 3b ba b1 3e ff a9 15 3c
       0.14299998 -0.16495624 0.34712395 0.0091347685
0003d0 b8 1b c9 3e 34 70 28 bf e1 ad 20 3e fe 4a a8 be
       0.3927896 -0.6579621 0.1569133 -0.32869714
0003e0 4e 19 0e bd d4 be 2e 3e a3 89 a1 be 18 4d 90 be
       -0.0346921 0.17064983 -0.3155032 -0.28183818
0003f0 7d cb 26 3e 8c 4a cf 3b 80 44 aa bc a2 0a 48 3e
       0.16288562 0.0063260254 -0.020784616 0.19535306

fc_mu.2.bias f4 [4]
000000 b0 4f 39 bd 53 26 b5 be b3 11 4a be 0a 92 89 be
       -0.04524201 -0.35380802 -0.19733314 -0.2686923

fc_std.0.weight f4 [64, 128]
000000 9e ce 0c bf b2 50 b7 3e c4 26 d2 3e 0b b0 8f 3d
       -0.5500277 0.35803753 0.410452 0.070159994
000010 ce 5f 14 bf 39 09 74 bd b0 51 9c be 59 61 2e 3e
       -0.57958686 -0.059579108 -0.30531073 0.17029323
000020 7a 0e 4b be 14 dc 9f be f6 31 ab be 74 eb de 3e
       -0.19829741 -0.31222594 -0.33436555 0.4353901
000030 79 74 8e be 47 4c 46 3e f0 f8 28 3a 96 18 4d be
       -0.27823237 0.19365035 0.0006445786 -0.2002891
000040 1f 69 d8 3c 86 d6 a6 be db 5b de 3e fa 23 23 be
       0.026417313 -0.32585543 0.43429455 -0.15931693
000050 90 1c 16 be b0 41 a5 be 7d 53 93 bb 26 4b e2 bc
       -0.14659333 -0.32276678 -0.0044960366 -0.027623724
000060 ac aa 38 3e 36 96 21 bf 8c a2 f9 3e 86 61 1c 3e
       0.18033856 -0.6311983 0.48756826 0.15271577
000070 f2 18 9d 3d c6 3b 37 3e a5 4d 69 be 64 5b 40 38
       0.076707736 0.17893896 -0.22783525 4.586148e-05
000080 a0 dd 2d bf 3d 3e 37 3e c6 f8 b1 be 59 27 b4 bc
       -0.679163 0.17894836 -0.34760112 -0.021991419
000090 f3 8d f5 bd 5a a6 07 be c0 01 c8 3e 90 26 49 3e
       -0.11989965 -0.13247052 0.39063835 0.19643617
0000a0 4b 14 b5 3d f1 3e 48 ba 2e d8 b1 3e 4b c0 fd be
       0.08841761 -0.00076387735 0.34735245 -0.4956077
0000b0 08 91 07 bd 42 86 e3 be 5d c4 01 bf f3 3a d9 be
       -0.033097297 -0.44438368 -0.5069025 -0.42427787
0000c0 0f a8 1a bd 4b fe 07 3e 5b a8 b7 be 69 09 f9 bd
       -0.03775793 0.13280599 -0.35870633 -0.12159998
0000d0 92 8f 88 3e 60 9b aa bd a0 48 be be 38 a9 8e bd
       0.26672035 -0.08330417 -0.37164783 -0.0696587
0000e0 75 37 f5 bd 05 b9 93 3e 1b 06 b0 be a2 71 29 be
       -0.11973468 0.28852096 -0.34379658 -0.16547254
0000f0 94 84 bf be cc 38 d1 be 3d 21 44 3d 27 fe 46 3e
       -0.37405837 -0.40863645 0.04788326 0.19432889
000100 06 8c d9 3e 52 4c 0b be cf 61 a1 be d3 3d 33 bf
       0.42489642 -0.13603333 -0.31519935 -0.7001621
000110 88 06 01 be 4b fd 1c be 24 93 67 3e ac db 8b be
       -0.12600148 -0.15330999 0.22614723 -0.27316034
000120 66 49 b9 3d f2 e4 9a be 9b 2b f0 3d a6 32 21 3e
       0.09047203 -0.30252796 0.11727067 0.15741977
000130 5a 15 d7 3d 9a f8 af 3d ff 15 6b 3e 61 bd 26 bf
       0.10502119 0.08592339 0.2295761 -0.6513272
000140 c3 d9 63 3f fe 0c 34 3e 74 a6 5e 3d b2 74 dd bd
       0.89004153 0.17583081 0.05435796 -0.108132735
000150 07 a0 d5 bd 4b 97 0c bd 15 dd 7c 3e 4e 6b b9 3b
       -0.104309134 -0.03432397 0.24693711 0.0056585437
000160 9b 53 86 bb 07 2e 1b be d5 3a 2d 3e b7 9b ed 3c
       -0.004099322 -0.15154277 0.16916974 0.029004915
000170 cb b4 ac be 06 f8 46 be 50 3b 4a be d7 27 29 bf
       -0.33731684 -0.19430551 -0.19749188 -0.66076416
000180 7a 3c 84 be b2 68 ee 3d 0f 88 be 3d 90 83 97 3d
       -0.2582739 0.11641063 0.09303295 0.073981404
000190 03 0d de 3d f8 0c 51 3e 81 a5 af be 4e 89 2a 3f
       0.108423255 0.20415103 -0.34305957 0.6661576
0001a0 34 39 c1 3b 33 7e 86 3d 86 4c cf be 74 ee 4f 3d
       0.0058967117 0.06567039 -0.4048807 0.050764516
0001b0 f0 29 ac be 93 ef 7c bf 2b b2 2a be 0b 9b 04 bf
       -0.33625746 -0.9880306 -0.16669528 -0.51799077
0001c0 55 f6 9e 3c ff b7 f2 3c 3f 43 58 3e 4b ab 5d bd
       0.01940457 0.029628752 0.21119402 -0.054118436
0001d0 36 0b 92 bc ce 69 f2 3c 0a c6 14 3e d7 3e f5 3d
       -0.017827611 0.029591467 0.14528671 0.119748764
0001e0 46 7b 48 be 33 22 fa be 92 c1 e9 bd a3 bf 10 bd
       -0.19578275 -0.48854217 -0.11413874 -0.03533901
0001f0 2b 0c 40 3e 07 eb 6f 3e b1 83 6b 3c 0a 4b 9c 3e
       0.18754642 0.234295 0.014374659 0.30526
000200 2e bd 41 be 73 d3 92 3e 3d 19 14 bf 4e f7 b9 bd
       -0.18919823 0.28676948 -0.5785101 -0.09080373
000210 78 05 b3 3e cf 46 35 be fc cd e6 bd e1 92 22 bf
       0.3496511 -0.17702793 -0.11269757 -0.6350537
000220 30 b8 57 be f7 e2 5e bc ca 7a 76 be d2 18 0a be
       -0.21066356 -0.013603917 -0.24070278 -0.1348603
000230 23 88 e1 3c a0 9d 8e be 11 c6 07 bf 86 12 51 be
       0.027530735 -0.27854633 -0.530366 -0.20417222
000240 9b c2 a5 3e ec bf 30 be 5a f5 c2 3d 3f 0b 3c 3e
       0.32375035 -0.17260712 0.09519453 0.18363665
000250 80 fe 56 bf 30 e8 98 bd bc 57 10 bf 18 f5 c2 3d
       -0.83982086 -0.07466161 -0.5638387 0.09519404
000260 83 7d 61 be 1f 77 b6 3e 82 e9 ce bd 0b de bf be
       -0.22020535 0.35637757 -0.10103132 -0.37474093
000270 26 0e 39 bf 0b 23 c5 be d5 81 e8 be 10 d4 33 be
       -0.72287214 -0.38503298 -0.45411554 -0.17561364
000280 8a 87 ea be b7 e1 2c be c6 c9 75 3d 04 28 73 bd
       -0.45806533 -0.16882978 0.06000688 -0.059364334
000290 0b 7d 9e 3d 3c af ad be fb 70 42 be f2 a4 89 3e
       0.07738694 -0.33922756 -0.18988411 0.26883656
0002a0 32 c3 66 bd 9b 3f bb bc d0 66 d1 bb 15 d6 4c be
       -0.056338497 -0.022857478 -0.00639043 -0.20003541
0002b0 ce 78 f7 be dc b7 09 bd 15 78 a7 3d 7f 2f 38 bf
       -0.48334354 -0.033622608 0.08177201 -0.71947473
0002c0 0f 26 dc bd 05 81 a5 be 70 4a a1 3d 0f dd 13 bf
       -0.107494466 -0.32324997 0.07875526 -0.57759184
0002d0 a7 52 7e bc 57 9e d2 3d 90 01 a8 be 8d 92 0a bf
       -0.015522636 0.10284107 -0.32813692 -0.5412987
0002e0 b2 cc f1 be dd e6 63 3d e5 e5 9d be f6 9f 01 3e
       -0.47226483 0.05564009 -0.30839458 0.12658677
0002f0 66 71 a3 be d7 ad 0e 3e 1b 1b d6 be df 18 4b 3e
       -0.31922454 0.13933502 -0.41817555 0.19833706
000300 9b 3e 85 bd 9d ed 6c be 9f ea bb 3e 82 f3 38 bf
       -0.06506082 -0.23137517 0.3670244 -0.72246563
000310 69 31 bd 3c df 8e fa 3e ab 28 e2 ba 41 dd 9a be
       0.02309485 0.48937127 -0.0017254552 -0.30246928
000320 0c 45 26 be ff e1 70 bd b8 22 95 bd 65 be 34 3e
       -0.16237277 -0.058809277 -0.07282013 0.17650755
000330 e9 31 eb bd ab 9a e2 bc 49 ea 9d 3c ad fd 2b be
       -0.11484129 -0.027661642 0.019276755 -0.16795988
000340 f8 60 07 be ae 56 70 3e 5f 19 c6 3d 69 66 be 3e
       -0.13220584 0.23470566 0.09672808 0.37187508
000350 1e 52 ac 3d be 80 c8 3c aa ae d4 be 95 f5 20 bf
       0.084141 0.024475452 -0.41539508 -0.6287473
000360 df a2 4b bd 02 b7 20 3e 0b 41 38 bf f6 fb e5 be
       -0.049715873 0.15694812 -0.7197425 -0.44918793
000370 a2 c2 91 be fb ac 3f 3d cb 6e 18 bf cd b8 d1 3d
       -0.28468806 0.046795826 -0.59544057 0.10240326
000380 19 22 66 be 56 e9 c0 3e 46 8e f3 be 26 29 a6 3d
       -0.22473945 0.3767802 -0.47569484 0.08113317
000390 4a 74 2c 3e 53 9d e3 bd fa 2f 8c 3d a5 a7 35 be
       0.16841236 -0.111139916 0.06845088 -0.17739733
0003a0 88 6d bb 3c 06 65 4e 3d 6e 72 fc bd e7 62 8f be
       0.022879377 0.050389312 -0.12326513 -0.28005144
0003b0 1c 2b ad 3d 0c 53 de bf 7c ff 39 3e 1b c9 93 be
       0.08455488 -1.7369094 0.18163866 -0.2886437
0003c0 9b 2e 37 bd 12 e3 f9 3d 76 c5 8a be eb bc 1a be
       -0.04472218 0.12201513 -0.27103776 -0.15111129
0003d0 dc d7 1d be 36 9d 10 bf 2d 09 f1 be d1 1e 0a 3e
       -0.15414375 -0.56489885 -0.47077313 0.13488318
0003e0 61 5a 36 be 4e f5 7f be e9 2a e1 be 2f 8f f3 be
       -0.17807914 -0.2499592 -0.4397805 -0.47570178
0003f0 4e 6d fa be 35 12 3b 3e ce 1a 05 bf c1 63 4a be
       -0.48911518 0.18268664 -0.51994026 -0.19764616

fc_std.0.bias f4 [64]
000000 3f d8 03 3d 73 e6 08 3e ed 6b fc 3d 78 a0 18 3f
       0.03218865 0.1336916 0.12325273 0.59619856
000010 02 82 0a 3f d7 96 40 3f 2f a8 ba 3e c0 32 9d 3f
       0.54104626 0.75230163 0.3645644 1.2281113
000020 6a 4b 4c 3f 56 01 ff 3e cf 7b 61 bf 1a 01 2c 3f
       0.7980257 0.49805707 -0.8807954 0.6718918
000030 65 65 f6 3e d6 c5 1a 3f 6d ad 3a 3e 13 57 f4 3f
       0.48124233 0.60458124 0.18230219 1.9089073
000040 65 7d a8 3b e4 59 a3 3f 33 8d e3 3d 32 08 bf bf
       0.0051419013 1.2761807 0.11110916 -1.4924376
000050 99 e9 59 3d 3d 81 97 3e 66 ab 62 3f 0d 90 2b be
       0.05320129 0.29590788 0.88542783 -0.1675417
000060 9c f7 61 3f 9e b2 10 3f 3e 9e 88 3f b9 ec b5 bd
       0.88268447 0.5652255 1.0673292 -0.08883042
000070 af ae 6b bf 60 90 d9 3e 92 22 db bf ca 42 81 3e
       -0.9206342 0.42492962 -1.7119925 0.2524627
000080 02 5c 38 3e f1 42 a1 3f 40 97 62 3f c1 00 b8 3f
       0.18003848 1.2598554 0.8851204 1.437523
000090 94 f9 cf be 66 22 a7 bd c8 d3 10 3f d3 ca 00 bf
       -0.406201 -0.08160858 0.5657315 -0.50309485
0000a0 22 a6 0a be 01 f8 6e bf 6b dc 0c bf 18 c4 05 3e
       -0.13539937 -0.93347174 -0.5502383 0.13063085
0000b0 fb 9e b1 3f bb 3a 22 bd 56 7c c9 3e ae 90 ce 3d
       1.3876642 -0.03960679 0.39352673 0.10086189
0000c0 2a 40 80 bf 35 b4 8b 3e 52 b2 2a bf b5 8d a5 bb
       -1.0019581 0.27285925 -0.66678345 -0.005052293
0000d0 9c 76 16 3e ad c5 0c be be 77 36 3f a0 70 1b 3f
       0.14693683 -0.13747282 0.7127646 0.6071873
0000e0 21 ec c2 3e 9b a3 86 be 2c af 0b bf 22 a4 e7 3d
       0.38070777 -0.26296696 -0.54564166 0.11310603
0000f0 4d 95 ec 3e 73 30 5d 3f a2 2c 07 3f b8 12 7c 3d
       0.46207657 0.8640205 0.5280248 0.06154129
