project/experiments/SoftActorCritic/HalfCheetah/runs/exp_2025-02-22_14-19-20/models/policy_net.pth (torch, 223586 bytes, 12 tensors)

fc1.0.weight f4 [256, 17]
0	0x3ec34ef8	0.38146186
1	0xbe432fe7	-0.19061242
2	0xbd11b5bc	-0.035573706
3	0xbf28ea6d	-0.65982705
4	0x3d291010	0.041275084
5	0x400bc536	2.1839118
6	0x3d7c5645	0.06160571
7	0xbe3dead1	-0.18546607
8	0xbe246bff	-0.16056822
9	0x3f3d66de	0.7398509
10	0x3ef99b23	0.48751172
11	0x3cf15a41	0.029461982
12	0x3d77d140	0.06050229
13	0xba49ec46	-0.0007702749
14	0xbe18ee10	-0.14934564
15	0x3d3b9a49	0.045801435
16	0x3d4369e4	0.047708407
17	0x3f5dc8bb	0.86634415
18	0xbf6a4254	-0.9150746
19	0xbf0dd57d	-0.5540388
20	0x3df56a23	0.119831346
21	0xbf2a947c	-0.6663282
22	0x3fa37d5c	1.2772632
23	0xbc185458	-0.009297453
24	0xbdf4859c	-0.119395465
25	0xbe36c65e	-0.17849109
26	0x3d83e6df	0.064405195
27	0x3eca10f5	0.39466062
28	0x3da1c5f8	0.07899088
29	0x3c6be819	0.014398598
30	0x3c0199a0	0.007910162
31	0x3d87d3df	0.06632208
32	0x3db6ea9c	0.08931467
33	0xbc6a1abb	-0.0142886
34	0x3f015410	0.50518894
35	0xbf001dc2	-0.50045407
36	0xbf0f517c	-0.5598371
37	0xbf712e7d	-0.9421156
38	0x3d54436d	0.051822115
39	0xbf15b97f	-0.5848617
40	0xbf01ea70	-0.5074835
41	0xbe03859f	-0.12843941
42	0x3e95994d	0.29218522
43	0xbeb12668	-0.34599614
44	0x3ce035e2	0.027369443
45	0xbd17580b	-0.0369492
46	0xbc48e964	-0.012262676
47	0xbd208528	-0.039189488
48	0x3d983075	0.074311174
49	0x3c75855e	0.0149854105
50	0x3ca1872d	0.019717777
51	0x3fd2ce31	1.6469175
52	0x3ee93e86	0.45555514
53	0x3d5c2819	0.053749178
54	0x3f0f2bda	0.5592629
55	0xbac4c04f	-0.0015010926
56	0x3ed52258	0.41627765
57	0x3d8c8c4c	0.06862697
58	0x3dae98c5	0.08525232
59	0x3e690459	0.22755565
60	0x3f3fbda3	0.7489874
61	0x3f0da397	0.55327743
62	0x3dbdaf80	0.092619896
63	0x3d2d0b1f	0.042246934
64	0x3c0a85ba	0.008454734
65	0x3df1af9c	0.11801073
66	0x3d0904f1	0.033451978
67	0x3c22c891	0.009935514
68	0x3c921f6c	0.017837249
69	0xbf19174c	-0.59801173
70	0xbe6e2242	-0.23255256
71	0xbea5741a	-0.3231514
72	0xbe1a2a9e	-0.1505532
73	0x3ec11384	0.37710202
74	0x3f244af7	0.6417689
75	0x3ebccd5b	0.36875424
76	0x3df58d18	0.11989802
77	0xbeeea72a	-0.4661191
78	0xbe20a0ff	-0.15686415
79	0xba60b07a	-0.0008571219
80	0x3d8dc922	0.06923129
81	0x3c28e34c	0.010308098
82	0x3df5c415	0.1200029
83	0x3d70c2b3	0.05877943
84	0x3cd53857	0.026027841
85	0x3fb002d5	1.3750864
86	0x3f189896	0.5960783
87	0x3f074206	0.5283512
88	0xbe45eaac	-0.19327801
89	0x3e5e5994	0.21713859
90	0xbe88f39c	-0.2674836
91	0xbe823fc4	-0.25439274
92	0xbc5d4b0e	-0.013506664
93	0xbdaaf27d	-0.08347032
94	0x3e0457a9	0.12924065
95	0xbebd88c8	-0.37018418
96	0xbc87b3d2	-0.016565237
97	0xbdb1c7e7	-0.086807065
98	0xbb045a1f	-0.0020195318
99	0xbd64395c	-0.055718765
100	0x3aedaa84	0.0018132483
101	0x3c4669d6	0.012110194
102	0x3e8fc907	0.2808306
103	0x3d1b26db	0.037878852
104	0xbf8142c5	-1.0098501
105	0xbd0d7c7a	-0.03454254
106	0x3ceabb30	0.028653711
107	0x3f86a734	1.0519776
108	0x3f39d90a	0.725968
109	0x3e8aaa17	0.27082893
110	0xbe9d0b71	-0.30672792
111	0x3eff96c5	0.49919716
112	0x3eeeabbd	0.466154
113	0x3cee9eb9	0.02912842
114	0x3c0db4dd	0.008649078
115	0x3b9965cb	0.004681324
116	0x3d193837	0.037407126
117	0x3cd7bf4d	0.026336337
118	0x3c80fbba	0.015745033
119	0x3f9cad4c	1.2240386
120	0xbfa9eb82	-1.3274996
121	0xbe248adf	-0.160686
122	0x3e9c036d	0.30471364
123	0x3e1af18a	0.15131202
124	0x3f536f57	0.82591766
125	0x3e6604c8	0.22462761
126	0x3e69b18c	0.22821635
127	0xbf367a1b	-0.7128007
128	0x3ec22fdd	0.37927142
129	0x3ddac3bd	0.10681865
130	0xbb9767ba	-0.0046205195
131	0xbca516de	-0.020152505
132	0x3cc2f120	0.023796618
133	0x3d478372	0.04870934
134	0x3d9da0e1	0.07696701
135	0xbd80e0f9	-0.0629291
136	0x3d921cdd	0.071344115
137	0x3ddfe086	0.10931496
138	0x3ea25822	0.31707865
139	0xbe93cd7b	-0.28867707
140	0x3ecd93ad	0.4015173
141	0x3f9c8373	1.2227615
142	0x3d89b830	0.06724584
143	0xbe8bec70	-0.27328825
144	0xbea1b868	-0.31586003
145	0x3faec39a	1.3653443
146	0xbd24f65e	-0.040274017
147	0xbd4d3e17	-0.05010804
148	0xbdd0a044	-0.10186818
149	0x3c5f0044	0.013610903
150	0xbe59ed97	-0.2128204
151	0xbd7e2a1a	-0.06205187
152	0xbc8dc257	-0.017304583
153	0x3f55f487	0.83576244
154	0xbf5f65b7	-0.8726458
155	0x3fd2a312	1.6456015
156	0xbeba2f5a	-0.3636425
157	0xbe8566b0	-0.26054907
158	0xc023f30b	-2.5617092
159	0x3d8bcdf7	0.06826394
160	0x3ef1b462	0.47207934
161	0xbe311d90	-0.17296433
162	0x3e71edb8	0.23625839
163	0x3f2f3e25	0.684542
164	0x3db363f1	0.08759297
165	0x3a9aa805	0.0011799341
166	0xbd20df84	-0.03927566
167	0x3e4ed61b	0.20198862
168	0xbd4ad8fc	-0.04952334
169	0x3d106c1a	0.035259344
170	0x3e25fedb	0.16210501
171	0xbf0be089	-0.5463949
172	0xbee87fe1	-0.45410064
173	0x3efccd13	0.4937521
174	0xbb8e2059	-0.0043373522
175	0xbf35fd05	-0.710892
176	0x3efe1e7e	0.4963264
177	0x3c4547ec	0.012041073
178	0xbeca52ed	-0.39516392
179	0xbe4ef9b0	-0.20212436
180	0x3e11bf78	0.14233196
181	0xbdb4d159	-0.088289924
182	0xbd0efd3c	-0.034909472
183	0x3cc506cd	0.024051094
184	0x3e524ee2	0.20537904
185	0x3d1feaa5	0.039042134
186	0x3abf6fa8	0.001460542
187	0x4001c867	2.0278566
188	0x3ebccca4	0.36874878
189	0xbe532a32	-0.20621565
190	0xbdc44e39	-0.09585232
191	0xba3f81ad	-0.0007305395
192	0x3ece1a07	0.40254232
193	0x3e06a216	0.13147768
194	0xbd971639	-0.073772855
195	0x3d77a03b	0.060455542
196	0x3ea0f53a	0.31437093
197	0xbecce95f	-0.40021798
198	0xbcbfae0a	-0.023398418
199	0xbd5669b0	-0.052346885
200	0x3b958256	0.0045626564
201	0xbd4c1f18	-0.04983434
202	0xbc51eeb9	-0.012813264
203	0xbca1eaf0	-0.019765347
204	0x3ec052f0	0.37563276
205	0xbf1b23c1	-0.6060143
206	0xbcfe4cf7	-0.03104256
207	0x3c5c7584	0.013455752
208	0xbc99be2f	-0.018767444
209	0xbcad309c	-0.021141343
210	0x3de7f8f6	0.113267824
211	0xbe9b7afb	-0.30367264
212	0xbee35de4	-0.4440757
213	0xbf1f51f2	-0.62234414
214	0x3e6598ae	0.22421524
215	0xbd3d43b2	-0.046207137
216	0xbc02b925	-0.007978712
217	0xbd63ebf7	-0.055644955
218	0x3d81b0ff	0.063325875
219	0x3d118398	0.03552589
220	0xbc2189a5	-0.009859477
221	0x3f069e66	0.52585447
222	0xbe93ab51	-0.28841642
223	0xbd4c8fb5	-0.049941737
224	0xbf41fa8b	-0.75772923
225	0x3e7535fb	0.23946373
226	0x3f8f4a44	1.1194539
227	0x3faf6d40	1.3705215
228	0x3eb43abc	0.3520106
229	0xbe5ff4fe	-0.21870801
230	0xbe4b839d	-0.19874425
231	0xbdbd3656	-0.092388794
232	0xbe063cc3	-0.13109116
233	0x3c362bc2	0.011118831
234	0xbbab1a78	-0.005221661
235	0x3d37d131	0.044877235
236	0x3da4cb50	0.08046591
237	0x3bfa9c48	0.0076480247
238	0x3ba05fe0	0.0048942417
239	0xbeb5ff11	-0.35546163
240	0xbd7d4469	-0.06183282
241	0x3e9c2f46	0.30504817
242	0x3df2da4d	0.11858044
243	0x3f2f27d6	0.6842016
244	0xbeb2077d	-0.34771338
245	0xbe03ee4f	-0.12883876
246	0x3e90cc76	0.2828099
247	0xbefb00e5	-0.4902412
248	0x3e516786	0.20449647
249	0x3dc2bf90	0.09509194
250	0x3e0d1e16	0.13781008
251	0x3d09086f	0.03345531
252	0xbcd4e11c	-0.025986247
253	0x3dcfbcda	0.101434425
254	0xbcd3a892	-0.025837217
255	0xbfb7ea06	-1.4368293

fc1.0.bias f4 [256]
0	0xbf1d028c	-0.6133201
1	0xbf19c43c	-0.60065055
2	0x3e29741a	0.16548195
3	0xbee08c4b	-0.43857035
4	0x3ea5c77d	0.3237876
5	0xbf330b0b	-0.69938725
6	0x3f097297	0.53690475
7	0x3ef5e162	0.48023516
8	0xbf39c9db	-0.7257363
9	0xbe5c927f	-0.21540259
10	0x3ed3a780	0.4133873
11	0x3e4a39d7	0.19748627
12	0x3f0afed1	0.5429507
13	0x3f5a372f	0.85240453
14	0xbea18f31	-0.3155456
15	0xbe627f82	-0.22118953
16	0xbf0b7782	-0.5447923
17	0xbf1143de	-0.5674418
18	0x3ce1bf71	0.027557107
19	0xbf00c0bf	-0.5029411
20	0xbe872cf4	-0.26401484
21	0xbeeec4e3	-0.46634588
22	0xbf12c899	-0.5733734
23	0xbedb1e65	-0.42796627
24	0xbf0f7300	-0.5603485
25	0x3e5f07a5	0.2178026
26	0xbec9fd6f	-0.39451167
27	0xbf81a0b2	-1.0127165
28	0x3dc7e083	0.09759619
29	0xbf53e963	-0.82777995
30	0xbe607a49	-0.21921648
31	0xbf07af14	-0.53001523
32	0xbd1b3546	-0.037892602
33	0xbee1358e	-0.4398617
34	0xbf3a4bef	-0.72772115
35	0xbf471439	-0.7776523
36	0x3e675f2d	0.225949
37	0xbf3fa926	-0.74867475
38	0x3efcb699	0.4935806
39	0x3e110107	0.14160548
40	0xbf3f8c27	-0.7482323
41	0xbe008689	-0.12551321
42	0x3ec70254	0.38868964
43	0xbf8e09c2	-1.1096728
44	0xbef4e3aa	-0.47829944
45	0x3ea60195	0.32423082
46	0xbf10460e	-0.56356895
47	0xbec318dd	-0.38104907
48	0x3dedb1d2	0.11606182
49	0xbf85cd07	-1.0453194
50	0xbf5918ba	-0.84803355
51	0xbf455fdd	-0.770994
52	0x3f47a182	0.77980816
53	0xbf4a7eb9	-0.79099613
54	0xbf49fa8f	-0.7889795
55	0xbf63f991	-0.89052683
56	0x3f6d79e6	0.9276413
57	0xbead6d94	-0.33872664
58	0x3c4b332a	0.012402335
59	0x3f6be154	0.921407
60	0x3ea9fcc2	0.3320065
61	0xbe97e6fd	-0.29668418
62	0xbf456668	-0.77109385
63	0x3e835eb9	0.25658205
64	0x3e70c241	0.23511602
65	0xbb53284e	-0.0032220068
66	0xbe27d7aa	-0.16390863
67	0xbd2c561e	-0.042074315
68	0xbe95419f	-0.29151627
69	0x3ee22cb9	0.44174746
70	0x3e8053ae	0.25063843
71	0x3d48caa1	0.049021367
72	0xbf712fa3	-0.9421331
73	0xbe862021	-0.26196387
74	0xbe9220ba	-0.28540593
75	0xbe847b81	-0.25875476
76	0xbee589e0	-0.44831753
77	0x3d0d3b03	0.034480106
78	0xbf127996	-0.57216775
79	0x3ecfcf98	0.4058807
80	0xbf27c391	-0.65532786
81	0xbe4061c4	-0.18787295
82	0x3f91228b	1.1338667
83	0xbf66afe4	-0.9011214
84	0xbe576c61	-0.21037437
85	0xbf58eef7	-0.8473963
86	0xbf11db53	-0.5697529
87	0xbf1e1e56	-0.6176504
88	0x3f426c21	0.7594624
89	0xbf593d7a	-0.8485943
90	0xbebba7d2	-0.36651474
91	0x3f19b8cd	0.6004761
92	0xbedb71af	-0.4286017
93	0xbf24d1ee	-0.6438283
94	0x3e4ec8da	0.20193806
95	0xbe04e1d5	-0.12976773
96	0x3f3cf814	0.7381604
97	0x3e488d99	0.19585265
98	0xbe997b65	-0.29976955
99	0xbf163960	-0.586813
100	0x3ea38cb8	0.31943297
101	0xbe1cbca2	-0.15306333
102	0xbf78b8de	-0.97157085
103	0xbe3ad70d	-0.18246098
104	0xbc801ed0	-0.015639693
105	0xbedce041	-0.43139842
106	0xbf0e793a	-0.5565373
107	0xbe447843	-0.19186501
108	0x3e048eee	0.12945148
109	0xbedee065	-0.43530574
110	0x3d0281c3	0.03186203
111	0xbed23118	-0.4105308
112	0xbe143ec0	-0.14477062
113	0xbf90bd0f	-1.1307696
114	0xbf305fda	-0.6889626
115	0xbefceea7	-0.49400827
116	0x3edcbf29	0.43114594
117	0xbeb9356c	-0.3617357
118	0x3f5b195e	0.8558558
119	0xbea32511	-0.31864217
120	0xbefa72bf	-0.4891567
121	0x3d8a12cb	0.06741866
122	0xbead7957	-0.33881637
123	0xbe65dec0	-0.22448254
124	0xbf3cd5b9	-0.73763615
125	0xbe9c9896	-0.30585164
126	0x3e9ec5de	0.31010336
127	0xbf0e8754	-0.55675244
128	0xbe176280	-0.14783669
129	0xbf2729d5	-0.65298206
130	0xbf42cfbc	-0.7609823
131	0xbe0c5d58	-0.13707483
132	0xbdb10417	-0.08643358
133	0xbf87a3ad	-1.0596825
134	0x3f5d296c	0.8639133
135	0x3eb40234	0.3515793
136	0xbe1ad037	-0.1511849
137	0x3e4dbe0f	0.20092033
138	0x3e6cc81f	0.23123215
139	0xbeb53663	-0.35393056
140	0x3bcf9654	0.006335059
141	0x3e82ec5c	0.25570953
142	0xbf83d4a4	-1.0299268
143	0x3ea1ab6c	0.31576097
144	0xbef9505e	-0.48694128
145	0xbf15a0cd	-0.5844849
146	0xbe01916f	-0.12653135
147	0x3ea7741c	0.32705772
148	0x3d8e0b74	0.06935778
149	0x3f15dc6e	0.58539474
150	0xbf25616e	-0.6460179
151	0x3e03d80f	0.12875389
152	0xbf1c01e2	-0.6094037
153	0x3ed76113	0.4206625
154	0x3c85bd20	0.016325533
155	0xbd26ff98	-0.040771097
156	0xbf2b3c2e	-0.668887
157	0x3e9a9308	0.301903
158	0x3f5afdfa	0.8554379
159	0xbf7c9fdb	-0.9868142
160	0xbec4e2ba	-0.3845423
161	0xbf732b13	-0.949876
162	0xbd47b94d	-0.0487607
163	0xbf67bfda	-0.9052712
164	0xbf51c5bb	-0.8194234
165	0xbe19a780	-0.15005302
166	0x3f49a9da	0.787748
167	0x3d912a53	0.07088151
168	0x3f54a147	0.8305859
169	0xbf3d293d	-0.7389105
170	0xbe23559e	-0.15950629
171	0xbdb7b23e	-0.08969544
172	0x3e39a1f1	0.18128182
173	0x3e1f661f	0.155663
174	0xbf0d656a	-0.5523287
175	0xbe9882ad	-0.29787198
176	0xbf81876b	-1.0119451
177	0x3e0951e6	0.13410148
178	0x3cdbe4e3	0.02684254
179	0xbee46a94	-0.44612563
180	0xbea68c68	-0.32528996
181	0xbe979f1f	-0.29613587
182	0xbc83c571	-0.016085358
183	0xbf5ad8df	-0.8548717
184	0xbeaf70d9	-0.34265783
185	0xbe1ed99a	-0.15512696
186	0xbec47e8c	-0.38377798
187	0xbf6d8936	-0.9278749
188	0x3e904c94	0.28183424
189	0xbf45b00a	-0.7722174
190	0x3df7561a	0.120769694
191	0xbd984bc0	-0.07436323
192	0xbf7102c0	-0.9414482
193	0x3da9b737	0.082868986
194	0xbf245f7f	-0.64208215
195	0x3ee5e891	0.44903997
196	0xbecdce7f	-0.40196607
197	0xbf20f219	-0.6286941
198	0xbe8c2cd4	-0.2737795
199	0xbe34b7fc	-0.1764831
200	0x3ea21292	0.31654793
201	0x3ee8ced2	0.4547029
202	0x3f171a85	0.5902484
203	0x3f2e61d1	0.68118006
204	0x3d58ab67	0.052897837
205	0x3ed36af4	0.41292536
206	0xbeaed9f3	-0.34150657
207	0x3d7edb7c	0.062221035
208	0x3e1a07b3	0.15042
209	0xbedd4c83	-0.43222436
210	0x3e858000	0.2607422
211	0xbf6ffd0b	-0.9374549
212	0xbe3a0bd4	-0.18168575
213	0xbd87a980	-0.066241264
214	0xbf17c6b0	-0.5928755
215	0xbeda63bb	-0.42654213
216	0xbf669ad6	-0.9008001
217	0xbe0a3cef	-0.13499807
218	0xbd330f1b	-0.043715578
219	0x3e328547	0.17433654
220	0x3d741e36	0.059599124
221	0x3f09d279	0.5383678
222	0xbf49f6dd	-0.7889231
223	0xbf3333aa	-0.7000071
224	0xbf05c581	-0.5225449
225	0xbf3fbebf	-0.7490043
226	0xbe5f57d6	-0.2181085
227	0x3f3ce91b	0.7379319
228	0x3f655057	0.89575714
229	0x3eae0a18	0.33992076
230	0x3daced09	0.08443648
231	0xbe1a65f2	-0.15077952
232	0xbea137a2	-0.31487757
233	0x3ddae6be	0.10688542
234	0xbe564064	-0.20923
235	0xbf4bec43	-0.7965738
236	0xbee247fc	-0.44195545
237	0xbf312326	-0.6919426
238	0xbf299688	-0.6624532
239	0xbf512662	-0.8169919
240	0x3dcdfae5	0.1005762
241	0x3f0d71f2	0.5525199
242	0x3e7358cf	0.23764347
243	0xbe72fbb0	-0.23728824
244	0x3ac63670	0.0015122425
245	0x3df3fe4d	0.119137384
246	0xbe856f64	-0.26061547
247	0xbf0c2a95	-0.54752475
248	0xbf33fc82	-0.7030717
249	0x3ec06b5f	0.37581918
250	0x3f2580d8	0.64649725
251	0xbea56099	-0.3230026
252	0x3e715351	0.23566939
253	0xbe68ee4a	-0.2274715
254	0xbf1180ea	-0.5683733
255	0xbf1f7614	-0.6228955

fc1.2.weight f4 [128, 256]
0	0x3cb98173	0.022644734
1	0x3c601cf0	0.013678774
2	0xbe429844	-0.19003397
3	0xbd8dd4bc	-0.069253415
4	0xbd60b330	-0.054858387
5	0x3cd0c656	0.025485199
6	0x3cbe83bf	0.02325618
7	0x3bc64a87	0.006051365
8	0xbd6777fe	-0.056510918
9	0xbd45462c	-0.048162624
10	0xbd908875	-0.07057277
11	0x3c6029ac	0.01368181
12	0xbd907c81	-0.07054997
13	0xbd79046e	-0.06079524
14	0xbdf4c749	-0.11952073
15	0x3bfac5c1	0.0076529686
16	0xbe298ae4	-0.16556889
17	0xbc701911	-0.014654414
18	0xbdd16e19	-0.102260776
19	0xbe4c0272	-0.19922808
20	0xbccc39da	-0.02492993
21	0xbd9e09c1	-0.07716704
22	0xbde3fa17	-0.11131685
23	0x3c61cd0e	0.013781799
24	0x3d891888	0.06694132
25	0x3cd25b8c	0.025678419
26	0xbdedd14a	-0.11612184
27	0xbcad32cb	-0.021142384
28	0xbcfb99cb	-0.030712983
29	0xbda5ccc6	-0.08095698
30	0x3d26ff76	0.04077097
31	0x3cff3798	0.031154439
32	0xbdfc8510	-0.12330067
33	0xbd97c937	-0.074114256
34	0x3d373884	0.044731632
35	0xbd484470	-0.048893392
36	0xbdd0db57	-0.10198086
37	0xbd3e647a	-0.04648254
38	0xbdb341fd	-0.08752821
39	0xbd23950a	-0.039937057
40	0xbd591eb2	-0.05300779
41	0x3ca1667a	0.019702185
42	0xbd2715a0	-0.040792108
43	0x3b079527	0.0020688267
44	0xbb3decab	-0.0028980176
45	0x3c80adb0	0.01570782
46	0xbcf4190d	-0.029797101
47	0xbd2cc9d3	-0.042184662
48	0xbdd59a04	-0.10429767
49	0xbc902036	-0.017593484
50	0xbdb11934	-0.08647385
51	0xbc46275a	-0.012094343
52	0x3d2a5b46	0.04159095
53	0xbd38487a	-0.044990994
54	0xbdbd65b9	-0.09247918
55	0xbe2ac075	-0.16674979
56	0x3db95d99	0.090510555
57	0xbddbbb9d	-0.10729144
58	0xbcfe5b61	-0.031049432
59	0xbd11e724	-0.035620824
60	0xbdb9ded5	-0.09075705
61	0xbd670e67	-0.05641022
62	0x3c1722bd	0.009224591
63	0xbd9b37b8	-0.07578987
64	0xbbf0c2e1	-0.00734745
65	0xbde9aebd	-0.11410282
66	0x3b800e93	0.0039079874
67	0x3cb97ec6	0.022643458
68	0x3ccf502e	0.025306787
69	0xbda2d934	-0.079515845
70	0x3cf185cb	0.029482743
71	0xbe2e49a6	-0.17020282
72	0x3c1ebc52	0.009688454
73	0xbcb0b10d	-0.0215688
74	0xbe53152f	-0.2061355
75	0x3d4f9412	0.05067832
76	0x3c8efefc	0.01745557
77	0xbd21ad23	-0.039471757
78	0xbd1e088b	-0.038582366
79	0xbdbd70df	-0.09250044
80	0x3d0b599e	0.034021012
81	0xbd6d08b6	-0.057869636
82	0x3cd897d3	0.026439583
83	0xbd78c508	-0.06073478
84	0x3d5a167f	0.05324411
85	0xbddc17ee	-0.10746752
86	0xbdc66258	-0.09686726
87	0xbd1b07b4	-0.037849143
88	0xbd4499dc	-0.047998294
89	0xbccb8e42	-0.024848107
90	0xbcc711b0	-0.024300426
91	0xbc447957	-0.01199182
92	0x3c34953f	0.011021911
93	0xbd88064e	-0.066418275
94	0xbd44ab54	-0.048014954
95	0x3800e68a	3.0732284e-05
96	0x3b828efe	0.003984331
97	0xbd071f1a	-0.032988645
98	0xbcedcdcd	-0.029028798
99	0xbdb2d51b	-0.08732053
100	0xbda72555	-0.081614174
101	0xbdf01249	-0.117222376
102	0xbdb65228	-0.08902389
103	0x3c87a991	0.016560348
104	0xbce4a07e	-0.02790856
105	0xbd8ed0db	-0.0697343
106	0xbdaaa5db	-0.08332416
107	0xbbae251a	-0.0053144814
108	0xbd1b0592	-0.03784711
109	0xbe505c87	-0.20347796
110	0xbde79c26	-0.1130908
111	0xbd13d73a	-0.036093928
112	0xba04f151	-0.00050713593
113	0x3d3f3cd5	0.046688873
114	0xbd72d57d	-0.05928563
115	0x3c0f5add	0.008749691
116	0xbd25249b	-0.040318113
117	0xbd94ce21	-0.072658785
118	0xbdcf5f23	-0.10125568
119	0x3d6bbadb	0.057551246
120	0xbd80d53f	-0.062906735
121	0xbd8abdaf	-0.067744605
122	0xbe38130d	-0.17976017
123	0xbdc68998	-0.09694213
124	0xbd540a88	-0.051767856
125	0x3d608300	0.05481243
126	0xbce1c1b5	-0.027558187
127	0xbb9e5123	-0.0048314496
128	0xbd8f6f9f	-0.07003712
129	0xbe0dbfef	-0.13842748
130	0xbd12da55	-0.03585275
131	0xbdd827c9	-0.105544634
132	0xbacb3a8d	-0.001550512
133	0xbd83e97b	-0.06441017
134	0xbdfdbbda	-0.123893455
135	0x3d1334f1	0.03593916
136	0xbd72a404	-0.05923845
137	0xbde2fc02	-0.11083223
138	0xbda7437d	-0.08167169
139	0xbd9fb5f8	-0.0779838
140	0xbcb908bb	-0.02258717
141	0xbdd612a9	-0.10452778
142	0xbdac12c5	-0.084020175
143	0x3c193c42	0.0093527455
144	0x3b53b45c	0.0032303547
145	0xbc8a0d82	-0.016852144
146	0xbd87e7f4	-0.066360384
147	0xbc3f4630	-0.011674449
148	0x3cbf3658	0.023341343
149	0xbde5e398	-0.11225051
150	0xbdfc6304	-0.12323573
151	0x3d284a41	0.04108644
152	0xbe008892	-0.12552097
153	0xbd746208	-0.059663802
154	0xbde4a114	-0.11163536
155	0xbd8474af	-0.06467568
156	0xbdcc5381	-0.099768646
157	0x3d15c513	0.036564898
158	0x3c9abbd6	0.018888395
159	0xbd0bf12c	-0.034165546
160	0x3cb445d6	0.022005957
161	0xbd9cde0c	-0.076595396
162	0x3c1405b6	0.009034565
163	0xbcc21e31	-0.023696037
164	0xbe0b0a62	-0.1357818
165	0x3cfee7f4	0.031116463
166	0x3d681605	0.056661624
167	0x3beec183	0.007286252
168	0xbce6cbf3	-0.028173422
169	0xbcce4c3d	-0.025182838
170	0xbd98cf4c	-0.07461414
171	0xbd2f759b	-0.042836767
172	0xbd4f09e6	-0.05054655
173	0xbd82f647	-0.0639463
174	0xbd6b3cec	-0.057431147
175	0xbd5c6b72	-0.053813405
176	0xbe035f12	-0.12829235
177	0xbb670f1a	-0.0035256804
178	0x3d02ce51	0.03193504
179	0xbdc2b459	-0.09507055
180	0xbb3696c1	-0.0027860852
181	0xbcfa6c7f	-0.030569313
182	0xbbaf8b58	-0.0053571872
183	0x3d7928b1	0.060829822
184	0xbd494406	-0.049137138
185	0xbd92027e	-0.071293816
186	0xbdcc7e8b	-0.09985074
187	0x3caeaaf2	0.021321747
188	0xbe04508d	-0.12921353
189	0x3ba072c1	0.004896492
190	0xbdc31424	-0.09525326
191	0x3c5b0f34	0.013370324
192	0xbe814b68	-0.25252843
193	0xbc2a5e03	-0.010398391
194	0xbc69043f	-0.014222204
195	0xbd81eb02	-0.06343652
196	0xbd8d1ab4	-0.06889859
197	0xbde96909	-0.11396987
198	0xbd859364	-0.06522253
199	0xbd048db7	-0.032361712
200	0x3bdaac04	0.006673338
201	0xbe09c27f	-0.134531
202	0x3c5840e1	0.013199062
203	0xbd6edcd9	-0.058316085
204	0xbd4b6f01	-0.04966641
205	0x3d2cb832	0.04216785
206	0xbd90be15	-0.07067505
207	0x3d7fe928	0.062478215
208	0xbde8dfd5	-0.113708176
209	0xbd30515f	-0.04304635
210	0xbd17875c	-0.036994323
211	0xbcfb9a34	-0.030713178
212	0xbd86f75d	-0.065901496
213	0xbe57de0f	-0.21080802
214	0xbded7204	-0.115940124
215	0xbe176a6d	-0.14786692
216	0xbbed8546	-0.0072485534
217	0xbe4a3ffd	-0.19750972
218	0x3d1e2f7f	0.038619515
219	0xbdb4895a	-0.0881526
220	0xbd518085	-0.051147956
221	0xbcff2a84	-0.031148203
222	0xbddf71c8	-0.10910374
223	0xbd7c754f	-0.06163531
224	0xbd1c782f	-0.038200554
225	0x3a868c84	0.0010265266
226	0xbcfafbae	-0.030637588
227	0xbd5ed951	-0.054406468
228	0xbddbb1d2	-0.10727276
229	0x3d224126	0.03961291
230	0x3db79748	0.089644015
231	0xbde65561	-0.112467535
232	0xbdaee1d1	-0.08539165
233	0x3ded9357	0.116003685
234	0xbd91fd7b	-0.07128426
235	0x3ce8f684	0.02843786
236	0x3d77ff43	0.06054617
237	0x3bdf6e2e	0.0068185544
238	0xbe3818cb	-0.17978208
239	0xbdaa283f	-0.083084576
240	0xbd679475	-0.056538064
241	0xbcc507bc	-0.02405154
242	0x3cfd5294	0.030923165
243	0xbd35ef75	-0.044417817
244	0xbcc435c2	-0.023951415
245	0xbda81b78	-0.08208364
246	0xbde78aff	-0.11305808
247	0xbe0f3aec	-0.1398732
248	0xbb97e0a6	-0.0046349345
249	0xbd0b4032	-0.03399677
250	0xbcb7cf5b	-0.022437742
251	0xbe0c225b	-0.1368498
252	0x3c11d6ab	0.0089012785
253	0xbcadcf3a	-0.021216977
254	0x3bded9ae	0.006800852
255	0xbdf116eb	-0.117719494

fc1.2.bias f4 [128]
0	0x3e467e28	0.19384062
1	0xbd341937	-0.04396936
2	0x3e8696ed	0.26287022
3	0x3cd43014	0.025901832
4	0x3ed49027	0.4151623
5	0x3dc2c99c	0.0951111
6	0x3eabea27	0.33577082
7	0x3e8dd816	0.27703923
8	0xbdd2c875	-0.102921404
9	0x3e95bec0	0.29247093
10	0xbdb9b2c6	-0.090673015
11	0x3e059d59	0.13048305
12	0xbe01e9d9	-0.12686862
13	0x3e02592a	0.12729326
14	0x3e0e1f34	0.1387909
15	0x3f0224e6	0.5083755
16	0xbcb3da86	-0.021954786
17	0x3e0e1187	0.13873874
18	0xbcf749d3	-0.03018657
19	0x3ca30bf6	0.019903164
20	0x3f004ac8	0.5011411
21	0x3d21d90b	0.03951363
22	0xbd31512b	-0.0432903
23	0xbcdf5f3e	-0.027267095
24	0xbce04cd2	-0.02738038
25	0xbe3e4e90	-0.18584657
26	0xbd6753b5	-0.056476314
27	0xbd3d1d80	-0.04617071
28	0xbeeb96dc	-0.46013534
29	0xbce0d852	-0.0274469
30	0xbe1e84f2	-0.15480402
31	0xbd79a011	-0.060943667
32	0x3c0f68e8	0.008753039
33	0x3f00d007	0.50317425
34	0x3b9aae51	0.004720487
35	0xbd49fc27	-0.049312737
36	0xbe2155a6	-0.15755329
37	0xbda699fe	-0.081348404
38	0x3e4bf665	0.19918211
39	0xbc834ea7	-0.016028715
40	0xbd3a32f1	-0.045458738
41	0xbc89657b	-0.016772022
42	0xbbb2683e	-0.0054445555
43	0x3e9e257d	0.30887976
44	0xbdd29097	-0.102814846
45	0xbdf6a259	-0.12042684
46	0x3e89c91a	0.2691124
47	0x3e8a5d9f	0.27024552
48	0x3bd7bd51	0.0065838476
49	0x3dc0619c	0.093936175
50	0xbedd86b5	-0.43266836
51	0xbcc1c7eb	-0.023654899
52	0xbcee2ada	-0.029073168
53	0x3d14578d	0.036216307
54	0xbd91c099	-0.07116813
55	0xbe5c9d85	-0.21544464
56	0x3cfd60bf	0.030929921
57	0xbbf208f0	-0.0073863193
58	0xbcebb959	-0.028774904
59	0x3c9ded4f	0.019278197
60	0xbd3b084f	-0.04566222
61	0xbd03cf9a	-0.032180406
62	0xbc42f828	-0.011899985
63	0x3e1ae9dc	0.15128273
64	0xbcf9c43d	-0.030489082
65	0x3d188a1c	0.037241086
66	0x3c080b54	0.008303482
67	0x3e6f0bfd	0.23344417
68	0xbd3495e4	-0.04408826
69	0x3db9044a	0.09034021
70	0xbf34884f	-0.7052049
71	0x3d97ada0	0.07406163
72	0xbd70e0d6	-0.05880817
73	0xbe5d57a9	-0.21615471
74	0x3c708d05	0.014682059
75	0x3dbd26aa	0.0923589
76	0x3d1ada88	0.037806064
77	0xbd2bd34d	-0.04194956
78	0xbe14feb5	-0.14550288
79	0xbd96356e	-0.0733441
80	0x3dfc0ee8	0.12307531
81	0x3dadf563	0.084940694
82	0x3ea65100	0.32483673
83	0xbe39288d	-0.18081875
84	0xbdcb308e	-0.099213704
85	0xbe8e41f7	-0.27784702
86	0xbdb96ba7	-0.09053736
87	0xbe9100f4	-0.2832104
88	0xbd598ea0	-0.053114533
89	0xbc3ff725	-0.011716639
90	0xbe20facd	-0.15720673
91	0x3e038692	0.12844303
92	0xbd889804	-0.0666962
93	0x3f0496b5	0.5179246
94	0xbdb941dc	-0.09045765
95	0x3d7d32f5	0.061816175
96	0xbe50bc1e	-0.20384261
97	0xbd80c8af	-0.06288277
98	0x3f04e7af	0.5191602
99	0xbea297e6	-0.31756514
100	0xbd9de8fd	-0.077104546
101	0xbd224bbe	-0.039623015
102	0xbc364fbb	-0.011127408
103	0xbd13983c	-0.036033854
104	0x3e3d1943	0.18466668
105	0xbe269671	-0.16268326
106	0xbdaeb3f0	-0.08530414
107	0xbd94e6b0	-0.07270563
108	0xbc893d55	-0.016752878
109	0xbe0643e2	-0.13111833
110	0xbd5568b5	-0.05210181
111	0xbc97cdea	-0.018530805
112	0x3dbde349	0.09271867
113	0x3f53ba6f	0.8270635
114	0xbf39629b	-0.72416085
115	0x3d7112e9	0.058855925
116	0x3d751617	0.05983552
117	0x3e729a55	0.23691685
118	0x3d56ae25	0.05241217
119	0x3e6df240	0.23236942
120	0x3ed5441a	0.4165352
121	0xbd0bb510	-0.03410822
122	0x3efca7fe	0.49346918
123	0x3db8ee9a	0.09029885
124	0xbcb74af4	-0.022374608
125	0xbebaee17	-0.36509773
126	0xbd709b63	-0.05874194
127	0x3f1643ba	0.5869709

fc_mu.0.weight f4 [64, 128]
0	0xbcc14106	-0.023590576
1	0xbd1eaecd	-0.03874092
2	0xbd857db0	-0.065181136
3	0xbe45f0e2	-0.19330171
4	0xbd3fd275	-0.046831567
5	0xbd8bfff3	-0.06835928
6	0xbe984981	-0.2974358
7	0xbe00aaa3	-0.12565093
8	0xbe93e9e0	-0.2888937
9	0x3da3baf9	0.079946466
10	0xbe889501	-0.2667618
11	0xbe935ea7	-0.28783152
12	0xbed16b57	-0.40902206
13	0x3d3f9fef	0.046783384
14	0x3ca44028	0.020050123
15	0x3dc5d5df	0.09659933
16	0xbdabf24c	-0.08395824
17	0xbe18385c	-0.1486525
18	0xbe51158f	-0.2041838
19	0x3ec06d09	0.37583187
20	0xbd42c7da	-0.047553875
21	0x3d60e797	0.05490836
22	0xbda8058b	-0.08204182
23	0xbd9e395d	-0.07725785
24	0x3d7c4640	0.061590433
25	0xbd6564b9	-0.05600426
26	0x3c4da50b	0.012551556
27	0x3d9b4bdc	0.075828284
28	0xbe060b15	-0.13090165
29	0xbd7560e2	-0.059906848
30	0x3d776585	0.06039955
31	0xbda84e0a	-0.0821801
32	0x3c73c843	0.014879289
33	0x3e0699fc	0.13144678
34	0x3d7a5a0c	0.06112103
35	0xbd981550	-0.0742594
36	0xbef7f8d4	-0.48432028
37	0xbd220a6e	-0.039560728
38	0x3cf564f3	0.029955363
39	0xbe89b6c8	-0.26897264
40	0xbe5c2430	-0.2149818
41	0xbcdb0c12	-0.026739154
42	0x3e060401	0.13087465
43	0x3db2b287	0.08725458
44	0x3d0fb6fa	0.03508661
45	0xbd131ceb	-0.03591625
46	0x3df34636	0.11878626
47	0xbd9ece9b	-0.077542506
48	0xbc91dd46	-0.017805707
49	0x3d5a26f3	0.0532598
50	0x3dfb0f1e	0.12258743
51	0x3b3ccf38	0.0028810035
52	0x3d8e88e1	0.06959701
53	0xbcfc1140	-0.030769944
54	0xbe229357	-0.15876518
55	0xc00b9e84	-2.18155
56	0xbdccee3b	-0.10006376
57	0xbd6eed91	-0.05833203
58	0x3d8830b9	0.06649918
59	0xbd5dc180	-0.054139614
60	0xbd57e48c	-0.052708194
61	0xbd00b7d3	-0.03142531
62	0xbdbcba28	-0.09215194
63	0xbd4cee8b	-0.05003218
64	0x3bc35d04	0.005962016
65	0xbe566532	-0.2093704
66	0xbd8afcce	-0.067865
67	0xbe2931db	-0.16522925
68	0xbcf4760d	-0.029841447
69	0xbce4eed7	-0.027945919
70	0xbe295f1e	-0.1654019
71	0xbc544495	-0.012955804
72	0xbc301592	-0.01074733
73	0xbdd9e27f	-0.10638904
74	0x3d436a1b	0.047708612
75	0xbe7b3574	-0.2453211
76	0x3d41b576	0.047292195
77	0xbe176e53	-0.14788179
78	0x3b86c766	0.0041131256
79	0x3c8c037e	0.017091509
80	0xbd8ef341	-0.06979991
81	0xbe6fa649	-0.23403277
82	0xbe402c6b	-0.18766944
83	0x3eafed02	0.3436051
84	0xbdd0ebdb	-0.10201236
85	0xbdf42685	-0.119214095
86	0xbdce3521	-0.10068727
87	0xbe520b39	-0.20512094
88	0xbd83c091	-0.064332135
89	0xbc3c3081	-0.011486174
90	0xbd52f8ed	-0.051506925
91	0x3d814156	0.0631129
92	0x3dc04df6	0.0938987
93	0xbe08707a	-0.13324156
94	0x3d2dc9cd	0.04242878
95	0xbbd1a9e9	-0.0063984287
96	0x3a8040d3	0.0009784944
97	0xbcf36c5e	-0.02971476
98	0xbe107ad1	-0.1410935
99	0xbddd3c99	-0.10802574
100	0xbc86dd2a	-0.016462881
101	0xbd9dd0ce	-0.07705842
102	0x3dc31ca8	0.0952695
103	0x3afc7f70	0.0019264054
104	0x3dd263ba	0.102729276
105	0xbcef4b0d	-0.029210592
106	0x3c423683	0.011853817
107	0x3b84604e	0.0040398007
108	0x3c98f38f	0.018670825
109	0xbde8cc50	-0.113670945
110	0x3c40e7b7	0.011773995
111	0xbdaff1dd	-0.08591054
112	0xbda4d782	-0.08048917
113	0xbe474aac	-0.19462079
114	0xc021c505	-2.52765
115	0x3d739a45	0.059473295
116	0xbe1657dc	-0.14681953
117	0x3dbf150b	0.093301855
118	0x3cace173	0.021103596
119	0xbe2043ae	-0.15650818
120	0xbe62acb1	-0.22136189
121	0xbc9328e7	-0.01796384
122	0x3de41b3e	0.111380085
123	0xbe6fb32b	-0.23408191
124	0x3dd25a30	0.10271108
125	0x3df5ba34	0.11998406
126	0x3c3bad5e	0.011454908
127	0xbea0fd3b	-0.314432
128	0xbe537f14	-0.20653945
129	0x3af6d03f	0.0018830373
130	0xbb2d1ab8	-0.002641363
131	0xbe26221c	-0.16223949
132	0xbc2a7541	-0.010403932
133	0x3b434cb5	0.002980036
134	0xbe526309	-0.20545591
135	0xbd1be7d2	-0.038062878
136	0xbe80ed7f	-0.25181195
137	0x3ca04c15	0.019567529
138	0x3dda9aab	0.10674032
139	0x3d4f99ae	0.05068367
140	0xbc1e0bfd	-0.009646413
141	0xbd36bf65	-0.04461612
142	0x3c1882d9	0.00930854
143	0xbe2e934c	-0.17048377
144	0xbd2b3746	-0.04180076
145	0xbd99bf74	-0.0750722
146	0x3e3deabd	0.18546577
147	0xbd06813e	-0.0328381
148	0x3cca5d7e	0.024702784
149	0x3cd1e8e1	0.02562374
150	0xbe07b92a	-0.13254228
151	0xbbc3fba8	-0.0059809275
152	0xbc9f4b96	-0.019445222
153	0xbd9414dd	-0.07230542
154	0xbd4435f8	-0.04790303
155	0xbcf23226	-0.029564928
156	0xbd52d0ae	-0.051468544
157	0x3d9db423	0.07700374
158	0x3d5699f5	0.05239292
159	0xbd95efe5	-0.07321147
160	0x3d837d6c	0.06420407
161	0xbd72f0ca	-0.059311666
162	0x3d5f6be3	0.05454625
163	0x3d855628	0.065105736
164	0x3d22b9d3	0.039727997
165	0x3cada5f6	0.0211973
166	0xbdeff20d	-0.117160894
167	0xbf4c26ad	-0.79746515
168	0xbfe439bf	-1.7830123
169	0x3d7cd32d	0.06172483
170	0x3cc21bb1	0.023694845
171	0xbe28a91b	-0.16470759
172	0xbc7bb3be	-0.015362678
173	0x3d51247a	0.051060177
174	0x3ca2db71	0.019880028
175	0xbe4f7746	-0.20260343
176	0x3dbbfce6	0.09179096
177	0x3d5b44a7	0.05353227
178	0x3e22968d	0.15877743
179	0x3d220599	0.03955612
180	0xbd589013	-0.052871775
181	0x3d67a39c	0.056552514
182	0x3ddf9399	0.10916824
183	0xc030797c	-2.7574148
184	0xbe16b4a9	-0.14717354
185	0x3db6efee	0.08932482
186	0x3d09e543	0.033665907
187	0x3da536b8	0.080670774
188	0x3d2b985a	0.04189334
189	0xbd6bd844	-0.057579294
190	0x3d5bf5ea	0.05370132
191	0x3e2a8143	0.16650872
192	0xbd931558	-0.07181805
193	0xc00ec3e2	-2.2307057
194	0xbd138ec8	-0.03602484
195	0x3d9b71d0	0.075900674
196	0x3751a6d1	1.2496211e-05
197	0x3c4b1658	0.012395464
198	0x3e1f08db	0.15530722
199	0x3d1750cc	0.03694229
200	0xbdcc021d	-0.099613406
201	0x3d5812e8	0.052752405
202	0x3ccb318b	0.024803897
203	0xbbaeeda8	-0.0053383894
204	0xbd8426a8	-0.064526856
205	0xbe90b839	-0.2826555
206	0x3c34cae1	0.011034698
207	0xbb7731aa	-0.003771881
208	0x3de9fed1	0.114255555
209	0xbd9fcc5a	-0.07802649
210	0xbc2c4374	-0.010514129
211	0xbdbe2876	-0.09285061
212	0xbd2128c3	-0.039345514
213	0xbebecd75	-0.37266126
214	0xc04a92f0	-3.1652184
215	0xbdff5a3b	-0.12468382
216	0x3c81600b	0.015792867
217	0xbe0bd039	-0.1365365
218	0x3d9baf32	0.07601775
219	0xbd7ad86a	-0.061241545
220	0x3cf23c6c	0.029569827
221	0xbd8c72dc	-0.06857845
222	0x3d29dfd5	0.04147323
223	0xbcc169dc	-0.023610048
224	0x3e588beb	0.21147124
225	0x3c18bc06	0.009322172
226	0x3c10cd7a	0.008838052
227	0xb9390df8	-0.00017648179
228	0x3d4da76f	0.050208505
229	0x3cbc0f62	0.022956554
230	0xbce64205	-0.028107652
231	0xbd5300de	-0.0515145
232	0xbdbf431c	-0.09338972
233	0xbdd818b4	-0.10551587
234	0x3c8bb0c5	0.017052064
235	0xbe117b60	-0.1420722
236	0xbd187c8c	-0.037228152
237	0x3d14b61d	0.03630649
238	0x3dea41c9	0.11438329
239	0xbe959155	-0.29212442
240	0x3cb583b9	0.022157537
241	0xbbdfb6a1	-0.006827191
242	0xbf9750fb	-1.1821588
243	0x3d7298aa	0.059227623
244	0xbf2d000b	-0.6757819
245	0xbd2e19f4	-0.04250522
246	0xbc4ad42c	-0.012379687
247	0xbf4df78e	-0.80455863
248	0x3d05b371	0.03264183
249	0x3cf3f84a	0.02978148
250	0xbdb3a971	-0.08772553
251	0xbc867e05	-0.016417513
252	0x3ca59cdb	0.020216396
253	0xbf27debd	-0.65574247
254	0xbde80167	-0.113283925
255	0xbe939c88	-0.2883036

fc_mu.0.bias f4 [64]
0	0x3e5fdabe	0.21860787
1	0x3f1a1514	0.6018841
2	0x3e34cc66	0.17656097
3	0x3f374c8b	0.7160117
4	0xbd23d76d	-0.040000368
5	0x3e8bf7bf	0.27337453
6	0xbd1714fb	-0.036885243
7	0x3f0bd7c2	0.54626095
8	0x3dd11850	0.10209715
9	0x3ef0397e	0.46918863
10	0x3e497b2c	0.19675893
11	0x3e0d4861	0.13797142
12	0xbd57a3bf	-0.052646395
13	0xbddf0e02	-0.10891344
14	0xbdd6a895	-0.10481373
15	0xbe8c8289	-0.2744334
16	0x3eb27522	0.3485499
17	0x3efb2d74	0.49058115
18	0x3d0436fb	0.032278996
19	0xbe507bf7	-0.20359789
20	0xbe2dcb0a	-0.16971985
21	0x3ec40f3d	0.38292876
22	0x3ed06c0c	0.40707433
23	0x3e6188cb	0.22024839
24	0xbc056564	-0.008141849
25	0xbe4e71f1	-0.20160653
26	0x3d04baff	0.032404896
27	0x3e699919	0.22812308
28	0x3e8ced34	0.27524722
29	0x3e5681b9	0.20947923
30	0x3f075d8d	0.5287712
31	0xbdfccc91	-0.123437054
32	0x3ecefb88	0.40426278
33	0xbdf5cced	-0.12001977
34	0x3eaf7060	0.34265423
35	0xbe06bf0c	-0.13158816
36	0x3dd95bbc	0.106132
37	0x39c0f53c	0.00036803808
38	0xbe3b41d9	-0.18286838
39	0xbe8d336d	-0.27578297
40	0x3f00d0e6	0.50318754
41	0xbe95c04a	-0.29248267
42	0x3d18e709	0.037329707
43	0xbe03c929	-0.12869705
44	0xbe5e73b6	-0.21723828
45	0x3e0bc878	0.13650692
46	0xbde90c11	-0.113792546
47	0x3df7c52e	0.12098156
48	0x3e0e600c	0.13903826
49	0xbd356e40	-0.044294596
50	0xbf260aae	-0.64860046
51	0xbe0b1ed8	-0.13585985
52	0xbee32777	-0.44366047
53	0xbe241417	-0.16023289
54	0x3e00abc4	0.12565523
55	0xbaddbcab	-0.0016917189
56	0x3e82c06d	0.25537434
57	0x3cb7c195	0.022431174
58	0xbf19308a	-0.5983969
59	0x3eaad20d	0.3336338
60	0xbee06991	-0.4383054
61	0xbdce5e2f	-0.10076558
62	0x3ea1b0ff	0.3158035
63	0x3dea9885	0.11454872

fc_mu.2.weight f4 [6, 64]
0	0x3bfb24e2	0.007664309
1	0xbe6a7352	-0.22895554
2	0xbc861343	-0.016366607
3	0xbe91a81d	-0.28448573
4	0x3dd4d344	0.10391858
5	0x3d2cf2f2	0.04222388
6	0x3d4da9a1	0.0502106
7	0x3e55d106	0.20880517
8	0x3c52015a	0.012817705
9	0x3e0280ea	0.1274449
10	0x3cfcadbb	0.03084456
11	0xbe1571f2	-0.14594248
12	0x3dafe2b4	0.08588162
13	0xbe4ce95d	-0.20010896
14	0xbe9695e6	-0.29411238
15	0xbe36bf61	-0.17846443
16	0x3d98af91	0.07455362
17	0xbd96d4c9	-0.07364804
18	0x3dc88514	0.09791008
19	0x3dc73a3b	0.097279035
20	0xbdab09ad	-0.08351455
21	0xbdf217eb	-0.11820968
22	0x3e037977	0.12839304
23	0x3c4c2c15	0.012461682
24	0x3dbac790	0.09120095
25	0x3cb75023	0.02237708
26	0x3cfe10b3	0.031013822
27	0xbdf034f1	-0.11728848
28	0x3da04e5a	0.078274444
29	0x3de85aaf	0.113454215
30	0xbf197677	-0.5994639
31	0x3d1e536f	0.038653787
32	0xbd01dcfd	-0.03170489
33	0xbe772ded	-0.24138613
34	0xbe8fde04	-0.28099072
35	0xbcd68293	-0.02618531
36	0x3e8a4eaa	0.2701314
37	0xbed40c96	-0.41415852
38	0x3cffed08	0.031240955
39	0x3d9064d2	0.0705048
40	0x3dd013fc	0.10160062
41	0x3c96a27d	0.018388027
42	0x3dcb8677	0.099377565
43	0x3eb7e65c	0.35917938
44	0x39865041	0.00025618265
45	0xbcce3c42	-0.025175218
46	0x3e09752e	0.13423607
47	0xbf44d398	-0.76885366
48	0xbcda12ca	-0.026620287
49	0x3e3ef8f5	0.18649657
50	0x3d9cbccf	0.076532
51	0xbddb6a0d	-0.10713587
52	0x3cffc925	0.031223843
53	0x3da2edfe	0.0795555
54	0x3d0b3802	0.03398896
55	0xbd80f991	-0.06297601
56	0x3d43dd90	0.04781872
57	0x3c76b375	0.015057434
58	0xbec839d5	-0.39106622
59	0x3d0fa673	0.035070848
60	0x3d0a0822	0.033699162
61	0x3d51b890	0.051201403
62	0xbd57c16e	-0.052674703
63	0x3dae162b	0.08500322
64	0xbdf6edcc	-0.12057075
65	0x3ef6ed3e	0.48227876
66	0xbc7e0607	-0.015504367
67	0x3e953b58	0.29146838
68	0xbe0396ef	-0.12850545
69	0xbda799b7	-0.08183616
70	0x3dcac3d6	0.09900634
71	0xbe29cb9e	-0.1658158
72	0xbe14f66c	-0.14547127
73	0xbd2b7ace	-0.041865163
74	0xbd77b040	-0.06047082
75	0xbe2f58d9	-0.17123736
76	0x3d6c8d91	0.057752196
77	0xbdb9bb74	-0.09068957
78	0x3e4cc33b	0.1999635
79	0x3ebaa8b3	0.36456832
80	0xbcb8f27f	-0.022576569
81	0x3e732f50	0.23748517
82	0xbe84ae2a	-0.25914127
83	0x3d1d125c	0.038347587
84	0x3bd33bcb	0.006446337
85	0x3e2f0bed	0.17094393
86	0xbe40a1d6	-0.18811736
87	0xbde1155e	-0.109904036
88	0x3cbca1e3	0.023026412
89	0xbcbb0d88	-0.0228336
90	0x3e0948d7	0.13406692
91	0x3e961903	0.29315957
92	0xbe222578	-0.15834606
93	0x3ca9679d	0.02067929
94	0x3eea089d	0.45709696
95	0x3d2f138e	0.04274326
96	0x3e4908e6	0.196323
97	0x3ec0297e	0.37531656
98	0xbc516a18	-0.012781642
99	0x3db3157a	0.08744331
100	0xbe992636	-0.29911965
101	0xbd36cb16	-0.04462727
102	0x3d88250f	0.06647693
103	0xbd557cce	-0.052120976
104	0xbd272efe	-0.0408163
105	0x3e40e695	0.1883796
106	0x3d7f74b9	0.062367175
107	0x3e6c18c9	0.2305633
108	0xbc898f50	-0.01679197
109	0xbd942cde	-0.0723512
110	0xbde41d13	-0.11138358
111	0x3f2975c3	0.66195315
112	0x3db4f358	0.08835477
113	0x3d9c08a2	0.07618834
114	0xbe2ff5b4	-0.17183572
115	0xbdd7ac93	-0.10530963
116	0xbe2d98b5	-0.16952784
117	0xbd582b53	-0.052775692
118	0xbbff1d92	-0.0077855075
119	0x3e2f83af	0.17140077
120	0xbe1d3d58	-0.15355432
121	0x3f770709	0.9649511
122	0xbe26a9a0	-0.16275644
123	0xb91f7ae1	-0.00015209198
124	0xbe0cdcd2	-0.13756111
125	0xbd97d213	-0.07413115
126	0xbcf7864d	-0.030215407
127	0xbe2d64e1	-0.16933013
128	0xbe1caca1	-0.15300228
129	0xbd8832a4	-0.06650284
130	0xbd8d076f	-0.068861835
131	0xbdc86abc	-0.09785983
132	0x3c98f07f	0.018669365
133	0x3dc92bf7	0.09822839
134	0x3d56eab0	0.05246991
135	0x3e412da8	0.18865073
136	0x3db7b76c	0.08970532
137	0x3e135ea4	0.14391571
138	0x3dfb51e0	0.12271476
139	0xbd87da1c	-0.06633398
140	0xbe3f9237	-0.1870812
141	0x3c30f3c0	0.010800302
142	0xbea31669	-0.31853035
143	0xbe88e035	-0.26733556
144	0x3dd5893f	0.10426568
145	0x3e6b4f76	0.2297953
146	0x3ea17a80	0.31538773
147	0x3c45d265	0.012074088
148	0x3ca9bc24	0.020719595
149	0xbc83838d	-0.01605394
150	0xbd998516	-0.07496087
151	0x3d974fcb	0.07388266
152	0x3d5b036f	0.05347007
153	0xbe402994	-0.18765861
154	0x3e726a61	0.23673393
155	0xbd2c08a3	-0.042000424
156	0xbe2d1baa	-0.16905084
157	0xbe39c0cc	-0.18139952
158	0xbf2ac556	-0.6670736
159	0xbdc8522e	-0.097812995
160	0xbdf888ba	-0.121354535
161	0xbe979a19	-0.29609755
162	0xbd56831d	-0.052371133
163	0xbdf9dadb	-0.121999465
164	0xbd1ba57b	-0.03799961
165	0xbeceb084	-0.40369046
166	0x3d77fff3	0.060546827
167	0x3d2da9fc	0.042398438
168	0xbcd9a584	-0.026568182
169	0xbd56950d	-0.05238824
170	0xbdc5c825	-0.09657315
171	0x3ce874cf	0.028376011
172	0xbc67b0c7	-0.014141268
173	0x3d603f31	0.054747764
174	0xbebe75c8	-0.37199235
175	0xbe9a4929	-0.30133942
176	0xbd7aec93	-0.06126077
177	0xbce1a0f7	-0.027542574
178	0x3c4aaf13	0.0123708425
179	0xbd75fede	-0.060057513
180	0x3e275a4d	0.16343041
181	0x3d4d7946	0.050164483
182	0xbe39651c	-0.18104976
183	0xbd1faa93	-0.03898103
184	0x3dfdc319	0.123907275
185	0xbcf2a64c	-0.029620312
186	0xbdf56984	-0.11983016
187	0x3e56ba80	0.20969582
188	0xbc004eaa	-0.007831255
189	0xbe18dd2a	-0.14928117
190	0xbd2d98e0	-0.04238212
191	0x3c8767cc	0.016528986
192	0xbb87d2fd	-0.004145025
193	0xbebaaf4b	-0.36461863
194	0xbdccbcc0	-0.09996939
195	0xbe82c7a3	-0.25542936
196	0x3da05cec	0.078302234
197	0x3ea33259	0.3187435
198	0x3e06a32a	0.1314818
199	0x3e9a9bbe	0.30196947
200	0x3c2bd9fe	0.010488985
201	0x3e84b0d7	0.25916168
202	0x3db065e9	0.08613188
203	0xbe2fdaf4	-0.17173368
204	0x3ec68d04	0.3877946
205	0xbcb19923	-0.021679467
206	0xbe8cd6d4	-0.2750765
207	0x3e867d1f	0.26267335
208	0xbe317251	-0.17328764
209	0xbd8bb3a7	-0.06821375
210	0xbd2ad419	-0.04170618
211	0xbc655ab7	-0.013998679
212	0xbd2c37ec	-0.04204552
213	0xbe4da2de	-0.2008166
214	0xbeb461fd	-0.3523101
215	0xbd077ceb	-0.033078115
216	0x3d92dbf0	0.07170856
217	0x3e103015	0.14080842
218	0xbd69dcef	-0.057095464
219	0x3d470d1b	0.048596483
220	0xbd6b367f	-0.05742502
221	0x3d8cad19	0.06868953
222	0xbd480841	-0.048835997
223	0x3d249aa8	0.040186554
224	0xbe776463	-0.24159388
225	0xbe3781ce	-0.1792061
226	0xbd58df66	-0.052947424
227	0x3c791985	0.015203838
228	0xbd85e842	-0.0653844
229	0x3dc379f7	0.09544747
230	0x3cda04e1	0.026613655
231	0x3e05614c	0.13025397
232	0x3e30335a	0.17207089
233	0xbd359ee8	-0.044340998
234	0x3df0be20	0.117550135
235	0x3db7b343	0.08969738
236	0x3c4d2375	0.012520661
237	0x3d852904	0.06501964
238	0xbe9c42d9	-0.3051975
239	0xbf95addd	-1.1693684
240	0xbde43149	-0.11142213
241	0xbd6bc1ac	-0.057557747
242	0x3d9781c1	0.073977955
243	0xbddde8e3	-0.10835435
244	0x3ddaeab8	0.106893
245	0x3c82bdd0	0.01595965
246	0x3df2043d	0.11817215
247	0xbe2e0e28	-0.16997588
248	0xbce5c343	-0.02804721
249	0xbf921564	-1.1412778
250	0xbf191423	-0.5979635
251	0xbe1a388e	-0.15060636
252	0x3db661fc	0.08905408
253	0xbc8348a2	-0.016025845
254	0xbd7ccd2c	-0.061719105
255	0xbd6f9c09	-0.058498416

fc_mu.2.bias f4 [6]
0	0x3e73f821	0.23825122
1	0xbebc8c5c	-0.36825836
2	0x3e05d180	0.13068199
3	0xba4d58a3	-0.00078333373
4	0xbe791b9e	-0.24326941
5	0xbd9e846b	-0.077401005

fc_std.0.weight f4 [64, 128]
0	0xbe137231	-0.1439903
1	0x3c04afd8	0.008098565
2	0x3e46201d	0.19348188
3	0x3d8e0944	0.06935361
4	0x3e02419a	0.12720338
5	0xbd577864	-0.052605048
6	0xbe03d1e8	-0.12873042
7	0x3d9b0060	0.07568431
8	0x3ce7600b	0.028244039
9	0xbccfd548	-0.025370255
10	0x3d8ea7c0	0.069655895
11	0xbe402cb2	-0.1876705
12	0x3c87a78a	0.016559381
13	0x3d9cc710	0.07655156
14	0x3e216d73	0.15764408
15	0xbeefacbf	-0.46811482
16	0x3da27aa0	0.07933545
17	0x3ccfac88	0.025350824
18	0x3ca0e7c4	0.019641764
19	0x3e60aab3	0.21940117
20	0x3e02705e	0.12738177
21	0x3db0832f	0.08618771
22	0xbdd4e471	-0.10395134
23	0xbce7614e	-0.02824464
24	0x3cec49e3	0.028843826
25	0xbb3b476f	-0.0028576513
26	0xbb54ba7e	-0.003245979
27	0x3da190b5	0.07888929
28	0xbd545d7b	-0.051846962
29	0xbd68c927	-0.05683246
30	0xbdb053e2	-0.086097494
31	0x3d7cda5b	0.061731678
32	0x3d907569	0.07053644
33	0x3b281852	0.0025649262
34	0xbd32c861	-0.043648127
35	0xbd0bd8f7	-0.03414246
36	0xbe96812e	-0.2939543
37	0xbd0da9f9	-0.034585927
38	0x3c258081	0.0101014385
39	0xbe2bf007	-0.16790782
40	0x3c97d50f	0.018534211
41	0x3bbf9c43	0.0058474853
42	0x3d94a82a	0.07258637
43	0x3d2c6c38	0.042095393
44	0xba15b16c	-0.0005710337
45	0xbd36fd69	-0.044675265
46	0xbf35a2f6	-0.70951784
47	0xbf015333	-0.50517577
48	0xbd4a8d0a	-0.04945091
49	0xbbd0dbe6	-0.00637387
50	0x3e216650	0.15761685
51	0xbc4912fe	-0.0122725945
52	0x3d98074c	0.07423267
53	0x3d048f75	0.032363374
54	0x3dd27ebb	0.10278078
55	0xbdd4bfc9	-0.103881426
56	0xbd0e34c4	-0.03471829
57	0xbd6c0435	-0.0576212
58	0xbda3605e	-0.07977365
59	0x3d7df27a	0.06199882
60	0x3d17cd60	0.037061095
61	0xbdbf64c6	-0.09345393
62	0xbd882f96	-0.06649701
63	0x3e09e90c	0.13467807
64	0xbc67d543	-0.014149967
65	0xbef656fe	-0.48113245
66	0x3d4e0828	0.050300747
67	0xbd8bf062	-0.06832959
68	0x3d2c2bcc	0.042033955
69	0xbd459c60	-0.048244834
70	0xbcb34ae5	-0.021886298
71	0x3e3458c0	0.1761198
72	0x3d80350a	0.062601164
73	0xbbad72e5	-0.0052932375
74	0x3da02b13	0.07820716
75	0x3da5f19a	0.081027225
76	0x3dba3c31	0.09093512
77	0x3e9b40b9	0.30322817
78	0x3c88f857	0.01671998
79	0x3da1b76a	0.078963116
80	0x3dfa8a2d	0.12233386
81	0x3dd5c853	0.104385994
82	0x3e10945a	0.14119092
83	0xbe0531d5	-0.1300729
84	0xbe242c4c	-0.16032523
85	0x3be44eab	0.0069673858
86	0xbf2051af	-0.6262464
87	0x3e114a09	0.14188398
88	0xbd24264e	-0.040075593
89	0xbf000c6e	-0.50018966
90	0xbd411288	-0.047136813
91	0xbd0243a7	-0.0318028
92	0x3d7b0ddd	0.061292518
93	0x3e801608	0.25016809
94	0xbe24dcd7	-0.16099869
95	0x3c2b4921	0.010454447
96	0xbe7e48b4	-0.24832422
97	0x3d1c8503	0.038212787
98	0xbddca4c4	-0.10773614
99	0x3d9c78d3	0.07640233
100	0xbd18952a	-0.03725163
101	0x3c2d1d6f	0.0105661
102	0x3d16a228	0.036775738
103	0x3d4ce3f5	0.050022084
104	0xbe1d4170	-0.15356994
105	0xbce5e2ad	-0.028062189
106	0xbd5727d5	-0.05252822
107	0xbd8aad7e	-0.06771372
108	0xba86feaf	-0.001029929
109	0xbd837076	-0.064179346
110	0xbc8bb274	-0.017052867
111	0x3ccaf5e9	0.024775462
112	0xbd72de34	-0.05929394
113	0x3e0d9d7f	0.13829611
114	0x3c837f01	0.016051771
115	0x3c913aac	0.017728172
116	0x3db89b2c	0.09013972
117	0xbec050e0	-0.37561703
118	0xbddc4dc9	-0.10757024
119	0xbeaa68bb	-0.33283028
120	0xbe877813	-0.26458797
121	0x3dd6304d	0.104584314
122	0x3e3cbae8	0.18430674
123	0xbe409912	-0.18808392
124	0xbd42227d	-0.04739617
125	0x3d158a98	0.036509126
126	0xbd798e87	-0.06092694
127	0xbdf8841f	-0.12134575
128	0xbd96198e	-0.07329093
129	0x3db1436c	0.08655438
130	0xbdea7213	-0.11447539
131	0x3d5f4d9c	0.054517373
132	0x3e5e25ea	0.2169415
133	0xbc9d8e79	-0.019232975
134	0x3e94ff14	0.2910086
135	0xbe0e57cc	-0.1390068
136	0x3d776ee9	0.060408507
137	0xbd332a85	-0.04374172
138	0x3eac1c86	0.33615512
139	0x3e1ca0be	0.15295693
140	0xbeb70ab4	-0.35750353
141	0xbe190d6b	-0.14946525
142	0xbed63f65	-0.4184524
143	0xbdc6bf76	-0.09704487
144	0xbdc13f1c	-0.09435865
145	0xbca29377	-0.019845707
146	0x3e928400	0.28616333
147	0xbe639da0	-0.22228098
148	0xbdb26015	-0.087097324
149	0xbd4aee1d	-0.04954349
150	0x3d52da70	0.05147785
151	0x3d8bbe85	0.06823448
152	0x3c11934c	0.008885216
153	0xbd7560e1	-0.059906844
154	0x3ca6566d	0.020304883
155	0x3d23223f	0.03982758
156	0xbe2ff53f	-0.17183398
157	0xb96accf0	-0.00022392324
158	0x3d398fd6	0.04530319
159	0xbc8a0286	-0.016846906
160	0xbd8d4f2d	-0.06899867
161	0x3e4e6fb4	0.20159799
162	0x3d86ebb8	0.065879285
163	0xbd917977	-0.07103246
164	0xbd97a74b	-0.074049555
165	0x3d6950dc	0.05696188
166	0xbd3b4aee	-0.045725755
167	0xbe9a59c6	-0.30146617
168	0x3dba557a	0.090983346
169	0x3d3dad43	0.046307813
170	0xbd4a08e1	-0.049324874
171	0xbd6b69fa	-0.057474114
172	0xbd7da714	-0.061926916
173	0x3da2f924	0.07957676
174	0x3e7aac6c	0.24479836
175	0xbd15baa5	-0.03655495
176	0xbdc8459b	-0.09778901
177	0x3d43c4a7	0.047794964
178	0x3e8e349c	0.27774513
179	0x3da62781	0.081130035
180	0x3bfc3158	0.007696312
181	0x3cb862bf	0.022508023
182	0xbdb49c55	-0.088188805
183	0xbcfa6e43	-0.030570155
184	0xbd6e2af7	-0.058146443
185	0xbb88de72	-0.004176908
186	0xbccd969e	-0.025096234
187	0x3b6826df	0.003542356
188	0x3c3f1e4d	0.011664939
189	0xbd59943f	-0.053119894
190	0x3dad34e8	0.08457357
191	0xbed8638b	-0.42263445
192	0x3da831fa	0.08212657
193	0xbd92d841	-0.071701534
194	0xbe31b9e9	-0.17356075
195	0x3cd47310	0.025933772
196	0x3a932816	0.0011227157
197	0x3d01edcd	0.031720925
198	0xbb947fc4	-0.0045318324
199	0xbdec1601	-0.115276344
200	0xbb983d40	-0.0046459734
201	0xbc88d218	-0.016701743
202	0xbd1bc72d	-0.038031746
203	0xbf576229	-0.84134156
204	0x3cf1b12b	0.029503426
205	0xbef24de2	-0.47325045
206	0x3e36810a	0.17822662
207	0xbc76b2a9	-0.015057244
208	0x3d2786c8	0.04090002
209	0x3de855ef	0.113445155
210	0xbe09748a	-0.13423362
211	0x3c5a051f	0.013306885
212	0xbead8000	-0.3388672
213	0x3e3a660d	0.18202992
214	0xbe0d2d11	-0.13786723
215	0xbf1bbb85	-0.6083301
216	0xbcda83a9	-0.026674109
217	0x3daabe53	0.08337083
218	0xbbdf04f7	-0.006806012
219	0xbbb48e2a	-0.0055101113
220	0xbd06cdb2	-0.03291101
221	0xbe83cd0a	-0.2574237
222	0x3e1eb6c9	0.15499415
223	0x3df2a099	0.11847038
224	0x3d0437ab	0.03227965
225	0xbb8c88eb	-0.004288783
226	0xbe47dcbc	-0.19517797
227	0xbc44269e	-0.011972098
228	0x3caad5ac	0.02085384
229	0xbda7f349	-0.082007
230	0xbd429ba1	-0.0475117
231	0x3d04d237	0.03242704
232	0x3d430b0b	0.047617953
233	0x3e326e08	0.17424786
234	0xbd18c163	-0.037293803
235	0x3d3054ba	0.04304955
236	0xbc80eeb3	-0.01573882
237	0xbdf79327	-0.12088614
238	0xbe554c0c	-0.20829791
239	0xbc499d4b	-0.012305568
240	0xbd6a4d24	-0.057202473
241	0x3e10ea59	0.14151897
242	0xbf077396	-0.52910745
243	0xbcaafd9d	-0.020872885
244	0xbe5d0c26	-0.21586666
245	0xbde4a8a2	-0.11164977
246	0xbddd6032	-0.108093634
247	0xbda3c9bf	-0.079974644
248	0xbe844bbc	-0.2583903
249	0x3c4df856	0.012571415
250	0xbd5f687a	-0.054542996
251	0x3b50305f	0.0031767113
252	0xbcfac7f8	-0.03061293
253	0xbf0fed3d	-0.5622137
254	0xbd5bcd4e	-0.05366259
255	0xbec3d739	-0.3825014

fc_std.0.bias f4 [64]
0	0xbddb366d	-0.1070374
1	0x3dcba72b	0.09943994
2	0xbe2ae420	-0.16688585
3	0x3f91cebb	1.1391214
4	0x3f20f736	0.62877214
5	0xbeeb9a45	-0.46016136
6	0xbf7e43b7	-0.99322075
7	0xbe4aa0b0	-0.1978786
8	0x3f5d2abb	0.86393327
9	0xbf524732	-0.82139885
10	0xbecbed95	-0.39829698
11	0xbf690d14	-0.9103558
12	0x3f5b1855	0.85584
13	0xbdf50ebd	-0.11965702
14	0x3e8e7593	0.27824077
15	0x3f703ae1	0.9383984
16	0x3f3a286d	0.72717935
17	0xbf34ce05	-0.7062686
18	0xbf0528af	-0.52015203
19	0x3e0fbc16	0.14036593
20	0xbf0637e9	-0.5242906
21	0x3e48ea33	0.1962059
22	0xbf85a484	-1.0440831
23	0x3e5f9db2	0.218375
24	0x3f77066a	0.9649416
25	0xbf935e28	-1.1513109
26	0x3f0aefca	0.5427214
27	0x3ed2ff48	0.4121039
28	0x3c085c4d	0.0083227875
29	0x3e7f8fb2	0.24957159
30	0xbe88335a	-0.26601678
31	0x3e7b7c97	0.24559246
32	0x3f816dbb	1.0111612
33	0x3dd214b7	0.10257857
34	0xbefcdb55	-0.49386087
35	0x3d305d75	0.043057878
36	0x3f4fe6b0	0.81211376
37	0xbec59a4e	-0.38594288
38	0xbf61598a	-0.8802725
39	0x39abcfc1	0.0003277045
40	0x3f0c093b	0.54701585
41	0xbd801232	-0.062534705
42	0x3f0d9ba2	0.553156
43	0xbeda46cb	-0.42632136
44	0x3e65ee40	0.22454166
45	0xbf241440	-0.640934
46	0x3f7d1336	0.9885744
47	0xbd63e213	-0.055635523
48	0x3bf2eff3	0.007413858
49	0xbec795b7	-0.3898141
50	0xbe2d59a0	-0.1692872
51	0x3f16437e	0.58696735
52	0x3e163a05	0.1467057
53	0x3e6283fb	0.22120659
54	0x3f2c13ed	0.67217904
55	0xbe31f69b	-0.17379229
56	0x3f909123	1.1294292
57	0x3f6edfd5	0.9331029
58	0x3f08cacf	0.5343446
59	0xbe8dd845	-0.27704063
60	0xbf462098	-0.77393484
61	0xbefbd514	-0.49186003
62	0xbee1e7eb	-0.44122252
63	0xbf5bf0cf	-0.8591432
