8_gym-PPO/results/PPO_LunarLander-v3_1500-eps0.5.pth (torch, 44194 bytes, 11 tensors)

action_layer.0.weight f4 [64, 8]
-0.36194697 -0.10792741 -0.64561105 -0.4978223 0.46302372 0.40207562 -0.18149269 0.15468381
0.098633744 0.2749769 -0.11141296 0.40502393 0.4406641 -0.06482893 0.12038356 0.3010612
0.46590313 -0.07354998 0.17087576 0.57991284 -0.28418514 0.20236087 0.15389684 -0.17870247
0.09806166 0.13170715 0.08032271 0.33699337 -0.28739285 -0.41230625 0.2532629 0.018348785
0.10445112 -0.021805484 0.09633196 -0.42381552 -0.19579467 -0.018251669 0.21182936 -0.3839613
-0.26001337 -0.048185654 -0.39217094 -0.0948278 0.268025 -0.2231295 0.4149609 0.4442601
0.25893795 0.24777561 0.072399855 0.49262342 -0.37589002 0.09618058 -0.011360919 -0.17161182
-0.23070878 0.13609171 0.06834448 0.7511354 0.72658175 0.3178629 -0.1990902 0.027634028
-0.09457812 0.008684031 -0.56850713 -0.8047706 0.20133339 -0.20395589 0.21354842 0.30946496
-0.0020952905 0.17371376 0.10409442 -0.19815116 -0.63969857 -0.44695246 -0.013716878 -0.33603796
0.16849142 -0.058509953 -0.25876892 0.46406525 0.5461117 0.26051793 0.28217176 0.58544284
0.022544842 0.021491032 0.4964638 0.3837035 -0.49958265 -0.32006782 -0.43374524 0.010319763
-0.32324883 0.20043814 0.21162847 0.45709905 0.5482876 0.07757533 -0.1199797 -0.129227
-0.15488684 -0.17406046 -0.29966652 0.43547013 0.20262118 0.37039483 0.10618818 0.25159025
0.012507865 0.015635528 0.25769132 0.6778687 -0.19300154 0.19742988 0.20962408 -0.1815002
0.17013028 0.15644354 -0.5980768 0.0133085605 0.37501112 0.2807315 0.29780412 0.6290224
-0.00213837 0.10387029 0.49687788 -0.36420548 -0.22742955 0.0204475 -0.36673954 -0.16147089
0.16194591 0.27013415 -0.6504369 -0.1057159 0.37541926 0.025118165 0.41378888 0.18122983
-0.21898165 0.14411482 0.10521439 -0.51858956 -0.24248362 0.03741773 -0.13003749 0.2412086
0.13791354 -0.14167401 0.067895286 -0.52610725 -0.46627966 -0.008716618 -0.211703 -0.6221922
-0.084231354 -0.12523311 0.5335023 0.52549183 -0.16942498 -0.037550528 -0.14124265 -0.32646456
-0.10037303 -0.09230488 0.39931694 0.301591 -0.2560171 -0.12840343 0.010458134 0.05461382
-0.22697176 0.12908743 -0.37737706 -0.63981926 -0.37246296 0.15994568 -0.30408248 0.058669344
-0.17404231 0.22952445 -0.28975812 -0.6952173 0.20479079 -0.28223008 0.20288965 0.0042750677
-0.23159097 -0.30376363 -0.1650757 0.533257 0.44129008 0.17511459 -0.012861994 0.18028183
0.43387076 0.022089217 0.7251046 0.58479863 -0.54298085 -0.34201553 0.13567641 -0.13808523
0.38447595 -0.15592295 0.6188266 -0.038697258 -0.4570139 -0.26079962 -0.27864403 -0.19066036
0.25458115 -0.026533661 -0.21206743 -0.6753006 -0.50170875 -0.17315075 0.15908028 0.17856763
0.02659425 0.025016293 0.38122058 -0.5331869 -0.75362164 -0.6370191 -0.060870018 -0.6221406
-0.22636653 -0.2048568 -0.33070773 0.48040605 0.34661078 0.3260983 -0.14070924 0.18451072
0.22545479 0.2074006 -0.34294328 0.31115627 0.6406284 0.27999642 0.013984525 0.30117527
-0.23071884 -0.17733099 -0.38492694 -0.08410174 0.4282141 0.093648106 0.12274645 0.23439854
00000000: 1d51 b9be 0c09 ddbd c446 25bf 91e2 febe
00000010: 7211 ed3e dbdc cd3e 38d9 39be 6f65 1e3e
00000020: 7d00 ca3d c6c9 8c3e 7a2c e4bd 4c5f cf3e
00000030: ba9e e13e 08c5 84bd a88b f63d b224 9a3e
00000040: db8a ee3e 5fa1 96bd 0efa 2e3e 2b75 143f
00000050: b780 91be b037 4f3e 2297 1d3e c8fd 36be
00000060: 8dd4 c83d 3dde 063e 3c80 a43d 658a ac3e
00000070: 2825 93be ce19 d3be adab 813e 3150 963c
00000080: 78ea d53d 6aa1 b2bc b149 c53d 59fe d8be
00000090: 667e 48be 8684 95bc cce9 583e 9396 c4be
000000a0: 7920 85be 525e 45bd a1ca c8be 1435 c2bd
000000b0: 933a 893e 0f7c 64be c175 d43e 0f76 e33e
000000c0: 8493 843e e4b8 7d3e 6046 943d 2339 fc3e
000000d0: a874 c0be 53fa c43d 2623 3abc 02bb 2fbe
000000e0: ec3e 6cbe a05b 0b3e 31f8 8b3d 694a 403f
000000f0: 4301 3a3f edbe a23e 4dde 4bbe c260 e23c
00000100: 2cb2 c1bd 7747 0e3c af89 11bf 7205 4ebf
00000110: 572a 4e3e d0d9 50be 70ac 5a3e 3172 9e3e
00000120: 2451 09bb 05e2 313e 752f d53d 23e8 4abe
00000130: 49c3 23bf f4d6 e4be c2bc 60bc 2b0d acbe
00000140: 0489 2c3e 22a8 6fbd 5c7d 84be f699 ed3e
00000150: facd 0b3f 9b62 853e d178 903e 95df 153f
00000160: f6af b83c f60d b03c 8130 fe3e c974 c43e
00000170: 4cc9 ffbe eedf a3be db13 debe 3914 293c
00000180: df80 a5be a83f 4d3e 22b5 583e e308 ea3e
00000190: 935c 0c3f d1df 9e3d ebb7 f5bd 1554 04be
000001a0: a89a 1ebe e83c 32be e46d 99be f1f5 de3e
000001b0: ed7b 4f3e 64a4 bd3e 3079 d93d 70d0 803e
000001c0: caed 4c3c 1416 803c 1ef0 833e ce88 2d3f
000001d0: 32a2 45be 0f2b 4a3e b2a7 563e 30db 39be
000001e0: a236 2e3e bc32 203e 901b 19bf 260c 5a3c
000001f0: 7501 c03e 0abc 8f3e c879 983e 9d07 213f
00000200: e523 0cbb f2b9 d43d c766 fe3e 2479 babe
00000210: 4be3 68be 8481 a73c 49c5 bbbe a058 25be
00000220: 26d5 253e 064f 8a3e 0883 26bf 9481 d8bd
00000230: f436 c03e 9cc4 cd3c 23dc d33e 5094 393e
00000240: ba3c 60be d692 133e a47a d73d 49c2 04bf
00000250: a04d 78be 5543 193d 8c28 05be 63ff 763e
00000260: 3539 0d3e fe12 11be af0c 8b3d f7ae 06bf
00000270: 35bc eebe 25d0 0ebc acc8 58be fd47 1fbf
00000280: 7d81 acbd 1c3d 00be 9b93 083f a286 063f
00000290: be7d 2dbe 95ce 19bd eaa1 10be 5d26 a7be
000002a0: 6090 cdbd 570a bdbd 4573 cc3e 236a 9a3e
000002b0: ac14 83be 307c 03be 9858 2b3c beb2 5f3d
000002c0: 496b 68be 7f2f 043e 9137 c1be 32cb 23bf
000002d0: 77b3 bebe cdc8 233e b3b0 9bbe 444f 703d
000002e0: 2638 32be 7508 6b3e 2d5b 94be c3f9 31bf
000002f0: adb4 513e 7680 90be 4ec2 4f3e de15 8c3b
00000300: 2f26 6dbe e886 9bbe 9b09 29be 8883 083f
00000310: c6f0 e13e 3d51 333e 1dbb 52bc cd9b 383e
00000320: 4f24 de3e 72f4 b43c 74a0 393f 5db5 153f
00000330: cb00 0bbf a91c afbe c2ee 0a3e 3766 0dbe
00000340: 08da c43e 44aa 1fbe 6c6b 1e3f 0481 1ebd
00000350: bafd e9be 8787 85be 6eaa 8ebe 783c 43be
00000360: 7658 823e 1f5d d9bc 3428 59be 80e0 2cbf
00000370: fc6f 00bf 6e4e 31be f1e5 223e 6fda 363e
00000380: 2fdc d93c f8ee cc3c 582f c33e f07e 08bf
00000390: 59ed 40bf af13 23bf d752 79bd 9b44 1fbf
000003a0: a1cc 67be fbc5 51be 8652 a9be c8f7 f53e
000003b0: f876 b13e 5bf6 a63e 1516 10be 61f0 3c3e
000003c0: 9fdd 663e d360 543e 4396 afbe e04f 9f3e
000003d0: 3900 243f b15b 8f3e 591f 653c a533 9a3e
000003e0: 8f41 6cbe 4196 35be 2515 c5be 883d acbd
000003f0: e13e db3e 94ca bf3d 7e62 fb3d 2c06 703e

action_layer.0.bias f4 [64]
0.18511952 -0.24181119 -0.06888299 0.0060613733 0.01549901 -0.054227017 -0.0013298452 -0.02181546
0.0636777 -0.026829332 0.11928234 0.2335409 -0.23277454 0.19248335 -0.038679577 -0.09812721
-0.032127816 -0.31344703 -0.092203885 -0.01082388 0.23965658 0.100777626 0.016312279 -0.31002837
0.33184868 -0.03273084 0.07223191 -0.15420116 -0.06948676 0.18384083 -0.24338195 0.18090384
0.028531792 0.028448034 -0.0145578 -0.0024519882 0.013335009 -0.22769855 -0.08503679 0.26481327
-0.061758894 0.046384618 -0.1377504 0.20771419 0.14854696 0.0773681 -0.008385318 -0.06964758
0.020728173 0.1236875 0.0926176 -0.11361942 -0.07988356 0.102739796 -0.0015619773 -0.097838774
0.11228708 0.32603818 -0.18122594 0.20691608 -0.14429912 0.11577499 0.067028135 -0.024866387
00000000: f98f 3d3e 5a9d 77be 8612 8dbd 7c9e c63b
00000010: 8fef 7d3c 261d 5ebd 334e aeba 56b6 b2bc
00000020: 7469 823d 30c9 dbbc 4d4a f43d 5825 6f3e
00000030: 735c 6ebe 5b1a 453e 7a6e 1ebd ebf6 c8bd
00000040: 7598 03bd 217c a0be 64d5 bcbd a556 31bc
00000050: 8968 753e 8064 ce3d 54a1 853c 0abc 9ebe
00000060: 12e8 a93e c610 06bd 53ee 933d e9e6 1dbe
00000070: 134f 8ebd c540 3c3e 1e39 79be db3e 393e
00000080: 81bb e93c da0b e93c d783 6ebc 89b1 20bb
00000090: 157b 5a3c cf29 69be c527 aebd 9b95 873e
000000a0: e5f6 7cbd ccfd 3d3d 710e 0dbe 07b3 543e
000000b0: b21c 183e 2b73 9e3d 9362 09bc 64a3 8ebd
000000c0: 21ce a93c df4f fd3d 4cae bd3d 4cb1 e8bd
000000d0: fe99 a3bd 3e69 d23d 43bb ccba b25f c8bd
000000e0: c5f6 e53d 7aee a63e 4b93 39be cfe1 533e
000000f0: 26c3 13be 701b ed3d 0c46 893d 98b4 cbbc

action_layer.2.weight f4 [64, 64]
-0.14368705 -0.17317478 0.11586797 -0.014765 0.03549991 -0.023517486 0.0030840414 -0.046641696
-0.0024654497 0.101812765 -0.077926256 0.16576682 -0.22961794 -0.104070954 -0.015439948 -0.05619455
-0.018815923 -0.19468075 0.08301482 0.13629924 0.17610958 0.09148131 0.09382305 -0.26202545
-0.07259005 0.22819936 0.12651801 -0.06456049 0.40435958 -0.17115174 -0.20252055 0.030787226
-0.10489918 0.06555005 -0.21229164 -0.15957396 0.27190474 0.15392363 -0.021787109 0.2144241
-0.051015317 -0.02392214 -0.049555298 0.30884945 0.34738788 0.0028535686 0.38357437 0.005050564
0.1279489 -0.26721844 0.0069178883 0.024101073 -0.13547508 0.11457613 0.16303986 -0.06758846
0.312109 0.3432215 0.11637996 -0.003673601 -0.084031396 0.122641996 0.16081122 0.05756439
0.15278162 0.2432954 0.02231536 0.051648915 -0.12501183 0.16461696 -0.016269093 0.33258072
0.104051076 -0.21922071 0.07473538 -0.16027668 0.21606135 -0.022178886 0.028022453 0.10181654
-0.074333794 0.40366971 -0.117430545 0.006999844 -0.15969583 -0.1720183 0.022250311 0.11088295
0.11697884 -0.1676917 -0.11698895 0.069307655 -0.29373294 0.13395116 0.29727688 -0.08814535
-0.031198023 -0.066233516 0.21110234 -0.052620925 -0.36598513 -0.19057265 -0.12167432 -0.21283866
0.3067085 -0.0051483912 0.16244164 -0.31865332 -0.14151217 -0.12164502 -0.24757202 0.1673528
-0.11330133 0.10437664 0.12915808 -0.06943163 0.13754253 -0.0046357806 -0.2740457 -0.048573647
-0.38509235 -0.14287625 -0.050735805 -0.086087205 0.008360814 -0.027319506 -0.10328643 -0.07245156
-0.09394903 -0.27334544 0.03776467 0.030948702 0.2094136 -0.036005855 -0.00469014 -0.25559074
0.037637733 0.1586658 -0.4629047 0.16004847 -0.10253951 -0.30373648 0.0055212257 -0.23042873
0.034674622 -0.1695679 0.21645845 0.13609017 0.060031313 -0.061851308 0.18655102 0.1488163
-0.2687945 -0.048888084 0.15778099 0.1764195 0.5762676 -0.33222392 -0.23711072 -0.03430992
-0.13422659 -0.04211658 -0.09798672 -0.013001597 0.24137032 0.21779387 0.23576242 0.13788785
-0.3118586 0.27374694 0.08305297 0.29016498 0.1817044 0.08088225 0.35779777 -0.16678397
0.28336394 -0.13527924 -0.28757578 0.33952767 -0.2074486 -0.16238053 0.30344537 0.0978859
0.07641073 -0.11572569 0.12061134 0.016285336 -0.12882228 0.29691452 -0.057275105 0.16890544
-0.14646114 -0.22631964 -0.07590001 -0.04895945 0.10353177 -0.22715022 0.008117245 -0.2586573
0.03387922 0.1897913 -0.29533973 0.12762627 -0.21807444 -0.18183374 -0.030151866 -0.25465748
0.17913036 -0.14249246 0.12318239 0.12153466 0.07948644 -0.0069560595 0.19381899 0.13318127
-0.35949296 0.1295013 -0.025575405 0.11329715 0.65839726 -0.3330974 -0.37815288 -0.18504095
-0.088456795 -0.09033715 -0.1165262 0.024485705 0.40474436 0.07934306 0.08528042 0.2078265
-0.29268658 0.086809754 -0.008604167 0.11081077 0.22860566 0.09022525 0.43146604 -0.03107079
0.14668554 -0.22576432 -0.4035106 0.46110073 -0.30703178 0.049947873 0.29939914 0.1725981
0.21670437 -0.043537732 0.24133894 -0.0002693003 -0.08396447 0.1640851 0.07540685 0.14623536
00000000: b322 13be bb54 31be 304c ed3d e6e8 71bc
00000010: 5b68 113d bea7 c0bc a11d 4a3b 5d0b 3fbd
00000020: 6293 21bb 3683 d03d cd97 9fbd c7be 293e
00000030: f720 6bbe 2723 d5bd d6f7 7cbc 422c 66bd
00000040: da23 9abc 645a 47be ad03 aa3d 0792 0b3e
00000050: 1256 343e 8e5a bb3d 4d26 c03d 3328 86be
00000060: 18aa 94bd 18ad 693e f08d 013e 4a38 84bd
00000070: 3808 cf3e 6742 2fbe 8c61 4fbe 7e35 fc3c
00000080: 62d5 d6bd 1b3f 863d fb62 59be 5b67 23be
00000090: 1937 8b3e 289e 1d3e e17a b2bc fe91 5b3e
000000a0: 70f5 50bd 5df8 c3bc 7ffa 4abd 8421 9e3e
000000b0: d3dc b13e f002 3b3b dc63 c43e 347f a53b
000000c0: 0905 033e dbd0 88be 74af e23b 9d6f c53c
000000d0: fbb9 0abe e4a6 ea3d ecf3 263e d26b 8abd
000000e0: c0cc 9f3e baba af3e 9e58 ee3d ccc0 70bb
000000f0: a718 acbd ba2b fb3d b2ab 243e a3c8 6b3d
00000100: c972 1c3e 6e22 793e b4ce b63c d08d 533d
00000110: 1a03 00be 5991 283e c346 85bc 0548 aa3e
00000120: bb18 d53d 657b 60be dd0e 993d 921f 24be
00000130: 303f 5d3e 7fb0 b5bc 588f e53c 3185 d03d
00000140: 513c 98bd ccad ce3e 6d7f f0bd f35e e53b
00000150: 4e87 23be 9125 30be 4946 b63c 9a16 e33d
00000160: 9a92 ef3d 5fb7 2bbe e797 efbd 2cf1 8d3d
00000170: 2a64 96be 7e2a 093e ad34 983e 8d85 b4bd
00000180: ff92 ffbc 70a5 87bd 362b 583e 0a89 57bd
00000190: 6762 bbbe 7a25 43be 6330 f9bd 61f2 59be
000001a0: e608 9d3e d6b3 a8bb 1a57 263e 8726 a3be
000001b0: 91e8 10be 0621 f9bd 8583 7dbe 885e 2b3e
000001c0: 870a e8bd 6bc3 d53d 0442 043e 2c32 8ebd
000001d0: f3d7 0c3e bfe7 97bb b84f 8cbe 29f5 46bd
000001e0: d32a c5be 274e 12be 59d0 4fbd 7d4e b0bd
000001f0: ccfb 083c 28cd dfbc d687 d3bd 7c61 94bd
00000200: 5968 c0bd eff3 8bbe 20af 1a3d 2288 fd3c
00000210: 8570 563e e07a 13bd bfaf 99bb cadc 82be
00000220: 062a 1a3d 4a79 223e d801 edbe bfe3 233e
00000230: 3c00 d2bd 5983 9bbe 66eb b43b 82f5 6bbe
00000240: fa06 0e3d 35a3 2dbe 49a7 5d3e 395b 0b3e
00000250: 65e3 753d cc57 7dbd 3b07 3f3e 4d63 183e
00000260: 6f9f 89be df3e 48bd 5791 213e 50a7 343e
00000270: 4686 133f 4119 aabe 27cd 72be 8f88 0cbd
00000280: b272 09be 6f82 2cbd 43ad c8bd a604 55bc
00000290: c829 773e 5b05 5f3e b46b 713e 7932 0d3e
000002a0: eeab 9fbe 8f28 8c3e ad17 aa3d 8190 943e
000002b0: b810 3a3e 98a5 a53d 4531 b73e 6bc9 2abe
000002c0: 1415 913e a486 0abe 223d 93be 92d6 ad3e
000002d0: 686d 54be 1547 26be 315d 9b3e 6778 c83d
000002e0: 3b7d 9c3d 9701 edbd 1403 f73d d368 853c
000002f0: fde9 03be 2e05 983e 4d99 6abd 8cf5 2c3e
00000300: e9f9 15be 56c0 67be 7771 9bbd b489 48bd
00000310: 7708 d43d 119a 68be 31fe 043c bb6e 84be
00000320: f0c4 0a3d a758 423e c536 97be 76b0 023e
00000330: e84e 5fbe a032 3abe 0c01 f7bc 7762 82be
00000340: f36d 373e 8be9 11be 0d47 fc3d 2ae7 f83d
00000350: c9c9 a23d a8ef e3bb 7c78 463e ac60 083e
00000360: 760f b8be fd9b 043e 8383 d1bc 5608 e83d
00000370: b98c 283f be8b aabe 419d c1be 607b 3dbe
00000380: d628 b5bd af02 b9bd 4aa5 eebd 3f96 c83c
00000390: a73a cf3e 9d7e a23d 80a7 ae3d 78d0 543e
000003a0: 04db 95be 50c9 b13d 7ef8 0cbc c2f0 e23d
000003b0: 9a17 6a3e 04c8 b83d 1ee9 dc3e 2b88 febc
000003c0: bc34 163e c32e 67be f198 cebe 6515 ec3e
000003d0: 4533 9dbe 2496 4c3d d84a 993e 8ebd 303e
000003e0: c0e7 5d3e 9f54 32bd 8e21 773e e030 8db9
000003f0: 90f5 abbd ed05 283e e86e 9a3d b9be 153e

action_layer.2.bias f4 [64]
0.10125593 -0.01260609 -0.011128904 0.078177296 0.06686151 -0.124003194 -0.019878704 0.1406196
0.11866694 -0.076694764 -0.17097796 -0.14882936 0.05043139 -0.084830984 0.054229673 -0.031303715
-0.024970284 0.020273494 0.07744196 -0.04238277 0.12338844 -0.040174127 -0.0034596743 0.1844183
-0.024885328 0.05275292 0.0015492744 -0.10887053 -0.06399112 -0.10487018 0.011932798 -0.13499048
0.061300177 -0.118306756 -0.046021216 0.009186572 -0.124532074 0.0067272903 0.041286428 -0.061912786
0.038112216 -0.0849495 -0.08193838 -0.03498479 0.0041638627 -0.08229367 0.06377802 0.09732476
-0.013604882 -0.052630097 -0.02659638 -0.24895005 0.06167477 0.064172916 0.11572008 -0.074258514
0.023199873 -0.055178348 0.14120099 0.032364186 0.09853702 -0.07925238 0.03697627 -0.016144112
00000000: 455f cf3d c689 4ebc 0256 36bc 6b1b a03d
00000010: b0ee 883d 63f5 fdbd aad8 a2bc 96fe 0f3e
00000020: a707 f33d 2512 9dbd d914 2fbe b966 18be
00000030: 2591 4e3d debb adbd ef1f 5e3d 5338 00bd
00000040: 7b8e ccbc 9914 a63c e499 9e3d 8e99 2dbd
00000050: 14b3 fc3d a08d 24bd b4bb 62bb 27d8 3c3e
00000060: 51dc cbbc 7213 583d 0611 cb3a 83f7 debd
00000070: c70d 83bd 2dc6 d6bd c881 433c f23a 0abe
00000080: e515 7b3d d04a f2bd be80 3cbd 4783 163c
00000090: ac0a ffbd 9a70 dc3b f51b 293d 4398 7dbd
000000a0: 8e1b 1c3d 01fa adbd 4fcf a7bd 364c 0fbd
000000b0: 0371 883b 9589 a8bd 0d9e 823d 3452 c73d
000000c0: 03e7 5ebc a892 57bd a7e0 d9bc c3ec 7ebe
000000d0: af9e 7c3d 176d 833d a6fe ec3d d914 98bd
000000e0: a90d be3c b102 62bd fe96 103e 4f90 043d
000000f0: c7cd c93d 124f a2bd 6e74 173d a840 84bc

action_layer.4.weight f4 [4, 64]
-0.0012920381 0.060044162 -0.007912777 0.027910907 0.036607604 0.05087204 -0.028720373 -0.072972916
0.0054326532 0.056728367 -0.0650683 0.15897301 -0.002953078 -0.023874288 0.070170455 -0.021473678
-0.13663453 -0.024123896 -0.16643658 0.11701287 -0.23305136 0.049428433 0.06698474 0.1297217
0.21756847 0.14567915 0.044864126 -0.21472256 -0.020791426 0.10252434 0.13942468 -0.0015441242
-0.26494068 -0.09699184 -0.12667663 0.05978659 -0.06879976 0.15939176 0.10091462 0.009454459
0.044523 0.015898976 0.09553635 -0.17435543 0.15285675 0.12738998 -0.15473795 0.16630651
0.16127458 0.06903367 -0.1079503 -0.25381058 -0.19442412 -0.05603638 0.08315488 0.1003852
-0.046304356 -0.07359495 0.10755856 0.09726636 0.1037627 0.15189755 -0.11546196 -0.20053288
0.18485564 -0.24837819 0.07884268 0.17083685 0.11003676 -0.30459195 -0.025958797 -0.118066154
0.1514435 -0.46326858 0.16269141 0.104208305 -0.29180405 0.115362704 0.17787935 0.06895502
-0.16819327 0.3953359 -0.0126995575 -0.07800724 -0.16037361 -0.21639289 0.19511539 -0.14935791
0.10254371 -0.12670441 0.23452878 -0.5211699 -0.17504428 0.12645967 0.3371256 -0.08362653
-0.2387432 -0.36859718 -0.17781429 0.16738382 0.039328355 -0.29047695 0.068886794 -0.39519688
0.12907788 0.11340485 -0.1476094 0.22572194 0.061397426 0.10945771 0.2896882 -0.13377531
-0.105674386 -0.3447851 0.25426874 0.010616401 -0.23454237 0.11372832 0.2885683 0.08835734
-0.115061745 0.34432277 0.11941726 -0.23658964 0.24719664 -0.38349262 0.15045899 -0.43675318
0.036135778 -0.060919233 0.24197565 0.22589946 -0.10723102 -0.1862173 0.21792656 0.1957284
0.04852464 0.14601813 -0.18858495 -0.52594656 0.026603533 -0.21126135 0.05235617 -0.007751323
0.23224847 -0.2642236 0.3746632 -0.47536525 0.36676905 0.092046484 -0.227464 0.16830344
-0.38337222 -0.23044674 -0.07265844 0.40647227 0.0033428771 -0.2155406 -0.15738627 -0.19700031
0.43973017 0.19580965 0.40158528 -0.15156448 0.020504583 -0.024642302 -0.31162587 0.0379651
0.119816594 -0.31560767 -0.2433546 0.24704663 -0.2509969 -0.24337952 0.05850799 -0.23779042
-0.44800708 0.12372774 0.109621644 -0.13317624 0.40362784 0.33892447 -0.047415305 -0.16226555
0.17014262 -0.12037826 0.18573491 -0.19615111 -0.111616366 -0.15169272 0.24389243 0.22145233
-0.1943373 0.31226954 -0.40385205 -0.4918554 -0.17982294 0.4467989 -0.11560596 -0.1636008
-0.41687807 0.27291662 0.20356618 0.1175463 0.05396628 -0.0145315025 -0.23815344 0.017344993
-0.05669157 -0.21561064 -0.2621228 0.370816 -0.19907802 0.1391152 -0.17416991 -0.13748501
0.26841566 0.36807734 -0.1466969 0.07153664 -0.007986256 0.1627235 -0.20786762 0.3742958
-0.047545325 0.22759065 0.039359637 0.09742382 0.35622764 0.27205473 0.2273452 0.23455861
-0.2539244 0.18732353 0.27982646 -0.3830894 0.21782154 0.077686556 -0.37753114 0.1629996
0.4690679 0.33287776 -0.3498455 0.056298 -0.08868934 -0.21414733 -0.3484322 0.16873156
-0.043368697 -0.1533745 -0.30459026 0.4173989 -0.08212746 0.41631877 -0.44634092 0.19066985
00000000: 9b59 a9ba def0 753d 98a4 01bc 6aa5 e43c
00000010: dbf1 153d 335f 503d fd46 ebbc d372 95bd
00000020: 6604 b23b 015c 683d 8742 85bd d2c9 223e
00000030: 6d88 41bb 0394 c3bc 87b5 8f3d 91e9 afbc
00000040: ece9 0bbe 7a9f c5bc 5a6e 2abe 72a4 ef3d
00000050: 04a5 6ebe 7875 4a3d 4c2f 893d c4d5 043e
00000060: 45ca 5e3e ea2c 153e 72c3 373d 3be0 5bbe
00000070: c852 aabc 48f8 d13d 58c5 0e3e 3664 caba
00000080: 4ea6 87be a8a3 c6bd 85b7 01be c9e2 743d
00000090: e3e6 8cbd 9837 233e 53ac ce3d e0e6 1a3c
000000a0: c05d 363d 923e 823c 90a8 c33d 3b8a 32be
000000b0: 7b86 1c3e 8572 023e a073 1ebe 414c 2a3e
000000c0: 2a25 253e 8661 8d3d 0c15 ddbd 76f3 81be
000000d0: 1e17 47be 6786 65bd 1b4d aa3d c196 cd3d
000000e0: a3a9 3dbd f3b8 96bd aa47 dc3d 9633 c73d
000000f0: 8a81 d43d 088b 1b3e 5277 ecbd 7e58 4dbe
00000100: cc4a 3d3e da56 7ebe 4578 a13d dbef 2e3e
00000110: f45a e13d 7af3 9bbe 8ba7 d4bc abcc f1bd
00000120: 0114 1b3e 8a31 edbe 9498 263e 2a6b d53d
00000130: 5767 95be 4843 ec3d 0126 363e 4a38 8d3d
00000140: db3a 2cbe 7869 ca3e ce11 50bc 43c2 9fbd
00000150: fb38 24be 1996 5dbe 54cc 473e 48f1 18be
00000160: 7002 d23d cdbe 01be 5028 703e 646b 05bf
00000170: cf3e 33be a57e 013e ba9b ac3e 6344 abbd
00000180: 1979 74be c5b8 bcbe f314 36be aa66 2b3e
00000190: c516 213d 65b9 94be 8514 8d3d 3f57 cabe
000001a0: fe2c 043e cd40 e83d eb26 17be a723 673e
000001b0: de7b 7b3d 5d2b e03d 0352 943e 65fc 08be
000001c0: d06b d8bd ac87 b0be 832f 823e 6af0 2d3c
000001d0: e02b 70be 65ea e83d 39bf 933e b1f4 b43d
000001e0: 7ea5 ebbd 134b b03e 0991 f43d 8e44 72be
000001f0: 1e21 7d3e 2559 c4be ec11 1a3e 1d9e dfbe
00000200: 1c03 143d 7286 79bd 77c8 773e 3052 673e
00000210: f09b dbbd bfaf 3ebe 2428 5f3e 076d 483e
00000220: c6c1 463d c785 153e 6a1c 41be 6fa4 06bf
00000230: a7ef d93c e554 58be 6c73 563d cffe fdbb
00000240: 8bd2 6d3e 5148 87be dbd3 bf3e 1363 f3be
00000250: 27c9 bb3e de82 bc3d 53ec 68be bd57 2c3e
00000260: 5d49 c4be 3bfa 6bbe f3cd 94bd 221d d03e
00000270: 2c14 5b3b adb6 5cbe de29 21be 73ba 49be
00000280: 5024 e13e 5382 483e 969c cd3e b833 1bbe
00000290: 3af9 a73c a7de c9bc 6d8d 9fbe 4b81 1b3d
000002a0: 6762 f53d 5497 a1be f331 79be cbf9 7c3e
000002b0: aa82 80be 7b38 79be 13a6 6f3d 557f 73be
000002c0: 2f61 e5be f864 fd3d 5081 e03d 5a5f 08be
000002d0: 4fa8 ce3e 8287 ad3e 8d36 42bd f128 26be
000002e0: de39 2e3e e188 f6bd 4b31 3e3e d6db 48be
000002f0: 1f97 e4bd 5655 1bbe f0be 793e 66c4 623e
00000300: 5b00 47be cbe1 9f3e b2c5 cebe 79d4 fbbe
00000310: 8123 38be d3c2 e43e d1c2 ecbd f886 27be
00000320: 0b71 d5be babb 8b3e a773 503e 1dbc f03d
00000330: bf0b 5d3d 8a15 6ebc 7fde 73be 1617 8e3c
00000340: 6b35 68bd 09c9 5cbe f634 86be 98db bd3e
00000350: 1cdb 4bbe 3774 0e3e 9959 32be dfc8 0cbe
00000360: c76d 893e a274 bc3e b637 16be cd81 923d
00000370: c9d8 02bc fda0 263e 40db 54be b3a3 bf3e
00000380: e3be 42bd 860d 693e 9237 213d 2486 c73d
00000390: 7863 b63e c24a 8b3e 2ecd 683e 2230 703e
000003a0: 6102 82be bdd1 3f3e 6a45 8f3e 4b24 c4be
000003b0: 9c0c 5f3e 211a 9f3d c34b c1be 5ee9 263e
000003c0: ab29 f03e f46e aa3e f31e b3be bb98 663d
000003d0: c2a2 b5bd 7049 5bbe b565 b2be f7c7 2c3e
000003e0: 60a3 31bd 340e 1dbe 41f3 9bbe 4fb5 d53e
000003f0: 7132 a8bd bc27 d53e cc86 e4be f53e 433e

action_layer.4.bias f4 [4]
-0.0038419287 -0.098395005 0.189358 -0.06311939
00000000: dec8 7bbb 5283 c9bd 10e7 413e bd44 81bd

value_layer.0.weight f4 [64, 8]
-0.07920626 -0.17342158 0.11299731 -0.031847596 0.15547107 -0.08338115 -0.20829892 0.048676323
0.12757815 -0.058874708 -0.07071712 0.31251252 -0.20127289 0.08246631 -0.15000436 -0.03507195
0.17302795 0.24385609 0.09774683 -0.104938254 -0.28323358 0.1754151 0.177379 0.2964811
-0.29251277 0.096942596 0.04132253 -0.005118839 -0.2208356 -0.26922497 0.21008371 -0.17599863
0.16967274 0.14066057 -0.16519465 0.021908857 0.0571791 0.10356514 0.29938808 -0.1860355
0.16753902 -0.13263786 0.2488588 0.21185985 -0.21106002 -0.08006394 0.10931056 -0.2111662
-0.16863713 0.14337546 -0.31733927 -0.24562949 -0.22988138 0.04152196 -0.2272987 -0.08234232
-0.20933312 -0.1562692 -0.32157153 -0.07438407 -0.12187276 -0.15445678 0.1902477 0.23711327
0.11882133 -0.11605179 0.21304043 0.1431773 0.13876331 0.09781802 0.16685423 -0.22574733
0.34243205 -0.20495632 -0.060018223 -0.11351207 -0.15724954 0.14715609 -0.3536149 0.22951266
-0.17986766 0.20638613 0.14601386 0.02246637 -0.28717706 0.3338094 0.044566143 -0.08346744
0.19212754 0.29306048 -0.006641353 -0.22068477 -0.21684915 0.2544536 -0.24552135 -0.27029735
0.19775559 0.3068426 -0.014408479 0.06757476 -0.06615758 -0.2211483 0.020458052 0.3410612
0.04841697 -0.18956867 0.15322101 -0.045083627 0.30325767 -0.32796088 0.2259538 -0.28454202
-0.26115215 -0.13618408 0.22419196 0.13859102 0.3348614 -0.106667735 -0.1465385 0.23595513
0.08247739 0.068872996 -0.07685825 0.19244847 0.20912156 0.18661271 -0.1319344 -0.067385264
0.01978627 -0.27209318 0.15158395 -0.14532079 -0.14893909 0.13362725 0.16365908 0.27326652
-0.04118516 0.26404163 0.013021337 -0.118946046 0.051314242 -0.23466188 -0.35596883 0.03340222
0.1173568 -0.11184282 0.02577423 -0.012235112 0.0067319646 -0.06553883 0.047126513 -0.22392744
-0.33569926 -0.12617745 0.26745084 0.29480535 -0.12357558 -0.32654873 0.15827201 -0.20950478
-0.32881528 -0.22565424 0.19945362 0.24834043 0.20399322 0.29995254 -0.24719116 -0.24495374
0.052831747 -0.02789295 -0.25707835 0.13239068 0.330194 -0.27780297 -0.04016593 0.12029597
-0.09204669 -0.15208033 0.14658155 0.08150319 0.13707876 0.16149652 0.18482399 -0.3188062
0.27485502 0.046860136 0.18411702 0.28080717 -0.27018762 -0.043445524 -0.17312106 0.19164534
-0.13698831 -0.26280606 -0.06505059 -0.05177675 -0.08323554 -0.033169646 0.26408112 -0.097371824
0.2254967 -0.24274284 -0.05458402 0.072934754 -0.22888546 0.05138368 -0.23522776 -0.24327901
-0.18974489 -0.11735119 -0.11200642 -0.18995051 0.3346774 -0.34910706 0.18439324 -0.3335947
0.16842256 -0.20862544 0.06903089 0.12544732 -0.34747335 0.060105823 -0.1007692 -0.29506636
0.32449976 -0.10331291 -0.16791116 -0.050535645 0.22347397 0.3504318 0.30699587 0.005803087
0.07353125 0.29967773 0.25519252 0.27004427 0.15018786 -0.1759855 -0.18434578 -0.23998947
-0.0230103 0.18592158 0.23751368 -0.0011328211 0.1403187 -0.23132464 0.033402104 0.2639609
0.23391803 -0.08717802 -0.25570813 0.29358715 0.28971615 0.29077017 0.009394105 0.11899327
00000000: e436 a2bd 6d95 31be 226b e73d a072 02bd
00000010: cf33 1f3e bdc3 aabd 504c 55be d360 473d
00000020: d9a3 023e 9b26 71bd 23d4 90bd a401 a03e
00000030: 7b1a 4ebe 19e4 a83d be9a 19be 9ba7 0fbd
00000040: 3d2e 313e 69b5 793e 7d2f c83d dee9 d6bd
00000050: fe03 91be 04a0 333e d7a2 353e 5fcc 973e
00000060: 3cc4 95be d789 c63d d041 293d efbb a7bb
00000070: ba22 62be dbd7 89be 2f20 573e fc38 34be
00000080: b1be 2d3e 5309 103e c928 29be 347a b33c
00000090: a234 6a3d f619 d43d 6549 993e 1780 3ebe
000000a0: 598f 2b3e 38d2 07be d7d4 7e3e caf1 583e
000000b0: 1e20 58be 90f8 a3bd 37de df3d f43b 58be
000000c0: 36af 2cbe 04d1 123e 4b7a a2be 4c86 7bbe
000000d0: 0666 6bbe ee12 2a3d fec0 68be 17a3 a8bd
000000e0: 6c5b 56be 0805 20be 06a5 a4be ad56 98bd
000000f0: 6d98 f9bd eb29 1ebe 4bd0 423e d2cd 723e
00000100: 9958 f33d 90ac edbd 4527 5a3e 129d 123e
00000110: f817 0e3e d054 c83d d6db 2a3e 4f2a 67be
00000120: 4153 af3e 12e0 51be abd5 75bd 0479 e8bd
00000130: 0606 21be 16b0 163e 030d b5be 5e05 6b3e
00000140: 3a2f 38be e356 533e a884 153e 650b b83c
00000150: df08 93be 11e9 aa3e fd8a 363d faf0 aabd
00000160: 15bd 443e 060c 963e b59f d9bb 30fb 61be
00000170: b40d 5ebe be47 823e f369 7bbe 6a64 8abe
00000180: 7180 4a3e 791a 9d3e 8b11 6cbc a364 8a3d
00000190: a07d 87bd b374 62be a597 a73c 939f ae3e
000001a0: df50 463d 4a1e 42be f8e5 1c3e 9ca9 38bd
000001b0: 9744 9b3e 7dea a7be 6f60 673e 7eaf 91be
000001c0: bcb5 85be d773 0bbe 9492 653e ceea 0d3e
000001d0: f472 ab3e 9d74 dabd 300e 16be 399e 713e
000001e0: e8e9 a83d 490d 8d3d dc67 9dbd 3611 453e
000001f0: f623 563e 6717 3f3e d019 07be 4901 8abd
00000200: d116 a23c cc4f 8bbe d338 1b3e f9ce 14be
00000210: 7d83 18be 95d5 083e 3f96 273e 97e9 8b3e
00000220: c5b1 28bd 7730 873e 7257 553c fc99 f3bd
00000230: e22e 523d 344b 70be 8c41 b6be c4d0 083d
00000240: c358 f03d d90d e5bd 7a24 d33c c775 48bc
00000250: d097 dc3b 3939 86bd bb07 413d 3c4d 65be
00000260: c6e0 abbe a934 01be 51ef 883e baf0 963e
00000270: 3215 fdbd 6531 a7be 0f12 223e 6c88 56be
00000280: 7a5a a8be e811 67be 923d 4c3e f44c 7e3e
00000290: 99e3 503e 6193 993e ae1f 7dbe 27d5 7abe
000002a0: 1a66 583d c27f e4bc c69f 83be 6c91 073e
000002b0: 300f a93e 313c 8ebe 0885 24bd bc5d f63d
000002c0: fa82 bcbd f2ba 1bbe 7919 163e 25eb a63d
000002d0: 605e 0c3e 585f 253e 8042 3d3e 913a a3be
000002e0: ccb9 8c3e 6af0 3f3d 2c89 3c3e f5c5 8f3e
000002f0: 0856 8abe eff3 31bd a646 31be ad3e 443e
00000300: aa46 0cbe 848e 86be 3e39 85bd db13 54bd
00000310: 6577 aabd e5dc 07bd a435 873e e16a c7bd
00000320: 9be8 663e 9491 78be 7e93 5fbd d15e 953d
00000330: f360 6abe b277 523d 8cdf 70be 221e 79be
00000340: 7c4c 42be d255 f0bd 9f63 e5bd 6382 42be
00000350: d65a ab3e 29be b2be 95d1 3c3e edcc aabe
00000360: f776 2c3e e8a1 55be 1160 8d3d 4375 003e
00000370: 07e8 b1be 8631 763d 1560 cebd f012 97be
00000380: d524 a63e b895 d3bd e7f0 2bbe 77fe 4ebd
00000390: 5cd6 643e cc6b b33e 902e 9d3e d227 be3b
000003a0: 8d97 963d 5c6f 993e 98a8 823e 3e43 8a3e
000003b0: d9ca 193e 8b35 34be 24c5 3cbe cdbf 75be
000003c0: 1980 bcbc 3a62 3e3e c936 733e 2b7b 94ba
000003d0: b5af 0f3e 5ee0 6cbe a5d0 083d e225 873e
000003e0: 3588 6f3e 648a b2bd 2dec 82be 0e51 963e
000003f0: ad55 943e d4df 943e bbe9 193c beb2 f33d

value_layer.0.bias f4 [64]
-0.124228224 0.32489368 -0.1766224 0.13202906 -0.15784483 -0.13867126 -0.33322704 0.2068382
0.062519096 -0.1493407 0.30973798 -0.18117896 -0.23158461 0.043682188 0.15199526 -0.18457721
-0.121187806 -0.33798125 0.15289278 -0.12896582 -0.2531201 0.34559694 -0.27234846 0.022038031
0.30958244 0.0025977711 0.12140646 0.22212176 -0.21547322 -0.2935259 -0.19390954 0.26273194
0.240901 -0.087213986 -0.30866084 0.2799179 0.079769984 0.31121767 0.27992943 0.05821958
-0.05827651 -0.08840384 -0.2675635 -0.180069 -0.30785134 -0.08144361 0.18415157 0.023780022
0.13876392 -0.01776541 -0.3117168 0.07539707 -0.28570983 -0.16132921 0.03288316 -0.14136039
0.11024152 0.16900049 -0.29023784 -0.16704437 -0.09110822 -0.1464227 0.11652389 -0.26320317
00000000: 5e6b febd 7758 a63e 81dc 34be a032 073e
00000010: 13a2 21be d7ff 0dbe bc9c aabe 65cd 533e
00000020: 030a 803d c5ec 18be fa95 9e3e fa86 39be
00000030: 8424 6dbe 18ec 323d a5a4 1b3e cf01 3dbe
00000040: 5031 f8bd e10b adbe ed8f 1c3e 9e0f 04be
00000050: f598 81be 15f2 b03e 4271 8bbe 1a89 b43c
00000060: 9781 9e3e 5e3f 2a3b f3a3 f83d e373 633e
00000070: 03a5 5cbe 0749 96be 3990 46be cd84 863e
00000080: c0ae 763e 3f9d b2bd cb08 9ebe 6651 8f3e
00000090: 725e a33d ec57 9f3e e952 8f3e a877 6e3d
000000a0: 5ab3 6ebd 130d b5bd 15fe 88be 0264 38be
000000b0: b19e 9dbe e8cb a6bd 3b92 3c3e 52ce c23c
000000c0: 2118 0e3e c488 91bc 5899 9fbe c769 9a3d
000000d0: 8f48 92be 7c33 25be 7eb0 063d c7c0 10be
000000e0: 4ec6 e13d 770e 2d3e 0e9a 94be ae0d 2bbe
000000f0: f296 babd d5ef 15be 14a4 ee3d 91c2 86be

value_layer.2.weight f4 [64, 64]
0.04070926 -0.034541767 0.08893294 -0.11229855 -0.0676845 0.11141099 -0.09436814 -0.110267885
-0.08252507 -0.055082135 -0.029687654 0.080043875 -0.089977555 -0.026033636 0.09997003 0.053761404
-0.006017674 0.041386917 -0.118211634 0.08618539 0.109877385 -0.05691004 0.096565805 0.032422416
-0.10165544 0.048675034 0.0054081813 -0.017101185 0.018945064 -0.053698186 0.008432078 0.11674063
0.12392134 -0.085653424 -0.08108943 0.10675603 0.023938967 -0.07209822 -0.059339184 0.0033816355
-0.024946554 0.096779115 -0.092464484 0.004262503 0.108653985 0.11381837 0.10542 -0.035313964
-0.086564794 -0.008213675 0.10944315 0.05942222 0.010756543 0.03090086 -0.05975935 -0.118094884
-0.031046312 0.061361466 0.03087983 0.06221992 -0.027639305 -0.11403952 -0.09532045 -0.114664234
0.02468191 0.09062158 -0.023181153 -0.065664805 0.06997222 -0.06812889 -0.0040175593 0.07091694
-0.04536868 -0.105749935 -0.038285885 -0.04194335 0.110860825 -0.018131096 0.11587139 -0.03096048
0.060003456 0.055546124 0.09840799 -0.00080873107 0.07603352 0.006087518 -0.016051035 0.11787407
-0.12547664 0.02185803 -0.09245325 0.09719814 -0.04461676 -0.050408307 -0.098930165 -0.06437075
0.11127906 0.06044692 0.11614386 -0.13165238 0.084488384 -0.059299443 -0.050156068 0.041357268
0.057801962 0.025771936 0.09612414 -0.072850235 0.11188179 0.023228182 0.035844497 0.10959365
-0.009748825 -0.024685677 -0.07317228 -0.105025195 0.11526239 -0.1161993 -0.008264306 0.0314374
0.0772423 -0.11997502 -0.012979788 -0.06299491 0.03806498 -0.057900913 0.040225584 0.124036536
-0.039579414 0.021013131 -0.046153028 0.041163858 -0.12118698 -0.0029196655 0.12098536 -0.046998817
-0.027022744 -0.074553296 0.07668428 0.12319171 -0.011136372 -0.09903648 0.08160351 -0.041612983
0.06899673 -0.058917306 -0.01072158 0.04875187 0.119237736 0.108994246 0.11441877 -0.06582953
0.06400165 -0.053535823 0.047365185 -0.06120203 -0.082142435 0.0052018766 -0.09604412 -0.07317041
-0.09291269 -0.05762204 -0.08931739 0.027084611 0.043994576 0.03902886 0.09483117 -0.08802043
0.048242033 -0.09704556 0.09109244 -0.10170364 0.046280317 0.08003453 0.0623629 -0.123498894
-0.016568156 -0.08953939 -0.087942876 -0.033229664 -0.082322545 0.07212648 0.07915397 -0.05213037
0.0020838715 0.0700716 -0.0015775239 -0.0042262007 -0.05022339 -0.021165784 -0.062418886 0.001191524
0.12624514 -0.017006226 0.09794289 0.038314216 0.041473996 0.023928773 -0.109634794 0.054472324
-0.04271742 -0.04297507 0.04758919 -0.026276471 0.012100912 0.09568241 -0.008881316 0.00093044963
-0.016975505 0.12569676 -0.026813997 0.088345855 0.024204863 -0.01994332 -0.06247882 0.088415734
-0.053780325 -0.039397765 0.0803916 -0.011299885 0.011158026 0.078994706 -0.07250584 0.0868205
0.12249836 -0.077073894 -0.071878366 0.033310667 0.07847759 0.06894191 -0.068132825 -0.03669711
0.09914308 0.036827747 -0.037518967 0.08375135 -0.05463429 -0.009202494 -0.041899316 0.06754097
-0.118766144 -0.06345101 0.07373464 0.0024363655 0.07064871 -0.12072204 0.05233094 -0.055874147
0.05311811 -0.12360423 -0.06341029 0.026912251 0.010182487 -0.008556153 0.084763795 -0.09552117
00000000: c1be 263d ab7b 0dbd 7922 b63d c8fc e5bd
00000010: 2c9e 8abd 722b e43d 1544 c1bd 21d4 e1bd
00000020: e702 a9bd ce9d 61bd 8633 f3bc 0bee a33d
00000030: 2746 b8bd 7e44 d5bc 16bd cc3d eb34 5c3d
00000040: e92f c5bb 5485 293d f118 f2bd f781 b03d
00000050: 6507 e13d 811a 69bd 4bc4 c53d 5ecd 043d
00000060: ba30 d0bd 795f 473d 1d37 b13b c917 8cbc
00000070: ae32 9b3c a1f2 5bbd b326 0a3c b615 ef3d
00000080: 79ca fd3d 106b afbd 3712 a6bd e8a2 da3d
00000090: a71b c43c 3ba8 93bd a50d 73bd 6e9e 5d3b
000000a0: b75c ccbc 2134 c63d 055e bdbd 77ac 8b3b
000000b0: fb85 de3d 9b19 e93d 71e6 d73d 60a5 10bd
000000c0: e248 b1bd a692 06bc bb23 e03d b764 733d
000000d0: 363c 303c cd23 fd3c 38c6 74bd bbdb f1bd
000000e0: d654 febc 2956 7b3d b2f7 fc3c 51da 7e3d
000000f0: d36b e2bc 8d8d e9bd 5e37 c3bd 15d5 eabd
00000100: b831 ca3c cf97 b93d 67e6 bdbc 457b 86bd
00000110: 984d 8f3d 2987 8bbd bba5 83bb e73c 913d
00000120: 82d4 39bd 6c93 d8bd a9d1 1cbd cacc 2bbd
00000130: 000b e33d aa87 94bc fb4d ed3d d5a0 fdbc
00000140: 2fc6 753d 5584 633d 218a c93d 0601 54ba
00000150: 76b7 9b3d cd79 c73b 767d 83bc f667 f13d
00000160: f37c 00be 9d0f b33c 2158 bdbd d20f c73d
00000170: 10c0 36bd f178 4ebd e69b cabd d0d4 83bd
00000180: 47e6 e33d 3197 773d d5dc ed3d e2cf 06be
00000190: 3f08 ad3d f9e3 72bd 7370 4dbd 3d66 293d
000001a0: c0c1 6c3d ab1f d33c bcdc c43d 8132 95bd
000001b0: 4822 e53d 0749 be3c aed1 123d a372 e03d
000001c0: 89b9 1fbc 9e39 cabc 59db 95bd 7317 d7bd
000001d0: b00e ec3d e6f9 edbd 0367 07bc 81c4 003d
000001e0: 3631 9e3d 77b5 f5bd 2da9 54bc 7a03 81bd
000001f0: 06ea 1b3d 8229 6dbd 95c3 243d de06 fe3d
00000200: 061e 22bd bb23 ac3c f50a 3dbd 6f9b 283d
00000210: e130 f8bd dc57 3fbb 2cc7 f73d d581 40bd
00000220: cd5e ddbc 66af 98bd a60c 9d3d ef4b fc3d
00000230: 5475 36bc a3d3 cabd be1f a73d 6072 2abd
00000240: 284e 8d3d 4653 71bd 91a9 2fbc 0ab0 473d
00000250: ea32 f43d 6038 df3d 6354 ea3d a2d1 86bd
00000260: 4c13 833d 6148 5bbd ff01 423d fbae 7abd
00000270: 4b3a a8bd 8174 aa3b c8b2 c4bd 5eda 95bd
00000280: 0249 bebd 1705 6cbd 09ec b6bd 8ce0 dd3c
00000290: a833 343d badc 1f3d d836 c23d 0e44 b4bd
000002a0: 7099 453d d3bf c6bd ac8e ba3d ff49 d0bd
000002b0: 6e90 3d3d 25e9 a33d 3d70 7f3d fdec fcbd
000002c0: f1b9 87bc 6d60 b7bd 651b b4bd d41b 08bd
000002d0: b998 a8bd 0cb7 933d 7a1b a23d a886 55bd
000002e0: 9091 083b b381 8f3d ebc4 ceba f17b 8abb
000002f0: 0bb7 4dbd de63 adbc f2aa 7fbd e92c 9c3a
00000300: 6846 013e a450 8bbc 4896 c83d 5eef 1c3d
00000310: a3e0 293d 4606 c43c 3588 e0bd 5f1e 5f3d
00000320: 76f8 2ebd a106 30bd e2ec 423d c141 d7bc
00000330: e742 463c 24f5 c33d f082 11bc 6be9 733a
00000340: 3710 8bbc a7b6 003e 07a9 dbbc acee b43d
00000350: 4749 c63c 2c60 a3bc cbe9 7fbd 4f13 b53d
00000360: c248 5cbd 8d5f 21bd 5aa4 a43d 2723 39bc
00000370: 27d0 363c fac7 a13d f17d 94bd f2ce b13d
00000380: 6ce0 fa3d ebd8 9dbd f734 93bd c470 083d
00000390: dcb8 a03d 6b31 8d3d 3989 8bbd b54f 16bd
000003a0: 870b cb3d b1d8 163d 7dad 19bd d485 ab3d
000003b0: 35c8 5fbd 0fc6 16bc 9e9e 2bbd ec52 8a3d
000003c0: aa3b f3bd 9af2 81bd 3002 973d 6eab 1f3b
000003d0: 45b0 903d 1e3d f7bd f858 563d 4adc 64bd
000003e0: 6092 593d 3724 fdbd 41dd 81bd 1577 dc3c
000003f0: 72d4 263c 1b2f 0cbc a498 ad3d 9aa0 c3bd

value_layer.2.bias f4 [64]
-0.017103791 0.113596134 -0.11558483 -0.06505647 0.10450459 0.04341136 -0.021142071 -0.07401585
0.086291134 0.071147956 -0.015140243 0.049603127 0.11549178 -0.089827225 0.06635248 -0.009589166
0.06431471 -0.11364027 0.027194062 -0.029234605 -0.11760108 -0.03613151 0.067218736 -0.0486428
-0.11932658 -0.09745662 -0.07622117 0.036656264 -0.030726435 0.108124405 0.07723386 -0.113575704
-0.053527817 -0.05370164 0.10990294 -0.018457625 0.09282743 0.025191851 -0.0072187306 0.031924833
0.1270541 -0.096289515 0.07471671 -0.0019122938 0.009826527 0.050214514 0.12044485 -0.124489784
-0.044936214 -0.08833834 -0.05202534 0.11278993 0.0458812 0.046544086 -0.1160734 -0.08396024
0.019837469 0.09746388 0.100924164 -0.061507124 -0.04616982 -0.086043686 0.10270346 0.026769767
00000000: 401d 8cbc 17a5 e83d bdb7 ecbd 543c 85bd
00000010: 8106 d63d 1cd0 313d 2332 adbc 9f95 97bd
00000020: 68b9 b03d 05b6 913d c80e 78bc a62c 4b3d
00000030: f486 ec3d 56f7 b7bd cfe3 873d e11b 1dbc
00000040: 6eb7 833d 3bbc e8bd 15c6 de3c 697d efbc
00000050: d6d8 f0bd a2fe 13bd faa9 893d ac3d 47bd
00000060: 7e61 f4bd 5697 c7bd d819 9cbd e124 163d
00000070: 01b6 fbbc 5470 dd3d c92c 9e3d 619a e8bd
00000080: fc3f 5bbd 40f6 5bbd cb14 e13d 7234 97bc
00000090: 4f1c be3d 245f ce3c 1a8b ecbb 9dc3 023d
000000a0: 781a 023e 7033 c5bd 1305 993d efa5 faba
000000b0: 71ff 203c bcad 4d3d caab f63d 80f4 febd
000000c0: 090f 38bd bbea b4bd 8618 55bd 68fe e63d
000000d0: eded 3b3d 03a5 3e3d e4b7 edbd 59f3 abbd
000000e0: 3082 a23c 259b c73d 54b1 ce3d e5ee 7bbd
000000f0: 911c 3dbd ac37 b0bd 3156 d23d 454c db3c

value_layer.4.weight f4 [1, 64]
-0.114024706 -0.022983015 -0.09313657 -0.046023045 0.024331657 -0.09994114 -0.1003986 0.097487666
0.08111186 -0.0031019908 -0.030795554 0.043813586 0.0076597207 -0.034460224 0.04255471 -0.056424417
-0.10775744 0.006289323 -0.07921231 -0.013017203 -0.04073765 0.090412065 0.027270526 -0.090423435
-0.097942606 -0.11082569 -0.00059198873 -0.022418385 0.0347068 -0.05643846 -0.023139823 -0.07147794
-0.11334605 -0.041794114 0.0039420975 0.08218728 0.11454734 -0.06092684 0.008460973 0.00066384295
0.018999662 -0.00011934323 -0.054206118 -0.009575969 0.0610952 0.012557588 0.0990075 -0.09890486
0.0076704873 0.050275195 -0.09934558 -0.018856715 -0.0020538198 -0.08342572 -0.10570029 -0.024107374
-0.051936086 -0.0032878479 0.0276118 0.05624109 0.09033904 -0.02927196 -0.018283939 0.00025097543
00000000: c985 e9bd e046 bcbc 63be bebd a982 3cbd
00000010: 2f53 c73c f1ad ccbd c89d cdbd 9da7 c73d
00000020: fa1d a63d c54a 4bbb f546 fcbc e075 333d
00000030: 65fe fa3b 2a26 0dbd d94d 2e3d 4a1d 67bd
00000040: efaf dcbd aa16 ce3b 103a a2bd 1b46 55bc
00000050: 86dc 26bd f629 b93d 7066 df3c ec2f b9bd
00000060: 2296 c8bd 94f8 e2bd b12f 1bba c3a6 b7bc
00000070: b828 0e3d 042c 67bd ba8f bdbc 0763 92bd
00000080: f921 e8bd 4e30 2bbd b62c 813b ce51 a83d
00000090: cc97 ea3d 6c8e 79bd e59f 0a3c bf05 2e3a
000000a0: 2ea5 9b3c e947 fab8 3c07 5ebd 86e4 1cbc
000000b0: f63e 7a3d 57be 4d3c 72c4 ca3d a28e cabd
000000c0: b658 fb3b 5ded 4d3d b275 cbbd 6679 9abc
000000d0: 6199 06bb 1bdb aabd 6579 d8bd d47c c5bc
000000e0: efba 54bd ef78 57bb 2432 e23c 0f5d 663d
000000f0: ad03 b93d c0cb efbc 33c8 95bc 5a95 8339
