8_gym-PPO/results/PPO_LunarLander-v3_2000-eps0.5.pth (torch, 44194 bytes, 11 tensors)

action_layer.0.weight f4 [64, 8]
-0.29694754 -0.117289014 -0.5567733 -0.69148564 0.5344947 0.5842628 -0.18159229 0.15451364
0.17208184 0.2888473 -0.20570126 0.4968068 0.39826453 -0.04433724 0.12071825 0.30884057
0.43887168 -0.03692266 0.12034038 0.71279985 -0.33507878 0.114308536 0.1540527 -0.17655295
0.052286647 0.13394666 -0.013641026 0.494489 -0.34528366 -0.55256444 0.25331488 0.019874413
0.054942075 -0.043385044 0.16106118 -0.5177623 -0.16714011 -0.01956345 0.2117116 -0.38949713
-0.18493506 -0.023423903 -0.36845848 -0.140317 0.29734552 -0.08823967 0.41495797 0.44981295
0.21812458 0.24260652 -0.02510768 0.6644199 -0.44898513 -0.028801495 -0.011262914 -0.17094219
-0.20561445 0.14548926 -0.016936166 0.84926724 0.68407714 0.28625897 -0.19881979 0.033728477
-0.059475806 -0.0071093333 -0.4839324 -0.96620446 0.2634979 -0.07205251 0.21339303 0.30650374
-0.045453712 0.15356413 0.1472357 -0.21863596 -0.6316882 -0.53034484 -0.013899325 -0.34099242
0.20125125 -0.046686452 -0.32429993 0.5178716 0.5281267 0.3350971 0.2824842 0.59315306
-0.056805674 0.0026610452 0.42193538 0.52045053 -0.54999393 -0.5043076 -0.43373305 0.0074191154
-0.28970638 0.2140924 0.117885135 0.55690706 0.49537283 0.028918596 -0.119761266 -0.123219475
-0.11891712 -0.1527561 -0.31948486 0.45866618 0.21903537 0.43903393 0.10628146 0.25671387
-0.008457843 0.03693926 0.18206641 0.82835865 -0.244648 0.077503085 0.20988597 -0.17871131
0.26315582 0.15956472 -0.6112635 -0.016484214 0.4013301 0.44845733 0.2979146 0.63702136
-0.06168984 0.066487946 0.5337199 -0.37497345 -0.24513285 -0.08172096 -0.36683565 -0.16744469
0.26013744 0.2837313 -0.6700722 -0.13112044 0.3902208 0.182456 0.41390085 0.18755436
-0.21444143 0.114820674 0.16301517 -0.5987059 -0.20708306 0.029749636 -0.13023014 0.23519678
0.0768674 -0.1420158 0.15174417 -0.6255064 -0.42790297 -0.01174143 -0.2119325 -0.62898004
-0.13893077 -0.12522605 0.46075776 0.6756125 -0.2181236 -0.19261512 -0.14114785 -0.32642686
-0.1662864 -0.090178184 0.34125558 0.43329558 -0.29181847 -0.29517204 0.010481935 0.05372482
-0.18968192 0.10805686 -0.27369073 -0.76736283 -0.30075115 0.2274306 -0.30435666 0.05268882
-0.12696981 0.2169265 -0.22186024 -0.83090764 0.2471189 -0.1739818 0.20270802 0.0016151022
-0.22385052 -0.28222385 -0.2046173 0.5757238 0.43397778 0.20759684 -0.0127097545 0.1853434
0.36392906 0.025626294 0.6424662 0.77864593 -0.6099476 -0.5149079 0.13574933 -0.13826337
0.2680921 -0.16014926 0.60331273 0.01754944 -0.49827117 -0.41500404 -0.2786716 -0.19495295
0.24871927 -0.02931628 -0.1238571 -0.7888635 -0.4576061 -0.1066069 0.15882768 0.17373791
-0.027730972 0.012582048 0.4385189 -0.57691765 -0.74134606 -0.7096523 -0.06111169 -0.6295223
-0.18716262 -0.1780445 -0.35355717 0.5015888 0.3599172 0.3974623 -0.14059258 0.18981265
0.30004624 0.22262496 -0.4083002 0.36172593 0.620145 0.36878183 0.014226152 0.30831468
-0.18742707 -0.17358118 -0.3211549 -0.2274563 0.49958822 0.30568784 0.12272262 0.23741852
00000000: 8209 98be 3935 f0bd b288 0ebf 3405 31bf
00000010: a5d4 083f 3f92 153f 54f3 39be d338 1e3e
00000020: 3936 303e cbe3 933e 5aa3 52be 765d fe3e
00000030: 54e9 cb3e f79a 35bd 213b f73d 5a20 9e3e
00000040: cab3 e03e 373c 17bd 0475 f63d 0d7a 363f
00000050: 728f abbe 981a ea3d febf 1d3e 4cca 34be
00000060: 862a 563d 5029 093e 9c7e 5fbc aa2d fd3e
00000070: 05c9 b0be dd74 0dbf 7db2 813e aacf a23c
00000080: f10a 613d 84b4 31bd 39ed 243e 128c 04bf
00000090: c726 2bbe 8743 a0bc edca 583e 2b6c c7be
000000a0: 9e5f 3dbe 7ce3 bfbc 97a6 bcbe 42af 0fbe
000000b0: ac3d 983e 00b7 b4bd 5f75 d43e e24d e63e
000000c0: 0d5c 5f3e d86d 783e 9fae cdbc 6c17 2a3f
000000d0: 61e1 e5be 1df1 ebbc 1688 38bc 780b 2fbe
000000e0: 988c 52be 23fb 143e b7bd 8abc 9469 593f
000000f0: ae1f 2f3f 8990 923e 6a97 4bbe df26 0a3d
00000100: e79c 73bd 69f5 e8bb fdc5 f7be 2d59 77bf
00000110: 32e9 863e 4490 93bd b483 5a3e 0fee 9c3e
00000120: ac2d 3abd ea3f 1d3e f5c4 163e 1be2 5fbe
00000130: 51b6 21bf aec4 07bf ffb9 63bc 8f96 aebe
00000140: cf14 4e3e 4b3a 3fbd a40a a6be 3c93 043f
00000150: 5033 073f d991 ab3e c5a1 903e e1d8 173f
00000160: 11ad 68bd ee64 2e3b ea07 d83e 3f3c 053f
00000170: 67cc 0cbf 4e1a 01bf 4212 debe 0d1c f33b
00000180: 6554 94be 0a3b 5b3e c36d f13d 7691 0e3f
00000190: 82a1 fd3e b1e6 ec3c 6545 f5bd 7e5a fcbd
000001a0: d28a f3bd 186c 1cbe 8593 a3be 4bd6 ea3e
000001b0: cf4a 603e 0ec9 e03e 18aa d93d 0070 833e
000001c0: c492 0abc 9f4d 173d 9e6f 3a3e 500f 543f
000001d0: 0185 7abe f0b9 9e3d 59ec 563e 1900 37be
000001e0: 5cbc 863e ef64 233e c47b 1cbf e709 87bc
000001f0: 247b cd3e 339c e53e 4388 983e d513 233f
00000200: 7cae 7cbd d52a 883d dea1 083f 85fc bfbe
00000210: 1b04 7bbe 525d a7bd e2d1 bbbe 9f76 2bbe
00000220: bc30 853e 3b45 913e da89 2bbf 7044 06be
00000230: 05cb c73e bfd5 3a3e d0ea d33e 400e 403e
00000240: 8996 5bbe 1a27 eb3d 73ed 263e ca44 19bf
00000250: 950d 54be 82b5 f33c 0d5b 05be 6dd7 703e
00000260: a86c 9d3d 976c 11be d362 1b3e 3021 20bf
00000270: 1916 dbbe 205f 40bc d504 59be d604 21bf
00000280: de43 0ebe 423b 00be 71e8 eb3e f1f4 2c3f
00000290: cb5b 5fbe e63c 45be 1089 10be 6c21 a7be
000002a0: fb46 2abe 57af b8bd 0db9 ae3e ebd8 dd3e
000002b0: 3b69 95be ca20 97be 6cbc 2b3c 8f0e 5c3d
000002c0: fa3b 42be ea4c dd3d 3121 8cbe e471 44bf
000002d0: 0efc 99be 91e3 683e a3d4 9bbe 3bd0 573d
000002e0: 6004 02be fb21 5e3e 552f 63be 5db6 54bf
000002f0: bd0c 7d3e 4928 32be b192 4f3e d6b1 d33a
00000300: 1239 65be a57f 90be 3387 51be a362 133f
00000310: 5632 de3e 4494 543e 933c 50bc a9ca 3d3e
00000320: e954 ba3e 3cee d13c aa78 243f 5755 473f
00000330: 8725 1cbf 01d1 03bf df01 0b3e ea94 0dbe
00000340: 5e43 893e 2bfe 23be b472 1a3f d8c3 8f3c
00000350: 661d ffbe 697b d4be 0bae 8ebe bfa1 47be
00000360: 44b0 7e3e b228 f0bc cba8 fdbd f5f2 49bf
00000370: 594b eabe b854 dabd b9a3 223e 5ae8 313e
00000380: 102c e3bc ef24 4e3c 8d85 e03e e0b0 13bf
00000390: dbc8 3dbf c6ab 35bf 4050 7abd 6028 21bf
000003a0: 8fa7 3fbe 4c51 36be 7205 b5be 2068 003f
000003b0: 1147 b83e 2e80 cb3e 80f7 0fbe 3f5e 423e
000003c0: a99f 993e ccf7 633e b90c d1be 2434 b93e
000003d0: d3c1 1e3f f9d0 bc3e ce14 693c 6cdb 9d3e
000003e0: e2ec 3fbe 44bf 31be 6a6e a4be 4eea 68be
000003f0: 07ca ff3e 1e83 9c3e ff55 fb3d d71d 733e

action_layer.0.bias f4 [64]
0.20956802 -0.21743342 -0.052572817 -0.018392546 -0.004015496 -0.005600517 -0.02627008 -0.013384769
0.07078427 -0.061834786 0.1401242 0.17784539 -0.21849477 0.22124782 -0.03814605 -0.05621833
-0.08298467 -0.26208672 -0.112433374 -0.016837956 0.20755512 0.062734105 0.012903049 -0.2986337
0.35200304 -0.06374088 0.028313022 -0.14848314 -0.09645787 0.2182615 -0.2089188 0.20999528
0.053576 0.037571527 0.020098183 0.023827238 -0.025939994 -0.26412693 -0.1247003 0.24127463
-0.052239522 0.040485024 -0.12278955 0.17211136 0.10370492 0.03548056 -0.048147365 -0.010670476
0.0015464267 0.1669483 0.100687504 -0.13624938 -0.07331759 0.10039354 -0.034990933 -0.094356686
0.062720805 0.30358925 -0.20643908 0.21184419 -0.11255954 0.10472327 0.04878256 -0.033440225
00000000: 0099 563e dea6 5ebe 9856 57bd f7ab 96bc
00000010: 6c94 83bb 8b84 b7bb 5a34 d7bc ca4b 5bbc
00000020: 58f7 903d 7946 7dbd b87c 0f3e 1a1d 363e
00000030: 18bd 5fbe ca8e 623e 083f 1cbd 3145 66bd
00000040: def3 a9bd 3b30 86be 7843 e6bd c1ef 89bc
00000050: 5489 543e bd7a 803d 4f67 533c 84e6 98be
00000060: be39 b43e 948a 82bd b6f0 e73c f70b 18be
00000070: b48b c5bd f17f 5f3e cfee 55be 0109 573e
00000080: 8272 5b3d 9ae4 193d f2a4 a43c 5731 c33c
00000090: 1c80 d4bc a53b 87be df62 ffbd b210 773e
000000a0: 1cf9 55bd a0d3 253d 1679 fbbd f63d 303e
000000b0: 3f63 d43d 1054 113d 2c36 45bd 38d3 2ebc
000000c0: 78b1 ca3a 7ff4 2a3e 4035 ce3d f584 0bbe
000000d0: 8827 96bd 219b cd3d a752 0fbd 143e c1bd
000000e0: c473 803d 0d70 9b3e c464 53be afed 583e
000000f0: 9e85 e6bd 2779 d63d 39d0 473d 9ef8 08bd

action_layer.2.weight f4 [64, 64]
-0.1929907 -0.06210296 0.090239525 0.033623055 -0.029410142 0.05483585 -0.016861051 -0.038899787
-0.00035774472 0.13470744 -0.21270573 0.15654248 -0.09567372 -0.17981893 -0.015689204 -0.09559857
-0.028632637 -0.11766927 0.10020987 0.111865744 0.13219145 0.11504864 0.083230294 -0.09794946
-0.12982482 0.24157518 0.10213707 -0.054406717 0.575574 -0.21168603 -0.19702625 -0.016548164
-0.12577651 0.06269787 -0.18231298 -0.15485445 0.39276117 0.22455801 -0.040542513 0.16102433
-0.14307933 -0.02205551 -0.0081644645 0.2042192 0.30240718 0.00053412805 0.52719194 0.022582533
0.16279744 -0.311777 -0.0357736 0.103724144 -0.08290537 0.08497197 0.3079911 -0.06425931
0.31128123 0.16747181 0.18673831 -0.14787559 -0.030869875 0.10779905 0.12651089 0.13920982
0.20375916 0.14875023 0.046966832 0.0047002467 -0.07206224 0.09661173 0.005348518 0.32820532
0.10795012 -0.25402704 0.22367543 -0.15705597 0.08239334 0.058897022 0.025406359 0.15781765
-0.0745954 0.35583684 -0.1384476 0.027536085 -0.13568382 -0.20909661 0.03552659 -0.0352112
0.17566645 -0.18828642 -0.10406561 0.06259944 -0.47895816 0.18060252 0.30997002 -0.027578285
-0.0013495892 -0.0597209 0.20011 -0.04990621 -0.49581757 -0.26706597 -0.108344376 -0.16456166
0.40664163 -0.002372058 0.13046366 -0.23946634 -0.11231285 -0.12683016 -0.39863425 0.16023754
-0.14910392 0.15733804 0.17218935 -0.16458786 0.092188574 0.025063979 -0.43614665 -0.04966599
-0.39703906 0.012841603 -0.1243438 0.05616222 -0.041520346 -0.021164428 -0.076484576 -0.1637763
-0.111983865 -0.2571203 0.02206341 0.037975993 0.23451684 -0.014185635 -0.0321335 -0.31916416
0.05683714 0.1803716 -0.5721694 0.14577165 -0.087093286 -0.38038737 -0.02307701 -0.25295568
0.054126717 -0.14306551 0.24170178 0.15754235 0.008431442 -0.06854949 0.18709677 0.22899254
-0.3479119 -0.041858293 0.17920803 0.22162554 0.7410262 -0.39437044 -0.25590593 -0.07067895
-0.17331015 -0.028250284 -0.10316426 -0.014061425 0.2935676 0.23320974 0.24633606 0.15805733
-0.44000855 0.33670586 0.09889502 0.31461328 0.18225078 0.09658985 0.41726005 -0.18722817
0.31630483 -0.1711568 -0.3999793 0.45842737 -0.26021802 -0.18953952 0.4646707 0.16473043
0.111681215 -0.19134773 0.1942593 -0.00029454715 -0.09762979 0.33546844 -0.065005936 0.25960654
-0.18422106 -0.18137693 -0.08140137 -0.006133323 0.096474715 -0.18143561 -0.01187323 -0.32223946
0.04136954 0.22770654 -0.41466802 0.11753544 -0.18338872 -0.24711175 -0.040516473 -0.28051776
0.17768608 -0.08916116 0.1340237 0.13548854 0.023365013 0.00020287753 0.1865318 0.21703014
-0.4316008 0.15315491 -0.009134482 0.16362424 0.8405167 -0.38132977 -0.3924851 -0.23509243
-0.12618107 -0.06956439 -0.12567073 0.0156018585 0.47806925 0.12109361 0.08476632 0.22022499
-0.42680064 0.14548281 0.005270695 0.101808935 0.2085328 0.09254774 0.50977206 -0.030011771
0.1949721 -0.27318063 -0.5001158 0.5777536 -0.33051398 0.01473509 0.4631413 0.22956175
0.2666471 -0.13092965 0.30005187 -0.04907884 -0.043293934 0.18164667 0.068576366 0.22289616
00000000: 5b9f 45be ac5f 7ebd 80cf b83d 54b8 093d
00000010: 8aed f0bc 8e9b 603d 3020 8abc 6255 1fbd
00000020: af8f bbb9 bff0 093e 88cf 59be ac4c 203e
00000030: 95f0 c3bd 7422 38be a586 80bc 2fc9 c3bd
00000040: fe8e eabc 96fc f0bd d53a cd3d de19 e53d
00000050: 325d 073e 9f9e eb3d a574 aa3d ba99 c8bd
00000060: ccf0 04be 7c5f 773e 3d2d d13d 94d9 5ebd
00000070: d158 133f 39c4 58be 40c1 49be 0490 87bc
00000080: 8fcb 00be be67 803d 41b0 3abe 2a92 1ebe
00000090: fe17 c93e 89f2 653e e80f 26bd 90e3 243e
000000a0: 6383 12be c2ad b4bc 3fc4 05bc d71e 513e
000000b0: 1dd5 9a3e ba04 0c3a 0df6 063f 01ff b83c
000000c0: 5fb4 263e 3ca1 9fbe 5787 12bd 536d d43d
000000d0: 4aca a9bd c905 ae3d 02b1 9d3e 639a 83bd
000000e0: 4160 9f3e bb7d 2b3e 5438 3f3e b36c 17be
000000f0: d2e2 fcbc c0c5 dc3d 128c 013e 058d 0e3e
00000100: 3ea6 503e fb51 183e 4b60 403d 8704 9a3b
00000110: 5e95 93bd 5fdc c53d 9f42 af3b 870a a83e
00000120: f414 dd3d d50f 82be 2c0b 653e 48d3 20be
00000130: d7bd a83d 013e 713d ff20 d03c f39a 213e
00000140: 79c5 98bd 3f30 b63e 35c5 0dbe 5b93 e13c
00000150: b3f0 0abe 6c1d 56be 5484 113d 9f39 10bd
00000160: e8e1 333e 28ce 40be 5a20 d5bd 2334 803d
00000170: 013a f5be deef 383e 64b4 9e3e dbeb e1bc
00000180: b3e4 b0ba e79d 74bd a3e9 4c3e 746a 4cbd
00000190: cddb fdbe dfbc 88be a8e3 ddbd da82 28be
000001a0: 5533 d03e 8874 1bbb 4498 053e aa36 75be
000001b0: 4804 e6bd c4df 01be ca19 ccbe 4f15 243e
000001c0: b3ae 18be 391d 213e 6852 303e b889 28be
000001d0: 5dcd bc3d f952 cd3c 9d4e dfbe 916e 4bbd
000001e0: b448 cbbe 9665 523c f6a7 febd 5b0a 663d
000001f0: 3d11 2abd 0661 adbc f2a3 9cbd f9b4 27be
00000200: cc57 e5bd 46a5 83be 53be b43c b78c 1b3d
00000210: 2f25 703e de6a 68bc 6b9e 03bd 7c69 a3be
00000220: 10ce 683d 55b3 383e b279 12bf 2a45 153e
00000230: f75d b2bd 22c2 c2be ff0b bdbc 6883 81be
00000240: fab3 5d3d c47f 12be ac80 773e c852 213e
00000250: 0824 0a3c ad63 8cbd 4c96 3f3e 057d 6a3e
00000260: 8221 b2be 9a73 2bbd 4f82 373e cef1 623e
00000270: e5b3 3d3f ecea c9be 1a06 83be 20c0 90bd
00000280: 3778 31be 246d e7bc c947 d3bd e461 66bc
00000290: 7e4e 963e 89ce 6e3e 853f 7c3e c8d9 213e
000002a0: cd48 e1be b664 ac3e 7989 ca3d fe14 a13e
000002b0: f39f 3a3e e6d0 c53d 1ca3 d53e beb8 3fbe
000002c0: b5f2 a13e ba43 2fbe 16ca ccbe feb6 ea3e
000002d0: 4c3b 85be a616 42be 51e9 ed3e 18af 283e
000002e0: 1fb9 e43d a9f0 43be e9eb 463e 736d 9ab9
000002f0: 21f2 c7bd 85c2 ab3e d521 85bd 26eb 843e
00000300: 72a4 3cbe e0ba 39be c3b5 a6bd 0bfa c8bb
00000310: 8994 c53d 42ca 39be f087 42bc 92fc a4be
00000320: 1b73 293d e72b 693e 5e4f d4be 6cb6 f03d
00000330: 41ca 3bbe dd0a 7dbe 9af4 25bd 06a0 8fbe
00000340: 57f3 353e 209a b6bd 823d 093e 82bd 0a3e
00000350: fc67 bf3c 86bb 5439 3102 3f3e 263d 5e3e
00000360: c8fa dcbe a4d4 1c3e cba8 15bc 1d8d 273e
00000370: 1a2c 573f a83d c3be cff3 c8be 12bc 70be
00000380: 9c35 01be c677 8ebd d4af 00be f09e 7f3c
00000390: 7ec5 f43e edff f73d f799 ad3d a982 613e
000003a0: 9d85 dabe 72f9 143e cbb5 ac3b 3481 d03d
000003b0: 9f89 553e ab89 bd3d 6c80 023f 3fdb f5bc
000003c0: c4a6 473e 55de 8bbe 9707 00bf a9e7 133f
000003d0: 2139 a9be 726b 713c db20 ed3e 3c12 6b3e
000003e0: f885 883e 6c12 06be 66a0 993e e506 49bd
000003f0: fb54 31bd 9601 3a3e c471 8c3d e43e 643e

action_layer.2.bias f4 [64]
0.063311055 0.02272205 -0.022055719 0.053875074 0.034580085 -0.09537631 -0.03401302 0.11797363
0.08592685 -0.01635843 -0.16319941 -0.12873603 0.08995731 -0.08444707 0.018398125 -0.03269054
-0.027623434 -0.023948586 0.055388674 -0.024307104 0.1008707 0.0026163098 -0.03942711 0.20500144
-0.0049290024 0.06345088 -0.039019264 -0.07108519 -0.04179673 -0.08410989 -0.04497937 -0.11739511
0.062312886 -0.065500215 -0.042646892 0.011595028 -0.094401725 0.038776614 0.05281963 -0.010682706
0.022044968 -0.06301114 -0.061700925 -0.04056434 0.015834317 -0.063245766 0.042770505 0.10279928
0.005350944 0.0042826016 -0.045128454 -0.29918927 0.05536613 0.050255507 0.07288936 -0.048095435
0.013194545 -0.09928154 0.11968464 0.051325865 0.059469838 -0.05184854 0.019977683 0.035411045
00000000: 3aa9 813d 9823 ba3c 32ae b4bc 1cac 5c3d
00000010: d9a3 0d3d a854 c3bd 3d51 0bbd 299c f13d
00000020: 6bfa af3d 1d02 86bc bf1d 27be 61d3 03be
00000030: 8a3b b83d 96f2 acbd aab7 963c 84e6 05bd
00000040: 8a4a e2bc d32f c4bc 3cdf 623d b11f c7bc
00000050: 4c95 ce3d 6576 2b3b 527e 21bd e6eb 513e
00000060: 7883 a1bb 89f2 813d aad2 1fbd 1d95 91bd
00000070: 0c33 2bbd ce41 acbd 4a3c 38bd d96c f0bd
00000080: cc3b 7f3d fa24 86bd 82ae 2ebd 13f9 3d3c
00000090: b155 c1bd 3ad4 1e3d 6559 583d 8406 2fbc
000000a0: a697 b43c fc0b 81bd 1cba 7cbd cb26 26bd
000000b0: f8b6 813c ff86 81bd 2030 2f3d 6e88 d23d
000000c0: f956 af3b 1155 8c3b 9dd8 38bd 562f 99be
000000d0: 98c7 623d b8d8 4d3d 0447 953d b8ff 44bd
000000e0: ef2d 583c 1f54 cbbd 381d f53d 123b 523d
000000f0: a596 733d 225f 54bd 3da8 a33c 2c0b 113d

action_layer.4.weight f4 [4, 64]
-0.07159151 0.17854199 -0.15479043 -0.08515923 0.038969867 0.18349396 -0.17172919 -0.19170655
-0.10309521 0.017246924 -0.010372885 0.30667675 -0.052917246 0.11866666 -0.057670787 0.017510818
-0.27274573 0.064149685 -0.340698 0.28599808 -0.36646348 -0.019271346 0.12520862 0.10509328
0.38536355 0.27686548 0.068102665 -0.3261568 -0.10921702 0.222128 0.17514525 0.13885948
-0.39712128 -0.1622313 -0.26839823 0.15047064 0.0014475954 0.2114702 0.2528343 -0.0068541085
-0.08980763 0.11474389 0.2489704 -0.27989733 0.330886 0.2594214 -0.21185559 0.23107979
0.31671268 0.0615865 -0.21047714 -0.2623098 -0.32784435 -0.1930671 0.04766422 0.26795793
-0.18238162 -0.027819086 -0.0022688308 0.21272106 0.17873736 0.24304485 -0.27270836 -0.24685931
0.20406345 -0.26211074 0.1135407 0.19412044 0.25166687 -0.31249967 -0.054266296 -0.15564539
0.17306367 -0.54967105 0.1987643 0.2519637 -0.37039268 0.26043552 0.24223675 0.08867644
-0.33327156 0.5657299 -0.027186433 -0.07454622 -0.2765339 -0.340511 0.40116876 -0.17566696
0.15822357 -0.120309286 0.3583468 -0.8005794 -0.29784113 0.17873551 0.45098412 -0.106489
-0.49046174 -0.4881872 -0.4458548 0.2532801 -0.017078433 -0.32307434 0.09872703 -0.44778904
0.15791197 0.14365499 -0.13731478 0.22466698 0.07433481 0.23584394 0.29769236 -0.14283025
-0.10239174 -0.40299726 0.26187375 0.031606276 -0.43894023 0.09868347 0.33166632 0.09031837
-0.2375633 0.454107 0.15272452 -0.2408167 0.4344626 -0.3909645 0.14149497 -0.60287684
0.0760533 -0.13141209 0.35543475 0.3288166 -0.16365613 -0.28384456 0.3197132 0.26667973
0.1291769 0.18502632 -0.21540265 -0.6603835 0.06901277 -0.31569657 0.09856472 -0.04314869
0.36594245 -0.3437742 0.49043274 -0.6084265 0.47758877 0.15465479 -0.3340043 0.17444609
-0.49132314 -0.34929192 -0.124277204 0.5546409 0.078680865 -0.29251805 -0.21677996 -0.29987052
0.6146286 0.26462984 0.5655005 -0.22163893 -0.020796498 -0.05424768 -0.41411227 0.050601304
0.20189713 -0.37286758 -0.36402053 0.35170364 -0.3605026 -0.35419756 0.11260418 -0.30258834
-0.59928924 0.13758853 0.1798448 -0.12439834 0.54560554 0.4496928 -0.02913677 -0.25705966
0.26749346 -0.16422358 0.25796327 -0.2996862 -0.21982488 -0.2284419 0.37898472 0.30917025
-0.22031778 0.35366276 -0.51904446 -0.5977447 -0.23087813 0.5191465 -0.1061205 -0.13338189
-0.4790736 0.30770114 0.15135172 0.07901958 0.08317056 -0.060010403 -0.27694947 0.010635589
-0.006574828 -0.2543487 -0.28336903 0.442571 -0.15483803 0.17629628 -0.2132008 -0.096165426
0.24662398 0.45118412 -0.18927014 0.0979224 0.029777952 0.12524849 -0.25200105 0.46711856
-0.01249737 0.26600853 0.07497722 0.053558435 0.41188753 0.2976131 0.2157104 0.2683869
-0.30882066 0.15266252 0.35552397 -0.45231777 0.22199 0.027259069 -0.4187263 0.19413069
0.58450234 0.368116 -0.3878317 0.028305585 -0.052935824 -0.25076854 -0.3971307 0.18331355
0.0022758152 -0.18882872 -0.351336 0.5015917 -0.1228575 0.47275305 -0.5465314 0.23023055
00000000: 929e 92bd b6d3 363e 6281 1ebe f667 aebd
00000010: de9e 1f3d d7e5 3b3e c7d9 2fbe b94e 44be
00000020: 9523 d3bd 6c49 8d3c 08f3 29bc bc04 9d3e
00000030: c1bf 58bd 8107 f33d 3438 6cbd d972 8f3c
00000040: 54a5 8bbe e960 833d f86f aebe 576e 923e
00000050: 1aa1 bbbe f1de 9dbc b036 003e 253b d73d
00000060: 5f4e c53e 50c1 8d3e 6979 8b3d 06fe a6be
00000070: 2cad dfbd 8675 633e 4759 333e 2e31 0e3e
00000080: 7b53 cbbe f61f 26be 7e6b 89be fa14 1a3e
00000090: 3ebd bd3a a58b 583e 7f73 813e 6e98 e0bb
000000a0: 10ed b7bd d8fe ea3d 19f2 7e3e b44e 8fbe
000000b0: e469 a93e e2d2 843e acf0 58be 2ea0 6c3e
000000c0: 2a28 a23e 2042 7c3d 5287 57be 784d 86be
000000d0: 37db a7be 62b3 45be 8f3b 433d c831 893e
000000e0: 3fc2 3abe dae4 e3bc aab0 14bb 8dd3 593e
000000f0: ed06 373e c0e0 783e 6ea0 8bbe b0c8 7cbe
00000100: 02f6 503e 6133 86be 0788 e83d 82c7 463e
00000110: 7bda 803e f5ff 9fbe 5646 5ebd 8161 1fbe
00000120: 9a37 313e 3eb7 0cbf de88 4b3e 6301 813e
00000130: 1ca4 bdbe ce57 853e e90c 783e fe9b b53d
00000140: 92a2 aabe add3 103f 15b6 debc b0ab 98bd
00000150: da95 8dbe 7557 aebe fe65 cd3e 0ae2 33be
00000160: 5c05 223e b764 f6bd 3b79 b73e c6f2 4cbf
00000170: a27e 98be 7106 373e 64e7 e63e e816 dabd
00000180: cd1d fbbe acf3 f9be 1547 e4be eead 813e
00000190: 12e8 8bbc 006a a5be 6631 ca3d 9b44 e5be
000001a0: adb3 213e 4b1a 133e 3f9c 0cbe 1a0f 663e
000001b0: d93c 983d 1381 713e 226b 983e 1842 12be
000001c0: c3b2 d1bd a855 cebe 5114 863e 9575 013d
000001d0: c6bc e0be 8f1a ca3d 2bd0 a93e d6f8 b83d
000001e0: cb43 73be b680 e83e d163 1c3e a798 76be
000001f0: e271 de3e 802c c8be 0fe4 103e 2356 1abf
00000200: d5c1 9b3d e490 06be 8bfb b53e a65a a83e
00000210: 7995 27be 1354 91be 73b1 a33e 3f8a 883e
00000220: f346 043e 8a77 3d3e 8392 5cbe e50e 29bf
00000230: 9156 8d3d fba2 a1be 4ddc c93d aebc 30bd
00000240: cf5c bb3e 2c03 b0be 001a fb3e d7c1 1bbf
00000250: 8486 f43e d35d 1e3e 9d02 abbe ffa1 323e
00000260: b58e fbbe 64d6 b2be 0c85 febd f2fc 0d3f
00000270: 6f23 a13d edc4 95be 91fb 5dbe a188 99be
00000280: 4d58 1d3f 907d 873e a4c4 103f 51f5 62be
00000290: 6b5d aabc d132 5ebd 8606 d4be 5043 4f3d
000002a0: 1fbe 4e3e 80e8 bebe e660 babe 8012 b43e
000002b0: cc93 b8be 6259 b5be 059d e63d dcec 9abe
000002c0: 056b 19bf 02e4 0c3e 3c29 383e 8fc4 febd
000002d0: ceac 0b3f 223e e63e 3cb0 eebc 539d 83be
000002e0: e7f4 883e 3a2a 28be c313 843e 7870 99be
000002f0: c619 61be acec 69be 490a c23e 904b 9e3e
00000300: fc9a 61be 4913 b53e 19e0 04bf cc05 19bf
00000310: 516b 6cbe c9e6 043f b455 d9bd 4395 08be
00000320: 2349 f5be 018b 9d3e f2fb 1a3e 04d5 a13d
00000330: 5455 aa3d 78cd 75bd 52cc 8dbe e540 2e3c
00000340: a871 d7bb fe39 82be bf15 91be ab98 e23e
00000350: dc8d 1ebe 0387 343e 4f51 5abe 61f2 c4bd
00000360: ff8a 7c3e 9b01 e73e 08d0 41be 8a8b c83d
00000370: e4f0 f33c 2441 003e 4806 81be 2a2a ef3e
00000380: c5c1 4cbc 4532 883e a88d 993d 1760 5b3d
00000390: ece2 d23e bf60 983e 30e3 5c3e 026a 893e
000003a0: be1d 9ebe 9053 1c3e 3d07 b63e 3296 e7be
000003b0: 5951 633e 694e df3c 4b63 d6be 32ca 463e
000003c0: f2a1 153f b379 bc3e e091 c6be 1de1 e73c
000003d0: 3cd3 58bd bc64 80be b754 cbbe 8cb6 3b3e
000003e0: d825 153b 515c 41be 50e2 b3be 5068 003f
000003f0: b79c fbbd b00c f23e 7be9 0bbf 8fc1 6b3e

action_layer.4.bias f4 [4]
0.034247443 -0.14466217 0.18714374 -0.05215033
00000000: 0c47 0c3d 5222 14be 9ca2 3f3e 969b 55bd

value_layer.0.weight f4 [64, 8]
-0.0739354 -0.16334936 0.114490345 -0.03351802 0.15467899 -0.08212533 -0.20871006 0.046492144
0.12431483 -0.063754104 -0.07065618 0.31326672 -0.20094383 0.082679614 -0.14992629 -0.034742445
0.1721906 0.24200274 0.0973899 -0.10468385 -0.28310925 0.17447469 0.1778246 0.29854655
-0.29590166 0.089420766 0.042558737 -0.0037288105 -0.2201453 -0.2679374 0.2100407 -0.17706944
0.1679202 0.14008124 -0.1656338 0.02187404 0.057218034 0.10345595 0.29950622 -0.18524723
0.1750391 -0.11942754 0.2487571 0.2096943 -0.21094203 -0.08162891 0.10961462 -0.20930165
-0.15845968 0.15059721 -0.3128779 -0.24769668 -0.22983272 0.04268046 -0.22660787 -0.08052241
-0.20838156 -0.15573631 -0.3215017 -0.07459385 -0.12193908 -0.1545577 0.19063434 0.23940992
0.11844207 -0.11527693 0.2129022 0.14310808 0.13848224 0.09772412 0.16706827 -0.22456558
0.34671172 -0.19405656 -0.055519372 -0.11451774 -0.15772653 0.14686263 -0.35335812 0.23222087
-0.18098779 0.19904117 0.13791227 0.022750447 -0.28895694 0.33362493 0.04402125 -0.084907636
0.19074355 0.29134727 -0.008506135 -0.22090311 -0.21644394 0.2528461 -0.24496748 -0.26763743
0.191756 0.3014989 -0.014761686 0.06839886 -0.065419815 -0.22018309 0.02015801 0.33912194
0.048224047 -0.18849951 0.15330622 -0.045287065 0.3032045 -0.32865766 0.22628284 -0.2826449
-0.25956684 -0.1354507 0.223658 0.13847423 0.3342153 -0.10731154 -0.14618617 0.23730408
0.08563394 0.07250475 -0.07542119 0.19188865 0.20918404 0.18780683 -0.13241735 -0.07026651
0.023961516 -0.2639206 0.15097138 -0.14663939 -0.14942695 0.13262117 0.16383143 0.2748365
-0.03761392 0.26548806 0.014443403 -0.11929042 0.051118497 -0.23492298 -0.35545838 0.035114303
0.1119211 -0.11442275 0.024992831 -0.011357757 0.006461258 -0.064306535 0.046763916 -0.2253122
-0.3323321 -0.11980317 0.26728925 0.2932201 -0.1239975 -0.32884413 0.15789343 -0.21027118
-0.32669413 -0.22471574 0.19403356 0.24735701 0.20240538 0.29454368 -0.24656367 -0.24102306
0.052366376 -0.029641926 -0.25968003 0.13233621 0.3295797 -0.27863252 -0.03976058 0.12270205
-0.09133675 -0.15069 0.14429958 0.08079966 0.13650784 0.15889479 0.1853689 -0.31621572
0.26532015 0.043301806 0.18180223 0.28124732 -0.27011913 -0.04419286 -0.17286439 0.19352914
-0.13611469 -0.26282683 -0.06399324 -0.05165555 -0.08328835 -0.033000283 0.26446962 -0.095517404
0.22251105 -0.24065806 -0.0537741 0.07252467 -0.22882375 0.050817184 -0.234774 -0.24126069
-0.18293782 -0.1159488 -0.114198506 -0.19069584 0.33421248 -0.35010654 0.18467237 -0.33138046
0.16286625 -0.20928298 0.066378325 0.12541047 -0.34793714 0.059764076 -0.10063371 -0.29277638
0.32090634 -0.10211845 -0.16669394 -0.050527293 0.2229726 0.34774244 0.30741996 0.008405479
0.07219164 0.2984104 0.2550485 0.27027535 0.15055299 -0.17535464 -0.18484698 -0.24287786
-0.024125228 0.18373418 0.23544993 -0.0011123908 0.13967693 -0.23140359 0.03379968 0.2652575
0.2308593 -0.088083886 -0.25632328 0.29380274 0.29003868 0.2907983 0.009022478 0.11695726
00000000: 716b 97bd 0e45 27be ea79 ea3d 314a 09bd
00000010: 2b64 1e3e 5331 a8bd 17b8 55be 8c6e 3e3d
00000020: c698 fe3d 8391 82bd 30b4 90bd 7f64 a03e
00000030: 38c4 4dbe ee53 a93d 4786 19be 184e 0ebd
00000040: bc52 303e 91cf 773e 5b74 c73d 7d64 d6bd
00000050: b2f3 90be 7ea9 323e a717 363e 18db 983e
00000060: 6c80 97be 3c22 b73d 1252 2e3d 0f5f 74bb
00000070: c56d 61be 172f 89be e914 573e b151 35be
00000080: 46f3 2b3e 7571 0f3e e89b 29be 3031 b33c
00000090: 755d 6a3d b7e0 d33d e158 993e 73b1 3dbe
000000a0: 733d 333e 6d96 f4bd 2eba 7e3e 1aba 563e
000000b0: 3001 58be 0f2d a7bd a17d e03d 2c53 56be
000000c0: 4143 22be 2836 1a3e 8831 a0be 33a4 7dbe
000000d0: 4559 6bbe b5d1 2e3d e50b 68be efe8 a4bd
000000e0: fa61 55be 5779 1fbe df9b a4be a9c4 98bd
000000f0: 32bb f9bd 6044 1ebe a635 433e e027 753e
00000100: c291 f23d 5016 ecbd 0903 5a3e ed8a 123e
00000110: 4ace 0d3e 9523 c83d f213 2b3e 85f4 65be
00000120: 3384 b13e c3b6 46be 4868 63bd 4788 eabd
00000130: 1083 21be 2863 163e 5beb b4be 4fcb 6d3e
00000140: dd54 39be 73d1 4b3e e038 0d3e 255f ba3c
00000150: 2af2 93be e3d0 aa3e a04f 343d 0ee4 adbd
00000160: 4752 433e 782b 953e 515d 0bbc 6d34 62be
00000170: 7ba3 5dbe 0b75 813e c1d8 7abe c607 89be
00000180: af5b 443e 105e 9a3e 00db 71bc b414 8c3d
00000190: d3fa 85bd ad77 61be 6922 a53c 64a1 ad3e
000001a0: 9486 453d 0406 41be 4efc 1c3e ee7e 39bd
000001b0: 9f3d 9b3e d145 a8be b0b6 673e d5b6 90be
000001c0: f2e5 84be 97b3 0abe 9a06 653e 30cc 0d3e
000001d0: 451e ab3e 27c6 dbbd d4b1 15be d7ff 723e
000001e0: d960 af3d 5f7d 943d 6d76 9abd 757e 443e
000001f0: 5734 563e 6f50 403e 6a98 07be e3e7 8fbd
00000200: f14a c43c 9a20 87be 3e98 1a3e a328 16be
00000210: 6103 19be d8cd 073e 6dc3 273e 5fb7 8c3e
00000220: 0e11 1abd 0dee 873e 06a4 6c3c 894e f4bd
00000230: a161 513d a68f 70be a4fe b5be 04d4 0f3d
00000240: e436 e53d 7a56 eabd c4bd cc3c e315 3abc
00000250: f6b8 d33b 25b3 83bd 858b 3f3d 3eb8 66be
00000260: 6f27 aabe 5d5b f5bd 23da 883e f220 963e
00000270: 67f2 fdbd 425e a8be d1ae 213e 5451 57be
00000280: 7444 a7be e21b 66be bcb0 463e 284b 7d3e
00000290: 5b43 4f3e 6ece 963e 307b 7cbe c0ce 76be
000002a0: 207e 563d a0d3 f2bc c8f4 84be 2583 073e
000002b0: acbe a83e eca8 8ebe fddb 22bd 364b fb3d
000002c0: c30e bbbd 7b4e 1abe 45c3 133e 4b7a a53d
000002d0: b6c8 0b3e 51b5 223e 58d1 3d3e 07e7 a1be
000002e0: 0bd8 873e 3c5d 313d 5d2a 3a3e a6ff 8f3e
000002f0: 0e4d 8abe 9303 35bd 5d03 31be 812c 463e
00000300: a661 0bbe 3d91 86be e30e 83bd c594 53bd
00000310: 1593 aabd 4e2b 07bd 9068 873e a19e c3bd
00000320: f0d9 633e 116f 76be 3b42 5cbd d087 943d
00000330: c650 6abe ae25 503d 9868 70be 0b0d 77be
00000340: 0d54 3bbe 9176 edbd e8e0 e9bd c545 43be
00000350: e61d ab3e 2a41 b3be c11a 3d3e b3aa a9be
00000360: 69c6 263e 474e 56be 5cf1 873d 9a6b 003e
00000370: d124 b2be 2dcb 743d 0c19 cebd c9e6 95be
00000380: d64d a43e 7a23 d1bd d1b1 2abe b5f5 4ebd
00000390: ee52 643e 4c0b b23e 2666 9d3e 22b7 093c
000003a0: 36d9 933d 3fc9 983e b895 823e 8861 8a3e
000003b0: 902a 1a3e 2b90 33be 8748 3dbe f9b4 78be
000003c0: 45a2 c5bc d024 3c3e c919 713e a4cd 91ba
000003d0: 7807 0f3e 10f5 6cbe 8971 0a3d d5cf 873e
000003e0: 6166 6c3e 5365 b4bd ce3c 83be 506d 963e
000003f0: f37f 943e 84e3 943e 04d3 133c 4a87 ef3d

value_layer.0.bias f4 [64]
-0.114397034 0.32036638 -0.17841242 0.1248808 -0.15840635 -0.12702577 -0.3253373 0.2072996
0.06317424 -0.1397064 0.30334428 -0.18289992 -0.23667854 0.04463726 0.15264592 -0.18093485
-0.11391992 -0.33610108 0.149902 -0.12245293 -0.2521624 0.34398487 -0.2710358 0.018553166
0.3095306 0.004070137 0.12314121 0.22151631 -0.21475971 -0.294707 -0.19573477 0.26161313
0.24088255 -0.08915631 -0.306881 0.27721566 0.07922254 0.3085424 0.27828482 0.044975396
-0.060479615 -0.09168879 -0.26587775 -0.1779907 -0.3091225 -0.079838164 0.18277574 0.030751675
0.13916653 -0.011652143 -0.30924627 0.073522 -0.28155032 -0.15404898 0.0391461 -0.14418454
0.10658321 0.17099884 -0.2832317 -0.16098793 -0.08988891 -0.14295432 0.114105694 -0.24507727
00000000: fe48 eabd 1007 a43e bfb1 36be 81c1 ff3d
00000010: 4635 22be 0b13 02be 9c92 a6be 5946 543e
00000020: 7f61 813d 320f 0fbe f14f 9b3e 1e4a 3bbe
00000030: dc5b 72be 8fd5 363d 364f 1c3e fc46 39be
00000040: d94e e9bd 7115 acbe e97f 193e 9ac8 fabd
00000050: 6e1b 81be c91e b03e 34c5 8abe cffc 973c
00000060: cb7a 9e3e c95e 853b 7531 fc3d 2cd5 623e
00000070: f8e9 5bbe d6e3 96be b26e 48be 28f2 853e
00000080: eaa9 763e 9597 b6bd 821f 9dbe 36ef 8d3e
00000090: 6d3f a23d 45f9 9d3e 597b 8e3e 1f38 383d
000000a0: 79b9 77bd 55c7 bbbd 2121 88be 3243 36be
000000b0: 4e45 9ebe 3182 a3bd 9029 3b3e f0ea fb3c
000000c0: ac81 0e3e a1e8 3ebc 8755 9ebe b492 963d
000000d0: 5d27 90be 04bf 1dbe a957 203d 1da5 13be
000000e0: 4c48 da3d 521a 2f3e bf03 91be 05da 24be
000000f0: ad17 b8bd 9e62 12be 3fb0 e93d 89f5 7abe

value_layer.2.weight f4 [64, 64]
0.04104289 -0.034884352 0.088211834 -0.11211233 -0.06741553 0.11086961 -0.0938539 -0.10905776
-0.083963536 -0.05534336 -0.029824646 0.07951896 -0.08932625 -0.026138406 0.09770737 0.053880118
-0.0060872426 0.040015068 -0.11755399 0.085880645 0.10932083 -0.056853916 0.09628304 0.031564597
-0.101657175 0.048331916 0.0058234874 -0.017460432 0.01853206 -0.05400087 0.0064084567 0.117138416
0.1207421 -0.086433366 -0.08134147 0.10685334 0.02419766 -0.07106105 -0.058022298 0.0029257094
-0.02508626 0.095821425 -0.0918515 0.004321809 0.10977148 0.11376926 0.1056459 -0.03513839
-0.085396044 -0.009370106 0.10970713 0.05907118 0.011193333 0.031285748 -0.060247812 -0.11778523
-0.030831628 0.061736435 0.0303139 0.06236192 -0.026577054 -0.1139785 -0.0952651 -0.11451288
0.025942499 0.08899285 -0.024136703 -0.06622283 0.069518715 -0.06756594 -0.0038195136 0.07013781
-0.045227237 -0.10523896 -0.039171785 -0.04312069 0.110578544 -0.01710071 0.11583991 -0.030257743
0.061054256 0.055259194 0.0981464 0.00011406089 0.076707184 0.004560585 -0.015175183 0.11752395
-0.12632135 0.022273786 -0.093028046 0.09700982 -0.044238072 -0.04964212 -0.09878558 -0.06517756
0.11117219 0.061182234 0.11746099 -0.13293001 0.084114656 -0.05948605 -0.050276592 0.0409023
0.057192545 0.026030837 0.0967843 -0.071752 0.11180881 0.02461619 0.03526348 0.1105512
-0.009442014 -0.024320984 -0.072779186 -0.105618626 0.11679642 -0.11686687 -0.007392612 0.031197887
0.07667836 -0.12019069 -0.0124577135 -0.061985753 0.039462827 -0.057101812 0.03924907 0.12483214
-0.039371267 0.021070682 -0.04630094 0.041316215 -0.12147969 -0.0032379664 0.11939397 -0.047533482
-0.027399257 -0.07502071 0.0768985 0.12292724 -0.010462935 -0.09912803 0.08085265 -0.041459642
0.068836346 -0.06124003 -0.010019105 0.04853783 0.11877618 0.108852774 0.11415796 -0.06552387
0.06343598 -0.054076523 0.046638764 -0.061122127 -0.08268782 0.005877033 -0.09637828 -0.0726923
-0.09359081 -0.056839578 -0.08912951 0.026813665 0.043794956 0.039240845 0.095196895 -0.08786295
0.048572436 -0.09678996 0.0905031 -0.10169052 0.046733677 0.08005978 0.06258654 -0.12367061
-0.01637569 -0.090036504 -0.08834866 -0.03322606 -0.082109176 0.0710359 0.0790975 -0.052017964
0.002688368 0.06951996 -0.001984034 -0.0043997616 -0.049899664 -0.021626594 -0.062330995 0.0009695546
0.1269848 -0.017907182 0.09732182 0.038096014 0.041230854 0.024066873 -0.10961988 0.05423171
-0.04295598 -0.04284009 0.047159355 -0.027005792 0.012101852 0.09610533 -0.009332352 0.0013300924
-0.016453687 0.1247358 -0.026797675 0.08875056 0.024405763 -0.020794556 -0.062106557 0.08809659
-0.05425267 -0.039326776 0.07999291 -0.011420493 0.011189901 0.07939952 -0.0729961 0.08657374
0.12183503 -0.07666438 -0.07115741 0.03272146 0.07830814 0.06910982 -0.06791279 -0.03695806
0.09882222 0.036828484 -0.037202027 0.08433626 -0.05445682 -0.008451561 -0.042109843 0.06803476
-0.11845582 -0.06351518 0.07388299 0.0020705631 0.0715656 -0.12113307 0.052719038 -0.05590084
0.052947566 -0.12357738 -0.06331214 0.027460905 0.011128476 -0.008175177 0.084274516 -0.09508875
00000000: 971c 283d e5e2 0ebd 68a8 b43d 269b e5bd
00000010: 2711 8abd 9b0f e33d 7936 c0bd ad59 dfbd
00000020: 13f5 abbd b8af 62bd d152 f4bc d6da a23d
00000030: aef0 b6bd 3620 d6bc cd1a c83d 66b1 5c3d
00000040: 7e77 c7bb d7e6 233d 25c0 f0bd 31e2 af3d
00000050: 99e3 df3d a7df 68bd 0b30 c53d e149 013d
00000060: a331 d0bd b0f7 453d f4d2 be3b 2e09 8fbc
00000070: 8cd0 973c 0430 5dbd 08fe d13b 44e6 ef3d
00000080: a247 f73d fa03 b1bd 5b96 a6bd edd5 da3d
00000090: 2c3a c63c 7588 91bd caa8 6dbd 42bd 3f3b
000000a0: b381 cdbc 063e c43d a41c bcbd f69d 8d3b
000000b0: dfcf e03d dcff e83d e15c d83d 46ed 0fbd
000000c0: 1fe4 aebd 1385 19bc 22ae e03d 9ff4 713d
000000d0: 3e64 373c 7c25 003d 69c6 76bd 6239 f1bd
000000e0: 9c92 fcbc 58df 7c3d db54 f83c 366f 7f3d
000000f0: 1fb8 d9bc 8f6d e9bd 591a c3bd bb85 eabd
00000100: 5d85 d43c e241 b63d 56ba c5bc d69f 87bd
00000110: d45f 8e3d 0360 8abd ce50 7abb 6aa4 8f3d
00000120: 3240 39bd 8687 d7bd 9872 20bd 529f 30bd
00000130: 0177 e23d ca16 8cbc 7a3d ed3d 16df f7bc
00000140: 0714 7a3d 7757 623d fb00 c93d f933 ef38
00000150: a818 9d3d f670 953b 55a1 78bc 66b0 f03d
00000160: 625a 01be 8477 b63c 7d85 bebd 16ad c63d
00000170: fb32 35bd 8955 4bbd 1850 cabd d07b 85bd
00000180: 3fae e33d 399a 7a3d 638f f03d ce1e 08be
00000190: 4e44 ac3d a5a7 73bd d4ee 4dbd 2c89 273d
000001a0: bb42 6a3d 9f3e d53c d936 c63d b6f2 92bd
000001b0: 04fc e43d e4a7 c93c 7070 103d ab68 e23d
000001c0: adb2 1abc cd3c c7bc 410d 95bd 944e d8bd
000001d0: f632 ef3d e657 efbd b93d f2bb b692 ff3c
000001e0: 8b09 9d3d 8926 f6bd 701b 4cbc c6e4 7dbd
000001f0: c6a3 213d 97e3 69bd a2c3 203d fea7 ff3d
00000200: c443 21bd 6c9c ac3c 0ea6 3dbd 313b 293d
00000210: 58ca f8bd 1034 54bb d384 f43d 78b2 42bd
00000220: 6874 e0bc 75a4 99bd f67c 9d3d 47c1 fb3d
00000230: bb6c 2bbc a303 cbbd 1396 a53d 96d1 29bd
00000240: 12fa 8c3d d3d6 7abd 2c27 24bc 9bcf 463d
00000250: ed40 f33d 34ee de3d a6cb e93d 6131 86bd
00000260: b9ea 813d 587f 5dbd 4a08 3f3d 325b 7abd
00000270: 3b58 a9bd 2094 c03b fa61 c5bd b3df 94bd
00000280: 8aac bfbd 9ed0 68bd 8889 b6bd 55a8 db3c
00000290: 5762 333d 02bb 203d 97f6 c23d 7ef1 b3bd
000002a0: e4f3 463d d139 c6bd b059 b93d 1f43 d0bd
000002b0: d06b 3f3d 62f6 a33d 5f2d 803d 0447 fdbd
000002c0: 5026 86bc 0f65 b8bd 24f0 b4bd 0d18 08bd
000002d0: db28 a8bd 457b 913d dffd a13d ca10 55bd
000002e0: 552f 303b 7b60 8e3d 9106 02bb e02b 90bb
000002f0: 9763 4cbd 412a b1bc c94e 7fbd b529 7e3a
00000300: 4e08 023e 15b2 92bc aa50 c73d 910a 1c3d
00000310: afe1 283d e427 c53c 6380 e0bd 1222 5e3d
00000320: 9cf2 2fbd 1779 2fbd 2b2a 413d 403b ddbc
00000330: d946 463c dfd2 c43d b9e6 18bc 7f56 ae3a
00000340: e2c9 86bc 7c75 ff3d cc86 dbbc dbc2 b53d
00000350: 98ee c73c 5859 aabc 7263 7ebd fc6b b43d
00000360: 0c38 5ebd 1d15 21bd 53d3 a33d 051d 3bbc
00000370: d955 373c 379c a23d fb7e 95bd 934d b13d
00000380: a584 f93d 3702 9dbd faba 91bd f006 063d
00000390: 0560 a03d 7389 8d3d dc15 8bbd 5661 17bd
000003a0: 4e63 ca3d 77d9 163d 2761 18bd 7db8 ac3d
000003b0: 1d0e 5fbd 6b78 0abc 5f7b 2cbd cf55 8b3d
000003c0: f798 f2bd 3f14 82bd f74f 973d 49b2 073b
000003d0: fc90 923d 9d14 f8bd ebef 573d 47f8 64bd
000003e0: 8cdf 583d 2316 fdbd cca9 81bd b1f5 e03c
000003f0: 3654 363c 2df1 05bc 1e98 ac3d e4bd c2bd

value_layer.2.bias f4 [64]
-0.017370392 0.112359464 -0.11561736 -0.065755226 0.10434737 0.042709064 -0.021446472 -0.07359084
0.08672407 0.06957612 -0.01467549 0.05044838 0.11447746 -0.08975752 0.066812836 -0.009654672
0.06382238 -0.11052835 0.026916182 -0.031354982 -0.11762349 -0.035503995 0.06664857 -0.049007103
-0.11952145 -0.097762726 -0.07579397 0.03514748 -0.030733129 0.107329294 0.07620763 -0.113920644
-0.05394553 -0.053995058 0.108883746 -0.0183905 0.09326917 0.024420785 -0.008097449 0.030082906
0.12798116 -0.09468737 0.07405068 -0.002063674 0.009925276 0.049167633 0.12078448 -0.124772556
-0.04285161 -0.08826932 -0.052575294 0.11153654 0.046963695 0.045963675 -0.11643223 -0.083557844
0.019645195 0.09604225 0.10063983 -0.061206505 -0.045642894 -0.08588721 0.102088906 0.025402484
00000000: 5a4c 8ebc b81c e63d cbc8 ecbd adaa 86bd
00000010: 13b4 d53d b3ef 2e3d 83b0 afbc cbb6 96bd
00000020: 649c b13d ed7d 8e3d 7771 70bc f6a2 4e3d
00000030: 2973 ea3d cad2 b7bd 2bd5 883d a12e 1ebc
00000040: 4fb5 823d b05c e2bd 537f dc3c 156e 00bd
00000050: 96e4 f0bd a36c 11bd 0c7f 883d acbb 48bd
00000060: a9c7 f4bd d337 c8bd de39 9bbd cef6 0f3d
00000070: 0bc4 fbbc 76cf db3d bf12 9c3d 3a4f e9bd
00000080: fdf5 5cbd ec29 5dbd 71fe de3d ada7 96bc
00000090: e803 bf3d 190e c83c 2aab 04bc 6d70 f63c
000000a0: 7e0d 033e 74eb c1bd e2a7 973d b43e 07bb
000000b0: a09d 223c 0064 493d da5d f73d c188 ffbd
000000c0: 2b85 2fbd 8cc6 b4bd 3159 57bd 456d e43d
000000d0: 015d 403d 6844 3c3d 0574 eebd 6020 abbd
000000e0: f6ee a03c cdb1 c43d 411c ce3d acb3 7abd
000000f0: 0bf4 3abd a2e5 afbd fd13 d13d df18 d03c

value_layer.4.weight f4 [1, 64]
-0.11259436 -0.021221379 -0.08922355 -0.041574568 0.023059111 -0.09838319 -0.09794125 0.09469009
0.07843536 -0.0012769512 -0.02889127 0.040539667 0.0066750036 -0.033402562 0.039406557 -0.054766033
-0.10194541 0.0050634877 -0.07598784 -0.012147347 -0.03764605 0.0882895 0.024070688 -0.08848807
-0.095262304 -0.10896849 -0.0006222771 -0.02123749 0.033863194 -0.054711733 -0.021209722 -0.07050375
-0.11222075 -0.038366348 0.002293797 0.07918519 0.112510756 -0.05902967 0.006048189 0.00039249356
0.017495584 -0.00028342006 -0.046119224 -0.00697995 0.0565621 0.010131372 0.0971246 -0.096293285
0.0062271934 0.046943527 -0.09758022 -0.017992388 -0.0014300434 -0.081031635 -0.10411479 -0.022378318
-0.04729959 -0.00030423282 0.026483629 0.051469866 0.084160216 -0.026630206 -0.015501294 0.0006035913
00000000: df97 e6bd 75d8 adbc d6ba b6bd 184a 2abd
00000010: 76e6 bc3c 207d c9bd 6c95 c8bd e1ec c13d
00000020: b8a2 a03d 5f5f a7ba 62ad ecbc ec0c 263d
00000030: fdb9 da3b 20d1 08bd c568 213d 5952 60bd
00000040: c1c8 d0bd 9deb a53b 839f 9bbd ab05 47bc
00000050: bf32 1abd 20d1 b43d e42f c53c 3c39 b5bd
00000060: e218 c3bd df2a dfbd 4f20 23ba 3ffa adbc
00000070: 22b4 0a3d 6919 60bd 03c0 adbc 4564 90bd
00000080: fed3 e5bd 0826 1dbd 8753 163b d82b a23d
00000090: 0a6c e63d 18c9 71bd e32f c63b 98c7 cd39
000000a0: e652 8f3c ff97 94b9 83e7 3cbd 10b8 e4bb
000000b0: a9ad 673d 0efe 253c 43e9 c63d 6a35 c5bd
000000c0: 7c0d cc3b db47 403d 23d8 c7bd c664 93bc
000000d0: 4b70 bbba eaf3 a5bd 233a d5bd bc52 b7bc
000000e0: 37bd 41bd 7081 9fb9 32f4 d83c 11d2 523d
000000f0: 315c ac3d 9727 dabc 24f9 7dbc 543a 1e3a
