8_gym-PPO/results/PPO_LunarLander-v3_500-eps0.01.pth (torch, 44194 bytes, 11 tensors)

action_layer.0.weight f4 [64, 8]
000000 7d 39 80 3c f5 31 11 be 93 30 d6 bc 5b 2e 66 3e
       0.015652413 -0.14179213 -0.026146209 0.2247862
000010 51 c9 c3 bd 6f a7 c1 bd 73 66 84 3e d3 2b b4 be
       -0.095598824 -0.094557635 0.25859413 -0.35189685
000020 68 15 5e 3e 4f 0c c7 3d 28 43 26 bd 3c 33 98 be
       0.21687853 0.097191446 -0.04059139 -0.2972659
000030 4a 89 a5 3e 20 c2 37 3d 55 23 75 bd 15 81 6e be
       0.32331306 0.044862866 -0.05984815 -0.23291428
000040 98 f8 45 bd 00 6f b4 3e 13 b9 9e 3e 8a 02 a0 be
       -0.04833278 0.35240936 0.31000575 -0.31251937
000050 3f 1c 84 be a8 00 8b be 85 0c a8 be 7a a8 ac 3d
       -0.258028 -0.27148938 -0.32822052 0.08430572
000060 ff 34 8c 3c b5 f0 d6 bc 48 ae a0 be 1b 14 43 3e
       0.017115114 -0.026237825 -0.31382966 0.19050638
000070 e8 dc 20 be 57 76 7d be 37 5a ef bd d4 45 a6 3e
       -0.15709269 -0.24752174 -0.11687129 0.3247515
000080 2d ca bc be a4 d3 aa be e8 fe 39 3e be e9 73 be
       -0.36872998 -0.33364594 0.18163645 -0.23819634
000090 e7 2e 0e be 59 71 2a be 73 03 09 be 62 7d 8e 3d
       -0.1388508 -0.16644801 -0.13380222 0.069575086
0000a0 1b a8 48 bd 48 6d a1 be 95 c0 2a be ff f8 7f 3e
       -0.048988443 -0.31528687 -0.16675027 0.24997328
0000b0 18 72 0b be 04 a0 d5 3d e8 24 a0 be d3 87 9c bd
       -0.13617742 0.10430911 -0.31278157 -0.07643094
0000c0 d7 73 ad be ab 98 78 3e 4f ee 6b 3e 81 3e 76 3b
       -0.3387744 0.24276988 0.23040126 0.0037573876
0000d0 d8 65 6e 3d 22 99 84 bd 70 e1 85 3e b5 3e 22 3e
       0.058202595 -0.0647452 0.26148558 0.15844233
0000e0 07 1f 5a bc b4 0d 43 bd 41 a2 8a 3e d9 4a 71 3e
       -0.013313062 -0.04762049 0.27076915 0.23563708
0000f0 0c 7c 64 3d 4d 78 9c 3d 4f 30 a2 be fa 49 9b be
       0.055782363 0.07640133 -0.31677482 -0.30329877
000100 6c 9a 96 be 5c c9 43 be d5 88 ac 3d 0e 6e 7d 3e
       -0.2941469 -0.19119781 0.08424536 0.24749014
000110 a1 b5 57 3e 84 fe c0 bd fd e6 d8 bd 96 62 35 3e
       0.2106538 -0.09423545 -0.105909325 0.17713389
000120 4e 03 aa bd 61 f5 85 3e 85 f3 7f be 81 1d 85 3e
       -0.083014116 0.26163772 -0.24995239 0.25999072
000130 be 18 32 3e 7b 03 ed bd b1 18 83 3e e5 86 2f 3e
       0.17392251 -0.115729295 0.25604776 0.17141302
000140 a0 e9 d4 be a7 c5 ac 3e ff 9d 13 bb 35 6d c5 bd
       -0.41584492 0.33744547 -0.0022524593 -0.0963997
000150 d5 c7 62 3d a9 d2 cc be a4 8e 98 bd 9a b8 b3 3e
       0.055366356 -0.4000447 -0.074490815 0.35101777
000160 aa 37 1d 3e 33 8c d0 3d 5d bf 2f 3e 92 d4 5b 3e
       0.15353265 0.10182991 0.17162843 0.21467808
000170 a4 a9 6f be 3e c0 9c bc 26 7b 60 bd 91 60 e6 bd
       -0.23404557 -0.019134637 -0.054804944 -0.11248887
000180 80 d2 58 be e3 98 14 3e e7 bc 3d be 21 7d 3f be
       -0.2117405 0.14511447 -0.18529092 -0.18700077
000190 4b 57 13 3e 03 bf 23 be 40 95 45 bc 51 f1 ec 3c
       0.14388768 -0.15990834 -0.01205951 0.028923662
0001a0 ca d3 ea bc db 8b 0c be de 7c 5c 3a e3 2d 73 3e
       -0.028665442 -0.13725226 0.00084109406 0.23747973
0001b0 ac 0b a0 3e ec 8d b6 3d 6e 02 78 3e 5f 4d 39 3e
       0.31258905 0.08913788 0.24219677 0.18095921
0001c0 64 8f 09 3d 9d 5b 9b be a8 b5 9a 3e 3a 5f a2 be
       0.033584014 -0.30343333 0.30216718 -0.31713277
0001d0 1a fa 5c 3e 62 da 9b bc 03 52 77 3d 8f a7 02 bc
       0.21579781 -0.019025031 0.060380947 -0.007974519
0001e0 f1 b1 c6 be ff d0 98 be dc ad 58 3d 52 e2 3f be
       -0.38807634 -0.2984695 0.05290018 -0.18738678
0001f0 44 32 3c 3e cd dd 9c bb 3e 29 10 be d7 99 d1 bb
       0.1837855 -0.004787183 -0.14078233 -0.006396513
000200 c4 cd 90 be 89 99 64 be e8 85 99 be 84 ab 1f 3c
       -0.28281987 -0.22324194 -0.29984975 0.009745482
000210 ff 7d aa 3e 89 df 9d be 1d ef 44 be 19 00 74 3d
       0.33299252 -0.30834606 -0.1923184 0.059570406
000220 01 8e 84 bd 67 67 61 be 27 0f 47 be 72 d0 08 be
       -0.064723976 -0.22012101 -0.19439374 -0.13360766
000230 45 cd 47 bd 82 8b a6 be 12 40 df 3e af 7c 5e be
       -0.048779745 -0.3252831 0.4360357 -0.2172725
000240 d5 0d 9f 3e 24 4d 6e be 5d d0 2c 3d 69 ab 06 3e
       0.3106524 -0.23271614 0.0421909 0.13151325
000250 7c 8f 03 3e 51 a8 2c bd b3 18 ba 3d 0a 2e ea bd
       0.12847704 -0.042152707 0.09086742 -0.114345625
000260 47 62 1f be e0 94 b8 3c bf e1 d5 bd ed 73 51 be
       -0.15564834 0.022531927 -0.10443448 -0.20454378
000270 b9 5f 4b bc 8a ed b0 bd 05 c2 3b 3e d4 87 4a be
       -0.012412959 -0.08639057 0.18335731 -0.19778377
000280 16 28 91 be f4 5b c7 ba 26 7b 4a be 37 66 a4 bb
       -0.28350896 -0.0015209899 -0.1977354 -0.005017068
000290 51 d0 65 bd c8 9a c7 bd 0f ca 6c be 66 16 95 be
       -0.05610687 -0.09746319 -0.23123954 -0.2911865
0002a0 4a 7a 5c be 74 a2 4b bc 0d 3d 5a bd 9e e8 64 be
       -0.21531025 -0.012428869 -0.05328088 -0.22354361
0002b0 da 80 8d 3e 66 b0 4a be e7 0f 1d 3d 5e 11 3f be
       0.27637368 -0.19793853 0.038345244 -0.18658969
0002c0 cf bd 20 3e 20 6c 65 3e 48 f2 8b bd 7a e8 63 be
       0.15697406 0.22404528 -0.06833321 -0.22256652
0002d0 ce 15 84 3e 26 a3 48 3e 2e 16 9d 3e 53 57 17 be
       0.25797886 0.19593486 0.30680984 -0.14779405
0002e0 10 19 48 3d 4b d7 8c 3e 28 fa 48 3e 7e e9 a5 be
       0.048852026 0.27508005 0.19626677 -0.32404703
0002f0 f2 f6 85 be 74 36 84 3e cf 32 f1 bd 13 97 a3 3e
       -0.26164967 0.25822794 -0.11777269 0.31951198
000300 99 7b 98 be a5 44 c1 bd 7b 78 88 bd cb 93 99 be
       -0.29781798 -0.09436921 -0.06663605 -0.2999557
000310 f1 1c d0 bd a1 68 89 3e 88 69 c1 3c ae 37 12 3e
       -0.1016177 0.26837638 0.023609892 0.14279053
000320 57 77 a8 3e 3d ca 55 3e 19 e0 5d be 59 8f 78 3e
       0.3290355 0.20877929 -0.21667518 0.24273433
000330 35 63 a4 3e ae e3 5f be de 96 35 be 4f 4b a0 3e
       0.3210694 -0.21864197 -0.17733333 0.31307456
000340 82 b5 48 bc 99 3e 6c be 7b 83 79 be 38 99 48 be
       -0.012250306 -0.23070754 -0.24366562 -0.19589698
000350 c7 02 83 be 15 ba d2 bd 60 9f db 3d 98 a3 5a 3e
       -0.25588056 -0.102893986 0.10723758 0.21351469
000360 79 73 26 3e 1e c3 ea 3d dd 15 7d bd 34 66 93 bd
       0.16254987 0.11462997 -0.06178843 -0.07197228
000370 13 75 0f 3e 8a b9 7e be 8e 15 35 3e 5e ad e2 3d
       0.14009504 -0.24875465 0.17684004 0.110682234
000380 ac a0 b9 be 2b 45 42 3e 7a 26 ad 3d 13 73 98 be
       -0.36255395 0.18971698 0.084546044 -0.29775295
000390 c1 e6 ce 3b 0f c5 11 bd 09 a7 f0 bd a7 15 9a 3e
       0.006314129 -0.03558832 -0.117506094 0.30094644
0003a0 bd 1b 87 3d 1f d6 fd 3d bc b1 b4 3e a5 e2 4b 3e
       0.065970875 0.12394356 0.3529185 0.19910677
0003b0 71 bb 23 3d 6f 96 69 be 3c 23 4a be 3d 76 59 be
       0.03997368 -0.22811292 -0.19740003 -0.2123651
0003c0 f9 24 2f 3c 65 db 38 be 6b 09 95 3e 24 5f a5 be
       0.010689967 -0.18052442 0.29108748 -0.3229915
0003d0 f8 84 a4 be 03 2e 92 3e 60 07 4d be 24 7d 8d be
       -0.32132697 0.2855073 -0.20022345 -0.27634537
0003e0 89 c5 34 be 91 9a a1 3d 3b 3f c9 bd cd 5a 29 3e
       -0.17653479 0.07890809 -0.098265134 0.16538544
0003f0 e4 09 85 be 7b 56 32 be 4a 5e 65 3e 22 d4 47 3e
       -0.25984108 -0.17415802 0.2239925 0.19514516

action_layer.0.bias f4 [64]
000000 73 ca 38 be f1 1a 18 be 42 92 ba 3d dd dd 5a 3e
       -0.18045978 -0.14854027 0.09109928 0.21373697
000010 bb 74 e7 3d f0 27 da 3c 8f 1e 6a be 8e 8e 7e 3e
       0.113015614 0.026630372 -0.2286322 0.24859068
000020 98 ee 2e 3d 70 af 91 3c 09 c9 2a be 03 a5 97 be
       0.04270801 0.01778385 -0.16678251 -0.2961808
000030 a4 d1 d1 3d 7e 69 67 bd df 8b 08 be a3 af 84 3e
       0.10245064 -0.05649709 -0.13334607 0.2591525
000040 e2 86 62 be 7d 51 d5 3d dc 2e 1e be aa d2 34 3e
       -0.22121766 0.10415933 -0.15447563 0.17658487
000050 2c 93 d2 bc 00 3f 9a be a0 08 06 be f4 d6 a9 3e
       -0.025704943 -0.3012619 -0.13089228 0.3317181
000060 ab 1a 92 bc b2 c0 14 3e 5f 0e 2e be 02 24 f4 bc
       -0.017834982 0.14526632 -0.1699767 -0.029802326
000070 d5 e2 a6 bd fa 32 6f be 40 c1 26 3c bf f9 60 be
       -0.081487335 -0.2335929 0.01017791 -0.2197027
000080 28 da 72 be 59 31 4a 3e b3 6e ee 3c 0e cd 6c be
       -0.23716033 0.19745387 0.02910552 -0.23125097
000090 82 ab b4 3e 1e 9a 24 be c4 00 28 3e fe 2a f1 3c
       0.352871 -0.16074416 0.16406542 0.029439446
0000a0 88 ea 85 be 8f 9c 52 be a7 fd c3 3d dc 73 3d be
       -0.26155496 -0.20567535 0.09569865 -0.18501228
0000b0 17 5d a4 3e a1 7f 62 3e 7b 98 6c be a6 71 95 bd
       0.32102272 0.22118999 -0.23105042 -0.07297067
0000c0 3a b9 2d be 7c 24 ae 3c a2 0b 8e bd 9d 02 75 be
       -0.1696519 0.021257631 -0.069358125 -0.23926778
0000d0 e9 65 b8 bd 97 c8 9d 3c 60 b2 2b 3e 5d f7 f1 bd
       -0.09003813 0.019260688 0.16767263 -0.11814759
0000e0 7d aa 84 3e 44 3a c4 bd 21 34 66 bd b0 49 1e be
       0.25911322 -0.09581426 -0.056202058 -0.15457797
0000f0 3c 1d 47 be 21 31 a3 3e 02 c7 81 be 50 b8 5a be
       -0.19444746 0.3187342 -0.25347143 -0.21359372

action_layer.2.weight f4 [64, 64]
000000 83 25 ae bd 51 4c aa 3d c9 06 d4 3d 65 8b c0 3d
       -0.085032485 0.083153374 0.10352857 0.094015874
000010 62 2e bb bd 18 f5 77 bd 26 4d 17 be dc 42 2f 3d
       -0.09139706 -0.060536474 -0.14775524 0.04278837
000020 27 0d 9b 3b 78 e6 d3 3c 65 c1 ef bd bd df 13 3d
       0.0047317925 0.025866732 -0.11706809 0.036102045
000030 f4 a2 82 bc 83 f9 f4 bd bf 66 89 bc 86 a2 d4 39
       -0.015946843 -0.11961653 -0.016772626 0.0004055688
000040 78 22 90 bd 1f 5f 9b 3d fc e3 ce bd 61 6d d8 bd
       -0.070378244 0.07586502 -0.10102078 -0.10567737
000050 fc b8 9c 3d 3e 5d a6 bc ed f2 a4 bd c8 95 47 bd
       0.076524705 -0.020308133 -0.08054147 -0.048726827
000060 7b ef 7f 3d 61 3f e9 3d 9f 1a a6 bd 77 18 07 3c
       0.062484246 0.11389042 -0.08110546 0.008245579
000070 b0 bf 6e 3d 8a 59 a6 3d 1d 5e 70 3c c4 43 cc bc
       0.058288276 0.08122547 0.014670876 -0.024934657
000080 e5 cd 63 bd eb 88 07 3d 90 c5 cd 3d 03 8d da 3d
       -0.05561628 0.03308956 0.10047448 0.10671427
000090 b0 cd ca ba fa 0a bc bd cd c1 96 bd 36 4d bc 3c
       -0.0015472677 -0.09181781 -0.07361183 0.022986036
0000a0 81 94 e0 3d 0c f2 a2 bc d0 94 8a bb c4 f9 40 3d
       0.10965825 -0.019890808 -0.0042291656 0.047113195
0000b0 dd a9 e3 3d d8 e5 73 3d 62 0e 47 3d bb 2f a8 bd
       0.11116383 0.059545368 0.0485977 -0.08212229
0000c0 4f 56 23 3d 62 04 ce 3d 7f 19 c4 3d 17 0a eb 3d
       0.039877232 0.1005943 0.095751755 0.11476534
0000d0 5c 88 bf 3d ee 72 d7 bd dd eb de 3c dd 73 ab 3d
       0.0935218 -0.10519968 0.027212078 0.083717085
0000e0 50 a9 b2 bd 87 01 41 bd 3a 03 d9 bd e4 6f c9 bc
       -0.087237 -0.047120597 -0.105963185 -0.024589486
0000f0 d3 79 ed bb 84 80 e3 3c 85 ad dd 3b 47 2e f3 bc
       -0.0072471886 0.027771242 0.00676507 -0.029685153
000100 cb 68 25 3d 53 88 dc bd 37 c7 b7 bd 10 13 5c bd
       0.04038314 -0.10768189 -0.08973544 -0.053729117
000110 7d a9 85 3d fd bf 15 bc 87 cb 06 3d 84 c0 d8 bd
       0.06526468 -0.009140012 0.032908943 -0.105835944
000120 34 d5 69 bd 59 21 7e bd 1b 3f 86 bd 78 8a a0 bd
       -0.057088092 -0.06204352 -0.06555005 -0.07838911
000130 3c 37 84 b9 e5 bf e1 bd a1 2b 96 bd b2 61 f6 bc
       -0.00025218155 -0.11022929 -0.0733254 -0.030075882
000140 74 02 03 3e 6a 69 52 3d 65 e0 53 3c 26 4c e4 bd
       0.12793905 0.051370062 0.012931918 -0.11147337
000150 a9 f1 83 bd b1 86 1f bb 6e 3e cf bd dd 51 81 bd
       -0.064425774 -0.0024341757 -0.101193294 -0.06314442
000160 4e 24 c2 3d 3e 47 80 3d df 84 86 3d fb ea c3 3d
       0.09479581 0.06263588 0.06568312 0.09566303
000170 ec ff 02 3e 98 1d 7c bb ec da 1c 3d 23 f1 e7 bc
       0.12792939 -0.0038469788 0.038294718 -0.028313225
000180 26 be ef 3d f4 30 2d bd ed ae f4 3c df ca d5 bc
       0.1170619 -0.042283013 0.029868567 -0.026097713
000190 02 47 32 3d bd 72 da bc bd 25 80 bd c5 0a b5 3d
       0.04352475 -0.02666604 -0.06257198 0.08839945
0001a0 8a 57 16 bd ea f8 a6 3d 4b fb 2b bd 50 73 d0 bd
       -0.036704578 0.08152945 -0.0419877 -0.10178244
0001b0 37 28 b3 3d 64 52 9c bd 40 b9 d0 3d ed 15 98 bd
       0.08747905 -0.07632902 0.10191584 -0.07426057
0001c0 c5 9f 2b 3d 5d db a5 bd fe 65 b3 3d 3f 4e 93 3d
       0.041900415 -0.08098481 0.08759688 0.07192659
0001d0 4b 78 07 bd d6 4c 10 bc 94 c8 f8 bd 35 cb e6 3d
       -0.033073705 -0.008807382 -0.12147632 0.112692274
0001e0 57 12 17 bd ce 55 1d 3c 37 8f a9 3d d9 5a 77 bd
       -0.036882725 0.009602977 0.08279269 -0.060389373
0001f0 4e aa 9e 3c 6f 26 df bc 57 76 23 bd fc ab e3 3d
       0.019368317 -0.027240006 -0.03990778 0.11116788
000200 45 f1 76 3d 42 65 f0 bd ea c7 15 bd dc d7 6b 3d
       0.060288686 -0.117380634 -0.036567606 0.057578906
000210 60 98 39 bd 93 10 d0 3d 08 61 d0 bd f3 90 25 bd
       -0.04531133 0.10159411 -0.10174757 -0.040421437
000220 a3 c5 01 3e 07 c2 aa 3d 70 5a 28 3d 5c e6 b6 bc
       0.12673049 0.08337789 0.041101873 -0.02232664
000230 94 80 c2 3c e4 0c 77 3d c3 e5 c3 bd 99 51 c1 3d
       0.023742951 0.060315028 -0.09565308 0.09439392
000240 e1 db db bd f0 2c af 3d b2 67 8b 3c 63 8c 91 bd
       -0.10735298 0.08553493 0.01701722 -0.07106855
000250 29 0a 4a 3b b2 26 30 3d 29 53 e8 3d d3 ac 79 bd
       0.003082881 0.043005653 0.113439865 -0.060955834
000260 9a b5 9c 3c 00 4e 54 3d 08 d3 cc bc 11 69 b2 bb
       0.019129563 0.0518322 -0.025002971 -0.005444654
000270 0e 63 f7 3c 72 b4 83 3d 70 ce 35 3c 17 6d 8d 3d
       0.0301986 0.064309016 0.011096582 0.06905573
000280 9f fe dc 3c 1e ac 95 bc 40 f2 93 3d 65 18 61 bc
       0.026976882 -0.018270548 0.0722394 -0.013738726
000290 0a 8b b0 3d 76 07 a1 3d f0 29 0a bd ba 07 d8 3d
       0.086202696 0.07862751 -0.0337314 0.10548349
0002a0 8a 0d ff bc ca b3 dd bd 6f a2 40 3c 37 ff 8e 3d
       -0.031134386 -0.10825308 0.011757477 0.06982272
0002b0 da d0 48 bd ac 56 9a 3d db 2d 36 3d 4f 42 e9 bc
       -0.0490273 0.075360626 0.044477325 -0.028474001
0002c0 d6 f8 f4 3d 05 9d dc bd 04 d6 67 bd 49 19 96 3d
       0.11961524 -0.107721366 -0.056600586 0.073290415
0002d0 a7 95 85 bc 96 ea e0 3d 45 ae a9 bd ea cc b5 bc
       -0.016306711 0.10982244 -0.082851924 -0.022192437
0002e0 c9 ed 8c bd 85 89 d3 bd a7 30 f4 bd 23 92 b2 bd
       -0.068812914 -0.10328964 -0.11923342 -0.087192796
0002f0 e4 07 2f bd f9 50 87 bd 8b 09 64 3d a4 01 ba 3d
       -0.042732134 -0.06607241 0.055673163 0.09082344
000300 5b bb 01 be 91 5f 9e 3d 9c 32 a4 bd c4 3e 83 bd
       -0.12669127 0.077330716 -0.080174655 -0.06408456
000310 b3 1e 7a bd d5 34 95 3c 61 5b 51 bc a9 d7 cc bc
       -0.061064433 0.018213669 -0.012778134 -0.025005179
000320 be af 8e bd 67 b9 b1 bd 7f d3 77 bd 06 2f 68 bd
       -0.06967114 -0.08677941 -0.060504433 -0.05668547
000330 68 1c 7a 3d 2e 96 21 3d 18 f7 ad 3c 04 a1 25 3d
       0.061062247 0.039449863 0.021235988 0.04043676
000340 64 d4 19 3d 87 19 75 3d 79 8d 2c bd fd 50 9b 3d
       0.037556067 0.059838798 -0.042127106 0.07583807
000350 80 5c 34 bb 68 f4 e4 3c 81 b5 97 3d 51 2e a8 3d
       -0.0027520955 0.027948573 0.07407666 0.08211959
000360 5f e1 e9 bd da 32 2c bd bd 26 97 bc ba 02 73 3c
       -0.11419939 -0.042040683 -0.018451089 0.014832193
000370 55 31 f4 bd a4 00 a9 3c e6 cf b9 3d 09 ae f7 bd
       -0.11923472 0.020630188 0.090728566 -0.120937414
000380 16 9d bb 3d f3 95 4a bc d9 08 bf 3d 5a fd f8 bc
       0.09160821 -0.012364852 0.093278594 -0.030394245
000390 05 f3 da 3d 61 d9 96 3b a1 10 6c bd 3b b2 47 3b
       0.106908835 0.0046035503 -0.057633046 0.0030471224
0003a0 da 2c fb bd 42 df 82 bd 73 f1 9c bd b4 40 03 bc
       -0.12264414 -0.06390239 -0.0766324 -0.008011032
0003b0 00 15 53 bd b5 a9 be 3c 36 93 b0 3d e0 5a ed bd
       -0.0515337 0.023274282 0.08621828 -0.11589599
0003c0 75 6c 34 3d cd 2f f4 3d f0 41 c4 bd ce ce c2 bd
       0.044048745 0.1192318 -0.09582889 -0.09512101
0003d0 b6 1b 10 3c 1f 4e a5 bd a0 ba c8 bb 4f d6 bd 3d
       0.008795669 -0.08071541 -0.006125763 0.09269392
0003e0 e0 f4 9d bd 2a fa 22 3c 87 d1 c8 3d 96 a7 ed 3d
       -0.07712722 0.009947339 0.09805589 0.1160423
0003f0 4e d0 87 3d c4 0c 8b 3d 5b 75 eb bd 6b f5 fd 3d
       0.06631528 0.06789544 -0.11496993 0.124003254

action_layer.2.bias f4 [64]
000000 b8 99 6d bd 90 3c d9 bd cd b8 83 3c e7 5f 42 bd
       -0.058007926 -0.106072545 0.01607933 -0.04745474
000010 20 c1 8d bd 0e bd 83 bd ad 2b 9c 3d 84 74 00 3d
       -0.06921601 -0.06432544 0.07625518 0.031361118
000020 2b 8b d8 bd 4b b9 35 bd 92 de d2 3d 74 04 57 bc
       -0.10573419 -0.044366162 0.10296358 -0.01312362
000030 01 b5 ee bd b9 6e 97 3b bb cd ee bc 80 df 9b 3d
       -0.116556175 0.0046213535 -0.029150834 0.076109886
000040 3e ae b5 3d db 6c 43 3c 52 bf 9a 3c 83 7d 9d 3d
       0.08871125 0.011927809 0.018890057 0.07689955
000050 53 cc 84 bd b0 40 33 bc 8b f4 1a bd d5 d5 92 bd
       -0.06484284 -0.010940716 -0.03783087 -0.071696915
000060 d6 b3 20 3d a8 23 cf 3c 46 aa f5 3d 05 3b 99 3d
       0.039234005 0.025285557 0.11995368 0.0748196
000070 00 9c 97 3c e1 9d 8a 3d e8 02 d8 3d a6 29 fc bc
       0.018507004 0.06768394 0.10547429 -0.030781578
000080 55 81 06 3c ef ec a3 3d 49 f4 a4 3c cf 15 df bd
       0.008209546 0.08004176 0.020136015 -0.108928315
000090 39 2b 96 bd 76 49 26 bd 4c 31 bb 3d a4 27 b2 bd
       -0.07332463 -0.0405974 0.09140262 -0.08698967
0000a0 2d 24 24 bd 20 9d 28 3d a8 01 39 bd 2c b4 a0 bd
       -0.040073562 0.04116547 -0.045167595 -0.07846865
0000b0 b7 bd cc 3d 38 0a 20 bc ae 3d ee bb ec 5b f0 3d
       0.09997123 -0.009768061 -0.0072705364 0.11736283
0000c0 a3 c1 0f bd 5e c9 d6 3d b4 28 35 3d b8 66 43 3d
       -0.035096776 0.104876265 0.04422827 0.047705382
0000d0 fc 31 14 bd 88 f0 d8 bd 33 e6 52 3d b9 2a 3b bd
       -0.03618048 -0.10592753 0.051489066 -0.04569504
0000e0 17 fd c1 bd ce ca 0c bd ed 87 e2 3c a1 f9 98 bd
       -0.09472101 -0.034373097 0.027652705 -0.07469488
0000f0 ed d6 b7 3d cb 7c ac 3d 5b 14 fa 3d 1d eb 4e bd
       0.08976541 0.0842224 0.12210914 -0.05051719

action_layer.4.weight f4 [4, 64]
000000 b2 02 b6 bc 7b b7 0f 3d 0c a2 e2 3d 47 f9 ea bc
       -0.022218082 0.03508709 0.11066064 -0.028683318
000010 3b cb 67 bd 34 8a f0 3c fd ab 9f bc 00 c3 9e 3d
       -0.0565903 0.029362775 -0.01949119 0.07752037
000020 f9 03 63 3d 4c 03 37 3b f1 41 95 3d c3 7d 43 3d
       0.05542371 0.002792555 0.07287968 0.047727358
000030 ba a1 ae 3c 13 93 5f bd 23 90 1f bd 62 11 7c 3d
       0.021317352 -0.05458362 -0.03895582 0.061540015
000040 d3 fe 25 3d 8d a5 cd 3d 56 61 eb 3b a7 78 b0 bd
       0.040526222 0.10041342 0.007183234 -0.086167626
000050 9c cb e4 bb d2 10 62 bd c0 b3 a1 3d 34 4d 8e bd
       -0.00698228 -0.055191822 0.07895613 -0.06948319
000060 14 31 14 bc 0e 76 16 bb 4c c7 81 bc 89 9d e2 3d
       -0.009044904 -0.002295855 -0.015842102 0.11065204
000070 e4 ba 8f bd 28 b4 87 3c 72 48 74 bd 05 92 ab bd
       -0.070180684 0.016565397 -0.0596394 -0.083774604
000080 c7 ba 14 bd 97 30 61 3d 41 f3 dd bd 2d 71 a0 bd
       -0.036310937 0.05497798 -0.108374126 -0.078340866
000090 9e 8c b9 3c 71 46 b2 bb 08 d6 c0 3d 79 e2 ba bd
       0.02265006 -0.005440526 0.09415823 -0.091252275
0000a0 51 86 58 bd 7f 6f 7d bd 62 74 9c 3d 79 fc 84 3d
       -0.05286247 -0.06187391 0.07639386 0.06493468
0000b0 86 bc b7 3d bd d2 ca 3c b4 4e 86 3d c7 13 b5 3d
       0.08971505 0.024758691 0.0655798 0.08841663
0000c0 02 7e 85 bd 9e dc 8f bd 18 dd bc bd 09 1a 35 bd
       -0.06518175 -0.07024501 -0.09221858 -0.044214282
0000d0 bc 70 9d bd 83 f3 87 bc b7 ee c6 bd e7 f1 bc 3d
       -0.07687518 -0.016595608 -0.097135 0.09225827
0000e0 1e 16 af bd 5e c1 8d bd 02 3e 32 3d 11 03 c1 3d
       -0.085491404 -0.069216475 0.043516167 0.09424413
0000f0 d6 c3 be bd a2 7a 85 3c ae c4 e4 bd 5a 53 df bd
       -0.093146965 0.016293827 -0.11170326 -0.1090457
000100 cf 15 9a bd ed fd 80 bc a8 5e 50 3d 21 e6 8b bc
       -0.07523691 -0.015746081 0.05087152 -0.017077507
000110 67 72 85 3d 3f 8a c3 bb a2 9a e7 3c 63 d3 e7 3d
       0.06515961 -0.005967408 0.028271977 0.11319616
000120 c1 2a f2 bd 70 3f be 3c 63 72 d8 3d 3a 10 f7 bd
       -0.11824561 0.023223609 0.105686925 -0.12063642
000130 f1 bd 8d 3d a1 dc df bd 34 20 2e bd 73 66 93 bc
       0.06920994 -0.109307535 -0.04251118 -0.017993188
000140 3f ba bd 3d 2c a7 0f 3e f4 9a dd 3d a2 59 c3 3d
       0.09264039 0.14028615 0.108205706 0.095385805
000150 c8 79 06 bd 1d a3 48 3d c7 93 8b 3c 6f 16 bf 3d
       -0.032830983 0.048983682 0.01703824 0.09330451
000160 8f c4 d4 3d 5d ca f5 3d 02 c7 12 bd 77 c5 52 3c
       0.10389053 0.12001488 -0.03583432 0.012864462
000170 05 26 98 3d a3 80 d2 3c 55 91 d6 bd 06 04 d6 bd
       0.07429127 0.025696104 -0.10476939 -0.10449986
000180 1d 5a bd 3d 99 74 cd bd 57 7c 2a bc 9b 63 9c bd
       0.09245703 -0.10032005 -0.0104056215 -0.07636186
000190 cd a8 03 bb 56 97 ec 3d 76 20 d5 3d 52 45 9b 3d
       -0.0020089627 0.115523025 0.10406582 0.07581581
0001a0 3a 04 e0 bc f5 1f 07 3e c2 79 a7 3d 22 57 cd bc
       -0.027345765 0.13195784 0.0817752 -0.025065962
0001b0 fb 49 5e bd ea af bc bd 4a da 13 bc 12 4e 09 3d
       -0.054269772 -0.092132404 -0.009024212 0.03352172
0001c0 57 eb 9c bc 76 92 a8 bb 13 4a 04 bd 3c 3e 29 3d
       -0.019155188 -0.0051444126 -0.032297205 0.041319117
0001d0 64 dc eb bd d7 d4 83 3d a5 c1 07 bd 76 1e 2a bc
       -0.115166456 0.0643708 -0.03314366 -0.010383239
0001e0 65 81 9e bd e9 fa 17 3d 60 55 77 bd 67 9d 6c 3c
       -0.07739524 0.03710452 -0.060384154 0.0144418245
0001f0 a7 f3 82 bd db 20 cf bc 27 47 b0 bc 0c 7c c9 bd
       -0.06394129 -0.025284221 -0.021518303 -0.09838113
000200 c7 5c c2 3c 23 b6 17 bd 9d 38 dc bd 92 34 a4 bb
       0.02372588 -0.037038933 -0.107529856 -0.0050111497
000210 24 bf c6 3d 72 a8 e5 bd 4e 3c 2a 3b cb a4 c3 bc
       0.09704426 -0.11213769 0.0025975886 -0.02388229
000220 dd 42 d3 3d 61 1d 3a 3b e9 8e bb bd 2f 12 31 3c
       0.103154875 0.002839886 -0.09158117 0.010807558
000230 e5 3c 1d 3d ab e2 af bc a4 75 03 3d 87 d7 e9 3c
       0.03838815 -0.021470388 0.032094613 0.028545154
000240 a2 3d 92 bd 16 51 6f 3d 0e 8d e1 3d 5f 51 ed bd
       -0.07140662 0.05842694 0.11013232 -0.11587786
000250 f8 1a b8 3d 03 71 99 bc 69 a8 9b bd 20 5d 7f bd
       0.08989519 -0.018730646 -0.07600481 -0.06234467
000260 7f dc f6 3c 50 0f 72 bc da a4 b5 bd 62 5a a9 bd
       0.030134438 -0.014774159 -0.088693336 -0.08269192
000270 97 cc a9 3d f2 5e 3f 3d 9a f3 b5 bd 6f 47 24 bd
       0.082909755 0.046721406 -0.08884354 -0.040107187
000280 0b 0d 43 bd 48 98 b9 3d 77 60 97 bc 4c fe d6 bd
       -0.04761986 0.090622485 -0.018478615 -0.10497722
000290 1b 5e 23 3d a9 e7 5e 3d d6 7f 83 bd 28 a1 74 bd
       0.039884668 0.054420147 -0.06420867 -0.059724003
0002a0 d9 c4 bb 3d 54 fd a1 bd 4f ca 94 3d 26 fe 1f 3d
       0.09168405 -0.07909647 0.0726515 0.039060734
0002b0 f8 11 f2 3c b8 c4 85 3d 56 cc d3 bd 02 36 00 3b
       0.029549584 0.06531662 -0.10341708 0.0019563441
0002c0 3c ba 70 3d 6e 32 b1 3d d0 cb d0 bd a4 41 9c 3d
       0.058771357 0.08652197 -0.10195124 0.076297075
0002d0 b7 b1 97 bc bb 5c 62 bd 76 1c cf 3d f5 d7 9f 3d
       -0.018517358 -0.055264216 0.1011285 0.078048624
0002e0 c4 fb 8f bd 9e fd bf bd 32 38 d9 bd bf aa c2 3d
       -0.07030442 -0.093745455 -0.106064215 0.095052235
0002f0 d5 6b d2 3b 49 70 10 3c 95 15 be 3d 4d 2d d3 3d
       0.006421546 0.008815833 0.0928146 0.10311375
000300 c1 ee d0 3d 3d b1 a1 bd 54 00 e7 bc 0a 2d c1 3d
       0.10201789 -0.07895134 -0.028198399 0.09432419
000310 07 15 80 3d 96 9a cb ba 14 4b a1 3d bb 6c ab bd
       0.06254011 -0.0015533741 0.07875648 -0.08370348
000320 4b 44 22 bc 30 96 23 bd 58 1f 05 be 41 99 1f 3e
       -0.009903978 -0.03993815 -0.13000238 0.15585805
000330 a1 b5 1f bc 36 96 90 3d 4d 65 37 bd 48 dd 9d bd
       -0.009747894 0.070599005 -0.044774342 -0.07708222
000340 af 17 0e 3d 8a fe f5 bd 07 5f 84 3b 61 92 11 bd
       0.034690555 -0.1201144 0.0040396485 -0.03553999
000350 58 f7 d6 bc 3c 95 b6 3d b2 05 85 bd 71 d8 b0 bd
       -0.02624099 0.08915183 -0.06495227 -0.08635033
000360 d5 34 e7 3d 4e 45 02 be 7f 9e e9 bb 3c 89 82 3d
       0.11289374 -0.1272175 -0.00712949 0.06373832
000370 e5 4d 18 bc e3 14 13 bd 3a 02 a0 bd 1d 4a 3b bc
       -0.009295915 -0.03590859 -0.07812925 -0.011431244
000380 f2 dd 9c 3d 31 61 6c 3d 7f b4 10 bd b2 e0 f8 3c
       0.0765952 0.057709876 -0.035328384 0.03038058
000390 8e 57 2a 3d b1 fc 72 bc 19 67 3a 3d ed 56 70 3d
       0.041587405 -0.014830754 0.045508478 0.05867665
0003a0 6f 07 ae bd 71 8b b8 bd a0 6e d5 3d ae da 6a bd
       -0.084975116 -0.09010971 0.10421491 -0.057337455
0003b0 4e 5e c2 3c dd a8 a4 bd 01 23 fd bd 4c 0b e7 bd
       0.023726609 -0.080400206 -0.12360192 -0.112814516
0003c0 2a 6e b6 bd 05 f0 33 3d 57 6e 3e ba d8 59 16 bd
       -0.08907731 0.043930072 -0.0007264367 -0.036706775
0003d0 2a b8 c2 bd 2c 90 30 bc ac 31 7d 3d 7f 85 e3 3d
       -0.09507783 -0.010776561 0.06181495 0.11109447
0003e0 13 34 a9 3d a1 ec a7 bd fb 61 b1 bc 88 f3 42 bd
       0.082618855 -0.0819943 -0.021653166 -0.04759553
0003f0 9e 82 f2 bd 89 7e e9 3d 8f 7f 5f bd 4e 6f 4d bd
       -0.118413195 0.11401088 -0.05456501 -0.050154977

action_layer.4.bias f4 [4]
000000 d0 04 b8 3d 8d e6 d1 3d 7e ce a1 3d 70 2d ab bc
       0.08985293 0.10249052 0.079007134 -0.02089569

value_layer.0.weight f4 [64, 8]
000000 d7 6e 98 be a3 d7 46 be 37 0d e3 bd 85 15 63 3e
       -0.29772064 -0.19418196 -0.11086505 0.22176178
000010 b6 bf b0 be 71 8c 7e 3e 7f 39 b8 bd 76 f7 08 be
       -0.34521264 0.24858262 -0.089953415 -0.13375649
000020 bf f0 1e bd bb b8 03 3e b9 51 73 3e 8c 9a 58 be
       -0.038803812 0.12863438 0.23761643 -0.21152705
000030 cb af 8b be 33 f7 b6 3e 8b aa 9c 3d dc 54 39 3e
       -0.27282557 0.35735473 0.07649716 0.18098778
000040 2d f0 82 be e0 c9 de bd 27 41 29 3c c5 cb b8 be
       -0.25573865 -0.10878348 0.010330475 -0.36092964
000050 84 d1 d5 3d ba aa 61 be e2 22 33 be 19 88 9e 3e
       0.104403526 -0.22037783 -0.17493775 0.3096321
000060 04 17 02 be dd bf 59 bd ed 35 d3 3d f6 fc 27 3d
       -0.12704092 -0.05316149 0.1031302 0.041012727
000070 a8 fa 36 be be ed 8d be 8d 1c 8d be 8b d0 83 3e
       -0.17869055 -0.27720445 -0.27560845 0.25745043
000080 f4 0c 82 be ce 36 ac 3e c9 a7 81 3e 89 80 94 be
       -0.25400507 0.33635563 0.25323322 -0.29004315
000090 2d 84 7f bc b0 67 38 be ad 4e fe 3d 5b f5 3d 3e
       -0.015595478 -0.18008304 0.1241735 0.18550627
0000a0 e9 60 58 bd d4 18 9c 3d 3e 6b ac 3e c2 3c 94 be
       -0.052826796 0.07621923 0.3367557 -0.28952605
0000b0 61 0a e4 3d e1 40 64 be d9 5a 2b be 78 97 00 3e
       0.11134792 -0.22290374 -0.16733874 0.1255778
0000c0 ac 99 6e be ad 44 0d 3c c2 3f 2a bd ea a3 76 3e
       -0.23300809 0.008622331 -0.04156471 0.24085966
0000d0 8c 03 1f 3b dc 42 53 3d c5 ad 3d 3e af 8a 01 3e
       0.0024263589 0.051577434 0.18523319 0.1265056
0000e0 16 b8 8d be a5 18 3b be 5f b1 a7 3e 9b 61 3e 3e
       -0.2767951 -0.1827112 0.3275251 0.18591921
0000f0 27 5b 87 3d a6 54 4a 3d 2a 17 16 bd 5d 01 1d 3d
       0.06609183 0.049397133 -0.036643185 0.03833138
000100 8e 2d c6 bb 2d 2c f3 3d c4 18 54 be fd 6b 3b 3e
       -0.006047911 0.1187366 -0.20712572 0.18302913
000110 61 4a 98 bd 90 3e 7e be 4c 5c 97 be 2e 27 57 3e
       -0.07436062 -0.24828553 -0.29562604 0.2101104
000120 cc 6c ac 3d 08 42 b3 3d 7e ef de 3d 6f cb 10 3e
       0.08419189 0.08752829 0.10885523 0.14140104
000130 c4 7b 27 be 7c 27 f1 bd 98 05 78 3e 3f ae b9 be
       -0.16355807 -0.11775109 0.24220884 -0.36265752
000140 ad 8f 3a bd 98 90 0a 3e bc 9a 22 3e f5 1a 3c 3e
       -0.045547176 0.1353172 0.15879339 0.18369658
000150 04 50 90 3d 46 1a 9d be 38 ea 11 be 87 e8 27 3e
       0.07046512 -0.30684108 -0.14249504 0.16397296
000160 96 b1 96 be 94 1d 7e be 12 3d 05 3e 73 de a9 bd
       -0.29432362 -0.2481597 0.13011578 -0.08294382
000170 22 20 cf bd cc 8d 1e 3d cd 7b 13 bd 7e 0b 92 3e
       -0.10113551 0.038709447 -0.036006738 0.28524393
000180 ea b0 43 be 46 52 87 be 48 0e bd bd 6c 97 95 be
       -0.19110456 -0.26429957 -0.092312396 -0.29217088
000190 b9 fc 22 3e 45 24 80 bd 7d 0a 01 3e 57 b8 80 bc
       0.15916719 -0.06256918 0.12601657 -0.0157129
0001a0 d3 38 49 bd 73 ed 85 3e 18 8c 73 be a8 6e c2 bd
       -0.049126457 0.26157722 -0.2378391 -0.09493762
0001b0 9e d1 39 bc 3e 69 cf 3d 28 47 38 bd f1 aa ca bd
       -0.011341481 0.10127495 -0.044989735 -0.09895886
0001c0 b1 b5 21 be e8 fc 91 be 60 4d b2 be e8 f2 b0 3e
       -0.15791966 -0.28513265 -0.34824657 0.34560323
0001d0 87 7d 93 bd f2 64 33 bd 0f 1d 84 3e b5 d0 1c 3e
       -0.07201677 -0.04379744 0.2580342 0.1531399
0001e0 03 f8 9b 3e 85 9b 83 3e e1 a1 52 3e d2 06 5b be
       0.30462655 0.2570459 0.20569564 -0.2138932
0001f0 ed ee cc bd 19 31 21 be 24 60 58 be a6 77 c0 be
       -0.10006509 -0.15741386 -0.21130425 -0.37591285
000200 dc 87 25 be 0e da b0 3e e2 d8 a8 3e 56 ec 99 3d
       -0.16165107 0.34541363 0.32977968 0.07515781
000210 18 6f 68 3d 63 f4 77 be a2 bb 86 bd 59 23 43 3e
       0.056746572 -0.2421432 -0.06578757 0.19056453
000220 f9 32 79 3e 3b e7 17 be 5d 57 99 3e 3d 9d 8d bd
       0.24335851 -0.14834301 0.29949465 -0.069147564
000230 63 06 8b be 74 1e 9e 3e c1 42 4f 3e 5e 03 05 be
       -0.2715331 0.3088261 0.20240308 -0.12989566
000240 30 00 40 3e 48 14 bc 3d 45 8d 7c bc e0 31 04 be
       0.18750072 0.09183556 -0.015414541 -0.12909651
000250 b1 b0 27 be 23 dd 22 be a7 70 4d be ee a3 41 3e
       -0.16375996 -0.1590467 -0.20062505 0.1891019
000260 4a 8c 0f 3e e1 16 b0 3c 41 93 a4 3d 1d af 72 3e
       0.1401836 0.021495285 0.08035899 0.23699613
000270 b0 61 a5 3e 83 ac 91 3c d9 ce ca bc 69 9f c1 bd
       0.32301092 0.017782455 -0.024756836 -0.09454233
000280 37 d7 74 bd 9c 7a 3a be 27 57 4d be a6 13 5e be
       -0.059775557 -0.18210834 -0.20052777 -0.21687183
000290 8e fa 8b be 8a e4 6e be 05 af 9c 3e a4 6c 84 be
       -0.27339596 -0.23329368 0.3060228 -0.25864136
0002a0 eb 2b 99 3e 22 5f 0d 3e cd b7 d0 3d 38 eb 16 3e
       0.2991632 0.13805822 0.10191307 0.14738166
0002b0 9a ec 8d 3e 68 33 f8 3d 3a 73 82 3e 9a 54 a0 be
       0.27719575 0.1211918 0.25478536 -0.31314546
0002c0 88 e3 cd 3d 52 75 1b 3d 5c 93 44 bb 19 2b 67 bc
       0.10053164 0.037953682 -0.002999506 -0.014109396
0002d0 b3 39 69 be 23 77 90 3e d4 2b 0a be dc 7d 8f 3e
       -0.22775917 0.28215894 -0.13493282 0.2802571
0002e0 23 04 98 be 24 2e 9b 3e f2 4b 58 bd ba 30 9d 3e
       -0.29690656 0.3030864 -0.052806802 0.30701238
0002f0 d0 bc 10 bd 59 ba 9b 3d 99 7e 4c be 0b 39 c9 be
       -0.035336316 0.07603902 -0.19970168 -0.39301333
000300 d5 e1 5c be 8f 35 20 bd e8 c9 6f 3e 5b 65 2f be
       -0.21570523 -0.039113577 0.23416865 -0.17128508
000310 e1 86 9e 3e 3a 54 a5 3e 54 b5 2c be e6 f9 9c 3d
       0.3096228 0.32290822 -0.16866046 0.07664852
000320 f8 61 b3 bd 9a 0c 93 3e fe 89 30 3e ef ec ad bd
       -0.087589204 0.28720552 0.1724014 -0.08492457
000330 42 71 e0 3d e8 43 80 3e 94 6e af 3e cb a8 96 3e
       0.10959102 0.25051808 0.34264052 0.29425654
000340 42 0d 0a be 60 2d da bd 68 8f 34 3e 8d ee 4a be
       -0.1348162 -0.10653186 0.1763283 -0.19817562
000350 ba 41 3f 3e 6e 44 d3 bd 78 b5 84 be 88 89 fb 3c
       0.18677416 -0.10315786 -0.259197 0.030705228
000360 0d 30 83 3e 84 30 a8 3e 5c 42 82 bb 02 b4 ab 3e
       0.25622597 0.32849514 -0.003975196 0.33535773
000370 e8 d0 7a 3e 9a 16 c1 3d 13 fd 9c 3e 00 d2 5f 3e
       0.24493754 0.09428139 0.3066183 0.21857452
000380 5e ff 01 3d 47 7d a6 3e 37 07 d8 bc 87 a3 9b bd
       0.031737678 0.32517454 -0.026370628 -0.0759955
000390 b3 60 c2 3d a1 d1 3d be 05 5c 58 be f7 bf a8 3e
       0.094911 -0.18536998 -0.21128853 0.32958958
0003a0 61 e0 9b 3e 4c 75 94 be d1 67 f4 3d f6 5d 44 3e
       0.30444625 -0.2899574 0.11933864 0.19176468
0003b0 47 28 28 3e e4 4c aa 3e 6b 44 9b 3e aa 8f c8 3e
       0.16421615 0.33261788 0.30325636 0.39172107
0003c0 95 5d 28 3e 28 d0 a6 3d 9b 5e 01 bc 54 15 92 bd
       0.16441949 0.081451714 -0.007896091 -0.07132974
0003d0 39 88 77 be 30 af e7 3d 56 df 95 3e 49 ae 96 3d
       -0.24173059 0.11312711 0.29271954 0.07357461
0003e0 97 3d 8e bd ac d8 aa 3e 33 25 b3 3d ed a2 0e be
       -0.06945341 0.33368433 0.087473296 -0.13929339
0003f0 f2 43 46 3d 3e 57 4a 3e 09 f0 73 3e 72 5c 9a 3d
       0.04840464 0.19759843 0.23822035 0.07537164

value_layer.0.bias f4 [64]
000000 af e8 b2 bd 5e 01 a6 be a4 c1 8f be d6 19 8d 3e
       -0.08735787 -0.32422918 -0.28077424 0.27558774
000010 b6 05 95 be 0b 93 92 3e 07 0a dc bd f5 41 8e 3c
       -0.2910592 0.2862781 -0.107441 0.017365435
000020 1a 96 92 be 97 60 43 3e 3d 32 03 bd fb 62 51 3e
       -0.28630143 0.19079815 -0.032030333 0.20447914
000030 cd f8 95 3d c1 29 6a 3e 20 4f 2d 3c f5 cb 7e 3e
       0.073228456 0.2286749 0.010577947 0.24882491
000040 22 13 79 be 4b 48 65 3e c1 0f 94 3e c7 61 1f bd
       -0.24323705 0.22390859 0.2891827 -0.038911607
000050 d4 8f 08 be 68 3f 10 be e8 cf 6d be 0c 3e ac bd
       -0.13336116 -0.14086688 -0.23223841 -0.08410272
000060 01 ed 3f bd 33 80 3a 3d 85 9c 2a 3e 6d c6 0b be
       -0.046856884 0.045532417 0.1666127 -0.13649912
000070 49 16 43 3e bb df 64 be fb cc 48 3d 4c 59 85 3e
       0.1905147 -0.22350971 0.04902361 0.2604469
000080 5a f7 a2 3e 23 02 89 3e dc 49 98 be e3 d3 76 bd
       0.3182934 0.26759443 -0.2974385 -0.060260665
000090 b8 9b 47 be cc be 5e bd 18 dd 3d 3e 26 45 89 be
       -0.19492996 -0.054381177 0.18541372 -0.2681057
0000a0 02 24 8b 3e 84 da 28 bd f8 7c 69 bd 09 ec 69 3e
       0.2717591 -0.041224018 -0.057003945 0.22843947
0000b0 57 68 4f be e3 a7 f5 3d 24 dc 22 3d bb ae c4 bd
       -0.20254646 0.119949125 0.039760724 -0.0960364
0000c0 cf ee 52 3d b5 7b 9a bd 6b c3 6d be 17 9f 7b 3e
       0.051497277 -0.075431265 -0.23219077 0.24572407
0000d0 7b 86 d1 3d 04 d3 a9 bc 29 b1 42 be 81 88 7d 3c
       0.10230728 -0.020730503 -0.19012894 0.01547444
0000e0 3f 40 f2 bd 20 35 c4 3c cf b6 9b 3d d6 72 17 3e
       -0.1182866 0.023951113 0.07603227 0.147899
0000f0 1d 5b 09 3e 21 81 25 be 8a 81 9b 3d 7e d5 bc bd
       0.13413663 -0.1616254 0.07593067 -0.09220408

value_layer.2.weight f4 [64, 64]
000000 a4 05 bd bd f9 8a cd 3c a6 4d e4 bd 7e 13 b8 bc
       -0.092295915 0.025090681 -0.11147623 -0.022470232
000010 a6 de c7 bd 62 df 3a 3c ed 88 cc 3d db bb b7 3c
       -0.09759264 0.011405798 0.09987054 0.022428444
000020 86 3e 79 3d d1 ff da 3c 0a 03 df 3c 22 3c c1 3d
       0.060850643 0.02673331 0.027223129 0.094352975
000030 7a 88 c3 bd a1 44 cd b9 00 be ea bd a9 b8 a9 3d
       -0.09547515 -0.0003915178 -0.11462021 0.08287174
000040 24 03 f8 3c 5c 39 aa 3d 52 2d 0f bd 14 f0 1f 3c
       0.030274935 0.08311722 -0.03495533 0.009761829
000050 b6 a2 17 3d 30 3f 10 bd e7 ae aa bd 0d ff 1d 3d
       0.037020408 -0.03521651 -0.08334141 0.038573314
000060 72 cc b9 bd db 08 ac 3d 99 23 de bd 07 95 f7 bd
       -0.09072198 0.084001265 -0.108466335 -0.120889716
000070 5c c0 f0 bd 34 b0 88 3c 5f 91 ef 3d e5 2b 23 bd
       -0.1175544 0.016685583 0.11697649 -0.039836783
000080 70 3e db bd 2b c8 a4 bd bf 24 aa 3c 37 3f 8e 3b
       -0.107052684 -0.080459915 0.020769475 0.004341032
000090 bd bc 88 bd f7 3c aa 3d cf f0 b6 bd ab 59 5d 3d
       -0.06676624 0.08312409 -0.08932649 0.054040592
0000a0 b6 2a 8c 39 38 0d 0b bc 3d 38 6e 3d ca e0 a2 bd
       0.00026734703 -0.008487038 0.0581591 -0.07953031
0000b0 78 9a 82 bd 56 07 c5 bd 4c b6 ee bd a5 92 d1 3c
       -0.06377119 -0.0962054 -0.11655864 0.02558262
0000c0 b3 02 07 bc 51 18 19 3d 62 09 9d bd 14 e9 55 bd
       -0.00824039 0.037376706 -0.07667805 -0.052224234
0000d0 88 61 ad bd 80 31 8b 3d 40 ca 29 3d da 33 d2 3d
       -0.08465868 0.06796551 0.041452646 0.10263796
0000e0 54 b7 3e bd dc 36 93 3c d5 91 e7 bd ed 87 b5 3c
       -0.046561554 0.017970495 -0.11307112 0.022159541
0000f0 f6 a9 43 bd e0 34 02 bd 9b 35 e7 3d 4e 22 c0 3d
       -0.04776951 -0.031788707 0.11289521 0.09381543
000100 bd c3 8b bb 94 d3 43 3c 53 8c 88 bc 41 23 e3 3d
       -0.004265277 0.0119523 -0.016668474 0.110907085
000110 ad 8c 68 3d 75 0e 62 bd 06 42 19 bd 37 68 ff 3d
       0.056774784 -0.05518957 -0.03741648 0.12471049
000120 6b 86 a3 3c 4c 5c 74 3d 13 8d 64 3d f3 23 e5 bc
       0.019961556 0.059658334 0.0557986 -0.027971243
000130 fe e0 7b 3c 60 ce 6a bd 9b c0 3f bd 05 cb d8 3c
       0.015373467 -0.05732572 -0.046814542 0.026463995
000140 8f d0 9f bd 15 30 c6 3d 6d dc 5f bd 4e 42 61 bc
       -0.07803451 0.0967714 -0.054653574 -0.013748718
000150 1f 90 f0 39 e1 75 ed bd 64 0f f6 3c c2 0e d6 bd
       0.00045883746 -0.11594749 0.030036636 -0.104520336
000160 11 86 a7 bd bc 62 ca 3d 58 08 e2 3d f0 cd 0b bd
       -0.08179868 0.09882113 0.11036748 -0.034131944
000170 aa 84 a3 bd e4 88 5e 3d df f2 8a 3c 98 cb 88 3d
       -0.07984288 0.054329768 0.016961513 0.066794574
000180 f9 d4 a8 bd 59 f6 e1 bd 02 e9 cd bd 02 7b e2 3d
       -0.08243746 -0.11033315 -0.10054208 0.11058618
000190 bd 41 3d bd 07 ef 12 bc b0 81 8a 3d 65 96 f0 3d
       -0.04620527 -0.008968121 0.06763017 0.117474355
0001a0 80 61 cf bd f5 b6 b9 bc 9f 9d 69 bd 97 ee 9d bd
       -0.101260185 -0.022670249 -0.057035085 -0.07711523
0001b0 5c b0 f6 bd 91 a4 72 3c 0a 60 93 3c 72 50 69 bd
       -0.12045357 0.0148097435 0.01799013 -0.056961484
0001c0 7b 0a 3d 3d 63 f3 ae bd e0 9d c5 ba b2 70 b3 3d
       0.046152573 -0.08542516 -0.0015076958 0.08761729
0001d0 63 ab 8a bc 05 25 e5 3d 4e d0 dd 3c 87 8c a6 bc
       -0.016927427 0.111887015 0.027076866 -0.02033068
0001e0 d4 29 85 bc 06 9b ee bc 23 5c a1 3d 1d 52 0b bc
       -0.016255297 -0.029126655 0.07878902 -0.008503464
0001f0 eb 20 5b 3d 72 6c 1b bc 48 97 60 3d 24 fe 9f 3b
       0.05349819 -0.009486305 0.054831773 0.004882591
000200 f1 7a ad bd aa 6e d6 3d 14 fd 54 bc ca 9d b5 3d
       -0.08470715 0.10470326 -0.012999792 0.088679865
000210 b7 43 54 bc ee 16 5a bc c9 03 7e 3c 6d 49 2f 3c
       -0.012955598 -0.013311131 0.015503832 0.010698658
000220 39 df 26 bd 47 d0 58 3d df 00 9c 3d 48 e8 95 3d
       -0.040740225 0.052933004 0.07617354 0.07319695
000230 c8 0d 8f 3d ef 75 3a bd 23 ad 13 3d e3 7c dc 3d
       0.069850504 -0.045522626 0.036053788 0.10766008
000240 4f cc c7 bd 71 ed 10 bd 96 0d 05 bd 73 43 13 3d
       -0.09755766 -0.03538269 -0.03248366 0.035952996
000250 2d 6f d9 bc a3 b9 a1 3d 35 c7 aa 3d e9 d2 8a 3d
       -0.02654227 0.078967355 0.08338777 0.06778509
000260 72 cd 64 3d 65 9e e9 3d 7a a0 91 3d 00 b3 79 bd
       0.05585999 0.114071645 0.071106866 -0.060961723
000270 fd 81 56 bd 4a 8c 96 3d 81 9a f7 bd ac cc 09 bc
       -0.05237006 0.07350977 -0.12090016 -0.008410614
000280 01 cf 28 3d 03 3b 46 bd db 03 6b 3c eb 99 0e 3b
       0.04121304 -0.04839612 0.014344181 0.0021759223
000290 ab 31 dc bc 7c 9e d9 bd b6 37 d8 bd c4 7a c7 bd
       -0.026879152 -0.106259316 -0.10557501 -0.097402126
0002a0 29 9e a4 bd 2a e0 a6 3d 06 f5 ca bd 95 d0 ff 3c
       -0.08037979 0.08148225 -0.09910016 0.03122739
0002b0 47 bb 7c bd 2a 85 5c 3d b6 ce f8 bd 66 80 ec 3b
       -0.06170204 0.053837933 -0.12148802 0.0072174547
0002c0 86 92 de bd 0e 16 f2 bd 15 a6 4b bb 7a 3b 1a 3d
       -0.10867791 -0.11820613 -0.0031074334 0.037654378
0002d0 04 af d0 bd 23 eb b7 3d c5 b8 94 bd 3f 68 bb bd
       -0.101896316 0.08980396 -0.072618045 -0.09150743
0002e0 da 95 df bd b4 61 d6 bd 75 2f e2 bd 7f 92 47 3d
       -0.10917254 -0.10467854 -0.11044208 0.048723694
0002f0 df b7 ae bd 01 f8 ac 3d 43 ba 7f bd 3f d6 d0 bd
       -0.085311644 0.084457405 -0.062433492 -0.10197114
000300 11 7a 20 3d 73 66 dd bc 55 e3 79 bd 5b 4b e7 3d
       0.03917891 -0.02702639 -0.061007816 0.1129367
000310 12 51 e8 bd f5 b2 08 bd c5 8d 1f bd 1d d4 7d bd
       -0.11343588 -0.03337379 -0.03895356 -0.061969865
000320 81 b3 21 bd 53 6f 27 3d b5 49 d4 3d 73 c6 ac 3c
       -0.03947783 0.04087765 0.10365621 0.021090722
000330 25 e0 f6 39 21 29 3c bb 3b 36 e9 bd f4 24 4d 3d
       0.00047087777 -0.0028711038 -0.11387297 0.05008407
000340 fa 02 9c 3d e3 6a b3 3c 2b ec 64 3d ee 6e 83 3d
       0.07617755 0.021901553 0.05588929 0.064176425
000350 0a 5d d4 bc 87 79 a9 3d a2 fd 4d bd 37 f1 f2 3d
       -0.02592327 0.082751326 -0.05029071 0.11862414
000360 8d 3d cd 3d a6 cf cf 3d cc 70 d0 bd f7 eb e6 3d
       0.100215055 0.10147028 -0.10177764 0.112754755
000370 f6 23 a5 3d c3 2c 7e 3d 86 aa d9 3d 1b 9f e6 3c
       0.080635 0.062054407 0.10628228 0.02815204
000380 98 90 90 bd 50 9e e7 3d 21 59 26 3d 8b fd 90 3c
       -0.07058829 0.113094926 0.040612344 0.017699024
000390 69 7a f6 3c 3b ad e8 bc f3 ba f0 bd 2c 4e e0 3c
       0.030087667 -0.028402915 -0.11754408 0.027381025
0003a0 56 e0 bd 3d a5 af 1e bc 6b 5a 74 3d 83 f5 6b 3d
       0.09271304 -0.009685432 0.05965654 0.057607185
0003b0 92 6c 5d 3b 86 18 5b 3d 1e a1 5b 3d 0b 18 bd bd
       0.0033786637 0.053490184 0.05362045 -0.092331015
0003c0 ab 15 85 bd e6 72 aa 3d 0a d0 54 bc 39 a4 d3 3c
       -0.064982735 0.083226964 -0.0129890535 0.025835143
0003d0 fe 40 90 3d 3c f3 fd bd 7e 96 b2 3c 41 18 ab 3d
       0.07043646 -0.12399909 0.021800276 0.083542354
0003e0 4e 1d e7 bd 01 76 e5 3d 0f 1e 81 bd 6c 82 51 3d
       -0.11284886 0.11204148 -0.06304561 0.05114977
0003f0 37 ad 79 3d 61 85 82 bd be f2 42 3d be 45 90 3c
       0.060956206 -0.06373096 0.04759478 0.01761138

value_layer.2.bias f4 [64]
000000 1a f6 c2 bd ef b8 ad bd bf 2d 21 bd 11 e2 ee bc
       -0.095195964 -0.08482539 -0.039350267 -0.029160531
000010 a9 bb ea 3d 65 58 02 bd a6 18 bd bd 28 0b 5d 3d
       0.114615746 -0.03182258 -0.09233217 0.053965718
000020 dd 46 eb bd ca c4 dd bd 8f df b9 3d c5 26 db bd
       -0.114881255 -0.1082855 0.090758435 -0.10700754
000030 ae fb fc 3d 14 42 a2 3d e7 38 19 3d 51 d2 f9 bd
       0.123526916 0.0792276 0.037407782 -0.12198318
000040 46 e0 85 bd 4a 8b 5d bd 70 bc bd 3c 40 51 34 bd
       -0.065369174 -0.054087915 0.023161143 -0.0440228
000050 69 38 dd bd 79 8f d4 3d 2d de a3 3c 01 0a c3 bd
       -0.10801775 0.10378928 0.020003403 -0.095233925
000060 4f 72 e8 3c 83 35 05 3d 83 04 a9 3d 2b 65 5c 3d
       0.02837482 0.032521736 0.08252814 0.05380742
000070 9d 54 29 bd 83 bd b5 bc b7 c4 95 bd 67 99 9b 3c
       -0.04134046 -0.022185093 -0.07312911 0.018994046
000080 65 c1 e0 3d ee 50 b7 bd fe 0e d7 bc b1 b3 d9 bb
       0.10974387 -0.08950983 -0.026252266 -0.0066437353
000090 39 9e 52 bd b7 61 11 3c de 2c 93 bc 08 ee e2 3d
       -0.051420424 0.008873395 -0.01796573 0.11080557
0000a0 eb 5a 60 bd 2a a7 72 bd 35 b9 ce 3d 47 f0 d4 bb
       -0.054774206 -0.05924145 0.10093919 -0.00649837
0000b0 5e f7 a5 bd d4 89 fb 3d a8 8b db bd 0d ac a1 bd
       -0.08103822 0.12282148 -0.10719997 -0.07894144
0000c0 d9 07 f3 3d d4 79 9e 3d a1 7b 06 bd fb 63 ea bb
       0.11866731 0.077380806 -0.032832745 -0.007153032
0000d0 21 75 d3 bd 7d 18 82 3d 8c 06 fe bd fd 13 99 bd
       -0.10325075 0.06352327 -0.124035925 -0.074745156
0000e0 57 32 02 bd 6d 92 ba bc ea ef fb 3d 85 cb 83 bb
       -0.03178629 -0.0227749 0.12301619 -0.004022064
0000f0 a9 4e 78 bc b3 b6 f6 bd 3b a8 0e 3d e0 88 82 bd
       -0.015155473 -0.12046566 0.034828406 -0.06373763

value_layer.4.weight f4 [1, 64]
000000 c6 4b 8d bd e2 46 76 3d 6b 2b 6c bd 50 2d 66 bd
       -0.06899218 0.060126193 -0.057658594 -0.056195557
000010 b6 ef b1 3d 05 3d 24 bc 97 03 b5 bd 3a 6c 4e bd
       0.08688299 -0.010024314 -0.08838575 -0.05039618
000020 74 43 bf bd e1 a3 a2 3c c7 62 af 3a 04 24 16 3d
       -0.093390375 0.019853534 0.0013380878 0.03665544
000030 64 6d 97 3d 12 b6 30 bd 60 0b e1 3a d0 e6 c2 bd
       0.073939115 -0.043142386 0.0017169528 -0.0951668
000040 a6 bf b1 bd 65 57 90 bd 8e 63 8c bd 8c 2a b9 bd
       -0.08679132 -0.07047919 -0.06854926 -0.09041318
000050 f5 7d 9a 3d fa e9 9c 3d 62 8a 93 bb fb a7 98 bd
       0.07543556 0.07661815 -0.0045025805 -0.07453915
000060 88 9e ce 3d 57 1d 82 3b 52 eb 28 3c ad db c7 bd
       0.10088831 0.0039707827 0.010310011 -0.09758697
000070 32 f9 3a 3d 49 7d 96 3d 6b 38 7f 3d 58 ab 4e bc
       0.045647807 0.07348115 0.062309664 -0.012614094
000080 62 4f 21 bd de b7 75 39 bc db 50 bd 57 4f 92 3d
       -0.039382346 0.00023433517 -0.050990805 0.07144039
000090 17 1f 4f 3b 37 c8 9f bd c3 b2 48 bb a1 51 ed 3c
       0.0031604224 -0.0780186 -0.0030624128 0.028969588
0000a0 2b f8 a8 3d 77 e2 be bd 0a 01 ac 3c 33 33 a3 3c
       0.08250459 -0.093205385 0.02099659 0.019921875
0000b0 8d 38 17 3d c0 73 c2 3c c4 a7 6e 3b 38 d5 ff bc
       0.036919165 0.023736835 0.0036415914 -0.0312296
0000c0 71 cf 2e 3d 30 79 96 3a 46 8a 4c bb 46 55 9a bd
       0.0426783 0.0011480208 -0.0031210347 -0.07535796
0000d0 c9 0b b1 bb 99 2c 84 bd d0 3f 82 bc ad 28 cb bc
       -0.005403016 -0.06453819 -0.015899569 -0.02479967
0000e0 bb 45 1a 3c b5 db b7 bd ad 43 8c 3c 1e 9b 84 bd
       0.009416039 -0.08977453 0.017122114 -0.06474899
0000f0 9b 7b c9 bc dc 37 4b 3c 14 5d d7 bd c8 b6 1c ba
       -0.024595072 0.012403455 -0.105158 -0.0005978164
