8_gym-PPO/results/PPO_LunarLander-v3_1000-eps0.5.pth (torch, 44194 bytes, 11 tensors)

action_layer.0.weight f4 [64, 8]
0	0xbead3da0	-0.3383608
1	0xbdf12906	-0.11775403
2	0xbf0fe068	-0.5620179
3	0xbeec790e	-0.46186107
4	0x3eef6efa	0.46764356
5	0x3eec929a	0.46205598
6	0xbe2fbc8d	-0.1716177
7	0x3e2abe3b	0.1667413
8	0x3d7b5c89	0.061367545
9	0x3e8c0489	0.2734721
10	0xbd851141	-0.064974315
11	0x3ea0a8e2	0.31378847
12	0x3ed32359	0.41237906
13	0x3a719a9c	0.0009216459
14	0x3dfa8ccd	0.12233887
15	0x3e538c66	0.20659027
16	0x3ee3f987	0.44526312
17	0xbdc9fabf	-0.09862279
18	0x3e0b4684	0.13601118
19	0x3f05d1b9	0.52273136
20	0xbe990f6c	-0.29894578
21	0x3e3aae1c	0.1823048
22	0x3d8984b3	0.067147635
23	0xbe3d0717	-0.18459736
24	0x3cb96216	0.022629779
25	0x3e25bb2f	0.16184686
26	0xbc9bf12f	-0.019035904
27	0x3eb8a770	0.36065245
28	0xbeb72300	-0.3576889
29	0xbef158d3	-0.4713808
30	0x3e7beafa	0.24601355
31	0xbbfd4689	-0.0077293557
32	0x3e51b5bd	0.20479484
33	0xbad4c74e	-0.0016233714
34	0x3d0e51d9	0.034746025
35	0xbec5cd66	-0.3863327
36	0xbdcc4525	-0.09974126
37	0xbdc44a2c	-0.0958446
38	0x3e812f9b	0.25231633
39	0xbe9a8c22	-0.30185038
40	0xbe95deba	-0.2927149
41	0xbdddc35a	-0.10828276
42	0xbe860ed7	-0.26183197
43	0xbdb66e45	-0.08907751
44	0x3e59f481	0.21284677
45	0xbdfae0cb	-0.12249907
46	0x3ebab0e4	0.36463082
47	0x3ec6cf76	0.38830155
48	0x3e477340	0.19477558
49	0x3e958e6f	0.2921023
50	0x3b763240	0.0037566572
51	0x3ee4f785	0.44720092
52	0xbece5de6	-0.40306014
53	0x3dc4f5d1	0.09617198
54	0xbcc06a8e	-0.02348831
55	0xbe30fafb	-0.17283241
56	0xbe83aafd	-0.2571639
57	0x3e0c80e7	0.13721047
58	0x3dc654e6	0.09684162
59	0x3f266dfd	0.6501158
60	0x3f3953e3	0.72393626
61	0x3eaea2ad	0.34108487
62	0xbe6f9966	-0.2339836
63	0xbd7177c6	-0.058952115
64	0xbd954897	-0.07289236
65	0x3c0a4ad0	0.008440688
66	0xbf0a64a4	-0.54059815
67	0xbf372aef	-0.71549886
68	0x3e459205	0.19293983
69	0xbe330df2	-0.17485788
70	0x3e97b73c	0.29631984
71	0x3eb41c89	0.3517802
72	0xbc9b07ae	-0.01892456
73	0x3e5a05fb	0.21291344
74	0x3b12b626	0.00223864
75	0xbde10391	-0.10987008
76	0xbf26ddd5	-0.6518224
77	0xbf08f23e	-0.5349463
78	0xbb2010f2	-0.0024424163
79	0xbe88c195	-0.2671019
80	0x3e25fc97	0.16209637
81	0xbd9194a2	-0.071084276
82	0xbe76e74d	-0.24111672
83	0x3ec8fe41	0.3925648
84	0x3f05a61d	0.52206594
85	0x3e886592	0.26639992
86	0x3e60c783	0.21951108
87	0x3ee37ed4	0.444327
88	0xbb1e9e9a	-0.002420342
89	0x3d8759ff	0.06608962
90	0x3ebcc3b4	0.3686806
91	0x3ecaf42d	0.39639416
92	0xbf01946d	-0.50617105
93	0xbee45152	-0.44593292
94	0xbedd3cf2	-0.4321056
95	0x3d88fe02	0.06689073
96	0xbeaeaf16	-0.34117955
97	0x3e45e000	0.1932373
98	0x3e8d813f	0.2763767
99	0x3eb0dffc	0.34545887
100	0x3f118497	0.5684294
101	0x3e0ac964	0.13553387
102	0xbe1dd8ad	-0.15414687
103	0xbe5ba6f0	-0.214504
104	0xbe4bda23	-0.19907431
105	0xbe50ccd3	-0.20390634
106	0xbe5e72e4	-0.21723515
107	0x3ec6b206	0.38807696
108	0x3e0e0408	0.13868725
109	0x3ee79449	0.4523032
110	0x3d4d7cd5	0.050167877
111	0x3e1dabad	0.1539752
112	0xbd382722	-0.044959195
113	0x3c43128f	0.01190628
114	0x3e76407d	0.24048038
115	0x3f1b9118	0.6076827
116	0xbe6aa673	-0.22915058
117	0x3e58951a	0.21150628
118	0x3e36a411	0.17836024
119	0xbe42c6a4	-0.19021088
120	0x3e17174c	0.14754981
121	0x3e1a5591	0.15071703
122	0xbef6615f	-0.48121163
123	0xbcf45448	-0.029825345
124	0x3eaf3cee	0.34226173
125	0x3ed614df	0.41812798
126	0x3e940f27	0.2891781
127	0x3f09220e	0.5356759
128	0x3d820e97	0.06350439
129	0x3e28c71c	0.16482204
130	0x3ed5f2ed	0.417869
131	0xbec5c949	-0.3863013
132	0xbdb51db3	-0.08843555
133	0xbd76b53d	-0.060231436
134	0xbea307b8	-0.31841826
135	0xbd0b6cef	-0.034039434
136	0x3e23ec1d	0.16008039
137	0x3e7be34c	0.24598426
138	0xbf08cace	-0.53434455
139	0xbdc718c3	-0.0972152
140	0x3eb43673	0.3519779
141	0x3dddced6	0.108304664
142	0x3ecf824f	0.40529105
143	0x3dac339b	0.084082805
144	0xbe45c75c	-0.19314331
145	0x3e3132f5	0.17304595
146	0x3e057184	0.13031584
147	0xbef9d242	-0.48793226
148	0xbe420a56	-0.18949255
149	0x3d60b0cd	0.05485611
150	0xbd7e7b64	-0.062129393
151	0x3ea86bf2	0.32894856
152	0x3e4159b7	0.1888188
153	0xbe26ce33	-0.16289596
154	0x3cffff7a	0.03124975
155	0xbed3c563	-0.41361532
156	0xbeef4a16	-0.4673621
157	0xbd603385	-0.054736633
158	0xbe36a01f	-0.17834519
159	0xbf00e500	-0.50349426
160	0xbde21211	-0.11038602
161	0xbdd6851c	-0.10474607
162	0x3eee1145	0.4649755
163	0x3ef04175	0.4692494
164	0xbe334dd8	-0.17510164
165	0xbdd56965	-0.10420493
166	0xbe371325	-0.17878397
167	0xbeadb7d6	-0.33929318
168	0xbe0cdedd	-0.1375689
169	0xbda2fa8e	-0.07957946
170	0x3e9ec80f	0.31012008
171	0x3e9e838c	0.30959737
172	0xbe9ab16e	-0.30213493
173	0xbe67b84b	-0.22628896
174	0xbb45763b	-0.0030130285
175	0x3d848f2e	0.06472622
176	0xbe64e56c	-0.22353142
177	0x3e17abfd	0.14811702
178	0xbec39a12	-0.38203484
179	0xbf0d2a74	-0.55142903
180	0xbec3b57b	-0.38224396
181	0x3e1679de	0.14694926
182	0xbe7f4dd7	-0.24932037
183	0x3e09f5ff	0.13472746
184	0xbe16667b	-0.1468753
185	0x3e65aae5	0.22428472
186	0xbe7c31bb	-0.24628346
187	0xbf209aad	-0.62736017
188	0x3e66d260	0.22541189
189	0xbe84d485	-0.2594339
190	0x3e8632c1	0.26210597
191	0x3d3cc94e	0.046090417
192	0xbe82dd83	-0.25559625
193	0xbea8380c	-0.3285526
194	0xbe0b4ef4	-0.13604337
195	0x3ef5e496	0.4802596
196	0x3ed28167	0.4111435
197	0x3e3c20b5	0.18371852
198	0xbd713442	-0.058887728
199	0x3ddeec62	0.1088493
200	0x3ed4ccbd	0.41562453
201	0x3d1b13c7	0.037860658
202	0x3f20e9d5	0.628568
203	0x3f0c90fb	0.5490872
204	0xbf0c1f32	-0.547351
205	0xbeda0bed	-0.42587224
206	0x3dea294a	0.114336565
207	0xbe1bb2d5	-0.15204938
208	0x3ed9880a	0.42486602
209	0xbe1e84a0	-0.1548028
210	0x3efcd532	0.49381405
211	0x3c5d0aa9	0.013491311
212	0xbedc1422	-0.4298411
213	0xbec8e870	-0.39239836
214	0xbe8ce8e9	-0.27521446
215	0xbe07bc00	-0.1325531
216	0x3e9046e5	0.28179088
217	0xbd169967	-0.03676739
218	0xbe55b83b	-0.2087106
219	0xbf15388e	-0.5828942
220	0xbf00425d	-0.5010126
221	0xbe267263	-0.16254573
222	0x3e401019	0.18756141
223	0x3e7b6758	0.24551141
224	0x3d219e4f	0.039457615
225	0x3d26021e	0.040529363
226	0x3ea08bc8	0.31356645
227	0xbedfc78c	-0.4370693
228	0xbf3dfef8	-0.74217176
229	0xbf346a03	-0.7047426
230	0xbd170112	-0.036866255
231	0xbf05fc14	-0.52337766
232	0xbe883136	-0.26600045
233	0xbe75ad6c	-0.23991936
234	0xbe84d71c	-0.25945365
235	0x3edf84c9	0.43655995
236	0x3e92a7ea	0.28643733
237	0x3ec5e314	0.3864981
238	0xbe4356e9	-0.19076122
239	0x3dcc9280	0.0998888
240	0x3e69b095	0.22821267
241	0x3e3ce562	0.18446878
242	0xbe84b56a	-0.25919658
243	0x3e5e036b	0.21680991
244	0x3f217b3e	0.6307868
245	0x3eba185b	0.36346707
246	0x3b420eb8	0.0029610824
247	0x3e4a2211	0.19739558
248	0xbe679bf7	-0.2261809
249	0xbe55d8f5	-0.20883544
250	0xbeac35c7	-0.3363478
251	0xbd8f6180	-0.070010185
252	0x3ec41771	0.38299134
253	0x3e00a382	0.12562373
254	0x3d9ab2d3	0.07553639
255	0x3e63e2e0	0.22254515

action_layer.0.bias f4 [64]
0	0x3e52d920	0.20590639
1	0xbe7248f3	-0.2366064
2	0xbdd405aa	-0.10352643
3	0xbbeba93f	-0.0071918066
4	0x3c6c89f3	0.0144371865
5	0xbd8c7a6e	-0.06859289
6	0x3c941761	0.018077554
7	0xbb9b439b	-0.004738284
8	0x3d89a2c5	0.06720499
9	0xbcf082d2	-0.029359255
10	0x3df93fd8	0.1217038
11	0x3e6eefa8	0.23333609
12	0xbe646806	-0.22305307
13	0x3e4d1d01	0.20030595
14	0xbd205c8f	-0.03915077
15	0xbd73adc6	-0.059491895
16	0x3c311052	0.010807114
17	0xbea0fc25	-0.3144237
18	0xbd783da4	-0.06060566
19	0xbd6f92a4	-0.058489457
20	0x3e7aa4ff	0.24477004
21	0x3db35cde	0.087579474
22	0x3d16c447	0.03680828
23	0xbe9ee81d	-0.31036463
24	0x3ea789f2	0.3272243
25	0xbd471d47	-0.048611905
26	0x3c8def68	0.017326072
27	0xbe3359e6	-0.17514762
28	0xbdb98297	-0.09058111
29	0x3e379aa1	0.1793008
30	0xbe7491ee	-0.23883793
31	0x3e4085ea	0.18801084
32	0x3d6cfa9a	0.05785618
33	0xbd938ce1	-0.07204605
34	0xbc4e6ff8	-0.012599938
35	0x3d24f6f2	0.040274568
36	0xbc04788b	-0.00808538
37	0xbe6b0b62	-0.22953561
38	0xbd816cc4	-0.063195735
39	0x3e845b12	0.2585073
40	0xbd4c5056	-0.0498813
41	0x3d0b84dd	0.034062255
42	0xbde40437	-0.111336164
43	0x3e3d65ec	0.18495911
44	0x3e1e30fe	0.15448377
45	0x3de25c29	0.110527344
46	0xbd00fee5	-0.031493086
47	0xbdb99af8	-0.09062761
48	0xbb0d87ce	-0.0021595838
49	0x3e246502	0.16054156
50	0x3dda2487	0.10651498
51	0xbde317fb	-0.11088558
52	0xbd85e0e8	-0.06537038
53	0x3e0b5bc0	0.13609219
54	0xbceebbf2	-0.029142354
55	0xbdf0b6a4	-0.11753586
56	0x3dc3f809	0.09568793
57	0x3ea5f925	0.32416645
58	0xbe37e431	-0.17958142
59	0x3e4e4d22	0.20146611
60	0xbe22b69b	-0.15889971
61	0x3df1dc51	0.118096
62	0x3ccea191	0.025223525
63	0xbd058cac	-0.03260486

action_layer.2.weight f4 [64, 64]
0	0xbe4e8d98	-0.20171201
1	0x3c572f8d	0.013133896
2	0x3dfd6d7c	0.12374398
3	0x3dbd7176	0.092501566
4	0xbc82b5b7	-0.015955789
5	0x3be68d94	0.0070359204
6	0x3d434356	0.04767164
7	0xbbf1f596	-0.0073840125
8	0x3c6b953f	0.014378845
9	0x3e1ccdda	0.15312901
10	0xbd32ce89	-0.043654
11	0x3e360d43	0.17778496
12	0xbe30ea23	-0.17276816
13	0xbe2d3535	-0.16914828
14	0xba9c96e2	-0.0011946822
15	0xbc4b957d	-0.0124257775
16	0xbd82362e	-0.0635799
17	0xbd26586e	-0.040611677
18	0x3d641975	0.05568834
19	0x3dc804c4	0.09766534
20	0x3ddb5385	0.107092895
21	0x3dc3d637	0.095623426
22	0x3da755ba	0.08170648
23	0xbe0e6d2e	-0.13908836
24	0xbe06a96e	-0.1315057
25	0x3e891fb0	0.26781988
26	0x3ddd2a4f	0.10799085
27	0xbd5d9b5b	-0.054103237
28	0x3ee0e399	0.43923643
29	0xbe5452c1	-0.20734693
30	0xbdfdca5f	-0.12392115
31	0xbd565907	-0.052330997
32	0xbe37643e	-0.17909333
33	0x3db61c1c	0.0889208
34	0xbe305af8	-0.17222202
35	0xbe14b8a8	-0.14523566
36	0x3e9905ee	0.29887336
37	0x3e68c395	0.22730859
38	0xbbea38c4	-0.0071478803
39	0x3e2f97d4	0.17147762
40	0x3b44a6e9	0.0030006713
41	0x3c1b6fd6	0.009487113
42	0xbcaf24e0	-0.021379888
43	0x3e39f0da	0.18158284
44	0x3e8e72d6	0.27821988
45	0xbcec6f9c	-0.028861813
46	0x3ec7d6eb	0.39031157
47	0x3d0b9da5	0.03408589
48	0x3e1b753a	0.15181437
49	0xbe93d30a	-0.28871948
50	0xbafbbe2c	-0.0019206456
51	0xbc25b8aa	-0.010114828
52	0xbc972c12	-0.018453632
53	0x3e11c166	0.14233932
54	0x3e3c7969	0.1840569
55	0xbd88dc3c	-0.066826314
56	0x3ec048ea	0.3755563
57	0x3e671e74	0.2257021
58	0x3e1de50e	0.15419409
59	0xbdb348b5	-0.08754102
60	0xbd314d84	-0.043286815
61	0x3cb57154	0.022148766
62	0x3e0f7ba0	0.14012003
63	0xbc0f1afb	-0.00873446
64	0x3e581a73	0.2110384
65	0x3d6727ea	0.05643455
66	0x3c158eef	0.009128316
67	0xbd5d44a0	-0.054020524
68	0xbd7b064a	-0.061285295
69	0x3df502e2	0.119634405
70	0xbd574241	-0.05255342
71	0x3e9747f1	0.29547074
72	0x3dbe5b03	0.09294703
73	0xbe8837b7	-0.26605007
74	0x3d046843	0.032325994
75	0xbe27ce0f	-0.16387199
76	0x3e1dd06d	0.1541154
77	0x3d00d853	0.031456303
78	0x3c5aa1ce	0.013344241
79	0x3d71c037	0.0590212
80	0xbca4df7a	-0.020126093
81	0x3e6d93f4	0.23200971
82	0xbdabd7c0	-0.083907604
83	0x3d2a5ddc	0.041593418
84	0xbd9bc2fd	-0.076055504
85	0xbe33af9e	-0.17547461
86	0x3d26fe7a	0.04077003
87	0xbc3e75f4	-0.011624802
88	0x3e2ca5a9	0.1686007
89	0xbe513d99	-0.20433654
90	0xbdcc159f	-0.099650614
91	0x3d56a76c	0.05240576
92	0xbea169c3	-0.31526002
93	0x3e201b0c	0.15635318
94	0x3e545a3c	0.20737547
95	0xbcc8d140	-0.02451384
96	0x3d0b30a6	0.03398194
97	0xbdc89096	-0.097932026
98	0x3e2b02d6	0.167003
99	0xbd832099	-0.06402702
100	0xbec5b0ec	-0.38611543
101	0xbe856eac	-0.26060998
102	0xbe009ac3	-0.12559037
103	0xbe25690b	-0.16153352
104	0x3e7e7246	0.2484828
105	0xbd06ae24	-0.032880917
106	0x3e0ce7e9	0.13760342
107	0xbe462a5c	-0.19352096
108	0xbd65d1dd	-0.056108344
109	0xbda33d8c	-0.079707235
110	0xbe80290b	-0.25031313
111	0x3e052e63	0.13005976
112	0xbe11a09d	-0.14221425
113	0x3e017607	0.1264268
114	0x3e079bab	0.13242976
115	0xbcc4cb51	-0.02402273
116	0x3cc94b7d	0.024572128
117	0xbcb40be0	-0.021978319
118	0xbe95cbe1	-0.2925711
119	0xbd5a33d3	-0.05327208
120	0xbee00d7b	-0.43760285
121	0xbc924088	-0.017853037
122	0xbda3569b	-0.07975503
123	0xbbf621df	-0.007511362
124	0xbd30d64d	-0.043173123
125	0x3dad3928	0.08458167
126	0xbdae0dc1	-0.08498717
127	0xbc44aad4	-0.012003619
128	0xbda6c595	-0.081431545
129	0xbe1848eb	-0.14871566
130	0x3c94bf6f	0.018157689
131	0x3db01f9d	0.0859978
132	0x3e4fb0e7	0.20282327
133	0xbcd276bc	-0.025691383
134	0x3ce41f7c	0.027847044
135	0xbe46ec7d	-0.1942615
136	0x3d99f73a	0.07517858
137	0x3e3b66e9	0.18300976
138	0xbeb34bdf	-0.35018823
139	0x3e287b85	0.16453369
140	0xbdbc1b0b	-0.091848455
141	0xbea8466d	-0.3286623
142	0xbce8636e	-0.028367724
143	0xbe2b0f7e	-0.16705129
144	0x3cf40efb	0.0297923
145	0xbd6db315	-0.058032114
146	0x3e5bc776	0.21462807
147	0x3daa58ee	0.08317743
148	0xbc721ef3	-0.014777887
149	0xbddb4cb3	-0.107079886
150	0x3e434a86	0.19071397
151	0x3e5c3beb	0.21507232
152	0xbe8a5884	-0.27020657
153	0xbd987d28	-0.07445747
154	0x3df69a61	0.12041164
155	0x3e20e72a	0.15713182
156	0x3ef3b367	0.4759781
157	0xbeb02bf6	-0.3440854
158	0xbe1ceb0e	-0.15324041
159	0xbcb46ccb	-0.022024533
160	0xbe1f8286	-0.15577134
161	0xbd7c4be5	-0.061595816
162	0xbd0515e9	-0.0324916
163	0x3cfc6ccb	0.030813595
164	0x3e35a767	0.1773964
165	0x3e5497de	0.20761058
166	0x3e7f66e6	0.24941596
167	0x3debc790	0.11512673
168	0xbe789aba	-0.24277773
169	0x3e9b33fc	0.30313098
170	0x3df0b9b3	0.11754169
171	0x3e4fdb4e	0.20298502
172	0x3dc98d88	0.09841448
173	0x3d73e5ce	0.05954533
174	0x3e936a44	0.28792012
175	0xbe2b5594	-0.16731864
176	0x3e80b566	0.25138396
177	0xbdc4bbcc	-0.09606132
178	0xbe843623	-0.25822553
179	0x3e7cfc70	0.24705672
180	0xbe01ecd5	-0.12688
181	0xbdf0e6de	-0.117627844
182	0x3e827ff5	0.25488248
183	0x3dc51631	0.09623373
184	0x3d5f90da	0.0545815
185	0xbe4261be	-0.18982598
186	0x3e1c0816	0.1523746
187	0x3d1b43fb	0.037906628
188	0xbdaebdfd	-0.08532331
189	0x3e55bd3e	0.20872971
190	0xbdc2bc20	-0.09508538
191	0x3e05512b	0.13019244
192	0xbe159ab1	-0.14609791
193	0xbdbef49a	-0.09323998
194	0xbdb02615	-0.086010136
195	0x3cee8812	0.029117618
196	0x3dcdaf78	0.10043234
197	0xbe5edc4e	-0.21763727
198	0x3d532198	0.05154571
199	0xbe4db177	-0.20087229
200	0x3d8cc25e	0.0687301
201	0x3e683d4a	0.2267963
202	0xbe47056a	-0.19435659
203	0x3e051848	0.12997544
204	0xbe47a17c	-0.19495195
205	0xbe577541	-0.21040823
206	0xbd5a324b	-0.05327062
207	0xbe4d4946	-0.20047483
208	0x3e288345	0.16456325
209	0xbca51c8a	-0.02015521
210	0x3dd6e2d7	0.10492485
211	0x3d9aa765	0.07551459
212	0x3b9d7fa5	0.004806476
213	0xbd326566	-0.043553732
214	0x3e42daa3	0.19028716
215	0x3e4e9d42	0.20177177
216	0xbebb3496	-0.36563557
217	0x3de8df1e	0.11370681
218	0xbd746f27	-0.059676316
219	0x3dc747d0	0.09730494
220	0x3f151417	0.5823378
221	0xbeb05d0f	-0.34445998
222	0xbe947577	-0.2899587
223	0xbe472ca7	-0.19450627
224	0xbe0cb125	-0.1373945
225	0xbdcccef3	-0.1000041
226	0xbd67476d	-0.0564646
227	0x3d729adf	0.059229728
228	0x3eb632a2	0.35585505
229	0x3daed665	0.08536986
230	0x3dc77018	0.09738177
231	0x3e3650cf	0.17804264
232	0xbe632f50	-0.22186017
233	0x3e03677b	0.12832443
234	0x3cc22cec	0.023703061
235	0x3c724478	0.014786832
236	0x3e0d28dc	0.13785118
237	0x3d819264	0.0632675
238	0x3ebe3857	0.3715236
239	0xbcc013ab	-0.023446878
240	0x3df7c067	0.12097245
241	0xbe46079c	-0.1933884
242	0xbec2e5a7	-0.38065836
243	0x3eb84cab	0.35995993
244	0xbe4dbca3	-0.2009149
245	0x3dc14bcb	0.094382845
246	0x3e8402be	0.25783342
247	0x3e30b62f	0.17256998
248	0x3e5c336f	0.21503995
249	0xbdfc072b	-0.12306055
250	0x3e86baa6	0.26314276
251	0x3b0152a5	0.0019733098
252	0xbd2bbe16	-0.041929327
253	0x3d5a659b	0.053319555
254	0x3d32fbbf	0.043697115
255	0x3dadf41d	0.084938265

action_layer.2.bias f4 [64]
0	0x3d9806f0	0.07423198
1	0x3ccec2f2	0.025239442
2	0xbb3656d4	-0.002782275
3	0x3d9d4aa4	0.07680252
4	0x3db4fa7c	0.088368386
5	0xbdc70ff9	-0.097198434
6	0xbc8d600e	-0.017257717
7	0x3e22ec52	0.15910462
8	0x3ddae496	0.106881306
9	0xbd3773d7	-0.044788208
10	0xbe5a7814	-0.21334869
11	0xbe135527	-0.14387952
12	0x3da524c0	0.0806365
13	0xbdc3711c	-0.09543058
14	0x3d523947	0.051324155
15	0xbda16972	-0.0788144
16	0xbd382191	-0.044953886
17	0x3bbb5284	0.0057166237
18	0x3d98f063	0.07467725
19	0xbd1f2e01	-0.038862232
20	0x3df6c1e4	0.120487005
21	0xbcae422c	-0.021271788
22	0x3c70b443	0.014691415
23	0x3e5d6a6e	0.21622631
24	0xbcbf1fb3	-0.023330545
25	0x3d8ebfa0	0.06970143
26	0x3b163277	0.0022918263
27	0xbdf04ac2	-0.11733009
28	0xbd4edbd2	-0.050502606
29	0xbdf1e8a3	-0.1181195
30	0x3c512b1d	0.012766627
31	0xbe147233	-0.14496689
32	0x3d3067ea	0.04306785
33	0xbdedfc9e	-0.116204485
34	0xbd8e0a8e	-0.06935607
35	0xbc3c01de	-0.011475055
36	0xbe1c3792	-0.15255573
37	0x3d464999	0.048410032
38	0x3d053198	0.032518
39	0xbd06062f	-0.03272074
40	0x3d0c0c57	0.034191456
41	0xbddbe42e	-0.10736881
42	0xbd8d1a23	-0.06889751
43	0xbd7eb81e	-0.062187307
44	0x3c27bcb9	0.010237866
45	0xbd8c482f	-0.068497054
46	0x3cdae55c	0.026720695
47	0x3df76e53	0.120815895
48	0xbc071482	-0.008244636
49	0xbca1b9bb	-0.019741884
50	0xbd797d6c	-0.060910627
51	0xbe8c5fda	-0.2741688
52	0x3d71dd55	0.05904897
53	0x3d553296	0.052050196
54	0x3dd834e0	0.1055696
55	0xbd8ed1c0	-0.069736004
56	0x3cbb5522	0.022867743
57	0xbdad44bb	-0.08460375
58	0x3e2761d2	0.16345909
59	0x3d6780ba	0.056519248
60	0x3df6a296	0.120427296
61	0xbd26ee76	-0.040754758
62	0x3cce9fb3	0.025222635
63	0xbca91a05	-0.02064229

action_layer.4.weight f4 [4, 64]
0	0xbd2bf203	-0.041978847
1	0x3de1ac32	0.11019172
2	0xbc1dc510	-0.009629503
3	0x3d052424	0.03250517
4	0x3dabc1e6	0.083865926
5	0x3d960949	0.0732599
6	0xbd48e4df	-0.049046393
7	0xbd2e32dd	-0.042528976
8	0x3b9a522b	0.004709502
9	0x3db1de27	0.0868495
10	0xbdb7dfea	-0.08978255
11	0x3e077222	0.13227132
12	0x3c9104a8	0.017702416
13	0xbb1ccb44	-0.0023924867
14	0x3dc9de73	0.09856882
15	0xbd3ea13a	-0.046540476
16	0xbe48300b	-0.19549577
17	0xbd2c7db9	-0.042112086
18	0xbe19b268	-0.15009463
19	0x3de3716f	0.1110562
20	0xbe5a5a08	-0.21323407
21	0x3d250c3f	0.040294882
22	0x3dc5ff19	0.09667797
23	0x3e242300	0.16028976
24	0x3e501b46	0.20322904
25	0x3e42a740	0.19009113
26	0x3d6c4240	0.05768037
27	0xbe53ccb7	-0.20683561
28	0xbd8d7e42	-0.069088474
29	0x3daed62f	0.08536946
30	0x3e1512c8	0.14557946
31	0xbc2de305	-0.010613208
32	0xbe7435b5	-0.23848613
33	0xbda85b6a	-0.08220561
34	0xbe1d929d	-0.1538796
35	0x3d50cad8	0.050974697
36	0xbdb4d018	-0.08828753
37	0x3e5cb896	0.21554789
38	0x3db54367	0.088507466
39	0x3d1d9d2e	0.038479976
40	0x3d18c251	0.03729469
41	0xbcb3d435	-0.021951774
42	0x3dd10147	0.10205322
43	0xbe616bfb	-0.22013848
44	0x3e225aa6	0.15854892
45	0x3e3ad5df	0.18245648
46	0xbe6a0e65	-0.22857054
47	0x3e5d0e3d	0.21587463
48	0x3e1b9750	0.1519444
49	0x3ddd0421	0.10791803
50	0xbe311b88	-0.17295659
51	0xbe93f3a3	-0.28896818
52	0xbe3987ef	-0.18118261
53	0xbd852350	-0.06500876
54	0x3d52a950	0.051431
55	0x3e063109	0.13104643
56	0xbd95a60f	-0.07307064
57	0xbdcb73ab	-0.09934171
58	0x3e11ecf1	0.14250542
59	0x3e064249	0.13111223
60	0x3e143216	0.14472231
61	0x3e577917	0.21042286
62	0xbdd1544f	-0.10221159
63	0xbe46eb82	-0.19425777
64	0x3e756b85	0.23966797
65	0xbe9ebc4c	-0.31003034
66	0x3da189e7	0.07887631
67	0x3e22d140	0.15900135
68	0x3d9185bb	0.07105585
69	0xbea39e94	-0.31956923
70	0xbbe1dbd8	-0.0068926625
71	0xbe0d9f87	-0.13830386
72	0x3e16efc4	0.14739901
73	0xbf073d5f	-0.5282802
74	0x3e4a6be9	0.19767727
75	0x3d937306	0.07199673
76	0xbead8f26	-0.33898276
77	0x3dd6814e	0.10473882
78	0x3e200704	0.15627676
79	0x3defd228	0.11710006
80	0xbdd5e7ab	-0.10444578
81	0x3edb0961	0.42780593
82	0xba492b77	-0.0007674018
83	0xbdbd4d8e	-0.09243308
84	0xbe126feb	-0.14300506
85	0xbe6ce704	-0.23135
86	0x3e1b232b	0.15150134
87	0xbe43bc19	-0.19114722
88	0x3da11891	0.07866014
89	0xbe27b1c9	-0.16376413
90	0x3e7d1fa3	0.247191
91	0xbee8612b	-0.45386633
92	0xbe22ce13	-0.15898924
93	0x3e031d5b	0.12804167
94	0x3eab62fb	0.33473954
95	0xbd8ef317	-0.069799595
96	0xbe3b429e	-0.18287131
97	0xbec3ac89	-0.3821757
98	0xbd9dd43b	-0.077064954
99	0x3e31027f	0.17286108
100	0x3daadcd2	0.083428994
101	0xbec3f759	-0.3827465
102	0x3d639320	0.05556023
103	0xbeea1a48	-0.45723176
104	0x3e02a071	0.12756516
105	0x3e0f3475	0.13984855
106	0xbe1dce9b	-0.15410845
107	0x3e8c2646	0.2737295
108	0x3d33ca15	0.043893892
109	0x3d828e67	0.06374817
110	0x3eba49da	0.3638447
111	0xbe4f8a04	-0.20267493
112	0xbdf4e08d	-0.11956892
113	0xbed32a2a	-0.41243106
114	0x3ea58657	0.32329056
115	0x3d78fa1c	0.060785398
116	0xbe460aca	-0.19340053
117	0x3df87a1e	0.12132667
118	0x3ea4d06a	0.32190257
119	0x3d031b01	0.032008175
120	0xbdacddb4	-0.08440724
121	0x3ed18693	0.40922984
122	0x3d866903	0.06562998
123	0xbe8a7fdd	-0.27050677
124	0x3e4c5d05	0.19957359
125	0xbee1e5a2	-0.44120508
126	0x3e1059a8	0.14096701
127	0xbee03dbb	-0.43797097
128	0xbba3128e	-0.004976577
129	0xbc1385a1	-0.009004028
130	0x3e5cc301	0.21558763
131	0x3e4accf1	0.19804741
132	0xbdd9bfba	-0.10632272
133	0xbe0eb593	-0.13936453
134	0x3e458c48	0.19291794
135	0x3e41459c	0.1887421
136	0x3ca60f76	0.020271044
137	0x3e3ef26a	0.18647161
138	0xbe4fe07e	-0.2030048
139	0xbeec328a	-0.46132308
140	0x3d77b07b	0.06047104
141	0xbe5aaf64	-0.21355969
142	0x3cf02276	0.029313307
143	0xbd325056	-0.043533646
144	0x3e454f3f	0.19268511
145	0xbe91bf35	-0.28466192
146	0x3ea440ca	0.3208068
147	0xbed96bb6	-0.4246499
148	0x3ea2ea34	0.31819308
149	0x3dfbfc6f	0.12304007
150	0xbe53005d	-0.20605607
151	0x3e39e28d	0.18152829
152	0xbea94b68	-0.33065343
153	0xbe3b69a8	-0.18302023
154	0xbdc05cbc	-0.09392688
155	0x3ebd01de	0.36915487
156	0x3d055847	0.03255489
157	0xbe49f27b	-0.19721405
158	0xbe1de168	-0.15418017
159	0xbe30b1ea	-0.17255369
160	0x3eb70e15	0.3575293
161	0x3e529cc5	0.20567615
162	0x3eaaf6ca	0.3339141
163	0xbe1977ca	-0.14987102
164	0x3c15ab98	0.009135149
165	0x3cee2b19	0.029073285
166	0xbe8b96c8	-0.27263474
167	0x3da7069d	0.08155558
168	0x3dc72d61	0.09725452
169	0xbe9fde12	-0.31224114
170	0xbe4da944	-0.20084101
171	0x3e45c8ad	0.19314833
172	0xbe4ea4ca	-0.2018005
173	0xbe4cde58	-0.20006692
174	0x3c541456	0.012944302
175	0xbe3f6088	-0.18689167
176	0xbec9cbb0	-0.39413214
177	0x3e29994f	0.16562389
178	0x3d6efef0	0.058348596
179	0xbe1d5105	-0.15362938
180	0x3eb33cbb	0.3500727
181	0x3e980d0c	0.29697454
182	0xbd9536e0	-0.07285857
183	0xbdf8e9fc	-0.12154004
184	0x3e20c4a6	0.15700015
185	0xbe230071	-0.15918137
186	0x3e38b4de	0.18037745
187	0xbe1aeb7d	-0.15128894
188	0xbdcedfce	-0.10101281
189	0xbdc9ada7	-0.09847575
190	0x3e49bea3	0.19701628
191	0x3e5a9ff7	0.21350084
192	0xbe210bbd	-0.15727134
193	0x3e872536	0.26395577
194	0xbeb88d71	-0.3604541
195	0xbee1e077	-0.44116566
196	0xbe541d65	-0.20714338
197	0x3ec4f120	0.38465214
198	0xbdae574b	-0.085127436
199	0xbe2cea2f	-0.16886209
200	0xbec190d1	-0.378058
201	0x3e74cbca	0.23905864
202	0x3e6b0ae2	0.2295337
203	0x3dabf79a	0.083968356
204	0x3cabbae3	0.020963138
205	0xbc939e54	-0.018019833
206	0xbe6e5b30	-0.23276973
207	0x3d720da2	0.059095033
208	0xbcf04654	-0.02933041
209	0xbe4270c1	-0.18988325
210	0xbe5cb0af	-0.21551774
211	0x3e9f88c0	0.3115902
212	0xbe2ec2c3	-0.17066483
213	0x3df1b49d	0.118020274
214	0xbe427f6f	-0.18993925
215	0xbe22263d	-0.15834899
216	0x3e6ca0b0	0.23108172
217	0x3e9c4b97	0.3052642
218	0xbe0e24bd	-0.13881202
219	0x3d936bb2	0.071982756
220	0xbc83ea6b	-0.01610299
221	0x3e1b203c	0.15149015
222	0xbe5eb2f7	-0.21747957
223	0x3ea8de99	0.3298233
224	0xbc375c27	-0.011191404
225	0x3e59f8b6	0.21286282
226	0x3d8a6282	0.0675707
227	0x3dca0a89	0.09865291
228	0x3eb937f7	0.3617551
229	0x3e5da1ed	0.21643801
230	0x3e448435	0.19191058
231	0x3e47ebaf	0.195235
232	0xbe611ecf	-0.21984409
233	0x3e4d8c75	0.20073111
234	0x3e630069	0.22168125
235	0xbea392ca	-0.3194793
236	0x3e269c33	0.16270523
237	0x3d0b2f2b	0.03398053
238	0xbea56740	-0.32305336
239	0x3dd3f25a	0.10348959
240	0x3ed1a251	0.4094415
241	0x3e9a818b	0.30176958
242	0xbe95482e	-0.2915663
243	0x3dc21960	0.09477496
244	0xbd861fe7	-0.06549054
245	0xbe17895f	-0.14798497
246	0xbea826bf	-0.3284206
247	0x3e193aec	0.14963883
248	0xbd145775	-0.036216218
249	0xbde62249	-0.11237008
250	0xbe958b9f	-0.29208085
251	0x3ebcf1e5	0.369033
252	0xbdc06182	-0.09393598
253	0x3eb59bde	0.3547048
254	0xbebe6a5d	-0.37190524
255	0x3e486278	0.19568813

action_layer.4.bias f4 [4]
0	0x3cd69043	0.026191836
1	0xbe066d4a	-0.13127628
2	0x3e42e23a	0.19031611
3	0xbd8ab511	-0.06772817

value_layer.0.weight f4 [64, 8]
0	0xbd8e35dc	-0.069438666
1	0xbe40f2b0	-0.18842578
2	0x3dea9974	0.1145505
3	0xbcf36630	-0.029711813
4	0x3e1f87f8	0.15579212
5	0xbdb18b9f	-0.08669209
6	0xbe557090	-0.2084372
7	0x3d3409d2	0.043954678
8	0x3e01859c	0.12648624
9	0xbd54bf62	-0.05194033
10	0xbd9267e7	-0.07148724
11	0x3e9f4861	0.31109908
12	0xbe4ce70e	-0.20010015
13	0x3daaf3a0	0.08347249
14	0xbe1a4ca5	-0.150683
15	0xbcffd33e	-0.031228658
16	0x3e2ece0e	0.17070791
17	0x3e7b9dbb	0.24571888
18	0x3dc8156d	0.09769712
19	0xbdd7b95c	-0.10533401
20	0xbe912063	-0.28345022
21	0x3e34d9d9	0.17661227
22	0x3e366342	0.17811301
23	0x3e9937c0	0.29925346
24	0xbe949958	-0.29023242
25	0x3ddd2bd3	0.107993744
26	0x3d282ef9	0.04106042
27	0xbc0c7f73	-0.008575308
28	0xbe5e7220	-0.21723223
29	0xbe88509b	-0.26623997
30	0x3e59c4db	0.212665
31	0xbe2faf5d	-0.1715674
32	0x3e2d967b	0.16951935
33	0x3e107e31	0.14110638
34	0xbe2894f0	-0.16463065
35	0x3cb4408b	0.022003433
36	0x3d69be8a	0.057066478
37	0x3dd4f58c	0.10398397
38	0x3e98b339	0.29824236
39	0xbe3fe9c5	-0.1874152
40	0x3e393c84	0.18089491
41	0xbe1a274c	-0.15054053
42	0x3e85d5c8	0.26139665
43	0x3e5af8ca	0.21383968
44	0xbe590f61	-0.21197273
45	0xbd9b53d7	-0.075843506
46	0x3de186ec	0.110120624
47	0xbe5de4f5	-0.21669371
48	0xbe27c71b	-0.16384546
49	0x3e0a4fc1	0.13506986
50	0xbea05f15	-0.31322542
51	0xbe7bb411	-0.24580409
52	0xbe6a287d	-0.22867008
53	0x3d3a353e	0.045460932
54	0xbe6bdb0d	-0.2303278
55	0xbd98fe84	-0.0747042
56	0xbe5c02ac	-0.21485394
57	0xbe1f9afd	-0.15586467
58	0xbea62291	-0.32448247
59	0xbd971b7a	-0.073782876
60	0xbdfc562c	-0.123211235
61	0xbe1fcc7e	-0.15605351
62	0x3e4158e2	0.18881562
63	0x3e6ef95a	0.23337308
64	0x3df644bf	0.12024831
65	0xbdf26934	-0.11836472
66	0x3e5b6773	0.21426181
67	0x3e12aa56	0.1432279
68	0x3e0e57ac	0.13900632
69	0x3dca7e88	0.09887415
70	0x3e28df49	0.16491427
71	0xbe634383	-0.22193722
72	0x3eb31dc2	0.3498364
73	0xbe627f16	-0.22118792
74	0xbd7cf11a	-0.06175337
75	0xbde4a667	-0.11164551
76	0xbe228374	-0.15870458
77	0x3e15f7a4	0.14645249
78	0xbeb3bd6c	-0.35105455
79	0x3e61f596	0.2206634
80	0xbe534195	-0.20630486
81	0x3e5c74e4	0.21528965
82	0x3e162ce1	0.14665557
83	0x3ccda478	0.025102839
84	0xbe99e62e	-0.30058426
85	0x3ea91f96	0.3303191
86	0x3d3a5c91	0.045498434
87	0xbdafee0e	-0.08590327
88	0x3e401ecf	0.18761753
89	0x3e97444e	0.295443
90	0xbbdb9e1b	-0.0067021972
91	0xbe620125	-0.22070749
92	0xbe5f2abc	-0.21793646
93	0x3e831d55	0.25608316
94	0xbe7c05f7	-0.2461165
95	0xbe8cb695	-0.2748305
96	0x3e482b6b	0.19547813
97	0x3ea0d76c	0.31414354
98	0xbc87ee41	-0.0165931
99	0x3d8829f4	0.06648627
100	0xbd86683c	-0.0656285
101	0xbe62c9f5	-0.22147353
102	0x3cb76033	0.022384739
103	0x3eafb636	0.34318703
104	0x3d570134	0.05249138
105	0xbe4469a6	-0.19180927
106	0x3e1d2124	0.15344673
107	0xbd38f339	-0.04515383
108	0x3e9bed2b	0.30454382
109	0xbea7eb6f	-0.3279681
110	0x3e67764e	0.22603723
111	0xbe9082b5	-0.28224722
112	0xbe86157a	-0.2618826
113	0xbe0c2405	-0.13685615
114	0x3e64fea3	0.22362761
115	0x3e0e2787	0.13882266
116	0x3eab86d1	0.33501294
117	0xbdda2043	-0.10650685
118	0xbe170fb1	-0.1475208
119	0x3e718309	0.23585142
120	0x3daf12b4	0.08548489
121	0x3d85c01f	0.06530785
122	0xbd962d3f	-0.07332849
123	0x3e4514ac	0.19246167
124	0x3e55f4c6	0.20894155
125	0x3e3df652	0.18550995
126	0xbe076ca0	-0.13225031
127	0xbd8a72ad	-0.06760154
128	0x3cbcc93b	0.023045173
129	0xbe919e89	-0.28441265
130	0x3e1b8e98	0.15191114
131	0xbe129ba6	-0.14317188
132	0xbe1a2758	-0.15054071
133	0x3e071c0f	0.13194297
134	0x3e2811ab	0.1641299
135	0x3e8b9577	0.2726247
136	0xbd186965	-0.037209887
137	0x3e86a988	0.26301217
138	0x3c5abfe4	0.013351414
139	0xbdf48dda	-0.119411185
140	0x3d5c7338	0.05382082
141	0xbe727855	-0.23678716
142	0xbeb8e0cb	-0.36109003
143	0x3d173a4c	0.03692083
144	0x3df3ecfd	0.11910436
145	0xbde6e37c	-0.11273858
146	0x3cde7cbf	0.027159093
147	0xbc4ac5da	-0.012376273
148	0x3bdb37cd	0.0066900016
149	0xbd85cc0f	-0.06533062
150	0x3d3f82c9	0.046755586
151	0xbe65eb7e	-0.22453114
152	0xbeb0a012	-0.34497124
153	0xbe087036	-0.13324055
154	0x3e832225	0.25611988
155	0x3e990bae	0.29891723
156	0xbe044a9a	-0.12919083
157	0xbeab7a1e	-0.33491606
158	0x3e259ab2	0.16172293
159	0xbe6bc2eb	-0.23023574
160	0xbeae2a51	-0.3401666
161	0xbe69637b	-0.22791855
162	0x3e5300c3	0.2060576
163	0x3e7ff71c	0.24996608
164	0x3e4b9af4	0.19883329
165	0x3e9e0f96	0.30871266
166	0xbe7ea927	-0.24869214
167	0xbe844ebd	-0.25841323
168	0x3d295849	0.04134396
169	0xbcd81609	-0.026377695
170	0xbe830040	-0.25586128
171	0x3e08c5ae	0.13356659
172	0x3ea7339a	0.32656556
173	0xbe8df583	-0.27726373
174	0xbd28a77f	-0.04117536
175	0x3def0654	0.11671129
176	0xbdc5a5f5	-0.096507944
177	0xbe1e0075	-0.15429862
178	0x3e17ff15	0.148434
179	0x3da8e58a	0.08246906
180	0x3e0a8a8d	0.13529415
181	0x3e29ecfd	0.1659431
182	0x3e3ae0c1	0.182498
183	0xbea44c4e	-0.32089466
184	0x3e8aff1b	0.27147755
185	0x3d45b3d0	0.048267186
186	0x3e3cf8b2	0.18454245
187	0x3e8fd319	0.28090742
188	0xbe8aa938	-0.2708223
189	0xbd2cbf19	-0.042174432
190	0xbe334d71	-0.1751001
191	0x3e436000	0.1907959
192	0xbe0ab302	-0.13544849
193	0xbe8675b8	-0.26261687
194	0xbd878d69	-0.06618769
195	0xbd568be8	-0.05237952
196	0xbda83261	-0.08212734
197	0xbd07c7f2	-0.033149667
198	0x3e872337	0.26394054
199	0xbdc3be87	-0.095578246
200	0x3e6a6d66	0.22893295
201	0xbe7b0c30	-0.24516368
202	0xbd594a56	-0.053049408
203	0x3d94f881	0.07273961
204	0xbe69eac3	-0.2284346
205	0x3d5d237e	0.053988926
206	0xbe722a24	-0.23648888
207	0xbe78442a	-0.24244753
208	0xbe4c0889	-0.19925131
209	0xbdf1737c	-0.11789605
210	0xbde141b4	-0.1099886
211	0xbe40fb03	-0.18845753
212	0x3ea9e7a3	0.33184537
213	0xbeb35e37	-0.35032818
214	0x3e3e69a2	0.18594983
215	0xbead311b	-0.33826527
216	0x3e2cd3c8	0.16877663
217	0xbe595c7c	-0.21226686
218	0x3d922bc4	0.07137254
219	0x3e01a08c	0.126589
220	0xbeb2713e	-0.34852022
221	0x3d74d86f	0.05977672
222	0xbdd0bed8	-0.101926506
223	0xbe9b2e17	-0.303086
224	0x3ea951dd	0.3307027
225	0xbdd6f22f	-0.104954116
226	0xbe30bc54	-0.17259341
227	0xbd4f4094	-0.050598696
228	0x3e67da4b	0.22641866
229	0x3eb429bb	0.35188088
230	0x3e9c1613	0.3048559
231	0x3b5f1506	0.003403963
232	0x3d9f890e	0.07789813
233	0x3e9a20b6	0.3010308
234	0x3e83d0e8	0.2574532
235	0x3e89c587	0.26908514
236	0x3e1b2329	0.15150131
237	0xbe31e435	-0.1737221
238	0xbe385fbf	-0.18005274
239	0xbe78ddcb	-0.24303357
240	0xbce3485e	-0.027744468
241	0x3e3feb75	0.18742163
242	0x3e74485e	0.23855731
243	0xb8f0fbee	-0.00011491017
244	0x3e0dbda4	0.13841873
245	0xbe6e9584	-0.23299223
246	0x3cfa1784	0.030528791
247	0x3e856afe	0.2605819
248	0x3e6f3d26	0.2336317
249	0xbdaf0533	-0.085459135
250	0xbe844e9e	-0.2584123
251	0x3e964012	0.29345757
252	0x3e940baa	0.2891515
253	0x3e93e522	0.28885752
254	0x3c589563	0.01321921
255	0x3de868ad	0.1134809

value_layer.0.bias f4 [64]
0	0xbe0cfa69	-0.13767399
1	0x3ea967f0	0.3308711
2	0xbe330adf	-0.17484616
3	0x3e110e34	0.14165574
4	0xbe21627a	-0.15760222
5	0xbe1d5998	-0.15366209
6	0xbeaea0c5	-0.34107032
7	0x3e54cab9	0.20780458
8	0x3d789a2e	0.060693912
9	0xbe268a6c	-0.16263741
10	0x3ea33f45	0.31884208
11	0xbe36e7c3	-0.17861848
12	0xbe667207	-0.22504435
13	0x3d2ac90e	0.041695647
14	0x3e1b3915	0.15158494
15	0xbe405ffd	-0.18786617
16	0xbe0624be	-0.13099954
17	0xbeade9d7	-0.33967468
18	0x3e1bd313	0.15217237
19	0xbe093f34	-0.13403016
20	0xbe82753a	-0.25480062
21	0x3eb1d8ce	0.3473572
22	0xbe8c4385	-0.27395263
23	0x3cbee419	0.023302125
24	0x3e9eba5c	0.31001556
25	0x3a535431	0.0008061557
26	0x3df7ed21	0.121057756
27	0x3e604fb3	0.21905403
28	0xbe5e2353	-0.21693163
29	0xbe95cee9	-0.29259422
30	0xbe456da6	-0.19280109
31	0x3e876a90	0.26448488
32	0x3e6ef9f1	0.23337533
33	0xbdaf0dd3	-0.08547559
34	0xbe9e35ae	-0.3090033
35	0x3e921210	0.28529406
36	0x3da52e89	0.080655165
37	0x3ea544c5	0.3227903
38	0x3e907d23	0.28220472
39	0x3d8d7e29	0.06908829
40	0xbd60dbd7	-0.054897156
41	0xbdafe4a1	-0.085885294
42	0xbe8a1429	-0.26968506
43	0xbe3bf527	-0.18355237
44	0xbe9c8c52	-0.30575806
45	0xbdaa18fc	-0.08305547
46	0x3e3efcab	0.18651073
47	0x3c5c1a2d	0.013433975
48	0x3e0e1ced	0.13878222
49	0xbcd10e96	-0.02551965
50	0xbea0ec2a	-0.3143018
51	0x3da18009	0.07885749
52	0xbe957430	-0.29190207
53	0xbe2545e4	-0.16139942
54	0x3cea875f	0.028629003
55	0xbe0c70dc	-0.13714927
56	0x3de40d07	0.11135297
57	0x3e2e0615	0.16994508
58	0xbe9883e0	-0.29788113
59	0xbe319a2f	-0.17343973
60	0xbdbeaa75	-0.09309856
61	0xbe1b36cc	-0.15157622
62	0x3df3e334	0.1190857
63	0xbe8ffc39	-0.28122118

value_layer.2.weight f4 [64, 64]
0	0x3d248237	0.040163245
1	0xbd0442f8	-0.03229043
2	0x3db67357	0.08908718
3	0xbde48da3	-0.111598276
4	0xbd8c2b42	-0.06844188
5	0x3de57f63	0.11205938
6	0xbdbf2bdd	-0.09334538
7	0xbddad01b	-0.10684224
8	0xbda8ef58	-0.08248776
9	0xbd625fbb	-0.055267077
10	0xbcf4b565	-0.029871652
11	0x3da43bd4	0.08019224
12	0xbdba6467	-0.091011815
13	0xbcd92d36	-0.026510816
14	0x3dcfd9bc	0.101489514
15	0x3d5a53a6	0.05330243
16	0xbbbde7c9	-0.005795453
17	0x3d2ed556	0.04268392
18	0xbdf416ed	-0.11918435
19	0x3db1fa7c	0.08690354
20	0x3de313e4	0.11087778
21	0xbd6b1a90	-0.05739838
22	0x3dc60f60	0.09670901
23	0x3d0835e0	0.033254504
24	0xbdcbd789	-0.099532194
25	0x3d4890c4	0.048966184
26	0x3bad8727	0.0052956524
27	0xbc83540f	-0.016031293
28	0x3c9c6b02	0.019093994
29	0xbd5fc115	-0.054627497
30	0x3bfa40c8	0.007637117
31	0x3ded2921	0.1158011
32	0x3dfcc2b6	0.12341826
33	0xbdb04158	-0.08606213
34	0xbda3f62d	-0.08005939
35	0x3de1f03b	0.110321485
36	0x3cca425e	0.02468985
37	0xbd933516	-0.0718786
38	0xbd71eb75	-0.05906244
39	0x3b55f63f	0.0032647995
40	0xbcccfd02	-0.025022987
41	0x3dc83dda	0.09777422
42	0xbdbdaadc	-0.092611045
43	0x3b34ea54	0.002760549
44	0x3ddbe842	0.10737659
45	0x3de838ec	0.11338982
46	0x3dd7d0a6	0.105378434
47	0xbd0ff327	-0.035143998
48	0xbdb31b70	-0.08745468
49	0xbbee2496	-0.007267545
50	0x3de1a63e	0.11018036
51	0x3d755e86	0.059904598
52	0x3c144988	0.009050734
53	0x3cff8866	0.03119297
54	0xbd6f8e23	-0.05848516
55	0xbdf223c0	-0.11823225
56	0xbcfd323c	-0.030907743
57	0x3d838315	0.06421486
58	0x3cfcddb2	0.030867431
59	0x3d7db783	0.06194259
60	0xbcef24db	-0.029192379
61	0xbde908eb	-0.11378654
62	0xbdc3037c	-0.09522149
63	0xbdeb12a1	-0.114781626
64	0x3cc0ec86	0.023550283
65	0x3dbd2238	0.09235042
66	0xbcb4cdb5	-0.022070745
67	0xbd8569ef	-0.06514346
68	0x3d8fbd75	0.07018558
69	0xbd8c8e96	-0.068631336
70	0xbb828258	-0.0039828233
71	0x3d967976	0.073473856
72	0xbd3ba1b8	-0.045808524
73	0xbdd9db50	-0.10637534
74	0xbd1b1183	-0.037858497
75	0xbd25ff0e	-0.040526442
76	0x3de2d0d9	0.11074991
77	0xbc9c970b	-0.019114992
78	0x3dee9c74	0.11650935
79	0xbd013d2d	-0.031552482
80	0x3d736db1	0.05943078
81	0x3d6d848e	0.057987742
82	0x3dc873cc	0.097877115
83	0xbae8340c	-0.0017715706
84	0x3d9bca31	0.07606924
85	0x3bd59bf6	0.006518836
86	0xbc88a8ab	-0.01668199
87	0x3df12ed6	0.11776511
88	0xbdfea0d9	-0.12433023
89	0x3cac4a98	0.021031663
90	0xbdbc94ac	-0.092080444
91	0x3dc564c4	0.0963836
92	0xbd3615fc	-0.04445456
93	0xbd532028	-0.05154434
94	0xbdcaaec5	-0.09896616
95	0xbd838b94	-0.06423107
96	0x3de3ebfa	0.11128993
97	0x3d754c28	0.05988708
98	0x3deb1cd3	0.11480107
99	0xbe03a972	-0.12857607
100	0x3dac9636	0.08427088
101	0xbd710de5	-0.05885114
102	0xbd4ac516	-0.049504362
103	0x3d2c57c7	0.0420759
104	0x3d719824	0.058982983
105	0x3cd2058d	0.025637412
106	0x3dc3b1a8	0.095553696
107	0xbd983890	-0.074326634
108	0x3de5f4ef	0.11228358
109	0x3cb71505	0.02234889
110	0x3d1531f0	0.036424577
111	0x3dddcac5	0.10829691
112	0xbc32859f	-0.010896116
113	0xbcca7d43	-0.024717933
114	0xbd95b36e	-0.07309614
115	0xbdd4de91	-0.10394014
116	0x3de80622	0.11329295
117	0xbdeb21b4	-0.11481038
118	0xbc18f7e1	-0.009336443
119	0x3d032deb	0.032026213
120	0x3da0b877	0.07847684
121	0xbdf5ee28	-0.12008315
122	0xbc604bd6	-0.013689956
123	0xbd8403c2	-0.06446029
124	0x3d152a5d	0.036417354
125	0xbd6d9b1a	-0.058009245
126	0x3d281805	0.04103853
127	0x3dfbfc15	0.1230394
128	0xbd249b02	-0.04018689
129	0x3cb84e9a	0.022498418
130	0xbd3c884b	-0.046028417
131	0x3d295f0a	0.041350402
132	0xbdf7f542	-0.12107326
133	0xbb41b9fb	-0.0029560316
134	0x3df9fe27	0.12206679
135	0xbd320857	-0.043464985
136	0xbce08747	-0.027408255
137	0xbd98ac2d	-0.07454715
138	0x3d9c5f03	0.076353095
139	0x3dfd2f14	0.12362495
140	0xbc40a486	-0.011757975
141	0xbdcb1efe	-0.09918021
142	0x3da8d43d	0.08243606
143	0xbd2c12ff	-0.042010304
144	0x3d8d4300	0.06897545
145	0xbd68eb62	-0.056865104
146	0xbc36efbf	-0.011165558
147	0x3d461a56	0.04836496
148	0x3df51564	0.119669706
149	0x3ddffe1d	0.1093714
150	0x3de9e023	0.11419704
151	0xbd876723	-0.06611469
152	0x3d86a804	0.06575015
153	0xbd5b8419	-0.053592775
154	0x3d461e02	0.04836846
155	0xbd7c1a99	-0.061548803
156	0xbda700f2	-0.08154477
157	0x3b6d2ca7	0.0036189945
158	0xbdc6bb39	-0.09703679
159	0xbd959bc4	-0.073051006
160	0xbdbfb9b0	-0.09361589
161	0xbd716c2d	-0.058941055
162	0xbdb9d83d	-0.09074447
163	0x3cf635cf	0.030054955
164	0x3d370db8	0.044690818
165	0x3d22049f	0.03955519
166	0x3dc3adeb	0.095546566
167	0xbdb4a1de	-0.08819936
168	0x3d46ea37	0.04856321
169	0xbdc7d34a	-0.09757097
170	0x3dbc2ec8	0.0918861
171	0xbdd29a35	-0.10283319
172	0x3d3d39cb	0.046197694
173	0x3da2bdff	0.07946395
174	0x3d7fc523	0.062443864
175	0xbdfd8849	-0.1237951
176	0xbc8809b5	-0.016606191
177	0xbdb70f53	-0.0893847
178	0xbdb25efa	-0.087095216
179	0xbd0669d6	-0.032815777
180	0xbdabe27f	-0.0839281
181	0x3d96c630	0.0736202
182	0x3da106de	0.07862638
183	0xbd5607ce	-0.052253537
184	0x3b1c9ad1	0.0023895989
185	0x3d91599a	0.07097168
186	0xbaf0cdf4	-0.0018371926
187	0xbba2732c	-0.004957577
188	0xbd516796	-0.051124178
189	0xbca8bab4	-0.02059684
190	0xbd7e568d	-0.06209426
191	0x3a47f3c6	0.00076275726
192	0x3e00c0a9	0.12573494
193	0xbc836af5	-0.016042212
194	0x3dc9b528	0.09849006
195	0x3d1d38bf	0.038384195
196	0x3d2a52a1	0.041582707
197	0x3cc49b9b	0.02399998
198	0xbddfd254	-0.10928789
199	0x3d680ae7	0.056651022
200	0xbd2ef354	-0.042712525
201	0xbd3009bb	-0.04297803
202	0x3d421c74	0.047390416
203	0xbcd1292c	-0.025532328
204	0x3c3ee8af	0.011652156
205	0x3dc3dbc1	0.09563399
206	0xbc03b1e2	-0.008038016
207	0x3a25539b	0.00063067087
208	0xbc8a7def	-0.016905753
209	0x3e037037	0.12835775
210	0xbcdf42bb	-0.0272535
211	0x3db42b1b	0.08797284
212	0x3cca0ece	0.024665263
213	0xbca42ea3	-0.02004177
214	0xbd802a67	-0.062580876
215	0x3db504fd	0.08838842
216	0xbd584022	-0.052795537
217	0xbd22247b	-0.03958557
218	0x3da57b1b	0.08080121
219	0xbc407922	-0.01174763
220	0x3c407e95	0.0117489295
221	0x3d9fda31	0.078052886
222	0xbd942e4d	-0.07235394
223	0x3db15ae1	0.08659912
224	0x3dfb706d	0.12277303
225	0xbd9f1646	-0.0776792
226	0xbd953e99	-0.0728733
227	0x3d10fc96	0.035397135
228	0x3da0b16e	0.07846342
229	0x3d8d5f5e	0.069029555
230	0xbd8ae66d	-0.067822315
231	0xbd154479	-0.036442254
232	0x3dcc5482	0.09977056
233	0x3d165b5d	0.036708225
234	0xbd188298	-0.03723392
235	0x3da9dc0d	0.082939245
236	0xbd5fda6e	-0.05465167
237	0xbc1c1fdd	-0.009529081
238	0xbd2b4035	-0.04180928
239	0x3d8958a0	0.06706357
240	0xbdf489ab	-0.119403206
241	0xbd8144f9	-0.063119836
242	0x3d97f518	0.07419795
243	0x3b4890e8	0.003060395
244	0x3d8e402d	0.06945834
245	0xbdf52354	-0.11969629
246	0x3d53eea2	0.05174125
247	0xbd64bf9a	-0.055846788
248	0x3d5bf9b1	0.05370492
249	0xbdfd621e	-0.1237223
250	0xbd822fa3	-0.06356742
251	0x3cd57ad5	0.026059547
252	0x3c1902bc	0.009339031
253	0xbc053a9a	-0.0081316475
254	0x3dae2779	0.085036226
255	0xbdc4c107	-0.096071295

value_layer.2.bias f4 [64]
0	0xbc8877f0	-0.016658753
1	0x3deafc58	0.11473912
2	0xbdeb67f4	-0.11494437
3	0xbd84240c	-0.06452188
4	0x3dd694b5	0.10477582
5	0x3d356022	0.044281133
6	0xbcaaf37f	-0.020868061
7	0xbd984cdd	-0.074365355
8	0x3daf3a2b	0.085560165
9	0x3d95415a	0.072878554
10	0xbc72b6eb	-0.014814119
11	0x3d485045	0.048904676
12	0x3df0fb05	0.11766628
13	0xbdb834d0	-0.08994448
14	0x3d86ffd3	0.06591763
15	0xbc1fcc28	-0.0097532645
16	0x3d84cc79	0.064843126
17	0xbdf00e6b	-0.117215
18	0x3ce01e04	0.027358063
19	0xbcddc66d	-0.027072156
20	0xbdf097f5	-0.117477335
21	0xbd165bd8	-0.036708683
22	0x3d8a5e5d	0.067562796
23	0xbd4474e2	-0.04796303
24	0xbdf426a4	-0.119214326
25	0xbdc777d1	-0.0973965
26	0xbd9f7d88	-0.07787615
27	0x3d1ce255	0.038301785
28	0xbcfbff84	-0.030761488
29	0x3ddea5f0	0.10871494
30	0x3da0c85a	0.07850714
31	0xbde7f104	-0.11325267
32	0xbd5a18f4	-0.053246453
33	0xbd5b6070	-0.053558767
34	0x3ddf6cab	0.10909399
35	0xbc96934a	-0.01838078
36	0x3dbd5509	0.09244735
37	0x3cd45fac	0.025924526
38	0xbbcfb95c	-0.006339235
39	0x3d1919c7	0.0373781
40	0x3e00ba48	0.1257106
41	0xbdcd5b6d	-0.10027204
42	0x3d9a08af	0.075211875
43	0xbb0af46e	-0.002120282
44	0x3c2240ee	0.009903176
45	0x3d53e762	0.051734336
46	0x3df61216	0.12015168
47	0xbdfe93f7	-0.12430566
48	0xbd426631	-0.04746074
49	0xbdb53514	-0.088480145
50	0xbd52eb1f	-0.05149376
51	0x3de9651b	0.113962375
52	0x3d32de78	0.043669194
53	0x3d40ee76	0.047102414
54	0xbded5d83	-0.115901016
55	0xbdad72e1	-0.08469177
56	0x3ca09428	0.019601896
57	0x3dcb3416	0.09922044
58	0x3dcf5816	0.10124223
59	0xbd7cd48c	-0.061726138
60	0xbd3eeda9	-0.04661337
61	0xbdb03ad6	-0.08604972
62	0x3dd4c468	0.10389024
63	0x3cf54e62	0.029944602

value_layer.4.weight f4 [1, 64]
0	0xbded3f35	-0.115843214
1	0xbcd1539a	-0.02555256
2	0xbdc97e34	-0.098385245
3	0xbd5c186c	-0.053734228
4	0x3cd4f836	0.025997262
5	0xbdcfef80	-0.10153103
6	0xbdd3a277	-0.10333722
7	0x3dcd58f2	0.100267306
8	0x3dab7de0	0.08373618
9	0xbbaaf162	-0.0052167634
10	0xbd0480a5	-0.032349247
11	0x3d454dc9	0.048169885
12	0x3c17ed66	0.009272909
13	0xbd120fcf	-0.035659607
14	0x3d40276a	0.04691259
15	0xbd6ff6b2	-0.058584876
16	0xbdea9334	-0.11453858
17	0x3bf81159	0.0075704274
18	0xbdaae2e3	-0.083440565
19	0xbc66e5d5	-0.014092882
20	0xbd36ac53	-0.044597935
21	0x3dbd9af3	0.0925807
22	0x3cf98df7	0.030463202
23	0xbdbec4a7	-0.09314852
24	0xbdd48f39	-0.1037888
25	0xbde83e05	-0.11339954
26	0x39a1f692	0.00030892022
27	0xbcc397ea	-0.02387615
28	0x3d125aea	0.035731234
29	0xbd705969	-0.05867902
30	0xbcd6499a	-0.026158143
31	0xbd9555b9	-0.07291741
32	0xbdec2246	-0.11529975
33	0xbd3e25af	-0.046422657
34	0x3bc2c7bb	0.00594422
35	0x3daf3bf6	0.085563585
36	0x3df0d0f8	0.117586076
37	0xbd820427	-0.06348448
38	0x3c4b0299	0.012390756
39	0x3a8e806d	0.0010872014
40	0x3cb4ac03	0.022054678
41	0xba26d718	-0.0006364449
42	0xbd84a3e5	-0.06476573
43	0xbc522fce	-0.01282878
44	0x3d8f70bd	0.07003925
45	0x3c81a095	0.015823642
46	0x3dd1629c	0.10223886
47	0xbdd18f00	-0.10232353
48	0x3c1b6dec	0.009486657
49	0x3d64672b	0.05576245
50	0xbdd06d8e	-0.10177146
51	0xbca09ac6	-0.019605052
52	0xbb5c8ce8	-0.0033653323
53	0xbdb11ce2	-0.08648087
54	0xbdde1e45	-0.10845617
55	0xbcdafd8c	-0.026732229
56	0xbd721865	-0.059105296
57	0xbbc913c6	-0.0061363904
58	0x3cefc5c8	0.029269114
59	0x3d8279d7	0.06370895
60	0x3dc58fa3	0.09646537
61	0xbd006873	-0.03134961
62	0xbcae3095	-0.0212634
63	0x3abd4f34	0.001444316
