8_gym-PPO/results/PPO_LunarLander-v3_2000-eps0.1.pth (torch, 44194 bytes, 11 tensors)

action_layer.0.weight f4 [64, 8]
000000 04 15 98 3c 32 c8 0e be 9c 2d fd bd 10 a0 06 3f
       0.018564709 -0.13943556 -0.12362215 0.52587986
000010 cf bd 8d 3e f8 cf a2 be 00 34 66 be c9 b5 03 3e
       0.27683875 -0.31799293 -0.22480774 0.12862314
000020 59 4d 81 be e6 88 78 be 3c b2 ea 3d 5d 92 9d be
       -0.25254324 -0.24270973 0.11459777 -0.3077573
000030 46 67 dc 3e a9 eb b8 3e e1 e8 a2 be be e6 10 be
       0.4304754 0.36117294 -0.31818298 -0.14150521
000040 1e 9f 21 bd af b1 8d 3d b9 cc ad 3e 24 b8 ef be
       -0.039458387 0.06918656 0.33945253 -0.46820176
000050 39 da 6c be e9 92 44 bd 38 c6 e8 3d 57 a3 58 bd
       -0.2313012 -0.047991667 0.11365932 -0.052890148
000060 8f f7 51 be aa a4 95 3e 9f a3 e1 bd c3 db f0 3e
       -0.20504592 0.2922719 -0.11017536 0.47042665
000070 13 0d f4 bd 20 14 cf 3c ff a6 cf be cc 37 ea 3e
       -0.11916556 0.025278151 -0.40557095 0.45745695
000080 e2 fd f4 3d 2c f3 41 be ae c8 92 bd f4 8c b0 3e
       0.11962487 -0.18940419 -0.07167183 0.3448254
000090 8c de be 3e 98 6d cc 3e 3b f3 9e 3e ed c1 3a bd
       0.37279165 0.39927363 0.31044945 -0.0455951
0000a0 06 5d 96 bd b4 04 92 bd 7d 99 cb 3d c5 29 aa 3e
       -0.073419616 -0.07129803 0.09941385 0.33234993
0000b0 b7 f2 9a 3e b8 46 8f be 32 c9 31 be b9 f1 78 be
       0.30263302 -0.27983642 -0.17361906 -0.2431096
0000c0 9e 87 21 be e6 8c d4 3d cc b3 c5 be 71 eb 3e be
       -0.1577439 0.10378437 -0.38613737 -0.18644501
0000d0 45 3b f4 bc b5 07 8b be 87 f3 51 3e e8 94 a1 bd
       -0.029813418 -0.27154317 0.20503055 -0.0788973
0000e0 c8 50 87 bc 10 2a d6 3a 3e 84 49 3e e0 c4 16 bd
       -0.016518012 0.001633944 0.19679353 -0.03680885
0000f0 99 75 f2 3d 32 fd 2a 3e d1 a3 bc 3d 70 3d e7 3e
       0.11838836 0.16698149 0.09210933 0.4516406
000100 ee f5 82 3e 8d 5b 2f 3c 8e db 05 3e ff 26 03 bf
       0.25578254 0.01070298 0.13072035 -0.5123138
000110 d3 94 36 be 29 90 9c be 76 d1 ae be db b0 93 3e
       -0.1783021 -0.30578735 -0.3414418 0.28845868
000120 d2 b7 1f bd fe e6 ca 3d 14 bc d7 bd b6 ce eb 3e
       -0.038993664 0.099073395 -0.1053392 0.46056145
000130 b4 0a 21 3e 61 13 6a 3e 18 d4 13 3d c1 1c f0 bd
       0.15726739 0.22858955 0.03609094 -0.11724234
000140 fb 14 80 be 8b 54 a3 3e fc b6 86 3e 42 df 47 3e
       -0.25016007 0.3190044 0.2631148 0.1951876
000150 7a e0 43 bf b7 1d 32 bf d0 e4 de be 45 0c 85 be
       -0.765144 -0.6957659 -0.43533945 -0.25985923
000160 69 0a 82 3e af 41 75 3e 21 d0 9f bd 22 48 1c be
       0.25398567 0.23950838 -0.07803369 -0.15261891
000170 81 26 a3 be 41 d4 d2 3e a0 46 99 3e ea b8 f4 3d
       -0.31865314 0.41177562 0.29936695 0.11949332
000180 17 6f a2 3e 1d dd a1 3e 9a 4c c3 bc 56 c8 d8 3e
       0.3172538 0.3161401 -0.023840237 0.42340344
000190 84 7a f1 be 2f d4 51 be 01 fc 00 3f 2c a3 25 be
       -0.47163785 -0.20491098 0.5038453 -0.16175526
0001a0 28 83 a5 be 8b 8d ef 3d 24 66 a0 be a0 7e d7 3e
       -0.32326627 0.11696919 -0.31327927 0.42088795
0001b0 da 7d 31 3f ee 5f 21 3f 97 4e 17 3e e1 ac 01 3f
       0.6933266 0.63037 0.14776073 0.5065442
0001c0 84 e7 d3 bd f2 7c 1f be f5 5e 99 be b8 cb 39 3d
       -0.103468925 -0.15575007 -0.2995526 0.045360297
0001d0 65 2e 05 3f 6c 77 f5 3d fd d1 8f be 79 78 88 3d
       0.5202392 0.119856685 -0.28089896 0.06663603
0001e0 c1 55 7b be f4 21 c8 bc 3c 0e 46 bd 74 8e 50 be
       -0.24544431 -0.024430253 -0.04835342 -0.20366842
0001f0 91 f2 67 3c 1f 36 fb 3e 7c 3a 0c 3f 88 44 d1 bd
       0.014156953 0.4906473 0.5477674 -0.102181494
000200 df fc c6 3e 4f 9b d9 3d 24 35 bb 3e 69 fb 04 3f
       0.388648 0.10625326 0.3656398 0.5194612
000210 c5 72 59 bf 02 74 b2 be 77 50 e9 3c 63 f5 c2 be
       -0.8494075 -0.34854132 0.028480751 -0.3807784
000220 8a cf c1 3c d7 3f 1e be fa ea 8b be 32 d6 16 bf
       0.023658533 -0.1545404 -0.2732771 -0.58920586
000230 17 f7 d0 bb 08 8b 73 be d7 37 94 be 5f 9b 7b be
       -0.0063771117 -0.23783505 -0.28948852 -0.24570988
000240 62 6b 8b bd 23 19 ab 3e b6 30 b4 3d 8a a3 5a be
       -0.06807591 0.33417615 0.087983534 -0.21351448
000250 4b 68 10 be 57 51 0b bf ba b8 0d bf e9 ff f1 3e
       -0.14102285 -0.5442099 -0.55359995 0.47265556
000260 7f 7a 9a bd 42 3d c0 bd 82 6c 77 be dc f5 66 be
       -0.075428955 -0.09386684 -0.24162486 -0.22554725
000270 7d f0 17 3f 94 de b3 3e 56 e9 c2 3e 03 cf 14 bc
       0.5935133 0.3513075 0.38068646 -0.009082559
000280 0a fa ef 3d 55 1c 67 3e b3 5d 82 3e 78 19 47 be
       0.11717613 0.22569402 0.25462112 -0.1944331
000290 b1 ff 26 3e be 90 ce bd e5 de 93 3e d0 68 08 3e
       0.16308476 -0.10086201 0.28880993 0.13321233
0002a0 87 4f d2 be 09 36 b5 3b 71 25 9f 3d 52 53 d1 3e
       -0.410763 0.005530123 0.07770813 0.4088388
0002b0 27 d3 99 3e aa af 94 be 13 79 05 3e e3 25 4c 3e
       0.3004391 -0.2904027 0.13034467 0.19936328
0002c0 4d aa a8 3e 62 8c 89 be 1c 11 83 3e 38 2b b5 be
       0.3294243 -0.26864916 0.2559899 -0.35384536
0002d0 16 1d 76 be d1 c9 51 be e6 7e 53 3e 65 7e f0 be
       -0.24034533 -0.20487143 0.20653877 -0.4697143
0002e0 6c fc 5d 3e 93 99 57 3e 5d 67 98 bd c3 1a fa bd
       0.21678323 0.21054678 -0.0744159 -0.12212136
0002f0 f0 85 e0 be 4c dd 5c 3e b0 09 a9 3e 86 ad 15 3f
       -0.43852186 0.21568793 0.33015203 0.584679
000300 5c 26 6f 3e 36 32 9e be 29 8e aa 3e b9 63 f5 be
       0.23354477 -0.30897683 0.33311585 -0.47927645
000310 35 5c d0 bd 48 98 14 bf c7 a9 d3 3d 5a 52 c1 3e
       -0.10173837 -0.5804486 0.10335117 0.37758142
000320 a4 44 9a 3d 14 e5 39 bd bf df c9 3e ff cf 0b 3f
       0.075326234 -0.04538448 0.39428517 0.5461425
000330 62 90 44 bf 45 29 28 be 17 3c 7b be 51 2a 94 bd
       -0.7678281 -0.16421993 -0.24534641 -0.07234634
000340 67 da 9a 3d 82 4b a1 3c c3 c5 6b be de 3f f6 3e
       0.07561188 0.019689325 -0.23024659 0.48095602
000350 2a 76 57 be 6b 2c 08 3f d7 0b 88 3e a2 47 91 3e
       -0.2104117 0.53192776 0.26571533 0.28374964
000360 28 8b 77 3e 57 a5 bf 3c 07 6b 9f be 83 68 ba 3d
       0.24174178 0.02339427 -0.31136343 0.09101965
000370 75 c3 2b be c2 34 b4 3e 3b e0 85 be a2 8c 25 bb
       -0.1677378 0.351965 -0.26147637 -0.0025260826
000380 9f 5c c3 3d 2e d1 d4 bc 8d 03 3f be 65 67 f2 3e
       0.095391504 -0.02597865 -0.18653698 0.4734451
000390 38 5e 63 3e 2a 2d f8 3e 57 8e af 3e ab f6 b3 3e
       0.2220391 0.48471957 0.34288284 0.3514913
0003a0 37 b0 c5 3e 59 83 a3 be 9f b4 23 3d 25 82 b5 be
       0.38611004 -0.31936148 0.039967176 -0.35450855
0003b0 20 3c 52 be 96 d8 3e 3e 8d 22 c9 3d ec 19 86 3d
       -0.20530748 0.18637308 0.09821043 0.06547913
0003c0 8e a2 e4 3e c9 2d a4 3c dd 49 3d 3e 8e 94 8b be
       0.4465527 0.020041363 0.18485208 -0.27261776
0003d0 c5 59 22 bf 03 c6 c3 be 2d df 37 be ae 49 0a 3e
       -0.6341823 -0.38237008 -0.17956229 0.13504669
0003e0 9d 8c 47 3e 8d 13 11 3e be a1 31 be 77 8e 3b be
       0.19487233 0.14167614 -0.17346856 -0.18316065
0003f0 11 46 ec bd 99 6e d4 bd 02 f0 0b 3f f4 7b b2 3e
       -0.115368016 -0.10372657 0.546631 0.34860194

action_layer.0.bias f4 [64]
000000 9f 58 18 3e 18 ec 5b 3e a0 25 d7 3d 7e eb 0c 3e
       0.14877556 0.21476781 0.10505223 0.13761708
000010 99 4c e6 3d 7e d7 b4 3d 13 1a 9f be 8c 7a e9 bc
       0.112450786 0.088301644 -0.3107458 -0.028500818
000020 14 d7 6b 3d 34 03 81 be 03 0e 55 be de f6 29 be
       0.05757816 -0.25197756 -0.20806126 -0.16598079
000030 b6 e4 7f be 76 62 af 3d 6f c8 9d 3e 91 6c 80 bc
       -0.2498959 0.08563702 0.3081698 -0.015676768
000040 04 bf 86 bd 17 be 70 3e 1d 21 b5 be 46 d4 1e 3e
       -0.06579402 0.23510014 -0.35376826 0.15510663
000050 42 6b 12 be 75 b2 fd 3d f3 07 45 3d 3b 13 8e 3d
       -0.14298728 0.123875536 0.048103284 0.06937262
000060 34 6c 0a 3e 7a 38 6d 3e 4e c0 00 3d 2a f1 1f be
       0.13517839 0.23166075 0.031433396 -0.1561934
000070 61 e1 71 3e 62 3f eb 3d 45 27 d5 3d 09 ab 06 bd
       0.23621131 0.11486699 0.10407881 -0.032877956
000080 72 93 39 3d 32 27 a6 bd 17 a5 80 be 1e 6f 8e 3e
       0.04530663 -0.08112945 -0.25125954 0.2781915
000090 62 3c 1b be c1 2b d7 3d f8 ce 04 be a5 d9 82 3e
       -0.15159753 0.10506392 -0.12969577 0.25556675
0000a0 1d 13 2f 3d ab fa 1f 3d cb c7 15 be c2 67 ea bd
       0.042742837 0.039057415 -0.14626996 -0.114455715
0000b0 99 72 bf 3d 2a 18 ae bd a4 6f 83 3e 59 96 77 be
       0.0934803 -0.08500703 0.25671113 -0.24178447
0000c0 1a aa 53 3e 3a b7 51 be 59 d8 68 be 75 05 47 bd
       0.20670357 -0.20480052 -0.2273878 -0.04858919
0000d0 d2 3b ca 3c f3 ae d9 3d 45 fd 93 bd 94 9a e8 bc
       0.024686728 0.10629072 -0.07226042 -0.028394021
0000e0 d3 d5 87 3e 96 0f a2 3c aa e4 2c bd 31 f2 91 3d
       0.26530322 0.019782823 -0.04221026 0.071262725
0000f0 58 c7 a5 3e 6d 14 17 3e 15 0f 1e 3e bf cf 20 3e
       0.3237865 0.14753886 0.15435441 0.15704249

action_layer.2.weight f4 [64, 64]
000000 c4 95 90 3d 6c bf 47 be 11 e3 14 bd f8 95 00 3e
       0.070598155 -0.19506615 -0.03634936 0.12557209
000010 82 8c 0c 3e 5a 42 0e 3d 8b 46 aa bd 3e 90 89 3d
       0.13725474 0.034731247 -0.08314236 0.06716965
000020 79 44 a9 3d 06 30 db bd 4d 7a 07 3e f0 d1 24 3e
       0.08265013 -0.10702519 0.13230248 0.1609571
000030 11 bb 25 3e f2 3c b9 bd 4b ea 00 3d 5b 0b fe 3d
       0.16184641 -0.090448275 0.03147344 0.1240451
000040 7e 07 03 3e 1d e2 d7 bd 95 de 5b bd 4a 20 97 3d
       0.12795827 -0.105411746 -0.053679068 0.073792055
000050 9e c8 b1 bd be a2 bb 3d 5b ca 37 bd 21 40 d1 bc
       -0.08680843 0.091619 -0.044870716 -0.025543274
000060 92 ac 38 bd b6 fc 3e 3e d9 83 51 3e 7e 21 94 3d
       -0.04508645 0.18651089 0.20460452 0.07232951
000070 32 d8 aa bd 5f a5 63 bc d9 50 cf 3b 8a ba 81 bd
       -0.08342017 -0.013894408 0.0063267765 -0.06334408
000080 4e dd 14 3d 2f d2 57 3c c3 29 10 bd cf 15 85 3a
       0.036343865 0.01317267 -0.035196077 0.0010153594
000090 45 8c 5f 3e 89 90 df 3d 21 29 28 bc 0a 1c 36 3e
       0.21830852 0.1091624 -0.010263712 0.17784134
0000a0 14 ce 28 be 1f 2b 01 bd 4f d5 74 bc 04 f0 93 3d
       -0.16484863 -0.031535264 -0.014943435 0.07223514
0000b0 f7 3d 0e bc 3d 4d 1d bd 70 27 c9 bd 2d 85 3c 3d
       -0.008681766 -0.03840374 -0.09821975 0.046025444
0000c0 f4 a9 50 3d c7 0f 8e 3b 7c c8 44 3d da 38 f4 bb
       0.05094333 0.004335377 0.04804276 -0.0074530663
0000d0 c6 6e 7b 3d 8a e6 6b 3c d9 a0 db bd bf 2c e7 3c
       0.06138494 0.0143982265 -0.10724039 0.028219579
0000e0 45 13 df 3d 39 c0 3d bb 6e cd e3 3d 9d 58 0b 3e
       0.10892347 -0.0028953685 0.11123167 0.13608022
0000f0 99 6d e0 3c ab 69 51 3e 19 f4 07 be 5a 92 7f 3d
       0.02739601 0.20450465 -0.1327671 0.06239543
000100 48 6f 12 3e e6 c3 21 3d 2e 6c b3 3c c7 71 dd bd
       0.14300263 0.039493464 0.02190217 -0.10812717
000110 b4 be cd 3d ff 0c 0a 3e 17 2f ce 3d d8 19 f2 3c
       0.10046139 0.1348152 0.100675754 0.029553339
000120 2d 19 91 bd 6f cc 9e 3d 4a 35 5f be 8c 26 eb bd
       -0.0708488 0.07753836 -0.21797672 -0.114819616
000130 49 79 d7 bd 80 5f 1d 3c e7 94 c6 3d 03 8e 3a bd
       -0.1052118 0.0096052885 0.096963696 -0.04554559
000140 0a ac 49 3d c9 f1 04 3e f7 a1 af bc 5a f5 ac 3c
       0.049236335 0.12982859 -0.021439536 0.021113086
000150 9c e1 7a bd b7 c8 3d 3c 4b 3d 6e bd 91 7b b9 bd
       -0.061250314 0.011583499 -0.058163922 -0.090567715
000160 98 4b c9 bd 77 a9 ef bd 4e 49 22 be 40 8e 83 bc
       -0.098288715 -0.11702245 -0.15848276 -0.016059041
000170 54 a5 6c bc ef 80 15 3c cd 23 36 be 5d 6d 28 be
       -0.014443714 0.009124978 -0.17787094 -0.16447969
000180 a9 ee 24 3d dc 8b 90 bd 1b dc e7 bd c1 35 46 3d
       0.040266667 -0.07057926 -0.11321279 0.048391107
000190 cd 70 a5 bd a1 84 15 bd 38 bf b2 3c 28 fa c6 bd
       -0.08078156 -0.036503438 0.021819696 -0.09715682
0001a0 4a a9 49 3d c3 2f 0e 3e ae 33 5a be 7b 91 9a bd
       0.049233712 0.13885407 -0.21308777 -0.075472794
0001b0 b0 c1 b0 3c d8 34 e8 bd c1 a5 05 3e cd 60 94 3b
       0.021576732 -0.11338204 0.13051511 0.004528141
0001c0 c6 af 72 bd 87 20 37 bd 20 bf 9c bd 44 51 57 3c
       -0.059249662 -0.044708755 -0.07653642 0.013141934
0001d0 ae f7 b9 bd 51 26 12 be 1e 25 68 bc 0f aa d4 bc
       -0.09080444 -0.14272429 -0.014169006 -0.025959997
0001e0 36 f6 8e bd cf 50 9a bc 47 72 b9 bd d4 5b c4 3d
       -0.06980555 -0.01883736 -0.09055 0.09587827
0001f0 3b f4 2a 3e 34 ac 9f bd 13 d1 15 3e f0 a8 92 3d
       0.16694729 -0.07796517 0.14630537 0.071611285
000200 fc 45 6b bd 70 f0 89 bd c6 a6 ed 3d 90 2d 92 3d
       -0.05743979 -0.06735313 0.11604075 0.071375966
000210 fe 16 b2 bd 19 10 04 3d 3a d9 c7 3c d8 ee a1 3d
       -0.08695792 0.032241914 0.024395574 0.07906884
000220 02 18 3e bd 22 61 07 3c 43 f9 68 3d 88 8e 30 3d
       -0.046409614 0.008262904 0.05687834 0.04310468
000230 23 a8 8f bc 8f 95 32 be d6 7c 14 bd 83 28 2e bd
       -0.017536229 -0.17439865 -0.036251865 -0.042519104
000240 43 48 49 3e 73 8f 19 be 73 e3 3c 3d 02 8b 5a 3d
       0.19656472 -0.14996128 0.04611535 0.053355224
000250 00 18 c1 3d 4d 38 72 bd 18 05 fd 3d c5 96 62 3d
       0.09428406 -0.059135724 0.12354487 0.055319566
000260 b0 45 27 3e c0 5d 7e 3e 20 d1 41 3e e7 78 b3 bd
       0.16335177 0.2484045 0.18927431 -0.08763295
000270 e9 90 ff 3d db 3b 63 bc 83 e6 3e 3d 42 14 c0 3d
       0.12478811 -0.013869251 0.04660655 0.09378864
000280 2b bf 3a 3e 11 b2 1b bc 31 78 5f be 8c 83 5b bd
       0.18236987 -0.009502904 -0.21823193 -0.05359225
000290 fb fe 4b 3e 5f 0d 75 3e 2f a4 80 3d 29 81 42 3e
       0.19921486 0.23930882 0.062813155 0.18994583
0002a0 52 b0 0c be b7 2c d1 3c f9 63 24 3e a5 53 09 be
       -0.13739136 0.025534017 0.16053762 -0.13410814
0002b0 24 a0 e2 3d 38 cf 7a 3e b2 57 54 be c0 70 e8 bd
       0.11065701 0.2449311 -0.20736578 -0.1134963
0002c0 b8 c9 8b bd 02 3a 66 3d eb 16 0b 3d a7 fc 12 3c
       -0.06825584 0.056207664 0.033957403 0.00897137
0002d0 0f b9 4f be ee c6 fd bd 4c 99 b8 3d be b4 60 bd
       -0.20285438 -0.123914585 0.09013614 -0.05485987
0002e0 76 c6 98 3e 13 18 99 3c 52 bc ac bd 46 70 38 3e
       0.29838914 0.018688237 -0.08434357 0.18011579
0002f0 e1 fe 63 3e 1c 3f 02 3e f5 0f 5c bc de f3 ec 3d
       0.22265197 0.12719387 -0.013431539 0.115699515
000300 d9 85 a6 bd cc 32 04 3e 34 ae a2 3c 85 10 3b be
       -0.08130998 0.12910002 0.019858457 -0.1826802
000310 16 b1 17 39 a4 8c 57 bc f1 70 d7 3d d9 2c 3c bd
       0.00014466452 -0.01315609 0.10519589 -0.045941208
000320 d9 36 8e 3d 08 43 bc 3d d4 38 49 be 14 b7 65 3b
       0.06944055 0.09192473 -0.19650584 0.003505175
000330 21 0e 86 bd e9 86 a2 bd b9 85 3a 3d 69 bb e7 3c
       -0.065456636 -0.07935888 0.045537684 0.028287606
000340 1c 2b a3 bd d0 07 14 3e f4 f5 32 3c 33 07 30 bc
       -0.07967207 0.14456105 0.010922898 -0.010743904
000350 17 49 c4 3c bd 56 7a 3d 5f 3a 2a 3d 07 54 e0 bd
       0.023960633 0.061117876 0.041559573 -0.10953527
000360 6f 1f d5 3d a5 88 fb bd fa 26 f2 ba 40 21 85 3d
       0.10406386 -0.12281922 -0.0018474751 0.065004826
000370 27 26 65 3d 59 1f 42 bd 92 13 7d bd 6d 31 74 3d
       0.055944588 -0.047393177 -0.06178624 0.05961745
000380 35 c4 1b be 34 47 d1 3d 7f 7a a6 bd cf f8 c7 bc
       -0.15211566 0.10218659 -0.08128833 -0.024410633
000390 65 8d e3 bd 07 38 80 be ac 69 05 3c b1 d6 53 bd
       -0.11110953 -0.25042745 0.00814287 -0.051718418
0003a0 58 20 17 3e 95 ce 01 3e ad 0a 94 3d 4e 7f b3 bd
       0.14758432 0.12676461 0.07228599 -0.08764516
0003b0 79 eb bb 3d d7 c9 f7 bd 8b 08 1c 3d c2 8f 60 3d
       0.09175772 -0.12099045 0.038094085 0.054824598
0003c0 7b ac 9c 3c 10 79 31 bd 6f ec 5e bd b5 43 13 be
       0.019125214 -0.043328345 -0.0544247 -0.14381297
0003d0 95 98 14 3e 10 66 39 3e 48 f6 0f 3e 5d a3 ea bc
       0.1451133 0.1810534 0.14058793 -0.02864235
0003e0 86 a4 92 bd 6b d1 f5 bc 78 f5 26 bd 94 d0 4e bd
       -0.071602866 -0.030007085 -0.04076144 -0.050491884
0003f0 91 6b 67 3d 44 c2 22 bd 56 e3 ac 3d f9 9f 12 be
       0.056499068 -0.039736047 0.084417984 -0.14318837

action_layer.2.bias f4 [64]
000000 52 e3 8c bd db 28 2a 3d 8f 90 1e 3d f8 c5 b5 bd
       -0.068792954 0.04154287 0.03871208 -0.0887565
000010 96 3e 36 3d 89 dd 90 bd 51 f7 71 bc 43 37 21 3d
       0.04449328 -0.070735045 -0.0147684375 0.039359342
000020 dc a7 05 3d c6 6e b2 3c 30 df ba 3c c8 71 d7 3c
       0.032630786 0.021781337 0.022811502 0.026299372
000030 2a 69 b2 3c 95 64 4a 3d 7c 4b 72 3d c2 61 0c 3e
       0.021778662 0.04941233 0.05915402 0.13709167
000040 c6 68 3c bd 41 bb 52 3d af f7 85 bd a6 42 ca 3d
       -0.045998357 0.05144811 -0.065413825 0.098759934
000050 6c bf 92 3d f8 14 a7 bd b2 65 4e bc eb 8b 6c 3d
       0.07165417 -0.08158296 -0.012597488 0.057750624
000060 b4 84 12 3d ce 76 71 bd a5 64 94 3d 6b 47 a8 3d
       0.035771087 -0.05895119 0.07245759 0.08216747
000070 a5 b3 56 bd 4a cb b3 3d 66 9a b2 bd ad 37 1a bd
       -0.052417416 0.08779009 -0.087208554 -0.037650753
000080 8e 15 e8 3d 5a 46 9f bd 5a 10 0e be 9b cd a9 bd
       0.11332236 -0.0777709 -0.13873425 -0.08291169
000090 19 c8 a0 3d d4 e1 5b bd 37 02 01 3d a1 20 f1 3c
       0.078506656 -0.053682163 0.031496253 0.029434504
0000a0 9b bf 41 3d bc 8b 68 3c 45 e4 c6 bd 79 ef 6a 3d
       0.04730187 0.0141934715 -0.09711508 0.057357285
0000b0 8d 57 2c bd 58 9a b0 3c d6 0a d8 b9 99 ee df bc
       -0.042075682 0.021557972 -0.00041206804 -0.027335452
0000c0 ec c0 1b bc 75 d3 93 3d 11 e7 8e 3d da fe 08 3a
       -0.009506445 0.072180666 0.06977666 0.0005225964
0000d0 8a c1 70 3d c4 ed 02 bd 50 dd 83 3b 19 ab 06 be
       0.058778323 -0.031965032 0.0040241852 -0.13151206
0000e0 52 2d b1 bc 6e c7 c0 3d f5 ae a3 3d c1 fa bf bc
       -0.021628056 0.09413038 0.07992355 -0.023434998
0000f0 80 48 94 3d 8a 5e 44 3d 25 c7 aa bd e4 d6 79 bd
       0.07240391 0.047941722 -0.08338765 -0.06099595

action_layer.4.weight f4 [4, 64]
000000 12 2c 09 ba 93 1d 3f bc 66 8b 04 3c 66 7e e1 bd
       -0.0005232702 -0.011664766 0.008089876 -0.11010437
000010 9b 8e b7 3c ef a9 de bd cf 4b ed 3d 50 09 1a be
       0.022406867 -0.10872256 0.11586725 -0.15042615
000020 3a c4 8f bc a9 d4 2c 3e 19 7d b9 bd 80 e3 8f bd
       -0.017549623 0.16877998 -0.090570636 -0.07025814
000030 93 b2 63 bd 54 69 a9 bd 26 90 f7 3c c4 87 94 3d
       -0.055590224 -0.08272043 0.030220103 0.07252458
000040 4b 87 4d bd c0 f2 76 3d f4 fb d5 3d 6d 06 93 3d
       -0.050177854 0.0602901 0.10448447 0.0717896
000050 60 fe 0b bc 35 90 67 bd c6 bd 21 3e 30 0c 06 3e
       -0.008544534 -0.05653401 0.15795049 0.13090587
000060 f6 1a 61 3c a6 68 a2 3d a7 eb bb 3d 69 11 a9 3d
       0.013739338 0.07930116 0.091758065 0.08255274
000070 c5 ea 9e 3d 0e 4c f2 3d f6 6f 14 bd be 28 0f 3a
       0.077596225 0.118309125 -0.036239587 0.0005461088
000080 36 97 0a bd b8 20 a6 bd 17 09 c1 bd c8 a5 f7 3c
       -0.033835612 -0.08111709 -0.09425562 0.030230418
000090 81 1b f8 3a 05 d8 07 bc ed 14 be 3d 16 11 bc bc
       0.0018929095 -0.008291249 0.09281335 -0.022957366
0000a0 44 84 e7 3d 9a b3 e4 3d 17 b2 a8 bd 00 0c fd bd
       0.113045245 0.11167069 -0.08237093 -0.123558044
0000b0 e0 33 85 3d aa fe 90 bd d5 7f 54 bc 14 9b a5 bd
       0.06504035 -0.07079823 -0.012969931 -0.080862194
0000c0 3f 2f 13 be 36 ab ba 3d 2a e9 36 bd d3 52 1f bd
       -0.14373492 0.09114687 -0.044655956 -0.038897347
0000d0 cf ed 18 bc 9a 9c 80 bd a6 0c 45 bd da 24 9a bd
       -0.009334042 -0.062798694 -0.048107766 -0.0752656
0000e0 43 ea 8f bb f5 6e 43 3d bd 94 77 bd 69 1a fb 3d
       -0.00439194 0.04771324 -0.060444582 0.12260897
0000f0 f1 67 e7 bd 36 81 7c bc 25 33 56 3d 56 84 f8 bc
       -0.11299122 -0.015411666 0.05229487 -0.03033654
000100 c1 e7 f1 3d b9 8d e5 bc 67 db 07 3e 61 2b de bd
       0.11811782 -0.02802168 0.13267289 -0.108481176
000110 4e b6 37 3c 08 4e 96 bd d9 75 78 3e 17 c2 ab 3d
       0.011212898 -0.07339102 0.24263705 0.08386629
000120 16 fe 03 be bf 59 94 be f6 aa b8 bd 8f 87 58 bd
       -0.12889895 -0.2897472 -0.09016983 -0.052863654
000130 c7 13 09 3c bd 6a d7 bd bc c5 07 39 b2 bc 84 3d
       0.008366532 -0.105184056 0.00012948265 0.06481303
000140 8c b6 c6 bd 0b 47 31 bd 0d 23 ef 3c 35 88 90 3e
       -0.09702787 -0.043280642 0.029191518 0.28228918
000150 9c 74 62 bd df 07 0c 3e 11 13 14 be 83 c6 ef 3d
       -0.05528699 0.13674878 -0.14460398 0.11707785
000160 59 2e 94 bc c9 d2 0b bd ae a7 99 3d 15 80 2d 3d
       -0.018088507 -0.034136567 0.075026855 0.042358477
000170 ac 95 a3 3d bd 26 01 3e a9 33 93 3d 5d 2a 96 bc
       0.07987532 0.12612434 0.07187588 -0.018330747
000180 c3 30 32 be 9f 20 72 3d 3d 16 38 3e b6 a3 0e bd
       -0.17401414 0.05911314 0.17977233 -0.034824096
000190 4f 27 15 b9 a4 e1 11 bc 90 8b a3 3d 74 1f 03 be
       -0.00014224391 -0.008903895 0.07985604 -0.12804967
0001a0 9c 42 a0 3e ba 0d 13 3e 28 f1 21 bd a7 cd a2 3d
       0.3130082 0.14360705 -0.039536625 0.07949381
0001b0 a0 c1 7a 3e 2c 42 06 3d 7d 99 5c bc e8 3f 1d be
       0.24487925 0.03277795 -0.013464329 -0.1535641
0001c0 0d 66 6d bd a2 18 94 3c c0 2e db 3d e4 30 90 bd
       -0.05795865 0.018078152 0.10702276 -0.07040575
0001d0 c8 de aa bd 85 48 fd bd 82 53 06 bd c1 e8 67 bd
       -0.083432734 -0.12367348 -0.032794483 -0.056618456
0001e0 96 70 38 3e b4 de fb 3c 65 63 b1 3c cd 0e 15 bc
       0.18011698 0.030745842 0.02165384 -0.009097767
0001f0 f6 c1 3e 3d a3 86 74 3e 03 00 57 3d a7 b1 17 be
       0.046571694 0.23879485 0.052490246 -0.14813863
000200 57 e9 f8 bd 24 6c f9 bc 13 50 79 bd d9 2b a0 3d
       -0.12153881 -0.030447073 -0.06086738 0.07820863
000210 b7 7a 27 3e 5b 86 74 3e 8c 98 62 3e 62 ea 45 3e
       0.16355406 0.23879378 0.22128505 0.19327691
000220 32 ee 22 3e 1f 87 8c be 07 4d 89 3d 52 f5 19 3e
       0.15911177 -0.2744684 0.06704145 0.15034989
000230 04 79 9d bc 08 2f 06 bd 94 e3 fb bd 40 73 95 bd
       -0.019222744 -0.032759696 -0.122992665 -0.07297373
000240 6f cd 48 bc 38 44 39 be b2 72 62 be de 86 b0 be
       -0.01225601 -0.1809243 -0.22114065 -0.34477895
000250 0a 0c 62 be 8f 2f e2 bc 69 54 d7 bd 2d ab 1c be
       -0.22074905 -0.027610568 -0.10514147 -0.15299673
000260 bb 46 c3 bd bf da 43 3c cc 51 23 be 14 29 29 bd
       -0.09534975 0.011954009 -0.15949172 -0.04129894
000270 cc 05 80 3c 83 e9 10 be 13 9f 11 bd dd 2e 91 bd
       0.015627764 -0.14151578 -0.035552096 -0.070890166
000280 a6 b5 5e 3e 9f 0c 39 bc 92 d0 01 3e 24 f3 d4 bd
       0.21748981 -0.011294513 0.1267722 -0.10397938
000290 7e 64 31 3d 2b 42 ce bd 4a 73 7f be 13 6a b5 3d
       0.043308727 -0.10071214 -0.24946323 0.08858123
0002a0 23 c8 a2 3d 16 4e bb bd 30 7d 30 3d 5b 3b df 3d
       0.07948329 -0.09145753 0.043088138 0.10899993
0002b0 04 d3 a8 be 30 8d 8a bd 82 92 c3 3c d8 d1 1a 3e
       -0.32973492 -0.06765211 0.023873571 0.15119112
0002c0 6e da 6c 3e ee c3 19 3d d3 2f 6e be 4d 63 97 3b
       0.231302 0.03754037 -0.23260431 0.004619992
0002d0 bd fb 1f 3e dc 2c 6a bc 89 2e a9 3d 48 a1 6d bd
       0.15623374 -0.014292922 0.08260829 -0.058015138
0002e0 a7 c7 3e be d3 a0 c5 bd 99 d2 51 bd d6 17 aa be
       -0.18630849 -0.096498154 -0.051226232 -0.3322131
0002f0 d8 d7 46 3e b0 e2 1b 3e 26 58 00 3e f6 f5 ea 3d
       0.19418275 0.15223193 0.12533626 0.114726946
000300 1a fc 87 bd 34 a6 0b 3e 4d 7b 3a bd 16 82 ee 3c
       -0.066398814 0.1363762 -0.045527745 0.029114764
000310 e9 25 61 bd 7a be 1a bd 5b 20 8e be e7 1f de bd
       -0.054967795 -0.03777931 -0.2775906 -0.10845929
000320 ff c9 04 3e 0a 2b 88 3e b6 cb 96 bd 2f 90 85 bd
       0.1296768 0.26595336 -0.073630735 -0.065216415
000330 42 48 75 bd 46 e2 91 bd cd 60 cd 3c 05 16 10 3d
       -0.059883364 -0.07123236 0.025070572 0.03517725
000340 4c 66 2a bd f8 b0 5e 3d ff 32 6a 3d f6 ce 33 bd
       -0.041601464 0.05436799 0.05717754 -0.043898545
000350 74 f9 43 bc fa 87 36 be a7 da 6b 3e 88 5a c1 3d
       -0.01196133 -0.17825308 0.23032628 0.094410956
000360 5b 41 8b 3c 5c 2f aa 3d 48 ac d7 bb 08 fa fa 3d
       0.016998937 0.08309814 -0.006581817 0.12254721
000370 4d 91 af 3d 9d ae 55 3d d9 5c 85 bd bc 21 a6 3d
       0.08572636 0.052168477 -0.0651185 0.08111903
000380 3c 53 8f bc 4e 90 03 3d 7b 70 bd be 45 c1 ac bd
       -0.017495744 0.03212004 -0.36999878 -0.08435301
000390 6d dc fd bd c9 cd e9 3d ca 7a b5 3d ca 55 d0 3d
       -0.123955585 0.114162035 0.08861311 0.10172613
0003a0 b7 ad 9f be df 25 9e 3d 98 87 95 bd d2 a7 01 be
       -0.3118722 0.07722067 -0.07301253 -0.12661675
0003b0 d1 5f 24 bd 71 f5 c7 bd 29 64 82 3c 88 5e bb bd
       -0.04013044 -0.09763611 0.0159169 -0.0914889
0003c0 93 ad 2b bd b8 b0 42 3d 4a ae a2 bd c9 35 0d bd
       -0.04191358 0.047531813 -0.07943399 -0.03447512
0003d0 c6 75 0b be 88 aa e8 bb 92 37 d3 bb d0 d5 8f bd
       -0.13619146 -0.007100407 -0.0064458335 -0.070232034
0003e0 81 26 53 bd cc 18 71 3d 53 c9 93 bd 20 c5 8e 3d
       -0.051550392 0.05886154 -0.07216134 0.06971192
0003f0 3b d5 97 bc 02 3c b0 be d0 df 38 3d e9 a5 dc bc
       -0.018534293 -0.34420782 0.04513532 -0.02693458

action_layer.4.bias f4 [4]
000000 be 21 b4 bd b4 a8 4a bd a8 7b 8b bc f5 52 2e bc
       -0.08795498 -0.049477294 -0.017026737 -0.010639896

value_layer.0.weight f4 [64, 8]
000000 ad 88 9b 3e 3f 62 af 3e 66 ff b5 3e 5a ef 57 3e
       0.30377713 0.34254643 0.35546416 0.21087399
000010 a8 fc 09 3e 89 b5 a6 be 77 a3 9d 3e 0b 9a cc bd
       0.13475287 -0.32560375 0.30788776 -0.09990319
000020 fd e4 3c be b6 14 05 be 74 5d 70 be d2 c8 a5 3e
       -0.18446727 -0.12996182 -0.2347315 0.32379776
000030 da 3e f5 3d d3 d8 90 bc 7d 56 8d be 22 af ce be
       0.119748786 -0.017681515 -0.27605048 -0.4036799
000040 56 f3 ce 3d dd 91 47 3e a5 1d b3 3e d4 55 02 3e
       0.101050064 0.19489236 0.34983554 0.12728053
000050 33 e9 33 3e 7f 73 91 be 8e 01 3a be a1 05 99 3e
       0.17569427 -0.2840843 -0.18164656 0.29887107
000060 14 07 33 3c 6e fb a9 be 98 c9 cb 3b 7b 0a 4a be
       0.0109269805 -0.33199638 0.0062191 -0.1973056
000070 e7 9b ac bc 4c f8 39 be 09 d9 7f 3e 22 4a 7c bb
       -0.021070434 -0.18161124 0.24985136 -0.0038496335
000080 4a 91 ec 3c ca 52 91 bd 2a c2 f3 3d 1c c2 3c 3d
       0.028877873 -0.07095869 0.11902268 0.046083555
000090 e7 d2 65 be a1 76 16 be c3 2c bd bc 19 93 ae 3d
       -0.22443734 -0.14693691 -0.023092633 0.085241504
0000a0 10 e5 ca bd 26 13 7d be af 6d 17 3d c9 c9 40 3e
       -0.099069715 -0.24714336 0.036969837 0.18826975
0000b0 2d b7 c3 3d 4f c2 31 bc 2c 8f 6c be d0 45 07 3e
       0.095564224 -0.010849549 -0.2310149 0.13210225
0000c0 ef 30 4b 3d 65 7d 82 3e 2c 39 1b be e3 2f 61 3e
       0.049607214 0.25486293 -0.15158528 0.21990924
0000d0 24 7c f2 3d 2d ef 0e bc 02 b2 89 3e 81 2c 08 be
       0.11840084 -0.008724016 0.26893622 -0.13298227
0000e0 eb c9 06 3e e8 8b e1 3c 4c fd 34 be 46 d8 35 be
       0.13162963 0.027532533 -0.1767475 -0.17758283
0000f0 44 44 3f be ac b0 5f 3e e6 a6 96 3e 4c fe ad be
       -0.18678385 0.21844739 0.29424208 -0.33983076
000100 e7 03 0a 3c d9 2f 92 be c7 4a 95 3b 26 53 5a 3d
       0.008423782 -0.2855213 0.0045560333 0.053301953
000110 fb ec d7 3d 15 46 02 3e 66 12 80 3e b6 b2 7d be
       0.10543247 0.12722047 0.25014037 -0.24775204
000120 34 71 25 bd 6b 47 82 3d 22 6c 0e 3e e2 85 00 be
       -0.040391162 0.06361278 0.13908437 -0.12551072
000130 17 8d 4c be d7 50 6c 3e 1e 48 db bc cf 81 53 be
       -0.19975697 0.23077713 -0.026767787 -0.20654987
000140 62 5c 2c 3e 21 64 7d bd f5 1f aa bd ca 2e 31 3e
       0.16832116 -0.06186307 -0.083068766 0.17303005
000150 4b ff 98 3e 48 bd 69 3e ab 08 16 3e 48 ec 3f 3e
       0.29882273 0.22826111 0.14651744 0.18742478
000160 a0 fd 88 3d 64 d1 8e bb 01 20 ab be ac 9a 20 be
       0.06689 -0.0043584574 -0.33422855 -0.15684003
000170 54 51 5d bc 6e 14 c9 bd 3d ff 1c 3e 1c ef b9 3d
       -0.01350816 -0.0981835 0.1533174 0.090788096
000180 a9 b8 83 3d 0d 4d 42 3e c0 d2 ae 3e 3d f0 93 be
       0.064317055 0.18974705 0.34145164 -0.28894225
000190 a5 3e 83 be 13 92 cc 3d 6c 78 0a bd 1a 76 da bc
       -0.2563373 0.09988799 -0.03380625 -0.026667643
0001a0 32 5a b8 3d 9b d2 98 3e 93 98 1b 3c 1f 6a a4 bd
       0.090015784 0.2984818 0.009496826 -0.080280535
0001b0 e8 56 d4 3c 36 cd 15 be c1 6e ab 3d cb 17 54 be
       0.025920346 -0.14629063 0.08370734 -0.20712201
0001c0 95 de 28 3e d4 23 10 be 35 d4 5f 3d 2e 98 0d be
       0.16491158 -0.14076167 0.054645736 -0.13827583
0001d0 41 a4 89 bd f3 04 4d be 30 0e cb 3c a0 33 7c 3e
       -0.06720782 -0.20021419 0.024787039 0.24629068
0001e0 63 dd 2e 3b d0 40 54 3d 0b 21 3f be 96 14 84 3d
       0.002668225 0.051819623 -0.18664949 0.06449239
0001f0 15 82 71 3e 84 ab 9a 3e bc c4 8c bd 1d 7e 02 be
       0.23584779 0.3020898 -0.068734616 -0.12743421
000200 9a 30 a9 be d8 7e 40 3e 26 22 1a 3d 4c d5 34 bd
       -0.33044893 0.18798387 0.037630223 -0.04414873
000210 14 8b a6 be 5c 05 46 bd e7 32 6e be 6c 21 29 3e
       -0.32527983 -0.048344955 -0.23261605 0.16516656
000220 3f 85 c4 bd c3 1f ab bd 65 b1 a4 be 32 b8 81 3e
       -0.09595727 -0.083556674 -0.3216659 0.25335842
000230 50 2b 1e 3e 87 9a 87 3e 57 f7 d6 bd dc 5f ac 3d
       0.1544621 0.26485083 -0.10496395 0.08416721
000240 fd b7 1e 3e 69 3d 9e be fb 4e 82 be 3e 16 76 bd
       0.15499873 -0.30906227 -0.25450882 -0.060079806
000250 6b ec 16 3d a5 c7 8c be 4e ee 48 bc 47 3d a6 3d
       0.03684656 -0.27496067 -0.0122638475 0.081171565
000260 06 3d 8e bd 8e cb 7f be 91 b3 62 3e 15 1d fd 3d
       -0.06945233 -0.24979994 0.22138812 0.123590626
000270 f2 18 3b 3e 01 88 60 3e 7e 85 a1 3c d7 dd e4 bd
       0.18271235 0.21926881 0.019716974 -0.11175125
000280 bb fb 98 bd ed 4e a0 be 46 30 ab be c8 67 8e 3e
       -0.07469889 -0.31310216 -0.33435267 0.27813554
000290 b0 9d 46 3d 19 de 29 be ea 0d b3 be f0 36 66 bd
       0.048490226 -0.1658863 -0.34971553 -0.056204736
0002a0 29 58 43 3e 8e 47 66 bd f3 01 63 bb 30 80 2d be
       0.19076599 -0.056220584 -0.0034638613 -0.16943431
0002b0 62 62 05 3c bb fb 6d 3e 21 81 bc bd 8f 00 84 be
       0.008141132 0.23240559 -0.09204317 -0.25781676
0002c0 2b 2a 62 be 1a 39 ac be e6 5e 2b 3e 6d 56 66 be
       -0.22086398 -0.33637315 0.1673542 -0.22493906
0002d0 68 a5 5d 3e 66 da 12 be 95 62 f9 bd 82 ae 2a be
       0.21645129 -0.14341125 -0.12177006 -0.16668132
0002e0 7f 56 6b be 87 23 82 3e 91 a8 2d be 01 69 b0 bc
       -0.22982214 0.2541773 -0.16958834 -0.021534445
0002f0 fa 9d 3c be c4 b7 a8 bc 79 1d 8e be 9a 5d 80 bd
       -0.18419638 -0.020595439 -0.2775686 -0.06267853
000300 ce 24 65 be 74 52 9b be 8f f1 83 be 1a 20 3e 3e
       -0.22377321 -0.30336344 -0.25770232 0.18566933
000310 e9 59 fc bd ee d2 6e bc d8 22 41 be 02 56 61 be
       -0.123218365 -0.014576657 -0.18860948 -0.22005466
000320 0f 35 d8 3d f3 83 a7 3e c6 1e 3b be 27 3c b7 bd
       0.10556995 0.32717857 -0.18273458 -0.0894702
000330 03 0f 2e 3d 09 9b 25 be c0 30 44 3d b6 19 8d 3e
       0.042494785 -0.16172422 0.047898054 0.27558678
000340 a7 d2 23 3d f7 e2 81 be 10 e4 2f 3e 31 49 8c 3d
       0.039995816 -0.25368473 0.17176843 0.06849898
000350 78 8c 37 bd 4a 3c a7 bc 41 75 14 3e 84 c2 76 bc
       -0.044811696 -0.02041449 0.14497854 -0.015061025
000360 13 fc a8 bd ed c7 a5 be 0c e6 02 be ce 54 f8 3c
       -0.08251204 -0.32379094 -0.12783068 0.030313876
000370 ff 60 07 3e 92 ff 4a be 11 84 53 be a7 75 90 3e
       0.13220595 -0.19824055 -0.20655848 0.28214762
000380 68 72 49 be 32 02 24 3d 2f 6c 88 3e 10 51 67 3e
       -0.19672549 0.040041156 0.26645038 0.22589517
000390 13 ab 65 3e 00 ce d7 3b be c0 88 be 5d fa a7 3d
       0.22428541 0.0065858364 -0.2670955 0.0820205
0003a0 e3 d9 99 3e 11 d8 a5 bc 7a cc f5 bd 0a e7 08 3e
       0.30049047 -0.02024463 -0.120018914 0.13369384
0003b0 f7 ad 95 3e 33 0d 02 3e ca e2 66 3e 76 1c 38 bd
       0.29234287 0.12700348 0.2254745 -0.044949017
0003c0 6a 88 01 be 88 ae 4a 3e bf da 09 3e 53 73 9d be
       -0.12649694 0.19793141 0.13462351 -0.30752048
0003d0 9a 60 a4 bd db e9 90 3d f5 b2 90 3c 4a 36 55 3e
       -0.08026238 0.070758544 0.017663458 0.20821491
0003e0 1f 5b c3 bb 47 70 a3 bd 99 46 a6 be 57 3f 2a 3e
       -0.00596179 -0.079803996 -0.32475737 0.16625725
0003f0 aa 82 a8 bd 50 4f ae be 70 55 56 bd 13 ed 4a be
       -0.08228047 -0.34044886 -0.052327573 -0.19816999

value_layer.0.bias f4 [64]
000000 47 1e 26 3e bc a8 47 3e a8 1d 75 3e 80 97 15 3e
       0.16222487 0.19497961 0.23937094 0.14608574
000010 76 62 ac bd 0e b4 44 be af 75 40 be 03 3d a9 3d
       -0.084172174 -0.1920931 -0.18794893 0.0826359
000020 2e eb fd 3d b4 15 5a 3d e4 b2 53 3e ff 1c 87 be
       0.123983726 0.053243354 0.2067371 -0.2638931
000030 b4 05 4c 3e 76 9d ba bd 58 6d 54 3e a3 01 4f 3a
       0.1992405 -0.091120645 0.20744836 0.0007896667
000040 e6 8b d1 bd f0 cb a5 3e 77 de 99 3c 69 f9 f0 3d
       -0.10231762 0.32382154 0.018782837 0.11766321
000050 ef 3f 8f be 0a ab 9c bc c0 2e e9 3c 62 d2 b0 3c
       -0.27978465 -0.019124527 0.028464675 0.021584693
000060 19 9b 93 be 50 51 06 3e 8d 70 18 be e1 4b b7 bd
       -0.28829268 0.13116956 -0.14886685 -0.0895002
000070 9a 25 85 be 9d d4 a2 be 5b e6 53 3e 40 9a 0e be
       -0.2600525 -0.31802836 0.20693342 -0.13926029
000080 04 69 e0 bd 20 ba db bd 90 97 db bd ca ee 9d 3e
       -0.1095753 -0.1072886 -0.10722268 0.30846244
000090 41 86 82 3e 2b 39 27 3e 52 16 a6 be 0c 52 ad bd
       0.25493053 0.16330402 -0.32438904 -0.08462915
0000a0 24 f8 3a be 37 45 8f bc d7 36 24 3e 73 cd a6 3e
       -0.1825872 -0.017489059 0.16036545 0.3257862
0000b0 ec 19 7f 3c 5a 5c 96 be 7f 7e 96 be dc 77 9a be
       0.015570145 -0.29367334 -0.29393384 -0.3016957
0000c0 ca ee a8 bc d8 e9 a1 3e 66 8b 18 3d 31 e0 03 3e
       -0.020621676 0.3162372 0.037242316 0.12878491
0000d0 cb c4 9c 3e 16 b8 9a 3e aa 3b 7a 3e fc 70 23 3e
       0.3061889 0.3021857 0.24436823 0.15961069
0000e0 6e 8f 89 be b5 97 83 bd 2e 0d 08 be 5e bc a4 3c
       -0.2686724 -0.0642542 -0.13286278 0.020109352
0000f0 8a 73 ef bd 30 1a 40 3e 29 fe 97 be 3b e1 24 be
       -0.11691959 0.1875999 -0.29686096 -0.16101544

value_layer.2.weight f4 [64, 64]
000000 c2 73 06 3e 18 35 0e be bf e7 13 3d 3a e0 1a 3d
       0.13130096 -0.13887441 0.036109682 0.037811495
000010 48 72 71 3d e6 04 3f 3c ae 1b 41 3c 10 bd b2 3c
       0.058946878 0.011658883 0.0117863845 0.021818668
000020 d0 54 8f bc 4e f5 99 3b 32 58 02 bd c3 65 92 bd
       -0.017496496 0.004698432 -0.03182239 -0.07148316
000030 96 da bb 3c 28 d3 d3 3d 3a 5f e8 bd 7e 10 a6 3d
       0.022931378 0.10343009 -0.11346288 0.081086144
000040 f6 4c ab bd 73 c7 ab bd 4e 66 e9 bc eb 91 d3 bd
       -0.083642885 -0.08387651 -0.028491165 -0.10330566
000050 f1 ba d9 bd db 6c 70 bc 1c 69 07 3d 00 33 41 bc
       -0.10631359 -0.014674391 0.033059224 -0.0117919445
000060 4b 46 98 bb c4 e5 e7 3d 2e 00 73 3d 50 87 cd bc
       -0.0046470514 0.11323121 0.059326343 -0.025088936
000070 5b 56 fb 3d 12 08 ca 3d 25 e5 f9 3c 08 f0 b6 bd
       0.122723304 0.098648205 0.030504772 -0.08932501
000080 da 29 a4 3d df 4e 0a bd 0c 74 10 bd 84 6c c6 bc
       0.08015795 -0.033766624 -0.03526692 -0.024221666
000090 8b b3 a8 bc 58 d5 29 3d af 03 c2 bd f7 0f 16 3d
       -0.020593425 0.041463226 -0.09473359 0.03663632
0000a0 75 35 4b 3d b3 07 aa bd a2 a0 63 3d 6a a3 a9 bb
       0.049611527 -0.0830225 0.055573113 -0.005176951
0000b0 5c 0d a9 3d 70 94 fc bc dc 89 6f bd 2f 77 79 bc
       0.08254501 -0.0308325 -0.058481082 -0.0152261695
0000c0 9a 4d b0 3d a6 9e 77 bd 41 cf c3 3c ba cb a9 3c
       0.08608551 -0.060454033 0.023902537 0.020727027
0000d0 47 8f bf bd 03 5a ec bd 7a 70 3d bd 62 b9 05 3d
       -0.093535 -0.11540606 -0.046249844 0.032647498
0000e0 3a 5a 8a 3c 26 67 f7 3d 53 d6 46 3c 08 dc 2d bd
       0.016888727 0.12080221 0.01213606 -0.042446166
0000f0 d3 a3 84 3c 8c c1 b3 3d e6 76 49 3c 15 cd c2 bd
       0.016191399 0.087771505 0.012296414 -0.095117725
000100 e8 5a a9 bc 96 0e 02 3d 95 78 fa 3d 7e 88 86 3c
       -0.02067323 0.03175219 0.122300304 0.016422506
000110 82 a2 c6 3d ad 32 c4 3b d0 6b 29 3d 66 21 8c bd
       0.09698965 0.0059874863 0.041362584 -0.06842308
000120 af 77 62 bd ed 3f 5b 3d 3c f2 e0 3d 29 37 a5 3d
       -0.05528992 0.05352776 0.109837025 0.080671616
000130 40 8d b5 bd cc af 88 bd a4 29 ba bd 66 e3 ed bd
       -0.08864832 -0.066741556 -0.090899736 -0.116156384
000140 f5 c2 23 bd ee 5d 8f bd e8 b2 43 3d 59 70 85 3d
       -0.039980847 -0.070003375 0.04777804 0.06515569
000150 fa c1 bf 3c fa af 85 bd c5 be af 3d 81 c1 91 3d
       0.023407925 -0.065277055 0.08581308 0.07116986
000160 d9 01 ad bd 19 ca 15 bd 9d f8 5b bd 5d 6d ff bd
       -0.08447618 -0.03656969 -0.053703893 -0.12472031
000170 09 a0 bd bc f7 08 fa bd 43 09 60 bc 10 53 a7 3d
       -0.0231476 -0.12208741 -0.013674083 0.0817014
000180 14 0f 21 bd 02 38 05 bd 39 68 35 bd 5a ce a4 bd
       -0.03932102 -0.032524116 -0.044288848 -0.08047171
000190 b7 f4 2a 3b ab 63 5a bd 98 9d 40 bd 05 48 b2 3d
       0.0026085803 -0.053317707 -0.047025293 0.08705143
0001a0 ee 12 ce 3d 24 21 e8 bd 1d b7 5f bd 7c 41 03 bd
       0.10062204 -0.11334446 -0.05461799 -0.032044873
0001b0 d2 04 c8 bc ba a7 25 3c 1b 13 c8 3d 98 f4 6c bd
       -0.024416361 0.01011079 0.09769269 -0.05785045
0001c0 41 58 a1 3d 41 ef 2f bd 58 6e 96 bd a1 23 47 3c
       0.07878161 -0.04295278 -0.07345265 0.012154491
0001d0 62 13 9c 3d a3 5e 57 3d d6 11 c5 bc 33 10 1e bc
       0.076208845 0.052580487 -0.024056356 -0.009647417
0001e0 3a be 87 3d a0 3e f5 bb bd 12 bc bc a4 3d e1 bc
       0.0662808 -0.007484272 -0.022958154 -0.027495213
0001f0 9c cb 98 bd 40 6c 63 bd 95 98 1a bd a8 e6 b5 3d
       -0.074607104 -0.055523157 -0.03774317 0.08881885
000200 1a ab 4d bd 3f 92 0c bc 15 10 bb 39 e4 3d c8 bd
       -0.050212003 -0.00857979 0.00035679401 -0.0977743
000210 a1 8f 64 bd 83 b1 b7 3d 3c 86 65 3c 4e 06 e8 3d
       -0.055801038 0.089694045 0.014009055 0.113293275
000220 27 a7 ba bd 1a eb 9b 3d 5f 1b 96 3d 30 61 c6 3c
       -0.09113913 0.076132014 0.07329439 0.024216264
000230 36 b9 c1 bc 99 af ae 3d e8 9b 4f bd 15 02 2e 3d
       -0.023647886 0.08529586 -0.050685793 0.042482454
000240 c8 3f ab 3d 3b b7 27 3d 53 49 92 bd f0 1d da bc
       0.08361775 0.040946227 -0.07142892 -0.026625603
000250 c0 26 b7 bc 75 1f 41 b9 a0 00 b6 bc 1f a1 31 bd
       -0.022357345 -0.00018417633 -0.022217095 -0.043366548
000260 8b 34 59 bd e0 3c c2 bd 2e 0f ff bd cb 77 62 3c
       -0.053028625 -0.09484267 -0.12454067 0.013822506
000270 d9 2b 2b bd b0 d6 81 bd 14 8d e0 3b 0a 58 4e 3c
       -0.041789863 -0.063397765 0.0068527553 0.012594232
000280 8c 86 81 bd d8 e1 a3 bd de 69 93 3c 2c b9 2a bd
       -0.06324491 -0.08002061 0.017994817 -0.0416805
000290 f6 b3 91 bd 34 69 52 3d 97 c0 ea bd 36 9a 9a bc
       -0.07114403 0.05136986 -0.11462515 -0.018872362
0002a0 d1 6a 8e bb 2f 3b b6 3b 18 c3 84 3c 17 45 9f 3d
       -0.0043462296 0.0055612545 0.01620631 0.0777685
0002b0 1d f7 6e 3d 4b bb 87 bd 31 b8 91 bd 13 c6 fe 3b
       0.058341134 -0.0662752 -0.0711521 0.007775077
0002c0 08 e6 c1 3d 89 ed 26 bd c5 27 bf 3d 10 4c 51 bd
       0.09467703 -0.040753875 0.09333757 -0.05109793
0002d0 9a 55 b7 3d d9 2a 4b 3d f7 38 c9 3d c7 cd 13 bd
       0.08951874 0.04960141 0.09825318 -0.036084916
0002e0 35 d4 f9 bd fa ed 83 3d 6b 8c c0 bd c2 6e 11 3d
       -0.121986784 0.06441875 -0.094017826 0.035506018
0002f0 22 38 9f bd 9a 2b ce bd ef 99 82 3b 5b 4c 76 bc
       -0.07774378 -0.1006691 0.0039856355 -0.015032853
000300 1b f2 0b bd 95 f9 9b bd df 14 16 bd a9 10 21 3d
       -0.034166437 -0.07615963 -0.036640998 0.03932253
000310 fb e6 2c bd 12 44 83 bd 00 19 07 bd dc fe 0f bd
       -0.042212468 -0.06409468 -0.032982826 -0.035155162
000320 37 7a af bd 16 4a 17 3c 91 a6 fd 3d e9 ea d7 bc
       -0.085682325 0.009233972 0.12385286 -0.026357131
000330 c0 5a d1 3d ca 8d 80 3d dd 02 8f 3b 3a e3 f2 bd
       0.10222387 0.06277044 0.004364355 -0.11859746
000340 8a 5d c3 bc 1e 8f 65 bd 5e 82 53 3d fa 64 9d 3d
       -0.023848314 -0.05604469 0.051638 0.076852754
000350 e6 72 e5 bd 34 f3 35 bd 34 0c 47 3d 96 5d f8 3c
       -0.11203556 -0.04442139 0.048595622 0.030318063
000360 8b 24 a7 3d 22 e7 51 3d d7 dd 9f 3c 28 81 bb 3c
       0.08161267 0.051245816 0.019514961 0.022888735
000370 49 7e ca bd 41 45 40 3c 0a 38 10 3d ab 8f 8c bc
       -0.09887368 0.011735261 0.035209693 -0.01715835
000380 10 b4 ac 3d 9c 89 4e 3d 1a 1a ba 3c e3 9a a0 bd
       0.08432782 0.050424203 0.022717524 -0.07842042
000390 19 73 2b bc f8 f0 2b bd cf e0 84 bd 17 79 9c 3d
       -0.010464453 -0.041977853 -0.06488191 0.076402836
0003a0 fb f5 81 3d e1 22 10 be 09 6e bb bd b6 2e e5 3d
       0.06345745 -0.14075805 -0.09151847 0.1119055
0003b0 04 e3 80 bd d9 b8 14 bd 9b 20 5f 3d 9b 2b 91 3d
       -0.062933 -0.036309097 0.054474454 0.07088395
0003c0 03 ba 49 bb 36 d4 4d 3d 9b 36 72 bd a8 c1 72 3d
       -0.0030781038 0.05025121 -0.059134107 0.059266716
0003d0 73 3d 15 bc c0 cd 51 bd be 43 55 3d cc 8e bc 3d
       -0.009108889 -0.05122161 0.052066557 0.09206924
0003e0 a0 b4 18 3d a6 0e 73 bd 9a 66 4a 3c 93 67 c5 bd
       0.037281632 -0.05934014 0.012353564 -0.09638896
0003f0 14 e1 9d 3d f5 86 a9 3d 95 c7 4d 3c 3d e7 62 3d
       0.07708946 0.08277694 0.012559791 0.055396307

value_layer.2.bias f4 [64]
000000 37 07 88 3d 17 08 55 3d ec bb 65 3d dc 98 60 3d
       0.06642001 0.05200967 0.05608742 0.054833278
000010 f9 73 9e bb fd 03 69 bc 3a 08 7a bd ab a6 b1 bd
       -0.0048356024 -0.014222142 -0.061043 -0.086743675
000020 54 ab f0 3c 61 36 73 bc 90 6b ea 3d 35 cc b4 bd
       0.02937857 -0.014844508 0.11446297 -0.08828012
000030 c1 58 a4 3d 0f 8e 8b bd 6d d7 a4 3d 87 64 1d 3c
       0.08024741 -0.06814205 0.08048902 0.009606487
000040 33 4c bd bd d8 d3 d1 3d 8e b3 be 3d 14 f0 c0 3a
       -0.092430495 0.10245484 0.09311591 0.0014719986
000050 2b 46 3d bd 20 88 ba bd 79 42 9f 3d 12 24 9a 3a
       -0.046209496 -0.09107995 0.077763505 0.0011760017
000060 6b 53 80 bd d2 a3 e3 3c c6 9b b0 3d b8 d9 e2 3d
       -0.06265911 0.027788077 0.086234614 0.11076683
000070 c5 4f c3 3d fc 80 4b bd 3a ec c8 3c 37 76 6d bd
       0.09536699 -0.049683556 0.024526704 -0.057974067
000080 94 52 01 3d df 6e 8c 3d dc ce 10 3d 15 1e b4 bd
       0.031572893 0.068570845 0.035353526 -0.087948
000090 a6 8e eb bd 95 c1 86 3d ad b8 fe bc af c6 e0 3c
       -0.115018174 0.065798916 -0.03109392 0.02743849
0000a0 dd c9 56 3d 77 78 c3 bd f5 e6 6b bd ab fd c7 3d
       0.052438606 -0.09544461 -0.057593305 0.0976518
0000b0 f2 8e 98 3d 1d 86 39 bd 03 13 a7 bd bb 43 a2 3d
       0.0744914 -0.045293916 -0.08157923 0.07923075
0000c0 45 14 20 3c 5a 72 a7 3d bf 56 aa bd e1 a6 48 3c
       0.009770458 0.08176108 -0.08317327 0.012246818
0000d0 8b 58 e4 3a d7 39 ea 3d b7 b5 18 bd 98 19 22 39
       0.0017421407 0.11436813 -0.03728267 0.00015459058
0000e0 25 ef 06 3d 72 08 a9 bd a5 31 72 3d 05 7c f2 bc
       0.03294291 -0.08253564 0.059129376 -0.029600153
0000f0 e9 e8 8b 3d d5 5d 0c bb cf ed a1 bd a0 17 f0 bd
       0.068315335 -0.0021418233 -0.079066865 -0.11723256

value_layer.4.weight f4 [1, 64]
000000 c2 18 6e 3d b7 a5 b4 bd 74 00 19 bd e5 d6 57 bd
       0.05812908 -0.0882067 -0.037353948 -0.052695174
000010 6b f5 65 bd c1 d9 85 3d 41 44 70 bd 72 fd 82 bd
       -0.056142252 0.06535674 -0.058658842 -0.06395997
000020 8f 6a ce 3c 3b 7b 70 bc 9f 6c 84 3d 78 c2 6a 3c
       0.025197295 -0.014677818 0.0646603 0.0143285915
000030 bc 26 2f bc 49 06 57 bc 66 5e 67 bd 47 d8 a5 3d
       -0.010690387 -0.013124057 -0.05648651 0.08097892
000040 cf ef ea bc 88 f4 94 3d c9 9f 97 3d 8f 0d 32 bd
       -0.028678803 0.07273203 0.074035235 -0.04346996
000050 ce c2 c2 3b 5a c0 3c 3d d1 51 af bd f0 08 ad 3d
       0.0059436327 0.04608188 -0.08560527 0.0844897
000060 d9 fe ba bd 73 af a0 bd d4 a2 4d 3d b8 f7 c9 bd
       -0.091306396 -0.07845964 0.050204113 -0.09861702
000070 6c 8a b9 3c 0a 21 65 3d c0 6b d7 bd 60 14 d5 3b
       0.022649013 0.05593971 -0.105185986 0.006502673
000080 f0 50 40 3d 0e 43 f9 bb 28 45 7c bb 1c 7d 2e 3c
       0.046952188 -0.0076068705 -0.0038493369 0.010649946
000090 17 06 21 bc 4c 40 9a bd 7d 09 06 3d d6 ee 9f bb
       -0.009828112 -0.07531795 0.032723892 -0.0048807664
0000a0 9d 3d 5d bc 2b 38 c2 bc 31 c3 dc 3a 27 6b c2 3c
       -0.013503459 -0.023708424 0.001684284 0.023732735
0000b0 8a 77 86 bd 0d 2f 56 bd e3 91 cf bd 57 1f 69 3c
       -0.06565769 -0.052290965 -0.101352476 0.014228663
0000c0 91 0d f8 bc c0 73 42 3a d7 d2 23 3c 77 3e 47 3d
       -0.030279906 0.0007417761 0.009998999 0.048643555
0000d0 a6 a3 10 3d 5c 6b e1 bd b9 d7 35 bd 75 b4 93 bd
       0.035312317 -0.11006805 -0.044395182 -0.07212154
0000e0 b3 6c fa bd dd 54 32 bd bf 77 66 bd b4 66 bc bd
       -0.12227764 -0.043537963 -0.056266543 -0.091992766
0000f0 9d f3 c6 3d 98 82 5d 3d 20 83 c7 3d 58 26 b1 bc
       0.09714434 0.054079622 0.09741807 -0.021624729
