9_gym-DDPG/DDPG_HalfCheetah-v4_2000-eps0.1-t32-l0.0001-s1.pth (torch, 195690 bytes, 13 tensors)

layers.0.weight f4 [128, 23]
0.02566147 -0.0134046385 -0.18828925 -0.13588384 -0.24900922 0.1790495 0.023576517 0.15394554
-0.14186011 -0.09122876 0.0028087425 -0.007811242 0.01870948 -0.030605027 -0.03402619 -0.018854463
-0.011638138 -0.047525678 0.24751085 0.042306367 -0.17054617 -0.22518024 -0.13329864 -0.29425108
-0.076116994 0.12690873 0.051300026 0.037107848 -0.13664158 0.21596104 0.14607158 0.21291707
0.054499894 -0.27142322 -0.2141481 -0.11675705 0.3285452 0.03866233 -0.0009958956 -0.15246199
0.20576504 0.045511056 0.045923315 -0.16413927 -0.16729034 0.10671372 -0.09204585 0.2857476
-0.14078067 0.25332332 -0.31283745 -0.34278563 0.41001332 -0.07587083 0.71712023 0.08618189
0.10836793 -0.16224149 0.047683798 0.01717579 -0.09025412 0.059837572 0.04664529 0.24317248
-0.0478849 0.029988965 -0.020615263 -0.16095702 -0.26524097 -0.04278999 0.5009601 -0.13077602
0.047284037 -0.107893325 0.558107 -0.32550412 -0.023818227 0.052786436 -0.13385393 0.085043244
-0.067740016 -0.044364106 -0.020554833 0.0120443255 0.02544567 -0.016862137 -0.42778212 0.0076041166
-0.062062815 0.10021708 0.1173459 -0.16143209 0.21881653 0.017350283 -0.19268693 0.15944178
0.06645897 0.026655806 0.18586025 0.035420153 0.45629242 0.040061593 0.115304455 0.1523492
-0.15604264 -0.16165936 0.21709335 0.057825115 0.030356446 0.003394657 0.08434857 0.2024711
0.23406929 0.016038394 0.072610654 0.054612674 0.34925658 0.16117243 -0.5072156 -0.47450343
-0.16041903 0.28546083 0.14591597 0.043587185 0.21417326 -0.09736579 -0.10904975 -0.028794527
0.021675153 0.07829339 -0.058142837 -0.0012835072 0.22984025 0.07939194 0.119037464 0.366544
0.26372507 0.056143507 0.025587488 -0.091182224 0.17018864 0.25641784 -0.07215673 0.06440919
0.27551377 0.001455848 0.25493163 -0.03557464 0.21564578 0.066996 0.05261097 0.1423318
0.000273477 -0.001400164 -0.07229266 -0.23827124 -0.2613279 0.04156503 0.3059636 -0.11398332
-0.2153198 0.31570774 0.18292412 0.751139 -0.110294804 -0.06343573 -0.27348414 -0.251321
-0.25752112 -0.02381857 -0.063933745 0.23608938 0.03398036 0.03565574 0.07646167 0.10338486
0.07703417 0.023131378 -0.31850418 0.16107778 -0.041367672 0.043170862 -0.15306404 -0.23579274
-0.22355045 0.1699985 -0.68123186 -0.39713383 0.032200884 -0.49612156 -4.1647014e-05 -0.22639808
-0.13971339 -0.124759935 0.1498875 -0.0008324217 0.06672815 0.005068764 0.104980126 -0.07828201
0.003991538 -0.27754375 -0.047991615 -0.18803477 0.100727744 0.1301402 -0.007973546 -0.05166125
-0.07243332 -0.031173585 -0.13954738 -0.18087342 -0.22073649 0.38869846 0.15350674 0.32291353
0.049048048 -0.15176478 -0.0067967894 0.12587307 -0.08297751 0.21354938 -0.12858371 -0.10900073
0.15910819 -0.34867638 -0.11862842 0.4535685 0.22655588 0.28804502 0.022309482 -0.431615
0.43776524 0.1498494 -0.06890938 -0.058613993 -0.1219101 0.13717961 0.39695394 -0.16888678
-0.2068282 -0.040469475 0.024485948 -0.013277131 -0.053249437 -0.0076390756 -0.06042832 -0.17794159
-0.057974614 0.025252117 0.11897064 -0.107539006 -0.07262579 0.32164776 0.05333312 -0.09651635
00000000: 0138 d23c 219f 5bbc e6ce 40be 2225 0bbe
00000010: 46fc 7ebe c158 373e 8a23 c13c e6a3 1d3e
00000020: c743 11be 25d6 babd e112 383b 72f5 ffbb
00000030: a044 993c 65b7 fabc 0c5f 0bbd ad74 9abc
00000040: e4ad 3ebc 49aa 42bd 7c73 7d3e 7149 2d3d
00000050: a8a3 2ebe a695 66be 707f 08be 14a8 96be
00000060: 3ae3 9bbd 5df4 013e fa1f 523d 66fe 173d
00000070: c5eb 0bbe e424 5d3e ca93 153e ef06 5a3e
00000080: 483b 5f3d fcf7 8abe a449 5bbe 521e efbd
00000090: 1437 a83e 645c 1e3d b688 82ba ff1e 1cbe
000000a0: 12b4 523e cd69 3a3d 161a 3c3d 2014 28be
000000b0: 294e 2bbe b98c da3d 8982 bcbd 824d 923e
000000c0: cf28 10be 98b3 813e 3b2c a0be 9981 afbe
000000d0: 44ed d13e 2a62 9bbd 3195 373f 2180 b03d
000000e0: 01f0 dd3d a222 26be 1650 433d 3eb4 8c3c
000000f0: 27d7 b8bd 3e18 753d 220f 3f3d 3502 793e
00000100: f522 44bd 6bab f53c 57e1 a8bc ebd1 24be
00000110: aacd 87be 8e44 2fbd ec3e 003f 26ea 05be
00000120: e8ac 413d 2df7 dcbd 1ae0 0e3f 7aa8 a6be
00000130: 711e c3bc 9736 583d 0111 09be 272b ae3d
00000140: 47bb 8abd 23b7 35bd 9c62 a8bc 9055 453c
00000150: 7073 d03c 7722 8abc 4206 dbbe f42b f93b
00000160: 9435 7ebd 9d3e cd3d 0c53 f03d 744e 25be
00000170: 7111 603e 2e22 8e3c b94f 45be b544 233e
00000180: a41b 883d 475d da3c 2652 3e3e b914 113d
00000190: 299f e93e a017 243d be24 ec3d 6e01 1c3e
000001a0: a4c9 1fbe 088a 25be b84d 5e3e 07da 6c3d
000001b0: 15ae f83c e578 5e3b f1be ac3d 9654 4f3e
000001c0: dcaf 6f3e f362 833c e5b4 943d 8ab1 5f3d
000001d0: c2d1 b23e 630a 253e e2d8 01bf 1df2 f2be
000001e0: e344 24be ec27 923e ff6a 153e 7a88 323d
000001f0: 3c50 5b3e b767 c7bd 7a55 dfbd 80e2 ebbc
00000200: 1790 b13c 4958 a03d 2f27 6ebd 5b3b a8ba
00000210: 3e5b 6b3e 3e98 a23d eac9 f33d a8ab bb3e
00000220: f906 873e bcf6 653d da9c d13c bfbd babd
00000230: ee45 2e3e 3349 833e e8c6 93bd f7e8 833d
00000240: 2410 8d3e 27d2 be3a 6686 823e b7b6 11bd
00000250: 3fd2 5c3e 3335 893d 9a7e 573d 6dbf 113e
00000260: 7661 8f39 b585 b7ba 2d0e 94bd 60fd 73be
00000270: c5cc 85be 1840 2a3d 43a7 9c3e 1670 e9bd
00000280: cb7c 5cbe 72a4 a13e 7650 3b3e a54a 403f
00000290: 3ee2 e1bd 98ea 81bd 1d06 8cbe 25ad 80be
000002a0: cfd9 83be 291f c3bc b2ef 82bd 6ac1 713e
000002b0: fd2e 0b3d c10b 123d f097 9c3d 71bb d33d
000002c0: 17c4 9d3d 047e bd3c fb12 a3be 93f1 243e
000002d0: 2671 29bd eed3 303d d2bc 1cbe a773 71be
000002e0: 69ea 64be 1614 2e3e 3665 2ebf 2055 cbbe
000002f0: 13e5 033d a503 febe 24ae 2eb8 e6d4 67be
00000300: 0711 0fbe 2382 ffbd 1c7c 193e e036 5aba
00000310: c5a8 883d e017 a63b d2ff d63d 5252 a0bd
00000320: 73cb 823b 371a 8ebe db92 44bd 308c 40be
00000330: 594a ce3d 7943 053e 7aa3 02bc bf9a 53bd
00000340: ec57 94bd bf5f ffbc 82e5 0ebe e236 39be
00000350: bf08 62be 7c03 c73e df30 1d3e ec54 a53e
00000360: 9be6 483d 3a68 1bbe 9ab7 debb dfe4 003e
00000370: 1df0 a9bd b0ac 5a3e 73ab 03be c63b dfbd
00000380: 42ed 223e b685 b2be 75f3 f2bd 213a e83e
00000390: 44fe 673e a37a 933e 60c2 b63c a4fc dcbe
000003a0: c422 e03e 1f72 193e 5c20 8dbd 3a15 70bd
000003b0: 01ac f9bd d078 0c3e 8c3d cb3e a8f0 2cbe
000003c0: c6ca 53be 52c3 25bd c196 c83c 5388 59bc
000003d0: 151c 5abd 3651 fabb b083 77bd 5236 36be
000003e0: ca76 6dbd 87dd ce3c e1a6 f33d 693d dcbd
000003f0: d5bc 94bd 04af a43e d473 5a3d 5daa c5bd

layers.0.bias f4 [128]
-0.1663193 -0.071842305 -0.27432105 -0.15942201 -0.1909936 0.014111371 -0.06251156 -0.50157773
0.18940496 -0.0076356265 -0.20982821 -0.36777675 -0.30517042 -0.26188403 -0.059893094 0.13258718
0.03199053 -0.21209146 -0.26244187 -0.5820804 0.37786567 -0.04001524 -0.27538884 -0.28240633
0.0010816797 0.047019932 -0.010169704 -0.116804846 0.29386836 0.044238135 0.07635082 -0.12117987
0.16768871 -0.34242833 -0.1715264 0.19899495 -0.042978268 -0.2814203 0.19317867 -0.36807373
-0.18308435 -0.034586895 -0.15726876 -0.060032383 -0.009652404 -0.18911073 -0.07155453 -0.37703878
0.21563847 0.3859953 -0.16663848 -0.17609969 0.2085883 0.30091396 0.036000296 -0.3779931
-0.021683494 -0.16477042 0.13619539 0.36531532 -0.017595397 0.16387324 -0.31524926 -0.1694416
-0.24896224 0.23589052 -0.11578371 -0.24884157 -0.26217267 -0.17796266 0.059866223 -0.07555315
0.12161851 -0.3748118 -0.08284777 -0.1875381 -0.09767962 -0.07010571 0.00280604 -0.02666981
-0.14420621 -0.06594194 -0.01645101 -0.21592881 -0.2497853 -0.18229882 -0.19374998 0.31028277
0.22475733 -0.16649504 -0.0064917053 0.0035970986 -0.037258614 -0.39258897 0.088054046 -0.16210344
-0.44536224 0.36203423 -0.13090347 0.08264652 0.031443622 -0.0952302 -0.2792996 0.25794592
0.2733532 0.013462397 -0.09139064 0.21161729 -0.09403497 -0.29641876 0.39665017 0.5209327
0.2664042 0.20930786 0.25637823 -0.26801717 0.078765765 0.2883932 -0.10758935 0.1637494
0.0013751104 -0.19177954 0.26920858 0.1393576 -0.07194906 -0.16404982 0.13805825 -0.16447732
00000000: 9b4f 2abe 0f22 93bd cf73 8cbe 863f 23be
00000010: d493 43be 6133 673c 1006 80bd 6667 00bf
00000020: 60f3 413e 4734 fabb 35dd 56be 3c4d bcbe
00000030: 4c3f 9cbe aa15 86be 7652 75bd efc4 073e
00000040: 8108 033d 812e 59be c85e 86be 3903 15bf
00000050: 9c77 c13e 05e7 23bd c4ff 8cbe 9097 90be
00000060: 26c7 8d3a f997 403d d59e 26bc 6137 efbd
00000070: ea75 963e 0c33 353d d25d 9c3d 272d f8bd
00000080: 97b6 2b3e c452 afbe 9ea4 2fbe 55c5 4b3e
00000090: fb09 30bd 5216 90be a1d0 453e 2974 bcbe
000000a0: 777a 3bbe fdaa 0dbd 100b 21be 84e4 75bd
000000b0: 1e25 1ebc 3ea6 41be 2e8b 92bd 3a0b c1be
000000c0: 55d0 5c3e 2da1 c53e 47a3 2abe 7a53 34be
000000d0: 2c98 553e 6511 9a3e 0c75 133d 5088 c1be
000000e0: 95a1 b1bc 94b9 28be ce76 0b3e 9c0a bb3e
000000f0: 3924 90bc 63ce 273e 5a68 a1be 1982 2dbe
00000100: f5ef 7ebe 498d 713e 0220 edbd 53d0 7ebe
00000110: 7f3b 86be d83b 36be 4936 753d 9cbb 9abd
00000120: 2013 f93d 55e7 bfbe 17ac a9bd fd09 40be
00000130: 410c c8bd 9593 8fbd 8ae5 373b a57a dabc
00000140: cbaa 13be 910c 87bd 45c4 86bc 711c 5dbe
00000150: b8c7 7fbe 8bac 3abe 6566 46be 62dd 9e3e
00000160: c926 663e ad7d 2abe 5fb8 d4bb 4dbd 6b3b
00000170: 7d9c 18bd 6c01 c9be ae55 b43d 72fe 25be
00000180: 8506 e4be 8d5c b93e 8f0b 06be 9442 a93d
00000190: 07cb 003d 0d08 c3bd 5b00 8fbe 7d11 843e
000001a0: f3f4 8b3e 6391 5c3c 042b bbbd 34b2 583e
000001b0: 6895 c0bd 33c4 97be bb15 cb3e d85b 053f
000001c0: 2266 883e cd54 563e 0244 833e 8c39 89be
000001d0: f24f a13d 46a8 933e ce57 dcbd ecad 273e
000001e0: 0c3d b43a db61 44be b5d5 893e c2b3 0e3e
000001f0: 075a 93bd adfc 27be 245f 0d3e be6c 28be

layers.1.weight f4 [128, 128]
0.06496314 -0.10896825 -0.033059087 0.06422662 0.009122642 0.049425423 0.07976972 -0.017955408
-0.05906305 0.044677235 -0.03354411 -0.023749083 0.08167614 -0.05949702 0.12689109 0.0833226
0.018448986 -0.01947972 -0.08202214 0.046567637 -0.08844909 0.018257296 0.076294884 0.039567024
0.138703 -0.122180015 -0.063025534 0.029967 -0.074485876 -0.07229912 -0.03418681 0.07728046
-0.083857775 0.027699802 0.048715096 -0.102060825 0.078606695 0.06258864 -0.067110404 -0.014175573
0.08482288 0.025265351 0.069849476 0.03053843 0.012595498 -0.037273023 0.058727566 0.0561455
-0.07055321 -0.026364127 -0.0817093 -0.04003171 -0.023423726 -0.108969964 -0.0648422 -0.015064085
-0.037330467 0.14517142 0.03570959 -0.100641966 -0.048214726 0.03016242 0.08565984 0.04799367
0.16304795 -0.09803485 0.14409691 0.034858566 -0.020604186 0.032290515 -0.027641634 0.10159105
-0.034744266 0.10883653 0.016813729 -0.10091135 0.0108614955 -0.021677898 0.025323031 0.029700555
0.020044789 0.038675673 0.0012839724 0.17904489 0.098419055 0.077390276 0.07733395 -0.020594912
-0.11219735 -0.009228168 0.0436866 0.018673485 0.00598769 -0.07622019 0.19918557 0.025831852
-0.105541274 -0.05344868 -0.028672395 -0.072015814 -0.041741602 0.02130048 -0.05136667 0.019248784
-0.0745999 0.04410457 0.10707072 0.08900636 -0.11310609 0.021142015 -0.03212304 -0.09317016
-0.07161765 0.01887904 0.00010356745 0.03438685 -0.12544718 0.04117818 -0.012094702 0.060078174
0.020514738 -0.025947418 -0.13567303 0.05866999 -0.0034884843 0.108753234 0.09678849 0.022885174
-0.031539347 0.05844411 0.12132991 -0.03137233 -0.056303464 -0.029823262 0.09651443 0.06958824
-0.1089051 0.064358 -0.031146057 0.032664422 -0.036104064 -0.03974787 0.02275866 0.034870148
-0.060911264 0.03391179 0.096839234 -0.032838523 -0.036125652 0.07177187 -0.103769675 -0.03690948
0.07401475 0.032275554 -0.06710485 -0.027405772 -0.019806022 -0.093826324 -0.040228974 0.067727484
0.047622744 0.011231851 0.049487248 -0.09792088 0.011611343 0.06911178 -0.005145252 -0.10208051
-0.03920444 0.04208967 -0.01140985 0.033516802 -0.16239782 0.08210586 -0.07327999 0.029230176
-0.08741882 -0.019153282 0.021027252 0.0019964757 -0.007486979 -0.07187825 -0.08639049 0.04090916
-0.019020742 0.042871114 -0.047833618 0.069355614 0.01451656 -0.055209037 0.016062427 -0.010027706
0.025727492 -0.117579155 -0.04292524 -0.0844136 0.05564273 -0.031836003 -0.015969941 -0.101753205
-0.019052451 -0.117550634 0.015527325 0.06448276 0.052438468 -0.059847794 -0.019859403 0.028895775
0.034035064 0.0749964 0.009780309 -0.07120177 0.027306994 0.07534131 0.008479213 -0.03360703
0.034031253 0.053049542 -0.06512795 0.042030893 -0.04708023 0.015681172 -0.0902039 -0.012781371
0.015334969 -0.039582524 -0.08295803 0.07396154 -0.021561485 0.06571477 -0.09886991 0.09507287
-0.0035474957 -0.08496659 0.0071254014 0.019706164 0.03344413 0.024081774 -0.050133005 -0.00547157
0.107031934 -0.026581576 0.025127772 0.01984658 -0.0398166 0.041999828 -0.077976376 -0.007035096
-0.061507493 0.005534036 -0.082766846 -0.050377112 -0.018356439 -0.0555848 0.002673737 0.03785197
00000000: 650b 853d bf2a dfbd f768 07bd 3f89 833d
00000010: 2277 153c 5072 4a3d 4f5e a33d 3817 93bc
00000020: 19ec 71bd 7aff 363d 8c65 09bd 708d c2bc
00000030: d245 a73d 26b3 73bd bdef 013e 0aa5 aa3d
00000040: 5422 973c ef93 9fbc 39fb a7bd b5bd 3e3d
00000050: cc24 b5bd 5390 953c 7e40 9c3d 0811 223d
00000060: 2908 0e3e 8439 fabd 8813 81bd 5b7d f53c
00000070: 0d8c 98bd 9011 94bd 7807 0cbd 3845 9e3d
00000080: a0bd abbd b2ea e23c 7b89 473d 4405 d1bd
00000090: 8cfc a03d 792e 803d 2e71 89bd aa40 68bc
000000a0: 9eb7 ad3d 48f9 ce3c 3e0d 8f3d bb2b fa3c
000000b0: 595d 4e3c 99ab 18bd 518c 703d d3f8 653d
000000c0: 347e 90bd 95f9 d7bc 3557 a7bd 4af8 23bd
000000d0: 1de3 bfbc a52b dfbd fdcb 84bd 5acf 76bc
000000e0: d5e7 18bd d1a7 143e 3844 123d 601d cebd
000000f0: ce7c 45bd 2e17 f73c 6d6e af3d 0395 443d
00000100: 0bf6 263e 7fc6 c8bd 248e 133e dbc7 0e3d
00000110: 1cca a8bc 0f43 043d b570 e2bc f80e d03d
00000120: 0150 0ebd b0e5 de3d f2bc 893c 9caa cebd
00000130: 6af4 313c d995 b1bc 3f72 cf3c 944e f33c
00000140: f834 a43c 626a 1e3d f74a a83a 8b57 373e
00000150: ee8f c93d cb7e 9e3d 4361 9e3d a9b6 a8bc
00000160: b9c7 e5bd be31 17bc b8f0 323d 23f9 983c
00000170: 6234 c43b 5519 9cbd 4df7 4b3e 529d d33c
00000180: 0626 d8bd 01ed 5abd 5fe2 eabc 077d 93bd
00000190: 3ef9 2abd 587e ae3c db65 52bd a0af 9d3c
000001a0: d5c7 98bd fea6 343d e547 db3d f748 b63d
000001b0: 2aa4 e7bd 0532 ad3c 7393 03bd ffcf bebd
000001c0: 46ac 92bd 37a8 9a3c 5a32 d938 3ad9 0c3d
000001d0: 3a75 00be 74aa 283d db28 46bc 8814 763d
000001e0: 860e a83c ae8f d4bc dfed 0abe f24f 703d
000001f0: 0e9f 64bb 04ba de3d 0b39 c63d b079 bb3c
00000200: 672f 01bd 1763 6f3d d17b f83d 4680 00bd
00000210: 769e 66bd ea4f f4bc 5ca9 c53d 4784 8e3d
00000220: a309 dfbd 21ce 833d 0426 ffbc 21cb 053d
00000230: dbe1 13bd aace 22bd 5f70 ba3c 00d4 0e3d
00000240: 177e 79bd 17e7 0a3d a653 c63d b081 06bd
00000250: 7ef8 13bd 21fd 923d 3285 d4bd 652e 17bd
00000260: 0c95 973d 5f33 043d 456e 89bd 1282 e0bc
00000270: 3d40 a2bc 0428 c0bd 23c7 24bd b5b4 8a3d
00000280: 1110 433d cc05 383c 24b3 4a3d be8a c8bd
00000290: 813d 3e3c 7a8a 8d3d 8199 a8bb 960f d1bd
000002a0: d694 20bd 3866 2c3d 61f0 3abc ea48 093d
000002b0: 9d4b 26be 1e27 a83d d213 96bd 1f74 ef3c
000002c0: a308 b3bd 58e7 9cbc 5841 ac3c 4ed7 023b
000002d0: 5555 f5bb e734 93bd 7fed b0bd 5d90 273d
000002e0: 63d1 9bbc 9f99 2f3d 2fed 43bd 510a 8e3d
000002f0: ded6 6d3c df22 62bd 5a95 833c 3f4b 24bc
00000300: 76c2 d23c 57cd f0bd 60d2 2fbd 0ae1 acbd
00000310: a2e9 633d 7866 02bd 65d3 82bc fc63 d0bd
00000320: e313 9cbc 63be f0bd 5266 7e3c 8a0f 843d
00000330: b8c9 563d f622 75bd 30b0 a2bc d5b6 ec3c
00000340: 5a68 0b3d b697 993d 973d 203c 3cd2 91bd
00000350: ebb2 df3c 8b4c 9a3d 66ec 0a3c 86a7 09bd
00000360: 5b64 0b3d 7a4a 593d cd61 85bd 9628 2c3d
00000370: 33d7 40bd cd75 803c d3bc b8bd f568 51bc
00000380: 863f 7b3c 4921 22bd e6e5 a9bd 2679 973d
00000390: b6a1 b0bc 7795 863d 4f7c cabd 91b5 c23d
000003a0: 1a7d 68bb f702 aebd 337c e93b d26e a13c
000003b0: b6fc 083d 2447 c53c 4458 4dbd db4a b3bb
000003c0: 8f33 db3d 9bc1 d9bc c2d8 cd3c 4c95 a23c
000003d0: bb16 23bd 0308 2c3d 14b2 9fbd aa86 e6bb
000003e0: 48ef 7bbd dc56 b53b aa81 a9bd 3b58 4ebd
000003f0: 3e60 96bc e3ac 63bd dd39 2f3b ab0a 1b3d

layers.1.bias f4 [128]
-0.12356476 -0.07607075 -0.16497204 -0.06519989 0.09357477 -0.021329796 0.15576905 0.07868155
-0.23412505 -0.07360495 -0.049727987 -0.06021851 0.050015654 0.016780559 0.025255814 -0.04185289
-0.18099922 0.028815437 -0.119763866 -0.009473142 0.06690725 -0.13131368 0.049640436 -0.2246996
0.2242062 0.06744808 -0.024338473 -0.101453885 -0.1250721 -0.0030431417 -0.03270693 -0.029759396
0.10526054 0.009457375 0.0922229 0.04348405 0.0926029 -0.17408869 0.14113504 -0.08994541
0.030918224 0.00022302056 0.15254317 0.005809482 -0.113942996 -0.0081466995 -0.06137068 -0.20390233
-0.07869599 0.010538326 -0.18723759 -0.005424334 -0.085774146 -0.12475493 -0.02929374 -0.09531875
0.1447893 -0.04304925 -0.118326865 -0.09975591 -0.096891806 0.06516633 -0.01284603 -0.16032965
-0.060726643 0.14147662 0.02706326 0.095429175 -0.14492583 -0.03171244 -0.016752414 -0.13881244
-0.06370085 0.132436 0.007877824 -0.08956376 -0.13829266 0.0029174124 0.026524656 -0.18545489
0.043448407 0.057824668 0.17049986 0.15198086 -0.07369656 -0.02172337 -0.089965 0.0026227334
-0.010171638 0.19878966 -0.011342981 0.12405961 0.076075636 -0.08269044 -0.11432187 0.052525546
0.056640558 -0.13711882 -0.18730354 -0.10881611 0.02204328 -0.04721897 -0.053101692 -0.063349515
0.009234505 -0.010738399 -0.18107148 -0.072929285 0.042202372 -0.047052335 0.13891329 0.036962662
0.042070296 0.071692 0.039618675 -0.0020167704 0.033841785 -0.059483822 -0.12403179 0.04833964
-0.07312004 0.0814792 0.20016757 0.14880504 -0.06701548 -0.11528736 0.051212706 0.014756123
00000000: 850f fdbd fbca 9bbd 6eee 28be 8587 85bd
00000010: 21a4 bf3d d3bb aebc ec81 1f3e cb23 a13d
00000020: 7abe 6fbe 31be 96bd 93af 4bbd afa7 76bd
00000030: 37dd 4c3d 6277 893c 48e5 ce3c f06d 2bbd
00000040: dc57 39be 5a0e ec3c c246 f5bd 3d35 1bbc
00000050: ab06 893d 1877 06be c553 4b3d a717 66be
00000060: 4f96 653e 3822 8a3d 7a61 c7bc 0ec7 cfbd
00000070: e712 00be 726f 47bb b4f7 05bd fac9 f3bc
00000080: d792 d73d 1bf3 1a3c 5cdf bc3d 551c 323d
00000090: 97a6 bd3d 4e44 32be b485 103e 4d35 b8bd
000000a0: 3748 fd3c a0da 6939 4734 1c3e 785d be3b
000000b0: f25a e9bd bc79 05bc d25f 7bbd c6cb 50be
000000c0: 5d2b a1bd f1a8 2c3c 36bb 3fbe 9dbe b1bb
000000d0: 5baa afbd 837f ffbd 6df9 efbc 7a36 c3bd
000000e0: a543 143e 6954 30bd 5b55 f2bd d44c ccbd
000000f0: 366f c6bd ed75 853d 2878 52bc 752d 24be
00000100: 80bc 78bd 3fdf 103e c5b3 dd3c 5f70 c33d
00000110: 7067 14be e7e4 01bd 5c3c 89bc d924 0ebe
00000120: 9775 82bd 4e9d 073e fd11 013c 346d b7bd
00000130: 979c 0dbe 0f32 3f3b 3c4a d93c e3e7 3dbe
00000140: f5f6 313d 8fd9 6c3d 8497 2e3e dfa0 1b3e
00000150: 39ee 96bd 35f5 b1bc 923f b8bd 2ae2 2b3b
00000160: f1a6 26bc 848f 4b3e e9d7 39bc f712 fe3d
00000170: 8bcd 9b3d 9b59 a9bd 9621 eabd 0725 573d
00000180: eeff 673d e068 0cbe 80cc 3fbe fbda debd
00000190: 1c94 b43c ae68 41bd 2981 59bd 64bd 81bd
000001a0: 524c 173c 1cf0 2fbc cd6a 39be f35b 95bd
000001b0: 65dc 2c3d f3b9 40bd 493f 0e3e 2966 173d
000001c0: e751 2c3d 41d3 923d 3147 223d cb2b 04bb
000001d0: af9d 0a3d 4fa5 73bd 6104 febd c9ff 453d
000001e0: f6bf 95bd 91de a63d baf8 4c3e 5960 183e
000001f0: 693f 89bd c81b ecbd 6ac4 513d aac3 713c

layers.2.weight f4 [64, 128]
0.21810544 -0.14574768 -0.08670657 -0.003097551 -0.12058128 -0.035179485 0.09623413 0.010222593
0.18751684 0.12223826 -0.004407873 -0.06973895 -0.19097693 -0.05085719 0.058281686 -0.0022734047
0.25463226 0.026974631 0.094168335 0.0074868896 -0.025386699 0.2594854 0.11342634 0.14309692
-0.06319509 -0.15922996 -0.026542827 0.095782466 0.19223665 0.02274253 0.0688012 -0.1262238
-0.09558771 0.093918905 -0.096672714 -0.21642444 0.0031296553 -0.010675385 0.01539235 0.0758236
-0.27623874 0.1723849 -0.10074905 0.08962962 0.059246194 0.1419237 0.06426239 0.19555742
-0.07853051 -0.116256356 0.061046217 0.12266086 -0.02375639 -0.027504012 0.09815605 0.046390485
-0.012372375 0.043341067 0.12811339 -0.010101399 0.020964922 -0.012341069 -0.06417471 -0.06659862
0.15366358 -0.1474849 0.12207189 0.13663475 -0.020234328 -0.18973404 -0.021528939 0.04695
0.030295825 -0.013390781 -0.07312495 0.0036839917 0.112501025 0.16728586 0.1650259 0.04885627
0.16693681 0.0020386314 0.035893496 0.027196193 0.006342927 0.034691747 -0.16363062 0.025348533
-0.042532347 0.037470132 0.10099381 0.018357636 -0.03361525 0.14092024 0.015605113 0.035584893
-0.13261795 0.101474345 0.02092518 0.14871861 -0.02488218 0.07279511 0.119261846 0.024621231
0.17442329 0.047494918 -0.0043734685 -0.046498757 -0.027556255 0.06957172 -0.07145933 -0.038560893
0.021701735 -0.26498336 -0.15880841 -0.043028023 0.008616065 0.18925335 0.14726996 0.026541516
-0.05777201 0.11268934 -0.3143975 0.0029916817 0.19503187 -0.020595234 0.022969494 -0.045205716
-0.0595769 -0.09938918 -0.061898917 0.105175346 0.15366125 -0.069245555 0.022865387 0.07130303
-0.07459624 -0.036005884 -0.21342425 -0.28236973 -0.13901573 -0.16531052 -0.17042626 -0.05752766
0.02180916 -0.045436125 -0.17172076 -0.06714919 -0.20457433 -0.02223409 0.055701252 0.0912547
-0.051070787 -0.07008617 0.008917882 0.05211279 -0.027855078 -0.029233009 0.08985058 -0.031163255
0.16585284 0.026382847 -0.028305318 0.08337905 0.012994785 -0.0969337 -0.09129471 -0.06077389
-0.16908029 -0.03246792 0.071483694 0.016693665 0.046332084 0.004630864 -0.061634865 -0.08775245
0.036303904 -0.0670337 -0.22595444 0.1112208 0.08060579 -0.19876306 -0.062267303 -0.08619086
0.058404185 -0.007490709 0.008474015 -0.09019398 0.042429984 0.029379236 0.031108212 -0.19482131
0.11116479 0.060204383 -0.032708824 0.088269375 0.06955971 -0.083299235 0.016261578 0.038719613
-0.0067886794 0.0073356787 0.059778627 0.020132555 -0.09458464 -0.03249793 0.093602434 -0.12493299
-0.16106847 0.15046774 0.15987253 0.035240524 -0.039134603 0.0035392165 -0.017745266 0.28350604
0.048278388 0.06288661 0.09862083 -0.011193122 -0.2374818 -0.14288267 0.025387246 0.0102140205
-0.016731456 -0.10049828 -0.02151259 0.07006944 0.15072253 0.06192229 0.047656447 0.047968965
0.034166556 -0.10977696 -0.025512468 0.10794758 -0.18524095 -0.048218973 0.07431503 -0.017934628
0.026015213 0.08045541 -0.10038234 0.15725909 0.03626262 0.09270783 0.060004786 -0.04574456
-0.11731554 -0.0046319403 -0.12601458 -0.06074989 -0.027214695 0.060992546 -0.07553775 -0.15050067
00000000: 0857 5f3e e13e 15be 3793 b1bd 4800 4bbb
00000010: 51f3 f6bd 5d18 10bd 6616 c53d aa7c 273c
00000020: 6a04 403e 0e58 fa3d eb6f 90bb 4bd3 8ebd
00000030: 758f 43be a14f 50bd c7b8 6e3d 67fd 14bb
00000040: 295f 823e e7f9 dc3c 54db c03d 9554 f53b
00000050: c4f7 cfbc 45db 843e 124c e83d 0088 123e
00000060: 6d6c 81bd 2e0d 23be 5870 d9bc 9929 c43d
00000070: afd9 443e 8b4e ba3c a5e7 8c3d d040 01be
00000080: 7dc3 c3bd 8e58 c03d 58fc c5bd 5e9e 5dbe
00000090: e71a 4d3b cfe7 2ebc 3230 7c3c 6749 9b3d
000000a0: 2a6f 8dbe ab85 303e 8555 cebd bc8f b73d
000000b0: 23ac 723d 7254 113e 009c 833d 3440 483e
000000c0: 9bd4 a0bd d017 eebd 990b 7a3d 9e35 fb3d
000000d0: c39c c2bc 1850 e1bc 0a06 c93d f303 3e3d
000000e0: 80b5 4abc 6786 313d 2830 033e 5780 25bc
000000f0: a1be ab3c 3232 4abc 086e 83bd db64 88bd
00000100: fc59 1d3e 4806 17be d400 fa3d fbe9 0b3e
00000110: 76c2 a5bc a449 42be 755d b0bc a54e 403d
00000120: f32e f83c 0265 5bbc 89c2 95bd 206f 713b
00000130: f066 e63d fc4c 2b3e 8dfc 283e 831d 483d
00000140: 7cf1 2a3e 8f9a 053b 0f05 133d 8dca de3c
00000150: 54d8 cf3b ef18 0e3d c98e 27be baa7 cf3c
00000160: 6636 2ebd 487a 193d d8d5 ce3d c162 963c
00000170: 25b0 09bd 654d 103e 96ac 7f3c 77c1 113d
00000180: 00cd 07be c8d1 cf3d 486b ab3c b149 183e
00000190: b7d5 cbbc 9a15 953d 8e3f f43d 77b2 c93c
000001a0: 059c 323e 088a 423d 504f 8fbb 7b75 3ebd
000001b0: a8bd e1bc 9e7b 8e3d 4559 92bd 07f2 1dbd
000001c0: d6c7 b13c e6ab 87be ac9e 22be 273e 30bd
000001d0: 652a 0d3c a1cb 413e f0cd 163e 986d d93c
000001e0: 58a2 6cbd abc9 e63d b6f8 a0be 1710 443b
000001f0: 6fb6 473e 56b7 a8bc 852a bc3c a129 39bd
00000200: e806 74bd 8e8c cbbd b889 7dbd 2c66 d73d
00000210: 6059 1d3e 9dd0 8dbd 3150 bb3c 5307 923d
00000220: eac5 98bd e87a 13bd e38b 5abe c492 90be
00000230: 245a 0ebe 2947 29be 3984 2ebe 20a2 6bbd
00000240: 20a9 b23c 3b1b 3abd 91d7 2fbe 8485 89bd
00000250: ef7b 51be 4424 b6bc ff26 643d bfe3 ba3d
00000260: 9a2f 51bd 5789 8fbd 4f1c 123c 3974 553d
00000270: 5530 e4bc 107a efbc 9503 b83d 154a ffbc
00000280: 54d5 293e d720 d83c 8ee0 e7bc a3c2 aa3d
00000290: 14e8 543c 2d85 c6bd b9f8 babd 0bee 78bd
000002a0: 6223 2dbe 15fd 04bd 0b66 923d 27c1 883c
000002b0: b6c6 3d3d 81be 973b d774 7cbd 8eb7 b3bd
000002c0: 67b3 143d f748 89bd 9a60 67be bbc7 e33d
000002d0: a614 a53d 8b88 4bbe 000c 7fbd d584 b0bd
000002e0: 3a39 6f3d 9f74 f5bb 98d6 0a3c 9fb7 b8bd
000002f0: 10cb 2d3d b9ac f03c a6d6 fe3c 3d7f 47be
00000300: 5eaa e33d df98 763d b0f9 05bd 93c6 b43d
00000310: 5275 8e3d ca98 aabd 0037 853c 7598 1e3d
00000320: 9273 debb 2260 f03b 6fda 743d 07ed a43c
00000330: 97b5 c1bd 8d1c 05bd a2b2 bf3d dedc ffbd
00000340: 22ef 24be 3714 1a3e a0b5 233e 5e58 103d
00000350: 9b4b 20bd 33f2 673b 855e 91bc b427 913e
00000360: 8fbf 453d b2ca 803d b8f9 c93d 5b63 37bc
00000370: 6e2e 73be d64f 12be eaf8 cf3c b558 273c
00000380: 6810 89bc 0bd2 cdbd 2c3b b0bc 9180 8f3d
00000390: 0257 1a3e 3aa2 7d3d 6833 433d 1b7b 443d
000003a0: 3bf2 0b3d bed2 e0bd 86ff d0bc 9f13 dd3d
000003b0: ceaf 3dbe 4281 45bd 7a32 983d a4eb 92bc
000003c0: db1d d53c cec5 a43d 4295 cdbd 8708 213e
000003d0: 1d88 143d 9add bd3d 94c7 753d a65e 3bbd
000003e0: 2143 f0bd 88c7 97bb f709 01be e0d4 78bd
000003f0: 5af1 debc 52d3 793d 89b3 9abd d91c 1abe

layers.2.bias f4 [64]
-0.07421097 0.02589608 0.062763914 -0.03198692 -0.021519901 0.0017525426 -0.17309941 0.089387305
-0.15778714 0.020654537 0.017483104 -0.036413807 0.013344358 -0.02379656 0.052946884 0.09745064
0.03445024 -0.008345497 0.028102191 -0.02342255 0.10406862 0.05854923 -0.050223526 -0.1293828
0.039062608 0.0068384944 0.016518068 -0.03699986 0.10726962 -0.11509202 0.016496131 -0.19259477
0.036337722 0.039345626 0.07714044 0.05406192 0.18398727 0.058369584 -0.045669172 0.028419971
-0.0021241112 0.08876282 0.06292493 0.021913836 -0.08780831 0.0101128295 -0.03293618 -0.06311935
0.061306044 -0.098375306 -0.0647854 -0.0033388261 -0.0022321348 0.14527985 0.009704552 -0.0028009
0.16566186 -0.19070339 -0.09263474 -0.022992915 -0.124941796 -0.055519853 0.038725946 -0.040902562
00000000: ecfb 97bd 0424 d43c 5e8a 803d b704 03bd
00000010: 814a b0bc 92b5 e53a f940 31be b110 b73d
00000020: f492 21be b433 a93c ba38 8f3c a526 15bd
00000030: 4ba2 5a3c 01f1 c2bc d5de 583d 3394 c73d
00000040: b21b 0d3d 8dbb 08bc 9136 e63c a6e0 bfbc
00000050: ee21 d53d 51d1 6f3d 2fb7 4dbd ed7c 04be
00000060: 1d00 203d 7315 e03b e650 873c 2a8d 17bd
00000070: 2db0 db3d 5db5 ebbd e522 873c 9037 45be
00000080: ddd6 143d e128 213d cffb 9d3d 0870 5d3d
00000090: 2967 3c3e f214 6f3d 990f 3bbd 00d1 e83c
000000a0: ac34 0bbb 48c9 b53d c9de 803d a584 b33c
000000b0: d8d4 b3bd 48b0 253c 16e8 06bd b844 81bd
000000c0: 0c1c 7b3d fe78 c9bd 35ae 84bd 35d0 5abb
000000d0: 0249 12bb 3ec4 143e d7ff 1e3c 4e8f 37bb
000000e0: 43a3 293e c047 43be 48b7 bdbd a35b bcbc
000000f0: 7ce1 ffbd c968 63bd 199f 1e3d 7289 27bd

readout.weight f4 [1, 64]
-0.27541125 -0.20298159 -0.22209786 0.22211078 0.15115215 0.26748344 -0.26038146 -0.27107555
0.26607835 0.27229193 -0.2970327 0.26961347 -0.2347728 -0.17079563 0.2726897 -0.18744445
-0.24954584 0.2560288 0.26965007 -0.145157 -0.12190757 0.27744132 0.1567625 0.23913439
-0.22369413 -0.28694114 -0.3638272 0.2353033 -0.24580477 0.2497838 0.19749627 -0.19177487
-0.3246129 0.19034807 -0.30511796 -0.3012984 0.2480736 -0.29179227 -0.2274587 0.24728754
-0.25987965 -0.20576495 -0.30375692 -0.24314846 0.34134966 0.28255808 0.21620306 0.24996187
-0.20325324 0.243855 0.2618566 -0.13206206 -0.15597355 -0.3581372 -0.16286981 0.29089475
-0.2387269 0.27446818 0.1870439 0.21120983 0.1549963 0.21917322 -0.2648909 0.33428392
00000000: b402 8dbe 68da 4fbe 9f6d 63be 0271 633e
00000010: a1c7 1a3e 97f3 883e b850 85be 6aca 8abe
00000020: 6c3b 883e d969 8b3e ac14 98be c70a 8a3e
00000030: 4868 70be 0de5 2ebe fc9d 8b3e 70f1 3fbe
00000040: f288 7fbe 3516 833e 930f 8a3e 09a4 14be
00000050: adaa f9bd ca0c 8e3e 5986 203e a5df 743e
00000060: 1310 65be f3e9 92be 8f47 babe 59f3 703e
00000070: 3fb4 7bbe 53c7 7f3e 763c 4a3e a260 44be
00000080: a933 a6be 9bea 423e 6c38 9cbe c943 9abe
00000090: 0107 7e3e cc65 95be efea 68be f238 7d3e
000000a0: f20e 85be 0cb4 52be 0786 9bbe e9fb 78be
000000b0: 62c5 ae3e 74ab 903e 5664 5d3e 01f6 7f3e
000000c0: 9e21 50be 20b5 793e 1112 863e 473b 07be
000000d0: 88b7 1fbe c25d b7be 58c7 26be 28f0 943e
000000e0: d374 74be 1887 8c3e 7088 3f3e 6447 583e
000000f0: 5ab7 1e3e f26e 603e c89f 87be 4327 ab3e

layers.0.weight f4 [128, 17]
0.37983015 -0.04577018 0.015372973 -0.15701596 -0.16611537 -0.24725828 -0.58001095 -0.6246198
0.082408704 -0.19700517 -0.022194332 0.0031758938 -0.03334574 -0.06827487 -0.088476226 -0.051116087
0.16606332 -0.11950763 -0.53509355 -0.091149636 0.028116435 0.25178567 0.20508488 0.05634072
-0.09890631 0.4607156 -0.2280099 -0.14155759 -0.093599744 0.1959907 0.03894941 0.22034581
0.05579409 -0.24440862 0.072198026 0.6344868 0.34669554 -0.37995806 0.26542902 0.23761022
-0.3535203 0.37826115 -0.45926198 0.12685497 -0.26356325 -0.17405002 -0.1013508 -0.08438642
0.0011504906 -0.027981715 0.3179892 -0.46298555 -0.12031682 0.054267187 -0.41857976 -0.03622517
-0.011058518 0.33312747 0.08802592 0.6355028 -0.3058866 -0.19769217 -0.004621681 0.15981032
-0.068850376 -0.23394434 -0.19284976 -0.07922888 -0.45481247 -0.042496227 -0.03492202 0.19717066
-0.1762861 0.12189986 -0.3753829 0.024907395 0.12159596 0.029284695 -0.07683593 -0.06534861
-0.05120503 -0.012619802 0.043251544 -0.0018497261 0.0055023865 -0.17831278 0.4325718 0.4981912
-0.09191376 -0.20383847 0.25889486 -0.25898233 0.34150764 -0.18522115 -0.059458677 -0.11922709
-0.0031360628 0.179886 -0.009668563 -0.062597014 -0.27900225 0.0758982 0.025796654 0.045657616
0.23456079 0.07532761 0.0005783234 -0.28638712 0.25930798 0.08311393 -0.34749913 -0.115137085
-0.14181158 0.13480929 0.04559011 -0.34747174 -0.16691491 -0.355786 0.041130558 -0.35206503
0.71269584 0.14354137 -0.17892107 0.05108424 0.4111616 -0.17856488 0.2272123 0.22160813
-0.05134557 0.40420654 0.14224645 0.04410961 -0.017432377 0.15744363 0.0929948 0.13295814
-0.53137124 0.029208912 0.09905191 0.043744452 -0.049690776 -0.636443 0.055645104 -0.15511008
-0.18912347 0.17474155 -0.114843026 -0.13102163 0.010761914 -0.0288072 -0.49482235 -0.033639725
0.016476735 0.01981129 0.0010002699 -0.42127684 0.053108644 -0.49507356 0.55051684 0.20758146
0.5777355 0.1949675 -0.09694328 -0.48401394 0.14352809 0.031000836 0.1129203 -0.06770799
-0.010717073 -0.0750199 0.17473893 0.16249238 -0.17225121 -0.42197847 -0.3342067 0.029833948
-0.618377 0.05613196 0.500213 -0.2524928 -0.039762173 0.212687 -0.13718064 -0.26931608
0.16283745 0.07317691 0.2856632 0.117035836 -0.26669744 -0.76758677 -0.31612906 0.0346706
0.69286597 -0.106487736 0.048679724 0.5099504 0.076747134 -0.475349 -0.18187104 -0.13755214
-0.024649316 0.11433999 0.1474766 0.048859455 -0.29087383 -0.095775604 0.3276869 -0.1556202
0.08371696 -0.007979701 0.21645744 -0.13954717 0.34622237 0.17411722 0.21385433 0.1787228
-0.10962084 -0.20319843 0.0355513 0.06861553 0.085551746 -0.5596597 0.75991595 -0.011807382
0.044831447 -0.19439214 0.42043886 -0.26032802 0.4198064 0.05608699 -0.18175615 -0.14163217
-0.06500111 0.14717904 0.023503862 -0.13650113 0.04416577 0.11419542 0.091170594 -0.12623556
-0.55527896 -0.663913 -0.15659027 0.13016027 -0.9222093 -0.23408413 -0.20480959 0.01629797
-0.24945226 -0.20177738 -0.07694315 0.20744783 0.0812775 -0.04000379 -0.038032323 0.04721175
00000000: 1979 c23e 8379 3bbd ecde 7b3c cbc8 20be
00000010: 261a 2abe 4631 7dbe 997b 14bf 15e7 1fbf
00000020: e5c5 a83d b9bb 49be e3d0 b5bc a822 503b
00000030: 8b95 08bd b2d3 8bbd 0633 b5bd 1a5f 51bd
00000040: 810c 2a3e 6bc0 f4bd e4fb 08bf a9ac babd
00000050: 7054 e63c 0dea 803e c501 523e 87c5 663d
00000060: 648f cabd eae2 eb3e 6d7b 69be 79f4 10be
00000070: 39b1 bfbd c9b1 483e 6b89 1f3d 55a2 613e
00000080: 5888 643d 4146 7abe 8fdc 933d ba6d 223f
00000090: 1482 b13e dd89 c2be 50e6 873e 1850 733e
000000a0: 9d00 b5be 72ab c13e 6324 ebbe 45e6 013e
000000b0: c3f1 86be 2b3a 32be 0291 cfbd cad2 acbd
000000c0: 0fcc 963a e939 e5bc 7bcf a23e 710c edbe
000000d0: aa68 f6bd 4547 5e3d 1650 d6be d860 14bd
000000e0: c92e 35bc af8f aa3e ef46 b43d 50b0 223f
000000f0: 2b9d 9cbe d16f 4abe 7871 97bb 51a5 233e
00000100: 6d01 8dbd 1b8f 6fbe 687a 45be c042 a2bd
00000110: 2edd e8be 8610 2ebd 640a 0fbd 1be7 493e
00000120: 5884 34be a2a6 f93d 3032 c0be 980a cc3c
00000130: 4d07 f93d 75e6 ef3c 285c 9dbd 7ed5 85bd
00000140: 5ebc 51bd 49c3 4ebc 8828 313d 8272 f2ba
00000150: 5d4d b43b a097 36be 0d7a dd3e eb12 ff3e
00000160: 483d bcbd 08bb 50be de8d 843e 5599 84be
00000170: 17da ae3e 9daa 3dbe f18a 73bd 552d f4bd
00000180: 6786 4dbb 0934 383e e468 1ebc dd32 80bd
00000190: 62d9 8ebe 8470 9b3d 8153 d33c 7b03 3b3d
000001a0: b430 703e 5d45 9a3d a09a 173a 55a1 92be
000001b0: 04c4 843e a337 aa3d 68eb b1be fecc ebbd
000001c0: 0e37 11be 720b 0a3e b2bc 3a3d d1e7 b1be
000001d0: beeb 2abe 9529 b6be 8478 283d de41 b4be
000001e0: 3c73 363f 82fc 123e 1637 37be b53d 513d
000001f0: c683 d23e b6d9 36be 57aa 683e 3eed 623e
00000200: bb4f 52bd 29f4 ce3e 0ea9 113e 47ac 343d
00000210: 58ce 8ebc e738 213e 0f74 be3d 2e26 083e
00000220: f207 08bf 8747 ef3c badb ca3d 622d 333d
00000230: 8e88 4bbd eeed 22bf 1fec 633d 2dd5 1ebe
00000240: 95a9 41be 73ef 323e d232 ebbd 892a 06be
00000250: bd52 303c 14fd ebbc 5b59 fdbe cfc9 09bd
00000260: 38fa 863c 494b a23c 7d1b 833a 99b1 d7be
00000270: 7388 593d 487a fdbe acee 0c3f 3c90 543e
00000280: 79e6 133f 8fa5 473e 338a c6bd add0 f7be
00000290: 07f9 123e 77f5 fd3c c242 e73d 7daa 8abd
000002a0: aa96 2fbc 09a4 99bd c3ee 323e 6764 263e
000002b0: 9f62 30be 900d d8be 241d abbe 5366 f43c
000002c0: f44d 1ebf a0ea 653d f60d 003f bc46 81be
000002d0: a9dd 22bd 9fca 593e 1579 0cbe cce3 89be
000002e0: dcbe 263e c7dd 953d 7242 923e 7cb0 ef3d
000002f0: 918c 88be 9180 44bf abdb a1be c202 0e3d
00000300: aa5f 313f 3e16 dabd 6464 473d 1c8c 023f
00000310: 9a2d 9d3d f260 f3be 673c 3abe 78da 0cbe
00000320: 5ded c9bc 162b ea3d 1b04 173e da20 483d
00000330: 6aed 94be 0026 c4bd 94c6 a73e e75a 1fbe
00000340: cc73 ab3d 4bbd 02bc 05a7 5d3e 74e5 0ebe
00000350: 0f44 b13e c94b 323e a1fc 5a3e 1c03 373e
00000360: e480 e0bd 4013 50be 3d9e 113d 4d86 8c3d
00000370: c135 af3d dc45 0fbf da89 423f c073 41bc
00000380: 2ea1 373d bc0e 47be c343 d73e b749 85be
00000390: ddf0 d63e 79bb 653d 491e 3abe 0608 11be
000003a0: 4d1f 85bd 1ab6 163e 2c8b c03c f4c6 0bbe
000003b0: 2be7 343d 4adf e93d a6b7 ba3d e543 01be
000003c0: c326 0ebf 34f6 29bf 3359 20be bc48 053e
000003d0: e915 6cbf c0b3 6fbe 9bb9 51be 5283 853c
000003e0: 6a70 7fbe bb9e 4ebe 5f94 9dbd 346d 543e
000003f0: d174 a63d 04db 23bd c8c7 1bbd 1c61 413d

layers.0.bias f4 [128]
0.28708646 0.4350283 -0.1725076 0.66110826 0.64120966 -0.2916305 0.09697439 0.06435694
-0.35760298 0.1540292 0.20887692 0.42520982 0.6318254 0.48604244 0.11863467 0.10396697
-0.6605439 0.2839082 0.4002979 0.1014057 0.23214142 0.5019493 -0.4190628 0.49568692
0.021596912 0.45773283 0.5521973 0.6009516 -0.013074695 0.7448336 0.38800797 0.18334645
0.042294957 -0.1907237 -0.019906461 -0.29080862 -0.2571074 0.46712065 -0.29880938 -0.119448364
-0.4201322 0.4695793 0.10163908 0.0592359 -0.48735264 0.10958059 -0.09706033 0.48421112
-0.38920158 0.54002774 0.48530808 0.23703504 -0.038919676 -0.11359677 -0.34234476 -0.2042105
0.35163575 -0.18753745 -0.49064088 -0.36401245 0.39086902 0.03519198 -0.41930756 0.44966078
-0.10643342 -0.31770292 0.5669836 -0.3117465 -0.2584761 -0.0196233 0.21720885 0.37314773
-0.29305345 -0.079502754 -0.358832 0.29577103 -0.030810222 -0.1358153 0.42704383 -0.08626286
0.5580826 -0.31455016 0.044316072 -0.84111786 -0.1590858 -0.026849048 0.3425126 0.023497501
-0.4749504 0.3959494 -0.00937068 -0.48583278 0.046029523 0.20532186 0.09222973 -0.24685217
0.06288684 -0.0034382306 -0.21924445 0.27732337 0.332239 -0.115478314 0.35357726 -0.062466823
0.7038686 -0.14369316 0.20291118 -0.2841498 0.31223115 0.40482825 0.2653938 0.57689816
-0.31867588 0.45369267 0.07181387 -0.20104076 0.033799116 0.38139534 0.5486956 0.31852636
-0.046223864 -0.06947833 0.11759211 0.44674215 -0.28413045 -0.24170466 -0.03148877 0.26625916
00000000: fffc 923e 08bc de3e d5a5 30be 643e 293f
00000010: 5126 243f 9850 95be 829a c63d 92cd 833d
00000020: bd17 b7be d5b9 1d3e d5e3 553e 1ab5 d93e
00000030: 4fbf 213f 8eda f83e bcf6 f23d a3ec d43d
00000040: 6819 29bf 6a5c 913e d9f3 cc3e cbad cf3d
00000050: 7bb6 6d3e c07f 003f 668f d6be adca fd3e
00000060: 02ec b03c f55b ea3e cd5c 0d3f f7d7 193f
00000070: 3f37 56bc 6aad 3e3f fba8 c63e 2cbf 3b3e
00000080: 7a3d 2d3d 134d 43be e012 a3bc dee4 94be
00000090: 95a3 83be 702a ef3e 8bfd 98be 58a1 f4bd
000000a0: 911b d7be b36c f03e 2628 d03d 58a1 723d
000000b0: 4986 f9be ca6b e03d 91c7 c6bd 85ea f73e
000000c0: 6e45 c7be 423f 0a3f 4d7a f83e 50b9 723e
000000d0: 3d6a 1fbd 6ca5 e8bd d047 afbe 8f1c 51be
000000e0: 9a09 b43e d109 40be 4835 fbbe d75f babe
000000f0: fc1f c83e 7725 103d 7baf d6be f039 e63e
00000100: c4f9 d9bd f5a9 a2be d625 113f 3d9d 9fbe
00000110: fb56 84be 0bc1 a0bc ff6b 5e3e 380d bf3e
00000120: 1a0b 96be 57d2 a2bd d4b8 b7be 4d6f 973e
00000130: b865 fcbc 2a13 0bbe 7da5 da3e 95aa b0bd
00000140: 80de 0e3f b80c a1be c584 353d 8053 57bf
00000150: 63e7 22be 89f2 dbbc d05d af3e d57d c03c
00000160: b32c f3be e1b9 ca3e 7b87 19bc 13bf f8be
00000170: 7489 3c3d e53f 523e f1e2 bc3d d1c6 7cbe
00000180: d1ca 803d f053 61bb 9e81 60be 54fd 8d3e
00000190: 3b1b aa3e e57f ecbd 1408 b53e 36dd 7fbd
000001a0: bc30 343f 4d24 13be f3c7 4f3e 157c 91be
000001b0: c3dc 9f3e a645 cf3e b2e1 873e 99af 133f
000001c0: 7c29 a3be 684a e83e 2613 933d a1dd 4dbe
000001d0: f170 0a3d 4046 c33e 5177 0c3f e315 a33e
000001e0: 3c55 3dbd a84a 8ebd 22d4 f03d 63bb e43e
000001f0: 8c79 91be 6d81 77be 5efa 00bd 1f53 883e

layers.1.weight f4 [128, 128]
0.07174072 0.011042061 0.12911116 0.01107872 -0.01525244 -0.070867956 0.06460428 0.050734155
0.13307595 0.06228019 -0.012182742 -0.053844944 -0.051777694 -0.014611319 0.00050806423 -0.03546504
0.080161974 0.11981497 0.034891464 0.04777234 -0.10275676 0.14211611 0.026999658 0.022963157
0.077746876 -0.08376497 0.110771835 -0.101375304 0.2789897 0.24277088 0.0064656814 -0.1373594
-0.012891517 -0.05006482 -0.07795324 -0.07144687 -0.009847978 -0.016916553 -0.041930757 0.18393442
-0.04600354 0.04707931 -0.12000932 0.08751935 0.0045761745 0.058640134 0.073232315 -0.05016645
0.11699695 -0.06415486 -0.07254064 0.040773537 0.02723793 0.09870177 -0.09207998 0.18849556
-0.17441793 -0.11980644 -0.04910533 -0.106065445 0.068759374 -0.045154296 0.012957099 0.11663052
-0.0049166796 0.025506388 -0.04974985 0.035361 0.13303965 0.059926424 -0.08713239 0.014169659
0.05277955 0.14833304 0.07503834 -0.026805373 0.046301924 0.094056986 -0.01435374 -0.006030439
0.041185714 0.10765161 0.021797707 -0.06003743 -0.06156208 -0.07291445 0.16707484 0.31765297
-0.051148355 0.07117037 -0.0359819 -0.07380686 0.050262544 0.04543489 0.07722561 0.03520477
-0.031986717 0.02030555 -0.06713136 -0.06052934 0.07651215 -0.02080416 0.05610045 -0.12419308
-0.19197899 0.04363677 0.099681474 -0.08727626 0.06756383 -0.003802258 -0.090660356 0.1127011
0.0091102375 0.056582235 -0.11162663 -0.0064069037 -0.042728376 0.20280309 0.014621165 -0.15333824
0.02715318 0.047337472 0.08611915 0.15030704 -0.01479121 0.085822694 0.009821799 0.05317003
0.18356663 0.13049302 0.029241262 0.024963018 -0.029318174 -0.060904864 -0.060357116 -0.07347424
-0.01955903 0.10908064 0.053597607 0.17654614 0.16731156 -0.012254426 0.09025846 0.1004414
-0.0811669 0.021728083 0.039955806 0.026489457 0.15687105 0.050854053 0.02080139 -0.000548174
0.0063935104 0.18857822 0.08895833 0.15351182 -0.34335047 -0.020468717 0.052156452 0.13851397
-0.05287106 0.065987945 0.22077812 0.057627182 -0.1298411 0.11237973 0.10419344 -0.19259273
0.11200488 0.14159128 -0.040505882 -0.09429357 -0.01768125 -0.13978651 0.18607186 0.10833941
0.001325882 0.1311991 -0.01106623 0.074665725 -0.035460133 -0.07280863 0.10593442 0.085295185
0.13587525 0.09166089 0.0067832083 0.05321769 -0.11772803 0.041775573 0.013325072 -0.03493741
0.051991556 0.044836752 0.17624259 -0.21840854 0.023874419 -0.07048428 0.15612811 0.09818831
0.13820116 -0.1366957 0.07448669 0.03738363 0.014885353 0.13415775 0.060809296 0.07887657
-0.008179597 0.045045197 0.04155139 0.0071435967 0.1644477 0.18527809 -0.121320345 -0.3197595
0.13235837 -0.06498526 0.04444377 0.10517727 -0.02027092 -0.03755435 -0.0057410346 -0.047925778
0.01380161 0.083933994 0.066825695 0.12982994 0.01431552 -0.1461933 0.07238822 0.20253539
0.2575007 0.028702356 0.12839377 -0.11658996 0.06743285 0.045542523 0.0392459 -0.0007958441
0.16613255 -0.04205442 0.11094579 -0.012514061 -0.016596265 -0.025825152 0.10332871 0.17619084
0.12963752 0.17108214 0.035248924 -0.020053076 -0.0675558 -0.089431025 0.11704333 -0.1868703
00000000: ccec 923d c3e9 343c b735 043e 8583 353c
00000010: 5fe5 79bc 3823 91bd 404f 843d 9ece 4f3d
00000020: 1045 083e 8319 7f3d 209a 47bc 848c 5cbd
00000030: d914 54bd 5064 6fbc 9d2f 053a ca43 11bd
00000040: f62b a43d 8d61 f53d 5aea 0e3d eeac 433d
00000050: 2372 d2bd e386 113e 632e dd3c 3b1d bc3c
00000060: c139 9f3d f88c abbd 58dc e23d db9d cfbd
00000070: bdd7 8e3e ee98 783e 11de d33b f1a7 0cbe
00000080: f136 53bc c510 4dbd f3a5 9fbd bd52 92bd
00000090: 6a59 21bc 9594 8abc 96bf 2bbd 4e59 3c3e
000000a0: 356e 3cbd 3cd6 403d 72c7 f5bd 583d b33d
000000b0: bcf3 953b a330 703d d3fa 953d 567b 4dbd
000000c0: 199c ef3d a063 83bd 3090 94bd 2702 273d
000000d0: 1422 df3c 2724 ca3d 6e94 bcbd fb04 413e
000000e0: 9d9a 32be 145d f5bd ac22 49bd d738 d9bd
000000f0: b7d1 8c3d b6f3 38bd 034a 543c fbdb ee3d
00000100: 191c a1bb c6f2 d03c 80c6 4bbd b2d6 103d
00000110: 8c3b 083e 6975 753d 7772 b2bd dc27 683c
00000120: 5f2f 583d 9ee4 173e b4ad 993d f196 dbbc
00000130: 16a7 3d3d f3a0 c03d f32b 6bbc fd9a c5bb
00000140: 5ab2 283d 7378 dc3d 1b91 b23c cfe9 75bd
00000150: 8528 7cbd 2c54 95bd ab15 2b3e 69a3 a23e
00000160: f080 51bd c5c1 913d c261 13bd 0d28 97bd
00000170: 19e0 4d3d ef19 3a3d 7628 9e3d e032 103d
00000180: 8104 03bd d357 a63c 2b7c 89bd 9ded 77bd
00000190: 67b2 9c3d 7c6d aabc 96c9 653d f158 febd
000001a0: 2496 44be 78bc 323d cd25 cc3d e5bd b2bd
000001b0: e85e 8a3d 4e2f 79bb 23ac b9bd d6cf e63d
000001c0: 1b43 153c c6c2 673d 819c e4bd 01f1 d1bb
000001d0: f303 2fbd 9dab 4f3e 9c8d 6f3c b304 1dbe
000001e0: 5970 de3c f0e4 413d 3d5f b03d 17ea 193e
000001f0: d556 72bc cfc3 af3d 9ceb 203c d1c8 593d
00000200: e4f8 3b3e f69f 053e 5f8b ef3c 3e7f cc3c
00000210: ab2c f0bc 6177 79bd 0639 77bd aa79 96bd
00000220: 423a a0bc ac65 df3d 2a89 5b3d 83c8 343e
00000230: b953 2b3e cac6 48bc 6dd9 b83d 39b4 cd3d
00000240: d53a a6bd 18ff b13c b3a8 233d 6b00 d93c
00000250: cea2 203e 574c 503d ad67 aa3c 56b3 0fba
00000260: a780 d13b a61a 413e c92f b63d 3432 1d3e
00000270: a2cb afbe 03ae a7bc 01a2 553d 9bd6 0d3e
00000280: 538f 58bd b024 873d a913 623e 7b0a 6c3d
00000290: 11f5 04be 5827 e63d 5f63 d53d 0737 45be
000002a0: d162 e53d 4efd 103e 7fe9 25bd fd1c c1bd
000002b0: 45d8 90bc 3224 0fbe 9f89 3e3e 0de1 dd3d
000002c0: 38c9 ad3a 0f59 063e 224f 35bc 58ea 983d
000002d0: a53e 11bd b11c 95bd 25f4 d83d 3eaf ae3d
000002e0: e222 0b3e b4b8 bb3d ad45 de3b cbfa 593d
000002f0: 651b f1bd dd1c 2b3d 6751 5a3c 881a 0fbd
00000300: 19f5 543d bea6 373d f078 343e 7da6 5fbe
00000310: 4994 c33c 105a 90bd 0ce0 1f3e f416 c93d
00000320: 9b84 0d3e f5f9 0bbe 7a8c 983d 941f 193d
00000330: b2e1 733c a660 093e 2b13 793d 0a8a a13d
00000340: b703 06bc 5081 383d ca31 2a3d d514 ea3b
00000350: fa64 283e 8ab9 3d3e cd76 f8bd 84b7 a3be
00000360: f488 073e fe16 85bd ac0a 363d 2e67 d73d
00000370: 330f a6bc 97d2 19bd 4a1f bcbb d24d 44bd
00000380: 2620 623c 96e5 ab3d e9db 883d 24f2 043e
00000390: a58b 6a3c b2b3 15be 4640 943d 7065 4f3e
000003a0: 22d7 833e 3421 eb3c a879 033e b8c6 eebd
000003b0: 3c1a 8a3d cc8a 3a3d 4fc0 203d 32a0 50ba
000003c0: a71e 2a3e 4141 2cbd 8c37 e33d c707 4dbc
000003d0: e4f4 87bc 458f d3bc 019e d33d 5f6b 343e
000003e0: b3bf 043e 2830 2f3e 2d61 103d 5946 a4bc
000003f0: b25a 8abd 9d27 b7bd 6ab4 ef3d ee5a 3fbe

layers.1.bias f4 [128]
-0.100063495 0.06048229 0.1041125 0.082099654 0.14749572 0.09481038 -0.09255022 0.037004188
-0.17555557 0.18216781 -0.083730504 0.071235284 -0.32667586 -0.025584849 0.049367856 0.10293862
0.054982614 0.1790462 0.07790153 0.16047445 0.087160334 -0.06752185 0.12004573 -0.083735004
0.03833037 0.24177364 0.021106474 -0.09515663 0.15022664 0.2210019 0.01692505 0.01280624
0.15686993 0.07641371 -0.06160759 -0.23581517 -0.124723114 0.29435527 0.147805 -0.026014684
-0.002217247 -0.20798007 0.12836039 -0.09902101 0.178031 -0.009048724 0.11978746 0.18838423
0.09363615 0.106340215 -0.2131609 0.10184597 0.17034699 -0.009489508 0.21857351 -0.061728664
-0.17013244 -0.06926138 0.10071947 -0.15299387 0.11231753 0.003595869 -0.30655405 -0.0973875
0.23578943 0.1387158 -0.024251549 0.09671248 0.18924916 -0.033318944 0.08138097 0.092197135
0.012901944 0.064701155 -0.10904838 -0.20752375 0.10992732 0.035042837 0.06802275 0.101200946
0.18415499 0.15418756 -0.005206929 0.02551159 0.006636302 0.22497518 0.18466285 -0.4745822
0.033495713 -0.04670745 0.029227803 0.21145016 -0.2167897 0.12711924 0.035249133 0.1977115
-0.063027404 0.058318965 0.33862945 0.031384934 0.047167867 0.14919294 -0.06622004 0.075496435
0.066413656 -0.051706776 0.006864811 -0.108594745 0.079766944 0.23195794 -0.0034427387 0.02355565
0.16760194 -0.057642918 0.22319603 -0.011022654 0.095701545 -0.009240812 0.1027756 -0.08839692
-0.2581864 -0.24255647 -0.24214704 -0.05023174 0.03603699 0.11248324 -0.053578284 0.033276334
00000000: 17ee ccbd 47bc 773d ef38 d53d dd23 a83d
00000010: 1e09 173e f22b c23d f88a bdbd b491 173d
00000020: d7c4 33be 338a 3a3e e67a abbd cee3 913d
00000030: 0f42 a7be 5197 d1bc f335 4a3d 7cd1 d23d
00000040: 7335 613d e357 373e d68a 9f3d 6a53 243e
00000050: 1e81 b23d e548 8abd 89da f53d 427d abbd
00000060: 4e00 1d3d 8293 773e 7ce7 ac3c 7be1 c2bd
00000070: 03d5 193e 524e 623e 67a6 8a3c 43d1 513c
00000080: 83a2 203e cb7e 9c3d 3e58 7cbd 8879 71be
00000090: d56e ffbd bcb5 963e 325a 173e bf1c d5bc
000000a0: 3b4f 11bb baf8 54be e870 033e 87cb cabd
000000b0: c24d 363e 1941 14bc 2153 f53d cce7 403e
000000c0: 4fc4 bf3d e6c8 d93d da46 5abe 9f94 d03d
000000d0: 716f 2e3e e279 1bbc bcd1 5f3e 32d7 7cbd
000000e0: 3337 2ebe e9d8 8dbd 0246 ce3d 6daa 1cbe
000000f0: bc06 e63d aca8 6b3b a7f4 9cbe 1973 c7bd
00000100: c972 713e 840b 0e3e 2fab c6bc 3111 c63d
00000110: 88ca 413e 7279 08bd 11ab a63d dad1 bc3d
00000120: ad62 533c 0a82 843d c254 dfbd 1b81 54be
00000130: 9321 e13d 1489 0f3d 834f 8b3d 7142 cf3d
00000140: 2093 3c3e 58e3 1d3e e39e aabb affd d03c
00000150: 5675 d93b e55f 663e 4218 3d3e 70fc f2be
00000160: cd32 093d 5050 3fbd 256f ef3c 6486 583e
00000170: 1efe 5dbe 8c2b 023e 6561 103d e274 4a3e
00000180: 8314 81bd dedf 6e3d d760 ad3e 7d8d 003d
00000190: 1833 413d 09c6 183e 5f9e 87bd e09d 9a3d
000001a0: e203 883d 7cca 53bd 35f2 e03b ec66 debd
000001b0: da5c a33d 6286 6d3e 929f 61bb c7f7 c03c
000001c0: d89f 2b3e fb1a 6cbd 808d 643e 5d98 34bc
000001d0: 2cff c33d c666 17bc 047c d23d 7209 b5bd
000001e0: 0231 84be b960 78be 65f5 77be ccbf 4dbd
000001f0: 869b 133d 9d5d e63d e774 5bbd c44c 083d
