9_gym-DDPG/DDPG_HalfCheetah-v4_3000-eps0.1-t32-l0.0001-s1.pth (torch, 195690 bytes, 13 tensors)

layers.0.weight f4 [128, 23]
0	0x3add83d0	0.0016900245
1	0xbbbfb739	-0.0058506993
2	0xbe574acb	-0.21024625
3	0xbdfcd9df	-0.12346243
4	0xbe7d6279	-0.24744596
5	0x3e48535e	0.19563052
6	0x3d6f3280	0.05839777
7	0x3e34ed46	0.17668638
8	0xbdd3a826	-0.10334806
9	0xbdb3952e	-0.08768688
10	0x3ce644ee	0.02810904
11	0x3ae25285	0.0017267024
12	0x3a87ba5f	0.0010355226
13	0xbc8844e0	-0.016634405
14	0xbd215a71	-0.039392892
15	0xbc4d3a8b	-0.012526165
16	0xbc0ee727	-0.008722103
17	0xbd637a35	-0.055536468
18	0x3e807fd3	0.25097522
19	0x3d9cd1a4	0.07657173
20	0xbe465b16	-0.19370684
21	0xbe89ba2f	-0.2689986
22	0xbe1b351c	-0.15156978
23	0xbe98f778	-0.29876304
24	0xbe6acd4e	-0.2292988
25	0x3e17003e	0.14746186
26	0x3def9126	0.11697607
27	0x3dbf4de2	0.09341027
28	0xbd94c161	-0.072634466
29	0x3e8bda2b	0.27314886
30	0x3e82d684	0.25554287
31	0x3e1c479f	0.15261696
32	0x3dfbdc56	0.12297885
33	0xbe935cd8	-0.28781772
34	0xbe8ddf2d	-0.27709332
35	0xbdac8b5c	-0.08425018
36	0x3e58e932	0.21182707
37	0x3bfd5dab	0.0077321134
38	0x3c16c074	0.009201158
39	0xbdbc696e	-0.091997966
40	0x3e49331d	0.19648404
41	0x3d602fdf	0.054733153
42	0x3de3e21b	0.111271106
43	0xbe2172f4	-0.15766507
44	0xbe1892ea	-0.14899793
45	0x3df16a0a	0.117878035
46	0xbec92a5b	-0.39290127
47	0x3e77ff8e	0.2421858
48	0xbe3d57e2	-0.18490556
49	0x3eb6b9a6	0.35688514
50	0xbe706c55	-0.23478825
51	0xbe9f291d	-0.31086054
52	0x3f10a968	0.56508493
53	0x3d714830	0.058906734
54	0x3f396d83	0.72432727
55	0x3d22629c	0.039644822
56	0x3dcdd2fa	0.10050006
57	0xbe0c3d2f	-0.13695215
58	0x3d407e28	0.046995312
59	0x3c890668	0.016726688
60	0xbd4a691e	-0.049416654
61	0x3ced5d71	0.02897522
62	0x3c9b6424	0.01896865
63	0x3e7b602d	0.24548407
64	0xbd1d318f	-0.03837734
65	0x3c951d3c	0.018202417
66	0x3c83afb5	0.016074995
67	0xbd45f924	-0.048333302
68	0xbe25f06b	-0.16204993
69	0xbe18f779	-0.14938153
70	0x3f061e79	0.5239025
71	0xbea2eb43	-0.31820115
72	0x3d57dc31	0.052700225
73	0xbe30b41b	-0.17256205
74	0x3f25e572	0.6480323
75	0xbe8e27df	-0.27764794
76	0xbcd46358	-0.025926277
77	0x3c2fe46d	0.010735613
78	0xbe0609b5	-0.1308964
79	0x3d562f8d	0.05229144
80	0xbd68d021	-0.056839112
81	0xbd40fdd0	-0.047117054
82	0xbc9359d2	-0.017987166
83	0x3ce022be	0.027360316
84	0x3ca1efab	0.019767603
85	0x3b827e3b	0.003982333
86	0xbedc6e9a	-0.43053132
87	0xbbd22256	-0.0064127846
88	0xbd5adf1d	-0.053435434
89	0x3df39492	0.11893572
90	0x3ddad456	0.10685031
91	0xbdf3d2dd	-0.11905453
92	0x3e747e58	0.23876321
93	0x3b588afc	0.0033041826
94	0xbe40d892	-0.18832615
95	0x3ed0b49e	0.407628
96	0x3db1acf8	0.08675569
97	0xbd1895bc	-0.037252173
98	0x3e9daf1e	0.30797666
99	0x3e51b253	0.20478182
100	0x3ef5bb63	0.47994527
101	0x3d97bd0c	0.07409105
102	0x3e297b51	0.16550948
103	0x3e0ab48d	0.13545437
104	0xbe508f77	-0.20367227
105	0xbdc0b5fc	-0.09409711
106	0x3e667c67	0.22508393
107	0x3d762999	0.060098264
108	0x3ca180d2	0.019714747
109	0xbe2d37de	-0.16915843
110	0x3e0ceda9	0.13762535
111	0x3e0368ad	0.128329
112	0x3dfb204a	0.12262018
113	0x3d926b84	0.07149413
114	0x3e0828b7	0.13296781
115	0xbe066660	-0.1312499
116	0x3ecb62aa	0.39723712
117	0x3e0870da	0.133243
118	0xbefee80c	-0.49786413
119	0xbed035d0	-0.40666056
120	0xbd91cf67	-0.07119637
121	0x3f1b65af	0.6070203
122	0x3eb09f5e	0.34496588
123	0x3dd4e2f1	0.10394848
124	0x3e24d5a7	0.16097127
125	0xbd830b3e	-0.06398629
126	0xbd3e4d6c	-0.046460554
127	0xbb4ae3ee	-0.003095861
128	0x3c47a59b	0.0121854795
129	0x3d8fb343	0.07016613
130	0x3c27c2db	0.010239328
131	0x3d11193d	0.03542446
132	0x3e4ed85b	0.2019972
133	0x3d3f689c	0.046730623
134	0x3e197e69	0.14989628
135	0x3ebb4b81	0.36581042
136	0x3ecd0348	0.40041566
137	0x3ddce85f	0.10786509
138	0xbdda12d0	-0.106481194
139	0xbe07934b	-0.13239782
140	0x3e83a012	0.2570806
141	0x3eeba1d6	0.4602191
142	0x3cf3b1e3	0.029747909
143	0x3d2caef0	0.04215902
144	0x3ec72efe	0.3890304
145	0x3dfbba18	0.12291354
146	0x3e93f4ab	0.28897604
147	0xbd911e4c	-0.07085857
148	0x3e888b50	0.26668787
149	0x3ce79ca5	0.028272936
150	0x3d6844cb	0.05670623
151	0x3d60c83b	0.054878455
152	0xbc5ebc12	-0.013594644
153	0x3d158fce	0.036514096
154	0xbd176324	-0.036959782
155	0xbe7af2c0	-0.24506664
156	0xbe274104	-0.16333395
157	0x3cdd1e14	0.026991881
158	0x3eb137c5	0.3461286
159	0xbd91440e	-0.070930585
160	0xbe475334	-0.19465333
161	0x3ea88998	0.32917476
162	0x3e2a11ea	0.16608396
163	0x3f5b9f66	0.857901
164	0xbe101bdd	-0.14073129
165	0xbda2cb35	-0.07948915
166	0xbea3b168	-0.31971288
167	0xbea9df7b	-0.33178315
168	0xbe8ad904	-0.27118695
169	0xbd80512c	-0.06265482
170	0x3b1abe1c	0.002361185
171	0x3e4e94a9	0.20173897
172	0x3d2578bd	0.040398348
173	0xbb87c784	-0.004143657
174	0x3d10d84b	0.035362523
175	0x3db245dc	0.08704731
176	0x3d2e4873	0.04254956
177	0xbb9fb738	-0.0048741363
178	0xbeaa34f1	-0.33243516
179	0x3e273cb0	0.16331744
180	0xbdf34be0	-0.118797064
181	0x3cdcc704	0.026950367
182	0xbe0bbd01	-0.13646318
183	0xbe693404	-0.22773749
184	0xbea9c498	-0.33157802
185	0x3e3e9048	0.18609726
186	0xbf4d5be0	-0.80218315
187	0xbedbac12	-0.42904717
188	0x3a80fb90	0.0009840596
189	0xbf069c90	-0.52582645
190	0x3d94ccd9	0.07265634
191	0xbe6edb1c	-0.23325771
192	0xbe500578	-0.20314586
193	0xbe21a6de	-0.15786311
194	0x3e06133d	0.13093276
195	0x3b7eb974	0.0038867863
196	0x3d812f0b	0.06307801
197	0x3cc667ee	0.02421948
198	0x3d9ed1b8	0.077548444
199	0xbb4ca739	-0.0031227602
200	0x3c281c0e	0.010260595
201	0xbe7e9ac3	-0.24863724
202	0xbda73a2a	-0.08165391
203	0xbe0189c0	-0.12650204
204	0x3dc16558	0.09443158
205	0x3e199203	0.14997105
206	0xbc03e763	-0.008050772
207	0xbe11d19f	-0.1424012
208	0xbe076f47	-0.13226043
209	0xbd8d3ce0	-0.068963766
210	0xbdd7d79c	-0.10539171
211	0xbdfaddba	-0.12249322
212	0xbe1aa9b2	-0.15103796
213	0x3f0cd4e5	0.5501235
214	0x3e869308	0.2628405
215	0x3eaba18b	0.33521685
216	0xbcebb624	-0.028773375
217	0xbddd501c	-0.10806295
218	0x3bdfb23b	0.0068266666
219	0x3db76d65	0.08956412
220	0xbd1bde68	-0.0380539
221	0x3e5aa801	0.21353151
222	0xbd88ff6e	-0.06689344
223	0xbc37f671	-0.01122819
224	0x3e80bd91	0.25144628
225	0xbeb3ce1a	-0.3511818
226	0xbd56c6a4	-0.052435532
227	0x3f15acf1	0.5846701
228	0x3e9f5a48	0.31123567
229	0x3e578a7d	0.21048923
230	0x3dd6becf	0.104856126
231	0xbef54dec	-0.47911012
232	0x3f0bdae2	0.54630864
233	0x3e32b1cd	0.17450638
234	0xbd1dcaa1	-0.03852332
235	0xbde94cbe	-0.113915905
236	0xbe34b304	-0.17646414
237	0x3d8d796f	0.06907927
238	0x3ec2e495	0.3806502
239	0xbe1d0181	-0.15332605
240	0xbe1ba047	-0.1519786
241	0xbd294873	-0.04132886
242	0xbc2934d8	-0.01032754
243	0x3baf38e0	0.005347356
244	0xbd198b72	-0.0374865
245	0xbcce83bc	-0.0252093
246	0xbd1824fc	-0.037144646
247	0xbe1393f0	-0.14411902
248	0xbd048a7f	-0.032358643
249	0x3c029233	0.007969427
250	0x3e005044	0.12530619
251	0xbe1acfa2	-0.15118268
252	0xbda5f503	-0.08103373
253	0x3e78d9f6	0.24301895
254	0x3dda7496	0.10666768
255	0xbe2eb5d5	-0.17061551

layers.0.bias f4 [128]
0	0xbe32a041	-0.17443945
1	0xbe02aca6	-0.12761173
2	0xbeaca189	-0.33716992
3	0xbe864f41	-0.2623234
4	0xbe693b28	-0.22776473
5	0x3d321431	0.043476287
6	0x3be39e34	0.0069463495
7	0xbf16c600	-0.58895874
8	0x3e248c5d	0.1606917
9	0xbd0255e2	-0.031820185
10	0xbe4d5ef5	-0.20055754
11	0xbee611e7	-0.44935533
12	0xbeb4c65a	-0.3530758
13	0xbeacadae	-0.33726257
14	0xbdbd4674	-0.092419535
15	0x3e4906bc	0.19631475
16	0x3d54f726	0.05199351
17	0xbe604cc2	-0.21904281
18	0xbe94e67a	-0.2908209
19	0xbf357dc0	-0.70895004
20	0x3f00bbd4	0.502866
21	0xbe0da594	-0.13832694
22	0xbe9710a3	-0.2950488
23	0xbeaa5e5f	-0.33275124
24	0xbc9dd571	-0.019266816
25	0x3d7268d5	0.059182007
26	0xbc78b184	-0.015179042
27	0xbe474030	-0.1945808
28	0x3eb9caf9	0.36287668
29	0x3dcdcb36	0.10048525
30	0x3c6ae8c5	0.014337723
31	0xbdf6cfa4	-0.12051323
32	0x3e2c4f1c	0.16827053
33	0xbeefc3de	-0.46829122
34	0xbe4bacb7	-0.19890104
35	0x3e706a69	0.23478092
36	0xbdb865d9	-0.09003801
37	0xbea1009f	-0.31445786
38	0x3e7091c1	0.234931
39	0xbeb57734	-0.35442507
40	0xbe4ccfca	-0.2000114
41	0xbdf10683	-0.1176882
42	0xbe38223f	-0.17981814
43	0xbd9b2d30	-0.07576978
44	0x3c7488cc	0.014925193
45	0xbe500ae8	-0.2031666
46	0xbd537a24	-0.051630154
47	0xbef8783e	-0.48529238
48	0x3e901ad1	0.2814546
49	0x3eecfc1f	0.46286103
50	0xbe522b50	-0.20524335
51	0xbe5f41a2	-0.2180238
52	0x3e7333ec	0.23750275
53	0x3eb2bf8f	0.34911773
54	0x3d2d2526	0.042271756
55	0xbf01d86e	-0.5072087
56	0xbcb7f5f6	-0.02245615
57	0xbe3ad1c9	-0.18244089
58	0x3e2903d9	0.16505374
59	0x3eb8edfa	0.36119062
60	0x3c2fc084	0.010727052
61	0x3e34e7ff	0.17666624
62	0xbebc90f8	-0.36829352
63	0xbe3d34f9	-0.18477239
64	0xbea31fd9	-0.31860235
65	0x3e9a0c65	0.3008758
66	0xbdfe8b2b	-0.12428888
67	0xbe6dd7c9	-0.23226847
68	0xbea4c910	-0.3218465
69	0xbe2346a2	-0.15944913
70	0x3dae2d18	0.08504695
71	0xbc93e7d3	-0.018054878
72	0x3dab03c7	0.0835033
73	0xbebd89a6	-0.3701908
74	0xbdc1dc51	-0.0946585
75	0xbe85f04f	-0.26159903
76	0xbdca7bfc	-0.098869294
77	0xbc3fa7b4	-0.011697698
78	0x3d2d3abc	0.04229234
79	0xbd86163a	-0.06547208
80	0xbd906387	-0.07050233
81	0xbdd81b09	-0.105520315
82	0x3d89e120	0.06732392
83	0xbe25c80e	-0.16189596
84	0xbe96df90	-0.2946744
85	0xbe3e1693	-0.18563299
86	0xbe1a6f25	-0.15081461
87	0x3edcae8a	0.43101913
88	0x3e6df323	0.2323728
89	0xbe79fabb	-0.24412052
90	0x3c54d52b	0.012990276
91	0xba5e6c0c	-0.0008484728
92	0xbdc6aa00	-0.09700394
93	0xbedde4b4	-0.4333855
94	0x3dc946e6	0.09827976
95	0xbe3e139b	-0.18562166
96	0xbefb0f76	-0.49035233
97	0x3ed3e315	0.41384187
98	0xbe149123	-0.1450849
99	0x3ddded44	0.108362705
100	0x3d9ed555	0.077555336
101	0xbe1b14bf	-0.15144633
102	0xbea62cb0	-0.3245597
103	0x3e962576	0.29325455
104	0x3e799e82	0.24376872
105	0x3d1d5509	0.038411174
106	0xbde39fb0	-0.11114442
107	0x3e5297c4	0.20565706
108	0xbe179868	-0.14804232
109	0xbe94a145	-0.2902929
110	0x3f0024a3	0.50055903
111	0x3f1a135d	0.60185796
112	0x3e65ce46	0.22441968
113	0x3e9b7d1f	0.30368897
114	0x3eb12747	0.3460028
115	0xbe93384f	-0.28753898
116	0x3dadec9d	0.08492396
117	0x3ebc6e82	0.3680306
118	0xbabb22f8	-0.0014277389
119	0x3e861d33	0.26194152
120	0x3d45e24e	0.048311524
121	0xbe8c909b	-0.27454075
122	0x3eae2713	0.34014186
123	0x3e8029d1	0.25031903
124	0xbe03e88c	-0.12881678
125	0xbe844103	-0.2583085
126	0x3e3cd197	0.18439327
127	0xbe6f2201	-0.23352815

layers.1.weight f4 [128, 128]
0	0x3d15483a	0.036445834
1	0xbdaea62c	-0.085277885
2	0xbd1e152c	-0.03859441
3	0x3daddbbf	0.08489179
4	0x3be76c49	0.007062469
5	0x3bbfc515	0.0058523514
6	0x3de9e445	0.11420492
7	0xbb96a6eb	-0.004597535
8	0xbdd5d9f6	-0.104419634
9	0x3d12e994	0.03586729
10	0x3d0020a2	0.03128112
11	0xbcfd79a0	-0.030941784
12	0x3d2fae24	0.042890683
13	0xbd8e57c5	-0.069503345
14	0x3e299e3a	0.16564265
15	0x3de6a9c8	0.11262852
16	0xbcd59a0a	-0.026074428
17	0xbc707b3c	-0.014677819
18	0xbdc9f464	-0.09861067
19	0x3d3c014f	0.045899685
20	0xbd0c6368	-0.03427449
21	0x3acdbc16	0.0015696313
22	0x3e0a9835	0.13534625
23	0x3c8a64b4	0.016893722
24	0x3e5700a3	0.20996337
25	0xbe3eccab	-0.18632762
26	0xbdf9270b	-0.1216565
27	0x3cc68b58	0.024236366
28	0xbdf4beab	-0.119504295
29	0xbd73d179	-0.05952594
30	0xbcab8adc	-0.020940237
31	0x3d3cab5c	0.04606186
32	0xbdbed739	-0.09318394
33	0x3cb05149	0.021523135
34	0xbcd90da5	-0.026495764
35	0xbdbdd9ea	-0.092700794
36	0x3df82ec1	0.121182926
37	0x3cedb597	0.029017253
38	0xbdc56749	-0.09638841
39	0xbc968044	-0.018371709
40	0x3d1627ea	0.03665916
41	0xbc2dcd89	-0.010608085
42	0x3dbbebf7	0.09175866
43	0xbac422ea	-0.0014964018
44	0xbc91b9e7	-0.01778884
45	0xbcdbeaa8	-0.026845291
46	0x3d8b7765	0.06809882
47	0x3d102e47	0.035200384
48	0xbdc00761	-0.093764074
49	0xbd5c1aa3	-0.05373634
50	0xbd9457da	-0.07243319
51	0xbd238d95	-0.039929945
52	0xbc8d2dc7	-0.017233742
53	0xbda92da1	-0.08260656
54	0xbc023b6e	-0.007948739
55	0xbd275514	-0.04085262
56	0xbdee25c5	-0.11628298
57	0x3dd1a491	0.10236467
58	0xbcc3d718	-0.023906276
59	0xbe1b2a2b	-0.15152805
60	0xbab720f3	-0.0013971612
61	0x3d012c28	0.03153625
62	0x3dde704f	0.10861265
63	0x3d2451b4	0.04011698
64	0x3e2f1344	0.17097193
65	0xbe0343b7	-0.128188
66	0x3e3b3c30	0.18284678
67	0x3dbf7458	0.09348363
68	0x3bb6664f	0.0055663954
69	0xbc5eeda8	-0.013606466
70	0xbc982a21	-0.018574776
71	0x3d980e94	0.074246556
72	0xbd181510	-0.03712946
73	0x3dccf046	0.10006766
74	0xbc9ce7a5	-0.019153425
75	0xbdb3fa12	-0.087879315
76	0x3cf23f3d	0.02957117
77	0x3c8d1ca3	0.01722557
78	0xbd54d814	-0.05196388
79	0x3ceccdcc	0.028906725
80	0x3dc558a7	0.0963605
81	0x3d261f23	0.040557038
82	0x3d14a970	0.0362944
83	0x3e3df907	0.18552028
84	0x3d9834ab	0.074319206
85	0x3d1760fd	0.03695773
86	0x3e037dda	0.12840977
87	0xbc55bccd	-0.013045502
88	0xbdfd4a39	-0.123676725
89	0xbcf00952	-0.02930132
90	0x3d3ed05f	0.046585437
91	0x3d85e492	0.06537737
92	0xb9f89ce9	-0.00047419153
93	0xbd8394a9	-0.06424839
94	0x3e369ad0	0.17832494
95	0x3ca946ab	0.02066358
96	0xbdb614d9	-0.08890695
97	0x3b4e6341	0.0031492265
98	0xbd32a6e1	-0.04361618
99	0xbd76a50c	-0.060215995
100	0xbca8b6d4	-0.020594992
101	0xba96a869	-0.0011494282
102	0xbd89bf2d	-0.06725917
103	0x3c9c47ce	0.019077208
104	0xbda11d85	-0.078669585
105	0x3d4625cb	0.048375886
106	0x3d9cbf3a	0.07653661
107	0x3dc3ea3c	0.09566161
108	0xbdaf4a3e	-0.085590824
109	0x3c7a70e1	0.0152857015
110	0xbc6ea2bf	-0.014565169
111	0xbdd366bb	-0.10322329
112	0xbd8e5610	-0.06950009
113	0xbbe0b814	-0.0068578813
114	0x3cd8951b	0.026438287
115	0x3cb54e2e	0.022132006
116	0xbdc2ef69	-0.0951832
117	0x3cf6a52f	0.030108063
118	0xbbff5476	-0.007792051
119	0x3dd388c4	0.1032882
120	0x3c6332b9	0.013867074
121	0xbd7cf69e	-0.06175863
122	0xbe0c9da6	-0.13732013
123	0x3d913523	0.07090213
124	0xbd71655f	-0.058934566
125	0x3d80365c	0.06260368
126	0x3deb628a	0.11493404
127	0x3cb754e1	0.02237934
128	0xbcaa5e9c	-0.020797066
129	0x3d617765	0.055045504
130	0x3e035094	0.12823707
131	0xbd107287	-0.03526547
132	0xbda4ce7b	-0.080471955
133	0xbd06e782	-0.032935627
134	0x3dc87616	0.09788148
135	0x3d590fa3	0.052993428
136	0xbdd4f30c	-0.1039792
137	0x3d92009c	0.071290225
138	0xbd10a7ba	-0.035316207
139	0x3d4636a0	0.04839194
140	0xbcd8eccb	-0.0264801
141	0xbd4f75af	-0.05064934
142	0x3d046e67	0.03233185
143	0x3d0e0f46	0.034682535
144	0xbd2d9171	-0.04237503
145	0x3d5ac75a	0.053412773
146	0x3d74fa7b	0.05980919
147	0xbd29305f	-0.041305896
148	0xbd198a7c	-0.037485585
149	0x3d9c19d3	0.07622113
150	0xbde2a983	-0.11067488
151	0xbc9d1f8a	-0.019180078
152	0x3d969a8c	0.07353696
153	0x3d1c2dbc	0.038129553
154	0xbd936c61	-0.07198406
155	0xbce7d271	-0.028298588
156	0xbc3a3a8e	-0.0113665
157	0xbdc24259	-0.09485311
158	0xbd3e6f37	-0.04649278
159	0x3da415fd	0.080120064
160	0x3d381881	0.044945244
161	0x3bb33699	0.005469155
162	0x3d81953a	0.06327291
163	0xbdd8e419	-0.10590381
164	0x3c4a49b5	0.012346675
165	0x3d858cff	0.065210335
166	0x3c123422	0.008923562
167	0xbe011968	-0.12607348
168	0xbd228dc4	-0.03968598
169	0x3d421771	0.047385637
170	0xbc3b9f36	-0.011451533
171	0x3d0581d3	0.032594513
172	0xbe27e7c1	-0.16397001
173	0x3dbe3067	0.09286576
174	0xbda10445	-0.078621425
175	0x3cb67dc7	0.022276772
176	0xbdb4843f	-0.088142864
177	0xbcc0738a	-0.023492593
178	0x3d1e001e	0.03857433
179	0xbc798f07	-0.015231854
180	0xbc8932d4	-0.01674787
181	0xbd6209f6	-0.05518528
182	0xbdcbd1bc	-0.09952113
183	0x3d88b8b7	0.066758566
184	0xbc696ea7	-0.014247573
185	0x3d157fb4	0.03649874
186	0xbd3016ff	-0.04299068
187	0x3d641e63	0.05569304
188	0x3d234a73	0.039865922
189	0xbd5d56e4	-0.054037943
190	0x3c205d42	0.009787859
191	0xbc9d609e	-0.01921111
192	0x3c97b60f	0.01851943
193	0xbdfb91a8	-0.12283641
194	0xbd3e81b6	-0.04651042
195	0xbd9bb4af	-0.07602822
196	0x3d6a9803	0.057273876
197	0xbced64c2	-0.02897871
198	0xbc433747	-0.011915035
199	0xbde9e4ff	-0.11420631
200	0xbbea9f74	-0.0071601216
201	0xbdef0a29	-0.1167186
202	0x3c8bbbf7	0.017057402
203	0x3da485ab	0.08033308
204	0x3d4a3ac4	0.04937245
205	0xbd96d2c0	-0.07364416
206	0xbd016888	-0.03159383
207	0x3cf4e36a	0.029893596
208	0x3cde9239	0.027169334
209	0x3daf5d85	0.08562759
210	0x3c923c8d	0.017851138
211	0xbdb3cb7d	-0.08779047
212	0x3c24a7a8	0.010049738
213	0x3d8f2c25	0.06990842
214	0xbbdf78b7	-0.0068198103
215	0xbd2ba989	-0.04190973
216	0x3d3d6610	0.046239913
217	0x3d2df911	0.042473856
218	0xbd914084	-0.070923835
219	0x3d54d225	0.051958222
220	0xbd026f13	-0.03184421
221	0x3cd95fcc	0.026534937
222	0xbdb2dfdf	-0.08734106
223	0xbba04595	-0.0048911073
224	0xbc54f67e	-0.012998221
225	0xbd5305d2	-0.051519223
226	0xbda65a25	-0.081226625
227	0x3d9a4dff	0.07534408
228	0xbc8835d2	-0.016627226
229	0x3daef2bc	0.08542392
230	0xbdd5a15d	-0.10431168
231	0x3dc615b6	0.0967211
232	0xbc6d0a35	-0.014467766
233	0xbd8232bb	-0.06357332
234	0x3c6ef17c	0.014583942
235	0x3d08d1d8	0.033403248
236	0x3d2c96c3	0.042135965
237	0x3cd92377	0.026506169
238	0xbd4e1357	-0.050311413
239	0x3c3e53a3	0.01161662
240	0x3df0f0ae	0.11764656
241	0xbd5e9f69	-0.054351244
242	0x3cdae803	0.02672196
243	0x3c8ddad7	0.017316265
244	0xbd36c2f8	-0.04461953
245	0x3d42092c	0.04737203
246	0xbd997562	-0.07493092
247	0xbc4fb4f2	-0.012677418
248	0xbd66ee4c	-0.0563796
249	0x3c98081a	0.01855855
250	0xbd927076	-0.071503565
251	0xbd5dd528	-0.05415836
252	0xbcd20fe3	-0.025642341
253	0xbd664197	-0.056214895
254	0xbb007706	-0.0019602193
255	0x3d007532	0.031361766

layers.1.bias f4 [128]
0	0xbde26e5c	-0.11056206
1	0xbda15021	-0.078766115
2	0xbe1f7492	-0.15571812
3	0xbdacba79	-0.08434004
4	0x3df5271e	0.11970352
5	0xbc93fda5	-0.018065283
6	0x3e2f8073	0.17138843
7	0x3d9655d9	0.07340593
8	0xbe87776f	-0.26458308
9	0xbdc11950	-0.09428656
10	0xbde50dad	-0.11184249
11	0xbd75a0c5	-0.059967775
12	0x3d8734fc	0.06601903
13	0xbb94eb27	-0.004544634
14	0xbb833e46	-0.0040052263
15	0xbd59f8be	-0.053215735
16	0xbe348ab4	-0.17631036
17	0x3ce2e0e1	0.027695121
18	0xbe04d32a	-0.12971178
19	0x3c8faf5a	0.017539669
20	0x3d82b27c	0.063816994
21	0xbe096cd1	-0.13420416
22	0x3d6f2ff5	0.058395345
23	0xbe8662d2	-0.2624727
24	0x3e64cd26	0.22343883
25	0x3da2e88a	0.079545096
26	0xbd0d0a8c	-0.034433886
27	0xbdfd1fdb	-0.123595916
28	0xbdf755e2	-0.12076928
29	0xba6d325e	-0.0009048338
30	0xbd62eff1	-0.055404607
31	0xbcbbb21a	-0.022912074
32	0x3dfb7fc7	0.12280231
33	0x3cef4a6b	0.02921029
34	0x3dbb083c	0.0913243
35	0x3d269097	0.040665235
36	0x3da0c2c3	0.07849648
37	0xbe38dc41	-0.1805277
38	0x3e45f365	0.19331129
39	0xbdd59b71	-0.10430039
40	0xbc1463fe	-0.009057043
41	0xbc731360	-0.014836162
42	0x3e29bd64	0.16576153
43	0x3c2ddd97	0.010611913
44	0xbdf1fd37	-0.11815875
45	0xbb73ee49	-0.0037220886
46	0xbda5b666	-0.0809143
47	0xbe7748a4	-0.24148804
48	0xbdc08e02	-0.09402086
49	0x3a54f2c7	0.0008123335
50	0xbe4dc90f	-0.20096229
51	0x3a2bc163	0.0006551949
52	0xbddcb172	-0.107760325
53	0xbdd65ad2	-0.10466541
54	0xbd1721bf	-0.036897417
55	0xbdc5a78e	-0.09651099
56	0x3e3456f7	0.176113
57	0xbd5a9976	-0.053369008
58	0xbe19dfc0	-0.1502676
59	0xbdd5a0ca	-0.10431059
60	0xbdcc5100	-0.09976387
61	0x3d8f4b67	0.06996804
62	0xbd18d9ea	-0.037317194
63	0xbe39d5fd	-0.18148036
64	0xbd46eb3a	-0.048564173
65	0x3de585ee	0.11207186
66	0x3b9d4adc	0.0048001837
67	0x3dce90cc	0.100862116
68	0xbe131aec	-0.14365739
69	0xbd1dc461	-0.03851736
70	0x3ccd5faf	0.02507004
71	0xbe4f1621	-0.20223285
72	0xbd8f4b0b	-0.06996735
73	0x3de77b49	0.11302812
74	0xbd43a3e4	-0.04776372
75	0xbde3fe4a	-0.11132486
76	0xbe1f6e36	-0.15569386
77	0xbbc898aa	-0.0061217146
78	0x3d00c201	0.031435017
79	0xbe46a25b	-0.19397871
80	0x3d5b12bb	0.05348466
81	0x3d4841ec	0.048890993
82	0x3e3d5318	0.18488729
83	0x3e37eaf2	0.17960718
84	0xbd6cea7a	-0.0578408
85	0xbd249e93	-0.04019029
86	0xbd893973	-0.06700411
87	0x3a849799	0.001011598
88	0x3ca571f4	0.020195939
89	0x3e4294a4	0.19002014
90	0x3cc57d08	0.024107471
91	0x3e14f335	0.14545901
92	0x3daf286e	0.08552633
93	0xbddc4488	-0.10755259
94	0xbdde33af	-0.108497016
95	0x3d5a0f3e	0.053237192
96	0x3da7ab01	0.08186913
97	0xbe1c8b9a	-0.15287629
98	0xbe54fac0	-0.20798779
99	0xbe031b53	-0.12803392
100	0x3d2a9b98	0.041652292
101	0xbca7cf7b	-0.020484677
102	0xbd53dad3	-0.05172236
103	0xbd80f864	-0.06297377
104	0x3d9462f3	0.072454356
105	0x3c91b499	0.017786311
106	0xbe2f5da8	-0.17125571
107	0xbde07ac8	-0.10960919
108	0x3d7201e4	0.059083834
109	0xbd3eb976	-0.046563588
110	0x3dfcac7a	0.12337585
111	0x3d79bab4	0.06096907
112	0x3d9f63c1	0.077826984
113	0x3d5d438d	0.0540195
114	0x3d0f7d92	0.035031863
115	0x3c086b06	0.008326298
116	0x3c751ebe	0.014960943
117	0xbd435378	-0.047687024
118	0xbdd52af8	-0.10408586
119	0x3d20cf57	0.039260235
120	0xbd99028c	-0.07471189
121	0x3da715c5	0.08158449
122	0x3e44e04d	0.19226189
123	0x3e2a1c90	0.16612458
124	0xbd0fc755	-0.035102207
125	0xbdf106f9	-0.11768908
126	0x3dab07d3	0.08351102
127	0x3d0c1e85	0.034208793

layers.2.weight f4 [64, 128]
0	0x3e51e3c5	0.20497043
1	0xbe49d8bf	-0.19711588
2	0xb9eb895c	-0.00044925034
3	0x3c5ed885	0.013601427
4	0xbd20a068	-0.039215475
5	0xbcd6da94	-0.026227273
6	0x3e0b8995	0.13626702
7	0x3cbf3b5e	0.023343738
8	0x3e07a37c	0.13245958
9	0x3de5454d	0.11194859
10	0xbdbefc75	-0.09325496
11	0xbdc24317	-0.094854526
12	0xbdd07af2	-0.101797
13	0xbdbc004b	-0.091797434
14	0xbd0251f4	-0.031816438
15	0x3b6ca5f8	0.0036109667
16	0x3e740de2	0.23833421
17	0xb91e3644	-0.0001508827
18	0x3e355023	0.17706351
19	0x3dc5b657	0.09653919
20	0xbdb6202c	-0.08892855
21	0x3e738747	0.23782073
22	0x3e81b02a	0.25329715
23	0x3d184b58	0.03718123
24	0xbd401ad4	-0.046900585
25	0xbe070e18	-0.1318897
26	0xbd1663bf	-0.03671622
27	0x3d36e8e1	0.044655684
28	0x3e465fe2	0.19372514
29	0x3d550a1a	0.052011587
30	0xbd08be4c	-0.033384606
31	0xbdc6d2c5	-0.0970817
32	0x3d5539ea	0.052057184
33	0x3e3d4dbc	0.18486685
34	0xbda886f3	-0.082288645
35	0xbe2950ee	-0.16534778
36	0xbdd6b1e3	-0.10483148
37	0xbcafaf25	-0.02144582
38	0x3dc7033e	0.09717415
39	0x3cdbaad3	0.026814854
40	0xbeb185ee	-0.34672493
41	0x3de2e8c5	0.110795535
42	0xbe1e79da	-0.1547617
43	0x3d392327	0.04519954
44	0xbb88ad64	-0.0041710604
45	0x3e536ba9	0.20646538
46	0x3d23b966	0.03997173
47	0x3e313dd1	0.17308737
48	0xbdeb9f09	-0.11504943
49	0xbc998d7b	-0.018744221
50	0xbd44d8ad	-0.0480582
51	0x3e3eb01e	0.18621871
52	0xbdf4ed7a	-0.119593576
53	0xbe01f61b	-0.12691538
54	0x3d25d0c7	0.04048231
55	0x3cda7cee	0.0266709
56	0x3cf491c7	0.029854668
57	0xbcea4984	-0.028599508
58	0x3bf0c325	0.007347482
59	0x3d4e74e9	0.050404463
60	0x3d86eeb2	0.06588496
61	0xbd4ef2c5	-0.05052449
62	0xbd990079	-0.07470793
63	0xbd997bc8	-0.074943125
64	0x3ddfc262	0.109257475
65	0xbe24c821	-0.16091968
66	0x3ce01103	0.027351862
67	0x3df5863e	0.11988495
68	0xbcc390d1	-0.023872765
69	0xbe8a11d0	-0.26966715
70	0x3cb3392c	0.021877848
71	0xbd1f2126	-0.038849972
72	0x3cca4ade	0.024693903
73	0xbc46046d	-0.012086016
74	0xbe5253cc	-0.20539778
75	0xbd735282	-0.059404857
76	0x3d802f8c	0.06259069
77	0x3e913720	0.2836237
78	0x3e2b6fbe	0.16741845
79	0x3cff1b7d	0.031141037
80	0x3d7219ff	0.059106823
81	0x3c3e6569	0.011620858
82	0xbc92a09d	-0.017898852
83	0x3d6b4538	0.05743906
84	0x3c97c387	0.018525852
85	0xbceaf050	-0.028679043
86	0xbdbccaf8	-0.09218401
87	0xbca9de1e	-0.020735797
88	0x3b51f59e	0.0032037268
89	0x3e05f77e	0.13082692
90	0x3e244fb8	0.16046035
91	0xbd374afb	-0.04474924
92	0xbe015afd	-0.12632366
93	0x3d3db214	0.046312407
94	0x3d60dfb9	0.05490086
95	0x3e36447a	0.17799559
96	0xbe0ed8f3	-0.13949947
97	0xbc194c0c	-0.00935651
98	0xbd671257	-0.056413975
99	0x3dbb21bc	0.09137294
100	0x3d4ee2d2	0.05050928
101	0x3db1e7c7	0.08686786
102	0x3de544d7	0.11194771
103	0x3daf1466	0.085488126
104	0x3e8c9e05	0.2746431
105	0x3e303905	0.17209251
106	0x3d718d66	0.05897274
107	0xbd27eccb	-0.040997308
108	0x3c23b443	0.009991708
109	0x3d57b365	0.05266132
110	0xbd8b8be1	-0.06813789
111	0x3de39143	0.11111691
112	0x3e02f288	0.12787831
113	0xbea0b969	-0.31391457
114	0xbdaab4c9	-0.08335263
115	0xbdb1aeac	-0.08675894
116	0x3ca53a42	0.020169381
117	0x3e6529ed	0.22379275
118	0x3e82a5f8	0.2551725
119	0xbcaed53d	-0.021341914
120	0x3c460bcb	0.012087773
121	0x3d8336f5	0.064069666
122	0xbf159a0f	-0.584382
123	0x3dc10a0a	0.09425743
124	0x3e7885a9	0.24269737
125	0x3d311b64	0.043239012
126	0x3d9f06af	0.07764947
127	0x3c6a184a	0.0142880175
128	0xbd854b28	-0.065084755
129	0xbe066008	-0.1312257
130	0xbdb4461c	-0.08802435
131	0x3db5c7ff	0.08876037
132	0x3e250b29	0.16117539
133	0xbd13d5d8	-0.03609261
134	0x3d6b7b1d	0.057490457
135	0x3da38db4	0.07986012
136	0xbd9b9d94	-0.07598415
137	0xbd496b98	-0.049174875
138	0xbe72108a	-0.23639122
139	0xbe5b1a9d	-0.21396871
140	0xbe1aea4e	-0.15128443
141	0xbe3aceaa	-0.18242899
142	0xbe1479f1	-0.14499642
143	0xbda00348	-0.07813126
144	0x3d87cd4d	0.06630955
145	0xbd6c3693	-0.057669234
146	0xbe45e31f	-0.19324921
147	0xbdd30071	-0.103028186
148	0xbe3b4be6	-0.18290672
149	0x3bf891ef	0.007585756
150	0x3d8bcd04	0.06826213
151	0x3e400726	0.18752727
152	0xbbb8b301	-0.0056365733
153	0xbd6821f4	-0.056673005
154	0x3c9c99eb	0.019116363
155	0x3d46e790	0.04856068
156	0xbcab734f	-0.020929007
157	0xbd034454	-0.032047585
158	0x3ddc9a78	0.1077165
159	0xbd6f1295	-0.05836733
160	0x3de3247e	0.11090945
161	0xbcd679c3	-0.026181107
162	0xbcd1ad23	-0.025595253
163	0x3d17d714	0.03707035
164	0x3cc3fb50	0.023923546
165	0xbdcfd72e	-0.10148464
166	0xbdc57444	-0.096413165
167	0xbdc8163c	-0.09769866
168	0xbe676c92	-0.2260001
169	0xbce8b0f3	-0.028404688
170	0x3d998e6b	0.07497867
171	0x3c4fa999	0.012674713
172	0x3d231fb7	0.039825168
173	0xbcbfe54c	-0.023424767
174	0xbd9ae762	-0.07563664
175	0xbde9e2bb	-0.114201985
176	0x3c4cb0aa	0.012493292
177	0xbe0ed7e9	-0.1394955
178	0xbe63cd93	-0.22246389
179	0x3dd31563	0.103068136
180	0x3e23a7ce	0.15981981
181	0xbe3a874d	-0.18215676
182	0xbd71b1b0	-0.059007347
183	0xbdb168a6	-0.08662538
184	0x3dba0adc	0.090841025
185	0x3ca0fe79	0.019652592
186	0xbc3fe85f	-0.011713116
187	0xbe005d18	-0.12535512
188	0x3cc54300	0.0240798
189	0x3d7573e8	0.05992499
190	0x3d47cfb7	0.048782077
191	0xbe6c0003	-0.2304688
192	0x3ddb1b22	0.106985345
193	0x3d949711	0.07255376
194	0x3bb42fc9	0.0054988605
195	0x3de9a15d	0.11407731
196	0x3d8c1ba7	0.06841212
197	0xbc72ad07	-0.014811761
198	0x3b9cab05	0.0047811293
199	0x3d269b62	0.04067553
200	0xbd5c0745	-0.05371787
201	0x3ce66ef4	0.028129078
202	0xbc52d5a4	-0.012868319
203	0x3d959f42	0.07305767
204	0xbdbcbfd3	-0.09216275
205	0x3cc6123e	0.02417862
206	0x3e01cd06	0.12675866
207	0xbe1980c6	-0.1499053
208	0xbe1f2478	-0.15541255
209	0x3e175593	0.14778738
210	0x3e294788	0.16531193
211	0x3d84613f	0.06463861
212	0xbd0cdaf8	-0.034388512
213	0x3b33e51f	0.00274498
214	0x3c29b7a1	0.010358722
215	0x3e9e2e7a	0.30894834
216	0x3d390d97	0.045178976
217	0x3dd06dfb	0.10177227
218	0x3deaf43e	0.11472367
219	0xbb01836c	-0.0019762171
220	0xbe71e230	-0.2362144
221	0xbe0ac2bf	-0.13550852
222	0x3c75feb2	0.015014337
223	0xbcd97a4b	-0.026547572
224	0x3c45b700	0.012067556
225	0xbdbfbe78	-0.09362501
226	0xbcecdf73	-0.028915143
227	0x3d9e8827	0.07740813
228	0x3e1be8a1	0.1522546
229	0x3d76dd21	0.06026948
230	0x3dc006c5	0.09376291
231	0x3c3106bb	0.010804827
232	0x3d922506	0.07135968
233	0xbe02ddf5	-0.12779982
234	0xbcf94f3e	-0.030433293
235	0x3dac9f7e	0.08428858
236	0xbe5a6983	-0.21329312
237	0xbc2fbbd9	-0.010725939
238	0x3d50fd2d	0.051022697
239	0xbd17421a	-0.036928274
240	0x3c05011c	0.00811794
241	0x3d9e3132	0.07724227
242	0xbdecde11	-0.11565793
243	0x3e2fc8e2	0.17166474
244	0x3d1d443b	0.038395148
245	0x3d826216	0.06366365
246	0x3d2b859c	0.041875467
247	0xbd51ec27	-0.051250603
248	0xbe06c9bd	-0.13162895
249	0x3c997cd6	0.018736284
250	0xbe4d7626	-0.20064601
251	0xbd64bb95	-0.055842955
252	0xbcc79462	-0.024362747
253	0x3cb5e246	0.022202622
254	0xbda0a3ea	-0.07843764
255	0xbe137e68	-0.14403689

layers.2.bias f4 [64]
0	0xbc0e8025	-0.008697544
1	0x3bf321d7	0.0074198055
2	0x3d67a5c2	0.056554563
3	0xbd5db846	-0.054130815
4	0xbc0877ba	-0.008329326
5	0xbbafac98	-0.005361151
6	0xbe0fd065	-0.1404434
7	0x3d8f0180	0.06982708
8	0xbe212036	-0.15734944
9	0x3d5308fb	0.051522236
10	0x3ca825aa	0.020525772
11	0xbcf86095	-0.030319491
12	0x3c2c68e3	0.010523054
13	0xbd18ef62	-0.03733767
14	0x3d869f6b	0.06573375
15	0x3da7d1c3	0.08194306
16	0x3d24c41e	0.040226094
17	0x3b8a554e	0.004221595
18	0xba667423	-0.00087911094
19	0xbcba320f	-0.022728948
20	0x3db90223	0.09033611
21	0x3d516888	0.05112508
22	0xbd4c315a	-0.049851753
23	0xbddb9090	-0.107209325
24	0x3c83eb22	0.016103331
25	0x38a78547	7.9880054e-05
26	0x3c3fed65	0.011714314
27	0xbcae16d0	-0.021251112
28	0x3e027660	0.12740469
29	0xbde5efbe	-0.11227368
30	0x3d04f624	0.0324613
31	0xbe71e100	-0.23620987
32	0x3ced283b	0.028949847
33	0x3d5484d8	0.051884502
34	0x3d1a629a	0.03769169
35	0x3d5ffdb8	0.054685324
36	0x3e114a90	0.141886
37	0x3d1a40b6	0.03765937
38	0xbd728086	-0.0592046
39	0x3d2b93c9	0.041888986
40	0xbcbf2b45	-0.023336062
41	0x3dbd5edb	0.09246608
42	0x3d935d7f	0.07195567
43	0xbb750f31	-0.0037393088
44	0xbdae0d61	-0.084986456
45	0x3d5496b5	0.051901538
46	0xbb977322	-0.004621879
47	0xbd87003f	-0.06591844
48	0x3d3d6576	0.04623934
49	0xbe049b34	-0.1294983
50	0xbd3b9b00	-0.045802116
51	0xbb2e17e7	-0.002656454
52	0xbc864f1e	-0.016395148
53	0x3e0e1009	0.13873304
54	0xbc89aca5	-0.016805956
55	0x3ca93c85	0.02065874
56	0x3e3863c6	0.1800681
57	0xbe4d9561	-0.20076515
58	0xbda5a146	-0.08087401
59	0xbc8bf160	-0.01708287
60	0xbdca2d20	-0.09871888
61	0xbd1d7534	-0.03844185
62	0x3cc70c0d	0.024297738
63	0xbc98f37e	-0.018670794

readout.weight f4 [1, 64]
0	0xbed6739c	-0.41885078
1	0xbeac59f2	-0.33662373
2	0xbe95f620	-0.2928934
3	0x3ebbda40	0.3668995
4	0x3ea1ad6b	0.3157762
5	0x3eddcdb5	0.43321005
6	0xbec64fbb	-0.38732705
7	0xbee3aa16	-0.44465703
8	0x3edef6a2	0.4354754
9	0x3edc9f0a	0.43090087
10	0xbef198e4	-0.4718696
11	0x3eebd805	0.46063247
12	0xbed71a9a	-0.42012483
13	0xbeaa6b25	-0.3328487
14	0x3ed87f3a	0.42284566
15	0xbeda3512	-0.42618614
16	0xbed0cce8	-0.4078133
17	0x3edf3ed3	0.4360262
18	0x3ed1646e	0.40896934
19	0xbe992756	-0.29912823
20	0xbe91d404	-0.28482068
21	0x3ee12465	0.4397308
22	0x3e96d66a	0.2946046
23	0x3ed3334e	0.4125008
24	0xbebcf3ee	-0.36904854
25	0xbedf4167	-0.43604586
26	0xbf05a1ad	-0.5219982
27	0x3ec69de3	0.38792333
28	0xbe929196	-0.28626698
29	0x3edb1e90	0.42796755
30	0x3ecf234e	0.40456623
31	0xbeb5cb8a	-0.3550685
32	0xbea66390	-0.32497835
33	0x3ea65bff	0.32492062
34	0xbec16b21	-0.37777045
35	0xbef61bcf	-0.4806809
36	0x3eca792c	0.39545572
37	0xbf016ab5	-0.50553447
38	0xbebf6e36	-0.37388772
39	0x3ee20bfb	0.44149765
40	0xbecbc60c	-0.39799535
41	0xbeb7db64	-0.3590957
42	0xbeea1172	-0.45716435
43	0xbecd124e	-0.40053028
44	0x3f1a0691	0.6016627
45	0x3ec7a3da	0.38992196
46	0x3ec22fa1	0.37926963
47	0x3e8d3b47	0.27584288
48	0xbec58c1e	-0.38583463
49	0x3e91aa2d	0.28450146
50	0x3ee6990a	0.45038635
51	0xbe8e7c85	-0.27829376
52	0xbead5a56	-0.33857983
53	0xbf093da5	-0.5360969
54	0xbe9c5958	-0.30536914
55	0x3ee2458f	0.44193694
56	0xbedb8393	-0.4287382
57	0x3eed5252	0.46351868
58	0x3eb3b9fe	0.35102838
59	0x3ebbbdab	0.36668143
60	0x3e86558c	0.26237142
61	0x3ebca5b2	0.36845165
62	0xbed89901	-0.42304233
63	0x3f04428a	0.5166403

layers.0.weight f4 [128, 17]
0	0x3eb63d0a	0.35593444
1	0x3d0615ea	0.032735743
2	0x3d520454	0.05127366
3	0xbe51ff0a	-0.20507446
4	0xbe719b5c	-0.23594421
5	0xbec0bf26	-0.37645835
6	0xbf50bb0b	-0.81535405
7	0xbf097d85	-0.5370715
8	0x3dc018db	0.09379741
9	0xbe7539fa	-0.23947898
10	0x3c8b97c9	0.01704015
11	0x3d027b12	0.03185565
12	0x3d0b9915	0.034081537
13	0xbd2532c0	-0.040331602
14	0xbd639265	-0.055559535
15	0xbcdd7c43	-0.027036792
16	0x3d51e1c8	0.051240712
17	0x3e8ccf39	0.27501848
18	0xbf738972	-0.951316
19	0x3e0be0be	0.13659951
20	0xbdd0480c	-0.10169992
21	0x3e5c59bf	0.2151861
22	0x3e613ad1	0.21995093
23	0x3dab46c7	0.08363109
24	0x3d7f402f	0.06231707
25	0x3edebe2c	0.43504465
26	0xbe9c1835	-0.30487218
27	0xbe027496	-0.12739787
28	0xbe20463d	-0.15651794
29	0x3e0fe5be	0.14052483
30	0x3d2b44b5	0.04181357
31	0x3d89c427	0.06726866
32	0x3d4b61fc	0.049653992
33	0xbe2a06e3	-0.1660419
34	0xbd9e6f7c	-0.07736108
35	0x3f2aa331	0.6665526
36	0x3e82a92d	0.25519696
37	0xbecaf667	-0.39641115
38	0x3e83c027	0.25732538
39	0x3e8dc10e	0.27686352
40	0xbe8b7af1	-0.27242234
41	0x3eb615a5	0.35563388
42	0xbf0f8d98	-0.5607543
43	0x3e1e61c2	0.15466979
44	0xbea1d2d7	-0.3160617
45	0xbe29f5d5	-0.16597684
46	0xbe175cb9	-0.14781465
47	0xbd6c3518	-0.05766782
48	0xbd0c186d	-0.03420298
49	0xbdb831c4	-0.08993867
50	0x3e5bbffa	0.21459952
51	0xbeca5843	-0.39520463
52	0xbe3ecfb6	-0.18633923
53	0x3e6bed92	0.23039845
54	0xbebc93d0	-0.36831522
55	0xbcd0f61b	-0.025507977
56	0x3e6f6f82	0.2338238
57	0x3ec116c7	0.3771269
58	0xbd9eaf0c	-0.07748231
59	0x3f260a3b	0.6485936
60	0xbecb90d9	-0.39758947
61	0xbe5a535d	-0.21320863
62	0x3cc601a0	0.024170697
63	0x3d5629ad	0.05228584
64	0xbd516af8	-0.051127404
65	0xbe8d6e7e	-0.2762336
66	0xbdd4ecdc	-0.1039674
67	0xbd1edf7b	-0.038787346
68	0xbf03a642	-0.51425564
69	0x3c827f0b	0.01592972
70	0xbd206a11	-0.039163653
71	0x3e3125e2	0.17299607
72	0xbde51092	-0.11184801
73	0xb9897f8f	-0.00026225715
74	0xbebe10eb	-0.37122282
75	0xbbdca03f	-0.00673297
76	0x3e064b51	0.13114668
77	0x3d8bad5b	0.06820174
78	0xbd85868b	-0.06519803
79	0xbdbe28b2	-0.09285106
80	0xbd6360fe	-0.05551242
81	0xbc543f61	-0.012954564
82	0x3d74656d	0.05966704
83	0x3c7df4af	0.015500232
84	0xbbd098df	-0.00636588
85	0xbdba03a9	-0.09082729
86	0x3ed21475	0.41031232
87	0x3eb5c218	0.35499644
88	0xbe553548	-0.20821106
89	0xbdfe47d4	-0.12416044
90	0x3e94ed3f	0.29087254
91	0xbd8f6f8d	-0.070036985
92	0x3e8b89a0	0.27253437
93	0xbd9b1460	-0.075722456
94	0xbe2a28cf	-0.1661713
95	0xbd193c6d	-0.037411142
96	0x3c84bc3e	0.016203042
97	0x3e229f79	0.15881146
98	0x3d3b5e0e	0.045743994
99	0xbd9051e0	-0.070468664
100	0xbe907ec3	-0.28221712
101	0x3c5153d7	0.012776337
102	0x3db15034	0.08657876
103	0xbd409790	-0.04701954
104	0x3e9e74f5	0.30948606
105	0x3efd2c82	0.4944802
106	0x3d263c11	0.040584628
107	0xbe8fb3d7	-0.28066894
108	0x3e215609	0.15755476
109	0x3e3d570d	0.18490238
110	0xbf08680c	-0.5328376
111	0xbe3bdbad	-0.18345518
112	0xbe47cf8e	-0.1951277
113	0x3e1b8eb6	0.15191159
114	0x3dd3530d	0.10318575
115	0xbe7fdd55	-0.24986775
116	0xbe40efa8	-0.18841422
117	0xbe50fb98	-0.20408475
118	0x3d4986a4	0.04920067
119	0xbeee0962	-0.46491534
120	0x3f176623	0.59140223
121	0x3db827f2	0.08991994
122	0xbdb9cad2	-0.09071888
123	0x3d9cbcc5	0.076531924
124	0x3f0a946a	0.5413271
125	0xbd91ebb5	-0.07125036
126	0x3e478bd9	0.19486941
127	0x3ea474e5	0.32120433
128	0xbde533a5	-0.11191491
129	0x3ebe8b62	0.37215716
130	0x3e26a2e4	0.16273075
131	0x3d3dce26	0.046339177
132	0xbcd6eec9	-0.026236909
133	0x3e46831e	0.19385955
134	0x3da7daad	0.08196006
135	0x3dcb697d	0.0993223
136	0xbf10697b	-0.5641095
137	0x3d8fbd93	0.0701858
138	0xbd08fee6	-0.033446215
139	0xbe02e7a5	-0.12783678
140	0xbe8b59d7	-0.2721698
141	0xbf1cd52f	-0.6126279
142	0xbe2c3ca9	-0.16820015
143	0xbdfbccdc	-0.12294933
144	0xbebb8073	-0.36621436
145	0x3e2858f7	0.16440187
146	0xbe23fb27	-0.16013776
147	0xbdbfc04f	-0.09362852
148	0x3c73d180	0.014881492
149	0x3b96c28d	0.004600829
150	0xbeee5ada	-0.4655369
151	0xbdb06b13	-0.08614173
152	0xbc59ae90	-0.013286248
153	0x3e325c20	0.17417955
154	0xbe0b5261	-0.13605644
155	0xbeb02ab6	-0.34407586
156	0x3dc052dc	0.09390804
157	0xbf0b5ef5	-0.5444177
158	0x3ef5474e	0.47905964
159	0x3e577b87	0.21043216
160	0x3f3afb31	0.7303954
161	0x3e0a7dce	0.13524553
162	0xbdf91f14	-0.12164131
163	0xbeeecb76	-0.46639603
164	0x3de77503	0.11301615
165	0x3c58543a	0.013203675
166	0x3db0e16f	0.08636748
167	0xbdc686a2	-0.09693648
168	0xbc909859	-0.01765077
169	0xbd71a725	-0.058997292
170	0x3e068836	0.13137898
171	0x3e63496b	0.22195975
172	0xbead5281	-0.33852008
173	0xbed33065	-0.4124786
174	0xbe8c81e9	-0.27442864
175	0xbd857bfc	-0.06517789
176	0xbeb749a9	-0.35798386
177	0x3dd720ba	0.10504289
178	0x3eee724b	0.46571574
179	0xbe673e9a	-0.22582474
180	0xbda7f8e4	-0.08201769
181	0x3e1e6853	0.15469484
182	0xbe1d57ea	-0.15365568
183	0xbe8d8811	-0.27642873
184	0x3e2a74a3	0.16646056
185	0x3dd21843	0.10258534
186	0x3e4b2314	0.198376
187	0x3ebe83f5	0.3721005
188	0xbea01257	-0.31263992
189	0xbf450462	-0.7695981
190	0xbea91bbf	-0.3302898
191	0x3d03fb3b	0.032222014
192	0x3f0afbea	0.5429064
193	0xbe294d31	-0.16533352
194	0x3da9b14e	0.08285771
195	0x3efaa918	0.48957133
196	0x3e066ecf	0.13128208
197	0xbed3523d	-0.4127368
198	0xbe662359	-0.22474422
199	0xbe0b1111	-0.13580729
200	0xbd02cd43	-0.031934034
201	0x3dce5eba	0.100766614
202	0x3e0246b7	0.12722288
203	0x3cb2795d	0.021786386
204	0xbe7ca7bb	-0.24673359
205	0xbd5bb211	-0.053636614
206	0x3edd2421	0.43191627
207	0x3d9e6676	0.077343866
208	0xbdead424	-0.11466244
209	0xbcdb0d1f	-0.026739655
210	0xbdae13d3	-0.08499875
211	0xbd1bf26a	-0.03807298
212	0x3e8885c5	0.26664558
213	0x3e7e6375	0.24842627
214	0x3e79295f	0.24332188
215	0x3dfbc02c	0.12292513
216	0xbdc11610	-0.09428036
217	0xbe16096b	-0.1465203
218	0x3c54c32f	0.0129859885
219	0x3d9bb907	0.076036505
220	0x3cb76495	0.022386828
221	0xbf0db072	-0.5534736
222	0x3f2f54c0	0.68488693
223	0x3e033184	0.12811857
224	0x3da4b1f5	0.08041755
225	0xbe911992	-0.2833982
226	0x3f183620	0.5945759
227	0xbec3fcb2	-0.3827873
228	0x3ea4d9cf	0.32197425
229	0x3da69ddd	0.08135579
230	0xbe95251b	-0.29129872
231	0xbd88a6b7	-0.06672423
232	0xbd89acba	-0.06722398
233	0x3e33874b	0.17532079
234	0xbc353c46	-0.011061734
235	0xbe24a38b	-0.16078012
236	0x3d2aa557	0.041661587
237	0x3d1dd36c	0.038531706
238	0x3e5d6ed3	0.21624307
239	0xbe984021	-0.29736426
240	0xbf1113ed	-0.5667103
241	0xbecee19a	-0.40406495
242	0xbe98bab2	-0.29829937
243	0x3d8c4074	0.06848231
244	0xbf80f284	-1.007401
245	0xbe31065f	-0.17287587
246	0xbea04037	-0.31298992
247	0x3d6cfb0f	0.057856616
248	0xbe90cf00	-0.28282928
249	0xbe4d7e97	-0.20067821
250	0xbe029779	-0.12753095
251	0x3df1a068	0.11798173
252	0x3d922210	0.07135403
253	0x3c900d73	0.017584538
254	0xbd0548aa	-0.03254
255	0x3cc53a90	0.024075776

layers.0.bias f4 [128]
0	0x3ed31aad	0.4123129
1	0x3edb3011	0.4281011
2	0xbe59bf38	-0.2126435
3	0x3f34d26a	0.70633566
4	0x3f2a163a	0.66440165
5	0xbec05413	-0.37564144
6	0x3b490027	0.0030670257
7	0x3cf420e0	0.029800832
8	0xbeb7d31c	-0.3590325
9	0x3e0bdd65	0.13658674
10	0x3e88e890	0.2673993
11	0x3ebefabc	0.3730067
12	0x3f31b5a7	0.69417804
13	0x3ed72c5a	0.42026025
14	0x3c83635a	0.016038585
15	0x3e1de1b6	0.15418133
16	0xbf42b6f5	-0.7606042
17	0x3ec4f7d0	0.38470316
18	0x3efef917	0.49799415
19	0x3c58e60f	0.013238444
20	0x3e778c30	0.24174571
21	0x3f16da4f	0.5892686
22	0xbebead63	-0.3724166
23	0x3f0607bb	0.52355546
24	0xbd163c00	-0.036678314
25	0x3f09dc57	0.53851837
26	0x3f2aa315	0.66655093
27	0x3f49f6a4	0.7889197
28	0xbd94e153	-0.0726954
29	0x3f60ca08	0.87808275
30	0x3ed417bb	0.41424355
31	0x3e1a899f	0.15091561
32	0x3e4834d8	0.19551408
33	0xbe412432	-0.18861464
34	0x3d4dafe3	0.050216567
35	0xbe0f6a61	-0.14005424
36	0xbea52e3f	-0.32261845
37	0x3f0c3923	0.54774684
38	0xbec93f6e	-0.39306206
39	0xbe28b327	-0.16474591
40	0xbecbfd31	-0.39841607
41	0x3efd7b4d	0.49508134
42	0x3e2427d2	0.16030815
43	0xbb2ba836	-0.002619279
44	0xbef6e214	-0.4821936
45	0x3cef6d5a	0.029226948
46	0xbe0f32bd	-0.13984199
47	0x3f1160d2	0.5678836
48	0xbec792d3	-0.38979205
49	0x3f1dbf37	0.61619896
50	0x3f004c63	0.50116557
51	0x3e8eb933	0.2787567
52	0xbc9df41d	-0.019281441
53	0xbe536033	-0.20642166
54	0xbeb5da07	-0.35517904
55	0xbdf6b523	-0.12046268
56	0x3eda7a9e	0.42671674
57	0xbe5d7a13	-0.21628599
58	0xbefb2b8d	-0.49056664
59	0xbea4f66c	-0.32219255
60	0x3edf1f52	0.43578583
61	0x3c8af183	0.016960865
62	0xbebed85c	-0.37274444
63	0x3efe06f1	0.4961467
64	0xbe29188d	-0.16513272
65	0xbec5b240	-0.38612556
66	0x3f21341d	0.62970144
67	0xbeb2e261	-0.34938338
68	0xbeb89048	-0.36047578
69	0xbcfffeec	-0.031249486
70	0x3e84d2a5	0.2594196
71	0x3ed91300	0.42397308
72	0xbe354a06	-0.17704019
73	0xbdb7c7a2	-0.08973624
74	0xbed7939f	-0.42104813
75	0x3e91d035	0.28479162
76	0x3707b3e4	8.088511e-06
77	0xbdb2f33e	-0.08737801
78	0x3ee73356	0.45156354
79	0xbd1e8bcd	-0.038707543
80	0x3f1e7409	0.61895806
81	0xbe0629f1	-0.13101937
82	0x3c12d074	0.008960832
83	0xbf5927d7	-0.84826416
84	0xbdac402a	-0.08410676
85	0x3ca82d9f	0.020529566
86	0x3e8e608b	0.2780803
87	0xbcec9778	-0.02888082
88	0xbf06c19f	-0.5263919
89	0x3f1aea38	0.6051364
90	0xbcefdaa1	-0.029279055
91	0xbef69b4f	-0.48165366
92	0xbdbfb8a8	-0.09361392
93	0x3ecba8ca	0.39777213
94	0x3dfa3d64	0.122187406
95	0xbe775dd0	-0.2415688
96	0x3bd9998f	0.00664062
97	0x3c0efbec	0.008727055
98	0xbe205723	-0.1565824
99	0x3ebf1012	0.37316948
100	0x3ebe7090	0.37195253
101	0xbe235ddc	-0.15953773
102	0x3ed8dd8d	0.4235653
103	0xbda91c96	-0.082574055
104	0x3f2f338e	0.6843804
105	0xbe50553a	-0.20345011
106	0x3e35840e	0.17726156
107	0xbebb1c31	-0.36544946
108	0x3eaaa187	0.3332636
109	0x3f096503	0.53669757
110	0x3e99650c	0.29959905
111	0x3f163d56	0.5868734
112	0xbec59f7a	-0.38598233
113	0x3ee689e2	0.4502707
114	0x3e047ee9	0.12939037
115	0xbdab06f2	-0.08350934
116	0xbd799777	-0.060935464
117	0x3f0219d4	0.5082066
118	0x3f1e4e3b	0.6183812
119	0x3ecbf4c4	0.3983518
120	0xbe007c7d	-0.12547489
121	0xbd238fd2	-0.03993208
122	0x3e59d38b	0.21272103
123	0x3ebf057f	0.3730888
124	0xbeb718e0	-0.35761166
125	0xbe98abad	-0.29818478
126	0xbddc7fe4	-0.10766581
127	0x3e4555c8	0.19271004

layers.1.weight f4 [128, 128]
0	0x3d87bd35	0.06627885
1	0x3c7c0443	0.015381875
2	0x3daefb1c	0.08543989
3	0x3d25dc14	0.040493086
4	0xbc98bf67	-0.018645955
5	0xbdd72af0	-0.105062366
6	0x3cc31449	0.023813384
7	0x3c8970f1	0.016777487
8	0x3e1738ee	0.1476781
9	0x3d3db9f8	0.04631993
10	0xbd2c27b4	-0.04203005
11	0xbcab9431	-0.020944687
12	0xbd816d71	-0.063197024
13	0xbd5a3ec4	-0.053282514
14	0xbd2cc484	-0.0421796
15	0xbca0a02d	-0.019607628
16	0x3dce93f5	0.10086814
17	0x3d96fd42	0.07372524
18	0xbd54b81b	-0.05193339
19	0x3bf0e565	0.0073515647
20	0xbdb1d975	-0.08684055
21	0x3df76a10	0.12080777
22	0x3d82226d	0.063542224
23	0x3d30c58f	0.043157157
24	0x3da29935	0.07939378
25	0xbdf1b3d4	-0.118018776
26	0xbe128470	-0.14308333
27	0xbde7cbef	-0.11318194
28	0x3e6bf7a4	0.23043686
29	0x3e7aa755	0.24477895
30	0x3b5ad802	0.003339291
31	0xbe017851	-0.12643553
32	0xbd298557	-0.04138693
33	0x3d4f0ab7	0.050547328
34	0xbc1f5720	-0.009725362
35	0xbd0fa27d	-0.03506707
36	0xbd103321	-0.03520501
37	0xbcd54b0c	-0.026036762
38	0xbde04de8	-0.109523594
39	0x3e0b8fc9	0.13629068
40	0xbdecd556	-0.11564128
41	0x3d24a502	0.040196426
42	0xbe0ce8ff	-0.13760756
43	0x3dcf2d99	0.10116119
44	0xbd18ac3e	-0.037273638
45	0x3c6d74e4	0.014493201
46	0x3db4d306	0.08829312
47	0xbc5a8015	-0.013336201
48	0x3d9f9235	0.07791559
49	0xbd840f50	-0.06448233
50	0xbdafcdbb	-0.08584162
51	0x3d21bf33	0.039488982
52	0x3d95bcc1	0.073113926
53	0x3dd23623	0.10264232
54	0xbcafa0af	-0.021438925
55	0x3eb3c74b	0.35112986
56	0xbe41e51b	-0.18935053
57	0xbdd95d3f	-0.106134884
58	0xbd8a6f5d	-0.06759522
59	0xba686a51	-0.000886594
60	0x3cc7c6a8	0.024386719
61	0xbdca084e	-0.09864865
62	0x3c16b253	0.009197789
63	0x3cc9bdaf	0.024626581
64	0xbc1bdae0	-0.009512633
65	0x3cc6f3cc	0.024286173
66	0xbd8df76e	-0.06931959
67	0x3d8bff05	0.068357505
68	0x3dc34720	0.095350504
69	0x3d14cddb	0.03632913
70	0xbdc53390	-0.096289754
71	0xbd033cdb	-0.03204046
72	0xbdaf028a	-0.08545406
73	0x3e3b8f32	0.18316343
74	0x3d80e414	0.062935024
75	0x3cd960ba	0.02653538
76	0x3d7d1e51	0.06179649
77	0x3d6a47f5	0.05719753
78	0xbadc0bae	-0.0016788149
79	0x3cd03b8d	0.025419021
80	0x3c86216c	0.016373359
81	0x3da271c9	0.07931859
82	0xbb32d18a	-0.002728554
83	0xbdaa9b74	-0.083304316
84	0xbd0b281f	-0.03397381
85	0xbdb9cc25	-0.090721406
86	0x3def7c11	0.11693586
87	0x3e8a5cc7	0.27023908
88	0x3c911715	0.017711202
89	0x3dcb48ef	0.0992602
90	0xbc422f0a	-0.011852035
91	0xbd8e7e41	-0.06957675
92	0x3dbf0f6a	0.09329112
93	0xbd6ea86f	-0.0582661
94	0x3d1ec6b3	0.038763713
95	0xbba928d3	-0.0051623373
96	0xbcf227ba	-0.029559959
97	0x3d62e535	0.05539437
98	0xbe6ca8ec	-0.23111314
99	0xbd727388	-0.05919221
100	0x3cc2affb	0.023765555
101	0xbd667e73	-0.056272935
102	0x3d372538	0.04471323
103	0xbda0da9f	-0.07854199
104	0xbe6b156d	-0.22957392
105	0x3e0c783e	0.13717744
106	0x3df93ce7	0.12169819
107	0xbd46de6c	-0.04855196
108	0x3d4a3c00	0.049373627
109	0xbd85af00	-0.06527519
110	0xbde11eb7	-0.109921865
111	0x3da67f89	0.08129794
112	0x3d52f8dc	0.051506862
113	0x3dc0b4e3	0.094095014
114	0xbe000059	-0.12500133
115	0xbd900d6f	-0.07033812
116	0xbd690776	-0.05689188
117	0x3e3e96af	0.18612169
118	0x3d1cc0df	0.038269874
119	0xbdbcde88	-0.09222132
120	0xb92d1368	-0.00016505795
121	0x3da2fe5d	0.07958672
122	0x3d99fda3	0.075190805
123	0x3e1e6605	0.15468605
124	0x3d10fa1f	0.035394784
125	0x3d4151a3	0.047196995
126	0xbd06bf3c	-0.03289722
127	0xbb6f257d	-0.003649085
128	0x3e4d5259	0.20050944
129	0x3d8b4b25	0.06801442
130	0x3e2d9821	0.16952564
131	0xbceb8004	-0.028747566
132	0xbc053fca	-0.008132884
133	0xbdf80642	-0.121105686
134	0xbe205ff2	-0.156616
135	0xbdb3acd6	-0.087732
136	0x3b6e093a	0.0036321417
137	0x3d113b87	0.03545716
138	0xbb52bc32	-0.003215563
139	0x3e259880	0.16171455
140	0x3de657f0	0.112472415
141	0x3c1610b1	0.009159253
142	0xbd7cad85	-0.06168892
143	0x3e0299ba	0.12753955
144	0xbdbb6548	-0.09150177
145	0x3dbaaba1	0.09114767
146	0x3d86175a	0.06547423
147	0xbb604140	-0.003421858
148	0x3ccbac0e	0.024862316
149	0x3cf00c1f	0.029302655
150	0xbd85525a	-0.06509848
151	0xbd7a186c	-0.061058447
152	0x3d4bf965	0.049798388
153	0x3e834b61	0.25643447
154	0x3e659293	0.22419195
155	0x3db847c2	0.08998062
156	0xbe2d4653	-0.16921358
157	0xbda7bbba	-0.08190103
158	0x3dbffe10	0.093746305
159	0x3da9c97e	0.08290385
160	0xbe274123	-0.16333441
161	0xbd95b1bb	-0.0730929
162	0x3e3d2d7b	0.1847438
163	0x3db2a2a5	0.08722428
164	0xbd643f06	-0.055724166
165	0x3e161d28	0.1465956
166	0x3e363d80	0.17796898
167	0xbe44a086	-0.1920186
168	0x3dfe2678	0.12409681
169	0x3de45bab	0.11150297
170	0xbd6e9a07	-0.05825236
171	0xbd8b89bc	-0.0681338
172	0xbdc544a4	-0.09632233
173	0xbdc0a6a5	-0.09406785
174	0x3e136dd1	0.1439736
175	0x3d8c9daf	0.06866013
176	0xbdc05b74	-0.09392443
177	0x3e309d81	0.17247583
178	0xbc801a0d	-0.015637422
179	0x3d586662	0.052832015
180	0xbdf062b7	-0.11737578
181	0xbe256c83	-0.16154675
182	0x3dc08e80	0.0940218
183	0xbcbb5285	-0.022866497
184	0x3df401e0	0.1191442
185	0x3ceee079	0.029159771
186	0xbddcb0d7	-0.10775917
187	0xbc57d693	-0.013173717
188	0xbcf068e3	-0.029346889
189	0x3dfc74a3	0.12326934
190	0x3cb5c2d6	0.022187632
191	0xbca51e7c	-0.020156138
192	0x3d3aa49d	0.045567144
193	0x3d2b856c	0.041875288
194	0x3e6d5d61	0.23180152
195	0xbe82e25f	-0.25563332
196	0x39a69d27	0.00031779075
197	0xbe010c20	-0.12602282
198	0x3e22ef0d	0.15911503
199	0x3d9e24ac	0.07721838
200	0x3e2412cd	0.16022797
201	0xbe14ae3b	-0.14519589
202	0x3c8c26f3	0.017108416
203	0xbd333729	-0.043753777
204	0x3c7570f6	0.014980545
205	0x3e3ef642	0.18648627
206	0xbd205414	-0.039142683
207	0x3d1f797b	0.038934212
208	0x3d0e7169	0.034776125
209	0x3d36470b	0.044501346
210	0x3da303fc	0.07959744
211	0xbd932d54	-0.0718638
212	0x3e30ac41	0.1725321
213	0x3e3e2f68	0.18572772
214	0xbd745975	-0.059655625
215	0xbe557c58	-0.20848215
216	0x3c277d39	0.0102227265
217	0xbdc75f3e	-0.09734963
218	0xbc332c56	-0.0109358635
219	0x3ddc7dae	0.10766159
220	0xbddb9bac	-0.107230514
221	0x3d1f5a00	0.03890419
222	0xbcf6b46c	-0.030115329
223	0xbe13c471	-0.14430405
224	0x3cca0e07	0.024664892
225	0x3da550cf	0.08072054
226	0x3e002d54	0.12517291
227	0x3da47f11	0.080320485
228	0x3dccb383	0.09995177
229	0xbe07cd97	-0.1326202
230	0x3d843894	0.06456104
231	0x3e8916c7	0.2677519
232	0x3eaa2a91	0.332356
233	0xbd21dc4b	-0.03951673
234	0x3d17aa09	0.037027393
235	0xbe16b27a	-0.14716521
236	0x3d8d672b	0.06904443
237	0x3d90d712	0.070722714
238	0xbd0a8c03	-0.03382493
239	0x3b74ab7d	0.003733366
240	0x3e22c6a9	0.15896095
241	0xbdaf701d	-0.08566306
242	0x3e5881b4	0.21143228
243	0x3e06209e	0.1309838
244	0xbdbb72cb	-0.091527544
245	0x3d030e1c	0.031995878
246	0x3dd24eab	0.10268911
247	0x3e0b2fb0	0.1359241
248	0x3df141af	0.11780106
249	0x3e6995cd	0.2281105
250	0x3bfe8164	0.0077668894
251	0xbd3722c8	-0.044710904
252	0xbd95666c	-0.07294926
253	0xbdf220f6	-0.11822693
254	0x3e38c128	0.18042433
255	0xbe488c7b	-0.19584839
