9_gym-DDPG/DDPG_HalfCheetah-v4_6000-eps0.1-t32-l0.0001-s1.pth (torch, 195690 bytes, 13 tensors)

layers.0.weight f4 [128, 23]
-0.010791246 0.023968942 -0.17741257 -0.16794862 -0.21538952 0.25436285 0.06730225 0.14512855
-0.09882229 -0.050129518 0.04399987 0.012119189 0.016775468 -0.0069434466 -0.032265533 -0.015262236
-0.008117572 -0.058617644 0.2714066 0.071040265 -0.24455725 -0.27228722 -0.22153082 -0.38545534
-0.2537484 0.13002895 0.1930937 -0.09593428 -0.11627034 0.27763695 0.0887603 -0.016463537
0.5059469 -0.34431916 -0.17106518 -0.10834082 0.053805687 -0.002184977 0.0034257434 -0.022010751
0.08896651 0.079597734 0.24162158 -0.31614175 -0.33318758 -0.12608829 -1.135866 0.1312695
-0.008930898 0.3109558 -0.16581334 -0.35997933 0.29235023 -0.12646313 0.61643785 -0.029123481
-0.11279031 -0.08825138 0.022298431 -0.009594161 -0.061699897 -0.0023727992 -0.029309575 0.20813799
-0.0040137186 -0.0669139 0.038426638 -0.08821676 -0.059225306 -0.2672849 0.5190377 -0.26519868
0.06272072 -0.12271782 0.73277664 -0.31026703 -0.11076601 0.057366546 -0.1387083 0.09450086
-0.022615096 -0.02000766 -0.0066373073 0.004038787 0.024519369 -0.011320024 -0.3532668 -0.0010808053
-0.027043428 0.15365203 0.15633182 -0.0030302498 0.54543924 -0.046625447 -0.18114048 0.48554748
-0.12997027 -0.21505496 0.47009987 0.45109594 0.3026847 0.06725209 0.38831496 0.12687182
-0.05099084 -0.015432366 0.11997305 0.074759856 0.0412616 -0.07140174 0.042785402 0.21314195
0.21531096 0.08944421 0.17513615 -0.54608744 0.5604049 0.039455634 -0.4183161 -0.25336817
-0.12250758 0.56446755 0.48733258 0.0989147 0.24559292 -0.06648442 -0.010803415 0.0153586725
0.0014047781 0.035768304 0.04515512 0.017469577 0.08930526 -0.01826355 0.18801816 0.34872797
0.42335197 0.04111699 -0.6012827 -0.21384895 0.42539495 0.75208926 0.087573685 0.06559603
0.42497593 0.13408571 0.27169588 0.004224915 0.3731936 0.021458691 0.04682004 0.009096391
0.0033241888 0.02578037 -0.0027033829 -0.1990074 -0.19809477 0.013765573 0.3866783 0.071921386
-0.050809976 0.49210936 0.24284375 0.7768709 -0.091089144 -0.02122544 -0.50786656 -0.28285754
-0.17113648 -0.031358518 0.12276634 0.26906946 0.021595825 0.03469279 -0.00083877053 0.05757229
0.032119792 0.0069780904 -0.3062935 0.11722426 -0.13126284 -0.029446535 -0.053267486 -0.08392963
-0.78199923 0.22963686 -0.68038267 -0.44216847 -0.061614126 -0.684493 0.096601635 -0.21125892
-0.21434037 -0.078741655 0.07870779 0.008699882 0.004473062 0.0020543647 0.07269733 0.045387752
0.013308586 -0.19246146 -0.13217053 -0.08958215 0.035961393 0.20452663 -0.013145413 -0.81389314
-0.199386 0.07220757 -0.17855194 -0.024526985 -0.15483749 0.39782834 0.13465363 0.34949914
0.11134366 -0.026167104 -0.019939931 0.009673614 -0.012221924 0.10242289 -0.05706743 -0.026692428
0.1728401 -0.22330683 -0.17419751 0.6696445 0.19165736 0.0726802 -0.008718224 -0.59268534
0.64114225 0.08503362 0.008485391 -0.07139589 -0.13930903 0.1299406 0.3307116 -0.16445301
-0.23342651 -0.034881286 -0.028372757 -0.005486779 -0.013184755 -0.017152386 -0.0063170656 -0.1768429
-0.046420965 -0.0070437063 0.12537394 -0.21080333 -0.0553223 0.13181493 0.09650974 -0.221446
00000000: c4cd 30bc 845a c43c a4ab 35be b9fa 2bbe
00000010: 128f 5cbe d93b 823e c3d5 893d 949c 143e
00000020: 5763 cabd 9c54 4dbd 3539 343d 908f 463c
00000030: b56c 893c da85 e3bb dd28 04bd 750e 7abc
00000040: 91ff 04bc 0e19 70bd cef5 8a3e 8f7d 913d
00000050: 376d 7abe 3b69 8bbe fad8 62be 675a c5be
00000060: 4feb 81be 4f26 053e 5bba 453e 3179 c4bd
00000070: 251f eebd 6e26 8e3e f6c7 b53d 8ade 86bc
00000080: bc85 013f 9a4a b0be b62b 2fbe cbe1 ddbd
00000090: 5a63 5c3d d531 0fbb 7082 603b e44f b4bc
000000a0: 1334 b63d 2304 a33d a66b 773e 55dd a1be
000000b0: 9097 aabe 4a1d 01be 0f64 91bf 836b 063e
000000c0: e752 12bc 9935 9f3e f9ca 29be 364f b8be
000000d0: eeae 953e 8d7f 01be dfce 1d3f 5e94 eebc
000000e0: 9bfe e6bd 24bd b4bd 33ab b63c d430 1dbc
000000f0: 08b9 7cbd f780 1bbb a21a f0bc 2022 553e
00000100: 8385 83bb 280a 89bd 4065 1d3d fdaa b4bd
00000110: 3c96 72bd 91d9 88be a8df 043f 1fc8 87be
00000120: b973 803d 7b53 fbbd 4097 3b3f 52db 9ebe
00000130: 4ad9 e2bd 2ff9 6a3d 8c09 0ebe ab89 c13d
00000140: 4b43 b9bc 1be7 a3bc c57d d9bb cd57 843b
00000150: d8dc c83c 9f77 39bc 63df b4be cfa9 8dba
00000160: 2e8a ddbc f556 1d3e 7315 203e 2897 46bb
00000170: e8a1 0b3f 53fa 3ebd e47c 39be ae99 f83e
00000180: ed16 05be 5e37 5cbe eeb0 f03e 0cf6 e63e
00000190: 7df9 9a3e 77bb 893d 38d1 c63e b0ea 013e
000001a0: c5db 50bd 09d8 7cbc 6eb4 f53d b21b 993d
000001b0: ec01 293d 133b 92bd bf3f 2f3d e241 5a3e
000001c0: 7a7a 5c3e 872e b73d e456 333e 63cc 0bbf
000001d0: b276 0f3f 3b9c 213d 872d d6be 79b9 81be
000001e0: 41e5 fabd f280 103f a883 f93e ca93 ca3d
000001f0: b67c 7b3e fc28 88bd cf00 31bc f1a2 7b3c
00000200: 8820 b83a c981 123d 93f4 383d 5c1c 8f3c
00000210: ade5 b63d 719d 95bc d587 403e 798c b23e
00000220: 97c1 d83e 4a6a 283d aaed 19bf 38fb 5abe
00000230: 5ecd d93e ec88 403f d559 b33d 3657 863d
00000240: 7296 d93e c44d 093e b91b 8b3e 2871 8a3b
00000250: 3b13 bf3e 23ca af3c 5fc6 3f3d 0709 153c
00000260: a2da 593b 5b31 d33c 3d2b 31bb 99c8 4bbe
00000270: 5bd9 4abe ff88 613c b3fa c53e 854b 933d
00000280: 1f1e 50bd c2f5 fb3e 08ac 783e 03e1 463f
00000290: f28c babd f9e0 adbc 8b03 02bf b4d2 90be
000002a0: 673e 2fbe ca71 00bd eb6c fb3d 79c3 893e
000002b0: bae9 b03c 071a 0e3d f0e0 5bba ecd0 6b3d
000002c0: 0b90 033d 77a8 e43b 80d2 9cbe 4613 f03d
000002d0: c469 06be dc39 f1bc 022f 5abd 4ce3 abbd
000002e0: 1a31 48bf ed25 6b3e 8f2d 2ebf e863 e2be
000002f0: 185f 7cbd ef3a 2fbf 14d7 c53d 4254 58be
00000300: 0b7c 5bbe 4e43 a1bd 8d31 a13d f389 0e3c
00000310: c492 923b 85a2 063b 56e2 943d 82e8 393d
00000320: 410c 5a3c 9e14 45be b657 07be d976 b7bd
00000330: 414c 133d 6e6f 513e dc5f 57bc 4d5b 50bf
00000340: d82b 4cbe 90e1 933d 52d6 36be d1ec c8bc
00000350: b88d 1ebe 28b0 cb3e a4e2 093e 8df1 b23e
00000360: 2508 e43d 655c d6bc 1159 a3bc 147e 1e3c
00000370: 773e 48bc 18c3 d13d 8abf 69bd 14aa dabc
00000380: fffc 303e 8caa 64be d560 32be d26d 2b3f
00000390: d441 443e 5bd9 943d e2d6 0ebc 3aba 17bf
000003a0: e621 243f 1b26 ae3d 4f06 0b3c 0238 92bd
000003b0: 07a7 0ebe 260f 053e 0853 a93e 5f66 28be
000003c0: 5c07 6fbe aedf 0ebd fc6d e8bc 70ca b3bb
000003d0: df04 58bc 2983 8cbc 63ff cebb 4e16 35be
000003e0: e923 3ebd e4ce e6bb 0762 003e d4dc 57be
000003f0: a399 62bd 7efa 063e e6a6 c53d bdc2 62be

layers.0.bias f4 [128]
-0.20030783 -0.15006764 -0.5503542 -0.43042803 -0.37042838 -0.02284991 0.06874835 -0.72286767
0.1721293 -0.001230784 -0.1874313 -0.68503517 -0.47670835 -0.47092292 -0.1230121 0.29384583
0.13849024 -0.4142311 -0.35603976 -0.79236746 0.7337124 -0.3083957 -0.45012477 -0.50899124
-0.05402549 -0.042186536 -0.059404146 -0.37021112 0.41722873 0.18350118 -0.06283959 -0.13005944
0.23060055 -0.61844313 -0.3234469 0.29290462 -0.24031368 -0.38516745 0.40138322 -0.4458377
-0.30424216 -0.30035368 -0.15197238 -0.119758986 0.028439682 -0.2492227 -0.16687068 -0.6480484
0.4153478 0.71795005 -0.3499704 -0.3217554 0.27113017 0.47775117 0.0055588717 -0.69464403
-0.06548066 -0.31641278 0.14353216 0.4362629 0.0601964 0.21644875 -0.57629055 -0.2601591
-0.3348414 0.4410627 -0.16315323 -0.32520145 -0.21971077 -0.13407229 0.16005784 0.025407447
0.094182044 -0.43143544 -0.1301949 -0.3722622 -0.03787096 0.115428776 0.061885756 -0.08889573
-0.012033929 -0.21093282 0.118535705 -0.20577548 -0.34429058 -0.22919783 -0.130228 0.5515199
0.2737696 -0.36746705 0.024805518 -0.032079887 -0.17335875 -0.4956058 0.099407844 -0.23766045
-0.563653 0.5557929 -0.1574372 0.19519572 0.008402785 -0.25299913 -0.39936823 0.31940302
0.3054477 0.07890792 -0.18053736 0.18309344 -0.19733725 -0.4383293 0.7051475 0.7029246
0.25231457 0.24198712 0.4428461 -0.38706094 0.16578092 0.42944378 0.041167058 0.4161939
0.16585775 -0.4981863 0.43563768 0.45894006 -0.22320819 -0.4594649 0.29520968 -0.41950354
00000000: 7f1d 4dbe 55ab 19be 03e4 0cbf 1061 dcbe
00000010: caa8 bdbe bc2f bbbc efcb 8c3d db0d 39bf
00000020: aa42 303e 4252 a1ba feed 3fbe 775e 2fbf
00000030: 1e13 f4be cf1c f1be c5ed fbbd f672 963e
00000040: 63d0 0d3e 1916 d4be d84a b6be 98d8 4abf
00000050: 93d4 3b3f 0be6 9dbe c176 e6be 404d 02bf
00000060: d549 5dbd cacb 2cbd c351 73bd 508c bdbe
00000070: 019f d53e bce7 3b3e 0bb2 80bd 4d2e 05be
00000080: 8d22 6c3e 4a52 1ebf d59a a5be 98f7 953e
00000090: ca14 76be ab34 c5be 1a82 cd3e d744 e4be
000000a0: a1c5 9bbe f5c7 99be a69e 1bbe 3344 f5bd
000000b0: 56fa e83c 3c34 7fbe 26e0 2abe 80e6 25bf
000000c0: 78a8 d43e 93cb 373f 522f b3be 20bd a4be
000000d0: 93d1 8a3e cd9b f43e 3227 b63b 31d4 31bf
000000e0: b91a 86bd db00 a2be 18fa 123e da5d df3e
000000f0: 8090 763d bea4 5d3e c787 13bf 9333 85be
00000100: 5570 abbe f8d2 e13e a411 27be ce80 a6be
00000110: dcfb 60be 3f4a 09be 34e6 233e 4723 d03c
00000120: 84e2 c03d 1be5 dcbe d051 05be 2799 bebe
00000130: 941e 1bbd ec65 ec3d eb7b 7d3d f70e b6bd
00000140: f529 45bc c6fe 57be d9c2 f23d cfb6 52be
00000150: db46 b0be d6b2 6abe 7d5a 05be 6830 0d3f
00000160: 872b 8c3e a424 bcbe f134 cb3c 3366 03bd
00000170: f584 31be 0bc0 fdbe 5796 cb3d 435d 73be
00000180: 904b 10bf 7248 0e3f 3837 21be 63e1 473e
00000190: d6ab 093c 1a89 81be fe79 ccbe cb88 a33e
000001a0: a463 9c3e 7a9a a13d c9de 38be d97c 3b3e
000001b0: c712 4abe b36c e0be 8c84 343f def2 333f
000001c0: 602f 813e 79cb 773e b9bc e23e da2c c6be
000001d0: 79c2 293e 0ee0 db3e ca9e 283d 5e17 d53e
000001e0: 9dd6 293e 4612 ffbe e70b df3e 31fa ea3e
000001f0: b090 64be fc3e ebbe b925 973e 2bc9 d6be

layers.1.weight f4 [128, 128]
-0.043851048 -0.056073688 -0.10626706 0.061471052 -0.04731838 -0.04424289 0.161029 0.023433896
-0.1311573 0.07301307 0.01597253 -0.1338579 0.112460256 -0.18599759 0.17107917 0.14791343
-0.098911166 0.008686982 -0.06617596 0.05369569 0.0032215018 -0.040145412 0.14116085 0.038900036
0.1738997 -0.26751968 -0.18415466 0.016734408 -0.12275642 -0.08023138 -0.054223813 0.052024215
-0.20715733 0.0450771 -0.03597483 -0.11910326 0.19989637 0.04407196 -0.17527291 -0.086399406
0.06840439 -0.024409924 0.16395433 0.03480125 -0.062637255 -0.1882322 0.09383407 0.066406704
-0.12164158 -0.045359716 -0.04068359 -0.012245534 -0.049694672 -0.12252127 0.052796256 -0.0412559
-0.0637418 0.049458228 -0.05073179 -0.0026467917 0.03586514 -0.018571366 0.1313344 0.1358679
0.12457545 -0.11701762 0.09911501 0.12507734 0.06571574 -0.006628957 0.013406915 0.030352749
-0.099317744 0.16116682 -0.1274884 -0.049832247 -0.00047848013 0.08589625 -0.08377045 -0.024890479
0.10858018 0.13568813 0.054972034 0.1834174 0.15115812 0.075581156 0.1510064 -0.047978666
-0.19254102 0.015764594 -0.043900277 -0.014239357 -0.05970301 -0.062463224 0.23892099 0.0052427473
-0.012336054 0.003874444 -0.09550698 -0.15636069 0.03365252 -0.012283553 -0.09139855 -0.018590856
-0.11562887 0.070214316 0.13419543 0.14884833 -0.07378862 0.020750018 -0.04067546 -0.20931643
-0.0686512 0.12696211 0.046489105 0.04290338 -0.043279953 0.08903054 -0.03538429 0.1353903
-0.00964871 -0.044534817 -0.05827824 -0.02056227 -0.11904111 -0.084883794 0.10509748 0.08017268
-0.048935443 0.032120783 0.10834476 -0.035114642 -0.10340246 -0.01584223 0.053658262 0.068322554
-0.0996803 0.08001615 -0.06115671 0.04311515 -0.011489355 -0.058892254 0.010259169 -0.00833695
-0.07635842 0.032316454 0.110860504 -0.046927255 -0.059707567 0.11056101 -0.12547569 0.0201601
0.057567053 0.051487233 -0.03426005 -0.02873194 0.0023468558 -0.07205534 -0.047170848 0.13723066
-0.005533459 -0.017573254 0.06026041 -0.1449727 -0.015215922 0.09724577 0.021900164 -0.14916539
-0.06473637 0.040340036 -0.02705981 0.032530803 -0.16373476 0.12016557 -0.04762738 0.029271835
-0.06750966 -0.018500661 0.016691573 0.0018171368 -0.008386865 -0.038768485 -0.15580413 0.1014677
-0.025972709 0.04939844 -0.002763173 0.09415919 0.0455269 -0.09933473 -0.031552523 0.010641023
0.008921399 -0.16462383 -0.041859176 -0.09358829 0.07483663 0.018131496 -0.03128397 -0.12900144
-0.036611162 -0.119107135 0.011203723 0.101013795 0.05217068 -0.062419586 -0.0032680603 0.089277595
0.012197783 0.08726334 0.0071738837 -0.097874895 0.027893208 0.09037853 -0.024893682 0.006389045
0.030654218 0.056264292 -0.07803702 0.054820318 -0.066583164 0.018694237 -0.05256285 -0.030701537
-0.02132576 -0.092906274 -0.05029913 0.0757616 -0.013422954 0.06719749 -0.088461995 0.093144186
-0.00029163374 -0.054600287 0.03232989 0.024369424 0.05815649 0.018791575 -0.020296697 0.061211728
0.11674833 -0.05934996 0.03279183 0.0370256 -0.04080804 0.042691734 -0.083788306 -0.032787703
-0.06081812 -0.03033114 -0.046646852 -0.06263912 0.009384112 -0.030032998 -0.042416435 0.059976086
00000000: 289d 33bd 86ad 65bd 8ba2 d9bd 12c9 7b3d
00000010: ebd0 41bd 0838 35bd c9e4 243e 71f8 bf3c
00000020: 194e 06be e087 953d d3d8 823c 0c12 09be
00000030: 9051 e63d 2776 3ebe 612f 2f3e 9e76 173e
00000040: f091 cabd d853 0e3c 4387 87bd 03f0 5b3d
00000050: d51f 533b 846f 24bd 788c 103e a555 1f3d
00000060: c312 323e 57f8 88be 0a93 3cbe 9916 893c
00000070: b867 fbbd 5a50 a4bd ca19 5ebd 5817 553d
00000080: 0d21 54be c4a2 383d 585a 13bd 69ec f3bd
00000090: a2b1 4c3e cd84 343d be7a 33be 2cf2 b0bd
000000a0: 9a17 8c3d 52f7 c7bc a5e3 273e c18b 0e3d
000000b0: f647 80bd f1bf 40be 142c c03d 3d00 883d
000000c0: 381f f9bd 1ccb 39bd d6a3 26bd 7ea1 48bc
000000d0: a48c 4bbd 6eec fabd e340 583d f2fb 28bd
000000e0: 108b 82bd b694 4a3d 23cc 4fbd cc75 2dbb
000000f0: 53e7 123d fa22 98bc 867c 063e f420 0b3e
00000100: 6a21 ff3d efa6 efbd cffc ca3d 4614 003e
00000110: f995 863d b937 d9bb ada8 5b3c 54a6 f83c
00000120: 1a67 cbbd ea08 253e 528c 02be e61c 4cbd
00000130: 84dc fab9 60ea af3d d78f abbd 1ee7 cbbc
00000140: 495f de3d d4f1 0a3e 5b2a 613d c5d1 3b3e
00000150: 32c9 1a3e 4bca 9a3d 6ca1 1a3e 4785 44bd
00000160: 7929 45be c024 813c c7d0 33bd 314c 69bc
00000170: 258b 74bd 70d9 7fbd b4a7 743e 5acb ab3b
00000180: 291d 4abc 62ea 7d3b 2a99 c3bd 041d 20be
00000190: 3ad7 093d f540 49bc 2a2f bbbd da4b 98bc
000001a0: d4ce ecbd 86cc 8f3d 876a 093e b26b 183e
000001b0: 7d1e 97bd f1fb a93c 509b 26bd 0c57 56be
000001c0: 0099 8cbd 5b02 023e 5c6b 3e3d 74bb 2f3d
000001d0: 5246 31bd a555 b63d 1eef 10bd c1a3 0a3e
000001e0: 9f15 1ebc 246a 36bd 2ab5 6ebd 3572 a8bc
000001f0: d3cb f3bd 8ed7 adbd 593d d73d 9331 a43d
00000200: 8870 48bd 1591 033d dce3 dd3d 5fd4 0fbd
00000210: abc4 d3bd 90c7 81bc c4c8 5b3d b2ec 8b3d
00000220: 2f25 ccbd 82df a33d 757f 7abd 8399 303d
00000230: d93d 3cbc 0139 71bd 1316 283c b497 08bc
00000240: ce61 9cbd 425e 043d d50a e33d cb36 40bd
00000250: ec8f 74bd d06d e23d b37c 00be cb26 a53c
00000260: 6ecb 6b3d 47e4 523d 4454 0cbd 3f5f ebbc
00000270: b5cd 193b c091 93bd 3836 41bd 3286 0c3e
00000280: 0552 b5bb c9f5 8fbc 9fd3 763d b973 14be
00000290: 344c 79bc ca28 c73d f967 b33c d0be 18be
000002a0: 8194 84bd 983b 253d 89ac ddbc 053f 053d
000002b0: 16aa 27be 5e19 f63d ed14 43bd 7dcb ef3c
000002c0: 8142 8abd b38e 97bc c4bc 883c fe2c ee3a
000002d0: 1069 09bc b4cb 1ebd 1e8b 1fbe 4cce cf3d
000002e0: b8c4 d4bc 0556 4a3d 5a16 35bb 89d6 c03d
000002f0: 6a7a 3a3d 0270 cbbd 383d 01bd af57 2e3c
00000300: 0f2b 123c 2693 28be 8774 2bbd 38ab bfbd
00000310: f243 993d 8188 943c 9f23 00bd f418 04be
00000320: 96f5 15bd 71ee f3bd d28f 373c 52e0 ce3d
00000330: ecb0 553d aeab 7fbd f42c 56bb 2cd7 b63d
00000340: 36d9 473c 1fb7 b23d e612 eb3b a272 c8bd
00000350: 4c80 e43c 6118 b93d d6ed cbbc 325b d13b
00000360: 8e1e fb3c 6375 663d e0d1 9fbd 458b 603d
00000370: c15c 88bd a824 993c 254c 57bd ca81 fbbc
00000380: 5cb3 aebc a545 bebd 7606 4ebd e628 9b3d
00000390: f3eb 5bbc d69e 893d 902b b5bd 61c2 be3d
000003a0: 6be6 98b9 8da4 5fbd 596c 043d 63a2 c73c
000003b0: 8035 6e3d caf0 993c 4245 a6bc 26b9 7a3d
000003c0: c019 ef3d f218 73bd ba50 063d 28a8 173d
000003d0: 5526 27bd 87dd 2e3d 3499 abbd 664c 06bd
000003e0: 6c1c 79bd 0379 f8bc c510 3fbd f048 80bd
000003f0: d2bf 193c c307 f6bc dbbc 2dbd 7ca9 753d

layers.1.bias f4 [128]
-0.12575616 -0.06939112 -0.14021307 -0.1431634 0.15725881 -0.02345812 0.16985962 0.030189905
-0.2825368 -0.12784372 -0.22341117 -0.032321595 0.09556876 -0.054418758 -0.028472845 -0.10881179
-0.21574847 0.00011436733 -0.1297146 0.041907787 0.09643674 -0.16954842 0.11444699 -0.3729917
0.26540324 0.101882845 -0.054801293 -0.13258582 -0.16181763 0.020270474 -0.08309564 -0.00061537547
0.16801846 0.024483617 0.07361173 0.055258658 0.031994477 -0.20676787 0.23937733 -0.14930762
-0.009129606 -0.057760954 0.16660544 0.029895764 -0.13317652 0.022588257 -0.1336668 -0.24962111
-0.111224994 -0.010115787 -0.2442641 -0.005046225 -0.13290302 -0.065427326 -0.05091801 -0.11763728
0.24455923 -0.09082509 -0.19986342 -0.09811875 -0.09087963 0.093611 -0.06578817 -0.18291225
-0.041488793 0.072265245 -0.052432753 0.10074119 -0.1707502 -0.031195201 0.07003665 -0.18776341
-0.060239587 0.0755334 -0.100683965 -0.13541858 -0.1858884 -0.051582094 0.0076371534 -0.22334106
0.052235425 0.05811735 0.19846553 0.21424752 -0.080484785 -0.1133615 -0.070511386 -0.0348976
0.03381559 0.24672374 0.035530433 0.1616283 0.15413119 -0.10811876 -0.10066372 -0.0032211898
0.12749372 -0.18393138 -0.22142641 -0.15273805 0.06268274 0.044172563 -0.079180844 -0.04582939
0.14418775 0.09397329 -0.166878 -0.08377721 0.088860825 -0.036567304 0.09861865 0.062670864
0.13938765 0.07885442 0.06557147 0.04279033 0.0005279753 -0.0090765655 -0.09747869 0.02239634
-0.049515147 0.06579755 0.25336266 0.23673649 -0.04848786 -0.111340456 0.15952997 0.10930548
00000000: 39c6 00be ee1c 8ebd 0494 0fbe 6d99 12be
00000010: 7408 213e 3e2b c0bc aeef 2d3e d250 f73c
00000020: aaa8 90be 77e9 02be e6c5 64be a663 04bd
00000030: 8eb9 c33d 34e6 5ebd e23f e9bc b7d8 debd
00000040: 2bed 5cbe 7ed8 ef38 e7d3 04be 80a7 2b3d
00000050: a080 c53d 1a9e 2dbe 2f63 ea3d c5f8 bebe
00000060: efe2 873e f4a7 d03d 5277 60bd 94c4 07be
00000070: 85b3 25be 440e a63c 0c2e aabd 2651 21ba
00000080: 080d 2c3e de91 c83c bfc1 963d e756 623d
00000090: a40c 033d f5ba 53be 551f 753e 19e4 18be
000000a0: 5894 15bc c096 6cbd 9e9a 2a3e f6e7 f43c
000000b0: 6d5f 08be 020b b93c f3df 08be ad9c 7fbe
000000c0: eec9 e3bd b0bc 25bc 5e20 7abe ce5a a5bb
000000d0: bb17 08be c3fe 85bd 678f 50bd d0eb f0bd
000000e0: bc6d 7a3e 8102 babd ffa8 4cbe 7cf2 c8bd
000000f0: 191f babd 20b7 bf3d f3bb 86bd 594d 3bbe
00000100: 27f0 29bd cdff 933d bac3 56bd 6651 ce3d
00000110: 24d9 2ebe 148d ffbc 606f 8f3d 0d45 40be
00000120: c9bd 76bd 41b1 9a3d 6533 cebd 2bab 0abe
00000130: 8759 3ebe bf47 53bd 1641 fa3b 85b3 64be
00000140: d0f4 553d 750c 6e3d 8c3a 4b3e b463 5b3e
00000150: 35d5 a4bd 132a e8bd 4668 90bd c9f0 0ebd
00000160: 3782 0a3d 26a5 7c3e 5c88 113d e481 253e
00000170: 91d4 1d3e 5e6d ddbd c828 cebd 991a 53bb
00000180: b78d 023e 8258 3cbe 9bbd 62be 5d67 1cbe
00000190: cf5f 803d 4aee 343d 9129 a2bd 99b7 3bbd
000001a0: f4a5 133e 1175 c03d 11e2 2abe 6393 abbd
000001b0: aafc b53d 99c7 15bd 93f8 c93d 9559 803d
000001c0: a3bb 0e3e 6d7e a13d 564a 863d ea44 2f3d
000001d0: d367 0a3a e0b5 14bc e8a2 c7bd 8778 b73c
000001e0: 65d0 4abd dec0 863d c0b8 813e 0d6b 723e
000001f0: 359b 46bd 7706 e4bd d35b 233e 8ddb df3d

layers.2.weight f4 [64, 128]
0.27313757 -0.2676095 0.006806942 0.12952766 0.02219482 -0.01942434 0.09655599 -0.011571954
0.12866692 0.13664648 -0.2343242 -0.20640999 -0.064900205 -0.0413595 -0.052056253 -0.08870477
0.20199211 -0.038463127 0.14938542 0.112791926 -0.061450366 0.27773264 0.35632747 -0.030562317
-0.11033011 -0.17502712 -0.09311436 0.040197093 0.22949465 -0.022432774 -0.047663122 -0.13366738
0.03888861 0.27590668 -0.07280569 0.002258596 -0.068367526 0.006717664 0.08427801 -0.066358745
-0.36975178 0.081267394 -0.12111597 -0.19340189 -0.13454509 0.2626709 0.06783116 0.1507838
-0.16741118 0.074325256 -0.16409665 0.26237723 -0.27576682 -0.099459216 0.1193726 -0.06331721
0.09076789 -0.030319076 -0.08525253 0.054086577 0.08176926 -0.008025828 0.0890164 -0.11488228
-0.007455182 -0.23741509 0.06733279 -0.02816125 0.014200343 -0.5229737 0.055712838 -0.08201999
0.05703233 -0.079982966 -0.2296648 -0.077652566 -0.075868204 0.30509508 0.18265279 0.10696064
-0.1433637 0.14520924 0.012347221 0.04694355 0.036463436 -0.12163157 -0.007318811 0.07502797
0.008206167 0.055623174 0.15047655 -0.100752965 -0.1500092 0.039799944 -0.08033126 -0.17222598
-0.17866205 -0.03590911 -0.04379045 0.084849276 0.11065041 0.09751483 0.09208382 -0.039835054
0.2712688 0.1509735 0.059263323 -0.08571876 0.03842601 -0.023398979 0.09213536 -0.01283029
0.1263856 -0.3946364 -0.06084239 -0.05149435 0.063924074 0.22723618 0.28811505 -0.13423267
0.014642043 0.1355164 -0.6333763 0.20190053 0.19777769 0.024300527 0.10512053 0.091173574
-0.1062073 -0.12409913 -0.096463546 0.14741063 0.20491089 -0.03687131 -0.0055418494 0.05896664
-0.09442453 -0.046410095 -0.4542003 -0.20251797 -0.17569952 -0.15840024 -0.17556721 -0.10465623
0.022496132 -0.049993005 -0.23914805 -0.124336265 -0.16246605 -0.01855401 0.09436856 0.44707885
-0.018543854 -0.029678712 -0.01869755 0.034070343 -0.042001236 -0.054092545 0.12183047 -0.06239544
0.005545931 -0.030223466 -0.012484039 0.08462078 0.04226275 -0.09671079 -0.06760916 -0.07584102
-0.1821919 -0.087702915 0.085713275 -0.0016918891 -0.08431553 -0.009575727 -0.10612398 -0.17054537
-0.023704153 -0.15443017 -0.23122668 0.15814435 0.115711175 -0.16055436 -0.04510251 -0.081995696
0.09996547 0.02672438 -0.056355808 -0.1317154 0.0034602936 0.109653115 0.15183583 -0.27557334
0.110840224 0.11414521 0.043945327 0.13985078 0.079298936 0.026127666 0.006164871 0.055538304
-0.053477846 -0.009254827 -0.09994466 0.062261477 -0.09350998 0.005816119 0.10183713 -0.11559061
-0.15791047 0.18912438 0.16680053 0.088524215 -0.0029838514 -0.010996515 0.01848542 0.2983884
0.09787461 0.063631885 0.02779385 0.060147602 -0.19134451 -0.025999488 -0.027788768 -0.116807535
0.07761678 -0.15920089 -0.014790808 0.064262085 0.15164076 -0.028319594 0.11778894 -0.0108594345
0.13802324 -0.22846067 -0.029520983 0.12522781 -0.199786 -0.035843022 0.074862815 -0.07512376
0.02673317 0.123862945 -0.13360243 0.25876924 -0.06709516 0.087140195 -0.015615168 -0.12765095
-0.16835259 0.113141835 -0.16941941 -0.015229907 -0.0004894173 -0.02527177 -0.14001057 -0.18487048
00000000: b0d8 8b3e 1d04 89be c50c df3b e6a2 043e
00000010: e9d1 b53c cb1f 9fbc 26bf c53d 4b98 3dbc
00000020: 43c1 033e 0eed 0b3e aff2 6fbe 245d 53be
00000030: 66ea 84bd 9468 29bd f038 55bd d9aa b5bd
00000040: 05d7 4e3e 838b 1dbd 7ef8 183e 74ff e63d
00000050: 61b3 7bbd f932 8e3e 8e70 b63e d35d fabc
00000060: c1f4 e1bd 4f3a 33be beb2 bebd b5a5 243d
00000070: a500 6b3e f0c4 b7bc 683a 43bd 1ae0 08be
00000080: aa49 1f3d a443 8d3e 261b 95bd f404 143b
00000090: 4604 8cbd da1f dc3b f399 ac3d 18e7 87bd
000000a0: 1b50 bdbe 856f a63d a60b f8bd 250b 46be
000000b0: 30c6 09be cd7c 863e 10eb 8a3d 1267 1a3e
000000c0: d66d 2bbe d737 983d f408 28be 4f56 863e
000000d0: 4f31 8dbe 46b1 cbbd 9f79 f43d 74ac 81bd
000000e0: 84e4 b93d b65f f8bc e198 aebd e389 5d3d
000000f0: a476 a73d c37e 03bc 3b4e b63d 6747 ebbd
00000100: 994a f4bb f11c 73be c6e5 893d 6cb2 e6bc
00000110: 8ea8 683c 9be1 05bf 2533 643d 19fa a7bd
00000120: bc9a 693d 1cce a3bd 402d 6bbe 4f08 9fbd
00000130: ca60 9bbd 6c35 9c3e 5509 3b3e 2e0e db3d
00000140: efcd 12be bbb1 143e 004c 4a3c e147 403d
00000150: af5a 153d f919 f9bd a3d2 efbb 44a8 993d
00000160: 2973 063c 20d5 633d 8616 1a3e 9257 cebd
00000170: 039c 19be 4405 233d b784 a4bd 025c 30be
00000180: 2ff3 36be 6e15 13bd 9d5d 33bd 75c5 ad3d
00000190: af9c e23d dbb5 c73d 7196 bc3d 152a 23bd
000001a0: bfe3 8a3e cc98 1a3e 19be 723d 518d afbd
000001b0: 9864 1d3d 37af bfbc 77b1 bc3d 2336 52bc
000001c0: 3a6b 013e c80d cabe df35 79bd bdeb 52bd
000001d0: a0ea 823d 9ab0 683e d183 933e 4a74 09be
000001e0: 2ee5 6f3c d0c4 0a3e f324 22bf 03bf 4e3e
000001f0: 3c86 4a3e e611 c73c 6f49 d73d 36b9 ba3d
00000200: 3783 d9bd af27 febd ae8e c5bd d0f2 163e
00000210: 29d4 513e 5f06 17bd 6798 b5bb 0187 713d
00000220: a661 c1bd 8318 3ebd f18c e8be df60 4fbe
00000230: 93ea 33be ac33 22be e4c7 33be 0156 d6bd
00000240: cf49 b83c 77c5 4cbd 3ae3 74be 03a4 febd
00000250: 805d 26be 94fe 97bc 4e44 c13d 85e7 e43e
00000260: 48e9 97bc c520 f3bc 9b2b 99bc 588d 0b3d
00000270: 7d09 2cbd 2590 5dbd 4182 f93d 5c92 7fbd
00000280: a4ba b53b 3497 f7bc db89 4cbc a94d ad3d
00000290: b51b 2d3d 4f10 c6bd ac76 8abd 8952 9bbd
000002a0: 8390 3abe 969d b3bd 718a af3d 61c2 ddba
000002b0: 9fad acbd 83e3 1cbc 8757 d9bd 72a3 2ebe
000002c0: 362f c2bc f122 1ebe b0c6 6cbe 98f0 213e
000002d0: fbf9 ec3d 5d68 24be 69bd 38bd 5ced a7bd
000002e0: b2ba cc3d 16ed da3c 59d5 66bd 67e0 06be
000002f0: 18c6 623b d091 e03d da7a 1b3e f317 8dbe
00000300: 3300 e33d f7c4 e93d 0400 343d 0b35 0f3e
00000310: 7b67 a23d b009 d63c b002 ca3b 227c 633d
00000320: 960b 5bbd 8fa1 17bc c9af ccbd e405 7f3d
00000330: 2982 bfbd 2495 be3b fc8f d03d c5ba ecbd
00000340: 48b3 21be d2a9 413e c2cd 2a3e 2f4c b53d
00000350: b88c 43bb ba2a 34bc bc6e 973c 5dc6 983e
00000360: 7c72 c83d 6f51 823d eeaf e33c 555d 763d
00000370: d1ef 43be e1fc d4bc 45a5 e3bc ca38 efbd
00000380: 8cf5 9e3d 8f05 23be 2555 72bc d79b 833d
00000390: b747 1b3e 7efe e7bc 543b f13d c5eb 31bc
000003a0: f755 0d3e 98f1 69be fdd5 f1bc b83b 003e
000003b0: b494 4cbe 22d0 12bd ad51 993d 7cda 99bd
000003c0: 85ff da3c dbab fd3d 13cf 08be 677d 843e
000003d0: 3069 89bd 8f76 b23d c3d6 7fbc eeb6 02be
000003e0: 9f64 2cbe e8b6 e73d 487c 2dbe dc86 79bc
000003f0: 3d4c 00ba be06 cfbc ee5e 0fbe b04e 3dbe

layers.2.bias f4 [64]
0.0062737474 0.038100973 0.034120895 -0.031135757 0.03167212 0.037930857 -0.1859942 0.044726323
-0.12901582 0.05892573 0.021527726 0.014371283 -0.011598507 -0.066451825 0.11086235 0.03614593
0.02065907 0.04773308 0.027741667 -0.072993346 0.046761964 0.061242763 -0.00020661057 -0.06830128
-0.02562501 -0.038441803 -0.030710146 0.029494105 0.13765277 -0.064845 0.08895978 -0.24015756
0.034941085 0.05532531 0.026119377 0.044898525 0.17312503 -0.022475047 -0.10534897 0.07591552
-0.06493023 0.057294104 0.041816857 -0.030964516 -0.056212608 0.07841275 0.0025092883 -0.04899593
0.029531106 -0.14150953 -0.0061596762 -0.045507073 -0.06445419 0.14299916 -0.039068125 0.055782
0.14676547 -0.18716231 -0.053361986 0.0077550546 -0.06325492 -0.025867546 -0.04430733 0.011622181
00000000: 0294 cd3b c40f 1c3d 5ac2 0b3d 6a10 ffbc
00000010: a0ba 013d 635d 1b3d 4375 3ebe f332 373d
00000020: b91c 04be 1b5c 713d ea5a b03c 8875 6b3c
00000030: aa07 3ebc e517 88bd cd0b e33d c10d 143d
00000040: 363d a93c c383 433d 7e42 e33c 897d 95bd
00000050: 7989 3f3d b1d9 7a3d 9aa5 58b9 8be1 8bbd
00000060: 8aeb d1bc 2775 1dbd d893 fbbc 9f9d f13c
00000070: d9f4 0c3e 75cd 84bd 8c30 b63d ddeb 75be
00000080: 621e 0f3d cb9c 623d 4ef8 d53c 84e7 373d
00000090: b047 313e 971d b8bc 33c1 d7bd 9979 9b3d
000000a0: 24fa 84bd 39ad 6a3d 2748 2b3d 4ca9 fdbc
000000b0: 313f 66bd dd96 a03d df72 243b f5af 48bd
000000c0: 38eb f13c e0e7 10be 1cd7 c9bb a065 3abd
000000d0: 8f00 84bd 5f6e 123e e605 20bd ab7b 643d
000000e0: b049 163e 7aa7 3fbe 1992 5abd 1d1e fe3b
000000f0: cc8b 81bd 2de8 d3bc 9a7b 35bd f66a 3e3c

readout.weight f4 [1, 64]
-0.93671864 -0.93358976 -0.94837904 0.9318318 0.9576266 1.0068841 -0.90276664 -1.131604
1.3224612 1.0832424 -1.1587892 1.0204141 -1.3438059 -0.9334205 1.2289774 -1.0497946
-1.0428233 1.0264082 0.9455788 -0.834487 -0.982172 1.0666474 0.82431346 1.0443912
-1.007874 -1.0418111 -1.1442859 0.9245262 -0.9223288 1.021281 0.9683506 -1.0305563
-0.8000113 0.9717653 -0.9310436 -1.1896958 0.91261834 -1.0577241 -1.063803 1.0442709
-0.9149082 -0.88936067 -1.0140353 -1.0462687 1.3285031 1.093924 1.030625 0.8261729
-1.1186872 0.8854236 1.1612985 -0.8199875 -0.9579061 -1.270705 -0.95856404 1.2515715
-1.3335183 1.2327884 1.0623201 1.017626 0.851499 1.0075918 -0.9310589 1.1511475
00000000: cbcc 6fbf bdff 6ebf f8c8 72bf 878c 6e3f
00000010: 0427 753f 94e1 803f b71b 67bf 66d8 90bf
00000020: 6946 a93f b0a7 8a3f 3453 94bf ee9c 823f
00000030: d501 acbf a5f4 6ebf 224f 9d3f ab5f 86bf
00000040: 3c7b 85bf 5861 833f 7411 723f f1a0 55bf
00000050: a06f 7bbf e787 883f 3506 533f 9cae 853f
00000060: 0402 81bf 115a 85bf f677 92bf c0ad 6c3f
00000070: be1d 6cbf 56b9 823f d3e5 773f 45e9 83bf
00000080: 8acd 4cbf 9cc5 783f e058 6ebf f447 98bf
00000090: 5ba1 693f 8163 87bf b22a 88bf abaa 853f
000000a0: 6c37 6abf 24ad 63bf e9cb 81bf 22ec 85bf
000000b0: 640c aa3f b405 8c3f 85eb 833f 1180 533f
000000c0: 2431 8fbf 1fab 623f 6ea5 943f b3ea 51bf
000000d0: 5639 75bf 76a6 a2bf 7464 75bf 7f33 a03f
000000e0: bab0 aabf 03cc 9d3f 1bfa 873f 9241 823f
000000f0: d7fb 593f c5f8 803f e059 6ebf cd58 933f

layers.0.weight f4 [128, 17]
0.93144304 0.15766749 0.58940876 -0.39208508 -0.17720473 -0.38076594 -0.95589536 -0.6907649
0.011335612 -0.29601797 0.10107831 -0.018654441 0.009062659 -0.02374917 -0.031894963 -0.018203855
0.013318043 1.5994171 -1.3748212 0.1524997 -0.115894966 0.2982712 0.21203099 0.06325925
0.11301307 0.43820876 -0.10130978 -0.2742059 -0.15886906 0.05518937 0.01503318 0.07739254
-0.0077927415 -0.07911178 0.07393029 0.88558286 0.16001245 -0.2824441 0.25590703 -0.09904055
0.007175101 0.4685686 -0.73220533 -0.21388388 -0.1270682 -0.17819175 -0.13615072 0.023186605
-0.05315337 -0.0021577578 0.064146675 -1.0693444 -0.6696565 0.4286007 -0.5018172 0.024398902
0.37219822 0.10734716 -0.060107384 0.56390375 -0.6457186 -0.22798087 0.025570102 0.020952495
-0.024775006 -0.28725243 -0.09922164 -0.015488496 0.033348236 0.10306434 -0.02598002 0.30069572
-0.31693307 -0.27752602 -0.22272584 -0.10368491 0.15569146 0.22907051 -0.018439054 -0.06599555
-0.05719331 0.004074595 0.056189522 -0.0140485875 -0.009767468 -0.7119928 0.48898897 0.40409896
-0.07900384 -0.1187803 0.27945927 0.23097964 0.15620396 -0.112128496 -0.17538919 0.04430165
0.06691749 0.014750069 0.018397206 -0.075036265 -0.23197879 -0.14329155 0.22657597 0.026719192
0.6281153 0.44555983 0.31669852 -0.38385987 0.22361113 -0.15812303 -0.54870707 0.07143112
-0.5113691 0.06321383 0.047986276 -0.19207616 -0.2477049 -0.18098348 0.06406026 -1.0425436
0.6339056 0.09986595 -0.18501438 0.028521342 0.5611589 -0.1465787 0.109222494 0.2837923
-0.24687667 0.30293614 0.15437971 0.054625347 -0.027096959 0.17652732 0.047681633 0.07482558
-0.5718269 0.17537768 0.5721504 -0.38504982 0.066223405 -1.1487583 -0.6645995 -0.019465717
-0.407579 0.17701076 -0.19580826 0.028845353 0.0425019 0.022274964 -0.37966204 -0.15569256
-0.0983123 0.84883004 -0.2298487 -0.35204107 0.18947886 -0.49491864 0.62305284 0.097951025
0.523004 0.15147838 0.09544343 -0.3821715 0.19160527 0.0015423796 0.042668857 -0.012510942
-0.08666364 -0.053867552 -0.17121863 0.1354193 -0.5368042 -0.56784296 -0.30874798 -0.18150926
0.015640056 0.2119469 0.393127 -0.45258075 -0.14378557 0.019640042 -0.09876955 -0.13509369
0.12200473 0.07007699 0.047593318 1.2393934 -0.33286718 -0.69846714 -0.22953074 0.039766062
0.547346 -0.16051695 0.026151445 0.5440077 0.26931226 -0.52235776 -0.12676537 -0.08365416
0.0068391548 0.12112676 0.094832934 0.026623305 0.36245087 0.09403106 0.59095246 0.038284738
-0.08495568 -0.45247802 -0.31310713 -0.1864936 0.17733133 0.3973354 0.27288994 0.09000434
-0.029750468 0.0056412583 -0.024684178 -0.013395952 -0.068475045 -1.8446614 0.69645095 0.31028688
-0.24627408 -0.11014308 0.86970955 -0.61117166 -0.08176804 0.06260188 -0.6944713 -0.00064521615
-0.06588922 0.038905058 -0.008738905 -0.1363953 0.034375787 0.0102935545 0.25625175 -0.22421506
-0.53210425 0.3876199 -0.51905787 -0.01429919 -0.86742336 0.40154114 -0.05759208 0.20243746
-0.7229944 -0.16049102 -0.159233 -0.02989057 0.16330679 0.03811202 0.06547437 0.57852155
00000000: 0d73 6e3f 9673 213e 7ee3 163f 60bf c8be
00000010: 2875 35be c1f3 c2be 8fb5 74bf f8d5 30bf
00000020: 01b9 393c ab8f 97be 2502 cf3d 33d1 98bc
00000030: 8c7b 143c 9f8d c2bc 4ba4 02bd 4020 95bc
00000040: ec33 5a3c b3b9 cc3f 24fa afbf e228 1c3e
00000050: 575a edbd 01b7 983e a71e 593e 118e 813d
00000060: 6573 e73d e65c e03e 807b cfbd b764 8cbe
00000070: 92ae 22be 400e 623d ba4d 763c fb7f 9e3d
00000080: 415a ffbb 5b05 a2bd c468 973d 8fb5 623f
00000090: 4eda 233e 839c 90be 3f06 833e c6d5 cabd
000000a0: 1c1d eb3b 39e8 ef3e cf71 3bbf 6004 5bbe
000000b0: 2b1e 02be e677 36be 186b 0bbe d6f1 bd3c
000000c0: 59b7 59bd 2b69 0dbb 555f 833d 47e0 88bf
000000d0: 9c6e 2bbf 8d71 db3e 1877 00bf 35e0 c73c
000000e0: c490 be3e d4d8 db3d 2933 76bd ff5b 103f
000000f0: d04d 25bf d173 69be 6478 d13c 91a4 ab3c
00000100: f4f4 cabc c012 93be b734 cbbd 76c3 7dbc
00000110: 2998 083d 6613 d33d 0dd4 d4bc caf4 993e
00000120: 0d45 a2be e417 8ebe 3e12 64be c158 d4bd
00000130: 956d 1f3e 7691 6a3e 800d 97bc ad28 87bd
00000140: 8843 6abd 2e84 853b fc26 663d 0c2c 66bc
00000150: bb07 20bc 2945 36bf c35c fa3e 0fe6 ce3e
00000160: c4cc a1bd 1643 f3bd 4915 8f3e ed85 6c3e
00000170: eef3 1f3e a0a3 e5bd 3999 33be a675 353d
00000180: 090c 893d 46aa 713c bdb5 963c 9dac 99bd
00000190: d98b 6dbe 05bb 12be 8803 683e 35e2 da3c
000001a0: 2acc 203f 6b20 e43e 4f26 a23e 4889 c4be
000001b0: 51fa 643e 01eb 21be 1178 0cbf 7b4a 923d
000001c0: 16e9 02bf 4176 813d 428d 443d 9daf 44be
000001d0: 5aa6 7dbe bc53 39be 0732 833d 1272 85bf
000001e0: a347 223f 8586 cc3d 6974 3dbe 97a5 e93c
000001f0: 1ca8 0f3f ba18 16be 0bb0 df3d 394d 913e
00000200: 3dcd 7cbe 721a 9b3e b715 1e3e d4be 5f3d
00000210: 71fa ddbc 94c3 343e d14d 433d 273e 993d
00000220: 3f63 12bf 3596 333e 7378 123f 4025 c5be
00000230: 23a0 873d 830a 93bf 3123 2abf 9176 9fbc
00000240: 32ae d0be 4f42 353e f681 48be 174d ec3c
00000250: 7916 2e3d fc79 b63c 1063 c2be df6d 1fbe
00000260: f657 c9bd ed4c 593f 755d 6bbe ba3e b4be
00000270: bf06 423e fa65 fdbe 6480 1f3f 8c9a c83d
00000280: 97e3 053f 261d 1b3e d877 c33d fcab c3be
00000290: 2c34 443e ac29 ca3a 8ac5 2e3d b2fa 4cbc
000002a0: b57c b1bd 39a4 5cbd f053 2fbe 5bab 0a3e
000002b0: 006c 09bf 285e 11bf 3714 9ebe 90dd 39be
000002c0: 931f 803c 9c08 593e f147 c93e aab8 e7be
000002d0: 863c 13be 27e4 a03c b147 cabd 0056 0abe
000002e0: 9edd f93d 8684 8f3d 36f1 423d 71a4 9e3f
000002f0: 916d aabe bece 32bf 1b0a 6bbe bde1 223d
00000300: de1e 0c3f 8e5e 24be 8e3b d63c 1744 0b3f
00000310: 4ce3 893e 3db9 05bf c8ce 01be df52 abbd
00000320: fd1a e03b 4f11 f83d c537 c23d 1e19 da3c
00000330: 2993 b93e 5b93 c03d a948 173f 75d0 1c3d
00000340: 3efd adbd 33ab e7be 944f a0be 2ef8 3ebe
00000350: 5896 353e 8c6f cb3e 3bb8 8b3e 3254 b83d
00000360: 41b7 f3bc 4eda b83b 7936 cabc b27a 5bbc
00000370: a53c 8cbd dd1d ecbf 9c4a 323f ecdd 9e3e
00000380: 462f 7cbe b292 e1bd 49a5 5e3f bf75 1cbf
00000390: 0176 a7bd 6a35 803d dfc8 31bf b923 29ba
000003a0: edf0 86bd e95a 1f3d a02d 0fbc 36ab 0bbe
000003b0: a0cd 0c3d 4ca6 283c 6e33 833e a298 65be
000003c0: fc37 08bf 1e76 c63e fae0 04bf 2647 6abc
000003d0: 750f 5ebf cd96 cd3e ace5 6bbd c44b 4f3e
000003e0: 2916 39bf c257 24be fa0d 23be 12dd f4bc
000003f0: e539 273e 591b 1c3d 6d17 863d fd19 143f

layers.0.bias f4 [128]
0.43866277 0.687828 -0.17311323 0.74979675 0.7122255 -0.64456606 0.016889635 -0.08317422
-0.19380333 0.48273218 0.2522854 0.51131123 1.0197563 0.16349505 0.30387282 0.17687003
-0.885374 0.21559566 0.31812486 0.04535286 0.7276075 0.75511986 -0.14037143 0.85725117
0.21777554 0.2526802 0.8006535 1.0426298 0.0004382492 1.1301625 0.20566395 0.21902539
0.48762777 0.039123137 0.073602885 -0.23436907 -0.27550858 0.88850075 -0.40485406 -0.31655312
-0.4141517 0.6895353 0.06095039 -0.03670226 -0.5933187 -0.2042119 -0.32342643 0.64862156
-0.2885224 0.62198985 0.3718516 0.38285294 0.034777675 -0.30045295 -0.39573628 0.027449071
0.5609222 -0.033480715 -0.118486874 -0.39715526 0.26767755 -0.30499384 -0.63108397 0.762784
-0.13856296 -0.4831376 0.5343338 -0.26956123 -0.44952762 -0.05213559 0.35606614 0.4859706
-0.022690779 -0.12134714 -0.32940558 0.68035954 -0.21118881 0.050808128 0.6630609 0.10900377
0.61079544 0.11323621 -0.30055913 -0.62461823 0.028693838 0.04034264 0.21777193 0.0014195925
-0.5546286 0.3506259 -0.15415351 -0.6727685 -0.12539111 0.40535054 0.13888945 -0.024998982
0.21545283 -0.09889324 -0.23168421 0.39409027 -0.08332293 -0.20941222 0.57468706 -0.22495146
1.0073917 -0.11179125 0.18225774 -0.56749475 0.20045516 0.80395824 0.46349207 0.5082
-0.24832816 0.56252736 0.11266955 -0.20436662 -0.15694344 0.87669134 0.6274252 0.44434097
-0.011742549 -0.08284452 0.35531834 0.31271252 -0.59996873 -0.42290467 -0.45290658 0.056984227
00000000: 6898 e03e 7f15 303f 9844 31be aef2 3f3f
00000010: 6954 363f 4802 25bf 225c 8a3c 3f57 aabd
00000020: 6174 46be ac28 f73e 8d2b 813e 4be5 023f
00000030: 6087 823f 3f6b 273e 3895 9b3e 6b1d 353e
00000040: dfa7 62bf 1cc5 5c3e 43e1 a23e ecc3 393d
00000050: 7c44 3a3f 894f 413f 87bd 0fbe d074 5b3f
00000060: 8d00 5f3e 4d5f 813e a1f7 4c3f e574 853f
00000070: d0c4 e539 2aa9 903f 9299 523e 3148 603e
00000080: 59aa f93e 953f 203d 1cbd 963d 72fe 6fbe
00000090: 760f 8dbe c974 633f 0849 cfbe 4013 a2be
000000a0: b10b d4be 6385 303f 1ea7 793d 1c55 16bd
000000b0: bce3 17bf ed1c 51be 2698 a5be 100c 263f
000000c0: 35b9 93be ba3a 1f3f 5563 be3e 4d05 c43e
000000d0: 0973 0e3d f8d4 99be f29d cabe e0dc e03c
000000e0: 9998 0f3f 1323 09bd 3fa9 f2bd ef57 cbbe
000000f0: 080d 893e 2728 9cbe b88e 21bf d045 433f
00000100: 73e3 0dbe d05d f7be 1aca 083f ee03 8abe
00000110: 7c28 e6be 218c 55bd 4d4e b63e 23d1 f83e
00000120: 03e2 b9bc d984 f8bd d9a7 a8be 0b2c 2e3f
00000130: e141 58be 2f1c 503d 5cbe 293f 5e3d df3d
00000140: 175d 1c3f 63e8 e73d e3e2 99be fbe6 1fbf
00000150: 570f eb3c 533e 253d 9bff 5e3e 9f11 ba3a
00000160: 24fc 0dbf 3d85 b33e 6bda 1dbe 8e3a 2cbf
00000170: 8766 00be 1b8a cf3e 0939 0e3e aaca ccbc
00000180: ab9f 5c3e 8a88 cabd a03e 6dbe 33c6 c93e
00000190: 36a5 aabd 2870 56be b11e 133f ad59 66be
000001a0: 36f2 803f d0f2 e4bd c6a1 3a3e 5647 11bf
000001b0: 1e44 4d3e 35d0 4d3f d54e ed3e 6519 023f
000001c0: bd49 7ebe cb01 103f 4bbf e63d 7c45 51be
000001d0: c8b5 20be d86e 603f f09e 203f a980 e33e
000001e0: d263 40bc 63aa a9bd 49ec b53e db1b a03e
000001f0: 8d97 19bf f686 d8be 5fe3 e7be 4b68 693d

layers.1.weight f4 [128, 128]
0.16019839 0.08728863 -0.00755106 0.1505879 -0.0071943295 -0.10204153 -0.020156402 -0.05257603
0.16210012 0.08499415 0.02283366 0.13657671 -0.027477087 -0.056864247 0.07870999 -0.047407426
0.02450529 0.12007508 0.008487402 0.03979539 -0.050352976 0.06883532 0.07461344 0.08420522
0.083909094 -0.14598998 -0.19193563 0.16168696 0.1824685 0.4431369 -0.02018355 0.073740855
0.18112265 0.038044807 -0.08575585 -0.12706816 -0.12504615 0.00956144 -0.05578205 0.043315336
-0.12628058 0.0016812206 -0.17870553 0.01997781 -0.042100884 -0.062027644 0.0012739077 -0.0748991
0.109615825 -0.11753948 -0.014700609 -0.009505661 0.16533212 0.05545756 -0.026374632 0.3439835
-0.15814656 -0.019305473 -0.13580728 -0.055132575 0.059079733 0.032710165 -0.06408931 0.11506123
-0.013158397 -0.06632236 -0.10882235 0.14675237 0.06811157 0.05269939 -0.083027616 0.028582774
-0.07345002 0.077806875 0.0069899647 0.028567962 -0.0267326 0.016669322 -0.00374679 -0.0036437896
0.06593563 0.071932495 -0.12795497 0.027322473 -0.08685942 0.0705511 0.07204162 0.20000124
-0.06418667 0.13303277 -0.0006068004 -0.17652676 0.011917388 0.16220166 0.20977923 -0.026798483
-0.24224946 -0.012456681 -0.2270513 -0.10176979 -0.0052099535 -0.05174988 0.047290817 -0.08250015
0.09369618 0.10575861 0.09856007 -0.11197935 0.064816125 0.017583063 -0.13085996 0.119195595
-0.10669044 0.06739626 -0.37551972 -0.15190503 -0.036382653 0.38807994 0.043100543 -0.054203786
-0.031897724 -0.038706377 0.10127572 0.15158305 -0.08857032 -0.13527499 -0.030266585 -0.095424764
0.041884974 0.052247208 0.038864847 -0.089457385 -0.036131207 0.03416775 -0.20301387 -0.14268623
-0.008795328 -0.035588082 0.01101274 0.16571663 0.18836483 -0.022935554 0.030643923 0.13969943
-0.048831895 -0.11926368 0.043270476 -0.011605673 -0.13731427 0.010507185 -0.23363113 -0.17776142
-0.1118452 0.17883521 -0.11516962 0.008030634 -0.22139403 -0.104355805 0.1071961 0.08011853
-0.2861987 -0.2076886 0.26916924 0.0129449805 -0.06146589 0.08176806 0.24865854 -0.11750423
0.02299855 0.08932403 -0.058369342 -0.08303641 0.106851205 -0.061478183 0.21050657 -0.028295165
0.15685649 0.20207636 -0.033782147 0.2630736 -0.06624993 -0.04072666 0.17499919 0.13412988
0.046559304 0.16042595 -0.02395738 -0.12655953 0.02608685 0.11777611 0.038643233 -0.3634001
0.027100826 0.07592484 0.2645417 -0.34961307 -0.25904745 -0.31621343 -0.14908823 -0.150948
0.27867585 -0.20229582 0.13276783 -0.11406125 -0.028148891 0.13387674 -0.06675185 -0.04291929
0.052314393 -0.14267352 0.021111703 0.080641426 0.1347497 0.19586802 -0.14151855 -0.19446586
0.09873339 -0.11834325 -0.059359524 0.11638108 -0.08714346 -0.06454858 -0.21533868 -0.09589887
-0.059976 0.047432173 0.14604747 -0.018051168 -0.16303268 -0.14906909 0.15088502 0.27194887
0.30217212 -0.037945617 0.11282515 -0.012026472 0.031010285 -0.083647154 -0.050801486 -0.16000748
0.022426786 -0.04484939 0.2737317 -0.0015039591 -0.121656485 0.30047992 0.121758014 0.10277674
0.1380642 0.1381259 -0.031203136 -0.056106795 -0.09439523 -0.100569405 0.12490692 -0.5751048
00000000: 0c0b 243e 62c4 b23d e26e f7bb b733 1a3e
00000010: 69be ebbb 26fb d0bd 0a1f a5bc f759 57bd
00000020: 93fd 253e 6a11 ae3d a80d bb3c c4da 0b3e
00000030: a117 e1bc 7cea 68bd b432 a13d 4a2e 42bd
00000040: 51bf c83c ece9 f53d bf0e 0b3c 7e00 233d
00000050: ec3e 4ebd 88f9 8c3d eece 983d c973 ac3d
00000060: 88d8 ab3d 667e 15be c68a 44be 4491 253e
00000070: 06d9 3a3e d7e2 e23e f957 a5bc 7205 973d
00000080: 3778 393e dfd4 1b3d c3a0 afbd 281e 02be
00000090: 190c 00be 96a7 1c3c b87b 64bd 6c6b 313d
000000a0: b24f 01be 675c dc3a 95fe 36be 81a8 a33c
000000b0: fa71 2cbd b310 7ebd 40f9 a63a b364 99bd
000000c0: 437e e03d 8ab8 f0bd d3da 70bc a2bd 1bbc
000000d0: d34c 293e 7727 633d 9d0f d8bc 9b1e b03e
000000e0: 2cf1 21be 8326 9ebc 1011 0bbe b2d2 61bd
000000f0: 97fd 713d 18fb 053d 4241 83bd 39a5 eb3d
00000100: 5196 57bc 04d4 87bd 41de debd 4146 163e
00000110: 147e 8b3d 51db 573d 620a aabd 6c26 ea3c
00000120: f76c 96bd 3659 9f3d 130c e53b 5c07 ea3c
00000130: 53fe dabc 1a8e 883c b58c 75bb a5cc 6ebb
00000140: 4209 873d 5851 933d a106 03be 61d3 df3c
00000150: 5ae3 b1bd 187d 903d 8f8a 933d 20cd 4c3e
00000160: 4d74 83bd be39 083e af11 1fba 6ec3 34be
00000170: 2641 433c 3118 263e 5ed0 563e 7e88 dbbc
00000180: 3e10 78be 1b17 4cbc 2380 68be ae6c d0bd
00000190: 42b8 aabb aff7 53bd 04b4 413d d7f5 a8bd
000001a0: c8e3 bf3d f897 d83d ddd9 c93d 6e55 e5bd
000001b0: 51be 843d 5b0a 903c 2700 06be d21c f43d
000001c0: 8480 dabd 0d07 8a3d 1f44 c0be fe8c 1bbe
000001d0: fa05 15bd 6ab2 c63e 328a 303d ca04 5ebd
000001e0: 30a7 02bd 948a 1ebd a569 cf3d 9638 1b3e
000001f0: 5b64 b5bd 8785 0abe a1f1 f7bc 0f6e c3bd
00000200: 948f 2b3d 2b01 563d bf30 1f3d 6f35 b7bd
00000210: 51fe 13bd 7cf3 0b3d dee2 4fbe 571c 12be
00000220: 481a 10bc cfc4 11bd c86e 343c 9fb1 293e
00000230: b6e2 403e 58e3 bbbc f708 fb3c 5e0d 0f3e
00000240: f403 48bd 8440 f4bd 623c 313d b825 3ebc
00000250: 1d9c 0cbe 5426 2c3c 003d 6fbe 1707 36be
00000260: 190f e5bd 9420 373e 0dde ebbd ec92 033c
00000270: 1eb5 62be 7fb8 d5bd a189 db3d 2f15 a43d
00000280: a388 92be 52ac 54be 8dd0 893e 2f17 543c
00000290: a8c3 7bbd 0376 a73d 58a0 7e3e 0fa6 f0bd
000002a0: 7567 bc3c 84ef b63d b114 6fbd fe0e aabd
000002b0: ced4 da3d 8cd0 7bbd 098f 573e 43cb e7bc
000002c0: fd9e 203e 1bed 4e3e 265f 0abd 95b1 863e
000002d0: 0bae 87bd 00d1 26bd fd32 333e 5859 093e
000002e0: f8b4 3e3d b346 243e 4442 c4bc d298 01be
000002f0: 17b4 d53c 9a34 f13d 5e48 1e3d 940f babe
00000300: 8d02 de3c 7c7e 9b3d 0272 873e 7c00 b3be
00000310: dea1 84be bae6 a1be 96aa 18be 1d92 1abe
00000320: 9aae 8e3e a326 4fbe 4af4 073e f298 e9bd
00000330: 8198 e6bc fc16 093e 32b5 88bd 23cc 2fbd
00000340: 9e47 563d 0219 12be 73f2 ac3c 5527 a53d
00000350: d3fb 093e a091 483e 3dea 10be 0f22 47be
00000360: bb34 ca3d f25d f2bd f922 73bd 3459 ee3d
00000370: 4578 b2bd 0c32 84bd be81 5cbe a066 c4bd
00000380: 65a9 75bd 3d48 423d 788d 153e 0be0 93bc
00000390: 0af2 26be 91a5 18be 9a81 1a3e e23c 8b3e
000003a0: 4eb6 9a3e dd6c 1bbd df10 e73d ae0a 45bc
000003b0: 4809 fe3c 334f abbd 3815 50bd 00d9 23be
000003c0: 61b8 b73c feb3 37bd 9026 8c3e 7e20 c5ba
000003d0: 0927 f9bd 81d8 993e 445c f93d 9d7c d23d
000003e0: b460 0d3e e070 0d3e b89d ffbc 3dd0 65bd
000003f0: 4952 c1bd 55f7 cdbd 33cf ff3d 113a 13bf

layers.1.bias f4 [128]
-0.071842976 0.074263036 0.057246376 0.045529075 0.16964139 0.18171336 0.01897141 0.020881727
-0.2034815 0.09059426 0.2871671 0.049118947 -0.41189224 0.019982744 0.108641304 0.21730946
0.10948375 0.17394981 0.32724983 0.20221707 -0.000616566 0.11593557 0.03273814 -0.06265483
-0.077930726 0.415493 0.040224567 0.017017744 0.051496718 0.30858532 -0.088792324 0.2876557
0.12116088 -0.022228146 -0.23958822 -0.27071914 -0.14514452 0.27852476 0.19961336 -0.068705395
0.037530895 -0.2733123 0.12227528 -0.1147555 0.15875353 -0.0022245322 -0.039433524 0.11991235
0.3027848 0.07559751 -0.26966357 0.118454315 0.14335759 -0.0615256 0.18904041 -0.1658057
-0.03763637 0.14906979 0.020009402 -0.24148889 0.12843926 -0.048484273 -0.082440645 -0.061502986
0.19284984 0.0540345 -0.008946129 0.15539013 0.22313096 0.02501594 0.02704325 -0.04993183
-0.112846665 -0.015090899 -0.11213107 -0.4430864 0.32645658 -0.05039026 0.020601386 0.19807775
0.14734565 0.13020897 -0.15371558 0.07883731 0.112548865 0.20722458 0.16160922 -0.5131111
0.11895532 -0.034961298 -0.12568727 0.124994285 -0.36578673 -0.1912562 0.10248835 0.06486433
-0.12968661 0.11296251 0.3366056 -0.03148389 -0.0226867 0.2476998 -0.21816391 -0.05986847
0.0011669471 -0.0927007 0.026484739 -0.16243397 0.04576927 0.14992662 0.015988989 -0.0452305
0.073265195 -0.1831408 0.2079551 -0.1221907 0.05642175 0.034524404 0.123264514 -0.17240644
-0.15577295 0.07337014 -0.37242427 0.04936801 0.14717405 0.11984896 -0.054156374 0.13735
00000000: 6922 93bd 3817 983d 2d7b 6a3d b27c 3a3d
00000010: 79b6 2d3e 1113 3a3e ee69 9b3c 2810 ab3c
00000020: 745d 50be 7c89 b93d 9107 933e f330 493d
00000030: 8ae3 d2be dab2 a33c 557f de3d 5f86 5e3e
00000040: 0439 e03d e61f 323e 4a8d a73e fe11 4f3e
00000050: 0ba1 21ba a16f ed3d 6e18 063d 2d51 80bd
00000060: 259a 9fbd 80bb d43e 84c2 243d cc68 8b3c
00000070: 39ee 523d e5fe 9d3e c0d8 b5bd 9c47 933e
00000080: 3223 f83d cd17 b6bc 9d56 75be b39b 8abe
00000090: c4a0 14be cc9a 8e3e 7267 4c3e 6ab5 8cbd
000000a0: ffb9 193d 97ef 8bbe 766b fa3d ee04 ebbd
000000b0: 4990 223e 75c9 11bb 0c85 21bd 9b94 f53d
000000c0: 9c06 9b3e ded2 9a3d 5811 8abe 2d98 f23d
000000d0: 55cc 123e 4402 7cbd cf93 413e f8c8 29be
000000e0: 9828 1abd c0a5 183e c2ea a33c dd48 77be
000000f0: 9585 033e 7297 46bd a4d6 a8bd 8eea 7bbd
00000100: 6e7a 453e 4853 5d3d c992 12bc 971e 1f3e
00000110: 717c 643e 3bee cc3c ce89 dd3c 5285 4cbd
00000120: 271c e7bd d13f 77bc f9a4 e5bd 38dc e2be
00000130: 5125 a73e 0466 4ebd 3dc4 a83c e5d4 4a3e
00000140: c7e1 163e 8055 053e 9e67 1dbe 7575 a13d
00000150: 0580 e63d ae32 543e e37c 253e 405b 03bf
00000160: d99e f33d 9433 0fbd 2ab4 00be 01fd ff3d
00000170: 6648 bbbe aad8 43be 69e5 d13d 97d7 843d
00000180: 91cc 04be e358 e73d 9257 ac3e 40f5 00bd
00000190: 75d9 b9bc 04a5 7d3e 5c66 5fbe a438 75bd
000001a0: 3ff4 983a ddd9 bdbd 86f6 d83c 1755 26be
000001b0: 8f78 3b3d 5d86 193e 57fb 823c 9e43 39bd
000001c0: 100c 963d 4389 3bbe 2ff2 543e 1e3f fabd
000001d0: 7e1a 673d 7669 0d3d 1b72 fc3d 508b 30be
000001e0: f282 1fbe 1543 963d 65ae bebe 1c36 4a3d
000001f0: cbb4 163e 5f73 f53d 13d3 5dbd 7aa5 0c3e
