9_gym-DDPG/DDPG_HalfCheetah-v4_1500-eps0.1-t32-l0.0001-s1.pth (torch, 195690 bytes, 13 tensors)

layers.0.weight f4 [128, 23]
0.12005113 -0.0321142 -0.1452976 -0.10932304 -0.30423614 0.18954222 0.014830229 0.1436987
-0.11941804 -0.09705571 0.009623073 -0.0043746624 0.028685328 -0.039856575 -0.03506663 -0.035630204
-0.020283151 -0.032990403 0.2159339 0.09128525 -0.14246777 -0.21176383 -0.14532037 -0.16770872
-0.0306783 -0.0014877452 0.02346445 0.043238487 -0.2829845 0.07844525 0.01260393 0.22412379
0.0821486 -0.2565103 -0.2216452 -0.10818413 0.33119887 0.024943907 0.01539356 -0.15463942
0.19383076 -0.010886216 0.13714132 -0.1036942 -0.22416535 0.0112536345 -0.06732982 0.29001248
-0.070433296 0.24142787 -0.26187247 -0.27650654 0.43376017 -0.09007334 0.7311166 0.105830796
0.113113604 -0.17006512 0.08586494 0.0037360273 -0.08889626 0.06533039 0.037650105 0.23671634
-0.0542053 -0.006580554 -0.0018007146 -0.11322745 -0.30549338 0.03792829 0.4824809 -0.11844637
0.103012234 -0.09442892 0.41929278 -0.25664103 0.007238016 0.094783485 -0.13740471 0.14848764
-0.12065238 -0.05696993 -0.014672211 0.017430106 0.038392033 -0.02171573 -0.3920995 -0.006606412
-0.057410453 0.06706897 0.12899905 -0.13447249 0.16014503 0.017897801 -0.1613382 0.088778555
-0.011710532 -0.008250643 0.10608679 -0.008309012 0.45915285 -0.01047512 0.12890905 0.14532717
-0.12553744 -0.17453802 0.24509488 0.061960086 0.060765058 -0.0079476135 0.037603278 0.2328033
0.14361422 -0.06984785 0.091373816 0.08286713 0.30918658 0.18589343 -0.48408937 -0.43619865
-0.144866 0.3014781 0.19035117 0.029383477 0.26399624 -0.16118035 -0.14624776 -0.029746566
0.023426216 0.110170834 -0.07921932 -0.0006521414 0.2685697 0.039229136 0.12660637 0.3383069
0.24558525 0.048926692 -0.043450404 -0.050100774 0.05720141 0.14831075 -0.10079146 0.05071063
0.24677348 -0.012801557 0.30413067 0.02907849 0.22329873 0.08265584 0.007846291 0.1515704
-0.01709878 -0.039940126 -0.10993866 -0.19251136 -0.24249642 -0.020575944 0.2192018 -0.19105597
-0.20690604 0.3565714 0.13339679 0.56595755 -0.13993143 -0.011720889 -0.13559994 -0.20806077
-0.26480502 -0.017326403 -0.11020346 0.18897241 0.02923159 0.03410282 0.12735315 0.1389869
0.09477354 0.013674147 -0.24941984 0.09915437 -0.0024792925 -0.046505034 -0.22370502 -0.19456068
-0.25193405 0.23572837 -0.5583949 -0.36600915 0.06444366 -0.35947207 0.028895823 -0.14819844
-0.06442515 -0.06504027 0.09652905 -0.013888938 0.08884001 0.040745255 0.15413286 -0.10350044
-0.003965097 -0.23638518 0.05714518 -0.22008215 0.0136856185 0.12468879 0.0060376483 -0.14025317
-0.016270563 -0.011157546 -0.12981242 -0.07363677 -0.18711387 0.4132152 0.21941067 0.3347711
0.11448763 -0.17523785 -0.022667373 0.1978275 -0.09988735 0.19027893 -0.14687578 -0.11991915
0.06581049 -0.2706405 -0.157965 0.30194297 0.24120876 0.30586088 -0.013384233 -0.38969216
0.3308484 0.09241086 -0.08563874 -0.03258759 -0.15057108 0.16714956 0.3683813 -0.13139632
-0.23017679 -0.052404355 0.06448535 -0.0132532045 -0.0562368 0.014381388 -0.10040863 -0.15535094
-0.098482214 0.018348087 0.13035578 -0.14282516 -0.059868027 0.3325723 0.0035943766 -0.011462684
00000000: 5edd f53d 2e8a 03bd e5c8 14be c2e4 dfbd
00000010: d7c4 9bbe 5b17 423e 7dfa 723c c125 133e
00000020: 7291 f4bd 25c5 c6bd 18aa 1d3c 5459 8fbb
00000030: 7efd ea3c a640 23bd 07a2 0fbd faf0 11bd
00000040: da28 a6bc f220 07bd c71d 5d3e c3f3 ba3d
00000050: 12e3 11be 9ed8 58be ddce 14be d6bb 2bbe
00000060: 0f51 fbbc 7200 c3ba 8538 c03c d71a 313d
00000070: 58e3 90be e7a7 a03d b780 4e3c b580 653e
00000080: 863d a83d 5155 83be f6f6 62be a48f ddbd
00000090: e692 a93e 2a57 cc3c 4535 7c3c cc59 1ebe
000000a0: 927b 463e 195c 32bc c66e 0c3e a05d d4bd
000000b0: 9a8b 65be 2a61 383c 37e4 89bd 847c 943e
000000c0: 553f 90bd de38 773e 2614 86be 4492 8dbe
000000d0: d015 de3e 5f78 b8bd 752a 3b3f d1bd d83d
000000e0: 1ba8 e73d 8d25 2ebe f5d9 af3d 23d8 743b
000000f0: 3e0f b6bd f1cb 853d ff36 1a3d c565 723e
00000100: 6006 5ebd b0a1 d7bb f505 ecba cbe3 e7bd
00000110: a169 9cbe b25a 1b3d bd07 f73e 0394 f2bd
00000120: 14f8 d23d f363 c1bd 8bad d63e 7466 83be
00000130: e12c ed3b d81d c23d d2b3 0cbe 250d 183e
00000140: 9818 f7bd 4d59 69bd b763 70bc 95c9 8e3c
00000150: f740 1d3d 30e5 b1bc 44c1 c8be 9a7a d8bb
00000160: 3927 6bbd 755b 893d 5418 043e 28b3 09be
00000170: 0ffd 233e 699e 923c d735 25be 88d1 b53d
00000180: 88dd 3fbc b42d 07bc 0844 d93d 8622 08bc
00000190: 1516 eb3e d69f 2bbc bc00 043e a5d0 143e
000001a0: e38c 00be 18ba 32be 27fa 7a3e dcc9 7d3d
000001b0: c8e4 783d b536 02bc e505 1a3d fd63 6e3e
000001c0: 9b0f 133e 640c 8fbd 3222 bb3d 3eb6 a93d
000001d0: b44d 9e3e d95a 3e3e 90da f7be 6e55 dfbe
000001e0: c157 14be 565b 9a3e 6beb 423e 9eb5 f03c
000001f0: 842a 873e 760c 25be f9c1 15be 12af f3bc
00000200: 56e8 bf3c 3fa1 e13d bd3d a2bd 78f4 2aba
00000210: f881 893e bbae 203d 1aa5 013e 9036 ad3e
00000220: b37a 7b3e 5b67 483d 0df9 31bd 7836 4dbd
00000230: 074c 6a3d c6de 173e c16b cebd f3b5 4f3d
00000240: 30b2 7c3e 9fbd 51bc 04b7 9b3e 0336 ee3c
00000250: 6ca8 643e 7747 a93d bb8d 003c 4535 1b3e
00000260: be12 8cbc 4298 23bd 8527 e1bd b321 45be
00000270: fb50 78be e28e a8bc 7076 603e 2da4 43be
00000280: 2ddf 53be 8790 b63e 2b99 083e 98e2 103f
00000290: 2f4a 0fbe f908 40bc b6da 0abe e20d 55be
000002a0: 8694 87be 1af0 8dbc 5ab2 e1bd fc81 413e
000002b0: 1677 ef3c 66af 0b3d dd68 023e 9552 0e3e
000002c0: a118 c23d 8809 603c ea67 7fbe 7211 cb3d
000002d0: a07b 22bb 107c 3ebd ee12 65be ea3a 47be
000002e0: 80fd 80be c762 713e f8f2 0ebf 8d65 bbbe
000002f0: 0afb 833d b90c b8be efb6 ec3c 55c1 17be
00000300: 55f1 83bd d533 85bd 06b1 c53d 6e8e 63bc
00000310: c0f1 b53d 7fe4 263d 01d5 1d3e 0af8 d3bd
00000320: a5ed 81bb f50e 72be 1011 6a3d 375d 61be
00000330: a539 603c d65c ff3d 77d7 c53b 879e 0fbe
00000340: d849 85bc 24ce 36bc 8ced 04be e0ce 96bd
00000350: c79a 3fbe f190 d33e 31ad 603e 1e67 ab3e
00000360: 7e78 ea3d 8d71 33be edb0 b9bc 4b93 4a3e
00000370: bd91 ccbd 7bd8 423e 9b66 16be 2c98 f5bd
00000380: a6c7 863d 6491 8abe 94c1 21be 4598 9a3e
00000390: 6eff 763e cc99 9c3e 8b49 5bbc bb85 c7be
000003a0: f664 a93e e841 bd3d 5d63 afbd 917a 05bd
000003b0: 4e2f 1abe 4129 2b3e 799c bc3e c28c 06be
000003c0: 77b3 6bbe f3a5 56bd e510 843d f823 59bc
000003d0: 8f58 66bd ea9f 6b3c 0aa3 cdbd 5114 1fbe
000003e0: 0bb1 c9bd ba4e 963c fc7b 053e c240 12be
000003f0: 2d38 75bd eb46 aa3e a28f 6b3b fbcd 3bbc

layers.0.bias f4 [128]
-0.15638009 -0.072208755 -0.23935015 -0.08356068 -0.19651257 0.015696501 -0.066755176 -0.4662236
0.2146508 0.023818443 -0.21677923 -0.34980232 -0.26260287 -0.27322847 -0.028084002 0.044969365
-0.01265634 -0.19238949 -0.2503474 -0.48938948 0.2873987 0.0055781067 -0.28164557 -0.20032652
-0.013754615 0.07553564 0.0064888285 -0.08921062 0.26206535 -0.0010923 0.08586631 -0.10782678
0.14262363 -0.26565093 -0.1686309 0.14951709 -0.022882702 -0.27796134 0.13344991 -0.353627
-0.18523103 0.010014806 -0.11910603 -0.025197579 -0.024905594 -0.20924169 -0.07363007 -0.33792597
0.17106211 0.332377 -0.15109633 -0.17024785 0.22535378 0.25377098 0.020266298 -0.2653364
0.0044468176 -0.12771799 0.13699318 0.30285823 -0.009872816 0.14215377 -0.2966 -0.07519114
-0.2184841 0.21925059 -0.123102546 -0.24445136 -0.2415486 -0.14854091 0.051689364 -0.0830689
0.15585852 -0.3695214 -0.08943598 -0.13775176 -0.05318689 -0.0700955 -0.0037196665 0.023232521
-0.16946515 -0.042956576 -0.037655644 -0.20404775 -0.2065486 -0.17035143 -0.24014227 0.28900394
0.22515178 -0.15277763 -0.013264179 -0.015425175 -0.007409776 -0.38927534 0.067622274 -0.15395612
-0.38720134 0.32065988 -0.117959335 0.07066054 0.032766648 -0.06276406 -0.23996514 0.26489696
0.23120564 -0.04706567 -0.10429845 0.20056857 -0.08337558 -0.29425675 0.3392491 0.41865304
0.25225738 0.21185721 0.24189042 -0.26088554 0.06786047 0.19701536 -0.12835215 0.11509689
-0.059788957 -0.11519738 0.20254518 0.10541433 -0.010155744 -0.14698061 0.124401525 -0.119482696
00000000: 1a22 20be 2fe2 93bd 3518 75be dd21 abbd
00000010: 973a 49be f395 803c f0b6 88bd dcb4 eebe
00000020: 6bcd 5b3e e51e c33c 60fb 5dbe 4a19 b3be
00000030: e273 86be 9ae4 8bbe 6c10 e6bc cc31 383d
00000040: 8a5c 4fbc c001 45be 892d 80be 4291 fabe
00000050: ec25 933e 8dc8 b63b d933 90be 6522 4dbe
00000060: 095b 61bc 6eb2 9a3d 3da0 d43b 0fb4 b6bd
00000070: 6e2d 863e 822b 8fba adda af3d 49d4 dcbd
00000080: ee0b 123e 6603 88be 94ad 2cbe 021b 193e
00000090: 8174 bbbc f350 8ebe 18a7 083e 990e b5be
000000a0: 34ad 3dbe 2415 243c dded f3bd 276b cebc
000000b0: d106 ccbc 7443 56be 5dcb 96bd a204 adbe
000000c0: e82a 2f3e 512d aa3e ffb8 1abe 7455 2ebe
000000d0: 24c3 663e 45ee 813e 8205 a63c 2cda 87be
000000e0: 9cb6 913b 81c8 02be f147 0c3e 3c10 9b3e
000000f0: 97c1 21bc c290 113e f5db 97be d0fd 99bd
00000100: 4cba 5fbe 3a83 603e 301d fcbd 7551 7abe
00000110: 8458 77be 1c1b 18be 3ab8 533d 0720 aabd
00000120: 6099 1f3e e931 bdbe 362a b7bd cc0e 0dbe
00000130: 7fda 59bd 3b8e 8fbd a6c5 73bb 2152 be3c
00000140: 4688 2dbe 3cf3 2fbd ce3c 1abd e5f1 50be
00000150: 7a81 53be 9b70 2ebe dbe7 75be 53f8 933e
00000160: 308e 663e bd71 1cbe 0052 59bc e0b9 7cbc
00000170: b5cd f2bb 194f c7be 8c7d 8a3d aca6 1dbe
00000180: 413f c6be 882d a43e aa94 f1bd 79b6 903d
00000190: 5236 063d 728a 80bd 6cb9 75be 93a0 873e
000001a0: 2cc1 6c3e efc7 40bd 6d9a d5bd d961 4d3e
000001b0: d1c0 aabd d2a8 96be 0fb2 ad3e b159 d63e
000001c0: e127 813e 19f1 583e 1fb2 773e ca92 85be
000001d0: 6efa 8a3d 65be 493e bf6e 03be ebb7 eb3d
000001e0: 44e5 74bd 9bec ebbd 0168 4f3e 78e3 d73d
000001f0: 4764 26bc 1682 16be 3ac6 fe3d 58b3 f4bd

layers.1.weight f4 [128, 128]
0.06654859 -0.09513094 -0.041548286 0.02500241 9.78525e-05 0.03991979 0.054032706 -0.008486809
-0.0362663 0.06672009 -0.051565357 -0.049314152 0.06444306 -0.06716825 0.120576754 0.06324777
0.027395826 -0.054061744 -0.088804744 0.02394332 -0.07077378 0.015516795 0.060257908 0.029662527
0.107744396 -0.115838885 -0.09050753 0.029123548 -0.073775694 -0.06637938 -0.0168931 0.06390628
-0.07662184 0.049260378 0.035168253 -0.08809689 0.055494353 0.062246416 -0.056832954 0.00026531986
0.076674625 0.04116874 0.05356085 0.014375973 0.025860958 -0.041773766 0.050387837 0.022619504
-0.07323212 0.00030245693 -0.07204115 -0.04286256 -0.014641952 -0.10663446 -0.04516287 -0.041127305
-0.0014209729 0.1466572 0.059127215 -0.081860565 -0.055934884 0.058197837 0.08282984 0.040835947
0.13343363 -0.08708282 0.120893665 0.029427612 -0.020669822 0.023744842 0.009329326 0.10907858
-0.04638045 0.11416182 0.0027819702 -0.10468015 -0.0011379943 -0.02922925 0.022637583 0.0049121277
0.032826588 0.040532943 0.00633826 0.16093846 0.085440874 0.07609383 0.06964388 -0.023490218
-0.08361742 -0.0013952598 0.02982369 0.051165577 0.017713431 -0.09038757 0.17821386 0.032688756
-0.09396278 -0.04665725 -0.042587906 -0.08538982 -0.034482833 0.01988512 -0.06554315 0.03288863
-0.08625555 0.095915295 0.105541006 0.07751177 -0.13960353 0.008421547 -0.017549094 -0.08931361
-0.05570976 0.024497032 0.0011145661 0.044007305 -0.12530155 0.019388093 -0.0054678963 0.056204434
0.0622175 -0.021967763 -0.11228269 0.08089419 -0.022111015 0.1039162 0.107318014 0.011324433
-0.03012601 0.054473385 0.11066923 -0.028422944 -0.044875905 -0.016865635 0.09141579 0.07980484
-0.09852629 0.075378105 -0.03333228 0.015066946 -0.04875301 -0.042198982 0.0031513118 0.04407762
-0.06349376 0.009208185 0.103340924 -0.027536618 -0.026107285 0.065240294 -0.10339202 -0.0469917
0.081630185 0.026577411 -0.049378775 -0.029305115 -0.028745154 -0.08361145 -0.036001034 0.06060642
0.06874633 0.010561116 0.03449324 -0.0913427 0.01774939 0.07270257 -0.001822764 -0.094114095
-0.04357025 0.038455494 -0.014556905 0.02510823 -0.15699491 0.079192035 -0.08318091 0.02105585
-0.09157402 -0.017277978 0.017835181 0.004488693 0.0008523548 -0.07939701 -0.06940471 0.035832096
-0.030937765 0.043057196 -0.05142021 0.03704023 0.010146232 -0.064578444 0.029052988 -0.013067151
0.020748578 -0.11232056 -0.036025573 -0.08231081 0.05939859 -0.049512304 -0.019386997 -0.08882763
-0.014546044 -0.12237863 0.018913928 0.06742255 0.07009564 -0.05947468 -0.02597671 0.02297855
0.031754628 0.06928453 0.0109868925 -0.061477307 0.03801603 0.08596713 0.01573897 -0.03342896
0.040675275 0.050606165 -0.060417738 0.028860567 -0.04854959 0.01994695 -0.09586117 -0.016444327
0.027919464 -0.032375466 -0.08971247 0.06995415 -0.021744333 0.07325001 -0.09176092 0.0916826
-0.0050747897 -0.08041305 -0.011424527 0.009921354 0.033367906 0.031168368 -0.058751967 -0.011909427
0.09674419 -0.025177576 0.010468172 0.019357724 -0.04040316 0.04968958 -0.081130326 -0.0070753032
-0.04596976 -0.011239485 -0.08772787 -0.04839689 -0.007837709 -0.05833842 0.01659184 0.028117685
00000000: a14a 883d 03d4 c2bd 892e 2abd dbd1 cc3c
00000010: 2936 cd38 ef82 233d 6651 5d3d 420c 0bbc
00000020: f98b 14bd 8ba4 883d 3236 53bd a3fd 49bd
00000030: b9fa 833d 828f 89bd f2f0 f63d 0c88 813d
00000040: 366d e03c d96f 5dbd 43df b5bd c824 c43c
00000050: d8f1 90bd 283a 7e3c ffd0 763d d4fe f23c
00000060: 18a9 dc3d f03c edbd 035c b9bd 8294 ee3c
00000070: b617 97bd eaf1 87bd 6663 8abc 4ce1 823d
00000080: e9eb 9cbd 40c5 493d 960c 103d 246c b4bd
00000090: 0c4e 633d 19f6 7e3d acc9 68bd a11a 8b39
000000a0: 9607 9d3d 8da0 283d 9f62 5b3d 3389 6b3c
000000b0: 5cda d33c f81a 2bbd 7a63 4e3d 8a4c b93c
000000c0: b9fa 95bd 1593 9e39 4f8a 93bd a790 2fbd
000000d0: cce4 6fbc 2b63 dabd b4fc 38bd 1b75 28bd
000000e0: f03f baba 4e2d 163e 612f 723d 83a6 a7bd
000000f0: fa1b 65bd db60 6e3d b1a2 a93d 9843 273d
00000100: d3a2 083e 7a58 b2bd 1997 f73d 2d12 f13c
00000110: c253 a9bc 8b84 c23c 08da 183c 9764 df3d
00000120: 6df9 3dbd accd e93d b751 363b 8c62 d6bd
00000130: c128 95ba 2e72 efbc 7472 b93c eaf5 a03b
00000140: 2c75 063d df05 263d 2eb1 cf3b 0dcd 243e
00000150: a0fb ae3d 15d7 9b3d 73a1 8e3d 8f6e c0bc
00000160: 9c3f abbd 26e1 b6ba d050 f43c ff92 513d
00000170: c21b 913c 1e1d b9bd b27d 363e a5e4 053d
00000180: 8f6f c0bd ac1b 3fbd a870 2ebd dce0 aebd
00000190: df3d 0dbd 1fe6 a23c 7d3b 86bd 3ab6 063d
000001a0: c0a6 b0bd 3d6f c43d e225 d83d 7ebe 9e3d
000001b0: 3af4 0ebe 87fa 093c 1ec3 8fbc 0eea b6bd
000001c0: eb2f 64bd 00ae c83c a216 923a 0141 343d
000001d0: 0d4f 00be c7d3 9e3c 0a2c b3bb 9f36 663d
000001e0: c7d7 7e3d bdf5 b3bc 78f4 e5bd daab a53d
000001f0: 2922 b5bc 04d2 d43d 8cc9 db3d 1d8a 393c
00000200: d2ca f6bc 7c1f 5f3d 8da6 e23d 3cd7 e8bc
00000210: cccf 37bd cd29 8abc 3438 bb3d b870 a33d
00000220: 27c8 c9bd d65f 9a3d 6e87 08bd 5adb 763c
00000230: 3cb1 47bd d7d8 2cbd 3d86 4e3b bc8a 343d
00000240: 0409 82bd eddd 163c 68a4 d33d 7994 e1bc
00000250: f2de d5bc b49c 853d 32bf d3bd 5e7a 40bd
00000260: ba2d a73d dfb8 d93c 6641 4abd 4811 f0bc
00000270: f57a ebbc 7b3c abbd d275 13bd 703e 783d
00000280: e0ca 8c3d 8808 2d3c c948 0d3d e211 bbbd
00000290: 2b67 913c 16e5 943d d0e9 eeba e4be c0bd
000002a0: b876 32bd 8283 1d3d 1680 6ebc c6af cd3c
000002b0: 46c3 20be 6f2f a23d c15a aabd 517d ac3c
000002c0: 298b bbbd 8c8a 8dbc 161b 923c e315 933b
000002d0: 9070 5f3a e69a a2bd 0e24 8ebd adc4 123d
000002e0: 3271 fdbc be5c 303d 009e 52bd 7fb7 173d
000002f0: 623c 263c b441 84bd 8800 ee3c 9b17 56bc
00000300: ecf8 a93c 5208 e6bd 8d8f 13bd 9292 a8bd
00000310: f04b 733d 6acd 4abd 7bd1 9ebc 43eb b5bd
00000320: 8852 6ebc a6a1 fabd 62f1 9a3c d514 8a3d
00000330: 4e8e 8f3d b99b 73bd 1ccd d4bc 833d bc3c
00000340: 2411 023d 0ce5 8d3d 5e02 343c a1cf 7bbd
00000350: b2b6 1b3d 890f b03d 03ef 803c ceec 08bd
00000360: 1e9b 263d 6948 4f3d 9778 77bd ff6c ec3c
00000370: efdb 46bd c967 a33c dc52 c4bd 41b6 86bc
00000380: 5cb7 e43c 239c 04bd 2cbb b7bd 1f44 8f3d
00000390: 2c21 b2bc 1a04 963d 26ed bbbd 16c4 bb3d
000003a0: 6c4a a6bb 99af a4bd f02d 3bbc 2d8d 223c
000003b0: c9ac 083d ce54 ff3c e7a5 70bd c21f 43bc
000003c0: d121 c63d 3441 cebc b282 2b3c 1794 9e3c
000003d0: c97d 25bd 4d87 4b3d a827 a6bd f2d7 e7bb
000003e0: c94a 3cbd d125 38bc abaa b3bd d13b 46bd
000003f0: bc69 00bc 44f4 6ebd 9ceb 873c 0f57 e63c

layers.1.bias f4 [128]
-0.10689518 -0.06827985 -0.14463283 -0.05500504 0.078049414 -0.022771139 0.14315009 0.09532818
-0.21079539 -0.07981918 -0.009009936 -0.049772657 0.045658298 0.039342545 0.0346732 -0.034698565
-0.17360632 0.037349626 -0.109056465 -0.004812091 0.06379251 -0.12100359 0.02733645 -0.20166227
0.2167493 0.07116393 -0.027340027 -0.105868034 -0.12678517 -0.0093774265 -0.028400153 -0.042847123
0.08147708 0.0019043287 0.097024955 0.028527943 0.11249985 -0.16685717 0.09755447 -0.07478216
0.02268732 0.0066109607 0.14263155 0.0065741395 -0.1043209 -0.02209847 -0.04984649 -0.16968745
-0.0769205 0.005801341 -0.1549305 0.006162018 -0.04466275 -0.13662468 -0.021405015 -0.08815846
0.13412525 -0.036304906 -0.07717385 -0.11300746 -0.10937959 0.06432195 -0.013918709 -0.15226503
-0.08287684 0.15017502 0.03663017 0.101186804 -0.13779183 -0.034392647 -0.03236377 -0.102986015
-0.054464225 0.13914567 0.014913316 -0.07826164 -0.13996051 0.008411518 0.015301517 -0.18153374
0.017432595 0.073254645 0.1560533 0.14067455 -0.06873978 0.0024101648 -0.091227226 -0.0007452647
-0.036106445 0.18551622 -0.020978073 0.12913369 0.08500511 -0.06040236 -0.13802381 0.047714576
0.043366242 -0.114761256 -0.174791 -0.09639778 0.005749922 -0.047665425 -0.059231725 -0.07686101
-0.00925905 -0.030340413 -0.17187355 -0.043052793 0.024923775 -0.049959343 0.13671657 0.028201468
0.009029509 0.0810285 0.035917193 3.4994533e-05 0.010402617 -0.07777872 -0.13992171 0.05752681
-0.083931714 0.07511191 0.19391295 0.1266079 -0.06683101 -0.10641046 0.03434816 0.015706083
00000000: dceb dabd 4ed6 8bbd a11a 14be f74c 61bd
00000010: 5fd8 9f3d 8a8a babc f095 123e 6c3b c33d
00000020: bfda 57be 3d78 a3bd 699e 13bc 6ade 4bbd
00000030: 3204 3b3d a625 213d 7c05 0e3d 1520 0ebd
00000040: dbc5 31be ecfb 183d ff58 dfbd bfae 9dbb
00000050: a6a5 823d bbd0 f7bd b1f0 df3c 8e80 4ebe
00000060: 87f3 5d3e 65be 913d 31f8 dfbc 57d1 d8bd
00000070: f9d3 01be c7a3 19bc 70a7 e8bc 7780 2fbd
00000080: 75dd a63d ab9a f93a 05b5 c63d 6fb3 e93c
00000090: 5266 e63d 9bdc 2abe a3ca c73d 6427 99bd
000000a0: c2da b93c c2a0 d83b 010e 123e e16b d73b
000000b0: 32a6 d5bd da07 b5bc d52b 4cbd 8cc2 2dbe
000000c0: 7f88 9dbd 2d19 be3b 1aa6 1ebe c1ea c93b
000000d0: 4af0 36bd 57e7 0bbe 9259 afbc 6c8c b4bd
000000e0: 2158 093e 74b4 14bd 530d 9ebd 7570 e7bd
000000f0: 6802 e0bd 3abb 833d 4c0b 64bc 5deb 1bbe
00000100: 55bb a9bd 7bc7 193e 8409 163d 073b cf3d
00000110: 4d19 0dbe 4edf 0cbd df8f 04bd 55ea d2bd
00000120: e115 5fbd 347c 0e3e fb56 743c a447 a0bd
00000130: cf51 0fbe 77d0 093c 37b3 7a3c fbe3 39be
00000140: cdce 8e3c 8806 963d 70cc 1f3e fd0c 103e
00000150: 71c7 8cbd dbf3 1d3b 57d5 babd de5d 43ba
00000160: 5ae4 13bd f7f7 3d3e 35da abbc 9f3b 043e
00000170: 2917 ae3d 7768 77bd 1d56 0dbe 5c70 433d
00000180: cda0 313d f307 ebbd 69fc 32be 336c c5bd
00000190: d769 bc3b d23c 43bd f79c 72bd 4e69 9dbd
000001a0: 45b3 17bc 758c f8bc 9fff 2fbe 2058 30bd
000001b0: f22c cc3c 2ba2 4cbd 6eff 0b3e c406 e73c
000001c0: 81f0 133c 45f2 a53d e81d 133d 18c7 1238
000001d0: bd6f 2a3c 734a 9fbd a347 0fbe 3ba1 6b3d
000001e0: 64e4 abbd 46d4 993d 1e91 463e 80a5 013e
000001f0: b2de 88bd baed d9bd a8b0 0c3d 0baa 803c

layers.2.weight f4 [64, 128]
0.195851 -0.14172763 -0.0798894 0.01537549 -0.13035256 -0.04551389 0.12441833 -0.00921249
0.14235428 0.10961435 0.0006223566 -0.050292253 -0.16497467 -0.02661208 0.045676783 0.016428594
0.23417649 0.02276074 0.050193332 0.013350843 -0.026833221 0.2027446 0.10665748 0.120040506
-0.02925196 -0.18166593 -0.013540336 0.07816859 0.1429171 -0.027261432 0.049703155 -0.12580673
-0.083429456 0.052083652 -0.055742547 -0.18660793 0.032295227 -0.013172655 0.030547367 0.07350562
-0.24663864 0.17670344 -0.0802897 0.04863607 0.03016205 0.10036811 0.059211534 0.14431275
-0.07148564 -0.07411886 0.04092609 0.1290264 -0.038249534 -0.017358564 0.08785662 0.014394015
-0.02975527 0.047678016 0.09669231 0.0043760953 0.011301579 -0.02897024 -0.05136347 -0.06843862
0.13212268 -0.11241064 0.10688824 0.11234728 0.0045666513 -0.17230448 -0.02580117 0.041323144
0.026421335 -0.008711115 -0.07149051 0.015119531 0.08720685 0.1549426 0.16413993 0.01940482
0.13562115 -0.004339755 0.062384892 0.017933536 -0.01519233 -0.007431258 -0.10894622 0.041526232
-0.011042721 0.02064783 0.09942061 0.026527831 -0.020693954 0.11623071 -0.038929634 0.04045922
-0.07383197 0.06939521 0.050067972 0.12505598 -0.05991186 0.06756843 0.11269888 -0.019191014
0.1340954 0.037101552 -0.026531272 -0.069195844 -0.0054274444 0.0955162 -0.07597916 -0.016408272
0.01391089 -0.18190984 -0.11042037 -0.05707458 0.012394293 0.15509869 0.044746857 0.029720189
-0.069248065 0.10945601 -0.2709911 0.026953042 0.16782153 -0.039833654 0.024583478 -0.045926813
-0.07016892 -0.078700304 -0.027952556 0.115349054 0.14607553 -0.0724183 -0.0036803482 0.053577606
-0.05207576 -0.02613708 -0.22893907 -0.25524357 -0.11300301 -0.14315772 -0.14492266 -0.049390137
0.014710427 -0.04262247 -0.14824255 -0.061987925 -0.20622425 -0.036564287 0.07435435 0.022701155
-0.06739997 -0.04003455 -0.009178768 0.06892824 -0.03231936 -0.037591018 0.08738691 -0.027982691
0.1868693 0.018895628 -0.043361925 0.09438245 -0.0028843142 -0.08369618 -0.06888523 -0.06184357
-0.13628542 -0.020843199 0.04159586 0.04104202 0.057256717 0.035000216 -0.06147352 -0.055926256
0.035413112 0.00054195424 -0.19267082 0.13742945 0.08296885 -0.20120397 -0.078465424 -0.049658842
0.042158946 -0.029044721 0.024388919 -0.076113075 0.060083374 0.016008688 0.03565801 -0.15791816
0.14131956 0.05145145 -0.061115306 0.082935855 0.067856334 -0.10273238 0.017788742 0.041475542
0.008760037 0.00087393133 0.08903554 -0.021314573 -0.08631012 -0.049661875 0.07271842 -0.09874303
-0.1440186 0.1237965 0.1346758 0.017123006 -0.06147212 -0.028286595 -0.014921229 0.23105264
0.0378044 0.064563 0.10121446 -0.01358372 -0.2277751 -0.161998 0.024505898 0.04707936
-0.014017891 -0.091543354 -0.020326477 0.06777356 0.17412402 0.07111035 0.03915336 0.08011763
0.040454004 -0.09803645 -0.013548938 0.10957267 -0.16761509 -0.048887126 0.06832486 0.0010905971
0.04044815 0.085524626 -0.07619117 0.13433513 0.046742715 0.12074337 0.07861333 -0.059995253
-0.102927275 -0.028677098 -0.10126006 -0.067773946 -0.012728596 0.103951275 -0.090873055 -0.13752398
00000000: 2a8d 483e 0c21 11be 0e9d a3bd 7be9 7b3c
00000010: 247b 05be c66c 3abd 0acf fe3d fcef 16bc
00000020: 52c5 113e 7d7d e03d a525 233a 40ff 4dbd
00000030: 1fef 28be 9401 dabc 9417 3b3d 4295 863c
00000040: f6cb 6f3e bb74 ba3c 8697 4d3d 7fbd 5a3c
00000050: 58d1 dbbc 489c 4f3e 3d6f da3d ccd7 f53d
00000060: cea1 efbc a206 3abe 49d8 5dbc db16 a03d
00000070: dc58 123e 5e53 dfbc 8995 4b3d 7bd3 00be
00000080: 10dd aabd ab55 553d 4c52 64bd 2616 3fbe
00000090: 0048 043d 1fd2 57bc 793e fa3c 1d8a 963d
000000a0: d78e 7cbe bff1 343e ed6e a4bd 9e36 473d
000000b0: 6716 f73c cc8d cd3d cb87 723d b9c6 133e
000000c0: 1067 92bd a1cb 97bd 1ea2 273d 7f1f 043e
000000d0: 8bab 1cbd 8c33 8ebc 2cee b33d e0d4 6b3c
000000e0: 53c1 f3bc 064a 433d 9e06 c63d 5965 8f3b
000000f0: 422a 393c ff52 edbc 8062 52bd 8c29 8cbd
00000100: 2b4b 073e 8d37 e6bd 39e8 da3d 5516 e63d
00000110: d9a3 953b 9670 30be fa5c d3bc 7542 293d
00000120: 8e71 d83c 11b9 0ebc 9e69 92bd e9b7 773c
00000130: 8199 b23d 46a9 1e3e 4c14 283e dbf6 9e3c
00000140: 45e0 0a3e 8134 8ebb 4d87 7f3d 5ae9 923c
00000150: 40e9 78bc e981 f3bb 321f dfbd 6917 2a3d
00000160: 87ec 34bc a325 a93c 089d cb3d e550 d93c
00000170: 5e86 a9bc 5e0a ee3d ae74 1fbd 91b8 253d
00000180: 3735 97bd 131f 8e3d 1314 4d3d ad0e 003e
00000190: 2366 75bd 5161 8a3d acce e63d 7936 9dbc
000001a0: 4e50 093e ccf7 173d 1c58 d9bc 8db6 8dbd
000001b0: b4d8 b1bb ff9d c33d f69a 9bbd a46a 86bc
000001c0: 80ea 633c 9346 3abe 1324 e2bd 09c7 69bd
000001d0: 6f11 4b3c 31d2 1e3e 7b48 373d c177 f33c
000001e0: eed1 8dbd 792a e03d 58bf 8abe a0cc dc3c
000001f0: 68d9 2b3e 9d28 23bd 4a63 c93c c11d 3cbd
00000200: b9b4 8fbd a02d a1bd c2fc e4bc 203c ec3d
00000210: d394 153e 0c50 94bd ff31 71bb 3174 5b3d
00000220: 644d 55bd 6e1d d6bc 016f 6abe 49af 82be
00000230: 1f6e e7bd f097 12be 9b66 14be 504d 4abd
00000240: 0104 713c e694 2ebd e5cc 17be 0de7 7dbd
00000250: 732c 53be 6fc4 15bd 1847 983d c6f7 b93c
00000260: ff08 8abd 45fb 23bd 8b62 16bc 402a 8d3d
00000270: 4e61 04bd 0af9 19bd e9f7 b23d f53b e5bc
00000280: aa5a 3f3e 01cb 9a3c 469c 31bd 964b c13d
00000290: c306 3dbb e768 abbd b313 8dbd af4f 7dbd
000002a0: 688e 0bbe 5bbf aabc 6c60 2a3d ad1b 283d
000002b0: 0586 6a3d 635c 0f3d a8cb 7bbd ee12 65bd
000002c0: 570d 113d ef11 0e3a 804b 45be 4eba 0c3e
000002d0: 93eb a93d 6a08 4ebe 7bb2 a0bd 1267 4bbd
000002e0: dcae 2c3d 32ef edbc 45cb c73c 2ce1 9bbd
000002f0: fc19 763d a724 833c 220e 123d 4cb5 21be
00000300: 13b6 103e c1be 523d 0b54 7abd 46da a93d
00000310: 43f8 8a3d 5b65 d2bd b2b9 913c 42e2 293d
00000320: 4286 0f3c 8a18 653a 4458 b63d e69b aebc
00000330: 5cc3 b0bd 406a 4bbd 65ed 943d c939 cabd
00000340: 9d79 13be 0589 fd3d 74e8 093e 8c45 8c3c
00000350: 31ca 7bbd 4ab9 e7bc 2c78 74bc 1099 6c3e
00000360: c9d8 1a3d 9b39 843d 8749 cf3d 408e 5ebc
00000370: e03d 69be cee2 25be 98c0 c83c 49d6 403d
00000380: 4cab 65bc 157b bbbd b683 a6bc ddcc 8a3d
00000390: 914d 323e 4ea2 913d 465f 203d b614 a43d
000003a0: 19b3 253d 56c7 c8bd 5dfc 5dbc a367 e03d
000003b0: 4aa3 2bbe de3d 48bd e7ed 8b3d 5ef2 8e3a
000003c0: f6ac 253d 8927 af3d 1e0a 9cbd 268f 093e
000003d0: 4a75 3f3d 4d48 f73d 0700 a13d 95bd 75bd
000003e0: 89cb d2bd 3cec eabc 6f61 cfbd 11cd 8abd
000003f0: 9a8b 50bc 68e4 d43d a71b babd 16d3 0cbe

layers.2.bias f4 [64]
-0.041033495 0.03014483 0.05079624 -0.008405753 -0.031903528 0.017527312 -0.15651156 0.08991742
-0.14413096 -0.01082888 0.015486432 -0.040942725 0.013274084 -0.0115732225 0.021829817 0.08840606
0.018785264 -0.009194025 0.03503889 -0.03236484 0.108964585 0.07485367 -0.045866247 -0.1387224
0.049603023 0.0018802994 0.014083679 -0.033562347 0.08842965 -0.11786342 0.015670193 -0.15057336
0.030324563 0.028735964 0.09421256 0.05477178 0.14118822 0.05973657 -0.024139008 0.024512585
-0.0014190442 0.09404973 0.055874053 0.02597419 -0.0934667 -0.0129066715 -0.06330912 -0.0654452
0.084146634 -0.06886402 -0.059559137 -0.003831656 0.0037493284 0.15124077 0.007999577 -0.030857924
0.16293703 -0.18624933 -0.10195434 -0.018557513 -0.11890842 -0.06605514 0.037481934 -0.051418744
00000000: bd12 28bd 4af2 f63c b80f 503d 49b8 09bc
00000010: 46ad 02bd 7095 8f3c 9144 20be a026 b83d
00000020: 1197 13be 9d6b 31bc ceba 7d3c 8fb3 27bd
00000030: 8b7b 593c 9d9d 3dbc 72d4 b23c 3d0e b53d
00000040: 8ee3 993c 89a2 16bc f084 0f3d ff90 04bd
00000050: d328 df3d e24c 993d 3fde 3bbd 3f0d 0ebe
00000060: 8a2c 4b3d 6174 f63a 3bbf 663c ac78 09bd
00000070: 9b1a b53d 6062 f1bd c75e 803c e72f 1abe
00000080: 386b f83c af67 eb3c 84f2 c03d 6058 603d
00000090: a593 103e 55ae 743d 2bbf c5bc 9ece c83c
000000a0: 39ff b9ba 259d c03d 31dc 643d d3c7 d43c
000000b0: 786b bfbd 8176 53bc 36a8 81bd 2208 86bd
000000c0: 1255 ac3d 9408 8dbd 48f4 73bd 851c 7bbb
000000d0: 4bb7 753b dcde 1a3e a810 033c c2c9 fcbc
000000e0: f7d8 263e 25b8 3ebe 70cd d0bd ed05 98bc
000000f0: 4286 f3bd eb47 87bd a886 193d 769c 52bd

readout.weight f4 [1, 64]
-0.22536801 -0.18107362 -0.19272102 0.1730371 0.10260022 0.20501274 -0.20861942 -0.19837277
0.22700614 0.22146845 -0.22253913 0.19163387 -0.14911531 -0.11537842 0.2373537 -0.13953066
-0.20264553 0.17196868 0.22259003 -0.093964405 -0.078173876 0.21808936 0.11305732 0.16453665
-0.17067936 -0.2228818 -0.2793403 0.17738199 -0.21819143 0.18076454 0.12087427 -0.113886476
-0.29838136 0.14641072 -0.28052405 -0.24248017 0.20055692 -0.2258001 -0.18969488 0.18829402
-0.22060043 -0.14911276 -0.2473992 -0.1881294 0.23662184 0.2563112 0.19321403 0.21761046
-0.1712997 0.21095808 0.212336 -0.07600655 -0.07735699 -0.27582854 -0.1359296 0.24384521
-0.18611161 0.20708014 0.1480871 0.15533234 0.13624224 0.17357449 -0.212992 0.2554565
00000000: dfc6 66be 5d6b 39be a958 45be a330 313e
00000010: 1020 d23d dcee 513e 54a0 55be 3b22 4bbe
00000020: 4c74 683e a0c8 623e 4ce1 63be ab3b 443e
00000030: afb1 18be 854b ecbd d90c 733e 20e1 0ebe
00000040: 4f82 4fbe 8f18 303e a4ee 633e 6970 c0bd
00000050: a019 a0bd d152 5f3e 998a e73d 4c7c 283e
00000060: 92c6 2ebe 203b 64be b105 8fbe a0a3 353e
00000070: 936d 5fbe 571a 393e ee8c f73d 503d e9bd
00000080: 71c5 98be b1ec 153e d9a0 8fbe b94c 78be
00000090: cb5e 4d3e 2438 67be 603f 42be 26d0 403e
000000a0: 14e5 61be 04b1 18be 3756 7dbe fea4 40be
000000b0: ff4c 723e 393b 833e e6d9 453e 47d5 5e3e
000000c0: 3069 2fbe 6505 583e 9c6e 593e 52a9 9bbd
000000d0: 576d 9ebd 6639 8dbe 2131 0bbe 8fb2 793e
000000e0: 0b94 3ebe d10c 543e 25a4 173e 710f 1f3e
000000f0: 1683 0b3e 83bd 313e 931a 5abe 32cb 823e

layers.0.weight f4 [128, 17]
0.2971942 -0.03821754 0.12722385 -0.068534106 -0.15518698 -0.15398952 -0.551055 -0.639059
-0.07823295 -0.30383867 -0.022116475 0.04004457 -0.030570788 -0.06817732 -0.07995881 0.01808076
0.22042559 -0.21436854 -0.48354977 -0.13632084 0.14864364 0.22511378 0.17162828 -0.038042326
-0.08651945 0.39078546 -0.22860052 -0.05158201 -0.10841915 0.18217939 0.051155895 0.2325238
0.09768818 -0.28715563 0.12324191 0.569873 0.36589333 -0.07403597 0.37263048 0.19698967
-0.32875296 0.3180439 -0.47750777 0.13022088 -0.21172117 -0.1215905 -0.106263146 -0.092052594
0.07091474 -0.04056643 0.3876119 -0.43289906 -0.20056912 0.15407462 -0.14223622 -0.094437756
0.030635739 0.15108396 0.0907508 0.43084323 -0.14373618 -0.14554851 -0.05013491 0.23584786
-0.037238818 -0.23114045 -0.18236251 -0.11407575 -0.48130423 -0.06937232 0.003716534 0.20784833
-0.29031366 0.1068317 -0.41405252 0.009045748 0.13494498 -0.06377274 -0.043576602 -0.055543326
-0.027273651 -0.021258224 0.057208467 -0.017217254 0.016229765 -0.15917574 0.44805837 0.2837882
0.023211444 -0.20519449 0.11770962 -0.20275044 0.20527962 -0.08206834 -0.043110248 -0.1609289
0.009757571 0.21839407 -0.021940738 -0.055167686 -0.30422765 0.11118699 0.09184588 0.040662475
0.23822251 0.06492993 0.33692774 -0.33122438 0.088394806 -0.23827665 -0.33670974 0.04045824
-0.07115665 0.17781779 0.05395685 -0.36217523 -0.13367628 -0.3122771 0.07396733 -0.37635902
0.62130314 0.1599452 -0.28117824 0.026309244 0.39694703 -0.06164261 0.26190367 0.19246233
0.036494132 0.3669715 0.12716542 0.04345745 -0.0092261825 0.18360588 0.091908656 0.1955663
-0.43482217 0.04244744 0.06302727 0.21343604 -0.03364038 -0.52657837 0.083321445 -0.17749965
-0.120256245 0.15789858 -0.11390223 -0.109231494 0.1001338 -0.0284585 -0.50969166 -0.026337914
0.040898353 0.10634234 -0.042668834 -0.5362004 -0.15161052 -0.32089558 0.4951477 0.18859287
0.52502024 0.26340786 -0.16178294 -0.48731646 0.15256397 0.01858849 0.09837901 -0.112325564
0.02050685 -0.09887619 -0.023404788 0.05958073 -0.047162984 -0.39929 -0.43948463 0.2095914
-0.5288622 0.12811895 0.48567876 -0.2780566 -0.06473569 0.23120247 -0.15567702 -0.2757584
0.14144081 0.06839506 0.3101532 0.023064129 -0.22114006 -0.7063062 -0.28636095 0.055427913
0.6680958 -0.18104893 0.08516528 0.42959398 0.0057725967 -0.5071878 -0.18208987 -0.12096133
-0.034518413 0.12036818 0.16775085 0.087793015 -0.21211469 -0.21421596 0.31061345 -0.01612034
-0.019144697 0.04070836 0.14323252 -0.061746243 0.29051626 0.05485538 0.29788682 0.16276418
-0.12440793 -0.2491145 0.050059058 0.018702537 0.12688161 -0.3975728 0.61852837 0.22736965
0.16982527 -0.0007891718 0.4269727 -0.20489392 0.23567854 0.11580219 -0.10233305 -0.20512685
-0.023376554 0.24196877 0.03461806 -0.16505589 0.057138287 0.19157341 0.16203639 -0.23943345
-0.45463848 -0.3731656 -0.15078694 0.13668564 -0.8571934 -0.25124818 -0.24316457 -0.05255498
-0.30205652 -0.18921083 -0.11211323 0.24304824 0.07435934 0.02890727 -0.033790663 -0.033668946
00000000: d729 983e ff89 1cbd f846 023e 9c5b 8cbd
00000010: 56e9 1ebe 6eaf 1dbe f111 0dbf 5f99 23bf
00000020: 9938 a0bd be90 9bbe 9c2d b5bc c605 243d
00000030: 976f fabc 8da0 8bbd 72c1 a3bd 1a1e 943c
00000040: 3fb7 613e 6d83 5bbe d693 f7be b197 0bbe
00000050: 0a36 183e 3a84 663e 53bf 2f3e 45d2 1bbd
00000060: 1c31 b1bd 0815 c83e 4116 6abe a847 53bd
00000070: dc0a debd 3c8d 3a3e d888 513d b81a 6e3e
00000080: be10 c83d 1006 93be 4166 fc3d 32e3 113f
00000090: 5f56 bb3e 2ca0 97bd 6cc9 be3e a9b7 493e
000000a0: 4f52 a8be a6d6 a23e e67b f4be 9f58 053e
000000b0: 6fcd 58be 7104 f9bd 7ea0 d9bd 1286 bcbd
000000c0: bf3b 913d fc28 26bd 1175 c63e f2a4 ddbe
000000d0: fe61 4dbe bdc5 1d3e 5fa6 11be 9568 c1bd
000000e0: cdf7 fa3c c1b5 1a3e 8edb b93d 7c97 dc3e
000000f0: 942f 13be ab0a 15be 435a 4dbd 1a82 713e
00000100: bb87 18bd 15b0 6cbe 3dbd 3abe 8ca0 e9bd
00000110: 826d f6be 1313 8ebd 1891 733b 31d6 543e
00000120: fea3 94be 94ca da3d b1fe d3be 9e34 143c
00000130: 042f 0a3e 489b 82bd 617d 32bd 6681 63bd
00000140: fe6c dfbc ba25 aebc 6d53 6a3d 330b 8dbc
00000150: 49f4 843c f7fe 22be e867 e53e b04c 913e
00000160: ed25 be3c 811e 52be be11 f13d d09d 4fbe
00000170: d234 523e 7213 a8bd 5f94 30bd 8cca 24be
00000180: 38de 1f3c b2a2 5f3e 10bd b3bc 83f7 61bd
00000190: bac3 9bbe 01b6 e33d b119 bc3d b28d 263d
000001a0: 9af0 733e fcf9 843d cb81 ac3e 3e96 a9be
000001b0: 5608 b53d cbfe 73be 3865 acbe 8ab7 253d
000001c0: 94ba 91bd de15 363e dc01 5d3d 086f b9be
000001d0: 6fe2 08be c9e2 9fbe 2f7c 973d 21b2 c0be
000001e0: b90d 1f3f adc8 233e 98f6 8fbe 7c86 d73c
000001f0: a43c cb3e f67c 7cbd 3d18 863e d814 453e
00000200: df7a 153d b0e3 bb3e a737 023e 7000 323d
00000210: 6a29 17bc 2e03 3c3e 9b3a bc3d 8842 483e
00000220: 03a1 debe 5edd 2d3d 7114 813d fa8e 5a3e
00000230: 7fca 09bd d7cd 06bf 6fa4 aa3d 78c2 35be
00000240: e848 f6bd 2ab0 213e 9345 e9bd c3b4 dfbd
00000250: f312 cd3d cd21 e9bc 277b 02bf 9cc2 d7bc
00000260: 0885 273d 03ca d93d 84c5 2ebd 6e44 09bf
00000270: ca3f 1bbe 6d4c a4be 0084 fd3e 7d1e 413e
00000280: ba67 063f 65dd 863e 6daa 25be 8b81 f9be
00000290: bb39 1c3e e446 983c ef7a c93d f20a e6bd
000002a0: fbfd a73c 9a7f cabd 66bb bfbc ec0a 743d
000002b0: f92d 41bd bd6f ccbe 2104 e1be 219f 563e
000002c0: 8363 07bf 9d31 033e e3aa f83e 6f5d 8ebe
000002d0: 2594 84bd 57c0 6c3e cc69 1fbe 3430 8dbe
000002e0: dcd5 103e b612 8c3d 66cc 9e3e fcf0 bc3c
000002f0: 8a72 62be 7cd0 34bf e79d 92be 6108 633d
00000300: 5408 2b3f e464 39be 226b ae3d bef3 db3e
00000310: 0d28 bd3b 0fd7 01bf c475 3abe 93ba f7bd
00000320: 2e63 0dbd 9883 f63d e1c6 2b3e d3cc b33d
00000330: 9834 59be 6e5b 5bbe ba08 9f3e ce0e 84bc
00000340: 57d5 9cbc cfbd 263d 8cab 123e a1e9 7cbd
00000350: 8cbe 943e 09b0 603d 9f84 983e a7ab 263e
00000360: 96c9 febd df17 7fbe ba0a 4d3d 1036 993c
00000370: 41ed 013e a98e cbbe e057 1e3f 97d3 683e
00000380: ade6 2d3e 6ce0 4eba 2a9c da3e b6cf 51be
00000390: b755 713e b329 ed3d fd93 d1bd c60c 52be
000003a0: 3080 bfbc a9c6 773e abcb 0d3d 6904 29be
000003b0: d609 6a3d d22b 443e deec 253e 0b2e 75be
000003c0: 60c6 e8be 900f bfbe e467 1abe 52f7 0b3e
000003d0: 0771 5bbf 9aa3 80be 2200 79be e443 57bd
000003e0: 27a7 9abe 7cc0 41be 9f9b e5bd a3e1 783e
000003f0: b649 983d f0ce ec3c 1468 0abd 73e8 09bd

layers.0.bias f4 [128]
0.25503543 0.4621758 -0.1544759 0.6438332 0.5936927 -0.26591578 0.10348931 0.066539824
-0.26397416 0.0797798 0.20287797 0.41538852 0.63030237 0.43764514 0.060664613 0.042280227
-0.5607558 0.21598259 0.33183756 0.14158091 0.21365862 0.5045899 -0.4040314 0.5154453
0.0048596747 0.4609587 0.52640504 0.5776739 0.042711075 0.65246505 0.4059139 0.18846887
0.06236803 -0.112890944 -0.11570447 -0.32668108 -0.2668108 0.4069687 -0.3352808 -0.12484803
-0.3575229 0.44470066 -0.008503066 0.013986967 -0.49788168 0.20400314 -0.09196966 0.457122
-0.40612963 0.447413 0.42734972 0.23509757 -0.09562154 -0.21096364 -0.25938207 -0.25015348
0.32369143 -0.1817497 -0.47314322 -0.3957175 0.44285196 0.058283433 -0.48124373 0.37418205
-0.16418788 -0.3641054 0.52622867 -0.3670372 -0.2249744 0.023681061 0.16083227 0.38988048
-0.30745274 -0.08284382 -0.33324754 0.3051349 -0.111865394 -0.1675072 0.41946763 -0.084773205
0.50200427 -0.29847375 0.050369192 -0.79769784 -0.25667825 -0.00970911 0.34871954 0.011026357
-0.35443702 0.35272232 0.029407706 -0.39974418 0.08199283 0.17810501 0.078725114 -0.20789051
0.04001598 -0.0006970568 -0.15124962 0.22665448 0.37233004 -0.1311861 0.33326808 -0.123085275
0.6491207 -0.14017846 0.22731881 -0.20350629 0.28338543 0.4177701 0.2943601 0.521902
-0.28904125 0.4523381 0.024802785 -0.22664027 0.08676596 0.30074263 0.5430049 0.30572447
-0.038452134 -0.14268398 0.1690582 0.4006761 -0.1789691 -0.24937643 -0.033167236 0.1368013
00000000: 0194 823e 4ea2 ec3e ee2e 1ebe 41d2 243f
00000010: 3ffc 173f 1d26 88be 34f2 d33d 0846 883d
00000020: 9f27 87be 9763 a33d 3ebf 4f3e cead d43e
00000030: 7f5b 213f 0613 e03e 757b 783d 082e 2d3d
00000040: b18d 0fbf 8a2a 5d3e 9de6 a93e 96fa 103e
00000050: 53c9 5a3e ce2c 013f 34dd cebe 39f4 033f
00000060: e83d 9f3b c702 ec3e 7bc2 063f 70e2 133f
00000070: cff1 2e3d f307 273f f2d3 cf3e fcfd 403e
00000080: 9f75 7f3d 5e33 e7bd 77f6 ecbd be42 a7be
00000090: 6d9b 88be 345e d03e eda9 abbe 53b0 ffbd
000000a0: 3e0d b7be ceaf e33e 7250 0bbc 9729 653c
000000b0: 59ea febe 33e6 503e 975a bcbd e50b ea3e
000000c0: 39f0 cfbe 5113 e53e 95cd da3e 6bbd 703e
000000d0: 3ad5 c3bd da06 58be bacd 84be 1e14 80be
000000e0: e2ba a53e 981c 3abe d43f f2be 7c9b cabe
000000f0: 7ebd e23e 9cba 6e3d 9465 f6be ca94 bf3e
00000100: de20 28be 066c babe ecb6 063f 4dec bbbe
00000110: b05f 66be c9fe c13c 37b1 243e 6a9e c73e
00000120: 726a 9dbe 05aa a9bd 6c9f aabe a43a 9c3e
00000130: af19 e5bd 0287 2bbe 76c4 d63e 939d adbd
00000140: 5a83 003f 8dd1 98be ed4f 4e3d ed35 4cbf
00000150: 556b 83be f512 1fbc 5e8b b23e e5a7 343c
00000160: c578 b5be 0598 b43e 6ee8 f03c 45ab ccbe
00000170: dbeb a73d 2961 363e a23a a13d 40e1 54be
00000180: cce7 233d b1ba 36ba 2ee1 1abe 1d18 683e
00000190: 0ba2 be3e a655 06be 1da2 aa3e 2214 fcbd
000001a0: c62c 263f f18a 0fbe 43c6 683e f463 50be
000001b0: e517 913e f6e5 d53e 5eb6 963e 5f9b 053f
000001c0: 37fd 93be dc98 e73e 362f cb3c 6314 68be
000001d0: 5ab2 b13d f0fa 993e 5e02 0b3f eb87 9c3e
000001e0: fc7f 1dbd c01b 12be 981d 2d3e 6b25 cd3e
000001f0: ad43 37be 895c 7fbe 5eda 07bd a415 0c3e

layers.1.weight f4 [128, 128]
0.005190482 0.006742651 0.12638023 -4.528219e-05 0.027998371 -0.044703864 0.03726679 0.06779831
0.13051292 0.026025658 -0.021719044 -0.06191846 -0.053323768 0.008818487 -0.015477233 -0.04715515
0.0651444 0.17636381 0.030057246 0.021828745 -0.11479916 0.14613622 0.051792115 0.0018869841
0.06750846 -0.050987512 0.09628632 -0.13934807 0.2768522 0.18366882 -0.00988736 -0.13004932
-0.062137756 -0.04179493 -0.0666502 -0.07198667 0.0108124735 -0.007067011 -0.010972597 0.20845975
-0.049240127 0.032909773 -0.1144383 0.06422659 0.020862803 0.09405972 0.056623437 -0.041468296
0.09195894 -0.07949333 -0.076223664 0.028857531 0.013568703 0.077786736 -0.06732272 0.14485304
-0.16436635 -0.15212703 -0.034257516 -0.10415524 0.12604469 -0.019601788 -0.015888948 0.07953628
-0.0031880229 0.04073282 -0.022821255 0.05599543 0.15536618 0.05933255 -0.053741552 0.031052854
0.0661174 0.17849255 0.05315322 -0.046986565 0.05053285 0.11843383 -0.017103402 -0.006592365
0.053118244 0.13265981 0.035004828 -0.05719985 -0.076308414 -0.08358762 0.18897142 0.3523766
-0.038887776 0.06441722 -0.049755953 -0.07883612 0.040533587 0.05877628 0.087868035 0.038518593
-0.030514052 0.039710224 -0.048664965 -0.013281742 0.12912124 0.028789936 0.055700377 -0.14587873
-0.16889246 0.042279728 0.09493788 -0.094980694 0.0916297 -0.043082446 -0.074056596 0.11455908
-0.026569467 0.009046796 -0.12459148 0.04475816 -0.052206546 0.12718841 0.004407379 -0.12631974
0.05710903 0.060373932 0.11642388 0.16106787 -0.013866594 0.050870314 0.042032927 0.055737175
0.18466826 0.14234497 0.019575046 0.023356862 0.049039643 -0.046247452 -0.0701818 -0.030286873
-0.040168386 0.12669879 0.04320729 0.15901384 0.17889288 0.03396005 0.09310993 0.09964057
-0.0528621 0.024949493 0.042185828 0.020433333 0.1626627 0.061209295 0.0156869 0.027022969
0.02517588 0.1951735 0.10985726 0.27226403 -0.32475728 0.036793508 0.009540246 0.13199256
-0.032534383 0.053116545 0.21754451 0.052716855 -0.13994889 0.09204737 0.0679824 -0.13329788
0.12019029 0.18865503 -0.0295664 -0.064374425 -0.042803157 -0.054316454 0.19184558 0.11543516
0.008359725 0.14909674 -0.01686112 0.11397382 -0.026607592 -0.036096197 0.07955002 0.1583969
0.10939953 0.08107865 0.0051524597 0.04731365 -0.09750541 0.05727442 -0.005301827 0.018916614
0.115388595 0.07607106 0.17502624 -0.21268067 0.04463685 -0.039601225 0.14231598 0.122562334
0.11597025 -0.09794859 0.065438755 0.018842531 0.026856543 0.097592816 0.070546314 0.06682388
-0.015062246 0.028274104 0.041637562 -0.026653606 0.19438298 0.16321109 -0.081845984 -0.24954426
0.15577978 -0.038524795 0.06911115 0.1110392 0.019842887 -0.08912848 -0.0067856484 -0.056308985
0.010115076 0.058129 -0.008947644 0.1199433 0.06310894 -0.12833165 0.078973 0.18608631
0.23731458 0.031576067 0.13384856 -0.120097116 0.120010376 0.052706305 0.045411635 -0.0065947855
0.19344482 -0.024357514 0.09902776 -0.038788877 -0.0025089115 0.05658612 0.07585727 0.14583094
0.073366694 0.17256224 0.03314791 0.07174736 -0.044867426 -0.05715556 0.09667832 -0.14544101
00000000: eb14 aa3b 75f1 dc3b d269 013e 62ed 3db8
00000010: d75c e53c 661b 37bd 10a5 183d d7d9 8a3d
00000020: 2ea5 053e c333 d53c 23ec b1bc 369e 7dbd
00000030: 066a 5abd 6a7b 103c 3894 7dbc c225 41bd
00000040: 6d6a 853d b798 343e 9d3a f63c 32d2 b23c
00000050: d21b ebbd bca4 153e f823 543d ae54 f73a
00000060: e041 8a3d 48d8 50bd c331 c53d 43b1 0ebe
00000070: 92bf 8d3e ae13 3c3e 98fe 21bc a62b 05be
00000080: 2984 7ebd 2931 2bbd e67f 88bd bf6d 93bd
00000090: cd26 313c 6392 e7bb 68c6 33bc 7976 553e
000000a0: 04b0 49bd 66cc 063d a15e eabd 3b89 833d
000000b0: 78e8 aa3c 62a2 c03d faed 673d a9da 29bd
000000c0: f854 bc3d 66cd a2bd 271b 9cbd a166 ec3c
000000d0: 444f 5e3c a74e 9f3d 7fe0 89bd 5b54 143e
000000e0: a74f 28be 30c7 1bbe 9c51 0cbd 584f d5bd
000000f0: dc11 013e ee93 a0bc 8a29 82bc ebe3 a23d
00000100: 26ee 50bb 75d7 263d a4f3 babc 775b 653d
00000110: 5018 1f3e b006 733d 1a20 5cbd 8e62 fe3c
00000120: 8f68 873d c0c6 363e 31b7 593d fc74 40bd
00000130: 89fb 4e3d 708d f23d 6f1c 8cbc c404 d8bb
00000140: 8492 593d f9d7 073e 3961 0f3d 644a 6abd
00000150: 9647 9cbd fc2f abbd b981 413e b56a b43e
00000160: ca48 1fbd 2ded 833d e6cc 4bbd d574 a1bd
00000170: 8c06 263d 66bf 703d 28f4 b33d acc5 1d3d
00000180: 9bf8 f9bc 30a7 223d ea54 47bd aa9b 59bc
00000190: 5c38 043e dfd8 eb3c 1426 643d 3c61 15be
000001a0: 25f2 2cbe 822d 2d3d cb6e c23d 3d85 c2bd
000001b0: 5aa8 bb3d 3877 30bd fcaa 97bd f39d ea3d
000001c0: 36a8 d9bc 0339 143c d129 ffbd 5554 373d
000001d0: 88d6 55bd ae3d 023e c66b 903b f659 01be
000001e0: 29eb 693d a84a 773d a56f ee3d faee 243e
000001f0: b630 63bc 645d 503d b82a 2c3d aa4c 643d
00000200: ad19 3d3e e1c2 113e d95b a03c e456 bf3c
00000210: cbdd 483d f86d 3dbd 7abb 8fbd 2d1c f8bc
00000220: 9b87 24bd 54bd 013e 21fa 303d 86d4 223e
00000230: b22f 373e b219 0b3d 6bb0 be3d 5b10 cc3d
00000240: ee85 58bd e162 cc3c 0ccb 2c3d ce63 a73c
00000250: 0d91 263e 99b6 7a3d d081 803c 465f dd3c
00000260: a63d ce3c 90db 473e d8fc e03d 3166 8b3e
00000270: 9646 a6be cab4 163d b14e 1c3c 0f29 073e
00000280: c642 05bd bc90 593d fdc3 5e3e a1ed 573d
00000290: c34e 0fbe 5583 bc3d 5b3a 8b3d 3d7f 08be
000002a0: 5426 f63d c92e 413e 3c35 f2bc bdd6 83bd
000002b0: 5d52 2fbd ee7a 5ebd 2b73 443e 4569 ec3d
000002c0: 3af7 083c d1ac 183e 5520 8abc 1b6b e93d
000002d0: 2af8 d9bc 9bd9 13bd 1feb a23d cc32 223e
000002e0: dc0c e03d 900c a63d f7d5 a83b f5cb 413d
000002f0: ebb0 c7bd 9598 6a3d f3ba adbb 04f7 9a3c
00000300: db50 ec3d 25cb 9b3d 143a 333e f6c8 59be
00000310: 21d5 363d e534 22bd 48bb 113e f601 fb3d
00000320: cf81 ed3d 4599 c8bd c104 863d a75b 9a3c
00000330: 4102 dc3c bede c73d 967a 903d f5da 883d
00000340: a3c7 76bc 189f e73c 268c 2a3d aa58 dabc
00000350: 550c 473e cf20 273e de9e a7bd 8888 7fbe
00000360: bc84 1f3e 2dcc 1dbd 268a 8d3d 8568 e33d
00000370: 8d8d a23c fe88 b6bd 255a debb 40a4 66bd
00000380: b4b9 253c ad18 6e3d 2499 12bc d5a4 f53d
00000390: 433f 813d 5f69 03be 99bc a13d 698d 3e3e
000003a0: 9802 733e e855 013d 990f 093e 7af5 f5bd
000003b0: 00c8 f53d 91e2 573d 8d01 3a3d 1219 d8bb
000003c0: 6616 463e 6989 c7bc 11cf ca3d 16e1 1ebd
000003d0: 8d6c 24bb d9c6 673d 0e5b 9b3d b554 153e
000003e0: 4741 963d 28b4 303e 1ac6 073d 48f0 923d
000003f0: e8c6 37bd f31b 6abd 48ff c53d 7dee 14be

layers.1.bias f4 [128]
-0.074273236 0.07285247 0.12922803 0.0911417 0.16227973 0.07047415 -0.11309064 -0.0049041314
-0.14701685 0.15729703 -0.08822769 0.07489071 -0.258496 -0.024903914 0.07489294 0.10404056
0.0070502157 0.14906257 0.103677064 0.12437348 0.13571236 -0.08982792 0.0958384 -0.06101449
0.026141372 0.21637751 0.0835951 -0.071495995 0.11370215 0.24414238 0.049532104 0.07852236
0.13475281 0.1050699 -0.053566936 -0.188261 -0.05586368 0.2466843 0.19170958 -0.0064401366
0.030067898 -0.2134615 0.07661526 -0.058356103 0.21787447 -0.017137883 0.16732824 0.18793392
0.121446304 0.06614921 -0.21458752 0.13076286 0.16170835 -0.033508938 0.24693157 -0.08833414
-0.1415425 -0.06819289 0.07437344 -0.06241332 0.100356795 0.01219803 -0.26914468 -0.06490238
0.27853882 0.13379744 -0.028714526 0.04568841 0.13722286 -0.065903276 0.040260967 0.12959552
0.02802872 0.11072518 -0.11372303 -0.20671095 0.14525212 0.031532764 0.03295081 0.11426434
0.22085533 0.09714474 0.0026473647 0.05613542 -0.020333227 0.20807971 0.23322284 -0.48867273
0.01574097 -0.06778062 0.048743695 0.1891753 -0.16555236 0.1753727 -0.0010985383 0.23714256
-0.069947354 0.07439632 0.32502362 0.063050866 0.05236446 0.13676672 -0.050931312 0.1005446
0.077980496 -0.063869 0.007732386 -0.083646715 0.11588274 0.20874628 -0.05431845 0.035484854
0.1915753 -0.05991441 0.22216877 -0.0008140204 0.06944446 0.013872497 0.07410628 -0.05557405
-0.26329285 -0.17499259 -0.24174125 -0.057480633 0.05149017 0.09708125 -0.052693892 0.067113146
00000000: 911c 98bd ad33 953d 5a54 043e 80a8 ba3d
00000010: a82c 263e c054 903d 119c e7bd d6b2 a0bb
00000020: 968b 16be 7912 213e b8b0 b4bd 4d60 993d
00000030: 9659 84be 4b03 ccbc 7861 993d 3813 d53d
00000040: 7f05 e73b dca3 183e a454 d43d 86b7 fe3d
00000050: 2ef8 0a3e b3f7 b7bd ec46 c43d 54ea 79bd
00000060: 6e26 d63c 1192 5d3e e833 ab3d 7e6c 92bd
00000070: acdc e83d 7600 7a3e 2de2 4a3d 55d0 a03d
00000080: a4fc 093e e32e d73d 0169 5bbd 7ec7 40be
00000090: 50d1 64bd cf9a 7c3e 844f 443e c807 d3bb
000000a0: f450 f63c a795 5abe 76e8 9c3d cf06 6fbd
000000b0: 7c1a 5f3e bf64 8cbc 1858 2b3e c071 403e
000000c0: d7b8 f83d 3d79 873d d5bc 5bbe b3e6 053e
000000d0: e096 253e ab40 09bd a1db 7c3e 88e8 b4bd
000000e0: 84f0 10be b7a8 8bbd 1a51 983d 1ca5 7fbd
000000f0: dd87 cd3d 3fda 473c 55cd 89be 8aeb 84bd
00000100: a49c 8e3e 3202 093e ba3a ebbc c523 3b3d
00000110: 2684 0c3e 4cf8 86bd afe8 243d b0b4 043e
00000120: 7c9c e53c e2c3 e23d 9fe7 e8bd 09ac 53be
00000130: f9bc 143e 8028 013d 6ef7 063d 6c03 ea3d
00000140: e627 623e d2f3 c63d 697f 2d3b 41ee 653d
00000150: de91 a6bc d912 553e f8d1 6e3e 5033 fabe
00000160: 35f3 803c 91d0 8abd 78a7 473d 2bb7 413e
00000170: 8f86 29be e794 333e d4fc 8fba 80d5 723e
00000180: 8f40 8fbd 195d 983d 7f69 a63e d020 813d
00000190: 1e7c 563d 930c 0c3e 5a9d 50bd 54ea cd3d
000001a0: 3db4 9f3d c0cd 82bd f45f fd3b f84e abbd
000001b0: ee53 ed3d 96c1 553e 067d 5ebd 9158 113d
000001c0: 512c 443e d068 75bd 3680 633e fc63 55ba
000001d0: e638 8e3d 7849 633c 09c5 973d 9da1 63bd
000001e0: 52ce 86be 4231 33be 058b 77be d070 6bbd
000001f0: 5be7 523d 89d2 c63d 8dd5 57bd 9e72 893d
