9_gym-DDPG/DDPG_HalfCheetah-v4_4500-eps0.1-t32-l0.0001-s1.pth (torch, 195690 bytes, 13 tensors)

layers.0.weight f4 [128, 23]
000000 29 d8 e3 bb 55 10 c1 3c 95 06 56 be 6b 5c 1c be
       -0.0069532585 0.023567358 -0.20900948 -0.1526963
000010 db b2 58 be 04 2d 87 3e 0c 54 6d 3d be 28 2e 3e
       -0.21161978 0.26401532 0.05794148 0.1700773
000020 4d 3d c8 bd 31 c1 b6 bd 04 6a 18 3d 83 4a 42 3c
       -0.09777317 -0.08923567 0.03721048 0.011858585
000030 0d f0 95 3c 32 62 c6 bb 54 6d f4 bc 14 c6 3f bc
       0.018302942 -0.0060541863 -0.029837288 -0.01170494
000040 b0 14 57 bb 66 17 72 bd fb 28 89 3e 55 39 86 3d
       -0.0032818727 -0.059104346 0.26789078 0.06553904
000050 81 1d 5b be b9 4f 8a be db c1 4f be 15 b0 90 be
       -0.21397974 -0.2701395 -0.20288794 -0.2825934
000060 a3 a8 83 be 4a f2 29 3e 8c cb 3e 3e 2b d5 a1 3d
       -0.25714597 0.16596332 0.18632334 0.07901987
000070 5d 4f 17 bd dd 9d 82 3e 5d ec 3b 3e 8d a8 69 3d
       -0.03694092 0.25511065 0.18351884 0.05704551
000080 74 7e b5 3e ef d3 72 be 3d 02 3d be cd ef 00 be
       0.3544804 -0.23713659 -0.18457885 -0.12591477
000090 25 c2 23 3e 5c 0d b2 bc 2a f5 1c 3d a9 80 35 bd
       0.15992029 -0.021734886 0.038319744 -0.044312153
0000a0 40 21 1c 3e e9 49 8c 3d 3a bd 01 3e f3 d2 61 be
       0.15247059 0.06850035 0.1266984 -0.22053127
0000b0 1d 11 8a be 09 e4 88 3d 6d a1 73 bf c5 0b 5f 3e
       -0.2696618 0.06684119 -0.9516819 0.21781833
0000c0 2e 8b c3 bd 41 4f a4 3e ba c0 d9 bd 67 29 a6 be
       -0.09548031 0.32091716 -0.10632463 -0.32453462
0000d0 0c 22 b1 3e 87 a3 ca bc 98 df 27 3f fe ff d5 bc
       0.34596288 -0.024736179 0.6557555 -0.026123043
0000e0 b6 9d a9 3c d6 bc cb bd f9 21 26 3d cd 14 64 3b
       0.020705085 -0.09948127 0.040559743 0.0034802437
0000f0 8e 55 93 bd a0 ae 82 3c 69 33 ae bc 02 52 8d 3e
       -0.07194053 0.015952408 -0.021264749 0.2760163
000100 c7 e5 63 bc 52 6e 50 bd 41 9a 2a 3d df 68 87 bd
       -0.013909764 -0.05088646 0.041651014 -0.066117994
000110 4d 60 fb bd 00 7b 84 be 86 89 07 3f c0 e9 8e be
       -0.12274227 -0.25875092 0.5294422 -0.27912712
000120 d1 c2 b0 3d 8a 3b 10 be 91 24 35 3f b9 d4 92 be
       0.08630908 -0.14085212 0.7075892 -0.2867792
000130 42 2b 79 bd f1 3d 49 3d a6 c2 f3 bd e6 b9 6c 3d
       -0.06083227 0.049131338 -0.119023606 0.057794474
000140 cb a2 13 bd 21 dd b9 bc 9f c2 df bb 33 53 9e 3c
       -0.036043923 -0.02268845 -0.0068286206 0.019326782
000150 0b 8a 7f 3c 2e 1d 91 bc c0 77 bd be 1c d3 bf bc
       0.015596877 -0.01771411 -0.37005424 -0.023416094
000160 1e 25 09 bd 86 d4 1a 3e 79 f3 11 3e 02 9e 11 bd
       -0.033482663 0.15120134 0.14253034 -0.03555108
000170 7e fc b9 3e 65 f7 79 bd 3f ec 46 be d5 75 02 3f
       0.3632545 -0.06102695 -0.19426058 0.5096105
000180 4d 6b 0f 3d ab 20 53 be 03 b1 cc 3e db 23 82 3e
       0.03501444 -0.2061793 0.399788 0.2541798
000190 ee 0c cf 3e d7 c9 35 3e 8e cc 64 3e 2d e0 c6 3d
       0.40439552 0.17752777 0.22343656 0.09710727
0001a0 87 74 d1 bd a4 32 9f bc 58 1e bd 3d 85 ef 22 3d
       -0.10227304 -0.019433327 0.09234303 0.039779205
0001b0 14 0c ff 3c 7b ef 2f be f6 fd 1e 3e e4 b2 00 3e
       0.031133689 -0.17181198 0.15526566 0.12568241
0001c0 17 d7 9a 3e c5 be 1a 3e 03 0b 57 3e 9b b4 b4 be
       0.30242226 0.15111835 0.21000294 -0.3529404
0001d0 ef af ed 3e 3c ce 46 3d 16 a6 01 bf 19 e7 95 be
       0.4642329 0.048536524 -0.5064405 -0.29277876
0001e0 9a 70 85 bd c5 f5 17 3f 46 80 d8 3e 1f b4 d6 3d
       -0.06515618 0.5935939 0.42285365 0.10483574
0001f0 b1 81 3d 3e 4b ff 18 bd 35 b5 13 bc 82 b6 37 3c
       0.18506505 -0.03735284 -0.009015371 0.011212947
000200 6c 31 3e 3c c0 8d 79 3d 3b 0a 19 3d 5c 59 0e 3d
       0.011608463 0.0609262 0.037363272 0.03475319
000210 a0 d0 12 3e 25 f1 ab 3c 8c 11 30 3e c0 4c b0 3e
       0.14337397 0.02098901 0.17194194 0.34433556
000220 7f a6 ce 3e 7e ec bd 3d a1 86 e4 be 73 12 45 be
       0.403614 0.09273623 -0.44633964 -0.19245319
000230 88 c2 db 3e 4c b6 2c 3f f5 da b2 3d c1 13 a9 3c
       0.42921853 0.6746566 0.08733169 0.020639302
000240 d9 01 db 3e 70 d0 02 3e 67 17 94 3e dc d8 4c bc
       0.42774847 0.12774825 0.28924105 -0.012502875
000250 8d 0a a8 3e 3d 31 96 3c 82 fa 63 3d 69 82 64 ba
       0.3282055 0.018334026 0.055658825 -0.00087169424
000260 1d 48 07 3c aa b3 93 3c f4 d2 80 bc ec d3 73 be
       0.008256939 0.018030006 -0.01572559 -0.2381131
000270 7b 1e 13 be be 22 d0 3b 05 9e b0 3e e0 62 07 3d
       -0.14367096 0.006351798 0.3449556 0.03305328
000280 6c 10 67 bd 28 a9 e4 3e bc 56 6a 3e a1 de 54 3f
       -0.056412145 0.44660306 0.22884649 0.83152205
000290 3f f8 bb bd 45 95 c0 ba 1a 2c ec be db 49 9f be
       -0.091782086 -0.0014692923 -0.46127397 -0.31111035
0002a0 36 93 19 be ef 81 2b bd 28 de d7 3d b3 ce 64 3e
       -0.14997563 -0.04187196 0.1054042 0.22344474
0002b0 85 c5 ac 3c 37 4e 31 3c c0 66 00 3c a6 6e 56 3d
       0.021090278 0.0108218705 0.0078369975 0.052351616
0002c0 db 7a 07 3d 0a ec 83 bc 56 c6 b0 be f5 fc dc 3d
       0.03307615 -0.016103763 -0.34526318 0.10790435
0002d0 05 8a 98 bd 08 89 2d bd 91 3e 5a bd ec fe 18 be
       -0.074482 -0.04236701 -0.053282324 -0.14940995
0002e0 2a 8f 21 bf 3f cf 65 3e fc 45 40 bf 6c a0 e0 be
       -0.63109076 0.2244234 -0.7510679 -0.43872392
0002f0 9c 0f f4 bc 8c 73 27 bf e2 d5 c4 3d 56 98 7a be
       -0.0297926 -0.65410686 0.096111074 -0.24472174
000300 9e d1 80 be bd cc d8 bd 93 fb d7 3d 0e f1 a8 3a
       -0.25159925 -0.10585926 0.10546031 0.0012889223
000310 26 f7 cc 3a 24 34 e1 3b 53 ad 89 3d cf 9c 03 3d
       0.0015637621 0.0068726707 0.06722512 0.032131966
000320 40 28 13 3b 21 ad 50 be f8 f1 a3 bd 47 83 ca bd
       0.002245441 -0.20378543 -0.08005136 -0.098883204
000330 d7 2c 5f 3d 50 c9 24 3e 85 e4 ba bc a5 63 05 bf
       0.054486122 0.1609242 -0.022814045 -0.5210517
000340 d1 f2 03 be fe 03 da bd 27 3f 75 bd db 36 11 be
       -0.12885596 -0.10645293 -0.05987468 -0.14181082
000350 a5 36 2b be cb 6a fe 3e a4 5a 6d 3e 05 24 a7 3e
       -0.16720064 0.49690852 0.23179108 0.32644668
000360 a3 ca 43 3d 1a db fe bc 44 b4 6a 3b 71 7b d5 3c
       0.04780067 -0.031110335 0.0035813013 0.026059838
000370 f1 46 78 bc 89 84 3d 3e b2 b0 94 bd ee 6a 04 bd
       -0.0151536325 0.1850759 -0.072602645 -0.03232854
000380 29 24 67 3e 86 39 93 be 3b ce 15 be 46 97 1c 3f
       0.22572388 -0.28754824 -0.14629452 0.61168325
000390 a2 33 7b 3e 91 ae 03 3e 1a b3 c0 3d 18 63 11 bf
       0.24531415 0.1285956 0.09409161 -0.5679183
0003a0 b1 28 14 3f 01 f6 19 3e 93 19 1b bd 5e 78 91 bd
       0.5787459 0.1503525 -0.037866186 -0.07103036
0003b0 40 23 08 be 81 65 05 3e 6f c8 b9 3e db 1a 1f be
       -0.13294697 0.13027002 0.3628573 -0.15537588
0003c0 e1 3c 4f be 14 1e 12 bd 72 1e 14 bd 3d 50 8b 3b
       -0.20238067 -0.035673216 -0.036161847 0.0042515085
0003d0 b2 d6 b5 bc 13 75 85 bc 27 40 84 bc aa 64 1e be
       -0.022197101 -0.016291177 -0.016143871 -0.15468088
0003e0 b5 09 25 bd de 48 72 bc 63 f6 0b 3e 0d 46 3b be
       -0.04029246 -0.014787881 0.13668208 -0.18288441
0003f0 56 bb 87 bd 86 d2 75 3d 59 36 db 3d 94 82 49 be
       -0.06627528 0.060015224 0.10703725 -0.19678718

layers.0.bias f4 [128]
000000 b5 61 43 be 46 23 16 be b3 15 fd be 2c a4 be be
       -0.19080241 -0.14661893 -0.49430618 -0.37234628
000010 e0 9a be be 9d e5 9c bc d1 84 60 3d cf b1 26 bf
       -0.37227535 -0.019152457 0.054814164 -0.65115064
000020 4e c2 15 3e 79 d8 d6 3b f9 0a 3e be 5c 55 19 bf
       0.14624903 0.0065565673 -0.18558873 -0.59895873
000030 19 41 d4 be e9 51 d6 be 31 91 d3 bd 31 f7 5d 3e
       -0.41455916 -0.41859367 -0.103304274 0.21676327
000040 2f b9 ca 3d 58 e5 b6 be ab 8e a6 be 45 f9 46 bf
       0.09898602 -0.3572185 -0.32530722 -0.77724105
000050 0f 08 2e 3f df f0 81 be d8 f5 c9 be 7a dc e6 be
       0.67981046 -0.25379083 -0.39445376 -0.45090085
000060 d6 2d 0d bd 0f a0 2a bc 9b e0 62 bd 9f 76 9d be
       -0.03446754 -0.0104141375 -0.05538998 -0.30754563
000070 93 26 c7 3e cb 28 2b 3e 9b 4a 54 bd 73 94 13 be
       0.38896617 0.1671478 -0.05182896 -0.14412098
000080 e2 18 5d 3e 5f cc 1c bf c3 54 99 be 24 2a 8b 3e
       0.21591523 -0.61249346 -0.2994748 0.27180588
000090 fd e2 5b be 2b 9d c7 be d4 1e ab 3e e2 fe ca be
       -0.21473308 -0.38987097 0.33421957 -0.39647585
0000a0 a7 cd 85 be 60 cf 6e be 87 8e 04 be 8f 9b fd bd
       -0.26133463 -0.23321295 -0.12944995 -0.12383186
0000b0 1b d6 aa 3c f3 91 6a be 06 61 00 be 46 65 13 bf
       0.020854047 -0.22907238 -0.12537012 -0.57576406
0000c0 64 8f c2 3e 8c a5 28 3f 4f a5 a6 be b7 94 87 be
       0.38000023 0.65877604 -0.32547995 -0.26480648
0000d0 5c c3 87 3e d7 07 d4 3e 43 3b ca 3b 68 84 24 bf
       0.26516235 0.4141223 0.0061716153 -0.64264536
0000e0 f0 df 55 bd 65 b6 80 be 95 90 33 3e 30 e0 d1 3e
       -0.052215517 -0.25139156 0.17535622 0.40991354
0000f0 2f 26 5b 3d 1e 53 5c 3e aa ab fc be c8 69 5c be
       0.05350321 0.21516082 -0.4934972 -0.21524727
000100 82 09 a4 be 4b 60 d1 3e 58 e2 01 be df 9c 94 be
       -0.32038504 0.40893778 -0.12684 -0.29025933
000110 37 7f 82 be 5a be 19 be 23 30 07 3e 8f 9d df 3c
       -0.25487682 -0.1501402 0.13201956 0.02729681
000120 41 b0 98 3d 4f 92 d2 be 7d aa 05 be 6d 0c af be
       0.07455493 -0.4112725 -0.13053317 -0.34189168
000130 74 b0 96 bd d3 75 a4 3d 82 0b 2b 3d 14 fc c6 bd
       -0.073578745 0.08030286 0.04175902 -0.09716049
000140 f6 46 10 bb 86 2a 40 be 08 2a 08 3e c2 e0 37 be
       -0.0022014952 -0.18766221 0.13297284 -0.17956832
000150 64 54 9e be d2 f7 47 be e1 cb 05 be bf f7 04 3f
       -0.3092376 -0.1952813 -0.13066055 0.5194053
000160 2b c2 68 3e ac b9 a1 be ce bf d4 b9 f7 a7 ef bb
       0.22730319 -0.3158697 -0.00040578697 -0.007313724
000170 bb fd 3e be bb 15 eb be e7 8e e6 3d 98 5b 57 be
       -0.18651478 -0.45915017 0.11257725 -0.21031034
000180 72 01 0b bf 92 ff fb 3e 0a d8 17 be e5 ac 2f 3e
       -0.5429908 0.49218422 -0.14828506 0.17155798
000190 66 02 8e 3d ac 78 75 be 30 ea cb be 93 83 95 3e
       0.06934051 -0.23971814 -0.39827108 0.29201946
0001a0 25 3f 93 3e 54 09 a5 3d ff 63 28 be f6 25 21 3e
       0.28759113 0.0805842 -0.16444395 0.15737137
0001b0 85 5a 5c be d2 9c c1 be 43 0c 27 3f 47 a6 34 3f
       -0.21518905 -0.37814957 0.65253085 0.7056622
0001c0 bf 77 59 3e 93 53 8e 3e e6 a1 d8 3e 7a 50 ca be
       0.21237086 0.27798137 0.4231102 -0.39514524
0001d0 a8 a7 04 3e 13 de da 3e 50 42 84 3d b7 8c c6 3e
       0.12954581 0.42747554 0.064579606 0.38779232
0001e0 8f 26 ff 3d e6 f4 d2 be d5 ba d2 3e a0 4f d7 3e
       0.12458526 -0.41202468 0.41158167 0.42052937
0001f0 68 af 4e be 34 f6 c2 be da 37 8e 3e ff d2 bc be
       -0.201841 -0.38078463 0.27776986 -0.36879727

layers.1.weight f4 [128, 128]
000000 43 4c 12 bd 8e 80 a7 bd 6e 8e 8e bd 07 fa 74 3d
       -0.03571726 -0.08178817 -0.0696076 0.059808757
000010 15 e0 e6 bc 39 55 89 38 b6 66 40 3e 35 5f 92 3c
       -0.028183023 6.548543e-05 0.18789181 0.017867664
000020 00 b2 1f be 91 ba 68 3d 0c ad c6 3c d9 3f 78 bd
       -0.15595245 0.05681855 0.024252437 -0.060607765
000030 f9 37 8a 3d ff 35 4a be 7f 6f 33 3e 94 3c 16 3e
       0.06748957 -0.1974716 0.17523001 0.14671546
000040 21 8f 96 bd 96 51 c7 3c 38 98 7c bd 52 6c 81 3d
       -0.073515184 0.024330895 -0.061668605 0.063194886
000050 c3 fb 5b bc a3 ac a7 bc fc 1a c9 3d 0d b4 67 3c
       -0.013426724 -0.020468062 0.098196 0.014142049
000060 3d bb 56 3e 8e ee 6c be 0a 2d 1e be 6c 6a 17 3d
       0.20969863 -0.23137876 -0.15446869 0.036966726
000070 41 58 e7 bd 6e 59 9d bd 1e 63 75 bd 81 7a 6f 3c
       -0.1129613 -0.07683073 -0.05990898 0.01461661
000080 b3 2c 1b be f8 33 a7 3b 41 eb 37 bd 4a fd c1 bd
       -0.1515377 0.0051026307 -0.04490209 -0.09472139
000090 d0 e6 19 3e 00 60 8b 3c 76 15 2c be f8 87 95 bd
       0.15029454 0.01701355 -0.16805062 -0.073013246
0000a0 30 f5 80 3d e7 bd 0b 3c f0 5b ee 3d b9 4c 0b 3d
       0.06296766 0.008529163 0.116386294 0.034008715
0000b0 e9 12 51 bd 32 46 1a be de 29 a4 3d a6 aa 89 3d
       -0.051043425 -0.1506584 0.08015798 0.06722002
0000c0 93 91 0b be 61 30 29 bd 3c a9 9c bd ce 47 08 bd
       -0.13629751 -0.041305903 -0.076494664 -0.033271603
0000d0 2b b6 3e bd d8 49 fa bd 3c 04 ba 3b b9 ad db bc
       -0.046560448 -0.12221116 0.0056767743 -0.026816236
0000e0 aa 95 c6 bd 14 66 8e 3d fc 8d 66 bd 05 94 12 bd
       -0.09696515 0.069530636 -0.05628775 -0.035785694
0000f0 9c 07 af bb 69 e3 a8 3b c0 58 18 3e 49 78 f4 3d
       -0.0053414833 0.0051540625 0.14877605 0.11937005
000100 e1 e9 d3 3d 6b bd dd bd 75 c6 01 3e 01 87 ba 3d
       0.10347343 -0.10827144 0.12673362 0.09107781
000110 56 a1 50 3d e5 52 d3 bc a5 5f c3 bc f0 33 4d 3d
       0.050935112 -0.025796363 -0.023849318 0.05009836
000120 26 06 bc bd fe ae f7 3d 0f 1c ab bd 27 1e 84 bd
       -0.0918086 0.12093924 -0.08354961 -0.064510636
000130 7a a6 3a 3d 25 c4 a0 3d 2d 6f 88 bd bc 07 e8 3b
       0.04556892 0.078499116 -0.0666183 0.007081
000140 2e f5 cc 3d d4 cd 96 3d 05 59 eb 3c 8b bc 2a 3e
       0.10007702 0.07363477 0.028728971 0.16673486
000150 cc ea 10 3e 0e 21 29 3d ad f7 05 3e bc cf 56 bc
       0.14152068 0.04129129 0.13082762 -0.013111051
000160 d3 b2 41 be 9c e4 35 3b e2 74 a2 3c d0 7c cc 3b
       -0.18915872 0.002775467 0.019831125 0.0062404647
000170 c7 4d d9 bc 81 e3 44 bd 09 0e 55 3e d3 26 5e 3c
       -0.026526345 -0.048068527 0.20806135 0.013559061
000180 74 4e 69 bd fc 8e c1 3b 04 14 b4 bd 7d e3 d5 bd
       -0.056959584 0.0059069376 -0.0879288 -0.104437806
000190 03 12 4f 3c 72 95 22 3a 93 86 89 bd 62 04 ca bc
       0.012638572 0.00062020787 -0.06715121 -0.024660293
0001a0 dd 3b b0 bd 4d 3c 53 3d fa 8f 6f 3d 02 1f e2 3d
       -0.08605168 0.05157118 0.058486916 0.110410705
0001b0 47 75 9d bd 80 ef c6 38 72 8c 14 bd b5 83 20 be
       -0.076883845 9.485986e-05 -0.03626675 -0.15675242
0001c0 49 ff 53 bd a3 ef ce 3d 9b c5 cd 3c 6f 0f 84 3c
       -0.05175713 0.10104301 0.02511864 0.01612064
0001d0 f8 fb 88 bc 72 87 a2 3d a1 d0 f9 bc df 06 f8 3d
       -0.01672171 0.079359904 -0.03049499 0.121106856
0001e0 02 c3 a1 bc e2 26 89 bd ba 68 19 be 10 9c 52 bb
       -0.019746307 -0.066968694 -0.14981356 -0.0032136478
0001f0 a6 03 e5 bd bc de 08 bd 96 ef 07 3e 4a 28 49 3d
       -0.111823365 -0.03341554 0.13274989 0.04911069
000200 1c 02 6b bd ed 95 34 3d c9 9c ea 3d 35 5b 1b bd
       -0.05737506 0.044088293 0.11455686 -0.03792878
000210 bc 58 c2 bd 7d b3 dd bc 1e d2 d2 3d 31 9b 90 3d
       -0.09489581 -0.027063126 0.10293983 0.070608504
000220 ac 74 e1 bd 51 e8 b5 3d 03 d5 4b bd 30 be 19 3d
       -0.110085815 0.088822015 -0.04976369 0.037534893
000230 3e 4f 96 bc 50 23 60 bd 6a ef c0 3c 9d fd 88 3c
       -0.018348332 -0.054721177 0.023551662 0.016722495
000240 ce a5 56 bd 43 43 e7 3c 7e 7d a6 3d 05 52 6a bd
       -0.052404217 0.028230315 0.081294045 -0.057207126
000250 94 7a 25 bd 06 f1 98 3d aa f7 ce bd ac ef 93 bb
       -0.040400103 0.074678466 -0.10105832 -0.004514655
000260 24 b3 7b 3d 9e c5 75 3d ec 87 4c bd 58 c3 0e bd
       0.06145014 0.060002916 -0.049934313 -0.034854263
000270 57 ae ba bb d3 f9 a8 bd b7 d3 ac bc 33 87 ff 3d
       -0.0056970525 -0.08250775 -0.021097047 0.12476959
000280 5c d2 d3 3c 3e 0f 71 bc 6d 91 60 3d 6d ec 0c be
       0.025857143 -0.014713107 0.05482619 -0.13762064
000290 d3 e6 50 3b 30 8a c5 3d f4 27 de 3c 54 7a 0f be
       0.0031875863 0.09645498 0.02711866 -0.14011508
0002a0 7b 47 28 bd 1d 09 4a 3d 2b bc 3b bc 7e 07 c2 3c
       -0.041083794 0.049325097 -0.011458437 0.023685213
0002b0 96 6c 32 be e2 62 ed 3d b0 79 8d bd ef f9 99 3c
       -0.17424235 0.11591126 -0.06907976 0.018795935
0002c0 e0 ae 93 bd 52 25 6a bb 50 f7 04 3d 70 2f 56 3c
       -0.07211089 -0.003572781 0.032462418 0.013072833
0002d0 8c 9e 02 bd 94 04 9b bd 0c 1b 0c be d8 c8 94 3d
       -0.031889483 -0.075692326 -0.13682193 0.072648704
0002e0 d2 78 bf bc fd 4e 80 3d 5e 49 ed bc df 32 8d 3d
       -0.023373041 0.06265066 -0.028965648 0.068944685
0002f0 d9 6e 07 3d d1 9f 9b bd ec c3 8b 3a 94 18 b7 ba
       0.033064697 -0.07598842 0.0010663248 -0.0013969117
000300 b1 ca 8d 3b b4 11 17 be c1 d5 14 bd d0 4a a9 bd
       0.004327141 -0.14752847 -0.036336664 -0.082662225
000310 b6 9f 75 3d 4d 34 35 3b 95 c8 a1 bc 4e 1d eb bd
       0.059966765 0.0027649582 -0.019748965 -0.11480199
000320 a0 66 f2 bc 8c 03 e5 bd 69 51 bf 3b 68 23 a9 3d
       -0.029589951 -0.11182317 0.0058385623 0.08258706
000330 b6 32 4c 3d f7 4c 7a bd 08 8c c5 bc 95 bb 60 3d
       0.04985305 -0.061108556 -0.024114624 0.054866392
000340 e5 ba dd 3c 19 28 b0 3d b6 6b d6 3c c5 14 b4 bd
       0.027066657 0.08601398 0.026174407 -0.08793024
000350 30 ab 0d 3b fa 2d a6 3d 95 56 a8 bc 82 88 59 bc
       0.0021616928 0.08114238 -0.020549098 -0.013277175
000360 30 12 c8 3c ca 2c 44 3d 33 c1 d1 bd 62 f7 72 3d
       0.024422735 0.047894277 -0.10241928 0.059317954
000370 65 29 69 bd 5c df 26 3d bc 8c 8e bd 5e 6c 14 bc
       -0.056924243 0.040740356 -0.06960437 -0.00905904
000380 ae 04 1b bd aa b1 52 bd bd 72 8e bd 5f f2 7f 3d
       -0.03784626 -0.051438965 -0.06955478 0.062487002
000390 88 7b b1 ba 58 ff ae 3d b2 84 ee bd 9b 9c de 3d
       -0.0013540844 0.08544797 -0.11646403 0.10869714
0003a0 db 9e df bc e3 be 76 bd d6 84 0c 3d 73 64 45 3d
       -0.027297428 -0.060240638 0.03430637 0.0481915
0003b0 ca dc 19 3d 3b ef bc 3c cd 25 11 bd 2e f9 86 3d
       0.037564076 0.023063293 -0.03543644 0.06590496
0003c0 e9 61 d9 3d ae 2c 14 bd 01 c4 ee 3c c2 86 a6 3c
       0.10614378 -0.036175422 0.029146196 0.02032793
0003d0 08 bd 01 bd 20 ce 5e 3d fb e6 98 bd cd 5a 7c bc
       -0.031674415 0.054395795 -0.07465931 -0.015402508
0003e0 bf 87 59 bd ae 7e bb bb 50 ec 80 bd 5a 31 47 bd
       -0.053107973 -0.0057218885 -0.06295073 -0.04863105
0003f0 2b 4f 33 3c 54 2e 53 bd 03 b1 c0 bc 58 c7 1c 3d
       0.010944168 -0.051557854 -0.023521906 0.038276047

layers.1.bias f4 [128]
000000 1b 11 d4 bd 64 52 9a bd f8 e1 18 be 2a 91 fc bd
       -0.10354825 -0.07535246 -0.1492995 -0.12332375
000010 4a b6 0c 3e 34 ce 69 bc 25 14 3c 3e ac 74 3a 3d
       0.13741413 -0.014270354 0.1836706 0.045521423
000020 01 a8 8d be 8b 46 ee bd 4a 98 44 be 5b 1a 3c bd
       -0.2766724 -0.11634549 -0.19198719 -0.045923572
000030 f3 d0 aa 3d a8 9d de bc f9 0a db bc b5 04 b1 bd
       0.08340635 -0.027174786 -0.02673863 -0.08643476
000040 3b aa 48 be 18 22 45 3c 9c 8f 03 be 8a 53 12 3d
       -0.19596188 0.012032054 -0.12847751 0.0357242
000050 c3 00 a2 3d 7c f5 19 be a2 48 d1 3d 08 b4 a7 be
       0.079103015 -0.15035051 0.10218932 -0.3275454
000060 60 55 82 3e 52 ce c0 3d 3d 05 2a bd f0 14 fe bd
       0.2545576 0.094143525 -0.041508902 -0.12406337
000070 d5 72 0e be 65 37 93 3c 47 12 97 bd 90 35 d2 bb
       -0.13910992 0.01797075 -0.07376533 -0.0064150766
000080 f3 b2 1d 3e 9b 31 2e 3d f0 78 9a 3d d5 54 1c 3d
       0.15400295 0.042527776 0.07542598 0.03816684
000090 a2 f4 09 3d 5e 1e 43 be f9 9f 65 3e 34 26 0c be
       0.033680566 -0.19054553 0.22424306 -0.13686448
0000a0 1e 35 c0 bc 49 a7 33 bd c8 0c 27 3e ea ef 99 3c
       -0.023462828 -0.043860707 0.1631347 0.018791158
0000b0 90 ca 04 be a2 ae 4e 3c b4 16 fd bd bf a9 82 be
       -0.12967896 0.012614878 -0.12357846 -0.2552013
0000c0 81 44 b3 bd 57 9c b4 bb 19 78 6a be c7 6d 39 3a
       -0.087533005 -0.005511801 -0.22897376 0.0007073548
0000d0 ac f5 fe bd aa ee 9e bd 10 ce 25 bd 52 c7 d5 bd
       -0.12449202 -0.07760365 -0.04047972 -0.10438408
0000e0 8c 1e 5f 3e 60 b4 af bd ea d5 3c be 28 87 d0 bd
       0.21788996 -0.08579326 -0.18440977 -0.10182029
0000f0 c5 d7 b3 bd e9 f2 a5 3d 83 77 6c bd 91 74 42 be
       -0.08781389 0.08102972 -0.057731163 -0.18989779
000100 63 2f 30 bd 82 92 93 3d bf 60 e3 bc 34 b3 e6 3d
       -0.04301394 0.072056785 -0.027756093 0.11264649
000110 81 aa 16 be ec 5e 79 bc 45 b9 65 3d d9 fe 3f be
       -0.1471348 -0.015220385 0.05608489 -0.1874956
000120 cc 10 60 bd 26 fc a7 3d 8e 77 dc bd ee fb ff bd
       -0.05470352 0.082023904 -0.10764991 -0.12499224
000130 a0 d7 3f be 18 5a 3c bd e6 d8 de 3b a6 db 5f be
       -0.18734598 -0.045984358 0.0068007587 -0.21861133
000140 2f 0f 50 3d b5 a8 44 3d 16 d7 3c 3e 8a 0c 60 3e
       0.05079573 0.048012454 0.18441424 0.21879783
000150 50 f5 99 bd c5 fb a4 bd 41 e2 83 bd 9e 31 e7 bb
       -0.07517493 -0.08055834 -0.06439639 -0.0070554754
000160 46 b7 e1 3c 70 cd 63 3e 34 12 f4 3c 8a 32 10 3e
       0.027553212 0.22246337 0.029793836 0.14081779
000170 06 8f f9 3d 2f ff d3 bd 5e 9c bc bd 03 54 a9 3c
       0.12185483 -0.10351407 -0.09209512 0.020669943
000180 2b 8a e3 3d 26 eb 25 be e5 72 5a be 01 bb 05 be
       0.11110338 -0.16202983 -0.21332891 -0.13059618
000190 7c b1 64 3d 07 a1 b3 3c 9c 78 8c bd 09 d4 69 bd
       0.055833325 0.02192737 -0.06858942 -0.057086978
0001a0 6f 37 06 3e ef 13 88 3d b0 a9 29 be 9f 79 ac bd
       0.13107084 0.06644427 -0.16568637 -0.08421635
0001b0 3c fa b2 3d 40 a8 3d bd 61 3c be 3d a9 b9 73 3d
       0.08739135 -0.046303034 0.0928886 0.05950323
0001c0 45 8e fd 3d 00 df 8e 3d b9 d9 6a 3d 7e 35 be 3c
       0.123806514 0.069761276 0.057336543 0.023218866
0001d0 4f ec b2 39 91 8d e6 bc 40 0f c0 bd 39 b4 b3 3c
       0.0003412687 -0.028143676 -0.09377909 0.021936523
0001e0 45 fa 82 bd b4 84 9c 3d e9 ee 60 3e f2 39 59 3e
       -0.063953914 0.076424986 0.21966137 0.2121351
0001f0 64 4f 48 bd f3 ae ee bd a6 a7 07 3e 66 96 c5 3d
       -0.048903838 -0.11654463 0.13247547 0.09647827

layers.2.weight f4 [64, 128]
000000 9d 61 72 3e 50 53 71 be 90 e1 c4 3c 44 a0 53 3c
       0.23670049 -0.23566937 0.024033338 0.012916628
000010 58 9e 88 bc 5c f2 03 bd 7a c7 e8 3d 50 f8 a9 bb
       -0.016677067 -0.032213554 0.11366172 -0.005187072
000020 50 86 99 3d b6 44 f8 3d 09 60 4e be 71 e5 30 be
       0.07496321 0.121224806 -0.20153822 -0.17275025
000030 b1 a1 98 bd 93 3e eb bd fe f9 3e bd 52 f7 d0 bd
       -0.07452715 -0.114865445 -0.04662513 -0.102034226
000040 b5 b8 5b 3e 22 54 1c bd 01 e0 68 3e 00 86 fa 3d
       0.21457179 -0.038166173 0.227417 0.1223259
000050 4c 2b db bd 54 52 8d 3e 48 4f b4 3e 9c 03 2d bc
       -0.107016176 0.27601874 0.35216737 -0.010559943
000060 b3 fc 99 bd 15 a4 1b be e7 2f e7 bd 57 57 53 3d
       -0.07518902 -0.15199311 -0.112884335 0.051596966
000070 07 93 71 3e ca a4 80 3a 82 ce 35 bd 64 e3 b6 bd
       0.23591243 0.0009814736 -0.044386394 -0.0893009
000080 d2 6d d5 3d a9 44 9c 3e 4d 4f 53 bd d4 7e 6a bd
       0.10421337 0.30521134 -0.0515893 -0.05724986
000090 66 05 a7 bd 04 4c e4 bc c0 20 c1 3d b3 05 02 bd
       -0.081553265 -0.027868278 0.09430075 -0.031743716
0000a0 1d 83 c4 be 79 cb af 3d e3 2a 20 be 94 88 3b be
       -0.38381281 0.08583731 -0.1564136 -0.18313819
0000b0 fa fb 6c bd 21 41 63 3e 68 3c 96 3d 43 24 24 3e
       -0.05785749 0.22192813 0.0733574 0.16029458
0000c0 87 50 1e be 38 8f 73 3d 2d 4a 3c be b6 06 87 3e
       -0.15460406 0.059462756 -0.18387671 0.26372308
0000d0 9e a1 93 be ba c1 d1 bd fe 28 d6 3d 96 d2 b8 bd
       -0.28834242 -0.102420285 0.104570374 -0.09024541
0000e0 6c b2 84 3d 66 0b ea bc b9 51 ba bd 61 79 65 3d
       0.06479344 -0.028569888 -0.090976186 0.05602396
0000f0 ea 1e 9e 3d 06 92 73 bd 76 c3 04 3d 12 b9 ca bd
       0.0772074 -0.05946543 0.03241297 -0.098985806
000100 f3 1b 21 3c fc ec 2e be 01 f0 61 3d ad cf 2a bd
       0.009833324 -0.1708259 0.055160526 -0.04170196
000110 ff 65 96 bc 66 35 e5 be b0 a1 b2 3c ab 1a 88 bd
       -0.018359182 -0.44767302 0.021805614 -0.066457115
000120 d7 b3 56 3d 8b 97 2d bd 08 45 ac be 02 30 90 bd
       0.052417602 -0.04238085 -0.33646417 -0.07040407
000130 73 47 47 bd 49 3d 9b 3e 18 ad 2d 3e 3d dc 61 3d
       -0.048652124 0.30320194 0.16960561 0.055141676
000140 a0 99 a8 bd bc 6f a6 3d 1b da bf 3c 29 52 84 3d
       -0.08232427 0.081267804 0.02341943 0.06460983
000150 87 ac 23 3d ef 62 b7 bd 38 8c 3b bd 51 73 b6 3c
       0.039959457 -0.08954417 -0.04578802 0.022271784
000160 41 84 87 3c f0 5d ca 3d 45 63 30 3e d0 5b b4 bd
       0.016542556 0.098811984 0.17225368 -0.08806574
000170 f3 58 13 be d6 ca 56 3d 90 47 b0 bd a3 dc bf 3d
       -0.143894 0.052439533 -0.086073995 0.09368255
000180 50 f3 33 be 48 16 91 bd 7c aa 84 bd e9 03 b2 3d
       -0.17573285 -0.07084328 -0.0647783 0.08692152
000190 52 b6 19 3d bc ab a1 3d a7 b0 16 3d 4c ab 00 3c
       0.03752739 0.07894084 0.036789563 0.00785334
0001a0 09 17 8b 3e 49 3b 36 3e d1 30 4c 3d e6 4f 8b bd
       0.27166012 0.17796053 0.049851242 -0.06802349
0001b0 63 d3 10 3d eb 22 03 3c 91 53 53 3d 57 10 18 3e
       0.035357844 0.008003931 0.051593367 0.14849983
0001c0 19 12 04 3e 2c 56 a7 be 7c c5 70 bd 5d aa 83 bd
       0.12897529 -0.3268293 -0.058782086 -0.064289786
0001d0 f1 8f 29 b9 a3 f3 66 3e e1 ca 9b 3e aa ac b5 bd
       -0.00016170718 0.22553878 0.30428222 -0.08870824
0001e0 83 46 92 3c ff c0 e9 3d 9b d0 21 bf c1 a5 31 3e
       0.017855888 0.11413764 -0.6320893 0.17348386
0001f0 c5 e3 3e 3e 6d 30 30 3d 03 ca 19 3e 57 77 a0 3d
       0.18641575 0.043014932 0.15018468 0.07835262
000200 aa 23 d6 bd 53 ad 08 be 9c d5 be bd a3 de 13 3e
       -0.10456021 -0.13347368 -0.093180865 0.14440398
000210 32 79 4e 3e 64 2e 32 bd ed b3 02 3d 44 e1 7f 3d
       0.2016342 -0.043501273 0.03190987 0.06247069
000220 e2 bd ce bd 31 2f 49 bd 45 e5 b6 be e6 19 49 be
       -0.10094811 -0.04911727 -0.35721794 -0.19638786
000230 b1 bb 38 be 6d e1 48 be 49 c3 2b be 28 d4 db bd
       -0.18040349 -0.19617243 -0.16773714 -0.10733825
000240 76 7e 3e 3d 0c 97 6c bd 1b 55 59 be 9f 49 ee bd
       0.04650732 -0.057761237 -0.21223871 -0.11635136
000250 b3 ad 2e be 4c d3 08 bb a3 3e 59 3d 9a a1 ba 3e
       -0.17058448 -0.0020877896 0.05303825 0.36451417
000260 ed 79 98 3b 48 a8 76 bd d7 36 db bb ad 40 46 3d
       0.0046532066 -0.06021908 -0.006689887 0.048401523
000270 cc 94 52 bd e9 10 09 bd 1f 5b ed 3d 9d 34 26 bd
       -0.051411435 -0.033463392 0.115896456 -0.04057752
000280 75 30 22 3d 34 d7 51 bb 08 03 6e bc 92 cb 87 3d
       0.039596993 -0.003201914 -0.01452709 0.06630625
000290 11 28 0c 3d 70 ba e2 bd 97 63 ac bd fc d4 cc bd
       0.034217898 -0.110707164 -0.08417433 -0.10001561
0002a0 6f 4b 4f be 01 c8 87 bd 00 e9 ae 3d 7c b9 fa 3a
       -0.2024362 -0.066299446 0.08540535 0.0019128765
0002b0 64 0a 4c bc e0 89 0f bd 76 29 bd bd 6a 51 21 be
       -0.012453649 -0.035043597 -0.09236424 -0.15753713
0002c0 06 48 d5 bc 03 4e 20 be 0b d6 6f be 2a 6a 0c 3e
       -0.02603532 -0.15654759 -0.23421495 0.13712373
0002d0 93 ce 07 3e 12 fe 2d be af 03 36 bd 2c c6 9a bd
       0.13262396 -0.16991451 -0.044437107 -0.075573295
0002e0 f4 3d cf 3d 48 b2 69 3c c3 20 73 bd 52 13 1f be
       0.101192385 0.014263697 -0.059357416 -0.15534714
0002f0 fd eb ce b9 54 d2 c7 3d d1 60 c2 3d 9f d4 94 be
       -0.00039467207 0.09756914 0.094911225 -0.29068467
000300 5a aa ef 3d d7 56 a5 3d e0 17 75 3d 16 d8 ee 3d
       0.11702414 0.08073204 0.059837222 0.11662309
000310 a2 af 95 3d 38 c4 b1 3c 67 ae 1b 3b d7 d3 5e 3d
       0.0730889 0.02170001 0.0023755075 0.054401245
000320 41 0e 11 bd 09 9b 2e 3b ae 0e be bd 9f 09 95 3d
       -0.035413984 0.00266427 -0.09280144 0.07277226
000330 91 ea 91 bd ff e2 53 3c 56 0b ef 3d 9a ed 24 be
       -0.07124818 0.012932538 0.11672084 -0.16106263
000340 aa 59 12 be c2 42 35 3e cf e4 2b 3e 40 53 f8 3d
       -0.14292017 0.17701247 0.16786502 0.12125254
000350 56 6a bf bc 8a de 80 bb 31 aa d3 3c 5b 39 9e 3e
       -0.023366135 -0.0039327787 0.02583799 0.30903134
000360 d9 d1 d6 3d 5b b3 a1 3d 2b 23 b8 3d 9b 3d ea 3c
       0.10489244 0.078955375 0.08991083 0.028593829
000370 a1 31 54 be 00 81 89 bd 95 38 1f 3c d2 be 8c bd
       -0.20722057 -0.06714058 0.00971808 -0.068723336
000380 24 6c 5a 3d 16 90 0e be 2e 24 37 bd a5 60 9c 3d
       0.053325787 -0.13922152 -0.044712238 0.07635621
000390 ec c9 16 3e 0b af 61 bb 47 e7 ef 3d 43 01 45 bc
       0.14725465 -0.003443661 0.117140345 -0.012024227
0003a0 54 ec fd 3d a2 9f 4f be 33 34 55 bc dd 32 9c 3d
       0.12398592 -0.20275739 -0.013012934 0.07626889
0003b0 88 ca 4a be 06 e0 b5 bc 62 1e 92 3d b7 d1 fe bc
       -0.19803822 -0.02220155 0.07134701 -0.03110586
0003c0 49 37 e3 bc e2 c5 d3 3d 08 cd 00 be 8e e0 68 3e
       -0.027736323 0.103404775 -0.12578213 0.22741911
0003d0 43 2b 4e bb f1 f9 8d 3d db bb 04 3c 7b d9 bb bd
       -0.0031458891 0.06932438 0.008101429 -0.091723405
0003e0 cc 45 23 be 56 fa 4c 3d 80 5b 40 be da 0b 8e bd
       -0.15944594 0.050043426 -0.18784904 -0.06935854
0003f0 88 1e ae bc 3c d6 4c bc f6 e0 be bd 52 72 3d be
       -0.021254793 -0.012502249 -0.09320252 -0.18500641

layers.2.bias f4 [64]
000000 b9 88 a3 ba b1 aa b1 3c 9a 26 10 3d 2a b0 1b bd
       -0.001247666 0.021687837 0.035193063 -0.0380098
000010 5a 7c a7 3b 82 3e a5 3c 2e eb 2d be 9a 6d 48 3d
       0.0051112594 0.020171408 -0.16984245 0.04893265
000020 e1 c7 0b be a8 6b 62 3d 64 ee e5 3c 9b 96 da ba
       -0.13650467 0.05527845 0.028067775 -0.0016676964
000030 72 8d 93 bb 93 f5 78 bd a5 5c dc 3d 17 51 51 3d
       -0.0045029456 -0.060781073 0.10759858 0.051102724
000040 11 f2 01 3d a1 c0 d5 3c 65 43 00 3b 12 79 64 bd
       0.031724993 0.02609283 0.001957142 -0.055779524
000050 3d 1c 93 3d 9c cf 63 3d 8f 96 33 bb 3c 54 a9 bd
       0.071831204 0.055617914 -0.0027402972 -0.082680196
000060 23 cd 14 bc b6 65 e5 bc 81 cd e4 b9 c5 d6 00 3d
       -0.0090821115 -0.028002601 -0.0004364066 0.03145482
000070 85 ec 07 3e cd 99 c4 bd c7 b0 6c 3d d2 21 75 be
       0.13273819 -0.09599648 0.057785776 -0.23938683
000080 60 88 f7 3c 30 a6 29 3d 4d d3 07 3d b5 82 5f 3d
       0.030216396 0.041418254 0.033160497 0.05456801
000090 da 36 21 3e 55 02 6a bc 0c 68 ac bd e1 28 84 3d
       0.1574358 -0.014282783 -0.08418283 0.064531095
0000a0 9d ce 6a bd 84 a3 44 3d 2e 2c 58 3d 1b ff ea bc
       -0.057325948 0.048007503 0.052776508 -0.028686097
0000b0 a5 a0 82 bd 7e 99 92 3d 9c c3 95 3b 6a 90 76 bd
       -0.06378297 0.071581826 0.0045704376 -0.060196318
0000c0 0e 3e 17 3d 84 ab 0a be 89 af ee bc 0b 51 f6 bc
       0.036924414 -0.1354199 -0.029136436 -0.030067941
0000d0 29 f5 10 bd 13 80 0b 3e 7d e5 22 bd 00 57 7c 3d
       -0.035390053 0.13623075 -0.03976964 0.061606407
0000e0 03 c4 21 3e 10 24 43 be 93 6b 88 bd 14 f7 17 39
       0.15797429 -0.19056726 -0.06661143 0.00014492526
0000f0 0f 84 a2 bd e4 8d f7 bc 3b 13 81 bd ec 17 39 3b
       -0.079353444 -0.030219026 -0.06302496 0.0028243018

readout.weight f4 [1, 64]
000000 ef 39 29 bf ea 2d 1e bf cc a6 09 bf 23 4f 22 3f
       -0.66104025 -0.6178881 -0.53770137 0.63402003
000010 d7 1a 22 3f 90 d8 34 3f 7a 61 21 bf 94 f4 42 bf
       0.63322204 0.7064295 -0.6303936 -0.76154447
000020 d4 38 4b 3f ae c3 3f 3f 16 1d 4d bf 15 05 3d 3f
       0.7938359 0.7490796 -0.80122507 0.7383588
000030 b7 68 50 bf ab d9 19 bf 6d 32 53 3f c8 d7 3e bf
       -0.8140978 -0.6009776 0.8249882 -0.74548006
000040 6b 90 33 bf a4 2c 3b 3f d6 2b 2a 3f d8 ee 0c bf
       -0.7014224 0.7311499 0.6647314 -0.55051947
000050 48 36 21 bf 2b d1 3b 3f 7b d0 08 3f f3 09 3b 3f
       -0.6297345 0.7336604 0.53443116 0.73062056
000060 27 e4 2b bf b0 3f 39 bf 6b 9d 4d bf 9d b1 21 3f
       -0.6714501 -0.72362804 -0.80318326 0.6316164
000070 47 a1 0b bf 8f ed 36 3f b5 a7 30 3f 17 ee 2c bf
       -0.54542965 0.71456236 0.690059 -0.67550796
000080 46 41 eb be 13 e1 1f 3f b8 a5 1f bf d2 ac 4b bf
       -0.45948237 0.6245281 -0.6236224 -0.7956058
000090 ab 26 23 3f 7e 0e 48 bf 95 6c 31 bf 88 d8 3f 3f
       0.6373088 -0.78147113 -0.6930631 0.74939775
0000a0 b4 b2 23 bf a6 32 19 bf 8f cb 35 bf 27 1f 33 bf
       -0.63944554 -0.5984291 -0.7101373 -0.6996941
0000b0 7d 84 7e 3f 91 e6 35 3f 37 c5 33 3f 90 37 02 3f
       0.9942091 0.7105494 0.702228 0.5086603
0000c0 79 82 44 bf 99 17 08 3f fd 9f 4f 3f 3e b2 0a bf
       -0.76761585 0.5316101 0.811035 -0.54178226
0000d0 22 f0 27 bf 54 12 5e bf e8 dc 1f bf 88 4b 57 3f
       -0.6560079 -0.86746716 -0.6244645 0.84099627
0000e0 7f ef 4e bf 56 c2 52 3f 1a d6 2a 3f 20 09 2a 3f
       -0.8083419 0.82327783 0.66732943 0.66420174
0000f0 e4 c9 04 3f 5f df 2d 3f 74 dc 28 bf 2a 9a 4a 3f
       0.5187056 0.6791896 -0.65961385 0.79141486

layers.0.weight f4 [128, 17]
000000 c8 09 25 3f e2 62 46 3e 10 bd d4 3e 53 e5 8e be
       0.6446805 0.19373658 0.41550493 -0.27909335
000010 3c df 4c be 89 1b e9 be 9a e2 60 bf 7a 63 0d bf
       -0.20007032 -0.4552882 -0.87845767 -0.55229914
000020 4c f8 19 3d 7f 3e 8d be 3e a4 85 3d 77 38 1e bc
       0.03759031 -0.27586743 0.06525467 -0.009657017
000030 28 8e f3 3c cf ec 22 bc 2b e4 3d bd 3b 27 90 3b
       0.029730871 -0.009944155 -0.046360176 0.004399208
000040 28 ea 36 3c 12 48 45 3f c5 6c 9e bf 59 d0 15 3e
       0.011164226 0.77063096 -1.2376944 0.1463026
000050 b3 23 d6 bd 60 a2 4e 3e de e8 64 3e ae de b6 3d
       -0.10456028 0.20179129 0.22354457 0.089291915
000060 09 2a b7 3d af 05 f1 3e 02 dd d4 bd 19 f3 1d be
       0.089435644 0.4707465 -0.103937164 -0.15424766
000070 4c 18 51 be eb 87 e2 3d c6 a6 0f bc 67 07 4a 3d
       -0.20419425 0.110610805 -0.008767789 0.049323466
000080 28 ac 24 ba 3b a0 d5 bd 8c 0f 08 bd fa 9d 52 3f
       -0.0006281757 -0.10430952 -0.03321795 0.82272303
000090 70 78 b1 3e 4d dc 21 bd c6 46 80 3e f0 84 e9 3d
       0.346622 -0.039516736 0.25053996 0.11402309
0000a0 56 ac 5c bd e5 47 a0 3e 18 8a 41 bf 0f a5 a4 bd
       -0.05387529 0.3130485 -0.7560134 -0.08039295
0000b0 ef 8a b3 bd 85 cd 3f be f4 c4 1d be b4 fe 0e bd
       -0.08766734 -0.18730743 -0.15407163 -0.034910873
0000c0 86 32 85 bd 11 84 04 bd 00 e2 94 3d e0 04 1a bf
       -0.06503777 -0.03235251 0.072696686 -0.6016369
0000d0 c0 c8 12 bf 85 29 90 3e fa 67 bf be c7 15 51 3b
       -0.5733757 0.28156677 -0.37384015 0.003190385
0000e0 fc 22 b1 3e a8 11 9b 3e 6a b9 b6 bd c7 4d 1e 3f
       0.34597003 0.30286908 -0.08922084 0.6183743
0000f0 fa 6f 03 bf 24 78 5a be 1e b4 3c 3c 20 ff 51 3d
       -0.5134274 -0.21334893 0.011517553 0.051268697
000100 b4 46 1f bd b8 db 8a be bc c2 f0 bd 9e e7 1a bd
       -0.038885787 -0.27120757 -0.11755893 -0.037818544
000110 29 6b 8f be 96 b0 cf 3c a2 9b e8 3d 87 ef 35 3e
       -0.28011444 0.025352757 0.113578096 0.17767154
000120 dd 2c 63 be 32 65 67 be d7 74 b4 be d0 b9 41 bd
       -0.22185083 -0.22597197 -0.35245392 -0.047296345
000130 bc 25 2a 3e 53 43 3c 3e c4 62 6f bd b3 2b 6e bd
       0.16615957 0.18385057 -0.0584438 -0.058147144
000140 c7 15 63 bd 90 bc de ba 30 1f 31 3d f6 c3 a2 3c
       -0.05544069 -0.0016993452 0.043242633 0.019868832
000150 2f bc 3a 39 19 bf 66 be 25 32 e6 3e 3e e7 f1 3e
       0.00017808446 -0.22533835 0.44960132 0.47246736
000160 f7 bd 4e bd 10 2e a0 bd 09 6c d5 3e ea d6 e9 bc
       -0.050474133 -0.07821286 0.41683987 -0.028544862
000170 5a 28 fc 3d c8 ee 1d be 46 cf ee bd e2 50 45 3d
       0.12312384 -0.15423119 -0.11660628 0.04817284
000180 89 34 1e 3d de f3 48 3d 52 33 f4 3c d0 9d a4 bd
       0.03862432 0.049060695 0.029809628 -0.08037913
000190 03 b2 70 be 99 2e 95 bd 7d 50 dc 3d 28 9c 99 ba
       -0.23505406 -0.072842784 0.107575394 -0.0011719512
0001a0 1e b9 f2 3e 77 7c 39 3f e3 a8 6a 3e 3c 08 b9 be
       0.47406858 0.72455543 0.22915988 -0.36139095
0001b0 2d b1 16 3e 75 79 68 bd 4c 16 03 bf f4 c0 5b bb
       0.14716025 -0.056756455 -0.512059 -0.0033531757
0001c0 e0 df a6 be e6 5e fe 3c 5b 18 e5 bb 7f 51 40 be
       -0.32592678 0.03105111 -0.006991429 -0.18781088
0001d0 94 b7 80 be 94 85 47 be 11 64 6c 3d 84 65 35 bf
       -0.2514006 -0.1948455 0.05771262 -0.70858026
0001e0 aa fc 1c 3f fb e7 0b 3d b3 0b 1c be 84 00 e3 3d
       0.61323035 0.03415678 -0.15238838 0.11084083
0001f0 85 2d 18 3f 34 64 2b be 03 91 1b 3e 39 7a 92 3e
       0.5944446 -0.16737443 0.15192036 0.28608873
000200 25 b6 01 be 6d c1 a7 3e c1 09 23 3e 7a 84 7f 3d
       -0.12667139 0.3276476 0.1592169 0.0623822
000210 d4 5a 4d bc 10 5c 38 3e 94 9c a5 3d 68 0a 88 3d
       -0.012533862 0.18003869 0.080865055 0.0664261
000220 4d da 13 bf f0 ff 8b 3e 76 f8 54 3e 67 4b 87 be
       -0.57754976 0.27343702 0.20797905 -0.26424715
000230 f8 69 e8 be 36 b9 8c bf fd b0 07 bf af 8b 6a bc
       -0.45393348 -1.0994022 -0.5300444 -0.01431553
000240 93 9d e5 be 4d 55 2d 3e 25 a2 29 be 18 58 22 3d
       -0.44846782 0.16927071 -0.1656576 0.039634794
000250 b3 b4 83 3c 1b 8f 09 3d ed 1b bc be 4f 88 3a be
       0.016077375 0.03358374 -0.36740056 -0.1821606
000260 3a 98 f8 bd 09 0d a1 3e 74 c0 45 be 47 0c b6 be
       -0.1213841 0.31455258 -0.19311696 -0.35556242
000270 30 91 fc 3d 1a 7b 22 bf fc 72 07 3f 88 49 42 3e
       0.1233238 -0.6346909 0.5290983 0.18973362
000280 cf 73 28 3f 22 79 2c 3e 97 29 74 3d f4 27 f6 be
       0.6580171 0.16843084 0.059609976 -0.48077357
000290 56 ad 3f 3e d6 98 3b 3d e4 9b bb 3c cc 09 7d bd
       0.18718466 0.045800053 0.022901483 -0.06177692
0002a0 87 2f b1 bd a9 65 3e bd 3b c7 dc 3c 26 ba 28 3e
       -0.08651643 -0.04648367 0.02695047 0.1647726
0002b0 34 34 0b bf 2c 27 e6 be 1f 72 bc bd 50 c0 95 bd
       -0.5437653 -0.4495176 -0.09201454 -0.07312071
0002c0 22 f2 2d be b1 ed 2c 3e 46 8d c0 3e 78 f0 b6 be
       -0.16986898 0.16887547 0.37607783 -0.35730338
0002d0 ca 2a a0 bd a8 8a 1d 3d 42 09 fc bd 1f 39 4d be
       -0.07820661 0.03846231 -0.12306453 -0.20041321
0002e0 39 2c 37 3e 4b e4 ce 3c c9 1d dc 3d 0d b4 47 3f
       0.17887963 0.025255343 0.107478686 0.7800911
0002f0 79 88 b7 be 65 d1 37 bf 1c c5 ab be 4c 2c ac 3c
       -0.35846308 -0.71803886 -0.3354882 0.021017216
000300 0d 22 08 3f bd ba 57 be 04 e0 e5 3c b5 6c 0b 3f
       0.5317696 -0.21067329 0.02806092 0.5446275
000310 3a 34 2c 3e 20 b1 e9 be 13 38 25 be 7c fd a4 bd
       0.16816798 -0.45642948 -0.16134672 -0.08056161
000320 1a 47 20 bd 9f b6 c8 3d 89 99 02 3e fe 88 3a 3d
       -0.039130308 0.09800457 0.12753882 0.045540802
000330 b7 40 a6 bd 31 e4 06 3d 00 56 fa 3e ab 4f 44 3d
       -0.08117812 0.032932464 0.48893738 0.04792754
000340 4e 05 ce bd e1 86 e7 be 3e 75 a0 be 9c cc 1f be
       -0.100596055 -0.45220092 -0.3133945 -0.15605396
000350 36 c0 53 3e 64 18 e2 3e b4 63 24 3e 6e 3e b9 3d
       0.20678791 0.44159234 0.16053659 0.09045111
000360 9d ef 63 bd 5d 1b 0f bd 8f 16 20 3c ec 44 0a 3d
       -0.055648435 -0.034938205 0.009771003 0.033757135
000370 fa 14 be bc d3 ae 8b bf eb 14 44 3f be ca a0 3e
       -0.023203362 -1.0912727 0.7659442 0.3140468
000380 b2 ae 21 3b 6d 0e b2 3d 86 62 51 3f dd f6 eb be
       0.0024670777 0.08694158 0.8179096 -0.4608678
000390 2b b2 77 3d d6 c3 07 3e 7c 89 03 bf 4e c6 53 bd
       0.06047265 0.13258299 -0.5138166 -0.05170279
0003a0 80 b1 b8 bc 42 e4 8f 3d 6b 07 26 bc f6 93 ee bd
       -0.022545576 0.070259586 -0.0101336045 -0.11649315
0003b0 94 f7 20 3d e3 72 1b 3d 03 27 ad 3d 44 3a 44 be
       0.03929861 0.03795136 0.084547065 -0.19162852
0003c0 f1 5a e0 be d5 7e 69 3d dc c1 14 bf 17 80 25 bc
       -0.43819383 0.057005722 -0.58108306 -0.01010134
0003d0 cb 32 86 bf 25 4a fe 3d 17 83 58 be 87 00 2b 3e
       -1.0484251 0.12416486 -0.21143757 0.1669942
0003e0 70 89 e0 be 89 b4 31 be cd 2b 4f be 99 11 4c bc
       -0.43854856 -0.17354025 -0.20231552 -0.0124553675
0003f0 c7 ce fd 3d f8 5d 58 3d 65 e3 54 3d c6 a4 aa 3d
       0.12392955 0.05282399 0.051974673 0.08332209

layers.0.bias f4 [128]
000000 a4 fe ea 3e 1e 99 13 3f fd 8f 81 be 71 4d 3f 3f
       0.458974 0.57655513 -0.25305167 0.7472754
000010 35 5c 29 3f 29 f1 04 bf bb ae a4 3c d3 75 be 3a
       0.6615632 -0.5193048 0.02010285 0.0014530964
000020 24 52 4c be 13 1a ac 3e 5f e0 3a 3e 53 e1 dd 3e
       -0.19953209 0.33613643 0.18249653 0.4333597
000030 a3 c0 65 3f 0e c5 9b 3e 23 3d 58 3e 45 9f 36 3e
       0.89747065 0.30423778 0.21117072 0.17834194
000040 e1 9b 50 bf 12 91 3c 3e 73 23 ac 3e 67 d5 e3 3c
       -0.8148785 0.18414715 0.33620796 0.02781172
000050 07 00 13 3f 3f 04 1e 3f d9 58 77 be 46 16 35 3f
       0.57421917 0.6172523 -0.24154986 0.7073711
000060 d6 49 73 3d fc 53 ac 3e a4 cc 40 3f 84 d6 5c 3f
       0.059396587 0.33657825 0.75312257 0.86264825
000070 7a 72 90 bc 8d 46 87 3f dd f7 82 3e 48 d0 14 3e
       -0.017632712 1.0568405 0.2557973 0.14532578
000080 32 e1 bf 3e 53 e1 4c bd 6c 87 8b 3d c0 07 02 be
       0.37476498 -0.050019573 0.06812939 -0.12698269
000090 e8 cb 89 be b3 0c 2e 3f 88 f5 c2 be 2b b4 34 be
       -0.2691338 0.6798813 -0.3807795 -0.17646854
0000a0 6f 4c bc be ce fc 20 3f b9 b7 02 3e 8d 97 1a bd
       -0.36777064 0.6288575 0.12765397 -0.037742186
0000b0 bc b8 ed be 63 99 35 bd 38 8f 83 be de 23 ff 3e
       -0.46430004 -0.044335734 -0.25695205 0.49832052
0000c0 7e 38 c4 be 25 10 23 3f c1 1a e5 3e 7f d8 b9 3e
       -0.3832435 0.6369651 0.44746974 0.36297986
0000d0 3d fb 69 3d 62 16 73 be 95 d3 ab be 3f 19 9c 3d
       0.057124365 -0.23739007 -0.33559862 0.07622003
0000e0 27 ef df 3e d3 2c cd bd e8 4a 8e be 71 35 b9 be
       0.43737146 -0.10018315 -0.27791524 -0.36173585
0000f0 32 4f af 3e 04 75 36 be 6a c1 e7 be 2c 57 1d 3f
       0.3424011 -0.17818075 -0.4526475 0.6146114
000100 c4 8a 09 be 10 a4 c7 be eb 72 09 3f e2 97 88 be
       -0.13431841 -0.38992357 0.53690976 -0.26678377
000110 55 a0 b8 be ab 1c 58 3c 10 87 8a 3e 07 21 df 3e
       -0.36059824 0.013190429 0.2705617 0.43579885
000120 1e b6 ce bd 3d 06 00 be 70 d8 a9 be 11 e8 f4 3e
       -0.1009333 -0.1250238 -0.3317294 0.47833303
000130 1a cf 2d be d1 52 1e bd 41 c4 18 3f 0d 7a c1 3c
       -0.16973534 -0.0386532 0.5967446 0.023617769
000140 b4 f6 12 3f e8 20 18 be 58 fa 04 be 2a 2e 2c bf
       0.5740769 -0.14856303 -0.12986124 -0.6725794
000150 1c c3 01 bc e9 29 67 bd b1 33 82 3e f3 fd b1 3c
       -0.007920053 -0.056436453 0.25430062 0.021727538
000160 91 37 0c bf 0b 7a e6 3e e2 bd 7f bc 08 a8 1f bf
       -0.5477229 0.45014986 -0.015609236 -0.6236577
000170 83 3e 7a bc 16 48 9b 3e 25 f5 07 3e c7 91 a4 bd
       -0.015273693 0.30328435 0.13277109 -0.08035617
000180 ba 8a b2 3d 5b 2f f5 bd ca 74 67 be e9 20 b3 3e
       0.08717866 -0.11971923 -0.22603145 0.34986046
000190 97 2b 61 3d 92 22 2a be b8 40 d9 3e d0 51 71 be
       0.05497321 -0.1661475 0.4243219 -0.23566365
0001a0 16 cc 46 3f c1 b5 15 be 1a 27 30 3e 65 d5 cc be
       0.7765516 -0.14620115 0.17202416 -0.40006557
0001b0 b0 53 4c 3e f4 24 2a 3f 1f de bc 3e 56 d4 09 3f
       0.19953799 0.66462636 0.36888215 0.53839624
0001c0 93 a0 61 be 30 d3 e7 3e 29 7c 18 3d b9 c7 71 be
       -0.2203391 0.4527831 0.037227783 -0.23611344
0001d0 6b 2b b4 bd 62 53 35 3f 81 06 15 3f 0e ed ce 3e
       -0.08797344 0.7083036 0.5821305 0.40415233
0001e0 fe 25 11 be eb 2d 5a bd e8 59 9d 3e 29 01 bd 3e
       -0.14174649 -0.053266447 0.30732656 0.36914948
0001f0 68 06 de be 4b 00 b2 be 48 5a 8a be e2 b1 4f 3e
       -0.43364263 -0.3476585 -0.27022004 0.202827

layers.1.weight f4 [128, 128]
000000 2f 12 ea 3d 13 b0 65 3d b4 78 b6 3d 17 48 c8 3d
       0.114292495 0.05607612 0.08909741 0.09779375
000010 ca 60 c1 3c 08 a4 19 be 6a 05 33 3d 7d da 1c bd
       0.023605723 -0.15003979 0.043706335 -0.038294304
000020 a6 6e 10 3e 77 0b 62 3d c9 11 77 bd 1f 47 ea bb
       0.14104709 0.055186715 -0.060319696 -0.0071495916
000030 e0 e0 47 bd 3e 52 81 bd 0e 6f b7 bd 9b 00 1e bd
       -0.048798442 -0.063145146 -0.08956729 -0.038574796
000040 04 d0 63 3d e5 85 d7 3d 84 8e a2 3c 5b 6f 5c ba
       0.0556183 0.10523585 0.019843347 -0.0008408927
000050 5d 6d c9 bd e8 35 d6 3d 56 ef 24 3c e7 45 7a 3d
       -0.098353125 0.104595006 0.010066828 0.06110182
000060 3f a7 8e 3d b9 a0 85 bd cc 10 0b be 6d 32 9e 3c
       0.069654934 -0.06524796 -0.13580626 0.019311154
000070 50 63 59 3e 62 46 af 3e da bd 56 3c d6 8c da bd
       0.21229291 0.34233385 0.013106788 -0.106713936
000080 64 54 d6 3d 96 0b 46 3d e3 0d 0b bd b7 5f 88 bd
       0.10465315 0.048350893 -0.03394879 -0.06658881
000090 a6 bc f4 bd aa 56 25 bd d8 69 c4 bd f8 30 b7 3d
       -0.11950044 -0.040365852 -0.095905006 0.08944887
0000a0 51 76 66 bd 1f 06 da 3c 30 51 14 be f9 c6 a8 3c
       -0.05626518 0.026614247 -0.14484096 0.02060269
0000b0 6c b3 a7 bd d5 43 39 3c 19 0b 63 3d e1 7f 56 bd
       -0.08188519 0.011307676 0.055430505 -0.05236805
0000c0 42 f3 93 3c fc 30 69 bd 2a 10 c5 bd 8b 0c 2d bc
       0.01806033 -0.05693148 -0.09622224 -0.0105620725
0000d0 59 96 f1 3d 4c d2 3d 3d f9 01 d2 bd 2e 71 d8 3e
       0.11796255 0.046343133 -0.102542825 0.4227385
0000e0 26 b8 49 be 39 0c 52 bc 34 1f 15 be 76 07 2c bd
       -0.19699153 -0.012820297 -0.14562684 -0.041999303
0000f0 80 c7 1e 3d a6 38 93 3c 29 33 00 bd c8 d3 81 3d
       0.038764477 0.017971348 -0.03129879 0.06339222
000100 26 67 2c bd 15 82 38 bc b4 e0 b2 bd 03 ce a7 3d
       -0.042090558 -0.011261483 -0.08734265 0.081935905
000110 83 e8 b0 3d a2 72 47 bc 51 6c 0e bd 3a 3e 7d 3c
       0.08638098 -0.012173327 -0.034771267 0.0154567305
000120 09 a1 f7 bd 3c 1b fe 3d e6 f9 2a 3b f3 66 f3 bc
       -0.12091262 0.12407538 0.0026088892 -0.029712176
000130 3c 29 e5 3c 8d 9c 69 3d 3e f7 e2 3b 2c fd eb 3c
       0.027973764 0.057034064 0.006926446 0.028807245
000140 ca e3 94 3d e2 d2 9e 3d 1c e7 d0 bc 5a 5e 3c bc
       0.0727001 0.077550665 -0.025500827 -0.011497105
000150 54 c1 bb 3d 8e 42 ae bd 7c 98 e4 3d e0 3a 7b 3e
       0.09167734 -0.08508788 0.111618966 0.24534178
000160 4a 79 e2 bc 22 82 e7 3d 6c 1d 27 bd ed 40 f1 bd
       -0.027645726 0.11304118 -0.040799543 -0.11779962
000170 fb ab b6 3d e9 7d ac 3c d0 d6 c8 bd da 2e e3 bc
       0.089195214 0.021056132 -0.09806597 -0.027732302
000180 f7 75 3a be 19 29 05 3d 10 a3 51 bc ab ce e2 bd
       -0.18209063 0.032509897 -0.012795225 -0.11074575
000190 d3 49 99 3d 06 ba 3b bc 17 6e f0 3c 16 1e 79 bd
       0.07484784 -0.011457926 0.02934937 -0.060819708
0001a0 12 28 e9 bc 50 6d af 3d 5b cb 64 3d 30 06 27 be
       -0.02846149 0.085657716 0.055857997 -0.16310954
0001b0 f4 63 e3 3d 27 65 60 3d 66 3b 8a bd 39 48 f8 3d
       0.11103049 0.054783966 -0.067496106 0.121231504
0001c0 0a 03 c8 bd 10 ff c7 3d a0 64 42 be c8 26 4c bd
       -0.09766205 0.09765446 -0.18983698 -0.049841672
0001d0 9e f9 83 bd 90 32 a1 3e ea 76 99 3d 76 70 b6 bd
       -0.06444095 0.3148389 0.07493384 -0.08908169
0001e0 ea 70 1c bd a5 c5 83 bb 15 53 ea 3d 45 2f 11 3e
       -0.03819362 -0.004021364 0.11441628 0.14178188
0001f0 ff 13 44 bd 95 2b 64 3c 3b 1b 0d bd c6 15 c2 bd
       -0.047870632 0.013926406 -0.034449797 -0.09476809
000200 6d d3 56 3e 9e 69 44 3d d7 cc 32 3e 4c 01 72 bd
       0.2097909 0.047952287 0.17460953 -0.059083268
000210 b2 ab 23 bd 50 77 38 bd 22 23 35 be ae dc 01 be
       -0.039958663 -0.04503566 -0.17689183 -0.12681839
000220 5f 43 66 3b ca 84 df bd c3 1b 85 3c aa 92 30 3e
       0.003513537 -0.109139994 0.01624859 0.17243448
000230 d7 d6 af 3d 76 db 73 bc 95 80 a5 3d 94 75 df 3d
       0.08585899 -0.0148838665 0.08081166 0.10911098
000240 bb 6a 74 bd 62 c7 fb bd f2 9f d1 3d 6f 55 ba bd
       -0.0596721 -0.12293889 0.10235585 -0.090983264
000250 5f dd 24 bd cc 82 23 3d 3e e9 92 be af 0e 20 be
       -0.04025018 0.03991966 -0.28693575 -0.15630601
000260 65 39 a1 bd 0a 76 3d 3e 7d d9 0f 3e 24 41 23 3d
       -0.07872275 0.1850206 0.14047809 0.039857045
000270 22 2e 6e be af 16 9f bd 8d b2 fc 3d 5b 26 0c 3e
       -0.23259786 -0.077679984 0.12338743 0.13686506
000280 50 7f a3 be 57 69 19 be b7 a6 30 3e b2 b5 ae 3d
       -0.3193307 -0.1498159 0.17251097 0.085307494
000290 dc bb bb bd 98 6e 05 3e 3e e5 80 3e fd 14 42 be
       -0.09166691 0.1303047 0.25174898 -0.18953319
0002a0 11 46 d2 3d 9c ed 0e 3e b5 90 88 bd e9 a4 da bd
       0.1026727 0.13957828 -0.06668226 -0.10675985
0002b0 0d f1 2b be 37 b8 4e bd a4 b2 46 3e 08 6d b2 bc
       -0.16791172 -0.05046865 0.19404083 -0.021780506
0002c0 a5 a6 60 be 1a 5d 4e 3e 10 ea e2 bc 81 a4 eb 3d
       -0.2193857 0.20152703 -0.0276995 0.11505986
0002d0 af 25 ac bc 71 d7 15 be fb 08 8b 3e 61 6f c7 3c
       -0.021014063 -0.14632966 0.2715529 0.024345102
0002e0 c5 d4 08 3d f5 0b b9 3d cc 52 f2 bd 8d b4 f0 bd
       0.033406038 0.09035484 -0.118321985 -0.11753187
0002f0 53 92 d5 3c 6a 47 fa 3d ab 19 08 bd 7b f7 44 be
       0.02607075 0.122206524 -0.033227604 -0.19235031
000300 28 8b 64 bd 23 9d 27 3d fb 1c 48 3e f9 ab c2 be
       -0.055796772 0.04092134 0.19542305 -0.3802183
000310 1c cb 49 be ed fb 9f be 13 5f 1b be 04 19 21 3d
       -0.19706386 -0.31246892 -0.15172987 0.039330497
000320 02 9e 65 3e e7 ad 4e be 8e 9f c4 3c b9 78 1b be
       0.22423556 -0.20183526 0.024001863 -0.15182771
000330 24 cb 01 bc 59 43 f3 3d ff e1 ac bd a2 8a b4 bc
       -0.007921968 0.1187808 -0.08441543 -0.022038762
000340 78 3e 23 3e 46 c9 ef bc 91 99 15 bc 62 c7 05 bd
       0.15941799 -0.02927078 -0.009130851 -0.03266085
000350 c8 eb ec 3d 68 a7 1c 3e 9e 27 26 be 74 8a 5e be
       0.11568409 0.15298235 -0.1622605 -0.21732503
000360 4c 48 9e 3d 4d 8c 09 be 11 d1 47 bd 1d 83 0a 3e
       0.07728633 -0.13432427 -0.048783366 0.13526578
000370 17 5c e2 bd 3e 24 a1 3c 03 f5 18 be c6 8d f2 bd
       -0.11052721 0.019670602 -0.14937215 -0.118434474
000380 14 bb 54 be cf 15 a0 3d 13 34 af 3d 19 94 7f 3d
       -0.2077449 0.0781666 0.08554854 0.062397096
000390 34 3d ec bc 8a b3 de bd f6 64 56 3d af c8 7e 3e
       -0.028837778 -0.10874088 0.052342378 0.24881242
0003a0 f6 fe 83 3e 13 42 cb bd ba b3 ac 3d d2 9c 07 be
       0.25780457 -0.09924712 0.084327176 -0.13243416
0003b0 96 d9 2c 3d 50 98 77 3c 63 bb e9 bc 3d 1a 98 bd
       0.042199694 0.015111998 -0.028531736 -0.074268796
0003c0 ff aa 14 bc 57 0a 4d bd e4 12 58 3e c2 61 9a 3d
       -0.009073972 -0.05005869 0.21100956 0.07538177
0003d0 a1 df 08 be 41 24 57 3d ac 2f 04 3e 5e 07 64 3d
       -0.13366558 0.05252481 0.1290881 0.05567109
0003e0 b4 96 20 3e 90 99 1d 3e 8e f3 5b 3d f8 95 04 be
       0.15682489 0.1539061 0.05369907 -0.12947834
0003f0 c8 f6 f8 bd 6e 66 89 bd a3 46 d3 3d 2c 1a 61 be
       -0.12156445 -0.0670899 0.10316207 -0.2198264
