9_gym-DDPG/DDPG_HalfCheetah-v4_5500-eps0.1-t32-l0.0001-s1.pth (torch, 195690 bytes, 13 tensors)

layers.0.weight f4 [128, 23]
-0.0042946856 0.023423463 -0.18051256 -0.17435874 -0.20577905 0.26052845 0.057353746 0.1522954
-0.095139205 -0.056687552 0.04291871 0.014833153 0.016209047 -0.0074079856 -0.029649159 -0.014632804
-0.010923203 -0.06398247 0.27341157 0.0719239 -0.23838125 -0.2737117 -0.21777117 -0.34512326
-0.26550895 0.12770253 0.19306092 -0.06441561 -0.08671602 0.34068727 0.113634564 -0.022606738
0.4363863 -0.30830836 -0.1774327 -0.11270437 0.07127759 -0.0010501937 0.0069782827 -0.0076566176
0.078952335 0.08587923 0.1755995 -0.29871884 -0.33055872 -0.08014072 -1.0769984 0.16239034
-0.03951015 0.32412583 -0.14430885 -0.36690074 0.28760985 -0.12519354 0.6246162 -0.040329818
-0.102723725 -0.086714655 0.02787063 -0.0043793367 -0.058562025 0.0013448171 -0.029731022 0.22181444
0.009417735 -0.055943217 0.043553326 -0.0745965 -0.06322592 -0.28740054 0.5259347 -0.27719358
0.07257998 -0.13275148 0.7311695 -0.3028407 -0.081013076 0.059505023 -0.13440384 0.08383904
-0.030696739 -0.021408262 -0.0048660007 0.008583509 0.02171002 -0.013062357 -0.34985527 -0.004331135
-0.02909056 0.15657672 0.1503618 -0.009629671 0.43699926 -0.0488497 -0.16964115 0.4906394
-0.09118299 -0.21754797 0.47170734 0.4001861 0.33474404 0.09241531 0.36075333 0.11728347
-0.074340336 -0.018003378 0.1084911 0.08521679 0.054363143 -0.047187034 0.04383106 0.22448055
0.24675961 0.110234715 0.17588523 -0.50957644 0.5294712 0.0351974 -0.43866315 -0.2642809
-0.09479173 0.5636565 0.4392844 0.10383181 0.23138341 -0.055225197 -0.011007558 0.022992918
-0.00083413324 0.03818935 0.039985884 0.020331383 0.10569361 -0.0053723985 0.16879597 0.34583205
0.42148137 0.04350789 -0.5845297 -0.19559802 0.45120716 0.74402314 0.08544586 0.055196192
0.41229767 0.13189322 0.27830213 0.0029730722 0.3673563 0.021855371 0.047892686 0.00581929
0.0052299458 0.01898975 -0.006003846 -0.20036183 -0.18632384 0.02176909 0.37026465 0.07686402
-0.05803976 0.4851757 0.24249098 0.7881364 -0.10246951 -0.00014793329 -0.51944214 -0.28820315
-0.1539977 -0.028381946 0.116124555 0.23908432 0.021144178 0.03332165 0.0010290168 0.0539276
0.028334472 0.0035029615 -0.32079837 0.121437974 -0.116968215 -0.030006938 -0.05376224 -0.11825853
-0.71412504 0.22518788 -0.6886565 -0.43583742 -0.06293624 -0.6847356 0.10906235 -0.20123957
-0.22567223 -0.08703064 0.09809753 0.0064311344 0.0021130939 0.002417274 0.077363074 0.04330668
0.015253663 -0.19171712 -0.11450033 -0.092647165 0.038654555 0.19544452 -0.010402461 -0.7582671
-0.14288211 0.014905774 -0.16785148 -0.05964981 -0.17573605 0.43126315 0.15351202 0.3462554
0.051734474 -0.016452309 -0.0097354725 0.028530803 -0.01469396 0.13435723 -0.08432876 -0.028678576
0.17662972 -0.24467415 -0.16437934 0.6361429 0.20804048 0.09332417 0.0031524557 -0.5971237
0.6208483 0.09604059 -0.013259913 -0.05993747 -0.12006579 0.13309895 0.3412319 -0.15763621
-0.22080934 -0.044317286 -0.030380774 0.0024834222 -0.017336857 -0.01971713 -0.008712652 -0.15830971
-0.04363732 -0.010900999 0.13635637 -0.19708762 -0.05969556 0.08718601 0.11596434 -0.22457397
00000000: 6fba 8cbb 90e2 bf3c 49d8 38be 198b 32be
00000010: beb7 52be fc63 853e c3eb 6a3d 53f3 1b3e
00000020: 58d8 c2bd 3531 68bd 87cb 2f3d c106 733c
00000030: d6c8 843c b0be f2bb cbe2 f2bc 6ebe 6fbc
00000040: 3cf7 32bc 3e09 83bd 9afc 8b3e d64c 933d
00000050: 371a 74be f123 8cbe 68ff 5ebe ffb3 b0be
00000060: caf0 87be 74c4 023e c3b1 453e 55ec 83bd
00000070: 2b98 b1bd 906e ae3e 3db9 e83d c431 b9bc
00000080: 066e df3e 98da 9dbe ebb0 35be 8cd1 e6bd
00000090: fcf9 913d a7a6 89ba 14aa e43b 5de4 fabb
000000a0: c3b1 a13d 73e1 af3d 5bd0 333e adf1 98be
000000b0: fe3e a9be d120 a4bd 15db 89bf a749 263e
000000c0: 65d5 21bd d2f3 a53e b3c5 13be 6ada bbbe
000000d0: 9941 933e bc32 00be d9e6 1f3f e130 25bd
000000e0: d160 d2bd 7497 b1bd f350 e43c 8a80 8fbb
000000f0: bcde 6fbd 9344 b03a 798e f3bc 5323 633e
00000100: d84c 1a3c b724 65bd f964 323d 0dc6 98bd
00000110: 977c 81bd 2a26 93be a8a3 063f 51ec 8dbe
00000120: d0a4 943d 01f0 07be ed2d 3b3f f00d 9bbe
00000130: 2fea a5bd 8abb 733d 29a1 09be cdb3 ab3d
00000140: ba77 fbbc 6160 afbc f972 9fbb d9a1 0c3c
00000150: 36d9 b13c 7f03 56bc 3b20 b3be 32ec 8dbb
00000160: 534f eebc a655 203e 72f8 193e c5c5 1dbc
00000170: 5ebe df3e 9f16 48bd 69b6 2dbe 1635 fb3e
00000180: 26be babd e5c4 5ebe a083 f13e 31e5 cc3e
00000190: 9263 ab3e 3d44 bd3d a9b4 b83e 5132 f03d
000001a0: bf3f 98bd d27b 93bc 9530 de3d 2486 ae3d
000001b0: e3ab 5e3d 3147 41bd 3388 333d 3bde 653e
000001c0: 8dae 7c3e bdc2 e13d 421b 343e 9a73 02bf
000001d0: 6d8b 073f 262b 103d 7598 e0be d34f 87be
000001e0: 2b22 c2bd cb4b 103f e3e9 e03e c6a5 d43d
000001f0: c6ef 6c3e d133 62bd 0b59 34bc a55b bc3c
00000200: bca9 5aba 706c 1c3d 3dc8 233d 008e a63c
00000210: e475 d83d f20a b0bb dad8 2c3e e610 b13e
00000220: 68cc d73e 5435 323d bda3 15bf d94a 48be
00000230: a004 e73e 4d78 3e3f 3dfe ae3d 6715 623d
00000240: ae18 d33e 040f 073e 9e7d 8e3e e0d7 423b
00000250: 2016 bc3e 090a b33c 1f2b 443d beaf be3b
00000260: f75f ab3b 6490 9b3c e9bb c4bb a72b 4dbe
00000270: adcb 3ebe 1755 b23c 5493 bd3e e26a 9d3d
00000280: 19bb 6dbd f368 f83e 8e4f 783e 4fc3 493f
00000290: 89db d1bd 8a1e 1bb9 29fa 04bf 5d8f 93be
000002a0: 93b1 1dbe 4181 e8bc b6d2 ed3d 85d2 743e
000002b0: 8e36 ad3c 487c 083d 13e0 863a 30e3 5c3d
000002c0: b21d e83c f191 653b af3f a4be 79b4 f83d
000002d0: 088d efbd 1cd1 f5bc cb35 5cbd 8731 f2bd
000002e0: e6d0 36bf a797 663e cb4b 30bf 1526 dfbe
000002f0: b7e4 80bd d54a 2fbf 155c df3d bf11 4ebe
00000300: 9f16 67be 1f3d b2bd 5ce7 c83d 44bc d23b
00000310: d57b 0a3b 216b 1e3b 8870 9e3d 5862 313d
00000320: 80ea 793c 7e51 44be 267f eabd ccbd bdbd
00000330: 3d54 1e3d 9c22 483e 156f 2abc cb1d 42bf
00000340: b04f 12be 5937 743c 42e1 2bbe 5c53 74bd
00000350: 27f4 33be 86ce dc3e 4132 1d3e 6348 b13e
00000360: 87e7 533d fec6 86bc 8881 1fbc 6eb9 e93c
00000370: efbe 70bc f194 093e 8fb4 acbd 55ef eabc
00000380: 6cde 343e dc8b 7abe 0f53 28be 43da 223f
00000390: 9008 553e be20 bf3d 6e99 4e3b 19dd 18bf
000003a0: eaef 1e3f eeb0 c43d 1b40 59bc fe80 75bd
000003b0: 0ee5 f5bd 174b 083e f3b5 ae3e 636b 21be
000003c0: d81b 62be 0b86 35bd 1ae1 f8bc e9c0 223b
000003d0: 0606 8ebc d285 a1bc 83bf 0ebc f11b 22be
000003e0: 0cbd 32bd 1b9a 32bc 01a1 0b3e 56d1 49be
000003f0: 5583 74bd 948e b23d b67e ed3d b8f6 65be

layers.0.bias f4 [128]
-0.19917512 -0.1647126 -0.54140466 -0.409063 -0.34859022 -0.019833922 0.070719264 -0.70180917
0.16302302 0.021819538 -0.18571799 -0.6594804 -0.45980498 -0.46099365 -0.114063345 0.28331584
0.13129829 -0.41462085 -0.34380513 -0.77871555 0.7261819 -0.2912874 -0.44485664 -0.4996172
-0.044025358 -0.038033336 -0.06383954 -0.36074325 0.40655464 0.18604836 -0.052682612 -0.13737153
0.23250669 -0.6231582 -0.31475964 0.2838665 -0.23461123 -0.38961118 0.38340354 -0.43006426
-0.29661182 -0.28773984 -0.14492555 -0.13203768 0.027609017 -0.24514368 -0.17397891 -0.62790823
0.4074133 0.7126144 -0.34480193 -0.30681923 0.27029762 0.458438 0.015607668 -0.684039
-0.0636715 -0.30177546 0.15274782 0.42917362 0.06734868 0.22043443 -0.54998106 -0.24410969
-0.3299156 0.4279081 -0.14988396 -0.31489545 -0.21324141 -0.14090718 0.14834315 0.02440838
0.08780382 -0.4315946 -0.121968016 -0.3717768 -0.05510124 0.10811626 0.04895194 -0.094973266
-0.0061597726 -0.20974435 0.11752191 -0.20644148 -0.33729875 -0.22388887 -0.13153267 0.54570967
0.25952873 -0.36104497 0.01942385 -0.020668032 -0.1798969 -0.48469928 0.10824488 -0.23677537
-0.55585164 0.53546536 -0.15543711 0.18818326 0.028631695 -0.2555663 -0.40268743 0.30586457
0.2951614 0.08466072 -0.19124705 0.17209065 -0.21030924 -0.42144078 0.6906328 0.70070344
0.24959902 0.2529478 0.441258 -0.42349854 0.16343032 0.4319555 0.049178775 0.4113674
0.15826266 -0.4688197 0.42935055 0.45706308 -0.21606229 -0.43233567 0.29313275 -0.4083413
00000000: 90f4 4bbe 6baa 28be 7f99 0abf b570 d1be
00000010: 6b7a b2be c07a a2bc 43d5 903d c4a9 33bf
00000020: 82ef 263e e3be b23c db2c 3ebe b5d3 28bf
00000030: 8f6b ebbe 5c07 ecbe 0b9a e9bd c60e 913e
00000040: 0f73 063e 2f49 d4be 3a07 b0be e759 47bf
00000050: 0fe7 393f 9f23 95be 40c4 e3be d3cd ffbe
00000060: ef53 34bd d8c8 1bbd 4ebe 82bd 57b3 b8be
00000070: ee27 d03e 7683 3e3e b9c9 57bd 1fab 0cbe
00000080: 3c16 6e3e 4c87 1fbf 2d28 a1be f356 913e
00000090: ed3d 70be 1e7b c7be 784d c43e 6231 dcbe
000000a0: 81dd 97be a352 93be 5d67 14be e334 07be
000000b0: 4e2c e23c f206 7bbe 8727 32be 98be 20bf
000000c0: 7a98 d03e e66d 363f e189 b0be 6917 9dbe
000000d0: 7364 8a3e 63b8 ea3e 4eb7 7f3c 2e1d 2fbf
000000e0: 3466 82bd 5082 9abe ed69 1c3e a5bc db3e
000000f0: 1bee 893d 90b9 613e 8fcb 0cbf e4f7 79be
00000100: b3ea a8be c516 db3e 2e7b 19be fa39 a1be
00000110: f55b 5abe f949 10be 44e7 173e 15f4 c73c
00000120: 7dd2 b33d f8f9 dcbe 5eca f9bd 8759 bebe
00000130: d6b1 61bd 0f6c dd3d d481 483d 5881 c2bd
00000140: ebd7 c9bb 39c7 56be 54af f03d 6565 53be
00000150: 6cb2 acbe 2043 65be 80b0 06be a1b3 0b3f
00000160: f3e0 843e e3da b8be c41e 9f3c 0150 a9bc
00000170: e536 38be 812a f8be 7eaf dd3d 3e75 72be
00000180: 4b4c 0ebf 4214 093f e82a 1fbe 1db3 403e
00000190: 048d ea3c 96d9 82be 0c2d cebe 489a 9c3e
000001a0: 651f 973e 9962 ad3d 44d6 43be 8838 303e
000001b0: 4e5b 57be 16c7 d7be 50cd 303f 4d61 333f
000001c0: e396 7f3e 6082 813e 92ec e13e cdd4 d8be
000001d0: 475a 273e 4529 dd3e af6f 493d bf9e d23e
000001e0: 9b0f 223e 2309 f0be d6d3 db3e 2c04 ea3e
000001f0: 6f3f 5dbe 1a5b ddbe 7f15 963e 1c12 d1be

layers.1.weight f4 [128, 128]
-0.042537473 -0.06290434 -0.09259706 0.061214224 -0.037611514 -0.02889847 0.16570218 0.012794471
-0.14667301 0.06780858 0.03217657 -0.12689234 0.089663774 -0.20048901 0.16944416 0.14696671
-0.07871296 0.01969754 -0.05869544 0.046997473 -0.00618681 -0.037797816 0.12856413 0.031581983
0.18544163 -0.2616418 -0.17991924 0.019331457 -0.12636103 -0.07261553 -0.06252209 0.055969335
-0.20213935 0.048707973 -0.04446147 -0.11306716 0.18811014 0.032369584 -0.16466706 -0.082024716
0.06565074 -0.023949407 0.14519309 0.034756657 -0.06936432 -0.19057734 0.09390592 0.065379076
-0.1347545 -0.043306455 -0.056928743 -0.014939249 -0.037724055 -0.12467866 0.045608226 -0.032726396
-0.07895687 0.04507679 -0.044709668 -0.003721837 0.030384783 -0.00061142584 0.14761195 0.1425896
0.11207029 -0.105040036 0.101117134 0.10835245 0.07597216 -0.0055892826 0.00027950903 0.037423808
-0.1058538 0.14917882 -0.118998624 -0.052785102 0.009909123 0.08929694 -0.08819743 -0.019259855
0.10781012 0.1047449 0.04949376 0.1773934 0.154753 0.057295173 0.14677714 -0.03473484
-0.19789822 0.008669947 -0.020904252 -0.0025297457 -0.0545909 -0.0539515 0.22781293 0.008440318
-0.045527283 0.007655851 -0.10860893 -0.15731274 0.03249633 -0.0062435498 -0.084404685 -0.009951661
-0.10347301 0.05959222 0.11560417 0.14432423 -0.06772116 0.012736313 -0.040664535 -0.19631562
-0.06192046 0.115552835 0.045780998 0.038231015 -0.024891933 0.079206094 -0.024416355 0.13570894
-0.015276315 -0.07389895 -0.10067944 -0.020453876 -0.12339377 -0.082018 0.109045826 0.0673502
-0.05935255 0.034243684 0.1081514 -0.04260411 -0.11002443 -0.020834 0.061383504 0.07185267
-0.10175786 0.08398215 -0.059700545 0.041107584 -0.01379253 -0.058849987 0.015567732 -0.016254388
-0.08855893 0.022660758 0.09497221 -0.053273764 -0.045275383 0.092543736 -0.11787108 0.015676826
0.061239522 0.04997417 -0.03455662 -0.03417908 0.0026024804 -0.073967814 -0.043115515 0.13669667
0.0018809043 -0.023460723 0.051758926 -0.1436042 -0.012738561 0.09711947 0.015218047 -0.14812082
-0.07006719 0.03753116 -0.026927581 0.023866015 -0.16326764 0.11036373 -0.056703668 0.027641393
-0.06434481 -0.021660922 0.018877236 0.004619272 -0.01691907 -0.048761383 -0.15160033 0.08741596
-0.027062012 0.048778236 -0.0064490307 0.09115722 0.0510527 -0.09813884 -0.032958996 0.008597692
0.0074607665 -0.16069314 -0.039582934 -0.08993013 0.07171975 0.010573438 -0.029633833 -0.12214705
-0.032841116 -0.12045148 0.013516653 0.0987492 0.049115982 -0.055233467 -0.009423218 0.08107855
0.015771521 0.09624837 0.009550714 -0.096278414 0.020928891 0.09034714 -0.026850257 0.0034792242
0.029276753 0.055032432 -0.077876605 0.05470836 -0.06931187 0.024618726 -0.05639739 -0.02626769
-0.027265478 -0.08604156 -0.052473675 0.080041826 -0.0018795596 0.07537094 -0.10233153 0.09974076
-0.012113573 -0.050672386 0.03385573 0.03042025 0.046079066 0.017094204 -0.014053669 0.064725295
0.11348699 -0.04995255 0.027227234 0.033712596 -0.03354756 0.053173397 -0.083616875 -0.022774935
-0.05433466 -0.022554304 -0.03636049 -0.055251405 0.014716114 -0.03960677 -0.028184151 0.057047762
00000000: c63b 2ebd fed3 80bd 87a3 bdbd c4bb 7a3d
00000010: 880e 1abd 7cbc ecbc d5ad 293e e79f 513c
00000020: 7331 16be 3adf 8a3d 94cb 033d 11f0 01be
00000030: a4a1 b73d fe4c 4dbe c582 2d3e 717e 163e
00000040: 4334 a1bd bc5c a13c a16a 70bd 6c80 403d
00000050: b9ba cabb e2d1 1abd 51a6 033e 1c5c 013d
00000060: 69e4 3d3e eaf5 85be c03c 38be 015d 9e3c
00000070: c964 01be 73b7 94bd 950b 80bd 1a40 653d
00000080: 9efd 4ebe 0382 473d 3b1d 36bd c18f e7bd
00000090: f29f 403e f895 043d 7b9e 28be 93fc a7bd
000000a0: e573 863d 8c31 c4bc 7fad 143e ff5c 0e3d
000000b0: e10e 8ebd b526 43be bf51 c03d 77e5 853d
000000c0: 15fd 09be 1c62 31bd 1d2e 69bd c0c3 74bc
000000d0: 8a84 1abd 8657 ffbd b1cf 3a3d 1d0c 06bd
000000e0: 24b4 a1bd 71a2 383d 7c21 37bd 10ea 73bb
000000f0: 82e9 f83c 1848 20ba 9627 173e 0203 123e
00000100: 1c85 e53d 3b1f d7bd 8016 cf3d e4e7 dd3d
00000110: 4b97 9b3d 4d26 b7bb 118b 9239 b549 193d
00000120: e1c9 d8bd 55c2 183e 8db5 f3bd 3135 58bd
00000130: e059 223c 50e1 b63d dba0 b4bd d8c6 9dbc
00000140: 8dcb dc3d 7e84 d63d f8b9 4a3d 9ea6 353e
00000150: 9277 1e3e 58ae 6a3d bf4c 163e 1f46 0ebd
00000160: d5a5 4abe 650c 0e3c 653f abbc 17ca 25bb
00000170: b59a 5fbd 40fc 5cbd cb47 693e 4249 0a3c
00000180: d17a 3abd efdd fa3b 5c6e debd 9716 21be
00000190: df1a 053d b196 ccbb 5ddc acbd 4b0c 23bc
000001a0: a8e9 d3bd f916 743d e1c1 ec3d bbc9 133e
000001b0: 64b1 8abd f8ab 503c db8f 26bd f606 49be
000001c0: 4fa0 7dbd f7a6 ec3d db84 3b3d 2098 1c3d
000001d0: 2bea cbbc ce36 a23d cf04 c8bc 49f7 0a3e
000001e0: 8249 7abc 5558 97bd 0631 cebd e38e a7bc
000001f0: dfb5 fcbd 0ef9 a7bd 6b53 df3d e7ee 893d
00000200: a91b 73bd 1b43 0c3d 7b7e dd3d a681 2ebd
00000210: 7d54 e1bd 11ac aabc 456d 7b3d 7e27 933d
00000220: 6d66 d0bd d5fe ab3d 8f88 74bd 6d60 283d
00000230: 10fa 61bc af0c 71bd cd0f 7f3c ec27 85bc
00000240: 625e b5bd 0ea3 b93c ca80 c23d 9735 5abd
00000250: ae72 39bd 9287 bd3d 6566 f1bd b06c 803c
00000260: 4bd6 7a3d b7b1 4c3d 3e8b 0dbd 5dff 0bbd
00000270: 608e 2a3b 707c 97bd e599 30bd 36fa 0b3e
00000280: ad88 f63a b430 c0bc 2b01 543d fb0c 13be
00000290: 66b5 50bc 93e6 c63d 1e55 793c fcac 17be
000002a0: 637f 8fbd 46ba 193d 3b97 dcbc a982 c33c
000002b0: a22f 27be 6106 e23d 1b42 68bd 3470 e23c
000002c0: 36c7 83bd 3f72 b1bc 6fa4 9a3c 435d 973b
000002d0: dd99 8abc 04ba 47bd 1e3d 1bbe 2407 b33d
000002e0: 27b1 ddbc b0cb 473d 6452 d3bb a3b0 ba3d
000002f0: a31c 513d 04fd c8bd 0300 07bd 55dd 0c3c
00000300: 7279 f43b be8c 24be b721 22bd 4a2d b8bd
00000310: cee1 923d 373c 2d3c a7c2 f2bc 3c28 fabd
00000320: 6884 06bd 44af f6bd f474 5d3c 053d ca3d
00000330: d72d 493d 7d3c 62bd d763 1abc 830c a63d
00000340: 4733 813c de1d c53d 997a 1c3c 9e2d c5bd
00000350: 1173 ab3c ec07 b93d 12f5 dbbc b203 643b
00000360: cdd5 ef3c b069 613d c57d 9fbd e015 603d
00000370: 62f3 8dbd 36ad c93c f300 67bd 572f d7bc
00000380: da5b dfbc 8f36 b0bd a3ee 56bd f8ec a33d
00000390: 8e5b f6ba 145c 9a3d 3193 d1bd e244 cc3d
000003a0: 0278 46bc d98d 4fbd 4eac 0a3d e333 f93c
000003b0: 67bd 3c3d 2509 8c3c 5c41 66bc b28e 843d
000003c0: de6b e83d 0c9b 4cbd a60b df3c 3816 0a3d
000003d0: 2b69 09bd 59cc 593d 533f abbd 8092 babc
000003e0: 058e 5ebd cec3 b8bc bdee 14bd 4c4f 62bd
000003f0: db1b 713c b53a 22bd 73e2 e6bc eaaa 693d

layers.1.bias f4 [128]
-0.1178451 -0.06803061 -0.14173104 -0.13676465 0.14891008 -0.029634476 0.17163283 0.034192562
-0.28158477 -0.123166814 -0.2161815 -0.029955633 0.09515442 -0.044690527 -0.033122182 -0.1071908
-0.21392395 0.0029263732 -0.12942019 0.040654436 0.09123189 -0.16475594 0.11539856 -0.3589276
0.26308867 0.10019942 -0.05273861 -0.12739496 -0.15616293 0.02431899 -0.084365554 -0.0039406493
0.16451843 0.03035375 0.07666329 0.050447013 0.034488562 -0.20076305 0.24097528 -0.14562866
-0.0065936157 -0.05511363 0.1653625 0.02854481 -0.13070531 0.021878093 -0.13027702 -0.24851042
-0.10487092 -0.00720282 -0.24247947 -0.007310281 -0.12973493 -0.07214271 -0.049471073 -0.11127712
0.23678915 -0.087118864 -0.19460185 -0.100722805 -0.08918306 0.086057454 -0.059633855 -0.18360062
-0.043128707 0.07283375 -0.04931268 0.10559931 -0.16302091 -0.022171726 0.07177635 -0.18561378
-0.056901302 0.07491543 -0.101374924 -0.13043155 -0.19301495 -0.053753406 0.008307282 -0.22222203
0.049354248 0.054134805 0.19604069 0.21439627 -0.08194595 -0.10588263 -0.07219956 -0.024424264
0.032718703 0.23800063 0.03585315 0.1515269 0.14785925 -0.107546546 -0.09590983 0.010641445
0.12454193 -0.17980045 -0.21582249 -0.14679842 0.061569374 0.037499767 -0.07357036 -0.047428444
0.13844444 0.08346805 -0.16708982 -0.08375802 0.09159646 -0.048104323 0.099662 0.06689733
0.13246779 0.08089517 0.06465871 0.034687262 0.0025777183 -0.012223725 -0.09532498 0.023166932
-0.052025724 0.071001574 0.24594116 0.23827925 -0.04578757 -0.111066855 0.15444577 0.10454205
00000000: c658 f1bd a253 8bbd f121 11be 080c 0cbe
00000010: e27b 183e 00c4 f2bc 84c0 2f3e 800d 0c3d
00000020: e12b 90be e23e fcbd af5e 5dbe 8465 f5bc
00000030: 52e0 c23d 6a0d 37bd 20ab 07bd da86 dbbd
00000040: e10e 5bbe 65c8 3f3b ba86 04be 4485 263d
00000050: c9d7 ba3d c8b5 28be 1556 ec3d 5cc5 b7be
00000060: 8fb3 863e 5a35 cd3d 7104 58bd d373 02be
00000070: 2de9 1fbe 9e38 c73c d9c7 acbd 9020 81bb
00000080: 8577 283e 6da8 f83c a501 9d3d 87a1 4e3d
00000090: e143 0d3d d494 4dbe 39c2 763e ae1f 15be
000000a0: 420f d8bb d4be 61bd ca54 293e ced6 e93c
000000b0: 9dd7 05be b039 b33c 5767 05be 8479 7ebe
000000c0: 91c6 d6bd a205 ecbb 8a4c 78be 158b efbb
000000d0: 3cd9 04be 8fbf 93bd 2ea2 4abd 42e5 e3bd
000000e0: db78 723e 606b b2bd b545 47be c247 cebd
000000f0: 9ca5 b6bd e43e b03d a142 74bd cd01 3cbe
00000100: baa7 30bd dc29 953d 18fc 49bd 7344 d83d
00000110: f4ee 26be 7ba1 b5bc 7bff 923d 8a11 3ebe
00000120: 5711 69bd 436d 993d a89d cfbd d98f 05be
00000130: b6a5 45be 882c 5cbd 441b 083c 2c8e 63be
00000140: ae27 4a3d 75bc 5d3d e4be 483e b28a 5b3e
00000150: 47d3 a7bd fed8 d8bd 5ddd 93bd 6515 c8bc
00000160: 0c04 063d 70b6 733e c1da 123d de29 1b3e
00000170: 6a68 173e 5d41 dcbd 5f6c c4bd 7559 2e3c
00000180: d70f ff3d 9c1d 38be 9200 5dbe 5352 16be
00000190: 2b30 7c3d 5b99 193d 0fac 96bd 5444 42bd
000001a0: 61c4 0d3e 4cf1 aa3d 9819 2bbe 5389 abbd
000001b0: ed96 bb3d 0a09 45bd 971b cc3d 7801 893d
000001c0: a3a5 073e 5eac a53d c96b 843d 3b14 0e3d
000001d0: f0ee 283b 0546 48bc be39 c3bd 94c8 bd3c
000001e0: ed18 55bd 4669 913d 00d8 7b3e 7aff 733e
000001f0: bf8b 3bbd 0577 e3bd 0827 1e3e 241a d63d

layers.2.weight f4 [64, 128]
0.27848858 -0.25457335 0.013242062 0.11746265 0.021179343 -0.024379097 0.10176095 -0.016683282
0.10132552 0.12754942 -0.22838207 -0.2021363 -0.062330145 -0.08134579 -0.051486414 -0.06774441
0.19865489 -0.038746215 0.1754402 0.114116125 -0.07100199 0.27053246 0.3490925 -0.0319796
-0.098240264 -0.15911913 -0.10201726 0.042159695 0.2233021 0.004894116 -0.050435856 -0.11956658
0.06309594 0.29483482 -0.0679239 0.00065683597 -0.07028866 -0.028991569 0.09618498 -0.055145677
-0.37169173 0.07934941 -0.121446535 -0.1778733 -0.12041095 0.24241124 0.0678521 0.14874803
-0.1709527 0.065812565 -0.17631352 0.2618101 -0.28269953 -0.11036273 0.10739445 -0.047228698
0.088879816 -0.037049364 -0.07458533 0.04872802 0.07516713 -0.012611532 0.05979215 -0.11983221
-0.012801579 -0.23200579 0.06273628 -0.035136484 0.0060177445 -0.51217955 0.056294847 -0.0783442
0.084012255 -0.08059133 -0.2449991 -0.081315786 -0.076239444 0.29776588 0.17640048 0.06867667
-0.12836047 0.13190694 0.024410177 0.059665814 0.03386925 -0.13351306 -0.025580745 0.05558009
-0.0053668753 0.043179646 0.14920029 -0.106679685 -0.14015506 0.045521017 -0.0760973 -0.102204956
-0.17873041 -0.04560689 -0.05491098 0.08124195 0.09078499 0.09147056 0.06601137 -0.018108483
0.2743515 0.1613234 0.058444686 -0.083378024 0.045242336 -0.03109031 0.081330076 0.01910435
0.12943706 -0.38090032 -0.05576509 -0.057990704 0.026117153 0.22933899 0.28603128 -0.11044832
0.017961064 0.14150946 -0.62866044 0.1787441 0.19525443 0.020993402 0.1028018 0.09998954
-0.10542114 -0.12425589 -0.10547819 0.13730921 0.20626754 -0.039625376 0.0027170666 0.05833227
-0.106351554 -0.04496426 -0.42818192 -0.21093737 -0.17818303 -0.170884 -0.17880121 -0.10198228
0.0297172 -0.057590388 -0.22840472 -0.120994724 -0.16000874 -0.018603135 0.08815189 0.43962118
-0.0006207425 -0.039312217 -0.017273448 0.045263425 -0.046570078 -0.053473 0.12649989 -0.06198092
0.008554928 -0.026470298 -0.015110989 0.083270356 0.039253954 -0.102278925 -0.07093057 -0.08490144
-0.18561816 -0.07933602 0.09916511 -0.003601538 -0.06455928 -0.022649791 -0.09500883 -0.1666198
-0.025929939 -0.16263922 -0.23361056 0.14861737 0.12927945 -0.15639713 -0.04129397 -0.080047525
0.09997328 0.026900137 -0.047332738 -0.14040774 0.0007967549 0.10357787 0.132746 -0.28679356
0.11492592 0.1086119 0.04820554 0.14368114 0.07729686 0.027476607 -0.0021072393 0.057380877
-0.050383095 -0.011481398 -0.09310433 0.07285615 -0.08679442 0.0059410036 0.105355345 -0.13944502
-0.15090173 0.18862611 0.17451663 0.10822025 -0.008614667 -0.008112878 0.007620231 0.3157404
0.10283 0.05673038 0.043605573 0.05113765 -0.19839385 -0.02904324 -0.019492444 -0.11188961
0.07986466 -0.15357475 -0.03548417 0.066939026 0.15217842 -0.03084013 0.11769094 -0.002404529
0.13723595 -0.22907527 -0.027940663 0.111469515 -0.1982446 -0.035983134 0.06812349 -0.05804077
0.0130307935 0.12123059 -0.13329926 0.24070242 -0.047941525 0.080908194 -0.008711417 -0.11251429
-0.1776347 0.105790436 -0.17516911 -0.031947155 0.00068021606 -0.034199674 -0.13710363 -0.18712501
00000000: 0e96 8e3e 7057 82be 3cf5 583c 4290 f03d
00000010: 4d80 ad3c acb6 c7bc 0c68 d03d 61ab 88bc
00000020: c183 cf3d 519c 023e fddc 69be d1fc 4ebe
00000030: e54d 7fbd 9f98 a6bd 6be3 52bd 95bd 8abd
00000040: 306c 4b3e 5ab4 1ebd 99a6 333e b7b5 e93d
00000050: 7e69 91bd 3b83 8a3e 41bc b23e 0bfd 02bd
00000060: 3132 c9bd 20f0 22be 6dee d0bd a5af 2c3d
00000070: 4ea9 643e d25e a03b d495 4ebd 53df f4bd
00000080: 7238 813d 97f4 963e b01b 8bbd 842f 2c3a
00000090: 80f3 8fbd ba7f edbc a1fc c43d 6fe0 61bd
000000a0: 614e bebe f281 a23d f6b8 f8bd 6b24 36be
000000b0: 049a f6bd a73a 783e 0bf6 8a3d 6751 183e
000000c0: 390e 2fbe bdc8 863d 888b 34be f90b 863e
000000d0: febd 90be db05 e2bd 9ff1 db3d e172 41bd
000000e0: 9f06 b63d 13c1 17bd 32c0 98bd 0897 473d
000000f0: 39f1 993d 99a0 4ebc 9de8 743d 976a f5bd
00000100: b7bd 51bc ed92 6dbe e17b 803d 46eb 0fbd
00000110: 8030 c53b 331e 03bf 6d95 663d ed72 a0bd
00000120: 9e0e ac3d 110d a5bd 0be1 7abe e488 a6bd
00000130: 6d23 9cbd c574 983e 54a2 343e 5ba6 8c3d
00000140: ed70 03be 9d12 073e daf7 c73c 2464 743d
00000150: 7cba 0a3d a6b7 08be b68e d1bc f3a7 633d
00000160: 9ddc afbb 24dd 303d f6c7 183e e17a dabd
00000170: cf84 0fbe 3f74 3a3d e7d8 9bbd d550 d1bd
00000180: 1b05 37be 4ace 3abd 56ea 60bd 2e62 a63d
00000190: 7bed b93d eb54 bb3d f830 873d 3e58 94bc
000001a0: cd77 8c3e f631 253e b263 6f3d 19c2 aabd
000001b0: 0750 393d 1bb1 febc 6290 a63d ba80 9c3c
000001c0: 268b 043e 5e05 c3be ef69 64bd a987 6dbd
000001d0: a4f3 d53c d7d7 6a3e b172 923e bb32 e2bd
000001e0: 1523 933c dbe7 103e e4ef 20bf b108 373e
000001f0: c7f0 473e 5bfa ab3c c089 d23d 51c7 cc3d
00000200: 0ae7 d7bd df79 febd f304 d8bd c99a 0c3e
00000210: cc37 533e 384e 22bd d010 323b d1ed 6e3d
00000220: d8ce d9bd 722c 38bd a93a dbbe f7ff 57be
00000230: 9d75 36be 37fc 2ebe aa17 37be 16dc d0bd
00000240: 7c71 f33c e6e3 6bbd ede2 69be 15cc f7bd
00000250: 55d9 23be 9a65 98bc fa88 b43d 0716 e13e
00000260: 53b9 22ba d905 21bd 0c81 8dbc 2466 393d
00000270: 44c0 3ebd 8106 5bbd 3089 013e b5df 7dbd
00000280: f829 0c3c 3dd8 d8bc 1594 77bc a689 aa3d
00000290: c1c8 203d 9d77 d1bd 0c44 91bd cee0 adbd
000002a0: b012 3ebe ec7a a2bd 1417 cb3d c807 6cbb
000002b0: a837 84bd 0e8c b9bc fd93 c2bd 619e 2abe
000002c0: 066b d4bc e58a 26be 9b37 6fbe 272f 183e
000002d0: d561 043e 9226 20be de23 29bd f5ef a3bd
000002e0: cbbe cc3d ad5d dc3c f9df 41bd 0cc7 0fbe
000002f0: 51dd 503a a220 d43d 91ee 073e 9bd6 92be
00000300: 485e eb3d ea6f de3d 2c73 453d 2621 133e
00000310: d14d 9e3d 9f16 e13c 9c19 0abb 3608 6b3d
00000320: 815e 4ebd 791c 3cbc 7cad bebd 9b35 953d
00000330: 46c1 b1bd c0ac c23b 8bc4 d73d adca 0ebe
00000340: fc85 1abe 3427 413e 7db4 323e 94a2 dd3d
00000350: 8824 0dbc e0eb 04bc 21b3 f93b baa8 a13e
00000360: 8998 d23d 1d5e 683d c29b 323d b675 513d
00000370: c227 4bbe 17ec edbc 9eae 9fbc 6126 e5bd
00000380: 1590 a33d b342 1dbe d957 11bd 5417 893d
00000390: a9d4 1b3e 71a4 fcbc f307 f13d 4d95 1dbb
000003a0: 9587 0c3e b592 6abe d1e3 e4bc 214a e43d
000003b0: a200 4bbe 0d63 13bd 5484 8b3d 29bc 6dbd
000003c0: 1c7f 553c be47 f83d 9a7f 08be b27a 763e
000003d0: 555e 44bd 32b3 a53d 55ba 0ebc e46d e6bd
000003e0: dfe5 35be a8a8 d83d 885f 33be 05db 02bd
000003f0: 8750 323a f514 0cbd e564 0cbe b39d 3fbe

layers.2.bias f4 [64]
0.009359541 0.032985486 0.03380538 -0.030968914 0.020110423 0.034523454 -0.18330324 0.04648129
-0.13075617 0.05962697 0.025438156 0.009056523 -0.009114333 -0.06457916 0.10636311 0.04078316
0.021634517 0.042434264 0.016391372 -0.06429836 0.054915696 0.05944004 0.0035722996 -0.07390105
-0.020869482 -0.034380294 -0.023079675 0.029506246 0.13671851 -0.0712369 0.07849216 -0.24219544
0.03659191 0.049998056 0.033811036 0.049185757 0.16973889 -0.023194695 -0.09709491 0.0778759
-0.059272334 0.06076969 0.04441741 -0.031135708 -0.05759258 0.073525816 0.00073472486 -0.049837463
0.03259702 -0.13761207 -0.01723691 -0.033964615 -0.055340752 0.13867544 -0.039559517 0.05490943
0.1492654 -0.19077797 -0.060466234 0.004812262 -0.07378592 -0.026338307 -0.040730856 0.0074663167
00000000: c358 193c ca1b 073d 8377 0a3d 85b2 fdbc
00000010: 9dbe a43c 7768 0d3d d8b3 3bbe 2a63 3e3d
00000020: f2e4 05be 693b 743d ae63 d03c d061 143c
00000030: 4954 15bc 1442 84bd e7d4 d93d 3e0c 273d
00000040: df3a b13c 8dcf 2d3d 3347 863c dcae 83bd
00000050: 48ef 603d 6677 733d 3e1d 6a3b 6f59 97bd
00000060: 7af6 aabc 5ad2 0cbd 9611 bdbc 15b7 f13c
00000070: f0ff 0b3e a7e4 91bd 7fc0 a03d 1502 78be
00000080: 66e1 153d c3ca 4c3d 717d 0a3d 0177 493d
00000090: 08d0 2d3e cd02 bebc b2d9 c6bd 667d 9f3d
000000a0: 8cc7 72bd a3e9 783d 08ef 353d 5010 ffbc
000000b0: 32e6 6bbd b494 963d 8d9a 403a 5e22 4cbd
000000c0: 7484 053d 2eea 0cbe 6c34 8dbc 7b1e 0bbd
000000d0: fcac 62bd ef00 0e3e 2909 22bd b6e8 603d
000000e0: 07d9 183e 4d5b 43be 71ab 77bd 2eb0 9d3b
000000f0: 131d 97bd 6fc3 d7bc 66d5 26bd 01a8 f43b

readout.weight f4 [1, 64]
-0.8396857 -0.8290024 -0.80220515 0.82759446 0.86164236 0.90987986 -0.8100814 -1.0152922
1.1627514 0.9791595 -1.0332621 0.92630047 -1.1832794 -0.82577336 1.1099602 -0.9460697
-0.9407091 0.9292406 0.8500076 -0.73998696 -0.87863034 0.9627572 0.71959186 0.9452444
-0.90861934 -0.93491673 -1.0305815 0.8250316 -0.78501993 0.92110646 0.87483394 -0.92369235
-0.67115605 0.8657924 -0.8280013 -1.0632808 0.81855804 -0.96200526 -0.9450819 0.9457921
-0.8219935 -0.79204714 -0.90733665 -0.9367859 1.222704 0.9752191 0.9256653 0.7170624
-1.0058517 0.7589895 1.0603505 -0.7268993 -0.8636976 -1.1465864 -0.8559369 1.1323532
-1.1458004 1.0957739 0.93924767 0.91006625 0.7421954 0.9033598 -0.83922464 1.0265613
00000000: a4f5 56bf 8039 54bf 515d 4dbf 3bdd 533f
00000010: 9894 5c3f e3ed 683f 7f61 4fbf 18f5 81bf
00000020: 0ad5 943f 32aa 7a3f ef41 84bf 0722 6d3f
00000030: b375 97bf e265 53bf 2d13 8e3f a031 72bf
00000040: 50d2 70bf b6e2 6d3f 199a 593f c96f 3dbf
00000050: ebed 60bf 4177 763f 2c37 383f 89fb 713f
00000060: 479b 68bf b456 6fbf 18ea 83bf 4535 533f
00000070: 11f7 48bf a2cd 6b3f 1ef5 5f3f 1a77 6cbf
00000080: e2d0 2bbf 92a4 5d3f e5f7 53bf 9619 88bf
00000090: 058d 513f fa45 76bf e3f0 71bf 6e1f 723f
000000a0: 2b6e 52bf 9ac3 4abf 3747 68bf 33d1 6fbf
000000b0: 9181 9c3f f5a7 793f 67f8 6c3f 6791 373f
000000c0: c0bf 80bf 234d 423f 91b9 873f 1316 3abf
000000d0: 491b 5dbf 58c3 92bf ae1e 5bbf f3f0 903f
000000e0: 96a9 92bf 5242 8c3f 8972 703f 1afa 683f
000000f0: 8500 3e3f 9642 673f 6dd7 56bf 5c66 833f

layers.0.weight f4 [128, 17]
0.8375334 0.121270224 0.54296684 -0.3566115 -0.18156326 -0.42258063 -0.9660738 -0.66869056
0.0009161157 -0.31426907 0.054612625 -0.02837762 0.023358183 -0.015041439 -0.04458377 -0.00948975
0.027592223 1.396013 -1.270926 0.18667683 -0.06612215 0.29162845 0.17841461 0.075042985
0.11246746 0.45750755 -0.101573475 -0.21579027 -0.17098631 0.0849441 -0.003940567 0.06943458
0.0010273928 -0.08331576 0.047741324 0.8292888 0.19902357 -0.2562304 0.20563792 -0.02126776
0.011769002 0.3914178 -0.7450553 -0.19953537 -0.10566683 -0.17043309 -0.15853812 0.024406798
-0.060205072 -0.008827037 0.074556276 -0.9017063 -0.6493088 0.42012465 -0.4703153 6.474699e-05
0.37626898 0.17011479 -0.078813575 0.57467806 -0.6162628 -0.21853958 0.017313221 0.01668299
-0.028719986 -0.28702712 -0.09867031 -0.017301751 -0.12093738 0.06756284 0.023731189 0.2500069
-0.29332075 -0.28426927 -0.20024852 -0.10367832 0.15289053 0.21938185 -0.02605889 -0.068291366
-0.06375099 -0.0068139276 0.051323134 -0.0019980809 -0.0152535895 -0.60085887 0.44755232 0.44157654
-0.11057268 -0.122499846 0.33084205 0.167865 0.1272945 -0.13733622 -0.1833746 0.054642573
0.059124943 0.019820739 0.022035426 -0.08813604 -0.22190498 -0.12837632 0.2595686 -0.01209994
0.5146395 0.6216042 0.27721024 -0.41807964 0.19182807 -0.031506475 -0.5581848 0.037908528
-0.4546884 0.018486982 0.04856209 -0.18007655 -0.25731432 -0.21185899 0.058555994 -0.90055877
0.6377333 0.07761083 -0.18654822 0.073843315 0.57343197 -0.17838751 0.12897176 0.27901992
-0.23115213 0.29874578 0.15044059 0.054533627 -0.020478297 0.17094526 0.052385435 0.07066456
-0.505117 0.16079102 0.5527619 -0.44827402 -0.022415519 -1.0956599 -0.5866525 -0.048823338
-0.45816356 0.09719805 -0.2622913 0.039600264 0.06333586 0.02382856 -0.3715467 -0.14767934
-0.1428632 0.68212354 -0.19653009 -0.34334883 0.18347463 -0.555009 0.5885116 0.12755963
0.5428773 0.15072435 0.08119469 -0.42495954 0.19501115 0.028296968 0.040370148 -0.015419644
-0.08301712 -0.052351147 -0.15499178 0.1550141 -0.54962164 -0.48020923 -0.24969047 -0.17267069
-0.07625898 0.14052705 0.4122066 -0.37815887 -0.12389123 0.022009807 -0.13941039 -0.14668849
0.09992925 0.057870388 0.046985943 1.1245996 -0.3270535 -0.6711947 -0.26351145 0.03146272
0.5638432 -0.17599423 0.021768982 0.5519365 0.24474241 -0.49672815 -0.12182771 -0.085582554
0.0019572694 0.13294153 0.09507655 0.031068247 0.21443217 0.06118185 0.6074152 0.007291292
-0.08518839 -0.4538351 -0.28557 -0.1576176 0.18982264 0.40098247 0.23786448 0.118258946
-0.05234208 0.012646153 -0.023339076 0.0071571064 -0.047878798 -1.6552684 0.71397024 0.30369377
-0.20562999 -0.03556481 0.87637705 -0.5632852 -0.020488063 0.074371226 -0.6664352 -0.024674151
-0.077917136 0.039607894 -0.0042179013 -0.13496965 0.025625817 0.01728847 0.21194407 -0.15535145
-0.49809748 0.25076154 -0.5649603 -0.07033066 -0.8713508 0.31289628 -0.099194705 0.14925495
-0.6283218 -0.19495763 -0.15596728 -0.019267121 0.16864184 0.034227844 0.07804075 0.4016257
00000000: 9768 563f 865c f83d e0ff 0a3f c895 b6be
00000010: b8eb 39be 7d5c d8be 9d50 77bf 4e2f 2bbf
00000020: 7c27 703a e0e7 a0be 7db1 5f3d 2f78 e8bc
00000030: a959 bf3c 5e70 76bc 799d 36bd e57a 1bbc
00000040: 1609 e23c 8eb0 b23f b4ad a2bf 3628 3f3e
00000050: 0d6b 87bd 5350 953e 52b2 363e 23b0 993d
00000060: 5755 e63d 6e3e ea3e c105 d0bd 20f8 5cbe
00000070: 0917 2fbe 2cf7 ad3d df1f 81bb b833 8e3d
00000080: 95a9 863a 74a1 aabd 688c 433d 454c 543f
00000090: d6cc 4b3e a230 83be bf92 523e ba39 aebc
000000a0: c6d2 403c ea67 c83e f2bb 3ebf 0053 4cbe
000000b0: da67 d8bd 0386 2ebe d157 22be c4f0 c73c
000000c0: 9899 76bd 479f 10bc f6b0 983d 39d6 66bf
000000d0: 1a39 26bf 941a d73e 2bcd f0be c7c8 8738
000000e0: 54a6 c03e 9232 2e3e 0369 a1bd 1a1e 133f
000000f0: 66c3 1dbf d7c8 5fbe 75d4 8d3c c4aa 883c
00000100: 2d46 ebbc 38f5 92be a913 cabd 67bc 8dbc
00000110: 04ae f7bd 635e 8a3d e967 c23c e800 803e
00000120: 232e 96be be8b 91be f30d 4dbe 4d55 d4bd
00000130: 568f 1c3e a3a5 603e 7479 d5bc 58dc 8bbd
00000140: e18f 82bd 5e47 dfbb 3538 523d 3cf2 02bb
00000150: 31ea 79bc e3d1 19bf 9425 e53e 5216 e23e
00000160: ee73 e2bd 33e1 fabd 2164 a93e cde4 2b3e
00000170: 7d59 023e dea1 0cbe 8dc6 3bbe e4d0 5f3d
00000180: ff2c 723d 1a5f a23c a383 b43c ab80 b4bd
00000190: 0f3b 63be 1575 03be 2de6 843e d43e 46bc
000001a0: 6abf 033f 7421 1f3f 80ee 8d3e 890e d6be
000001b0: 946e 443e ef0c 01bd 33e5 0ebf f945 1b3d
000001c0: ebcc e8be 0372 973c 0be9 463d fd65 38be
000001d0: b4be 83be 90f1 58be 69d8 6f3d 058b 66bf
000001e0: 7d42 233f 6df2 9e3d 7f06 3fbe 2a3b 973d
000001f0: 70cc 123f 37ab 36be 2c11 043e b3db 8e3e
00000200: 25b3 6cbe 35f5 983e 190d 1a3e a75e 5f3d
00000210: 1ac2 a7bc 460c 2f3e 1c92 563d 95b8 903d
00000220: 594f 01bf 67a6 243e ce81 0d3f 2c84 e5be
00000230: c0a0 b7bc 953e 8cbf dc2e 16bf fbfa 47bd
00000240: 6a94 eabe c50f c73d 0c4b 86be e333 223d
00000250: 3bb6 813d 1d34 c33c 5e3b bebe 4139 17be
00000260: bb4a 12be a69f 2e3f 2f3f 49be 6bcb afbe
00000270: c6e0 3b3e 1215 0ebf b2a8 163f fe9e 023e
00000280: 02fa 0a3f 7c57 1a3e 6749 a63d 4c94 d9be
00000290: 01b1 473e 0bcf e73c 2b5b 253d ada2 7cbc
000002a0: e104 aabd 286e 56bd 2ab6 1ebe 04bc 1e3e
000002b0: 01b4 0cbf fcdd f5be dcae 7fbe 96d0 30be
000002c0: ab2d 9cbd 53e6 0f3e be0c d33e 0a9e c1be
000002d0: afba fdbd e94d b43c 99c1 0ebe 8235 16be
000002e0: b5a7 cc3d 8009 6d3d 5574 403d e1f2 8f3f
000002f0: 8e73 a7be 6ad3 2bbf f9ea 86be 0edf 003d
00000300: 0758 103f d537 34be dd54 b23c b64b 0d3f
00000310: c19d 7a3e 2753 febe ce80 f9bd e845 afbd
00000320: 8845 003b d321 083e 7fb7 c23d d682 fe3c
00000330: 1b94 5b3e d299 7a3d 907f 1b3f caeb ee3b
00000340: 4077 aebd 135d e8be 3b36 92be 8266 21be
00000350: de60 423e 934d cd3e bf92 733e bf31 f23d
00000360: a664 56bd cf31 4f3c 9731 bfbc 2986 ea3b
00000370: 8f1c 44bd d6df d3bf c1c6 363f c07d 9b3e
00000380: ab90 52be 68ac 11bd 3f5a 603f 7533 10bf
00000390: 95d6 a7bc f14f 983d 7f9b 2abf 7221 cabc
000003a0: 0593 9fbd e33b 223d 5236 8abb 7c35 0abe
000003b0: 3ced d13c 8da0 8d3c de07 593e 7314 1fbe
000003c0: a206 ffbe d163 803e 3da1 10bf 8509 90bd
000003d0: d910 5fbf f133 a03e 9826 cbbd 4ad6 183e
000003e0: b3d9 20bf f9a2 47be e3b5 1fbe 15d6 9dbc
000003f0: 72b0 2c3e 7f32 0c3d d4d3 9f3d e2a1 cd3e

layers.0.bias f4 [128]
0.4415015 0.67658406 -0.19591495 0.73956037 0.6810327 -0.6272274 -0.001230052 -0.066338025
-0.24115498 0.44313076 0.25738016 0.5020844 0.96648514 0.19798602 0.32630727 0.20950419
-0.8243346 0.25342175 0.34334478 0.039654016 0.713042 0.7304598 -0.11589663 0.84659773
0.18749805 0.25557107 0.7889302 0.97088784 -0.0019074554 1.1012648 0.22240326 0.19029851
0.47679144 0.025755387 0.07328602 -0.2455908 -0.27782992 0.80380213 -0.38328353 -0.27224296
-0.39617458 0.684115 0.07570914 -0.027459707 -0.5031356 -0.1656028 -0.30311623 0.61451757
-0.31608534 0.6428955 0.41075525 0.35969144 0.06912344 -0.28776821 -0.40706152 0.030931309
0.50901365 -0.07214885 -0.17307894 -0.38317633 0.2993376 -0.28910232 -0.54813355 0.72383326
-0.13886636 -0.47215986 0.53010243 -0.26539594 -0.42100266 -0.028273324 0.34962064 0.46745855
-0.030825928 -0.09887778 -0.30936536 0.6801253 -0.21481153 0.042414665 0.643765 0.12288122
0.6017115 0.07802338 -0.24406727 -0.6370735 0.015449032 -0.009929927 0.2172534 0.0050168964
-0.57077837 0.36799315 -0.11863381 -0.68701893 -0.08150379 0.35763055 0.12240478 -0.02036791
0.17137852 -0.1407798 -0.24587752 0.40118578 -0.036707185 -0.21161582 0.52388394 -0.23942359
0.9315989 -0.11489054 0.18116629 -0.51950365 0.18044169 0.7483029 0.4221764 0.5240416
-0.20040964 0.5570982 0.087939955 -0.21320924 -0.14778145 0.81812644 0.627565 0.4349052
-0.062345542 -0.061300993 0.3483321 0.31707737 -0.5319452 -0.4067723 -0.40372545 0.11882349
00000000: 7c0c e23e 9d34 2d3f ee9d 48be d453 3d3f
00000010: 2958 2e3f fa91 20bf b239 a1ba 3bdc 87bd
00000020: 55f1 76be 09e2 e23e 55c7 833e 9a88 003f
00000030: 926b 773f d9bc 4a3e bf11 a73e 4488 563e
00000040: 9807 53bf 7fc0 813e e3ca af3e 406c 223d
00000050: ec89 363f 6aff 3a3f 365b edbd a1ba 583f
00000060: 7dff 3f3e 36da 823e 54f7 493f 1b8c 783f
00000070: 9503 faba 3ff6 8c3f aebd 633e 9ddd 423e
00000080: 021e f43e f6fc d23c fb16 963d 287c 7bbe
00000090: b93f 8ebe fac5 4d3f bd3d c4be 6e63 8bbe
000000a0: 65d7 cabe 2922 2f3f 650d 9b3d 2ef3 e0bc
000000b0: 7fcd 00bf c893 29be 0d32 9bbe 0651 1d3f
000000c0: f0d5 a1be cd94 243f 834e d23e 7a29 b83e
000000d0: 9790 8d3d 5b56 93be 5e6a d0be a863 fd3c
000000e0: b84e 023f c7c2 93bd 9b3b 31be b02f c4be
000000f0: c742 993e 3805 94be 7b52 0cbf 234d 393f
00000100: fc32 0ebe f0be f1be cbb4 073f fae1 87be
00000110: a98d d7be 759d e7bc 7a01 b33e ba56 ef3e
00000120: a886 fcbc 6f80 cabd 2365 9ebe b11c 2e3f
00000130: 8ef7 5bbe 00bb 2d3d c8cd 243f 26a9 fb3d
00000140: c409 1a3f b9ca 9f3d c5ec 79be 4017 23bf
00000150: f01d 7d3c 22b1 22bc ad77 5e3e c764 a43b
00000160: 881e 12bf 9969 bc3e 48f6 f2bd 79e0 2fbf
00000170: 76eb a6bd 5a1b b73e 5baf fa3d 9ada a6bc
00000180: da7d 2f3e 9428 10be 51c7 7bbe 3968 cd3e
00000190: 465a 16bd d1b1 58be 421d 063f 752b 75be
000001a0: 447d 6e3f bb4b ebbd a883 393e 31fe 04bf
000001b0: b5c5 383e c790 3f3f 8127 d83e 9727 063f
000001c0: 2f38 4dbe fd9d 0e3f dd19 b43d 8653 5abe
000001d0: 0554 17be bc70 513f 1aa8 203f e5ab de3e
000001e0: 0a5e 7fbd c016 7bbd 9658 b23e f757 a23e
000001f0: 902d 08bf 7544 d0be 1ab5 cebe bb59 f33d

layers.1.weight f4 [128, 128]
0.16674417 0.052634105 0.015874678 0.13665779 0.029590819 -0.110635735 0.021722192 -0.04866317
0.15523463 0.09459912 -0.010105675 0.10337357 -0.02655905 -0.072263665 0.011805496 -0.06789184
0.049512163 0.092911705 0.014340143 0.022077024 -0.066415414 0.08100948 0.056651674 0.0779746
0.09836838 -0.09512532 -0.20317891 0.12739933 0.18319345 0.43295932 -0.012541535 -0.027374959
0.16826047 0.022872366 -0.07953227 -0.11254044 -0.14373825 -0.01611497 -0.10855642 0.07844038
-0.14751865 0.007854511 -0.19213909 0.025691949 -0.06714227 -0.047524355 0.03997824 -0.057126783
0.12647232 -0.09947449 -0.07287791 -0.025285829 0.14585672 0.04058111 -0.014571878 0.34389374
-0.14339624 -0.038742553 -0.1473267 -0.06782747 0.015590207 -0.009590575 -0.07013221 0.09645765
-0.035941277 -0.06431752 -0.09546211 0.14525615 0.06506247 0.051630992 -0.072575994 0.026841002
-0.17695105 0.023061454 -0.034919444 0.03717474 -0.014915821 -0.018194154 -0.0052623516 0.023794806
0.0825918 0.06702828 -0.12092995 0.0072578224 -0.071838506 0.04279171 0.102976605 0.22389877
-0.018243086 0.11005326 -0.014753191 -0.1610131 0.035151854 0.1287117 0.14083922 -0.05376688
-0.20998701 -0.0080173025 -0.17307492 -0.084189475 -0.016194385 -0.06776565 0.05774316 -0.08702287
0.12037918 0.100316085 0.11083815 -0.085241966 0.086233854 0.11291835 -0.12053402 0.13443345
-0.13838673 0.09783174 -0.32572743 -0.18734433 -0.035256617 0.35127717 0.0684046 -0.059895124
-0.04183268 -0.05166202 0.081918 0.16569899 -0.1166621 -0.12169222 -0.017339485 -0.13183671
0.109255664 0.022777868 0.113057874 -0.089172356 -0.040326398 0.029322911 -0.19238806 -0.10753532
0.0005982582 -0.064396314 0.038596272 0.16261436 0.1949748 -0.011558689 0.0033301539 0.109748326
-0.049032304 -0.141994 0.03505317 -0.043775663 -0.14973706 0.015039493 -0.3272147 -0.16962583
-0.08304707 0.20318677 -0.059210803 -0.026163971 -0.18931627 -0.116620876 0.11334952 0.070614494
-0.28214294 -0.18601106 0.27726978 0.06414173 -0.05152233 0.11348142 0.23103867 -0.10870243
0.03195 0.13144353 -0.027309094 -0.06886519 0.066038 -0.03707957 0.20089434 -0.027284684
0.07817141 0.19627486 -0.031766012 0.20397916 -0.09929898 -0.11288065 0.20968094 0.0999743
0.03396862 0.121160306 -0.028107405 -0.13166097 0.027312035 0.10986863 0.024281865 -0.32974517
0.015270682 0.07856904 0.32608244 -0.44117513 -0.22082943 -0.28826517 -0.1616815 -0.031465597
0.26643458 -0.22773327 0.09529235 -0.1279311 -0.017225659 0.16323048 -0.09744442 -0.04998174
0.11512 -0.08702294 0.00705403 -0.028207222 0.104509644 0.16667634 -0.12860313 -0.17252964
0.06630631 -0.12071844 -0.027473722 0.13087893 -0.12372228 -0.080002 -0.22043025 -0.11720166
-0.16359268 0.042269055 0.011049062 0.038323157 -0.12099772 -0.14403456 0.1239004 0.25867778
0.20995976 -0.07810654 0.12175774 -0.0013699002 0.01601914 -0.049480986 -0.027433211 -0.14265105
0.0063458756 -0.0629876 0.2543093 -0.0056564147 -0.07316136 0.18236353 0.12062773 0.10191483
0.14379308 0.13625744 -0.04493537 -0.06553665 -0.11886426 -0.082162865 0.17457384 -0.50087774
00000000: fcbe 2a3e dc96 573d 9d0b 823c 05f0 0b3e
00000010: 7268 f23c fd94 e2bd bdf2 b13c 0853 47bd
00000020: d4f5 1e3e 2fbd c13d 4692 25bc 86b5 d33d
00000030: 5d92 d9bc f9fe 93bd d76b 413c e10a 8bbd
00000040: 44cd 4a3d 7e48 be3d ebf2 6a3c e0da b43c
00000050: ce04 88bd 4ce8 a53d 960b 683d 26b1 9f3d
00000060: 5c75 c93d 10d1 c2bd 220e 50be f874 023e
00000070: 1097 3b3e d8ac dd3e 037b 4dbc 7341 e0bc
00000080: 794c 2c3e d45e bb3c d1e1 a2bd 9a7b e6bd
00000090: 1f30 13be 8b03 84bc d452 debd 5aa5 a03d
000000a0: 210f 17be 35b0 003c 1cc0 44be ec77 d23c
000000b0: e381 89bd e6a8 42bd 39c0 233d c6fd 69bd
000000c0: f681 013e 48b9 cbbd 0441 95bd 3a24 cfbc
000000d0: 775b 153e 6138 263d e3be 6ebc d712 b03e
000000e0: 77d6 12be 83b0 1ebd cfdc 16be 21e9 8abd
000000f0: 116e 7f3c c921 1dbc 7aa1 8fbd 978b c53d
00000100: 2937 13bd e7b8 83bd a481 c3bd 07be 143e
00000110: 793f 853d 057b 533d b9a2 94bd a9e1 db3c
00000120: a832 35be 60eb bc3c b107 0fbd 8a44 183d
00000130: 7d61 74bc e80b 95bc ce6f acbb 53ed c23c
00000140: e425 a93d 1f46 893d 1faa f7bd 07d3 ed3b
00000150: 1120 93bd 5c46 2f3d 66e5 d23d b845 653e
00000160: 8672 95bc 9b63 e13d 5eb7 71bc 9ee0 24be
00000170: 64fb 0f3d 00cd 033e 2838 103e a93a 5cbd
00000180: d606 57be 015b 03bc 8d3a 31be 886b acbd
00000190: 16aa 84bc b8c8 8abd 1784 6c3d 0c39 b2bd
000001a0: 5c89 f63d 8572 cd3d 1dff e23d 5793 aebd
000001b0: 609b b03d bc41 e73d 8ada f6bd eca8 093e
000001c0: 40b5 0dbe 025c c83d bfc5 a6be 31d7 3fbe
000001d0: 3e69 10bd 9ada b33e b617 8c3d 9754 75bd
000001e0: bf58 2bbd 8e9b 53bd a0c4 a73d ffac 293e
000001f0: 8aec eebd c539 f9bd 890b 8ebc 3400 07be
00000200: 6fc1 df3d a798 ba3c e38a e73d ff9f b6bd
00000210: 4b2d 25bd 9a36 f03c 6001 45be 7a3b dcbd
00000220: 6ed4 1c3a 37e2 83bd 2017 1e3d 6184 263e
00000230: 79a7 473e a860 3dbc b63e 5a3b bbc3 e03d
00000240: 19d6 48bd e066 11be ea93 0f3d 1c4e 33bd
00000250: ac54 19be 3568 763c af88 a7be 65b2 2dbe
00000260: 9514 aabd 3110 503e 0787 72bd d355 d6bc
00000270: 20dc 41be edd6 eebd cb23 e83d 559e 903d
00000280: 0a75 90be af79 3ebe 4ef6 8d3e bd5c 833d
00000290: 1409 53bd f268 e83d 6795 6c3e 619f debd
000002a0: 01de 023d 2299 063e 52b7 dfbc 3109 8dbd
000002b0: ee3e 873d bfe0 17bd 3fb7 4d3e 2184 dfbc
000002c0: 5518 a03d 47fc 483e 141d 02bd eadf 503e
000002d0: 435d cbbd f82d e7bd 9ab6 563e 53bf cc3d
000002e0: ae22 0b3d e522 f83d 8041 e6bc 22d2 06be
000002f0: 7dbd df3c ce02 e13d c3ea c63c 5cd4 a8be
00000300: e231 7a3c cee8 a03d 47f4 a63e b5e1 e1be
00000310: 1c21 62be 7e97 93be d68f 25be 12e2 00bd
00000320: 1d6a 883e e932 69be a328 c33d 5f00 03be
00000330: d31c 8dbc e425 273e f190 c7bd a7b9 4cbd
00000340: 09c4 eb3d 1539 b2bd 7e25 e73b d512 e7bc
00000350: 2709 d63d 34ad 2a3e 8ab0 03be 9cab 30be
00000360: 9acb 873d 3b3b f7bd 9210 e1bc 2005 063e
00000370: 1b62 fdbd 17d8 a3bd 78b8 61be 6d07 f0bd
00000380: d784 27be 5122 2d3d 2007 353c bef8 1c3d
00000390: a7cd f7bd cc7d 13be 7ebf fd3d 6a71 843e
000003a0: b1ff 563e 52f6 9fbd 1f5c f93d 398e b3ba
000003b0: 923a 833c 93ac 4abd 9dbb e0bc 1e13 12be
000003c0: 10f1 cf3b a5ff 80bd d434 823e 7259 b9bb
000003d0: a0d5 95bd 81bd 3a3e ac0b f73d b9b8 d03d
000003e0: 7e3e 133e 1287 0b3e 270e 38bd 1438 86bd
000003f0: 1b6f f3bd 0145 a8bd 7cc3 323e 8639 00bf

layers.1.bias f4 [128]
-0.04881729 0.06588129 0.05956709 0.08170066 0.20030859 0.14692186 -0.0058572153 0.028520698
-0.18434766 0.112748645 0.26323575 0.06437695 -0.40994135 -0.0037470467 0.08795975 0.2305522
0.09506642 0.17319563 0.3149358 0.19453935 0.019532336 0.08518284 0.037129585 -0.07014288
-0.08272934 0.3993819 0.10880404 -0.024722703 0.062155474 0.30163762 -0.103432804 0.22477768
0.11798624 -0.0013450687 -0.22914723 -0.31059277 -0.1577391 0.30963483 0.19262493 -0.04811042
0.041479725 -0.24980232 0.1291674 -0.111541964 0.14476377 -0.014163983 -0.027744975 0.114698514
0.28478482 0.07011547 -0.2573566 0.08919267 0.13894752 -0.06714951 0.20157005 -0.15699168
-0.03849755 0.15076846 0.025684245 -0.2654138 0.104837485 -0.018183377 -0.08824665 -0.06937551
0.19041434 0.10003147 -0.03446234 0.14948012 0.20575397 -0.0064443676 0.04218022 -0.015940556
-0.08274814 -0.006137689 -0.144896 -0.4215092 0.31146652 -0.04950299 0.020253789 0.15816711
0.15286887 0.13587631 -0.1273801 0.10131977 0.07754917 0.18839698 0.22202793 -0.5131111
0.10382547 -0.027787423 -0.0948086 0.15249544 -0.31209952 -0.18120947 0.0941333 0.068178125
-0.09857835 0.10471323 0.29058626 -0.0192088 -0.015500669 0.254049 -0.21916974 -0.019176727
0.0057600397 -0.100814834 0.052345008 -0.14820431 0.03174926 0.17041081 0.0026414467 -0.01575885
0.1005933 -0.15803649 0.18134215 -0.08482777 0.04868617 0.020198526 0.12663102 -0.15951474
-0.1784862 -0.0025054622 -0.37270933 0.010732223 0.10538839 0.13111274 -0.054156374 0.13135718
00000000: a4f4 47bd c5ec 863d 9ffc 733d ad52 a73d
00000010: b21d 4d3e af72 163e e2ed bfbb 3da4 e93c
00000020: a2c5 3cbe c3e8 e63d d6c6 863e 10d8 833d
00000030: d5e3 d1be 0391 75bb 3e24 b43d e015 6c3e
00000040: 2fb2 c23d 325a 313e 443f a13e 5335 473e
00000050: 4702 a03c 5774 ae3d 3115 183d 12a7 8fbd
00000060: 006e a9bd c97b cc3e a7d4 de3d 4487 cabc
00000070: bd96 7e3d 3f70 9a3e 94d4 d3bd 1f2c 663e
00000080: c5a2 f13d 044d b0ba 92a5 6abe 0406 9fbe
00000090: 5c86 21be 7588 9e3e 783f 453e 6f0f 45bd
000000a0: a5e6 293d 2ecc 7fbe 7544 043e 1d70 e4bd
000000b0: f43c 143e 0d10 68bc 6e49 e3bc 0ee7 ea3d
000000c0: 51cf 913e b398 8f3d 3fc4 83be a6aa b63d
000000d0: 4248 0e3e af85 89bd 6168 4e3e 6dc2 20be
000000e0: 9baf 1dbd 0c63 1a3e c467 d23c 51e4 87be
000000f0: 09b5 d63d 4ef5 94bc a9ba b4bd bf14 8ebd
00000100: fafb 423e 4ddd cc3d 6228 0dbd 5111 193e
00000110: 2bb1 523e 462b d3bb 2bc5 2c3d c595 82bc
00000120: db77 a9bd ab1e c9bb 9e5f 14be 0ed0 d7be
00000130: 8a78 9f3e a6c3 4abd 46eb a53c 8ff6 213e
00000140: a889 1c3e 2923 0b3e ee6f 02be bd80 cf3d
00000150: 19d2 9e3d 23eb 403e 4a5b 633e 405b 03bf
00000160: 73a2 d43d 73a2 e3bc 032b c2bd c427 1c3e
00000170: 82cb 9fbe fa8e 39be f6c8 c03d f9a0 8b3d
00000180: 72e3 c9bd e473 d63d b9c7 943e c65b 9dbc
00000190: 85f6 7dbc b612 823e 086e 60be 8318 9dbc
000001a0: b7be bc3b 0278 cebd b867 563d dfc2 17be
000001b0: 830b 023d 2c80 2e3e 1f1c 2d3b b418 81bc
000001c0: dc03 ce3d 51d4 21be c2b1 393e 2fba adbd
000001d0: 266b 473d 6177 a53c 90ab 013e d557 23be
000001e0: 16c5 36be ae32 24bb c2d3 bebe 35d6 2f3c
000001f0: ded5 d73d 6b42 063e 13d3 5dbd 7f82 063e
